final_project/mlruns/3/0671d91d15a34277869ed49560246e78/artifacts/cvae_0/data/model.pth (torch, 50311 bytes, 10 tensors)

weight f4 [80, 17]
00000000: 83c9 473e d57d 5b3e b8d1 47bd 65e1 703e
00000010: a595 a8bd 91c2 2f3d 85fb aabd c22e 113e
00000020: d101 653e 0b7b 33be 67f4 3e3e 8379 3a3d
00000030: 1515 4f3e f350 b43c 6566 113e d8ab f7bc
00000040: 7426 443e 458e 9d3d 0c43 ebbd 1f86 c63c
00000050: 1520 cdbd 2793 85bc 26b3 b7bd 390a ff3d
00000060: d14e 78be 54ce 18be 238c eabd 577c 70be
00000070: 95c9 703c 1182 6ebe 4aff 703e 8c40 4fbe
00000080: 01ad 633e d3ac 963c 4bc3 a5bd 4460 1b3e
00000090: ca63 9e3d 1985 2c3e 94a2 933d 2863 a3bd
000000a0: f5b8 7e3d 1b9f 7abd b2a7 e73d f552 5f3e
000000b0: 8770 093e 452e e9bd 9e15 283e 7421 f63c
000000c0: f717 153e 94b6 23be 5bd9 6abe 2879 adbd
000000d0: 90c7 16be 195b 5b3e 38ea ac3d bfb6 ed3d
000000e0: 6c50 8b3d dca6 38bc e291 2b3e e613 2cbe
000000f0: 2227 2abc a182 35be ec95 693d e7eb 9bbd
00000100: 8198 c23d c4f1 5abd 709b 6b3e c081 02be
00000110: 6a40 31be c2e6 febd 30b1 633e 74c7 d23d
00000120: b206 6e3e 9a51 47be 6a40 84be 41e2 36be
00000130: 87b5 3abe 363c c03d e3be 943d 5802 563e
00000140: 35fe 05be 9d00 20be 015c 243e ca3f d3bd
00000150: c0c2 303e dd8a cabc 32d7 103e 3b08 65be
00000160: 16aa 07be e7be 813d aaaf 433d 35b9 1dbd
00000170: 4489 1b3e f0f5 3d3e b2a3 5dbe 4ce5 32be
00000180: da47 773e c2a8 59bd b8eb 9fbd 0274 58be
00000190: 907c 0cbe b216 9f3d 872c c0bc be20 39be
000001a0: 9cc1 a1bb c6c3 24be a078 55be c391 ecbd
000001b0: 7b37 6abe 950b 0fbe 3b7d 993e 4c48 773d
000001c0: 2fd4 513d 9ce2 71be 6a80 34be 4f29 debd
000001d0: 25d8 7b3d f25e 63be 7c95 c5bd cd82 0ebe
000001e0: e945 24bb 4847 62bd f1e7 50bd d099 01be
000001f0: 2ddb 3fbe d141 fbbd aee8 e2bd 7de4 51be
00000200: e212 513e 1bb9 53bd 5aa2 5f3e 366b fc3d
00000210: d9da 7cbe 85e1 1d3e de53 80bd fa22 9bbd
00000220: fc37 3bbe 209a 71be 886f fd3c 7579 1dbd
00000230: 3835 c13d 3075 52be 3459 0f3e 719e 46be
00000240: de77 6fbd 63ec 04bb 95b7 0b3e bd24 683e
00000250: b003 593e ea89 49be 509a 923d 581f a6bd
00000260: 907a 17bd 676c 39be 73fd 653e c0bc 39be
00000270: 27d5 f73d efa3 f83d dd91 d23d 3b68 04be
00000280: 8ce6 343e dd95 9d3d d29e 473c f276 79be
00000290: b66e f23d 5354 c6bc 8158 fabd 0f10 4f3e
000002a0: 7c87 5a3d 77bd 00be cdc7 babd 348d 233c
000002b0: c400 fa3d 6ef8 2cbd 025c e5bd f81f bcbd
000002c0: b286 2fbe 6f80 a53d 018c 6a3e a311 82be
000002d0: 1200 6e3d dc30 f43d 697c 613d c5b2 cbbd
000002e0: 1075 f23d 572b 1e3e 2ab8 7c3d c230 88bb
000002f0: 2500 7dbd 1d8c 1e3d 7add 1abd fd35 31bd
00000300: c5e2 1d3e af25 5d3e 5ad2 edbc 6ec9 d0bc
00000310: 0d74 fbbc a10b 10bd 75a0 ab3d 6576 fa3d
00000320: f4b3 6bbe 6c21 47bd 626f 783e bfc7 e03d
00000330: ba6d 60bb f224 19be 0545 1fbe 86ee 5bbe
00000340: 3a78 96bd 9f52 843d 10c0 243e f626 d63d
00000350: 5780 6cbe 86d3 10be e43d 52bd c863 893e
00000360: 4ff5 4e3d 6fcf 60bd ec51 c93d 5b72 acbd
00000370: 098c 29be 548a 713e c2f7 e7bd 3082 b63b
00000380: 4576 95be 0298 3c3e 1821 263e f05b d63d
00000390: 838e 3bbe e39a 73be 0b58 3ebe b9af 3b3e
000003a0: 1285 1c3e 4a99 863e 8047 743d 0c9c 363d
000003b0: fc45 e2bc c3b2 4dbe db98 42be 5657 7fbe
000003c0: a2c2 4e3d 9e72 abbd dcb0 a2bd 3586 1dbe
000003d0: dcec dfbc 1f98 45be 89fc 32be 6beb 533d
000003e0: 7da7 d4bd ec71 1d3e 6215 c6bd 2d29 22be
000003f0: d4b7 6bbd da0a fcbd 7941 aebd eb1f 69be
0.19510464 0.2143472 -0.048783988 0.23523481 -0.082316674 0.042910162 -0.08348755 0.14177993
0.22363974 -0.17527406 0.1864792 0.04552604 0.20222886 0.022011256 0.14199217 -0.030233309
0.19155294 0.076931514 -0.114873976 0.024233876 -0.10015885 -0.01630552 -0.08969717 0.12453122
-0.24248816 -0.14922458 -0.1145251 -0.23484932 0.014696498 -0.23291804 0.23534885 -0.20239466
0.22233965 0.018392956 -0.0809389 0.15173441 0.07733877 0.16847648 0.07208744 -0.07977897
0.062188108 -0.06118689 0.11311282 0.2180899 0.13421832 -0.11385778 0.16414496 0.030045249
0.14559923 -0.15987617 -0.22934477 -0.08470374 -0.14724565 0.2142147 0.08443111 0.11607122
0.06802449 -0.011270251 0.16754869 -0.16804466 -0.010385307 -0.17725612 0.057027742 -0.07613354
0.09501744 -0.053453222 0.23008513 -0.12744808 -0.17309728 -0.12446357 0.2223556 0.10291949
0.23244742 -0.19464722 -0.25830394 -0.17859747 -0.1823331 0.09386484 0.07262971 0.20899332
-0.13085254 -0.15625234 0.16050722 -0.10314901 0.17261791 -0.024724418 0.1414459 -0.22366421
-0.13248476 0.0633524 0.04777495 -0.038506705 0.15189081 0.18550849 -0.21644476 -0.17470282
0.24148503 -0.053139456 -0.07808632 -0.21138003 -0.13719392 0.07768001 -0.023458732 -0.18078896
-0.00493641 -0.16090307 -0.20846796 -0.11551239 -0.22872727 -0.13969262 0.29978356 0.060371682
0.051227745 -0.23621601 -0.17627111 -0.10847723 0.06148543 -0.22204188 -0.096476525 -0.13917084
-0.0025066084 -0.05524376 -0.051002447 -0.12656331 -0.18735953 -0.12268413 -0.110795364 -0.20497318
0.2041736 -0.051690202 0.21839276 0.12325136 -0.24692859 0.1541806 -0.062659964 -0.075750306
-0.18283075 -0.2359395 0.030936971 -0.03844591 0.09433979 -0.20552516 0.13998872 -0.19396378
-0.058463924 -0.00202825 0.1364425 0.22670265 0.21192813 -0.19681516 0.07158339 -0.08111447
-0.03698212 -0.18107758 0.22459964 -0.18138409 0.121012025 0.12140643 0.102817275 -0.12930386
0.17666072 0.076946 0.012183862 -0.2436178 0.11837523 -0.02421013 -0.12223912 0.2022097
0.053351864 -0.12572275 -0.0912014 0.009982396 0.12207177 -0.04222911 -0.1119919 -0.09185785
-0.17141226 0.080811374 0.2290497 -0.2540408 0.058105536 0.11923382 0.055050287 -0.09946207
0.11838734 0.1544622 0.06169907 -0.004156203 -0.061767716 0.03870784 -0.037808873 -0.043264378
0.15418537 0.21596406 -0.029030968 -0.025486674 -0.030694986 -0.03516734 0.08380214 0.12229613
-0.23017865 -0.048615858 0.24261239 0.109755985 -0.003424509 -0.149555 -0.15553673 -0.21477708
-0.0734715 0.06461071 0.16088891 0.1045665 -0.23095833 -0.1414319 -0.051328555 0.2683394
0.050526913 -0.054885324 0.098300785 -0.08420249 -0.16557325 0.23587924 -0.11326553 0.005569719
-0.29191795 0.18417361 0.16223562 0.104667544 -0.18316083 -0.23789553 -0.18588273 0.18328752
0.15285137 0.26288825 0.0596385 0.04458241 -0.027621262 -0.20087723 -0.19003622 -0.2493566
0.050478585 -0.08371471 -0.079438895 -0.15383227 -0.027334623 -0.19296311 -0.17479147 0.051738184
-0.10383508 0.15375489 -0.09672047 -0.1583602 -0.05754836 -0.12306757 -0.08508582 -0.22766082

bias f4 [80]
00000000: b987 21be 7515 583e 1b3d 6fbe 2fc3 023e
00000010: 115f 2c3e 089d fcbd b34d dcbd f678 10be
00000020: 1a45 c43e f6a5 933e 4716 eb3d 96b1 de3e
00000030: d271 2bbd 8673 64be 1a5b 3c3e 7c9d 003e
00000040: 4f9d b13e dd04 f43b 2ad7 843e 5bf2 8e3e
00000050: f407 8b3e 6fb1 86be 83f7 813e 205a 10be
00000060: b514 8e3e 772e 343c 5e38 12be 7fac 183e
00000070: 4ce1 723c e0b7 4dbe f4ec a1bd 9d73 ca3d
00000080: a80f a73e 71e4 4dbc 500f 993e 66b0 2e3e
00000090: 3005 d13d faef 433e 6135 d9bd 6f08 31be
000000a0: 4693 52bc d0ba 48be caaa d4bc 469b 293e
000000b0: 80da 09be 82e7 fbbb 3bd4 43bd 4a02 a53d
000000c0: 9fe7 b0bd 4ac6 b23d d1ee a13d 09d4 0e3e
000000d0: 8c59 703c a74b 90bd 7320 4bbd 77e8 933d
000000e0: ea18 1cbe 5edf 3d3d a909 8e3d 2155 263e
000000f0: fb5d 313e 6b7e a03e b363 953d 7841 8dbd
00000100: 56ff 473e 623e 6abd 5f8f 57bb 963a b23c
00000110: 4e21 bcbd 49ff 9b3d 9062 a63e 42b4 313e
00000120: 9eb2 003e c859 a43e f0b7 6ebe 1240 a93d
00000130: ec68 893e d41d 713e 1a46 4fbe 4406 3c3e
-0.1577443 0.21101935 -0.23363154 0.12769769 0.1683314 -0.12334639 -0.107570074 -0.14108643
0.3833397 0.28837556 0.114788584 0.43494862 -0.041856594 -0.22309694 0.18394127 0.12560076
0.3469033 0.007446869 0.25945407 0.27919278 0.27154505 -0.26307246 0.2538415 -0.1409688
0.27750173 0.010997406 -0.14279315 0.14909552 0.014824223 -0.20089674 -0.07906523 0.09885333
0.32629132 -0.012566672 0.29894495 0.17059478 0.102060676 0.19134513 -0.10605884 -0.17288373
-0.012852496 -0.19602513 -0.025960345 0.16563138 -0.13462257 -0.00768751 -0.04780982 0.08057077
-0.08637928 0.08729227 0.07906879 0.13948072 0.014669787 -0.070456795 -0.049591493 0.072220735
-0.15243879 0.046355598 0.06935436 0.16243412 0.17321007 0.3134645 0.07294407 -0.06897253
0.19530997 -0.0571884 -0.0032891852 0.021756452 -0.0918604 0.07617051 0.32497072 0.17353919
0.12568137 0.32099748 -0.23312354 0.082641736 0.26837862 0.23546535 -0.20241585 0.18361765

weight f4 [40, 80]
00000000: 1925 b0bd 13d3 3dbd 5ec4 4cbd bade f6bd
00000010: d73f f0bd 9b6d b9bd 50f1 77bb d7a6 413d
00000020: 77b0 f0bd 37fd acbd 8d13 03bd f988 20be
00000030: 6609 253d 1e88 c43d 7990 5f3a 0303 d5bd
00000040: 5e4b 8dbc 5baf 2a3c d7a7 4d3d a99d d4bd
00000050: cc74 f4bd 4247 013d 285b dabc 8010 1ebd
00000060: 4935 d9bd 5d1a b5bd 7967 793d 80b9 06bd
00000070: 1aee 783d c8f0 d73d ff68 c73b 0612 4ebc
00000080: f7bb b6bd a8f7 1a3d 751e 18be 1eb3 27bb
00000090: 9ed4 76bd a9d5 a03c ee43 1bbd acb0 9abd
000000a0: c33a e2bc f34e 423d 9b8e debd e1b7 f1bd
000000b0: 0f0c c3bc aa7d 92bd a18c d93c 05de 853c
000000c0: df28 38bc 5637 813d 2ed1 c5bd 889f a1bd
000000d0: 24a4 67bd cf32 b1bd 082f cebd 93f8 01be
000000e0: 960d f0bd e43c f539 1659 0b3d 839e 883d
000000f0: c3f8 853d 0ec0 2abd 0c09 82bc d4ba ccbd
00000100: 32cb c63c 57c3 1cbe 9549 2f3c baab 94bc
00000110: cd82 733c 05ec 57bb b7f8 e4bd 2fba 523d
00000120: e740 8c3c 2a1a 793c 1cdb 87bb 4887 643d
00000130: 5a7c 0b3d f987 8b3b a747 9b3d ef83 15bd
00000140: 1a09 903d 19be 893c d9c7 8e3d 1457 c43d
00000150: ba92 a13c 7bd9 72bd 1c9d 08bc 9233 7c3c
00000160: ecb7 3a3c dd1b 5ebd 99b5 b23d 2f04 6d3d
00000170: 57f5 a1bd b5a8 81bc de93 bcbc 6019 87bd
00000180: ed77 133c 7838 2cbd ee31 78bd f067 54bd
00000190: f9f3 3abd e89f aa3d d27e eb3c c8b3 df3d
000001a0: fc72 e13c c23a bf3c c689 193d f836 4b3c
000001b0: 99dc c1bd 3112 95bd e128 2fbd fd5b a6bb
000001c0: 3b6a 2c3d 1cd0 1f3d d6c3 b13d 16c5 7d3c
000001d0: ffc6 5dbd 7dd8 babd af49 c2bd d7a8 7cbd
000001e0: 00c7 bb3c 276e 803d 52b6 813d 5b4e 56bd
000001f0: 248f 04bd ea50 05bd e11b b9ba 893b a33c
00000200: 4cc8 84bb 02be 27bb c929 653b fa24 fb3c
00000210: 6405 14bd 21be 90bd da1c b13c 0907 a2bc
00000220: 6cd5 5cbd def6 2b3d 3be0 03bc 3f96 a8bc
00000230: 5786 6ebd 9414 98bc 6ad3 02be eb3b 873c
00000240: 8784 afbb 2a93 883d 4933 b23c 8808 dd3c
00000250: f5dc b63c 0be9 933d 567f 78bd 07ce 413d
00000260: 8cdb e43c c257 afbd a894 083d 80dc 94bd
00000270: 8b85 1dbd c600 73bd a124 9dbd 374a a33d
00000280: 5645 82bd 7456 ad3d ab3c 9ebd 5c2e 453c
00000290: ab4b cc3c dccc ac3d 51f0 aabc 0a60 2d3d
000002a0: f49c 393d ec91 b43d b391 093d 1b71 a53d
000002b0: 83da 57bd 2e35 6cbd 185f fd3d ddca 48bd
000002c0: 9a5e 803c a2b9 2f3c 74b8 143e 4519 36ba
000002d0: 7856 65bd 865f 74bc a162 a23d 5508 a13d
000002e0: 0883 083e 5589 713c 6621 9b3d bb3c a5bd
000002f0: a831 a03d ecf2 943d a1e2 923d b943 d0bc
00000300: 1f04 5a3c 7078 753d d4fa 29bd 3d5d 69bd
00000310: 8e02 95bd cefc 173d bece a83d 7fd1 553d
00000320: b08f b33c 4bf4 9f3d decc 64bd 6a43 383d
00000330: c7b6 71bc a1f7 17bc 1a6f 013e 0656 91bd
00000340: b13f 613d 3b06 81bd 962b b73c 19bb c5bc
00000350: ff3a 893d 6e50 11bd 68d1 d73d 6a67 56bd
00000360: 5378 ca3d 7fc5 55bd 235a 8f3d 9a3e 68bc
00000370: 187a 223d 66c0 3c3c 54b9 a73d 3a19 923d
00000380: af7e 8abd 9934 453d d83b 3dbd b3cc 003e
00000390: c7a3 333d eca8 c9bb 94d0 bebc dd51 6a3d
000003a0: e418 f5bc 9c81 a33d 1e9e aa3d a841 c23d
000003b0: cc8a 883d 8895 71bd 23a2 d83d 3baf 09bc
000003c0: 47ac eabc 57e8 4ebd f605 9f3d 1bbd 813d
000003d0: 44b8 2dbb 52bf d03c 8abe c1bd d934 06bc
000003e0: 8729 f7bd ca95 b13c 8e73 a1bd 0840 9dbd
000003f0: 8be6 263d e873 9b3d c3b4 bbbd a66b a1bd
-0.08600826 -0.046343874 -0.049991958 -0.120542005 -0.117309265 -0.09054109 -0.0037833042 0.04727825
-0.11752408 -0.084467344 -0.032001067 -0.15677251 0.040292166 0.09596275 0.0008528303 -0.10400965
-0.017247852 0.010417785 0.050208893 -0.10381634 -0.1193634 0.031562097 -0.026654795 -0.038589954
-0.106058665 -0.08842919 0.060889695 -0.03289175 0.060773946 0.10543972 0.0060855146 -0.012577539
-0.0892257 0.03783384 -0.14855368 -0.002558894 -0.06026136 0.019633131 -0.03790658 -0.07553229
-0.02761591 0.047438573 -0.108670436 -0.1180265 -0.02380946 -0.07152875 0.026556315 0.016341219
-0.011240213 0.063093826 -0.096590385 -0.07891756 -0.05655302 -0.08652269 -0.10067564 -0.1269248
-0.11721341 0.0004677541 0.034020506 0.06670859 0.06541588 -0.041687064 -0.015873455 -0.09996572
0.024266813 -0.15308891 0.010698696 -0.018148292 0.014862728 -0.0032947075 -0.11180251 0.05144709
0.017120792 0.015203992 -0.004145993 0.055793077 0.034054138 0.0042581526 0.07582026 -0.036502775
0.07032986 0.016814278 0.06971712 0.09586921 0.019723285 -0.059289437 -0.008338239 0.015393155
0.011396389 -0.05422579 0.08726043 0.057865318 -0.07908123 -0.015827516 -0.023019727 -0.06596637
0.0090007605 -0.04204604 -0.06059449 -0.051856935 -0.045642827 0.08331281 0.028746996 0.109229624
0.02752065 0.023343448 0.037484907 0.012403242 -0.09465904 -0.0727886 -0.042763595 -0.005076884
0.042093497 0.039016828 0.08679931 0.0154888835 -0.054144856 -0.09123323 -0.0948671 -0.061684456
0.022922039 0.0627101 0.06333603 -0.05232082 -0.032363072 -0.03254787 -0.0014122688 0.01992585
-0.0040521976 -0.0025595431 0.0034967533 0.03065728 -0.036137953 -0.07067514 0.021620203 -0.019778745
-0.053914472 0.041983478 -0.008049066 -0.020579455 -0.058233585 -0.0185645 -0.1277596 0.016508063
-0.0053563747 0.06668694 0.02175297 0.026981607 0.022322157 0.07222184 -0.060668312 0.047315624
0.02793672 -0.0856166 0.033344895 -0.072686195 -0.038457435 -0.05932691 -0.07673002 0.0797314
-0.06360881 0.08463755 -0.07726415 0.012034979 0.024938425 0.08437511 -0.020866545 0.042327918
0.045315698 0.08816895 0.033586215 0.08078214 -0.052698623 -0.057667904 0.12371653 -0.04902159
0.01567011 0.010725411 0.14523488 -0.00069465145 -0.055990666 -0.014915353 0.07928968 0.07862917
0.13331234 0.014742215 0.075747296 -0.08068224 0.07821971 0.07272896 0.07172132 -0.025422918
0.013306647 0.05992931 -0.041498974 -0.056973685 -0.07275878 0.037106328 0.08242558 0.052201744
0.021919101 0.07810267 -0.05585944 0.044986166 -0.01475305 -0.009275348 0.12640038 -0.07096486
0.05499238 -0.063000165 0.02235965 -0.024137067 0.06700706 -0.035477094 0.10537988 -0.052344717
0.09886231 -0.0521903 0.06999614 -0.014175082 0.03966722 0.011520481 0.081896454 0.07133718
-0.06762444 0.048145864 -0.04619965 0.12578087 0.043857362 -0.0061541703 -0.023292817 0.057206977
-0.029919095 0.079837054 0.0833094 0.09485179 0.066670984 -0.058980495 0.105778 -0.008403595
-0.028646601 -0.050514545 0.07764809 0.06334897 -0.0026507536 0.025481854 -0.094601706 -0.008191311
-0.120684676 0.02167787 -0.078833684 -0.076782286 0.040747207 0.07590467 -0.09165337 -0.078818604

bias f4 [40]
00000000: 5d24 dfbd 0f2a 5b3d f743 e23d 046e e5bd
00000010: b298 ae3d 6600 ea3d 282f 38bd 58ff c73d
00000020: 8896 ae3d 072e b53d e5bf a3bc 6a49 9cbd
00000030: a12f b3bd a80c 973d 9edc 64bd d853 fe3d
00000040: 873f e63d 973a 933c d69b 56bd 1f76 123d
00000050: 93dc 003e dc59 beba 5887 20bd 478d 60bd
00000060: e63b 3e3d 7058 cebd 578c ea3d 1117 2c3d
00000070: ad31 c8bc 12c0 34bc 995d babc c636 cf3d
00000080: 6e21 f03d 08d7 4f3c 0c42 3b3c 82af 42bd
00000090: b299 3c3d 6dd0 6b3c ce7e cfbd ee7c 983c
-0.108956076 0.053506907 0.110481195 -0.112026244 0.08525218 0.11425857 -0.044966847 0.097655
0.08524805 0.0884667 -0.019988963 -0.0763119 -0.08749319 0.07375461 -0.05587446 0.12418336
0.11242586 0.017972274 -0.05239471 0.03575718 0.12584142 -0.001452263 -0.039191574 -0.054822233
0.046443842 -0.10075462 0.11452549 0.042014185 -0.02443775 -0.011032121 -0.022749709 0.10117869
0.11725126 0.012685545 0.011429321 -0.04753066 0.046045013 0.014392954 -0.10131608 0.018614259

weight f4 [40, 80]
00000000: 94be afbd ebc2 a6bd 6221 d9bd f224 6fbd
00000010: b4d2 44bd e6fc f6bd 0113 c13c 333c 673d
00000020: f94e 25be 21ce 30bd daa8 07be e5d1 03be
00000030: 39ec 483a 2d65 2abd 7348 05bd bff6 93bd
00000040: 3807 263d 5a3a e3bd 98d4 30bd 4593 89bd
00000050: 2d4d 623c a3f7 2ebb 56fb fcbb c30a 02bc
00000060: e7cd 8fbb 2f85 3ebd a628 aabc 5ecc 643d
00000070: a4ff a2bd 392d abbd 5898 053d a76e abbb
00000080: 3d47 41be 4dcb 9cbc 3a44 41be ea2a 0abe
00000090: ec17 c8bc 2564 9cbb 836a 8abd dfc0 683d
000000a0: 3860 693d 9a83 7e3d b45e 26be 14a1 eebd
000000b0: 50e6 11bd 883d 153d 451b 44bd 831a 3ebd
000000c0: 664f 023d 60cb f1bd 35d6 02be 79a6 463d
000000d0: 12b0 22bd 4388 1a3d 9638 21be 38a2 b9bd
000000e0: ab1a 183d 9c3c 86bd 3261 e4bc 3907 1abe
000000f0: 4aeb 523d 230b 05be ed9f 9cbd 9506 06be
00000100: ec93 dcbd adae 1dbe 5a13 0fbe 500c 6fbd
00000110: 2ad0 babd cca2 d53b a767 a8bd 792a c03b
00000120: d0da 8bbd 21de 7ebd a4cc a73d 44bc 07be
00000130: 1c1d f3bd fc1f 1b3d 2310 53bd 35ba bdbd
00000140: 97f6 afbc 33e7 06be 75ee d4bc a57d cdbd
00000150: 7b48 27bc b7c2 82bd d9cd b5bd ff5f 9dbd
00000160: 2506 97bc ffc2 0dbc aa49 0abe 6c57 24be
00000170: d9a8 1abe 904e 933c dbf6 c43c bba7 17be
00000180: b7b6 0abd c4e5 1cbd 6f6b d6bd d4bc 21bd
00000190: 94ee 003d 64b3 9a3d 5c9a 4d3b 3ad2 48bd
000001a0: b7e3 0cbe 7f48 9dbd f082 63bd 559a 41bd
000001b0: 258c 4b3d 89df 02be 1bd3 cebc 7f23 8abd
000001c0: d640 87bd d5c3 473d 0539 87bd fda4 bdbd
000001d0: 3fe7 cfbd 7331 31be 294c 11be 9d3c 043c
000001e0: e9a0 f4bd 7643 0f3d c9ca b1bd f25b 9ebc
000001f0: a4ac 373d 755f 18bd 91e1 6e3b ad67 ee3c
00000200: d214 81bd a26d e03c c548 1abe ec5d 6a3d
00000210: 33b4 95bd 81d6 03bd 804a 153c f354 f5bc
00000220: 7d0b 493d 5763 b3bd 481e f6bd fabd 3f3d
00000230: 7a48 ddbd 1dee 3d3c 6401 553d d589 7e3c
00000240: cfdd b5bd c8a6 60bd e9d1 1abe 23da dfbd
00000250: 025c 8fbd ac2b 0dbe f6a0 2dbc 75bc 113c
00000260: 445e 9cbd 264d bfbd 82ff 983d e4f6 2bbd
00000270: ded8 e33c ce7f 6f3d 36de 8dbd aa74 21be
00000280: f89b 4a3d 7dba 05be 9f23 833d 3440 fabd
00000290: 1016 15bd 1e09 ecbc 5139 a9bd a6d2 433d
000002a0: 22ee 33be efca f3bd ad17 d6bd eba8 eabc
000002b0: d65c b53a b6eb 9e3c dd64 6cbc 2c68 603d
000002c0: 6c16 cfbd ec24 aebd 3c04 b7bd 9a05 07bd
000002d0: 9631 d0bd ee3e ed3b 4267 49bd 61fa b8bc
000002e0: 9910 853c bae5 5abd 064f d03c 48c6 b2bd
000002f0: c133 28be 449b cd3c f189 4bbb 962e 673c
00000300: 7aa7 3bbd a107 66bd de97 27be 7f8e 33be
00000310: 1a06 2cbd f0a1 d83c 8f7c 50bd 723c a7bd
00000320: 473f f4bb 49e6 bfbd 97fe c3bc bf14 37be
00000330: a208 16be 5ba0 0bbe 9977 7abd 6996 c9bc
00000340: 852d d43b 376a 04be f770 c4bd b431 06bd
00000350: 9c7c 94bd dfd0 63bd c843 9a3b 2385 d5bd
00000360: 4a3b bb3c d0d0 003d 6f67 b5bc f6fe b4bd
00000370: 62fa 1abe 968b 17be 0945 b4bd b316 e3bc
00000380: a4a9 efba a239 b6bd b033 2e3d 6480 cbbd
00000390: f1ff abbc 9872 f8bd c83b 3abd 4d72 7e3c
000003a0: ba3d 9bbc 0526 6dbd bab8 94bd 51f4 1dbe
000003b0: bcc9 1ebe 917b 37be 3741 343d 715e f2bd
000003c0: 003d 38bd 558c 26be b5b2 2fbd ecbb 543d
000003d0: 5eec 83bc dd6a 86bd 05ac b43c b9d0 6e3d
000003e0: 7dd5 333d aba5 0dbe 2102 0bbd 81c2 29be
000003f0: c9b2 f8bd 0f1e 763d f3c8 08be 54e8 98bd
-0.08581272 -0.081426464 -0.106020704 -0.058384843 -0.048052505 -0.12059955 0.023568632 0.056453895
-0.16143407 -0.04316533 -0.13248006 -0.12873037 0.00076645945 -0.041600395 -0.032539796 -0.072247975
0.040534228 -0.11095114 -0.043171495 -0.067175426 0.013812345 -0.0026697896 -0.0077203913 -0.007937136
-0.004388559 -0.046513733 -0.020771336 0.055858962 -0.07958916 -0.08358235 0.03261599 -0.0052316966
-0.18874831 -0.01913991 -0.18873683 -0.13492933 -0.02442547 -0.0047726803 -0.06758597 0.05682456
0.056976527 0.062137224 -0.16247064 -0.11651817 -0.035620034 0.036435634 -0.04787757 -0.046412002
0.031814 -0.11806369 -0.12777026 0.048498604 -0.039718695 0.037727606 -0.15744242 -0.09064144
0.037134808 -0.06554529 -0.027878378 -0.15041818 0.05149392 -0.1299253 -0.07647691 -0.13088448
-0.10770401 -0.15398665 -0.13972226 -0.05836135 -0.091217354 0.006519651 -0.08222895 0.005864438
-0.068288445 -0.062223557 0.08193329 -0.13255411 -0.118707865 0.0378723 -0.05152906 -0.09264032
-0.021479888 -0.13174133 -0.025992611 -0.100337304 -0.010210152 -0.06384795 -0.08877153 -0.076843254
-0.018435547 -0.008652448 -0.13504663 -0.16048974 -0.15103473 0.017981797 0.024043491 -0.14810078
-0.033865657 -0.03830506 -0.1046971 -0.03948672 0.031477526 0.07553747 0.0031372523 -0.049028613
-0.13758741 -0.07679843 -0.055544794 -0.047266323 0.0496942 -0.12780584 -0.025247147 -0.067450516
-0.06604163 0.048770744 -0.066026725 -0.09259985 -0.101515286 -0.1730402 -0.14189209 0.008071092
-0.11944754 0.034976445 -0.08681256 -0.019330952 0.044842377 -0.03720041 0.0036450366 0.02910217
-0.06302799 0.027396027 -0.15066822 0.057218477 -0.07309761 -0.03218699 0.009112 -0.029947734
0.04908322 -0.08759182 -0.120174944 0.046812035 -0.108048394 0.011592415 0.05200328 0.015535791
-0.08880197 -0.054846555 -0.15119137 -0.10930278 -0.06999971 -0.13786191 -0.010597458 0.008895029
-0.07635167 -0.09340887 0.07470609 -0.0419835 0.027813371 0.058471493 -0.06927149 -0.1576716
0.04946515 -0.13059421 0.064032786 -0.12219277 -0.036397994 -0.028812941 -0.08262885 0.047808312
-0.17571309 -0.11903941 -0.104537345 -0.028645 0.0013836871 0.019399505 -0.014428345 0.054786846
-0.101116985 -0.08503136 -0.089363545 -0.032964326 -0.10165708 0.007240168 -0.04917074 -0.022580327
0.016243266 -0.05344174 0.025428306 -0.087292254 -0.16425993 0.02509845 -0.0031057561 0.014110228
-0.045814015 -0.05615962 -0.16366526 -0.17534827 -0.041998006 0.026444405 -0.05090004 -0.08165826
-0.0074538323 -0.09370095 -0.023925109 -0.17879008 -0.1465173 -0.1363539 -0.061149213 -0.024607854
0.006475153 -0.12931143 -0.09591859 -0.032762244 -0.0725033 -0.055619117 0.004707787 -0.104257844
0.02285542 0.03144914 -0.022144048 -0.088376924 -0.15134576 -0.14799342 -0.0880223 -0.027720785
-0.001828481 -0.08897711 0.04252976 -0.09936598 -0.020996066 -0.12131232 -0.045467168 0.015530181
-0.018950332 -0.057897586 -0.07261796 -0.1542523 -0.15506643 -0.1791823 0.044007506 -0.118344195
-0.04498005 -0.1626447 -0.042895038 0.05193703 -0.01610392 -0.06563351 0.022054682 0.058304522
0.04390477 -0.13832729 -0.033937577 -0.16578104 -0.121434756 0.06008726 -0.13357906 -0.07466188

bias f4 [40]
00000000: 9c2b 85bc 29a1 2ebe a240 bdbc ae37 c0bd
00000010: 0f4f bbbd 3b72 80bd c3f4 61bd 3701 13be
00000020: 2e0e 57bd 833b 50be 575b 17be 95e1 ebbd
00000030: 93ab e9bd 1103 d0bb b834 11be 2de2 29bc
00000040: d536 08bd 6443 58bd 23af bdbb 002b 2ebe
00000050: b1b8 2ebe 2fa6 bcbd b0b8 1dbd cb45 d0bc
00000060: 3776 d6bd c565 593c a804 64bd e2c3 5ebd
00000070: 7791 08be 19eb 5ebd 839e f1bd 9a6b 39be
00000080: 313a 23be ab5d 21be 7c88 d6bd 7cf4 05be
00000090: cd1c ab3c e8c3 52bd d4fe 37be e089 a8bd
-0.016256146 -0.17053665 -0.023102108 -0.0938562 -0.091459386 -0.06271788 -0.055165064 -0.14355932
-0.052503757 -0.20335202 -0.14780937 -0.11517636 -0.11409678 -0.006348022 -0.14180267 -0.010368866
-0.033255417 -0.052798644 -0.0057887 -0.1700859 -0.17062642 -0.092113845 -0.03850621 -0.025423905
-0.104717664 0.013268893 -0.055668503 -0.054386027 -0.1333674 -0.054423425 -0.11797812 -0.18107453
-0.15940167 -0.15758388 -0.10475251 -0.13081545 0.020887757 -0.051456362 -0.17968303 -0.082294226

weight f4 [80, 40]
00000000: ab37 0a3e 61e5 dbbc a82e 9abb 5458 ab3d
00000010: ba58 4ebd a67e ccbd 0636 71bd 9452 b8bc
00000020: 1e34 dd3d ef85 cfbd ab24 ad3c ea6f 39bd
00000030: 0c67 19bc a35f 1e3c 4dce 73bd 7a79 843d
00000040: a1fd 143d 0098 a9bd 3214 b73d 40df 123e
00000050: e569 bebd e66b dc3c c687 28bd a5b9 b63d
00000060: 7af2 c0bc d46e 06be 1458 7fbb 6609 e23d
00000070: 98dc 313d da93 1dbd a455 fa3b e94c a03d
00000080: c5c4 d93d 5424 1bbd 2958 a83d 697b 973d
00000090: a10f 0e3e 29ee e43d cdea ccbd 615c e4bd
000000a0: b3ec c6bd 85bf 8f3d 10de d8bd 2c2a c93d
000000b0: 4582 cbbc cde7 8bbd c831 f03d 32c6 65bb
000000c0: dbd8 c5bd ae33 3cba 977d 9abd 5a65 e5bd
000000d0: 7956 08bd e2fa 79bb 4344 77bd 39b5 233e
000000e0: c7f7 33bd 97a8 04bd fb35 e03d 25fe 2cbb
000000f0: cff9 6dbd cf4f d23c 09ec fabd 4bb7 113e
00000100: 6bfd d83b f545 9a3d 4d33 e8bd 4bba f63d
00000110: e20b a3bd 3a1b 63bd 6d83 9abd 4255 94bd
00000120: 9dc3 f33c 829f 01be 6833 12be 1063 2c3d
00000130: 655e ea3c 3061 413c b7ac edbc d314 69bc
00000140: 39a5 60bc d8c9 28bb 6d21 abbd 597a 9b3d
00000150: e155 453d 70ed dbbd b81c 45bd 8e23 cdbd
00000160: d3dd b9bd 4e98 c93d 4cab 463d ecbb 9b3d
00000170: f5f3 94bc b3e5 29bd ca17 313d 2bd0 00be
00000180: 9a01 fcbd a475 a63d b636 88bc dd60 9c3d
00000190: e0e1 fe3d 55ff 843d d5e7 bebc 3cee 10bd
000001a0: ed3f 46bd 9dcf 833c 315c 343a 858f 0ebe
000001b0: 6706 b4bd 6710 f93d acca b33b 1975 80bd
000001c0: 1888 b53d f1ab 25bd 4cd3 87bd fb80 e03d
000001d0: 6140 bfbd 26a3 8bbd e39c 053e 9b89 c9bc
000001e0: 9a22 71bd 0fe7 dc3d 9856 ebbb c4e1 1ebe
000001f0: 0a1c d7bd b812 8ebd ec95 b0bc 61b0 fabd
00000200: da98 94bd c6b3 873d 8deb f6bd 0e6e eabd
00000210: b48c 473d b7ee 333d 379c 07be 6e65 d3bd
00000220: 955c ef3d 53ff 1e3e 98e4 9ebd 1d14 e13d
00000230: 3828 823d 32ac e43d 94f8 b7bd f2a9 bebc
00000240: f0cc cd3d 6728 2e3d 5668 14be b719 a63d
00000250: 6be1 2b3e aede ccbd b12e 04be d0ed ecbd
00000260: 9a7f 07be 45bf 05bd 95dc c9bd 6d82 f6bd
00000270: 6639 9c3d 9a9c 093e 73ba 3f3e b045 e63d
00000280: 2758 983d bbe9 34bd 9124 bdbd 1b56 93bd
00000290: cd0e 503d 6d0d 503d 7eb7 173d 861c 90bd
000002a0: eed1 86bd 5d0f 87bd 6259 83bc 10e6 13bd
000002b0: 5007 6aba 2b7d 83bd 975f 15bd 4e55 02be
000002c0: 32b0 913d 1e23 11be 6efe cc3a 8c15 01be
000002d0: 0950 5bbd 5b30 123e 556a a2bc 24ef 77bc
000002e0: 1c08 683d fbfa e3bd 690b 98bc b2ed 673b
000002f0: 9213 553d 948c 54bd 8d1b e3bd b5ce 10be
00000300: dd14 aebb 0183 fa3d fde4 15bd 003e a3bb
00000310: 6179 ce3d 67a4 02be 4e15 e73d f067 043e
00000320: 9bd1 7abd 0d74 143e 2ba1 c63d 026d d73d
00000330: 32f1 223e 7849 713c 1cf1 3f3d 709b b3bd
00000340: ffd1 303c 7065 123e 664d d8bc 7435 023d
00000350: 5894 67bd c632 513d 8831 3b3d 944b e03d
00000360: 4664 c13a fc90 7c3d 0ae2 9f3d fb26 bd3c
00000370: 2254 21be f2f2 a93d 1b75 b9bd 4e71 263d
00000380: 2454 fdbd a407 623d 7f8a 3cbd dfa1 f6bd
00000390: 4bc0 603d dfdd 17bc d799 afbd 7c26 94bd
000003a0: 8aad b93d fcbb 5b3d aac2 0d3d c14b 943d
000003b0: 812a d03d cdb1 933d a91f fe3d 9751 ad3d
000003c0: 1553 a9bd 53e1 82bc f526 a53d 1c15 ca3d
000003d0: e388 f1bd d66c 9cbd e69c b1bd a378 143e
000003e0: d413 1a3e 5017 87bd 13b4 5dbd 1959 e93c
000003f0: a318 d93b a5ed 80bd e557 a8bd b4b1 84bd
0.13497798 -0.026842775 -0.004705269 0.08366457 -0.050377585 -0.09985094 -0.05888941 -0.022500314
0.10800956 -0.10132968 0.021135649 -0.045272745 -0.009362947 0.009666356 -0.059522916 0.06468482
0.036374692 -0.08280945 0.08939399 0.14342976 -0.092975415 0.026906919 -0.04114511 0.08922128
-0.023553122 -0.13128215 -0.003896241 0.11036949 0.043423265 -0.03847108 0.0076396037 0.078271694
0.10633234 -0.037876442 0.0821994 0.073965855 0.1387315 0.11178238 -0.10005722 -0.111504324
-0.097131155 0.07018951 -0.1058923 0.09822497 -0.02484239 -0.06831322 0.11728245 -0.003506076
-0.096605025 -0.0007179332 -0.075434856 -0.11200972 -0.03328559 -0.0038143923 -0.060367834 0.159871
-0.04393747 -0.032387342 0.10947796 -0.00263966 -0.058099564 0.025672821 -0.122520514 0.14230077
0.0066220067 0.075328745 -0.1133791 0.12047251 -0.07961251 -0.055445887 -0.07544599 -0.07242824
0.029756362 -0.12658504 -0.14277422 0.04208666 0.028609464 0.011802956 -0.02901302 -0.014226156
-0.013711267 -0.0025755074 -0.08355985 0.07591695 0.048177604 -0.10738647 -0.04812309 -0.10016547
-0.09075513 0.09843503 0.048503205 0.07604203 -0.018182734 -0.041478824 0.043235578 -0.1257941
-0.12304993 0.08127907 -0.01662765 0.07635663 0.12445426 0.06494013 -0.023303906 -0.035383448
-0.048400808 0.016090209 0.00068801927 -0.13921936 -0.08790284 0.121613316 0.005486807 -0.062723346
0.088638484 -0.04044718 -0.066320986 0.10962101 -0.09338451 -0.068182275 0.13048129 -0.024601748
-0.05887089 0.107862584 -0.0071819536 -0.1551581 -0.10503395 -0.06937164 -0.021555863 -0.12240673
-0.072557166 0.06626086 -0.120566465 -0.114467725 0.04871817 0.043928828 -0.13243185 -0.103220806
0.116875805 0.15527086 -0.077584445 0.109901644 0.06355327 0.11165656 -0.089829594 -0.023274396
0.10048854 0.042519 -0.14492926 0.081103735 0.16785209 -0.1000341 -0.12908436 -0.11568797
-0.1323227 -0.032653112 -0.09856526 -0.120365955 0.076281354 0.13438645 0.18723468 0.112437606
0.07438689 -0.044168215 -0.0923549 -0.07194158 0.050795365 0.050794054 0.037040226 -0.070366904
-0.0658301 -0.06594727 -0.016033832 -0.036108077 -0.0008927481 -0.06420358 -0.036468115 -0.12727854
0.07113685 -0.14173552 0.0015639791 -0.12605876 -0.053543124 0.14276259 -0.019826094 -0.015132699
0.05664836 -0.11131855 -0.018560128 0.003538948 0.052020617 -0.05189188 -0.11089239 -0.14141352
-0.0053125457 0.12232018 -0.036595333 -0.004981756 0.10081745 -0.12758027 0.112833604 0.12930274
-0.06123505 0.14497395 0.09698709 0.105188385 0.15912321 0.014726989 0.0468608 -0.08769882
0.0107922545 0.14296508 -0.026404094 0.031789258 -0.056537956 0.051073812 0.045701534 0.109519154
0.0014754615 0.061661705 0.078067854 0.023089876 -0.1575475 0.08298291 -0.09055539 0.0406354
-0.12369564 0.055183068 -0.046030518 -0.12042593 0.054870885 -0.009269207 -0.085742645 -0.07233903
0.09066303 0.053646073 0.034609474 0.072410114 0.10164357 0.07211647 0.124083824 0.08462828
-0.082678 -0.015976584 0.08064071 0.098673075 -0.11793687 -0.07637946 -0.08672504 0.14499144
0.15046626 -0.065962434 -0.05412681 0.028484868 0.0066252514 -0.06295327 -0.082198896 -0.06479207

bias f4 [80]
00000000: abed b7bd 79ef 953d e7c7 5abd 071a 823d
00000010: 8bfb f5bc 8b28 36be 7aa1 e6bc f820 d7bd
00000020: 180c bbbd a18c 4bbd 9d96 cebd 4a58 eebc
00000030: bb0b 98bd a278 15be b5d2 c13c 554f 27be
00000040: ee8d 1bbe 6b9a 7cbd c607 7fbd 6343 3abe
00000050: 4cfc 953d bfab b53b 3510 423d debe 2abd
00000060: 7a5c 85bd 799c bbbd 76b4 cebc 6e78 16be
00000070: e934 423d 03c5 e13b 2c96 af3d 475b 38be
00000080: af87 5bbd ffdd 9bbd f77c c6bc 4dd2 c63b
00000090: 77da 87bd 8db4 28bd 7d83 f8bc bb4a 763c
000000a0: f261 fcbd 1e20 50bd aad7 8a3d 342f b43d
000000b0: 6abb dabc 78f8 8cbb 8b75 313c 4d23 463d
000000c0: 79bb 44bc 2d6d 0dbe 1fd9 2abe e534 513d
000000d0: 0d08 ecbd ad4e 003d 540c 3abe c686 523d
000000e0: d356 ba3c 4504 8abd d1a4 1fbe 05d6 26bd
000000f0: 38f7 853d 6b96 9e3d ec7b a0bc 308c 49bd
00000100: df60 003e ecd4 163d db36 eb3d e7fd 083e
00000110: 811a f7bd 9295 fbbd 1d72 96bd f76d 3ebd
00000120: 9e2c 053e d8dc 08be 46c0 343d 9f85 aa3d
00000130: 05a6 c1bc d7e7 26be a671 26be d6e9 adbc
-0.089808784 0.073210664 -0.053413298 0.063526206 -0.030027172 -0.17788903 -0.02815317 -0.10504335
-0.09133166 -0.04969466 -0.10087321 -0.029094834 -0.074241124 -0.14596799 0.023660043 -0.16338857
-0.1519086 -0.061670702 -0.062263273 -0.18189768 0.073235124 0.0055441554 0.047378737 -0.04168593
-0.06511779 -0.09160704 -0.025232535 -0.14694378 0.04741374 0.0068899407 0.08573565 -0.1800357
-0.053596195 -0.07610702 -0.02422951 0.0060675503 -0.06633466 -0.04118781 -0.030336136 0.015032466
-0.12323369 -0.05081188 0.06779416 0.08798066 -0.026700694 -0.0043020807 0.010831247 0.04837351
-0.012007588 -0.13811179 -0.16684388 0.051075835 -0.11524973 0.03132503 -0.18168765 0.05139806
0.02274648 -0.067390956 -0.15590216 -0.04073145 0.06541294 0.07743534 -0.01959034 -0.04920596
0.12536953 0.036824152 0.11485072 0.13378106 -0.12065602 -0.12284388 -0.07345984 -0.04649159
0.13005301 -0.13365495 0.04412868 0.083262675 -0.023638735 -0.16299377 -0.16254291 -0.021229666

weight f4 [5, 80]
00000000: a757 fb3c bb24 d63c d356 3e3d 8cb8 0b3d
00000010: d836 49bd 921c 223d 6b8c a13c cdcf b6bc
00000020: b159 4ebd c4e4 49bd afcd 61bd b413 0a3d
00000030: 801a 0c3d 7d88 75bc 5479 88bd 7df0 21bd
00000040: 2da8 513d 6eba dc3c 9771 bd3c 554f ffbb
00000050: fbb0 933b f6a5 c23c 1afc 023d e02b ce3b
00000060: af3b 3bbd 8076 8dbc 6924 ed39 ce4c fc3b
00000070: 3564 323d 3c9d 3dbd 7121 243d 4fb0 69bd
00000080: c2d5 e03b b425 5fbd a538 07bd 5250 a5bc
00000090: 2b7f 8d3d d0c8 9f3d 1d7d 2cbd 188e 0c3c
000000a0: aec0 8bbd daab 8dbd 6ddb 17bd 8352 60bc
000000b0: d674 26bd 40cf 91bc d8ce fcb7 2905 1d3a
000000c0: 336d 2bbb 57a9 903c a8f2 963d 011c 75bd
000000d0: 2c71 12bd f469 ae3c a24c 913c 28d9 083d
000000e0: 30ee 843d 52c2 6dbd 2597 21bc 1515 84bd
000000f0: 3412 8d3c 121b e43c 6b3c 35bd 778b 28bd
00000100: 4f6f c23c f395 0c3c 8ab4 bbbc d44f 913b
00000110: 8625 2dbd 60f5 043c 7203 0a3c 2adb 013d
00000120: f9ab d2bb a235 cb3a c336 08bd 5e8e 633d
00000130: 76f6 7f3c 38a4 a2ba f824 c6bc 05e1 7dbd
00000140: ab9e d23c beec 3a3d c25a c73c ac26 a63a
00000150: c9bf a6bb d759 90b8 4e00 7fbc bd1b 443c
00000160: 4de6 7dba 2963 493b ca29 ddbc 0852 07bb
00000170: 72a7 173d f874 1d3d b724 f5bc 2ba8 ab3a
00000180: 32c0 3bbd 6a5e 8f3c dc47 5a3c c2aa 3bbd
00000190: de4a 1c3d c896 673d 9551 443d 84ba 263b
000001a0: 51a1 163d ded0 f7bb c762 25bd 3f84 cb3b
000001b0: 9aee 623a 38b3 133c 6b50 3cbc b5ae 9abc
000001c0: b6ff e6bc a306 123c 39c5 d73c c798 8e3c
000001d0: 2643 123c f161 403d 6b42 4b3d 3f96 afbc
000001e0: 11d3 40bd 4a25 1d3d e81c 34bd bd6e 3dbd
000001f0: 6429 5dbd f205 10bd 8b13 48bd 229a 933b
00000200: 12d6 86bc 940d 613d a935 47bd 6c42 59bd
00000210: 4ee7 84bd 9da7 26bd 9519 41bc 7690 0ebd
00000220: 6d8d 00bd b9c2 00bd 5579 a5bc 918c efbc
00000230: 3c35 223d a8e8 08bd 239e 1ebd 50bb 183d
00000240: a16c 3e3d ff5d 253d 78cf 0bbc 9dd8 883c
00000250: 0c1c 3ebd 5f4c 423a 495a 4a3c e63e d8bc
00000260: ac5a 033c 1107 5b3d 1da0 553c 2260 a03d
00000270: 83a7 aabc 2e20 0cbd 78aa 7cbd 5321 a03c
00000280: 9c56 e5bc 9c23 6abd 3404 c03c 2be9 8fbc
00000290: 7555 15bd eca2 3e3d 25ed 2ebd 6bb8 8c3c
000002a0: 36ed 1a3d 00e7 123d 21fe dcbc 4520 0d3d
000002b0: 8c01 02bd 9a9f 9b3d ed8c 91bc 160b 79bc
000002c0: 672d 243c 9bc5 fe3c e72e 4bbb 4887 6b3d
000002d0: beae 383c 8a27 37bd 16ef 26bd 92a8 0a3d
000002e0: eb42 8d3d cdd6 933c e776 853d 737a 2abd
000002f0: b662 4ebd 73f3 67bc 3912 c7bc 4b29 74bb
00000300: bddd 183d a3a3 aa3c b1da 103d 87cf ffbb
00000310: 3982 433d 028a a73c 1b42 fd3c 98ea 713d
00000320: 776f dfbb 78ee 813d f52d df3c 5122 febc
00000330: 6caa cf3c f2d1 2dbd 1c8b 693c e177 51bd
00000340: a147 3cbc bce0 c3bc 391e 84bd 52b1 483d
00000350: 133c f5bc 08f2 88bc edb2 61bc e8e4 b33b
00000360: e5ec 50bd d9c3 993c f7da 2ebd e586 f9bc
00000370: 4481 2fbd 13da 36bd 4792 623d c7be c73c
00000380: 170c 953d 7a43 7fbd 5f2c 1dbd 6f29 b03c
00000390: 98e0 153c e1b4 babc ea2c 32bd 0953 4fbd
000003a0: 3720 04bd b194 58bd ee1d c83c 5689 a8bc
000003b0: 5b82 2a3d ec51 833d e35d 6e3d d60f 5abd
000003c0: 7240 173d 0401 433d 24af 38bd cf90 fdbb
000003d0: ee7e 053d f421 0bbc bbac 8abc 8805 6cbc
000003e0: 3554 1fbb fa86 003d d52c 033d f1ac d13c
000003f0: 77ac 9aba ac09 89bd ba79 403d a949 a5bc
0.030681444 0.026140561 0.04646952 0.034111544 -0.04912457 0.039578028 0.019720277 -0.022315884
-0.050378505 -0.049290434 -0.055127796 0.033710197 0.03420496 -0.014986155 -0.066637665 -0.039535988
0.051185776 0.026944365 0.023125453 -0.0077914395 0.0045071817 0.023760777 0.031978704 0.0062918514
-0.045711216 -0.01726842 0.0004523129 0.0076995855 0.043552596 -0.04629253 0.040070955 -0.057052907
0.0068614194 -0.054479316 -0.033013005 -0.020179901 0.06909021 0.07801974 -0.042111505 0.0085788
-0.0682386 -0.06917544 -0.037074495 -0.013691547 -0.040638767 -0.01779902 -3.013706e-05 0.00059898436
-0.0026157617 0.017658873 0.07370502 -0.05984116 -0.03575246 0.021290757 0.017736737 0.03341022
0.06490743 -0.058046646 -0.009862696 -0.064493336 0.017220594 0.02784494 -0.044247072 -0.04114863
0.023734717 0.008580673 -0.022913236 0.004434565 -0.042272113 0.008115143 0.008423673 0.03170315
-0.006429192 0.0015503655 -0.03325535 0.055555694 0.015622726 -0.001240856 -0.02418755 -0.061982173
0.025710424 0.04563593 0.024335269 0.001267632 -0.0050887805 -6.883189e-05 -0.0155640375 0.011969504
-0.00096855016 0.003072927 -0.026997466 -0.002064826 0.037024923 0.03844163 -0.029924734 0.0013096383
-0.04583759 0.017501075 0.013322797 -0.045817144 0.038157336 0.05654028 0.047929365 0.0025440762
0.036774937 -0.0075627407 -0.040377405 0.0062108333 0.000865677 0.009014897 -0.0114937825 -0.018882135
-0.028198104 0.008912715 0.02633916 0.017406834 0.008927142 0.046968404 0.049623888 -0.021433948
-0.04707629 0.03836564 -0.04397288 -0.046248186 -0.05399455 -0.03516192 -0.048846763 0.004504458
-0.016459499 0.05494459 -0.04863516 -0.05304186 -0.0648943 -0.040687192 -0.011785884 -0.034805737
-0.031384874 -0.031435702 -0.020199457 -0.029241832 0.03960155 -0.033425003 -0.03872503 0.03728801
0.046490315 0.040372845 -0.008533351 0.016704852 -0.046413466 0.0007411893 0.012350627 -0.02639718
0.008017223 0.053473536 0.013038662 0.07830836 -0.020831829 -0.034210376 -0.06168601 0.01954714
-0.0279954 -0.057162866 0.023439504 -0.017567238 -0.03645845 0.046542093 -0.042706627 0.017177781
0.03782388 0.03586483 -0.026976647 0.034454603 -0.031739756 0.07598801 -0.017767394 -0.015200397
0.01002059 0.031100085 -0.0031003298 0.05750206 0.0112721305 -0.04471544 -0.040755354 0.033852167
0.06897529 0.018046761 0.065168194 -0.041620683 -0.050387107 -0.014157164 -0.024300681 -0.0037256058
0.03732084 0.020829981 0.03536481 -0.0078067216 0.047731612 0.02045155 0.03091531 0.059061617
-0.0068187076 0.063443124 0.027243594 -0.031022223 0.025349818 -0.042436548 0.014254358 -0.051139716
-0.011491687 -0.023910873 -0.06451077 0.04899723 -0.029935872 -0.016716972 -0.013775569 0.0054899342
-0.05100717 0.018770145 -0.04268929 -0.03045983 -0.042847887 -0.044641566 0.055315282 0.024382962
0.072776966 -0.06232021 -0.038372394 0.021504132 0.009147786 -0.022791328 -0.043499865 -0.050616298
-0.032257285 -0.05287618 0.024428334 -0.0205733 0.041628223 0.0641211 0.058195006 -0.05323776
0.036926694 0.04760839 -0.045088902 -0.00773821 0.032591753 -0.008491982 -0.016928067 -0.014405616
-0.0024311666 0.031378724 0.032025177 0.02559516 -0.0011800666 -0.06691298 0.046991087 -0.020176725

bias f4 [5]
00000000: 824a 9e3c 31a0 c83b 9a28 f03c e8ef a53b
00000010: e8d5 e139
0.019322637 0.006122612 0.029316235 0.0050639994 0.00043074717
