final_project/mlruns/3/8c7e2e72a7a5444b9ba51613ed8546bf/artifacts/cvae_15/data/model.pth (torch, 48391 bytes, 10 tensors)

weight f4 [80, 11]
0	0xbe8271af	-0.2547736
1	0xbe760fd4	-0.24029475
2	0xbe4924ec	-0.19642991
3	0xbe4c4533	-0.19948272
4	0xbdcf110b	-0.101106726
5	0xbe06bffd	-0.13159175
6	0xbe18acde	-0.14909694
7	0x3bb6100c	0.005556112
8	0x3c9de13c	0.01927244
9	0x3e83e0c9	0.25757435
10	0xbe443865	-0.19162138
11	0xbe5cda69	-0.21567692
12	0x3e78dd89	0.24303259
13	0xbe43a7ff	-0.19107054
14	0xbdd2528f	-0.10269653
15	0x3db059a2	0.08610846
16	0x3d85ec10	0.06539166
17	0x3e6d5120	0.23175478
18	0xbc302609	-0.010751256
19	0x3e3a5c98	0.18199384
20	0x3da7a87b	0.08186432
21	0x3ddcd574	0.107829005
22	0xbdd66df1	-0.104701884
23	0x3e887c59	0.2665737
24	0xbe4e50d2	-0.20148018
25	0xbe5fbb9e	-0.21848914
26	0xbe9ecba0	-0.3101473
27	0x3cfdd4f5	0.030985335
28	0x3e76040e	0.24024984
29	0xbe913643	-0.2836171
30	0x3c06be82	0.008224132
31	0xbb32f1e2	-0.0027304818
32	0xbe19c39d	-0.15016027
33	0x3e87f828	0.26556516
34	0xbe0929df	-0.13394879
35	0xbe09d2ed	-0.13459368
36	0x3ca4c393	0.020112788
37	0xbe7024fe	-0.23451611
38	0xbe88a48e	-0.26688045
39	0x3e726eea	0.23675123
40	0x3d82872a	0.06373437
41	0xbc2d29fa	-0.01056909
42	0x3dcd93cd	0.100379564
43	0x3cb4e3e1	0.022081317
44	0xbe1a19db	-0.15048926
45	0xbe8d9473	-0.2765232
46	0x3e899056	0.26867932
47	0xbdc0085e	-0.09376596
48	0x3e695cf1	0.2278936
49	0x3daf16c3	0.08549263
50	0x3e681d13	0.22667341
51	0xbe7c206f	-0.24621747
52	0x3e5d8dd8	0.2163614
53	0x3e63e216	0.22254214
54	0x3dc4fdc6	0.09618716
55	0xbe3889f8	-0.18021381
56	0x3e9b9660	0.30388165
57	0x3c4edfb3	0.012626576
58	0xbddab1d4	-0.10678449
59	0xbde48480	-0.11158085
60	0x3dff9c51	0.12480987
61	0xbdb4a6c0	-0.088208675
62	0xbe8b60bb	-0.27222237
63	0x3dab1e94	0.08355442
64	0xbe80b6bb	-0.25139412
65	0x3de0af07	0.10970884
66	0x3dc0aa53	0.09407487
67	0xbd23089b	-0.03980313
68	0xbcbb9ea7	-0.0229028
69	0x3e2c83ba	0.16847125
70	0x3e33ad7f	0.17546652
71	0x3e7bf17d	0.24603839
72	0x3c5e808c	0.013580453
73	0x3c8b2572	0.016985629
74	0xbe247a3a	-0.1606225
75	0xbaebceab	-0.0017990669
76	0xbd811f4b	-0.06304797
77	0xbe036f02	-0.12835315
78	0xbe024d96	-0.12724909
79	0xbe2f7247	-0.17133437
80	0xbdeb7224	-0.1149638
81	0x3e13bd8e	0.14427778
82	0xbe1ccfff	-0.15313719
83	0xbdd315aa	-0.103068665
84	0x3e3b9c81	0.1832142
85	0xbd8b257f	-0.06794261
86	0x3e57fff2	0.21093729
87	0xbdb08bea	-0.086204365
88	0xbdd1cca6	-0.10244112
89	0xbe2ffa56	-0.1718534
90	0x3e09fd7e	0.13475606
91	0xbdff556e	-0.12467466
92	0xbe4e2ebf	-0.2013502
93	0xbdb0315e	-0.08603166
94	0x3e8a06c3	0.26958284
95	0xbcd3603e	-0.025802728
96	0xbd9f1910	-0.07768452
97	0xbd88d09d	-0.06680415
98	0x3e544b91	0.20731951
99	0x3e86be78	0.2631719
100	0x3e14827c	0.14502901
101	0x3db0f899	0.08641166
102	0x3e8801fd	0.26564017
103	0xbe6934e2	-0.2277408
104	0x3e0dad4e	0.13835642
105	0x3cc71aae	0.024304714
106	0x3d73f19e	0.059556596
107	0x3c1c04ab	0.009522597
108	0xbe31edc0	-0.1737585
109	0xbe78c80b	-0.2429506
110	0xbe56489c	-0.20926136
111	0xbd9138a2	-0.0709088
112	0xbdf2275a	-0.11823912
113	0xbe7a5e0a	-0.24449936
114	0x3e3dfd68	0.18553698
115	0xbe99fb57	-0.3007457
116	0xbe76f8f2	-0.24118403
117	0xbe3b482d	-0.18289252
118	0x3e2e8021	0.17041065
119	0xbe5dc2b8	-0.2165631
120	0xbe209e61	-0.15685417
121	0x3e65e560	0.22450781
122	0xbd9ab76f	-0.075545184
123	0x3e1f1b5e	0.15537784
124	0xbe5312a7	-0.20612584
125	0x3e9b3fc9	0.30322102
126	0x3e808168	0.2509873
127	0x3e6fe4b5	0.23427089
128	0xbca403a7	-0.020021273
129	0x3db971da	0.090549186
130	0x3db86978	0.090044916
131	0x3d9cf976	0.076647684
132	0xbe231cf5	-0.15929015
133	0x3e57afb1	0.21063115
134	0xbdb1f1f6	-0.086887285
135	0x3e72c2e2	0.23707154
136	0xbe45e8ec	-0.19327134
137	0x3c8fe508	0.017565265
138	0x3d2ac548	0.04169205
139	0x3c8ac499	0.016939448
140	0x3e87bab0	0.2650962
141	0x3e078d32	0.13237455
142	0x3dadc7ef	0.084854
143	0x3d31b6e8	0.043387324
144	0xbdece604	-0.115673095
145	0xbd825370	-0.06363571
146	0xbe3a9644	-0.18221384
147	0x3e03e069	0.12878574
148	0xbe978247	-0.2959158
149	0x3e412278	0.18860805
150	0x3d071eeb	0.03298847
151	0x3e941aa5	0.28926578
152	0x3e8aeef4	0.27135432
153	0xbda0e779	-0.0785665
154	0x3d705f33	0.05868454
155	0xbccc4f29	-0.02494009
156	0xbe2b2212	-0.16712216
157	0xbea72f75	-0.32653394
158	0xbe892ec3	-0.2679349
159	0xbe92de9a	-0.28685457
160	0x3db3afad	0.08773742
161	0xbe50bd67	-0.20384751
162	0xbe966073	-0.2937046
163	0x3cf56569	0.029955583
164	0xbe0a7692	-0.13521793
165	0xbe173021	-0.14764453
166	0x3d461176	0.048356496
167	0x3c815788	0.015788808
168	0xbd89a6bc	-0.06721255
169	0xbdae54dc	-0.085122794
170	0x3e6f1c9b	0.23350756
171	0x3d2f53d7	0.042804565
172	0xbe47b96d	-0.19504328
173	0x3e8af8aa	0.2714284
174	0x3e226c50	0.1586163
175	0x3e40b9cb	0.18820874
176	0x3e624f61	0.22100593
177	0xbd93d6d4	-0.072187096
178	0x3dc8b530	0.09800184
179	0xbc138ea7	-0.009006179
180	0xbe5c2c7e	-0.21501347
181	0x3ddf6d77	0.10909551
182	0x3d8fb8d7	0.07017677
183	0xbe8de46b	-0.27713332
184	0x3e4a23c8	0.19740212
185	0xbdc42e0d	-0.09579096
186	0xbdf19ab4	-0.117970854
187	0x3dcb7a07	0.09935384
188	0x3d9accc4	0.07558587
189	0x3e711ff1	0.23547341
190	0x3d1bde14	0.038053587
191	0xbe405dc2	-0.18785766
192	0x3e8a508f	0.27014586
193	0xbe201801	-0.15634157
194	0xbd3a9314	-0.04555042
195	0xbe52c0fc	-0.2058143
196	0x3e30ce93	0.17266302
197	0x3e051550	0.12996411
198	0x3c13170f	0.008977666
199	0xbd96ec06	-0.07369237
200	0xbd07cf98	-0.03315696
201	0x3d42ce99	0.047560308
202	0xbdc0f35d	-0.09421418
203	0xbe45c2dd	-0.19312616
204	0xbe8ab7b0	-0.27093267
205	0xbdfa1ac8	-0.12212139
206	0x3e8e2028	0.27758908
207	0x3e653c52	0.22386292
208	0xbde7e366	-0.1132267
209	0xbe8fa96d	-0.2805895
210	0xbe34cd64	-0.17656475
211	0x3d61f926	0.055169247
212	0xbe372dbf	-0.17888544
213	0x3e4725db	0.19448034
214	0xbe1ecc3d	-0.15507598
215	0xbdedf4cb	-0.11618956
216	0xbe8bb5ff	-0.2728729
217	0x3e3e30c0	0.18573284
218	0x3e892891	0.26788762
219	0xbe7e999d	-0.24863286
220	0xbe9846fc	-0.29741657
221	0xbccc7454	-0.024957813
222	0xbd7a2d71	-0.061078493
223	0xbe42e9da	-0.1903452
224	0x3e807020	0.25085545
225	0xbe977de7	-0.29588243
226	0x3dbfdb69	0.09368021
227	0xbe740d5d	-0.23833223
228	0xbe716815	-0.2357486
229	0xbdcde2c9	-0.100530215
230	0x3d2553ab	0.040362995
231	0xbe6daa21	-0.2320943
232	0xbe0cd594	-0.13753349
233	0x3b07e600	0.0020736456
234	0x3e0abb8b	0.13548104
235	0xbea366bc	-0.31914318
236	0x3e7ce00c	0.24694842
237	0xbe4a387a	-0.19748107
238	0xbe1dd8c8	-0.15414727
239	0xbd357920	-0.044304967
240	0x3dc555a1	0.09635473
241	0x3dc67649	0.0969053
242	0x3e45b751	0.19308211
243	0x3e1274e4	0.14302403
244	0x3e31caee	0.17362568
245	0xbd4ff716	-0.05077275
246	0xbe5ae588	-0.21376622
247	0xbe683edf	-0.22680233
248	0xbe751297	-0.23932873
249	0xbe08d733	-0.13363342
250	0xbe01ae96	-0.12664255
251	0xbde86257	-0.11346882
252	0xbd3b4217	-0.045717325
253	0x3e63b63d	0.22237487
254	0xbe7a3f93	-0.24438314
255	0x3e5faced	0.2184331

bias f4 [80]
0	0x3e94ae78	0.2903936
1	0xbe81da8b	-0.25362048
2	0xbd9c9971	-0.07646454
3	0x3e0ca58c	0.13735026
4	0xbe124cac	-0.1428706
5	0x3ee4daee	0.4469828
6	0xbca01d13	-0.019545114
7	0xbdeb4409	-0.11487586
8	0x3ed658c9	0.41864613
9	0x3ea0af5c	0.3138379
10	0xbdbfb5f3	-0.09360876
11	0x3eb9781f	0.36224458
12	0xbc7b49b3	-0.0153373955
13	0x3eb84ded	0.35996953
14	0xbe3bf769	-0.18356098
15	0x3e32396e	0.1740472
16	0x3eb2951b	0.34879383
17	0x3ec709e5	0.38874736
18	0xbe21160d	-0.15731068
19	0x3e7ad917	0.24496876
20	0xbe63dece	-0.22252962
21	0xbe17d82e	-0.1482856
22	0x3ee96f9f	0.45592973
23	0x3e75bdc4	0.23998171
24	0x3cf18e9b	0.029486945
25	0xbe6b9157	-0.23004662
26	0xbd354da6	-0.044263504
27	0x3efb69dd	0.49104205
28	0x3e0ed3f6	0.13948044
29	0x3d622f67	0.055220988
30	0x3e30fc74	0.17283803
31	0xbdaccc42	-0.084373966
32	0xbdce45b5	-0.10071889
33	0xbe2fe528	-0.1717726
34	0x3eaa7800	0.33294678
35	0xbe9004cc	-0.2812866
36	0xbe15919c	-0.14606327
37	0xbd482f0f	-0.048873004
38	0x3dabc3bf	0.08386945
39	0xbe942d20	-0.28940678
40	0x3e6da527	0.23207532
41	0x3ea6763e	0.32512087
42	0xbe483906	-0.19553003
43	0x3e8e1e38	0.2775743
44	0x3e8d8bb5	0.2764565
45	0x3e91b767	0.28460237
46	0x3e859e9c	0.26097572
47	0x3e22183a	0.15829554
48	0xbcb9a0ea	-0.022659738
49	0x3ea8a341	0.32937053
50	0xbd5f248d	-0.054478217
51	0xbe998b8d	-0.2998928
52	0xbe564f9a	-0.20928803
53	0xbe5ee81b	-0.21768229
54	0x3e75e90d	0.24014683
55	0x3e755d13	0.23961286
56	0xbd9579fa	-0.07298656
57	0x3e8cfad4	0.27535117
58	0x3ec3d14f	0.38245627
59	0x3e3d9c66	0.18516693
60	0x3e152225	0.14563806
61	0x3ecd2baa	0.40072376
62	0xbe3aa821	-0.18228199
63	0x3eef3e8f	0.46727416
64	0x3e8d1bdd	0.2756032
65	0xbe510344	-0.20411402
66	0x3ec27be7	0.37985155
67	0xbe4e1636	-0.2012566
68	0xbe1702c6	-0.14747152
69	0x3e65729f	0.22407006
70	0x3ead7948	0.33881593
71	0xbe3b2738	-0.1827668
72	0xbd00e033	-0.031463813
73	0x3bcecd22	0.006311075
74	0x3eb1f545	0.34757438
75	0x3ef18c99	0.4717758
76	0x3e90cc68	0.2828095
77	0xbe0fbf7e	-0.14037892
78	0xbd167c82	-0.036739834
79	0x3ec69bbd	0.38790694

weight f4 [40, 80]
0	0xbd712dcc	-0.058881566
1	0x3c3b34a3	0.011426124
2	0x3bd01cf3	0.0063511073
3	0xbd793e97	-0.060850706
4	0xbd84e22a	-0.0648845
5	0xbe122caf	-0.14274858
6	0x3ddcabb9	0.10774941
7	0xbd8c02db	-0.06836482
8	0x3d131b68	0.03591481
9	0xbe05abd5	-0.1305383
10	0xbdc3d274	-0.09561625
11	0x3cfe7a83	0.031064278
12	0xbd6e8014	-0.058227614
13	0xbde0aa01	-0.10969926
14	0x3c9d79b6	0.019223075
15	0xbda1a565	-0.07892875
16	0xbe1c60af	-0.15271257
17	0xbe0945e3	-0.13405566
18	0xbd6ba438	-0.057529658
19	0xbddbc391	-0.10730661
20	0x3d42751a	0.047474958
21	0x3c16c1b0	0.009201452
22	0xbe105f2d	-0.14098807
23	0xbe069b02	-0.13145068
24	0xbd803bbe	-0.06261395
25	0x3dd80af3	0.105489634
26	0x3c794fae	0.015216751
27	0xbe065d80	-0.13121605
28	0xbddb1c36	-0.1069874
29	0x3db18698	0.0866825
30	0xbd6f20ff	-0.058381077
31	0xbc1b1ade	-0.009466855
32	0xba441fd4	-0.00074815494
33	0x3bbce535	0.0057646283
34	0xbd80e659	-0.06293935
35	0x3aa7e13f	0.0012808217
36	0x3dca617d	0.09881876
37	0x3da1c418	0.0789873
38	0x3ccf9e2b	0.025343975
39	0x3c6a3de6	0.014296984
40	0xbd13f2cd	-0.036120225
41	0xbd698716	-0.057013594
42	0x3c9f1cf1	0.01942298
43	0xbce8e3b1	-0.028428884
44	0xbe0a576a	-0.13509908
45	0xbc26d09b	-0.010181571
46	0xbe10e7ff	-0.14151
47	0xbd81ef66	-0.0634449
48	0x3cfdfb7e	0.03100371
49	0x3bcd3ab1	0.0062631
50	0xbcb79105	-0.022408018
51	0xbbb625da	-0.0055587115
52	0x3ce51842	0.027965669
53	0xbd978e52	-0.07400192
54	0xbddc5efd	-0.10760305
55	0xbcbdfef4	-0.02319286
56	0xbb949c09	-0.0045352024
57	0xbda8cd02	-0.08242227
58	0xbd1786b8	-0.036993712
59	0x3d5a5582	0.053304203
60	0xbd77841b	-0.06042872
61	0xbe120976	-0.14261422
62	0x3d83fcd8	0.064447105
63	0xbe123f59	-0.14281978
64	0xbdd35e1f	-0.103206865
65	0xbda942fc	-0.082647294
66	0xbe267fc1	-0.16259672
67	0x3c9820db	0.018570354
68	0xbcc19185	-0.02362896
69	0x3befabad	0.0073141665
70	0xbdd53612	-0.10410704
71	0x3ddcf6c8	0.10789257
72	0xbdc03dd4	-0.09386793
73	0x3c1a5656	0.009419998
74	0xbdf3392c	-0.11876139
75	0xbdf2d21e	-0.11856483
76	0x3d3d6fe2	0.046249278
77	0xbc9250c1	-0.017860772
78	0xbd83e66f	-0.06440436
79	0xbd0aadfb	-0.033857327
80	0x3de1b9ec	0.1102179
81	0x3d995264	0.07486418
82	0x3da13567	0.07871514
83	0xbdae1428	-0.08499938
84	0x3d78560d	0.06062894
85	0x3d78692c	0.060647175
86	0x3d1a7531	0.03770942
87	0x3d821aff	0.06352805
88	0x3d321b46	0.04348304
89	0xbd3fb22b	-0.046800774
90	0x3dc93305	0.09824184
91	0xbcc71c9d	-0.024305636
92	0x3ca38c1e	0.019964274
93	0x3d95c632	0.073131934
94	0x3d265715	0.04061039
95	0x3c0fe9b8	0.00878375
96	0xbd958c0c	-0.073021024
97	0x3dacaca5	0.08431367
98	0x3db4912e	0.08816753
99	0xbd75bfb3	-0.05999727
100	0x3d19c554	0.037541702
101	0xbd6de128	-0.058076054
102	0x3dc48384	0.09595397
103	0x3dd3bf5d	0.10339234
104	0xbd6b3a89	-0.05742887
105	0x3d9e4757	0.07728451
106	0x3d98ca48	0.07460457
107	0xbd1cb416	-0.03825768
108	0x3dc0835a	0.09400053
109	0x3dbd4402	0.09241487
110	0xbd9d1cce	-0.0767151
111	0x3d9399c5	0.072070636
112	0x3d865bee	0.06560503
113	0x3dc694ef	0.096963756
114	0xbd8e2d2e	-0.06942211
115	0x3c9f3c60	0.019437969
116	0xbd7460d8	-0.05966267
117	0xbd5f7d6f	-0.054562982
118	0xbc8e03af	-0.01733574
119	0xbdd2bb5e	-0.10289644
120	0x3d6f320d	0.05839734
121	0xbd08da4d	-0.033411313
122	0x3dce7473	0.10080805
123	0xbd2ff7c0	-0.042960882
124	0xbdc40f14	-0.095731884
125	0xbd7049ab	-0.058664005
126	0xbd67522d	-0.056474853
127	0xbc5f2d96	-0.013621708
128	0x3db8cde3	0.09023645
129	0xbd76241e	-0.060093038
130	0xbd9b60b1	-0.07586802
131	0xbd576a23	-0.052591454
132	0x3da1172b	0.07865747
133	0x3dccee74	0.10006419
134	0x3cbbb351	0.022912653
135	0x3dfb9ea8	0.12286121
136	0xbd106673	-0.035253953
137	0x3c31d347	0.010853595
138	0x3d4b7664	0.049673453
139	0x3d1bb1b7	0.03801128
140	0xbdcfca07	-0.101459555
141	0x3dd5176d	0.10404859
142	0xbde4b260	-0.11166835
143	0xbbfe622c	-0.007763168
144	0xbd81671e	-0.06318496
145	0x3c843590	0.016138822
146	0x3d864035	0.06555215
147	0x3cf67a1f	0.030087529
148	0x3d27a129	0.04092518
149	0x3d302a41	0.043009046
150	0xbd6a6072	-0.057220884
151	0x3dbc52f0	0.091955066
152	0xbc14db93	-0.009085554
153	0xbcbd888a	-0.023136396
154	0xbdab6349	-0.083685465
155	0x3ddcdd42	0.10784389
156	0x3dcfffaa	0.10156186
157	0x3d67a017	0.056549158
158	0xbd54063e	-0.051763766
159	0x3da101c5	0.07861666
160	0x3ceff825	0.02929313
161	0x3c9a8f9d	0.018867308
162	0x3cd3f446	0.025873315
163	0xbcaf121e	-0.021370944
164	0xbbcf587d	-0.0063276873
165	0x3d3010c1	0.042984728
166	0xbd453c26	-0.048153065
167	0xbdca5194	-0.09878841
168	0x3dcde3d3	0.1005322
169	0x3d398acb	0.04529838
170	0xbd8c2f5e	-0.06844972
171	0x3dd1c062	0.10241772
172	0x3d520927	0.05127826
173	0xbdac1eef	-0.084043376
174	0x3dc2a3d6	0.095039055
175	0x3d713e2e	0.05889719
176	0xbd224e26	-0.03962531
177	0xbdc2195a	-0.09477492
178	0x3ce4e523	0.027941292
179	0x3c69272e	0.014230533
180	0xbcbbbc93	-0.022917068
181	0xbd1d4c5d	-0.038402904
182	0x3da35b71	0.079764254
183	0xbc59f800	-0.013303757
184	0x3d74c525	0.059758324
185	0x3d585362	0.052813895
186	0xbdb3e667	-0.0878418
187	0x3d608482	0.05481387
188	0x3d2f755d	0.042836536
189	0xbde78805	-0.113052405
190	0xbdab1992	-0.083544865
191	0x3dcf591c	0.10124418
192	0x3c96d8ba	0.01841389
193	0x3dd923e9	0.106025524
194	0xbd77193a	-0.060326792
195	0x3c0be908	0.008539446
196	0x3d90ef3a	0.07076879
197	0x3d772edb	0.06034742
198	0xbdcb1867	-0.09916764
199	0x3dcdb7bc	0.1004481
200	0xbc3538db	-0.011060919
201	0xbd8b923d	-0.06815002
202	0x3ddda051	0.108215936
203	0xbd71b765	-0.05901279
204	0xba9afb79	-0.0011824212
205	0xbb9d743a	-0.004805115
206	0x3d9bdcc4	0.07610467
207	0x3a8bb0fc	0.0010657604
208	0xbcf2294b	-0.029560706
209	0x3ca3761b	0.019953778
210	0x3d9f5104	0.077791244
211	0xbd966b06	-0.07344632
212	0xbd66a90a	-0.056313552
213	0x3c70fd86	0.014708882
214	0xbda6ab40	-0.08138132
215	0x3d4e9b83	0.050441276
216	0x3c3369ba	0.0109505
217	0xbd134065	-0.035950083
218	0xbdefd7a2	-0.117110506
219	0xbd7bf63e	-0.06151413
220	0xbd8ca1d3	-0.06866803
221	0xbc0d52e3	-0.008625719
222	0xbb722f81	-0.0036954584
223	0x3cd1018b	0.025513431
224	0x3c24bd78	0.0100549385
225	0x3cd796b0	0.02631697
226	0x3cadf457	0.021234674
227	0xbd5cede6	-0.053937815
228	0xbdf5b55a	-0.11997481
229	0xbd8c61d7	-0.06854599
230	0x3da358b3	0.079759024
231	0xbdb2fe16	-0.08739869
232	0x3cf36dfc	0.02971553
233	0x3d74d42c	0.059772655
234	0xbd8df4a9	-0.06931431
235	0x3d95ae3f	0.073086254
236	0xbdb794ef	-0.08963954
237	0x3bfae5a5	0.0076567703
238	0xbd9a8656	-0.07545154
239	0x3d817fea	0.06323226
240	0xbcc04ff4	-0.023475625
241	0x3d92f276	0.07175152
242	0xbc0b05ca	-0.008485267
243	0xbd2ce7c2	-0.04221321
244	0xbd1d3e6e	-0.038389616
245	0xbc36fb51	-0.011168317
246	0xbd9812cb	-0.074254595
247	0xbd655729	-0.055991326
248	0xbd9e2967	-0.077227406
249	0xbd3c9f10	-0.04605013
250	0xbcd13e75	-0.025542477
251	0xbbe2b4d7	-0.0069185304
252	0xbc09d6d6	-0.008413037
253	0xbd593405	-0.053028125
254	0x3d1ece03	0.038770687
255	0x3c4a1672	0.012334453

bias f4 [40]
0	0xbd49fa6e	-0.049311094
1	0xbdcf63b1	-0.101264365
2	0xbdcb0cb0	-0.09914529
3	0x3d1da9d2	0.03849203
4	0x3d9ed077	0.07754605
5	0xbd70639c	-0.058688745
6	0x3d3cf3fc	0.04613112
7	0xbd6886ac	-0.056769058
8	0x3dc3b193	0.09555354
9	0x3d8073d1	0.0627209
10	0xbcd53c33	-0.026029682
11	0xbddc703c	-0.107635945
12	0x3db0634b	0.08612689
13	0xbd8d0fe0	-0.068877935
14	0xbdb17eee	-0.08666788
15	0x3c88fcb0	0.016722053
16	0xbd846dbe	-0.06466244
17	0x3d3b54a0	0.045735
18	0x3d6916ce	0.056906514
19	0x3d421a9f	0.04738867
20	0x3d17e807	0.037086513
21	0xbc83a0bc	-0.016067855
22	0x3c33fe23	0.010985884
23	0x3d8729b9	0.06599755
24	0xbe18bbb3	-0.14915352
25	0xbdcce653	-0.10004868
26	0xbc4dda9f	-0.01256433
27	0xbda3331f	-0.07968735
28	0xbde0e95c	-0.1098201
29	0xbc2c1511	-0.0105030695
30	0x3dd54360	0.104132414
31	0xbd0f29da	-0.034952022
32	0x3c060f0a	0.0081822965
33	0xbd3a47d1	-0.045478646
34	0xbdaad38e	-0.08341132
35	0xbcefbc5b	-0.02926462
36	0x3d50babf	0.050959345
37	0xbce68c5b	-0.028143099
38	0xbc991829	-0.018688278
39	0x3d7b4f83	0.061355125

weight f4 [40, 80]
0	0xbe110b7f	-0.14164542
1	0xbd30d417	-0.043171015
2	0x3d9aef87	0.075652175
3	0xbd55c7fb	-0.05219267
4	0xbcbb2ed5	-0.02284948
5	0xbd755870	-0.059898794
6	0xbdc40b77	-0.09572499
7	0x3da9ab76	0.08284657
8	0xbe1ce64d	-0.15322228
9	0xbe15e9c6	-0.14639959
10	0xbd458e69	-0.048231516
11	0xbc64a8b4	-0.013956238
12	0xbd3a3c13	-0.045467447
13	0xba5c44bd	-0.0008402577
14	0x3cd4485c	0.02591341
15	0x3b842537	0.0040327567
16	0xbe3501e3	-0.17676501
17	0xbbda03d3	-0.006653288
18	0xbdd00b7f	-0.10158443
19	0x3c1bd90c	0.009512197
20	0x3cf668b8	0.03007923
21	0x3da3ce75	0.07998363
22	0x3b52019a	0.0032044412
23	0xbe4fd1ed	-0.20294924
24	0xbce04bce	-0.027379896
25	0x3d953026	0.07284574
26	0xbc9d2995	-0.019184867
27	0xbe3a7eca	-0.18212429
28	0xbde2b746	-0.11070113
29	0xbdb10a8d	-0.086445905
30	0xbe08f463	-0.13374476
31	0x3ba18d5b	0.004930181
32	0x3cd2df11	0.025741132
33	0xbde29e4b	-0.11065348
34	0xbdbb497d	-0.09144876
35	0x3c6e08b8	0.014528446
36	0xbc47a191	-0.0121845165
37	0x3d9fa4b3	0.07795086
38	0xbcf79d0b	-0.030226251
39	0xbdb21f9f	-0.086974375
40	0xbe31adea	-0.17351499
41	0xbe2e1fb8	-0.17004287
42	0xbcaa67de	-0.02080148
43	0xbd8aac5c	-0.06771156
44	0xbc9903b0	-0.018678516
45	0x3aadd288	0.0013261596
46	0xbe09a8c6	-0.13443288
47	0xbd18609a	-0.0372015
48	0xbb58c40e	-0.0033075842
49	0xbdac7ef1	-0.0842265
50	0xbc878c64	-0.016546436
51	0xbc9288e1	-0.017887535
52	0x3d1d38d8	0.03838429
53	0xbd03de15	-0.032194216
54	0xbe04ef09	-0.1298181
55	0xbdafefe9	-0.08590681
56	0x3c50f3d7	0.012753448
57	0xbe08d1bf	-0.13361262
58	0xbe0726b7	-0.13198362
59	0xbe3b475b	-0.18288939
60	0xbca13dcf	-0.019682793
61	0xbe1e78c0	-0.1547575
62	0x3d86e2a7	0.06586199
63	0xbd972013	-0.073791645
64	0xbe67adde	-0.22624919
65	0xbdb1b181	-0.08676434
66	0xbe60f68d	-0.21969052
67	0xbb875c2d	-0.0041308613
68	0xbdc49ae0	-0.095998526
69	0xbe2d5047	-0.16925155
70	0xbcefd119	-0.02927451
71	0xbccea8a4	-0.025226898
72	0xbd44044d	-0.047855664
73	0xbdef997c	-0.11699197
74	0xbdd1b9c3	-0.10240509
75	0xbd38aaa8	-0.045084625
76	0xbe159173	-0.14606266
77	0xbdd22bd3	-0.10262265
78	0xbdb0b7cd	-0.08628807
79	0xbd9456e0	-0.072431326
80	0xbdb54bcb	-0.08852347
81	0x3b76abe7	0.0037639083
82	0xbdf28720	-0.11842179
83	0xbbaed0f0	-0.005334966
84	0xbdff896c	-0.12477383
85	0xbdae8f98	-0.08523482
86	0x3cd1f617	0.02563004
87	0x3da8b6be	0.0823798
88	0xbd8cff9c	-0.06884691
89	0xbc109706	-0.008825069
90	0xbda4d50b	-0.08048447
91	0xbd25ea68	-0.04050675
92	0xbcd8a16e	-0.026444163
93	0xbdbe0143	-0.092775844
94	0xbd0b6ed3	-0.034041237
95	0xbd3a0941	-0.04541898
96	0xbe31a657	-0.1734861
97	0xbcbcada9	-0.023032026
98	0x3d087e3e	0.03332352
99	0xbdf6179b	-0.12016221
100	0x3d83defb	0.064390145
101	0xbca66e2a	-0.020316202
102	0xbe3885cf	-0.18019794
103	0x3c113932	0.008863734
104	0xbd80f547	-0.06296783
105	0x3c018c9d	0.00790706
106	0xbd6fe877	-0.058571305
107	0xbca7c58f	-0.020479945
108	0x3d4f1bbd	0.050563563
109	0xbdadf946	-0.08494811
110	0xbc9011b2	-0.017586563
111	0xbded50e8	-0.11587697
112	0x3c10281b	0.008798624
113	0x3d74c5fd	0.05975913
114	0xbdf77a29	-0.12083847
115	0xbd43295d	-0.04764687
116	0x3dcca5c9	0.099925585
117	0xbdf7b81f	-0.12095665
118	0xbdba092b	-0.0908378
119	0x3cec2568	0.02882643
120	0xbe33c9c7	-0.1755744
121	0xbde917fd	-0.113815285
122	0x3de3a974	0.11116305
123	0xbd021f75	-0.03176828
124	0xbddf4d68	-0.10903436
125	0xbd5cd099	-0.05390987
126	0xbe6eb39d	-0.23310705
127	0x3b383931	0.002811026
128	0xbdec3cb7	-0.11535018
129	0xbd0d04a3	-0.03442825
130	0xbda70abf	-0.081563465
131	0x3d4e4f5b	0.050368648
132	0xbdbd71fc	-0.092502564
133	0x3d886572	0.06659974
134	0xbbfac759	-0.0076531586
135	0xbdd0266d	-0.10163579
136	0x3d7245fe	0.05914878
137	0xbe1d47af	-0.15359376
138	0xbb934a0f	-0.0044949125
139	0xbd146592	-0.036229677
140	0xbdf5d3b3	-0.12003269
141	0xbd8b1d11	-0.06792653
142	0x3bbe15ff	0.005800962
143	0xbe167e3e	-0.14696595
144	0xbd748c98	-0.059704393
145	0x3d88974a	0.06669481
146	0xbe330125	-0.17480905
147	0x3b0b38d8	0.0021243598
148	0xbd924258	-0.0714156
149	0xbd8c0bbe	-0.06838177
150	0xbd390d70	-0.04517883
151	0x3daea662	0.08527829
152	0x3d086599	0.033300016
153	0x3ce1d8ab	0.027569136
154	0xbdaa9e7c	-0.0833101
155	0xbe522a83	-0.2052403
156	0xbe1ccbdd	-0.15312143
157	0xbdba8bd2	-0.091087
158	0xbbf327b2	-0.0074205035
159	0xbde17075	-0.110077776
160	0xbd108624	-0.035284176
161	0xbda300b6	-0.0795912
162	0x3db55fdf	0.088561766
163	0xbd7775e4	-0.060415164
164	0xbd367f42	-0.044554956
165	0xbdfb13e8	-0.12259656
166	0xbdbaa181	-0.09112836
167	0xbe12603a	-0.1429452
168	0xbdf35c5c	-0.118828505
169	0x3ce367e8	0.027759507
170	0x3cf18b37	0.029485328
171	0xbdead36e	-0.11466108
172	0xbd81a912	-0.06331076
173	0xbdd3c40b	-0.103401266
174	0x3d4840a4	0.04888977
175	0xbe2b2340	-0.16712666
176	0xbd983802	-0.07432558
177	0xbe1ff0d6	-0.15619215
178	0xbd8a0bf4	-0.06740561
179	0xbdf3413e	-0.11877678
180	0xbb39f1f1	-0.0028372968
181	0xbc426bce	-0.011866523
182	0xbe0a200d	-0.13488789
183	0xbe16306a	-0.14666906
184	0xbdfed5a0	-0.124430895
185	0xbd6e282e	-0.058143787
186	0xb9d2fb54	-0.00040241575
187	0xbdd012e7	-0.10159855
188	0xbdd494de	-0.10379957
189	0xbc67060b	-0.014100562
190	0xbd3c7061	-0.04600561
191	0xbdae3106	-0.08505444
192	0xbd84722b	-0.06467088
193	0x3d08f691	0.03343827
194	0xbdcb03dd	-0.09912846
195	0xbde9a0ac	-0.11407599
196	0xbdb631a4	-0.08896187
197	0x3da357f9	0.07975764
198	0xbe231fcf	-0.15930103
199	0xbd0c9b5a	-0.034327842
200	0xbe05aac9	-0.1305343
201	0xbd106ea3	-0.03526176
202	0xbcd21cac	-0.025648437
203	0xbaff1df8	-0.0019463887
204	0xbd4ebd8d	-0.05047374
205	0xbd948687	-0.072522216
206	0xbde78f40	-0.1130662
207	0xbd24f599	-0.040273283
208	0xbcff5b15	-0.031171361
209	0xbe055369	-0.130201
210	0xbd9a4c42	-0.07534076
211	0xbdd4bf06	-0.10387997
212	0x3da7771c	0.08177015
213	0xbd293a32	-0.041315265
214	0xbd80483b	-0.06263777
215	0x3c007897	0.007841251
216	0xbde4b4f6	-0.11167328
217	0x3c8f1ed6	0.017470758
218	0xbe28294b	-0.16422002
219	0xbdbfc8e9	-0.093644924
220	0xbdfd4518	-0.12366694
221	0x3cad0ed1	0.02112523
222	0xbc87680c	-0.016529106
223	0xbde9f907	-0.11424451
224	0xbe18f2ae	-0.14936325
225	0x3da41249	0.080113
226	0xbd15561a	-0.036459066
227	0xbe00fb2d	-0.12595816
228	0x3d613bd9	0.054988716
229	0xbd3f3d63	-0.046689402
230	0xbd515833	-0.051109504
231	0xbdce41a4	-0.10071114
232	0xbd7ab077	-0.061203446
233	0xbe21af56	-0.15789542
234	0xbc2dc592	-0.010606186
235	0xbdeed569	-0.116617985
236	0xbd5cb911	-0.05388743
237	0xb95fc883	-0.00021341634
238	0xbe0b986f	-0.13632368
239	0xbd463790	-0.048392832
240	0xbdc244e8	-0.09485799
241	0x3daea9a5	0.08528451
242	0x3b9ee977	0.0048496085
243	0xbcadcbcd	-0.021215344
244	0xbdd516ca	-0.10404737
245	0xbdd6ed59	-0.10494489
246	0xbdd56360	-0.10419345
247	0x3d6b0226	0.057375096
248	0xbe0cc289	-0.13746084
249	0xbc94cf10	-0.018165141
250	0xbe104d90	-0.14092088
251	0xbe0a5d30	-0.1351211
252	0x3dac9c80	0.084282875
253	0xbcd9e3d9	-0.026597904
254	0x3d5d1df0	0.05398363
255	0x3ca272e1	0.01983017

bias f4 [40]
0	0xba52f7e0	-0.00080478005
1	0xbc8df4f4	-0.017328717
2	0x3ce0073e	0.027347203
3	0x3b953e70	0.0045545623
4	0xbde5bfc3	-0.11218216
5	0xbbaa61af	-0.005199633
6	0xbdc993d9	-0.09842653
7	0xbdc8d5bd	-0.09806392
8	0xbe1fd3fc	-0.1560821
9	0xbdd10c0b	-0.10207375
10	0xbe246cf8	-0.16057193
11	0xbe418113	-0.18896894
12	0xbe2cdfb3	-0.1688221
13	0xbdb034c2	-0.08603813
14	0xbdc499bd	-0.09599636
15	0xbd5b7486	-0.053577922
16	0xbcd5e8c0	-0.02611196
17	0xbd1f7372	-0.038928457
18	0x3c4292f9	0.011875861
19	0xbd890c08	-0.06691748
20	0xbdef6f47	-0.11691146
21	0xbdf3fb3a	-0.11913152
22	0x3c83ed21	0.016104283
23	0xbd121c9a	-0.035671808
24	0xbe110433	-0.14161758
25	0xbddf9ca6	-0.1091855
26	0xba28b63b	-0.0006435846
27	0xbdaeb085	-0.08529762
28	0xbd6f2d50	-0.058392823
29	0xbd5ba5f8	-0.053625077
30	0xbafe1b4a	-0.0019386795
31	0xbddc0916	-0.107439205
32	0xbdd2eb33	-0.10298767
33	0x3d056020	0.032562375
34	0xbe18ef1c	-0.14934963
35	0xbd8ab1d0	-0.06772196
36	0xbd9dc29f	-0.07703137
37	0xbd91200c	-0.070861906
38	0xbc9d3284	-0.019189127
39	0xbe351723	-0.17684607

weight f4 [80, 40]
0	0x39c9b142	0.00038469775
1	0x3dd8704b	0.10568293
2	0x3c9ebd44	0.019377358
3	0x3dd4610e	0.10370074
4	0x3e08f4ad	0.13374586
5	0xbc52b388	-0.012860186
6	0xbdd6f510	-0.10495961
7	0x3caa7c4c	0.020811222
8	0xbe04ff51	-0.1298802
9	0x3cf7c4a0	0.030245125
10	0xbd8a5958	-0.06755322
11	0xb9cd81a5	-0.0003919724
12	0xbe0fe93a	-0.14053813
13	0x3dd06c2f	0.101768844
14	0xbdbb7851	-0.09153808
15	0xbdfea5b4	-0.12433949
16	0x3ce80a35	0.02832518
17	0xbcbf5c98	-0.023359582
18	0xbcede25c	-0.0290386
19	0xbe02fd68	-0.1279198
20	0xbe0597ef	-0.1304624
21	0xbe255d2c	-0.16148823
22	0x3d7540ff	0.05987644
23	0xbe072ff0	-0.1320188
24	0x3e100d26	0.14067516
25	0xbb51db62	-0.0032021631
26	0xbe031f1f	-0.1280484
27	0xbda3341b	-0.07968923
28	0x3d88fb21	0.06688524
29	0x3d718fcf	0.058975037
30	0x3dd2776f	0.102766864
31	0xbcea886b	-0.028629502
32	0x3ccc049e	0.024904545
33	0x3da0223b	0.07819029
34	0x3ce89e8c	0.028395914
35	0xbcf64461	-0.030061902
36	0x3e0c9ed5	0.13732465
37	0xbde73700	-0.11289787
38	0xbd87d895	-0.066331066
39	0x3d584695	0.052801687
40	0xbd87eb49	-0.06636674
41	0xbc9445de	-0.018099722
42	0xbd017077	-0.031601395
43	0xbce7b87c	-0.028286211
44	0x3d6ec932	0.058297344
45	0x3d4a4557	0.049382534
46	0xbce0c543	-0.027437812
47	0x3bdb1f71	0.0066870977
48	0x3dd1f30d	0.102514364
49	0xbda38a06	-0.0798531
50	0xbd450b7a	-0.048106648
51	0x3dc1066b	0.09425052
52	0xbcd5bcd5	-0.026091019
53	0x3d5fd4d3	0.054646324
54	0xbd967f10	-0.07348454
55	0xbd3703b5	-0.04468127
56	0xbc98f079	-0.018669354
57	0xbdc80d60	-0.09768176
58	0x3e09c8dd	0.1345553
59	0x3d7b4fe4	0.061355487
60	0x3d1aaabb	0.037760478
61	0x3d3f3163	0.04667796
62	0x3d385d9c	0.045011148
63	0xbd2db82f	-0.04241198
64	0xbd1823b7	-0.037143435
65	0x3cb5edb2	0.022208069
66	0x3b1f03ab	0.002426366
67	0x3d5a4285	0.053286094
68	0x3dc703da	0.097175315
69	0xbcf805d0	-0.03027621
70	0xbe0fbd69	-0.14037098
71	0x3d4f3dd2	0.050596066
72	0xbd72278b	-0.059119742
73	0xbd74a68e	-0.05972915
74	0x3c92203e	0.01783764
75	0x3d84ab31	0.06477965
76	0x3d9d84f6	0.07691376
77	0xbc470f25	-0.012149607
78	0x3d980916	0.07423608
79	0xbc86a816	-0.016437571
80	0xbe00e53e	-0.12587449
81	0x3ce180f7	0.027527316
82	0xbb096506	-0.0020964756
83	0xbd957ca3	-0.07299163
84	0xbda623bc	-0.081122845
85	0x3dbaf763	0.091292165
86	0x3d8750f1	0.06607235
87	0x3da338e8	0.079698384
88	0x3dc9a53f	0.09845971
89	0xbd0e0e09	-0.034681354
90	0xbd126d88	-0.03574899
91	0xbe00b5df	-0.12569378
92	0xbdc60620	-0.09669137
93	0xbd054670	-0.032537878
94	0x3d835063	0.06411817
95	0x3d83c5d1	0.06434215
96	0x3db55405	0.08853916
97	0x3de92a72	0.11385049
98	0x3dee2ab1	0.116292365
99	0x3c6a6c97	0.014308116
100	0x3d1a7132	0.037705608
101	0x3def2b59	0.1167819
102	0xbd123275	-0.03569265
103	0xb93ba2b7	-0.00017894326
104	0xbd1f9830	-0.038963497
105	0x3d462000	0.04837036
106	0x3db20cd7	0.08693855
107	0x3c1837f9	0.009290689
108	0xbd0dd55e	-0.03462731
109	0xbc0d8a5a	-0.008638943
110	0xbe05557f	-0.13020895
111	0xbd167cd4	-0.03674014
112	0xbda7e784	-0.08198455
113	0xbd9d5855	-0.076828636
114	0x3d66124c	0.056169793
115	0xbdf57419	-0.119850345
116	0x3e060a91	0.13089968
117	0x3d162b6b	0.0366625
118	0x3d49674f	0.04917079
119	0xbddc5f82	-0.10760404
120	0xbd068b40	-0.032847643
121	0x3bcb893c	0.006211428
122	0xbb137596	-0.0022500507
123	0xbbbb702d	-0.0057201595
124	0xbdfda023	-0.12384059
125	0x3d99ccd0	0.07509768
126	0xbdd627ce	-0.10456811
127	0x3b893135	0.004186774
128	0x3dbe1f87	0.09283357
129	0xbc139e39	-0.009009891
130	0xbdb8a82d	-0.09016452
131	0xbda5d909	-0.08098037
132	0xbe04e114	-0.12976485
133	0x3d1042ab	0.03521983
134	0x3c972835	0.01845179
135	0x3b7496f1	0.0037321413
136	0xbd5695ac	-0.052388832
137	0x3cc9c70a	0.024631042
138	0xbd07f916	-0.03319653
139	0x3d058cc4	0.032604948
140	0xbcef9477	-0.029245598
141	0xbdf74832	-0.12074317
142	0xbd651be3	-0.055934798
143	0xbdecc8fd	-0.11561773
144	0x3dbb7fa7	0.09155207
145	0xbc874ad5	-0.016515175
146	0xbc9347dc	-0.017978601
147	0x3e1d0c8f	0.15336822
148	0xbd4b4d82	-0.049634464
149	0x3c85a73a	0.016315091
150	0xbdcef138	-0.101046026
151	0xbd8a2115	-0.06744591
152	0xbd8218b3	-0.06352367
153	0xbdf57dae	-0.11986862
154	0xbdfaf1d4	-0.12253156
155	0xbda854d7	-0.08219307
156	0x3de25d1a	0.11052914
157	0x3e022b12	0.12711743
158	0x3d77e02d	0.060516525
159	0x3d70e297	0.058809843
160	0x3de4f904	0.111803085
161	0xbdee7041	-0.116425045
162	0xbda1727f	-0.078831665
163	0xbddbc929	-0.10731728
164	0x3dc9b4c5	0.09848932
165	0xbdd77ba9	-0.10521633
166	0x3d8a6070	0.06756675
167	0xbcaee810	-0.02135089
168	0xbc8ebe7a	-0.01742481
169	0x3d9094d1	0.070596345
170	0xbdae3e2b	-0.08507951
171	0xbd229172	-0.03968949
172	0x3ccc697b	0.02495264
173	0x3d08f102	0.033432968
174	0xbdf5b774	-0.119978815
175	0x3d112655	0.035436947
176	0xbe1252f3	-0.14289455
177	0x3db17941	0.086657055
178	0x3e0a04ae	0.13478348
179	0x3dc9a37f	0.098456375
180	0xbe048453	-0.12941103
181	0xbcd2188e	-0.025646474
182	0x3c114a62	0.008867832
183	0xbdedb8de	-0.11607526
184	0x3d08c101	0.033387188
185	0x39a953b8	0.00032296567
186	0x3e17d155	0.14825948
187	0xbdc09d77	-0.09405034
188	0x3d7c550e	0.061604552
189	0x3c5f8534	0.013642598
190	0x3de06293	0.109563015
191	0x3d7cdb49	0.061732564
192	0xbde4aad8	-0.11165398
193	0x3da452ab	0.0802358
194	0x3ad4165a	0.0016180978
195	0xbdb10211	-0.08642972
196	0x3e00282a	0.12515321
197	0x3dc7fedf	0.0976541
198	0x3e076f34	0.13226014
199	0x3deb5b8e	0.11492072
200	0x3d2ec666	0.042669676
201	0x3d08cd20	0.033398747
202	0x3d9412a9	0.07230122
203	0x3de408f0	0.11134517
204	0xbdc6b468	-0.097023785
205	0x3e274ff4	0.16339093
206	0xbc1028f1	-0.008798824
207	0xbe03470d	-0.12820072
208	0x3df79e9d	0.120908
209	0xbcccd9d1	-0.025006207
210	0x3ca241d6	0.019806784
211	0xbd7dc156	-0.061951958
212	0xbe01de10	-0.12682366
213	0x3d442796	0.047889315
214	0xbdfd19d6	-0.123584434
215	0xbddb1e64	-0.10699156
216	0xbdb96b13	-0.09053626
217	0x3da03925	0.078233995
218	0xbda80a40	-0.0820508
219	0xbdc6461d	-0.09681342
220	0xbd234f02	-0.03987027
221	0x3c1df04f	0.009639814
222	0xbe25e733	-0.16201477
223	0xbd1b80e7	-0.037964728
224	0x3de7b121	0.113130815
225	0x3c5daa94	0.0135294385
226	0x3e1332a0	0.1437478
227	0x3d24b8ce	0.040215306
228	0x3d330d23	0.0437137
229	0xbe0e1273	-0.13874225
230	0x3e0a28e5	0.13492163
231	0x3e22c730	0.15896297
232	0xbc09582e	-0.00838284
233	0xbd729ff0	-0.05923456
234	0xbdd4802f	-0.103760116
235	0xbc42c105	-0.01188684
236	0x3dd1d5c2	0.10245849
237	0xbbf3796e	-0.007430247
238	0xbd99a0e4	-0.075013906
239	0xbda1550d	-0.0787755
240	0x3d0d88af	0.03455418
241	0x3e0027b8	0.12515152
242	0xbcc07475	-0.023493031
243	0xbdc5320a	-0.09628685
244	0x3d63e94d	0.055642415
245	0x3d2bcfa2	0.04194606
246	0x3dcd877a	0.10035606
247	0xbdbeb5f5	-0.09312049
248	0xbdd11931	-0.10209883
249	0x3e1c1622	0.15242818
250	0x3c96a3b3	0.018388605
251	0x3d5fdbfe	0.05465316
252	0x3dccf36a	0.10007365
253	0xbbf52c60	-0.0074820966
254	0xbd8940b0	-0.06701791
255	0x3c28fbd0	0.010313943

bias f4 [80]
0	0xbe3cce05	-0.18437965
1	0xbd9e5e39	-0.07732815
2	0xbd955d2f	-0.07293164
3	0xbe4cb3c7	-0.19990455
4	0x3d139966	0.036034964
5	0x3b734f8c	0.003712627
6	0x3d9d5265	0.07681731
7	0x3c5c749d	0.013455537
8	0xbde9d0b7	-0.11416762
9	0xbddc850f	-0.107675664
10	0x3d386e01	0.045026783
11	0xbdbd23d9	-0.09235353
12	0x3d60e8eb	0.054909628
13	0xbe239204	-0.1597367
14	0xbdbfb55c	-0.093607634
15	0xbe2343a9	-0.15943779
16	0xbd40f184	-0.047105327
17	0x3e06cd79	0.13164319
18	0xbd199942	-0.037499674
19	0xbe23bd1b	-0.15990107
20	0x3d82cd2f	0.06386792
21	0xbda28c53	-0.07936921
22	0x3cea15c2	0.028574828
23	0x3d1a7dc8	0.03771761
24	0x3de80f4d	0.113310434
25	0x3b64874f	0.003487069
26	0x3e0f5a40	0.13999271
27	0x3dad5616	0.08463685
28	0xbe0615a0	-0.13094187
29	0xbca87665	-0.020564267
30	0xbd0054d9	-0.031330917
31	0x3d37e4d2	0.044895954
32	0x3ddc9b7d	0.107718445
33	0x3d99b1e2	0.075046316
34	0xbdb33d0a	-0.08751877
35	0x3d9b8d39	0.075952955
36	0x3e0cfb23	0.13767676
37	0xbd04904b	-0.03236417
38	0x3e1e0dcf	0.15434955
39	0xbda9691a	-0.08272
40	0xbd9ad370	-0.0755986
41	0x3de5b117	0.11215418
42	0x3c9727e8	0.018451646
43	0xbd13f491	-0.03612191
44	0x3a887f47	0.0010413908
45	0xbdb14e4b	-0.08657511
46	0xbdfed372	-0.12442674
47	0xbb0899e4	-0.002084368
48	0x3dbd3530	0.0923866
49	0xbce6f120	-0.02819115
50	0xbcdadd0e	-0.026716735
51	0xbd9eabcd	-0.07747612
52	0xbe061242	-0.13092902
53	0xbd13ed56	-0.036115013
54	0x3c641701	0.0139215
55	0xbe0ba3c4	-0.1363669
56	0xbde1f4f9	-0.11033053
57	0xbd972879	-0.073807664
58	0xbdb86136	-0.090029165
59	0xbe31e8f2	-0.17374018
60	0xbda1b3b1	-0.078956015
61	0xbb7466f2	-0.0037292806
62	0x3b0ee882	0.0021806066
63	0xbd1a09cc	-0.037607
64	0x3d8104f5	0.062997736
65	0xbdc0c3b1	-0.09412325
66	0x3d800af7	0.062520914
67	0xbe288317	-0.16456257
68	0xbdffee10	-0.12496579
69	0xbe23d3f4	-0.15998822
70	0xbc45fcd4	-0.012084205
71	0x3cd3eb0b	0.025868913
72	0x3e098f75	0.13433631
73	0xbd2c2b21	-0.04203332
74	0xbd65054c	-0.055913255
75	0x3df61b85	0.12016968
76	0x3bb73249	0.0055907113
77	0x3d0429f0	0.032266557
78	0xbd280a0c	-0.041025206
79	0x3d0e8d70	0.034802854

weight f4 [5, 80]
0	0xbd7035e8	-0.05864516
1	0xbd3962c7	-0.045260217
2	0xbcb6ac4d	-0.022298956
3	0x3d0bc1a3	0.034120213
4	0xbc795726	-0.015218532
5	0x3c76e2be	0.015068708
6	0x3d58c7ee	0.052925043
7	0xbc8e200b	-0.017349264
8	0x3bd65d91	0.0065419157
9	0xbd0735a6	-0.033010148
10	0xbd8bb3a5	-0.06821374
11	0xbd598f54	-0.053115204
12	0x3ba63608	0.005072359
13	0xbbf2fb7e	-0.007415234
14	0xbbf0f9b8	-0.0073539875
15	0x3d4d4da9	0.05012289
16	0x3c9cfe9b	0.019164374
17	0xbcc4c936	-0.024021726
18	0x3d384ac7	0.04499319
19	0x3d0bfadf	0.034174796
20	0xbd5b6853	-0.05356629
21	0xbc825235	-0.01590834
22	0xbc066f23	-0.008205208
23	0x3d1147f1	0.035469
24	0xbd0e7230	-0.034776866
25	0x3c61306f	0.013744458
26	0x3ca13b95	0.019681731
27	0x3d1bfeb5	0.038084704
28	0x3ce41eae	0.02784666
29	0x3d373cda	0.044735767
30	0xbd817c5d	-0.063225485
31	0x3d9a2db6	0.0752825
32	0x3d1d05b0	0.038335502
33	0xbd08a597	-0.033361044
34	0x3c1aa730	0.009439275
35	0xbc0d6550	-0.008630112
36	0xbc8f3df5	-0.017485598
37	0xbd318f62	-0.04334963
38	0x3c8b1df8	0.016982064
39	0xbcb95242	-0.022622231
40	0x3cd1d9fb	0.025616636
41	0xbcfedf3e	-0.03111231
42	0xbd9ff7e6	-0.07810955
43	0x3d41e1e1	0.047334556
44	0xbbd0cf61	-0.0063723777
45	0x3c78d5cf	0.015187695
46	0x3d3b9152	0.045792885
47	0x3ced6cc3	0.028982526
48	0xbd21b620	-0.03948033
49	0x3ce4310c	0.027855419
50	0x3ccef2f4	0.025262333
51	0xbd4f9459	-0.050678585
52	0x3b8cdbdc	0.00429867
53	0xbc9c22e1	-0.0190596
54	0x3d3e5959	0.046471927
55	0xbcdb814c	-0.026795052
56	0x3b7f31ed	0.003893967
57	0xbc829282	-0.015939001
58	0x3cd3ad3c	0.02583944
59	0x3d82e7db	0.06391879
60	0x3da0d80a	0.07853706
61	0xbd03d857	-0.03218874
62	0xbb6d5085	-0.0036211323
63	0xbd052575	-0.032506425
64	0x3cf342a8	0.02969487
65	0xbd27a542	-0.040929087
66	0xbc9d4e7c	-0.019202463
67	0x3c9f831e	0.019471701
68	0x3d4ddac2	0.05025745
69	0x3cc0d141	0.02353728
70	0x3d41a831	0.04727954
71	0x3cdf273a	0.027240384
72	0xbca148d9	-0.019688057
73	0x3bcb3520	0.0062014014
74	0x3d8315ab	0.06400617
75	0x3cf63a50	0.030057102
76	0x3c3ae1b9	0.011406356
77	0x3cc0e84e	0.023548272
78	0xbcb590b6	-0.02216373
79	0xbbe2c0d3	-0.006919959
80	0xbc7e5763	-0.015523764
81	0x3cc51fde	0.024063047
82	0x3bcb9f13	0.0062140315
83	0xbb79686b	-0.0038056623
84	0xbbaf8268	-0.005356122
85	0xbc2a869c	-0.01040807
86	0xbd3412cf	-0.04396325
87	0x3d7b4e96	0.061354242
88	0x3ba5a74a	0.005055343
89	0xbd301a1c	-0.04299365
90	0xbd15bda6	-0.036557816
91	0x3d217624	0.03941931
92	0xbd4659fb	-0.048425656
93	0x3c4edb48	0.012625523
94	0x3d061b7e	0.032741062
95	0xbc399060	-0.011325926
96	0x3d349be1	0.04409397
97	0xbc3bd46b	-0.011464219
98	0x3ca9f73b	0.020747771
99	0x3d0cf74a	0.03441552
100	0x3d3e433f	0.04645085
101	0xbd79a439	-0.06094763
102	0xbd4e040e	-0.050296836
103	0x3d7870aa	0.06065432
104	0x3ce7227c	0.028214686
105	0x3d21e883	0.03952838
106	0x3a92a47d	0.0011187937
107	0x3cdf8d60	0.027289093
108	0x3b98677a	0.0046510072
109	0xbcd536a9	-0.02602704
110	0xbcd95d58	-0.026533768
111	0x3caf9ac0	0.021436095
112	0xbd1be981	-0.038064484
113	0x3c3b6258	0.011437021
114	0xbc848dd0	-0.016180903
115	0x3c8f7f41	0.017516734
116	0x3d1007b1	0.035163585
117	0xbbdeb761	-0.006796763
118	0x3cc48101	0.023987295
119	0xbd829e26	-0.06377821
120	0x3ca14ff7	0.01969145
121	0xbc0c4ad9	-0.008562767
122	0xbcb4b8b8	-0.022060737
123	0x3cf6c3ad	0.030122602
124	0x3b9309d1	0.004487254
125	0xbbb71ce3	-0.0055881604
126	0x3c9d87f5	0.019229868
127	0xbc81ad2d	-0.015829647
128	0x3c998093	0.018738067
129	0xbd04553a	-0.03230784
130	0x3d4d1769	0.050071154
131	0x3cfc579e	0.030803498
132	0x3cc0f821	0.023555817
133	0xbd5ab836	-0.053398333
134	0x3d5d753a	0.054066874
135	0x3cea3346	0.028588902
136	0xba399f4c	-0.0007080927
137	0xbc8f703f	-0.017509578
138	0x3cd25a9a	0.025677968
139	0x3d40635f	0.046969768
140	0x3ced3315	0.028955022
141	0x3cc7fdc1	0.024412991
142	0x3d0ef97c	0.034905896
143	0xbcb41a5e	-0.02198523
144	0x3d415523	0.047200333
145	0x3d1c3d81	0.038144592
146	0x3c889f61	0.01667756
147	0xbd1b58e0	-0.037926555
148	0xbc6caea6	-0.014445936
149	0xbc96384a	-0.018337388
150	0x3c9e0f23	0.019294327
151	0xbd22ad09	-0.0397158
152	0xbc6d0293	-0.014465946
153	0x3cc7839d	0.02435475
154	0xbd1bb9d5	-0.03801902
155	0x3d727ae8	0.059199244
156	0x3c7efbcb	0.015562962
157	0xbbdbcc9d	-0.0067077414
158	0x3d234b77	0.03986689
159	0x3d264f49	0.040602956
160	0xbd4cd549	-0.050008092
161	0x3d137979	0.036004517
162	0xbd0c3268	-0.03422776
163	0xbc99d65f	-0.018778978
164	0xbd2271cb	-0.039659303
165	0x3c14c6fe	0.009080647
166	0x3b8c567b	0.00428277
167	0x3ccf49a6	0.025303673
168	0xbbca57d5	-0.006175021
169	0xbd0140cb	-0.031555932
170	0xbd39ea39	-0.045389388
171	0xbccb68c5	-0.024830231
172	0x3d11f6bf	0.035635706
173	0x3c3561a4	0.011070643
174	0xbda1ef82	-0.079070106
175	0x3c3ea31e	0.01163557
176	0x3cd5309d	0.026024157
177	0xbc6de50f	-0.014519944
178	0xbd3a162a	-0.045431294
179	0xbd1367d6	-0.035987698
180	0x3d41ce52	0.047315903
181	0x3d59ca49	0.05317143
182	0x3c08f764	0.008359764
183	0xbce0b337	-0.027429206
184	0x3bc5e697	0.0060394513
185	0x3cb3ca55	0.021947065
186	0xbd4d1829	-0.05007187
187	0x3d480572	0.048833318
188	0x3c2afe7c	0.01043665
189	0x3c9bdd64	0.019026466
190	0xbd6a8aa6	-0.05726113
191	0xbc9512f5	-0.018197516
192	0x3d0d2a19	0.034463976
193	0x3ae87668	0.0017735483
194	0xbcdd7cb7	-0.027037008
195	0xba7110b8	-0.00091959117
196	0xbce79554	-0.028269447
197	0xbd87d36a	-0.06632121
198	0xbc212139	-0.009834581
199	0xbd5ae6fe	-0.053442948
200	0x3db4b723	0.08823993
201	0xbd87dd75	-0.066340365
202	0x3d44ed7d	0.04807805
203	0xbcbba558	-0.02290599
204	0x3d5848d6	0.052803837
205	0x3bd64a73	0.0065396368
206	0x3d3b0cdb	0.045666557
207	0xbbe2c3b6	-0.006920303
208	0xbd633c87	-0.055477645
209	0xbbc54c44	-0.0060210545
210	0xbd7c4fb1	-0.061599437
211	0xbbaf1c17	-0.0053439247
212	0x3d6e2a12	0.05814559
213	0x3d883307	0.06650358
214	0x3c8b7687	0.017024292
215	0xbd929b32	-0.071585074
216	0xbd18f033	-0.037338447
217	0xbced93e9	-0.029001193
218	0x3be250c8	0.0069066025
219	0x3d1b14ed	0.037861753
220	0x3d536eb9	0.051619265
221	0x3c723dee	0.014785273
222	0xbd2debf1	-0.04246134
223	0x3d94f17c	0.07272622
224	0xbcf61a1b	-0.030041745
225	0xbd1fa705	-0.03897764
226	0xbcad0751	-0.021121653
227	0x3d46fd06	0.048581146
228	0xbd18faed	-0.037348676
229	0xbd604518	-0.054753393
230	0xbd7ee483	-0.062229645
231	0xbccf83aa	-0.025331337
232	0xbc15960e	-0.009130014
233	0x3d83a301	0.06427575
234	0x3d800dfe	0.06252669
235	0x3d3a4114	0.04547222
236	0xbd4605a6	-0.04834523
237	0xbd50a2f4	-0.050936654
238	0xbc819d33	-0.015822029
239	0xbd3ac7a3	-0.045600545
240	0x3d422f5b	0.047408443
241	0x3cd431fc	0.02590274
242	0xbd24c8d2	-0.04023058
243	0xbcba4c9f	-0.022741614
244	0x3d634b6f	0.05549186
245	0x3c8ac690	0.016940385
246	0x3ca1dc67	0.019758416
247	0xbc6298d3	-0.013830381
248	0x3d08a9e4	0.033365145
249	0xbd5db0f1	-0.054123823
250	0x3d9c459b	0.07630464
251	0xbca898ba	-0.020580638
252	0xbd8b0d4f	-0.06789648
253	0x3c99f796	0.018794816
254	0xbb5dc48e	-0.003383908
255	0xbd5cb457	-0.053882923

bias f4 [5]
0	0xbc88abf7	-0.016683562
1	0xbd8fac24	-0.07015255
2	0x3d7cc546	0.061711572
3	0xbc13521f	-0.008991747
4	0x3959d68a	0.00020774655
