final_project/mlruns/3/efbbd2238126466d94fc8ae20c5c9c1d/artifacts/cvae_5/data/model.pth (torch, 50311 bytes, 10 tensors)

weight f4 [80, 17]
0	0x3ccadd6a	0.024763782
1	0xbe5740d4	-0.21020824
2	0xbda82f71	-0.08212174
3	0x3b66d809	0.0035223982
4	0xbd8239c1	-0.06358672
5	0x3a346112	0.00068809197
6	0xbe84a4e9	-0.25907066
7	0x3dd4e1ac	0.10394606
8	0x3e6a868b	0.22902887
9	0xbe881826	-0.26580924
10	0x3e7f643e	0.24940583
11	0x3d1c381e	0.038139455
12	0xbe035606	-0.12825784
13	0x3e2ea322	0.17054418
14	0xbda4329e	-0.08017467
15	0xbd88aa37	-0.06673091
16	0x3e05e506	0.13075647
17	0x3c9e40ef	0.019318072
18	0x3d4ede8c	0.050505206
19	0x3d615864	0.055015936
20	0x3e73523b	0.23761837
21	0x3e30f1d7	0.17279755
22	0x3e385a20	0.1800313
23	0x3d6b66e4	0.05747117
24	0x3bb8d4a3	0.0056405826
25	0xbe9c289a	-0.30499727
26	0x3e05a146	0.13049802
27	0xbdd3bcdb	-0.10338756
28	0x3e036495	0.12831338
29	0x3e5d92ed	0.21638079
30	0xbe285c41	-0.16441442
31	0x3e3e2b0b	0.18571107
32	0x3e867d06	0.2626726
33	0xbdfbc0e2	-0.12292649
34	0xbcce8f65	-0.02521486
35	0x3cadd947	0.02122177
36	0x3e285bc0	0.1644125
37	0xbcdc4c58	-0.026891872
38	0x3b0f5eae	0.0021876502
39	0xbe23b756	-0.15987906
40	0xbdaa9636	-0.08329432
41	0xbe1526e9	-0.14565624
42	0x3e573f09	0.2102014
43	0xbe5455ad	-0.20735808
44	0x3e28544a	0.16438404
45	0xbe0b47ae	-0.13601562
46	0xbe575f48	-0.2103244
47	0xbd647ba8	-0.05578199
48	0x3ddd8e65	0.10818175
49	0xbdc9bd1e	-0.09850524
50	0xbdb65556	-0.08902995
51	0xbe5f178a	-0.21786323
52	0xbdb18b95	-0.08669201
53	0xbda39bff	-0.07988738
54	0x3d4ead54	0.050458267
55	0x3e13c136	0.14429173
56	0xbc1f56aa	-0.009725252
57	0xbe2b622c	-0.16736668
58	0xbe226482	-0.15858653
59	0xbe802f03	-0.25035867
60	0xbd5bfc75	-0.05370756
61	0xbdcfae52	-0.10140671
62	0xba32ade4	-0.0006816073
63	0xbd9f687d	-0.077836014
64	0xbe41a54a	-0.18910709
65	0xbda17ae8	-0.07884771
66	0x3db934d9	0.09043283
67	0x3d025886	0.031822704
68	0xbe0ad428	-0.13557494
69	0xbe0a08b5	-0.13479884
70	0xbe22bc53	-0.15892152
71	0x3e70e04e	0.23523065
72	0xbe5db4a5	-0.21650942
73	0x3d1c9bd8	0.03823456
74	0x3a8a3ccc	0.0010546683
75	0xbe00ae94	-0.12566596
76	0xbe234061	-0.15942527
77	0xbd66044b	-0.056156438
78	0xbe0938c5	-0.13400562
79	0xbc52ccc3	-0.012866202
80	0x3d9e62bc	0.07733676
81	0x3d68ad7e	0.05680608
82	0x3ba563cd	0.0050472976
83	0x3daba064	0.083802015
84	0x3da2eb36	0.07955019
85	0x3dfa1985	0.12211899
86	0x3dd217b9	0.10258431
87	0xbd834a5f	-0.064106695
88	0x3e06bfed	0.13159151
89	0x3e5590a9	0.20855965
90	0xbe5823d6	-0.2110742
91	0x3e17e259	0.14832439
92	0xbd8fed90	-0.07027733
93	0xbe5a580b	-0.21322648
94	0xbdea725c	-0.114475936
95	0x3dd251c4	0.10269502
96	0x3cdbfaf5	0.026853064
97	0xbe194b6d	-0.14970179
98	0xbe664713	-0.2248805
99	0xbd936ed3	-0.071988724
100	0xbe4ff25f	-0.20307301
101	0xbe45d8cc	-0.19320983
102	0x3e1ab17b	0.15106766
103	0xbd79d9b1	-0.060998622
104	0xbde76bb7	-0.11299842
105	0xbdfad1e1	-0.122470625
106	0x3e59e42d	0.21278448
107	0xbe59242a	-0.21205202
108	0x3d80d922	0.06291415
109	0xbdc84e79	-0.097805925
110	0xbe8f8f17	-0.28038856
111	0xbd958973	-0.07301607
112	0x3cb99a74	0.022656657
113	0x3e6dbebe	0.23217294
114	0x3e868f2d	0.2628111
115	0xbdea2e9f	-0.114346735
116	0x3df00ad4	0.11720815
117	0x3e081be3	0.13291888
118	0x3d85f35e	0.06540559
119	0xbda6622f	-0.08124196
120	0xbddcd242	-0.10782291
121	0xbdc9b427	-0.098488145
122	0xbdc2a2cd	-0.09503708
123	0xbdca3656	-0.09873645
124	0xbe16832b	-0.14698474
125	0x3de5cdf9	0.11220927
126	0xbe64c1bf	-0.22339533
127	0xbe180eac	-0.14849347
128	0xbd349974	-0.044091657
129	0xbe54cb00	-0.20780563
130	0x3d2a5723	0.041587006
131	0xbdb4efd7	-0.08834808
132	0xbe090531	-0.13380887
133	0x3d9b032e	0.07568966
134	0x3d342ada	0.04398618
135	0xbe10f885	-0.14157303
136	0x3d88b687	0.06675439
137	0xbdb2462a	-0.08704789
138	0x3dcf661f	0.101269
139	0x3e55b298	0.2086891
140	0xbdc94554	-0.098276764
141	0x3dd862ef	0.10565745
142	0xbc954439	-0.018221008
143	0x3e462ac4	0.19352251
144	0x3e562f37	0.20916449
145	0x3c8154d5	0.015787521
146	0xbe054e5a	-0.1301817
147	0x3e051383	0.12995724
148	0xbe3cc650	-0.18435025
149	0x3e010be4	0.12602192
150	0x3e15c899	0.14627303
151	0xbe4015c7	-0.18758307
152	0xbe686565	-0.22694929
153	0x3d588e8d	0.052870322
154	0xbe15637f	-0.14588736
155	0xbcec3365	-0.0288331
156	0xbd4b9c59	-0.04970965
157	0x3e37915f	0.17926548
158	0x3e8c173c	0.27361476
159	0x3c3637e0	0.01112172
160	0xbe419a5e	-0.18906543
161	0x3e8f4547	0.27982542
162	0xbdb02865	-0.08601455
163	0x3df0d362	0.11759068
164	0xbdad33bf	-0.084571354
165	0xba88747b	-0.001041069
166	0x3e437d81	0.19090845
167	0x3d536234	0.051607326
168	0x3e1faefb	0.15594094
169	0x3df48db0	0.11941087
170	0xbb947550	-0.0045305863
171	0x3e1ce336	0.15321049
172	0xbda39220	-0.079868555
173	0x3e783766	0.24239883
174	0x3e65e761	0.22451545
175	0xbd1cfda7	-0.03832784
176	0xbdb274ba	-0.0871367
177	0x3e3e377b	0.18575852
178	0x3e2bb734	0.16769105
179	0x3c1ab8bf	0.009443461
180	0xbe308b59	-0.17240657
181	0xbdc2fcbf	-0.09520864
182	0x3e262e41	0.16228582
183	0xbcec4df9	-0.028845774
184	0x3c77a7c7	0.015115685
185	0xbe4729d9	-0.19449557
186	0x3d1d7fe9	0.038452063
187	0x3e1b38dd	0.1515841
188	0x3db64aa5	0.08900956
189	0xbe0e3f7c	-0.13891405
190	0xbe3bdaab	-0.18345134
191	0xbd694ad7	-0.05695614
192	0x3e296b34	0.16544801
193	0x3a15fa62	0.0005721209
194	0xbd49123c	-0.049089655
195	0xbde6c42f	-0.11267888
196	0x3db7d9bb	0.08977076
197	0xbc3ca02a	-0.011512795
198	0xbe7d7de4	-0.24755055
199	0x3e56caee	0.20975849
200	0xbdb053ed	-0.086097576
201	0x375715d0	1.2820077e-05
202	0xbe38d7ab	-0.18051021
203	0x3dbe1886	0.09282021
204	0x3d702220	0.058626294
205	0xbd59e5e4	-0.053197756
206	0xbde06dfa	-0.10958476
207	0xbd289f6d	-0.041167665
208	0x3dabf41e	0.08396171
209	0xbe5d1d0d	-0.21593113
210	0xbe68b34d	-0.22724648
211	0xbe0c79bf	-0.13718317
212	0x3cc3e9f4	0.023915268
213	0xbe5269b2	-0.20548132
214	0xbe5954ec	-0.21223801
215	0xbdf6afa2	-0.12045218
216	0x3d3c259b	0.0459343
217	0x3e4fc194	0.20288688
218	0xbcd5bf49	-0.026092188
219	0x3de38e3e	0.11111115
220	0x3e6cfa1e	0.23142287
221	0x3e013a12	0.12619808
222	0xbe3393d8	-0.17536867
223	0x3d463cae	0.048397712
224	0x3e197c58	0.1498884
225	0x3db17510	0.08664906
226	0x3ca4ab01	0.020101072
227	0xbdf5dcdb	-0.120050155
228	0x3cf7a2e2	0.030229036
229	0x3e1fdb0e	0.15610906
230	0x3e0238b0	0.12716937
231	0x3e735db9	0.23766221
232	0x3e8ceda6	0.2752506
233	0xbc09b20f	-0.008404269
234	0xbd8c7393	-0.068579815
235	0x3db8e6f1	0.090284236
236	0xbd97cc67	-0.074120335
237	0x3dbfa551	0.093577035
238	0x3e804002	0.25048834
239	0xbe0e313e	-0.13885972
240	0xbe7bb999	-0.24582519
241	0x3cd27285	0.025689373
242	0x3d77a139	0.06045649
243	0x3e72e6fc	0.23720926
244	0xbd9d0b23	-0.0766814
245	0x3e337743	0.17525963
246	0x3e7b3b6b	0.24534385
247	0xbe65177d	-0.22372241
248	0x3c63ad63	0.013896319
249	0xbdb4e546	-0.08832793
250	0x3dc67670	0.09690559
251	0xbe4b089d	-0.19827504
252	0xbe1e79ca	-0.15476146
253	0xbe1ea349	-0.15491976
254	0xbe3c7abe	-0.18406197
255	0x3e6e085b	0.23245375

bias f4 [80]
0	0xbda2b3e3	-0.07944467
1	0x3ea8900e	0.32922405
2	0xbcf7e01d	-0.030258233
3	0x3da41397	0.08011549
4	0x3e83deba	0.25755864
5	0xbe4fdcb9	-0.20299043
6	0x3d473c5f	0.04864156
7	0xbc3afb75	-0.011412491
8	0x3e0b2c66	0.13591155
9	0x3dde61fe	0.10858534
10	0xbd26237c	-0.040561184
11	0x3e1cb5d3	0.15303735
12	0x3e1e15bd	0.1543798
13	0x3e848db2	0.25889355
14	0x3dc22add	0.09480832
15	0xbd4b08ca	-0.04956893
16	0x3dd14936	0.10219042
17	0xbe1bd349	-0.15217318
18	0x3e6310f5	0.22174437
19	0x3e0e6580	0.13905907
20	0x3de993ce	0.11405145
21	0x3e97f19f	0.2967653
22	0x3dad79c8	0.084704936
23	0x3d89d003	0.06729128
24	0xbe45fb01	-0.19334032
25	0x3d5e486b	0.054268282
26	0xbe5d6dab	-0.21623866
27	0x3e85424e	0.2602715
28	0xbd575ae7	-0.052576926
29	0x3da84746	0.08216719
30	0x3e6eb7c9	0.23312296
31	0x3e993ed0	0.29930735
32	0xbe106ee2	-0.14104798
33	0xbdbf00a0	-0.09326291
34	0x3e023ff9	0.12719716
35	0x3e836033	0.25659332
36	0x3d659555	0.056050617
37	0xbdd08a81	-0.101826675
38	0x3e1193dc	0.1421656
39	0xbc937fa1	-0.018005194
40	0x3e851fc9	0.26000813
41	0x3da5ba8e	0.08092223
42	0xbe1f6bb1	-0.15568425
43	0xbe4b3af9	-0.19846715
44	0xbd917b04	-0.071035415
45	0x3eb4ac87	0.35287878
46	0xbc622fff	-0.0138053885
47	0xbdde8bb7	-0.10866492
48	0x3e292467	0.16517793
49	0xbe461954	-0.193456
50	0x3c4b8510	0.012421861
51	0xbb2d1aa1	-0.0026413577
52	0x3d9994dd	0.074990965
53	0x3de6d465	0.1127098
54	0xbd7f2be5	-0.06229772
55	0x3e83e2d8	0.25759006
56	0xbb6bf93f	-0.0036006717
57	0xbe60cac9	-0.21952356
58	0x3e94b133	0.29041442
59	0xbd2949d5	-0.041330177
60	0x3e44cb93	0.19218282
61	0xbdbb616b	-0.091494404
62	0x3e9cfd6b	0.30662093
63	0x3b4faf0d	0.0031690032
64	0x3d817f8c	0.06323156
65	0x3deda78a	0.11604221
66	0x3ea402c8	0.32033372
67	0xbe35d682	-0.1775761
68	0x3e85c400	0.261261
69	0xbe4aea00	-0.19815826
70	0x3e8dfbf3	0.27731284
71	0xbd8a1a69	-0.067433186
72	0x3d9a962e	0.07548176
73	0xbdcffd63	-0.101557516
74	0xbe14a01b	-0.145142
75	0x3c48f51c	0.01226547
76	0x3df35439	0.118812986
77	0xbe5ff1a4	-0.21869522
78	0xbe08b7e2	-0.13351396
79	0x3ce0382c	0.027370535

weight f4 [40, 80]
0	0x3dad7012	0.08468641
1	0x3c5eca94	0.013598103
2	0x3d164e09	0.036695514
3	0x3d6f62d1	0.058443848
4	0x3dc84bbc	0.0978007
5	0x3d10ddee	0.0353679
6	0xbcae0c41	-0.021246077
7	0xbd058431	-0.03259677
8	0xbd096e82	-0.033552654
9	0xbdd59c4e	-0.104302034
10	0xbde19825	-0.110153474
11	0xbc56746a	-0.013089279
12	0x3d59f4af	0.053211864
13	0x3d92a615	0.07160584
14	0xbda71097	-0.08157461
15	0x3c11a9db	0.008890594
16	0x3d0c6479	0.034275506
17	0xbda8aa25	-0.082355775
18	0xbdd511a0	-0.10403752
19	0xbdafeac3	-0.08589699
20	0x3d1d2a20	0.03837025
21	0xbca337f6	-0.019924145
22	0xbdaa0210	-0.08301175
23	0x3cc6442f	0.024202434
24	0x3d5cd893	0.05391748
25	0xbd129d06	-0.03579428
26	0x3daa496e	0.08314787
27	0x3de6533c	0.112463444
28	0x3d619975	0.05507799
29	0x3deccd6c	0.115626186
30	0xbda725ca	-0.081615046
31	0xbc1aa8a6	-0.009439623
32	0x3d2d15cb	0.04225711
33	0x3d47287e	0.0486226
34	0x3da6cf96	0.081450626
35	0x3d24576e	0.040122442
36	0x3c29f708	0.010373838
37	0x3dcd6e5d	0.10030816
38	0xbdc4b63e	-0.096050724
39	0x3d5d28b2	0.05399389
40	0x3db18cbd	0.08669422
41	0xbcc4ffd2	-0.024047766
42	0x3d865245	0.065586604
43	0xbd4173c5	-0.047229547
44	0x3dd906d7	0.10597008
45	0xbcf6e6f9	-0.030139433
46	0xbdd6b36f	-0.10483443
47	0xbdc251be	-0.09488247
48	0x3d9ed1cc	0.07754859
49	0x3da46042	0.08026172
50	0xbcfff3a0	-0.0312441
51	0xbd521980	-0.05129385
52	0x3d40e6ed	0.047095228
53	0x3d22d04b	0.039749425
54	0xbd530dad	-0.051526714
55	0x3d354317	0.044253435
56	0xbddd1cc8	-0.10796505
57	0xbdda9e5c	-0.10674736
58	0x3da17083	0.07882788
59	0xbdac5264	-0.08414152
60	0xbb6755b0	-0.0035298876
61	0xbbbdaf97	-0.005788754
62	0x3dc124bd	0.094308354
63	0x3d3ce077	0.046112504
64	0x3d9da90b	0.07698258
65	0xbd2784f8	-0.040898293
66	0xbdd92e13	-0.10604491
67	0xbd8f5476	-0.069985315
68	0x3c3e9f39	0.011634641
69	0x3c8c0c52	0.017095719
70	0x3d6ed9b9	0.058313105
71	0xbbeeeb09	-0.007291202
72	0x3c465437	0.012105039
73	0x3dcd1d97	0.100154094
74	0xbd32a4c7	-0.043614175
75	0xbd8a26f2	-0.067457095
76	0xbcec903a	-0.028877366
77	0xbd30904e	-0.04310637
78	0xbcddd53b	-0.027079215
79	0xbc0ccbf1	-0.008593545
80	0xbe16601a	-0.14685097
81	0xbd9f4c02	-0.07778169
82	0xbdacc096	-0.0843517
83	0xbdfd0c33	-0.123558424
84	0xbd6d954f	-0.05800372
85	0xbde7d66c	-0.113201946
86	0x3b392108	0.0028248448
87	0xbd958634	-0.07300988
88	0xbd6ba303	-0.057528507
89	0x3d7cb190	0.061692774
90	0xbcfb61e4	-0.030686326
91	0xbe15feea	-0.14648023
92	0xbc4b4cf4	-0.012408484
93	0xbdc7e374	-0.0976018
94	0xbd62d601	-0.05537987
95	0xbd21e01c	-0.039520368
96	0x3d26d5c7	0.040731218
97	0x3cf0c13e	0.02938902
98	0xbe04ed1f	-0.1298108
99	0xbe0ef6c9	-0.13961329
100	0xbd72fb96	-0.059321962
101	0xbc73bd11	-0.01487662
102	0xbd475aef	-0.048670705
103	0xbb7618f9	-0.0037551506
104	0xbcd99bac	-0.026563488
105	0x3d1bd5f3	0.038045835
106	0x3d9dde2d	0.07708392
107	0x3c6434c5	0.013928597
108	0xbb05b12a	-0.0020399787
109	0xbdee9647	-0.11649757
110	0xbd0b1787	-0.033957984
111	0xbdfb55ef	-0.1227225
112	0xbc0980d6	-0.008392533
113	0x3d893ada	0.06700678
114	0x3c92d5ed	0.017924273
115	0x3d7ecc51	0.06220657
116	0xbcd8d067	-0.026466561
117	0x3d31534e	0.043292336
118	0x3d3400a0	0.04394591
119	0xbd8f5d2b	-0.07000192
120	0xbe099661	-0.13436271
121	0x3d6ef5f7	0.05834004
122	0xbd6084ed	-0.054814268
123	0xbd37867c	-0.04480599
124	0xbdf29633	-0.118450545
125	0xbce675cd	-0.028132344
126	0x3cd3bd4e	0.025847103
127	0xbc04b411	-0.008099572
128	0xbddfccf8	-0.109277666
129	0xbdcf0e36	-0.101101324
130	0x3d45aa1b	0.04825793
131	0xbcbe24dc	-0.023210935
132	0xbdebdade	-0.11516355
133	0xbdcca151	-0.09991706
134	0xbd552602	-0.0520382
135	0xbd154841	-0.03644586
136	0x3d0da071	0.034576837
137	0x3b609f63	0.003427469
138	0xbd13c7ff	-0.036079403
139	0xbcbb09bb	-0.022831788
140	0xbde55152	-0.11197151
141	0xbcc144b2	-0.023592327
142	0x3c964c5c	0.018346958
143	0x3b9197de	0.004443153
144	0xbd71cd5c	-0.059033737
145	0xbe0a0c3e	-0.13481233
146	0x3c858372	0.01629803
147	0xbdca4f28	-0.09878379
148	0xbc919ada	-0.017774034
149	0xbdce2c1e	-0.100670084
150	0xbdebf851	-0.11521972
151	0x3d23d580	0.03999853
152	0xbdb7e1f2	-0.089786425
153	0x3bb7c2c3	0.005607934
154	0xbd5fa797	-0.054603186
155	0xbd074a92	-0.0330301
156	0xbdfd406e	-0.123658046
157	0x3d4ad013	0.04951484
158	0xbd868324	-0.06567982
159	0xbdd265f6	-0.10273354
160	0xbdd43b21	-0.103628404
161	0xbd89dedf	-0.067319624
162	0x3cc593b4	0.024118282
163	0x3da405c6	0.08008914
164	0xbdced3ab	-0.10098966
165	0x3d1f5e12	0.03890807
166	0xbc33b92a	-0.0109694395
167	0xbc7e90fa	-0.015537495
168	0xbcc5d963	-0.02415151
169	0xbdfe51d2	-0.1241795
170	0x3d89e000	0.06732178
171	0x3d0d3c04	0.034481063
172	0x3dab08cd	0.08351288
173	0xbdb8f292	-0.090306416
174	0xbdee0cf7	-0.116235666
175	0xbdbd5d9a	-0.09246369
176	0xbdbb831e	-0.09155868
177	0xbb50bcb5	-0.003185076
178	0x3d5e3cec	0.05425732
179	0xbd76835e	-0.060183875
180	0xbdf8fa20	-0.121570826
181	0xbdcdb813	-0.10044875
182	0xbda2aa05	-0.07942585
183	0xbd9e2023	-0.07720973
184	0x3d11d594	0.035604075
185	0xbccf560c	-0.025309585
186	0x3d0cbe00	0.034360886
187	0x3c9cbf25	0.019134114
188	0xbdacc87f	-0.08436679
189	0xbdb47d70	-0.08812988
190	0x3bd2740d	0.0064225257
191	0x3c077154	0.008266766
192	0x3d08d132	0.03340263
193	0xbdc874e7	-0.09787922
194	0x3daca94e	0.0843073
195	0xbdd96612	-0.106151715
196	0xbd4985fe	-0.04920005
197	0x3d6066d0	0.05478555
198	0xbc46483c	-0.012102183
199	0xbe0767cf	-0.13223194
200	0x3cf4dca0	0.029890358
201	0xbe0d045f	-0.13771199
202	0xbc110c1e	-0.008852987
203	0xbd9c16a7	-0.07621508
204	0xbdb82dec	-0.08993134
205	0xbdf72e2c	-0.120693535
206	0x3dc297e2	0.095016256
207	0xbcbfc3f7	-0.023408873
208	0x3d7e22b3	0.06204481
209	0xbd208602	-0.0391903
210	0xbcb952da	-0.022622515
211	0xbdefeac4	-0.117147
212	0xbdfa27f5	-0.122146524
213	0xbc503505	-0.012707953
214	0xbd83cdd9	-0.06435747
215	0x3d332145	0.0437329
216	0xbd788c38	-0.060680598
217	0x3cb34bc4	0.021886714
218	0xbd17bf69	-0.037047777
219	0xbd54a9d1	-0.051919762
220	0xbc963e92	-0.018340383
221	0xbc195e37	-0.0093608415
222	0xbdffff45	-0.12499861
223	0x3d7fe2a2	0.062471993
224	0xbc9f031e	-0.019410666
225	0x3d163dd4	0.036680058
226	0xbd24c197	-0.040223684
227	0x3d9d3a8c	0.076771826
228	0xbdf40698	-0.1191532
229	0x3d3b755c	0.04576622
230	0x3cb6f19f	0.02233201
231	0xbda33ebd	-0.07970951
232	0x3ce6aec6	0.02815951
233	0xbdaf98bf	-0.08574056
234	0x3be48ba8	0.006974656
235	0xbd7c53a3	-0.0616032
236	0x3d44cf54	0.048049286
237	0x3da39a13	0.07988372
238	0x3d8ecf6d	0.06973157
239	0x3cd41828	0.025890425
240	0x3dd9223a	0.10602231
241	0xbcfe6dbc	-0.031058185
242	0xbd242317	-0.040072527
243	0x3b2b0427	0.0026095004
244	0x3dcb923c	0.09940001
245	0x3d666d57	0.05625662
246	0xbda058d6	-0.07829444
247	0x3dba8cf5	0.09108917
248	0xbd974dbe	-0.07387875
249	0x3d04822d	0.032350708
250	0xbdccf057	-0.10006779
251	0x3dbd0659	0.09229726
252	0xbdbffee9	-0.09374792
253	0x3db022ec	0.08600411
254	0xbc27877d	-0.010225174
255	0xbd0ad0d9	-0.03389058

bias f4 [40]
0	0x3d24ea5e	0.040262572
1	0xbd150f71	-0.03639168
2	0x3d11167d	0.035421837
3	0xbdc10e94	-0.09426609
4	0xbe3968c1	-0.18106367
5	0xbd27c31b	-0.04095755
6	0xba252ecd	-0.00063012243
7	0xbc96601e	-0.01835638
8	0xbc9cc09c	-0.019134812
9	0xbd29f457	-0.041492786
10	0xbd9e4a2d	-0.07728992
11	0xbd1923b0	-0.03738755
12	0xbe0042db	-0.12525503
13	0xbd3ba19a	-0.045808412
14	0x3d2f7066	0.0428318
15	0x3d7ba0de	0.06143271
16	0x3e1f5b90	0.15562272
17	0x3d24ea1c	0.040262327
18	0x3c90709c	0.017631821
19	0xbdfde21b	-0.12396642
20	0x3cc1473d	0.02359354
21	0xbd1e5a76	-0.03866049
22	0xbc150982	-0.009096505
23	0x3bea10a2	0.007143096
24	0x3dc2c14e	0.09509526
25	0xbd85dad8	-0.06535882
26	0x3e12d5da	0.1433939
27	0x3dff8037	0.12475627
28	0xbcc8c55a	-0.024508167
29	0x3cee9675	0.029124478
30	0x3b3439f3	0.002750036
31	0xbd9a7ba2	-0.07543112
32	0xbb222fec	-0.0024747802
33	0xbd2e44d6	-0.042546116
34	0xbe02f8bb	-0.12790196
35	0x3c642d24	0.013926778
36	0xbd0515a7	-0.032491352
37	0xbd16d98e	-0.03682857
38	0x3bf710bb	0.007539836
39	0x3d90e59f	0.07075047

weight f4 [40, 80]
0	0x3d1b0e09	0.03785518
1	0xbd3a5db9	-0.045499537
2	0xbca6491a	-0.02029853
3	0xbd94c27b	-0.07263657
4	0xbcd1a408	-0.025590912
5	0x3d12e772	0.035865255
6	0xbd52e966	-0.051492117
7	0x3caa4614	0.020785369
8	0xbdeb3a22	-0.11485697
9	0xbc4ba310	-0.012429014
10	0x3d505f15	0.050871927
11	0xbc14c0d8	-0.009079181
12	0xbe05db3f	-0.13071917
13	0xbada9152	-0.0016675389
14	0xbd4948dc	-0.04914175
15	0x3b732a61	0.0037104117
16	0xbe09bb73	-0.13450412
17	0xbc9c93b1	-0.019113394
18	0xbe2703a8	-0.16309988
19	0xbd824609	-0.063610144
20	0xbe0a838a	-0.1352674
21	0xbdc32878	-0.09529203
22	0xbdbd4ea0	-0.09243512
23	0xbd722ede	-0.059126727
24	0xbd05181c	-0.032493696
25	0xbe0b6964	-0.13614422
26	0xbda41ac3	-0.08012917
27	0xbd55c315	-0.052187998
28	0x3d69aec3	0.05705143
29	0xbe275d6c	-0.16344231
30	0x3c1bc8e6	0.009508347
31	0xbdc9c926	-0.09852819
32	0xbe07b047	-0.13250838
33	0xbe07351e	-0.13203856
34	0xbd4ecf24	-0.050490513
35	0xbc42e133	-0.011894512
36	0x3cb2b62b	0.02181538
37	0xbe1a503d	-0.15069671
38	0xbd93c53b	-0.07215353
39	0xbe11123f	-0.14167117
40	0xbc53843c	-0.012909945
41	0xbd73b0d9	-0.059494827
42	0xbdf29aad	-0.11845908
43	0xbd307317	-0.04307851
44	0xbe1e7246	-0.1547328
45	0xbddd36e2	-0.10801484
46	0xbb6e42d8	-0.003635576
47	0xbe046995	-0.12930901
48	0xbe1b3360	-0.15156317
49	0xbe101756	-0.14071402
50	0xbe1fdf61	-0.15612556
51	0xbdeaba08	-0.11461264
52	0xbb1650c3	-0.0022936321
53	0xbd9eb57d	-0.0774946
54	0xbe06d254	-0.13166171
55	0x3c47bbe4	0.012190793
56	0x3bb08986	0.005387488
57	0xbde5b425	-0.112160005
58	0xbe3296b0	-0.17440295
59	0xbdbdec2c	-0.09273562
60	0xbc52da26	-0.012869393
61	0x3d05c91d	0.0326625
62	0xbd4dff1c	-0.05029212
63	0xbdc33f59	-0.09533567
64	0xbdea9450	-0.114540696
65	0xbd3d6ef0	-0.046248376
66	0xbe015d0f	-0.12633155
67	0xbd6af718	-0.057364553
68	0x3d4d450d	0.05011468
69	0xbe074e11	-0.13213374
70	0xbe24e65d	-0.16103502
71	0xbda7f915	-0.082018055
72	0xbbb74176	-0.0055925203
73	0xbe12fe78	-0.14354885
74	0xbd77120d	-0.06031995
75	0xbe2e7d74	-0.17040044
76	0xbd3ff5d8	-0.046865314
77	0x3d4a9865	0.04946174
78	0x3b46ac0b	0.0030314948
79	0xbe045bad	-0.12925597
80	0xbcec101b	-0.028816273
81	0xbdd43c74	-0.10363093
82	0xbd5c4931	-0.05378074
83	0xbd72e6f9	-0.059302304
84	0xbe0ca7c5	-0.13735874
85	0x3d76f750	0.06029445
86	0xbe19a6ce	-0.15005037
87	0xbd41905d	-0.047256816
88	0x3d3669cc	0.04453449
89	0xbde2383d	-0.11045883
90	0x3d469065	0.04847755
91	0xbce2c604	-0.027682312
92	0xbd9990da	-0.07498331
93	0xbdc2bb2e	-0.09508358
94	0xbd60e6f0	-0.05490774
95	0x3d4059d8	0.04696068
96	0xbd7e67ab	-0.062110584
97	0xbda94c6f	-0.08266532
98	0xbe037c16	-0.12840304
99	0xbb91efc8	-0.004453633
100	0x3d340612	0.0439511
101	0xbdc3632b	-0.09540399
102	0x3d8c6ac7	0.06856304
103	0x3c768f07	0.015048749
104	0xbc885535	-0.016642192
105	0xbd610af7	-0.054942098
106	0xbb989432	-0.004656338
107	0xbdfb0465	-0.122566976
108	0xbdd2b5eb	-0.10288604
109	0x3d0192c2	0.0316341
110	0xbd373966	-0.044732474
111	0xbcf3bc3e	-0.029752847
112	0x3d049047	0.032364156
113	0x3d807fe6	0.06274395
114	0x3d563cd7	0.052304115
115	0xbd8df80d	-0.069320776
116	0xbda24223	-0.07922771
117	0x3d6105ee	0.054937296
118	0xbd91e418	-0.071235836
119	0x3d44e6f8	0.04807183
120	0xbdcaa89e	-0.098954424
121	0xbe20af09	-0.1569177
122	0x3cfbf733	0.030757522
123	0x3d06febe	0.032957785
124	0x3cbdb242	0.023156289
125	0xbe04dace	-0.12974092
126	0xbdaf43fc	-0.08557889
127	0x3d4d5e99	0.050139043
128	0xbe07a954	-0.13248187
129	0xbd95fbd5	-0.07323424
130	0xbe013da0	-0.12621164
131	0xbd39b496	-0.045338236
132	0xbd685f1b	-0.056731325
133	0xbbcac62d	-0.006188175
134	0xbd907454	-0.07053438
135	0xbdd4a812	-0.10383619
136	0x3db8f319	0.09030742
137	0xbd833f11	-0.06408513
138	0xbe29ca18	-0.16580999
139	0xbd7d283e	-0.061805956
140	0xbe19e6c6	-0.1502944
141	0xbd34535c	-0.04402481
142	0x3d243034	0.040085033
143	0x3c0a02f3	0.008423555
144	0xbe15a831	-0.14614941
145	0xbd3de340	-0.0463593
146	0x3cda45ad	0.026644552
147	0xbd5a3afe	-0.053278916
148	0x3d179043	0.037002813
149	0xbd36c9de	-0.04462611
150	0xbc8f7afb	-0.017514696
151	0xbd0a95b0	-0.03383416
152	0xbd0fef01	-0.03514004
153	0x3d80bc67	0.06285935
154	0x3de11d2b	0.109918915
155	0xbcf92695	-0.030413905
156	0xbe07a4b9	-0.1324643
157	0xbdc73713	-0.097273014
158	0xbbd2dd97	-0.006435107
159	0xbdb60563	-0.08887746
160	0xbd1f4940	-0.038888216
161	0xbdc1f235	-0.094700254
162	0xbd88b614	-0.06675354
163	0xbdda2b39	-0.10652775
164	0xbc528822	-0.012849839
165	0xbe235328	-0.1594969
166	0xbdb569d7	-0.08858078
167	0xbd2ba7df	-0.04190814
168	0x3d2b18f5	0.041771848
169	0xbe3f8f3b	-0.18706982
170	0xbde389f7	-0.11110299
171	0xbb8d6e4d	-0.0043161274
172	0xbd3dc2ee	-0.046328478
173	0xbccc9eb4	-0.02497802
174	0xbe27965d	-0.16365953
175	0xbdad6710	-0.08466923
176	0xbc0c7d68	-0.008574821
177	0xbd558e15	-0.052137453
178	0x3cd47e64	0.025939174
179	0xbe30cfc9	-0.17266764
180	0xbcbd0fa2	-0.023078743
181	0xbe2d860a	-0.16945663
182	0xbe252b80	-0.16129875
183	0x3cbcc8cf	0.023044972
184	0x3d6d7658	0.05797419
185	0xbd3acb3f	-0.045603987
186	0x3c920cda	0.017828394
187	0xbd873395	-0.06601635
188	0xbd9034c6	-0.07041316
189	0xbe365a7a	-0.17807952
190	0xbd055848	-0.032554895
191	0xbcdaea8f	-0.026723174
192	0xbd0c5e73	-0.03426976
193	0xbdc67119	-0.096895404
194	0xbe2ca1fb	-0.16858666
195	0x3ce53c30	0.027982801
196	0xbd8cc04d	-0.06872616
197	0xbe0b57bb	-0.13607685
198	0x3bae065e	0.0053108176
199	0x3bbcc988	0.005761329
200	0xbd2a995b	-0.041650157
201	0xbe23eda3	-0.1600862
202	0xbcabe4a4	-0.020983048
203	0x3c732975	0.014841427
204	0xbdba7d28	-0.09105903
205	0xbaa39dce	-0.0012482943
206	0x3c1a1154	0.009403545
207	0xbe08a7d5	-0.13345273
208	0xbe17312b	-0.1476485
209	0xbdd630d9	-0.10458536
210	0xbbc03790	-0.0058659986
211	0xbdb0802e	-0.08618198
212	0xbe06c1c9	-0.1315986
213	0xbdab637e	-0.08368586
214	0xbd2b9f46	-0.04189994
215	0xbd124bdc	-0.035716876
216	0x3d3d6c13	0.046245646
217	0xbda7b659	-0.08189077
218	0x3d138965	0.0360197
219	0xbdbc0b0e	-0.09181796
220	0x3d2907fd	0.041267384
221	0xbd96081b	-0.07325765
222	0xbe07e300	-0.13270187
223	0xba8739b2	-0.0010316877
224	0xbcc0a427	-0.023515774
225	0xbd3b09da	-0.045663692
226	0xbd915635	-0.07096521
227	0xbdc3fe27	-0.0956996
228	0xbdf3ba24	-0.11900738
229	0xbd36ba03	-0.04461099
230	0xbdfd4619	-0.12366886
231	0x3c22b28e	0.009930266
232	0xbc22d481	-0.00993836
233	0xbdd81d3f	-0.10552453
234	0xbb490669	-0.0030673987
235	0xbd691d13	-0.056912493
236	0xbce84b51	-0.028356226
237	0xbd34da73	-0.044153642
238	0x3d95e6cd	0.073194124
239	0xbc7ac506	-0.015305763
240	0xbda0fcc3	-0.078607105
241	0xbba14e64	-0.004922675
242	0xbc7e2104	-0.015510801
243	0xbd1cf7bc	-0.038322195
244	0x3d00e62e	0.031469516
245	0xbc0dfb99	-0.008665943
246	0x3aee0494	0.0018159323
247	0xbe09ccf6	-0.13457093
248	0xbe053195	-0.13007195
249	0xbdceeac9	-0.101033755
250	0x3cb63c09	0.022245424
251	0xbce4174d	-0.027843142
252	0xbd8effab	-0.069823585
253	0xbe2efe1a	-0.1708912
254	0x3ca45c96	0.02006368
255	0xbdf2a158	-0.1184718

bias f4 [40]
0	0xbbb10bba	-0.0054030092
1	0x3c18ca17	0.009325526
2	0xbe1873fe	-0.14887998
3	0xbe3b3b09	-0.18284239
4	0xbddeab48	-0.10872513
5	0xbddf89ac	-0.10914931
6	0xbdaba342	-0.08380748
7	0xbdfc5095	-0.12320057
8	0xbe32f665	-0.17476805
9	0xbd872ca2	-0.0660031
10	0xbe3a957d	-0.18221088
11	0xbd85eb53	-0.06539025
12	0xbe178ef4	-0.14800626
13	0xbe1cf969	-0.15329517
14	0xbe14a486	-0.14515886
15	0xbd8616e0	-0.06547332
16	0xbd9be682	-0.07612325
17	0xbb82fbc9	-0.0039973003
18	0xbe297d0e	-0.16551611
19	0xbdcbf0ae	-0.099580154
20	0xbdb99af3	-0.09062757
21	0xbd7400f3	-0.059571218
22	0xbe137ac8	-0.14402306
23	0xbd337ff1	-0.043823186
24	0xbdbecc87	-0.09316354
25	0xbdc777c0	-0.097396374
26	0xbe3543b9	-0.17701615
27	0xbbe18e2f	-0.0068834047
28	0xbe02d04e	-0.12774774
29	0xbe11c090	-0.14233613
30	0xbb68b9bd	-0.00355111
31	0xbd99f450	-0.07517302
32	0xbe4813b5	-0.19538768
33	0xbbb0e297	-0.0053981054
34	0xbcbbfff9	-0.022949206
35	0xbc30cc5f	-0.010790913
36	0xbce7bf66	-0.028289508
37	0xbd1f1217	-0.03883561
38	0xbd84f8e2	-0.06492783
39	0xbe20cc19	-0.15702857

weight f4 [80, 40]
0	0xbd731d14	-0.059353903
1	0x3da03578	0.07822698
2	0x3d548150	0.051881135
3	0x3d86c028	0.0657962
4	0xbd1f12ed	-0.03883641
5	0xbd90b84c	-0.07066402
6	0xbcdec006	-0.027191173
7	0x3dea0a1c	0.114277095
8	0x3d326bc0	0.04355979
9	0x3caf4ed9	0.021399902
10	0x3ba21aaa	0.0049470263
11	0xbe19659d	-0.14980169
12	0x3dcd355a	0.10019942
13	0xbdebc4cd	-0.11512146
14	0x3e0fe5a3	0.14052443
15	0xbd842559	-0.06452436
16	0xbc1b252c	-0.009469312
17	0x3d3d10d5	0.04615863
18	0xbdd0ec97	-0.10201376
19	0x3d945c8c	0.072442144
20	0xbd66ca3d	-0.056345213
21	0x3d143614	0.036184385
22	0xbd6c1774	-0.057639554
23	0x3cc2f902	0.023800377
24	0xbd75950f	-0.059956606
25	0xbcd04579	-0.025423752
26	0xbe2da7c0	-0.16958523
27	0xbd9de9e9	-0.077106304
28	0xbde93163	-0.11386373
29	0xbd26dd3b	-0.040738326
30	0xbd11ef57	-0.035628643
31	0xbcf4cfc0	-0.02988422
32	0xbd6e7259	-0.05821452
33	0xbdcfa6a0	-0.10139203
34	0xbd20a4c6	-0.03921964
35	0xbdbb1675	-0.09135143
36	0x3d5e790c	0.054314658
37	0xbcc13e61	-0.023589315
38	0xbd662502	-0.056187637
39	0xbd8c2d01	-0.06844521
40	0xbde92c19	-0.11385364
41	0xbe1008ef	-0.14065908
42	0x3e192f0e	0.14959356
43	0xbe24e87c	-0.16104311
44	0x3e121959	0.14267482
45	0x3e281b30	0.16416621
46	0xbe2f8b67	-0.17143022
47	0x3d096f05	0.033553142
48	0xbd8a1eda	-0.06744166
49	0x3d4e5a95	0.050379355
50	0xbb55bbde	-0.0032613198
51	0x3db4b5f9	0.08823771
52	0x3d5f5de1	0.05453289
53	0xbd6d59f4	-0.057947114
54	0xbdf37e19	-0.118892856
55	0xbc48663a	-0.012231404
56	0xbd434f0f	-0.047682818
57	0x3e227c79	0.15867795
58	0xbd7b2660	-0.061315894
59	0x3d586314	0.052828863
60	0xbdd14ad0	-0.102193475
61	0xbde7625d	-0.11298058
62	0x3e0cba77	0.13743006
63	0xbd4df475	-0.05028196
64	0xbda87c64	-0.08226851
65	0x3d787612	0.060659476
66	0xbde7ed84	-0.113245994
67	0xbd80499f	-0.06264042
68	0xbd03eade	-0.03220641
69	0xbe143d11	-0.1447642
70	0x3da9309c	0.08261225
71	0x3c5d3e45	0.013503616
72	0xbdecc7c2	-0.11561538
73	0xbe03a222	-0.12854818
74	0x3d94e146	0.0726953
75	0xbd938024	-0.07202175
76	0xbb908ffb	-0.004411695
77	0x3d81e09d	0.0634167
78	0xbe1da5a7	-0.15395223
79	0xbcf8a76d	-0.030353272
80	0xbda806e2	-0.08204438
81	0x3e062378	0.13099468
82	0x3d852d18	0.065027416
83	0x3c31c378	0.010849826
84	0xbd99c2d7	-0.07507866
85	0xbdb9b376	-0.090674326
86	0x3dcb2e20	0.09920907
87	0xbe05e852	-0.13076904
88	0x3cf6527d	0.03006863
89	0x3cf6a9e6	0.03011031
90	0x3dd1ed8d	0.10250387
91	0x3c188349	0.009308645
92	0xbd92f23d	-0.071751095
93	0xbd5ef06d	-0.054428507
94	0x3dc70b80	0.0971899
95	0x3daa5a99	0.083180614
96	0xbe0a3795	-0.13497765
97	0x3de9c703	0.114149116
98	0x3db64a1d	0.08900855
99	0xbde6efe1	-0.11276222
100	0x3e10851b	0.14113276
101	0xbe1ebcb0	-0.15501666
102	0xbba61609	-0.0050685448
103	0xbdc0e88a	-0.09419353
104	0x3df8790b	0.12132462
105	0xbc8cf2e1	-0.017205657
106	0xbd6ee952	-0.05832798
107	0xbb14be9a	-0.0022696615
108	0x3dc730d0	0.09726107
109	0x3cddb2cb	0.027062794
110	0xbda91ece	-0.08257829
111	0xbd100d4c	-0.03516893
112	0x3beab75a	0.0071629705
113	0xbe08e4a2	-0.13368466
114	0xbd5d054d	-0.053960133
115	0xbd02b43f	-0.031910177
116	0xbc394d66	-0.011309957
117	0x3c8ebcc5	0.017423997
118	0x3d8e7f26	0.069578454
119	0x3d0559f8	0.032556504
120	0x3de583a5	0.1120675
121	0x3de4461a	0.11146183
122	0x3e055cc9	0.13023676
123	0xbb9b174f	-0.004733003
124	0xbd338d35	-0.043835837
125	0xb6d2038e	-6.2589015e-06
126	0xbd9bd2ba	-0.07608552
127	0xbd95dbbd	-0.073173024
128	0x3c652e4f	0.013988092
129	0x3cb3cedd	0.021949226
130	0xbdbcadb4	-0.09212819
131	0xbd6c5443	-0.057697546
132	0x3dc360c3	0.0953994
133	0x3e0aca33	0.13553695
134	0xbdf189f5	-0.11793891
135	0x3ba19858	0.004931491
136	0x3e3ad363	0.182447
137	0xbd70f86f	-0.058830675
138	0x3da27db6	0.07934134
139	0xbcba5389	-0.02274491
140	0xbddc70c9	-0.107636996
141	0xbdc57a17	-0.096424274
142	0xbe079297	-0.13239513
143	0xbdbc77ce	-0.092025384
144	0xbe1c2e45	-0.15252025
145	0xbdb6c716	-0.089246914
146	0xbda35c6d	-0.07976613
147	0xbdebd63f	-0.115154736
148	0xbdbc4eb1	-0.09194697
149	0x3dcf091b	0.101091586
150	0xbbb6e541	-0.0055815284
151	0x3ca163cf	0.019700913
152	0xbd7506bf	-0.059820887
153	0xbd82c626	-0.0638545
154	0x3d569524	0.052388325
155	0xbdf93320	-0.121679544
156	0xbdaf0a52	-0.0854689
157	0x3d50d655	0.050985653
158	0x3e0b3cf2	0.13597468
159	0xbde8d804	-0.11369327
160	0x3cd40a19	0.025883721
161	0x3da7cced	0.08193383
162	0x3e008b64	0.12553173
163	0xbd37a2df	-0.04483306
164	0xbdb36392	-0.08759226
165	0x3e01434d	0.1262333
166	0xbd55e864	-0.052223578
167	0x3d21389d	0.03936063
168	0x3d48d811	0.049034182
169	0x3dc9ce98	0.09853858
170	0x3db7a808	0.08967596
171	0xbe1519ed	-0.14560671
172	0x3e1eea6f	0.15519117
173	0xbdee0bc5	-0.116233386
174	0xbcd43b39	-0.025907146
175	0xbdff3b9a	-0.1246254
176	0xbdf32aa1	-0.11873365
177	0xbca17036	-0.019706827
178	0x3dbbf3e0	0.09177375
179	0x3dff8568	0.12476617
180	0x3d865d17	0.06560724
181	0x3d551133	0.052018356
182	0xbd3f94b4	-0.046772674
183	0x3cee16b4	0.02906356
184	0xbd181791	-0.03713185
185	0x3d912f2c	0.070890754
186	0xbd803535	-0.062601484
187	0xbe026812	-0.12735012
188	0xbe2130db	-0.15741293
189	0x3daf2580	0.085520744
190	0xbbe534d3	-0.0069948225
191	0x3cbf831f	0.023377953
192	0x3d19e306	0.037570022
193	0xbd041518	-0.03224668
194	0x3e047e7c	0.12938875
195	0xbdac5cf1	-0.08416165
196	0xbd2d7e7e	-0.04235696
197	0xbb003444	-0.0019562403
198	0xbe04fd12	-0.12987164
199	0xbaf69e3e	-0.001881547
200	0xbd74df39	-0.059783194
201	0xbc094a49	-0.008379527
202	0x3d8f99a0	0.070117235
203	0xbda56738	-0.08076328
204	0x3d2ff1f6	0.04295536
205	0x3ddd6566	0.10810356
206	0xbdca81be	-0.098880276
207	0x3c6d4cf0	0.014483675
208	0x3bcee96d	0.0063144476
209	0x3d9a4dbf	0.0753436
210	0x3e1d7af7	0.15378939
211	0x3db1c4b9	0.086801
212	0x3d231a5c	0.03982006
213	0xbd881495	-0.06644551
214	0xbd92d06a	-0.07168658
215	0xbdad7675	-0.084698595
216	0xbd4a33aa	-0.049365677
217	0xbe1d09b7	-0.15335737
218	0x3d891ad4	0.0669457
219	0x3c37d95e	0.011221258
220	0xbe012235	-0.12610705
221	0xbc71eb52	-0.014765577
222	0xbd9c3b57	-0.07628506
223	0xbd252587	-0.040318992
224	0x3d3ce4e2	0.046116717
225	0x3b64664a	0.0034851008
226	0xbe0df9bc	-0.13864797
227	0x3d502036	0.05081197
228	0x3e0b16e3	0.1358295
229	0x3dd4f0a7	0.10397463
230	0xbbd20364	-0.0064090956
231	0x3c1de8f9	0.009638065
232	0x3d8de0d5	0.06927649
233	0x3e02fba6	0.12791309
234	0xbd2a8e39	-0.04163954
235	0xbddd1e1e	-0.1079676
236	0x3d157faf	0.03649872
237	0xbd898bc0	-0.06716108
238	0xbde3c687	-0.111218505
239	0xbdb8e57f	-0.09028148
240	0xbd6b7b84	-0.05749084
241	0x3daa4453	0.08313813
242	0x3d3655b7	0.044515338
243	0x3d500064	0.050781623
244	0xbdae2f9c	-0.085051745
245	0xbdc8e1b1	-0.09808672
246	0x3e129965	0.14316328
247	0x3dec8e47	0.11550575
248	0xbd628d5e	-0.0553106
249	0x3ddf3c1c	0.10900137
250	0x3d6ff086	0.05857899
251	0x3de05782	0.10954191
252	0xbba9f002	-0.005186082
253	0x3c8620a2	0.016372982
254	0x3b03d5ac	0.0020116372
255	0x3dcfbe2e	0.10143696

bias f4 [80]
0	0x3cdde211	0.027085336
1	0xbdf469cd	-0.119342424
2	0xbe0dd1dd	-0.13849588
3	0xbc60aacd	-0.013712597
4	0x3d04e8aa	0.03244845
5	0xbe2985ba	-0.16554919
6	0xbe30e4ba	-0.17274752
7	0x3d75f8ed	0.060051847
8	0xbd936a98	-0.071980655
9	0xbd336371	-0.043796007
10	0x3d2f4b5e	0.042796485
11	0xbd327b3d	-0.04357456
12	0xbde00a9b	-0.10939523
13	0xbdcd03a5	-0.10010461
14	0x3d736e9d	0.05943166
15	0xbdd99550	-0.10624182
16	0x3cbaa16e	0.022782054
17	0xbdb68f5c	-0.089140624
18	0xbe1ff1a7	-0.15619527
19	0x3d9d088c	0.07667646
20	0x3cb279d5	0.02178661
21	0xbd284cf4	-0.041089013
22	0xbe5ed8ce	-0.21762392
23	0xbe354a4d	-0.17704125
24	0xbcaa0fc6	-0.020759474
25	0x3d587b87	0.05285218
26	0xbe46d48f	-0.19417022
27	0xbde5d478	-0.11222166
28	0x3cbb3407	0.022851957
29	0x3d896fa4	0.06710747
30	0x3dacf146	0.08444457
31	0x3b8afe03	0.0042417063
32	0xbc5979f2	-0.013273703
33	0xbe2d88eb	-0.16946761
34	0xbe003770	-0.12521148
35	0x3d9f6ec3	0.07784798
36	0x3d8dfdc0	0.069331646
37	0x3d5d5fc2	0.0540464
38	0xbd2daec7	-0.04240301
39	0xbe2cfabf	-0.16892527
40	0xbd187468	-0.03722039
41	0x3a71ab66	0.0009218961
42	0x3db5c957	0.08876293
43	0xbdda7358	-0.10666531
44	0x3d410ed0	0.047133267
45	0x3dadc174	0.08484164
46	0x3ad9c6a5	0.0016614987
47	0x3d55b0af	0.05217045
48	0xbd8caee6	-0.06869297
49	0x3d42ba0b	0.047540706
50	0xbd85adeb	-0.06527313
51	0xbdc75ba3	-0.09734275
52	0x3d3ed683	0.046591293
53	0x3de3bb79	0.11119742
54	0xbe204270	-0.15650344
55	0x3e0525c1	0.13002683
56	0xbcc46f44	-0.023978837
57	0x3cc894d8	0.024485037
58	0x3dff94bf	0.12479543
59	0x3c2354d2	0.009968953
60	0xbd92c25f	-0.071659796
61	0xbca5b522	-0.020227972
62	0x3ae0b9ed	0.0017145254
63	0x3cb02aaf	0.021504728
64	0x3e003b57	0.12522636
65	0x3ca04d64	0.019568153
66	0xbe20b57a	-0.15694228
67	0xbc242f5c	-0.010021057
68	0xbe19255a	-0.14955655
69	0xbdcfb6e7	-0.10142308
70	0xbbd675d3	-0.0065448075
71	0xbe2b5ac9	-0.1673385
72	0x3dda56c7	0.10661083
73	0xbdc3e3fe	-0.095649704
74	0x3d7297e2	0.059226878
75	0x3e1b98ea	0.15195051
76	0x393a6168	0.00017774629
77	0x3dc10c82	0.09426214
78	0xbe25b8bf	-0.16183756
79	0xbd8506a3	-0.064954065

weight f4 [5, 80]
0	0x3d58251c	0.052769765
1	0x3bde6243	0.006786616
2	0x3d67aac7	0.05655935
3	0xbcd01641	-0.025401236
4	0xbc97f925	-0.018551419
5	0x3d84f628	0.06492263
6	0x3d15678a	0.036475696
7	0xbd1c2fdb	-0.038131576
8	0xbd720993	-0.059091162
9	0x3b7f9bd3	0.003900279
10	0x3c9bdaa4	0.019025154
11	0xbbc309a5	-0.0059520775
12	0xbc51dcae	-0.012808962
13	0x3ccac6cb	0.024752995
14	0xb88a5520	-6.5962086e-05
15	0xbcc97f4f	-0.024596838
16	0xbc3d3851	-0.011549071
17	0xbb7336d1	-0.003711153
18	0xbd89b004	-0.067230254
19	0xbcb4e65c	-0.0220825
20	0x3d0d53fc	0.034503922
21	0xbc286d6c	-0.010279994
22	0xbc9bed43	-0.019034034
23	0xbd9be1eb	-0.0761145
24	0x3b54b1a4	0.0032454515
25	0x3d49bab5	0.049250323
26	0xbd7faebc	-0.0624225
27	0xb93aca00	-0.00017813593
28	0xbd5cf178	-0.05394122
29	0x3d31d2e0	0.043413997
30	0xbc996db2	-0.018729065
31	0x3d28fa93	0.04125459
32	0xbd2b15cd	-0.041768838
33	0x3ce99729	0.028514462
34	0x3ce35c0b	0.02775385
35	0xbd375a2c	-0.04476373
36	0x3c64fd01	0.013976336
37	0x3bebe7b7	0.0071992534
38	0x3c60bcf6	0.013716927
39	0x3ce8b962	0.02840871
40	0x3d55fd4b	0.052243512
41	0xbc81fa9e	-0.015866574
42	0x3bbcb87c	0.005759297
43	0xbd7cd99b	-0.061730962
44	0x3c7bda5d	0.015371886
45	0xbbf709bb	-0.0075390018
46	0x3d064e66	0.03278961
47	0x3d7d1dea	0.061796106
48	0x3d741d3f	0.059598204
49	0x3d4e2b8e	0.050334506
50	0xbd7119bc	-0.058862433
51	0x3b4eb9aa	0.003154377
52	0xb9ed7863	-0.00045293858
53	0x3cb36daa	0.021902878
54	0xbd4e4246	-0.050356172
55	0xbd60154b	-0.054707807
56	0x3d21da9c	0.039515123
57	0x3d27897a	0.040902592
58	0xbcb1b09b	-0.021690657
59	0x3d0e6b34	0.034770206
60	0x3d7b01cc	0.06128101
61	0xbc931513	-0.017954385
62	0x3d4191c3	0.04725815
63	0xbc3abc5c	-0.011397447
64	0xbb3d26f9	-0.002886234
65	0x3ca5c4a1	0.020235362
66	0x3c359d0f	0.011084809
67	0xbd9fa6c0	-0.07795477
68	0xbd8dfb38	-0.06932682
69	0x3c056603	0.008141997
70	0x3a01f533	0.0004957497
71	0x3d522b75	0.051310975
72	0x3d709fcc	0.058746144
73	0xbd5c5922	-0.05379594
74	0x3c37ca74	0.011217702
75	0x3d264d0a	0.040600814
76	0xbd4aa455	-0.049473125
77	0x3ceab103	0.028648859
78	0xbc31df8a	-0.0108565185
79	0x3cc019a0	0.023449719
80	0xbd468cba	-0.04847405
81	0x3d2dc1e7	0.042421248
82	0x3cd42a56	0.025899094
83	0xbb77b720	-0.003779836
84	0xbd1610f0	-0.036637247
85	0xbd7126b5	-0.058874805
86	0x3d8b5f81	0.06805325
87	0xbc265925	-0.01015309
88	0x3c569904	0.013098005
89	0xbd314bfd	-0.04328536
90	0x3c227a41	0.009916843
91	0x3ce582a7	0.028016401
92	0xbd025a7a	-0.031824566
93	0xbd7e4bf9	-0.062084172
94	0xbba21db4	-0.0049473885
95	0xbca5495e	-0.020176586
96	0x3d769f11	0.06021029
97	0xbc83520a	-0.01603033
98	0x3cdc254b	0.026873251
99	0x3ca0c8df	0.019627033
100	0x3d71e9bd	0.0590608
101	0x3c7d2b15	0.015452166
102	0x3ca919e4	0.020642228
103	0x3cc40aff	0.023931025
104	0xbcde7a61	-0.027157964
105	0x3b1b255f	0.0023673398
106	0x3c102a2e	0.008799119
107	0x3c4483f1	0.011994348
108	0xbc1cfa1e	-0.009581117
109	0xbd48ffe3	-0.049072158
110	0x3d34dc7b	0.04415558
111	0x3d3416e6	0.04396715
112	0x3d09e02c	0.033661053
113	0xbcffad34	-0.03121052
114	0xbcbcc01c	-0.023040824
115	0xbd16a10a	-0.036774673
116	0x3d1fee0c	0.03904538
117	0xbc48f89d	-0.012266305
118	0xbc74293b	-0.014902408
119	0xbce8f82e	-0.028438654
120	0xbaa72e3f	-0.0012754871
121	0xbc0cda6e	-0.008597
122	0xbd583e74	-0.052793935
123	0x3caf2f45	0.021384845
124	0xbc0ce0b2	-0.008598493
125	0xbd352a60	-0.044229865
126	0x3d058015	0.03259285
127	0xbbb045af	-0.0053794007
128	0xbb1ee630	-0.002424609
129	0xbce431e3	-0.02785582
130	0x3d26293f	0.04056668
131	0xbd705195	-0.058671553
132	0x3cc4f2e5	0.024041602
133	0x3c806a39	0.01567565
134	0x3d209623	0.03920568
135	0xbcdbab55	-0.026815096
136	0xbcbad0a9	-0.022804575
137	0xbced85d3	-0.028994476
138	0x3bc913e7	0.0061364057
139	0x3d16b9af	0.036798175
140	0xbd4f5d0c	-0.050625846
141	0x3ce2fae3	0.027707523
142	0xbd01effa	-0.031723
143	0xbd37ec33	-0.04490299
144	0x3c3566d8	0.011071883
145	0x3d1e5ff7	0.038665738
146	0x3ce68cb0	0.028143257
147	0x3d0b90f0	0.03407377
148	0xbd80e2d5	-0.06293265
149	0x3c363db8	0.011123113
150	0xbc348b8b	-0.011019598
151	0x3d5589b1	0.052133266
152	0x3a906d05	0.0011018818
153	0x3d67fed5	0.05663951
154	0x3ab05558	0.0013453169
155	0x3d353b35	0.044245917
156	0x3c3d1655	0.011540969
157	0x3d25a101	0.04043675
158	0xbd088fad	-0.033340145
159	0x3c6f42ed	0.014603359
160	0x3caaa3f7	0.020830138
161	0xbce8c443	-0.028413897
162	0x3d3e0b5f	0.046397563
163	0x3d608a33	0.054819297
164	0xbd8a3b6a	-0.067496136
165	0x3c81fbd1	0.015867146
166	0x3d9e6155	0.07733408
167	0x3d378b69	0.044810686
168	0x3bf6eca2	0.007535533
169	0xbd4154b3	-0.047199916
170	0x3cd08536	0.025454145
171	0xbd22d56c	-0.039754316
172	0x3d0e858b	0.034795325
173	0x3d6afd16	0.057370268
174	0xbc9ca0c2	-0.019119624
175	0xbbcc2ad4	-0.0062306914
176	0x3ce7610f	0.028244523
177	0x3cce1f42	0.02516139
178	0x3d3c9790	0.04604298
179	0x3b78ddbd	0.0037973963
180	0xbce34698	-0.027743623
181	0x3d00777e	0.031363957
182	0xbc5f4f65	-0.013629769
183	0x3c654e68	0.013995744
184	0xbb7e718c	-0.0038825003
185	0x3d057ddb	0.03259073
186	0xbd967708	-0.07346922
187	0x3d5c31e2	0.05375851
188	0xbd84c8a0	-0.06483579
189	0x3d1e8fd4	0.038711384
190	0xbd06ddd3	-0.03292639
191	0x3d57fb8e	0.052730136
192	0x3d901d07	0.070367865
193	0xbd98a5ec	-0.07453522
194	0xbb781574	-0.0037854584
195	0x3d8135b4	0.06309071
196	0xbcd7367e	-0.026271101
197	0x3d3afa85	0.04564907
198	0x3d18ae6c	0.037275717
199	0xbd5d0da0	-0.053968072
200	0x3cecc8b1	0.02890429
201	0xbbbd6c00	-0.005780697
202	0xbcd00c13	-0.025396382
203	0xbb854608	-0.0040671863
204	0xbcc58a41	-0.024113776
205	0xbb8b5206	-0.0042517213
206	0x3c894e3e	0.016760942
207	0xbd3796b9	-0.044821475
208	0xbd85fe89	-0.06542689
209	0x3c4ed7eb	0.012624721
210	0x3cbda84b	0.023151537
211	0x3d4cac6c	0.04996912
212	0xbd227573	-0.03966279
213	0xbc8b58b6	-0.017010074
214	0x3d49e17e	0.04928731
215	0xbcdddf87	-0.027084125
216	0xbd03c088	-0.032166034
217	0xbcbdd84c	-0.023174427
218	0xbd34882b	-0.044075172
219	0xbd7f4031	-0.062317077
220	0x3d117779	0.03551433
221	0xbb48c4a9	-0.0030634797
222	0xbcf0adef	-0.029379813
223	0x3b46cb83	0.0030333705
224	0xbc166117	-0.009178421
225	0x3d40ce8b	0.047071975
226	0xbabae7bd	-0.0014259737
227	0x3b07d214	0.0020724582
228	0x3bcca461	0.0062451814
229	0x3d8d8474	0.06910029
230	0xbbb2516e	-0.005441836
231	0x3c56ac76	0.013102641
232	0xbd3c66e2	-0.045996554
233	0x3c17f40b	0.009274493
234	0xbcea0f9c	-0.028571896
235	0xbd429b3f	-0.047511335
236	0xbc7691f2	-0.0150494445
237	0x3bb4b8d1	0.005515196
238	0x3d508e0c	0.050916716
239	0x3d0aa01e	0.033844106
240	0xbc5d4aed	-0.013506633
241	0xbd3fb7b4	-0.046806052
242	0xbc33d256	-0.010975441
243	0xbcc7cac0	-0.02438867
244	0x3d2ff8cb	0.042961877
245	0xbcf31995	-0.029675284
246	0xbc14499b	-0.009050752
247	0xbc9012a0	-0.017587006
248	0xbcc17e4d	-0.023619795
249	0x3d696d4b	0.056988996
250	0xbd5b0c6d	-0.053478647
251	0x3be35d2c	0.006938597
252	0xbc8d1535	-0.017222026
253	0xbd48a30b	-0.048983615
254	0x3c5a8c7b	0.013339157
255	0x3be20c0b	0.0068984083

bias f4 [5]
0	0xbccc95a6	-0.024973702
1	0xbca14a27	-0.019688679
2	0x3ca6dff4	0.020370461
3	0x3d813cdc	0.06310436
4	0x3c71e565	0.014764165
