final_project/mlruns/1/62a1202877a74ababffaaab96dda9ca6/artifacts/cvae_6/data/model.pth (torch, 48071 bytes, 10 tensors)

weight f4 [80, 10]
0.1480351 -0.19389844 0.15541366 -0.14330496 -0.28116077 -0.061874367 -0.1198903 0.030871138
0.008320394 0.12687822 0.2248646 -0.2232261 0.35072586 0.23201427 0.066986136 0.21012664
-0.03883396 -0.012888753 -0.25429037 -0.09935728 -0.31373522 0.013386834 0.18131672 -0.21325958
-0.093094245 -0.20564201 -0.06310443 0.14760327 0.13964723 0.30737093 -0.27305704 0.21900837
-0.03339226 0.2807746 -0.08715697 0.072491296 0.23773074 -0.028360091 -0.28351972 0.28712094
0.1999068 -0.20819873 0.2367554 0.045550425 -0.11595836 0.16852957 -0.23591064 0.19878216
0.03607634 0.30774266 0.24704581 0.20003048 -0.038476076 0.00044942705 0.2073436 -0.08056932
0.13298084 -0.24794976 0.023882437 0.02051852 0.25572237 0.2744487 0.095976315 -0.07662011
0.23543826 0.1475338 -0.25495854 0.16945213 0.28187242 0.22478934 0.29276216 -0.2229179
0.12704094 0.26614794 0.08138634 -0.05621228 0.37043706 -0.16159377 0.33153117 0.16852166
0.06933119 -0.29825082 -0.045193203 -0.24098587 0.2173486 0.21007183 0.2503722 -0.29143497
-0.27857074 0.267615 0.0668775 -0.24560048 0.16077884 0.092372835 -0.27293748 0.10184769
0.069842294 0.33660597 0.08726482 0.1206065 0.17162825 -0.1320481 0.049463328 -0.277148
-0.019800575 -0.094006896 0.2175176 0.27162275 0.026780605 0.26011446 0.12418243 0.009384475
0.25548738 -0.037403427 0.05039235 -0.005406663 0.21396077 0.10904422 0.13082679 0.022910465
0.094149694 0.2683791 0.065383345 -0.23568603 -0.18938491 0.13324302 -0.3079636 -0.28164443
-0.23669527 0.05468602 0.27087697 0.15589517 -0.2511693 -0.040064376 -0.006822493 -0.0421067
0.053782307 -0.17921275 0.06591563 -0.18788049 -0.20763251 -0.21904498 -0.061418228 0.19556926
0.2535124 0.28586313 -0.028151505 0.1863599 -0.24891986 -0.037084594 0.12369808 -0.29983243
0.12845998 0.06615731 0.22664858 0.06821632 0.2947851 0.19074494 -0.09736595 0.27426276
0.15887344 -0.048632327 -0.081258655 -0.21330376 0.22462335 0.30694747 -0.25012845 0.14131601
0.078944035 -0.14027224 0.19549474 -0.038962897 0.18934548 -0.27057976 -0.21041709 -0.21860412
0.18189378 0.03891099 0.27969176 -0.06358405 0.031382017 0.30049166 0.024414152 0.2924803
-0.23468405 0.16582206 0.010283112 0.17964435 0.01910676 -0.03057568 -0.3234157 0.3280878
0.19757812 -0.22957666 0.30739096 -0.2035106 -0.09112348 0.26929647 -0.04590539 -0.14863478
0.12401906 0.14983352 0.055174854 -0.26609835 0.18549086 0.27792272 -0.16887161 0.17746589
0.08397754 0.15760899 -0.1940019 0.24469376 -0.19456756 -0.08612396 0.027406177 -0.21256845
0.12225094 -0.069695964 -0.14831017 0.27438456 0.29219478 -0.086845264 -0.22223799 0.10981089
0.1410408 0.14222725 -0.28783453 0.3136463 -0.26962927 -0.23827787 0.21648376 0.030156493
0.01905998 0.18835497 0.07023716 -0.016206186 0.1261074 -0.19677034 0.28497916 0.27910537
-0.28326982 -0.00094348274 -0.053133223 -0.28727263 -0.095233425 -0.18451437 0.07467351 -0.17204244
-0.2661227 0.027431976 0.118549645 -0.10558446 -0.12835479 -0.17234485 -0.09493125 -0.053029627
00000000: 8396 173e 508d 46be c224 1f3e 89be 12be
00000010: 4ef4 8fbe fa6f 7dbd 0c89 f5bd 78e5 fc3c
00000020: 4352 083c 5dec 013e e842 663e 6295 64be
00000030: 5792 b33e 2695 6d3e 0730 893d 702b 573e
00000040: 5c10 1fbd 592b 53bc 5932 82be d47b cbbd
00000050: e7a1 a0be 7454 5b3c 17ab 393e b860 5abe
00000060: 32a8 bebd d293 52be e53c 81bd 5025 173e
00000070: afff 0e3e b95f 9d3e 22ce 8bbe bb43 603e
00000080: 53c6 08bd b0c1 8f3e 5a7f b2bd 5176 943d
00000090: b06f 733e 6c53 e8bc 7f29 91be 8401 933e
000000a0: 5eb4 4c3e 0c32 55be 0270 723e 1593 3a3d
000000b0: 947b edbd 0493 2c3e 8f92 71be 8d8d 4b3e
000000c0: c9c4 133d 7290 9d3e 94f9 7c3e cad4 4c3e
000000d0: 1799 1dbd 14a1 eb39 e151 543e 8701 a5bd
000000e0: 212c 083e 8be6 7dbe 1aa5 c33c 7516 a83c
000000f0: 0bee 823e 8a84 8c3e 3b8f c43d 01eb 9cbd
00000100: ba16 713e 1a13 173e ed89 82be dc84 2d3e
00000110: 9551 903e 2d2f 663e ece4 953e 9744 64be
00000120: 0517 023e 8b44 883e e2ad a63d d93e 66bd
00000130: eda9 bd3e d678 25be 74be a93e f190 2c3e
00000140: 83fd 8d3d 55b4 98be 821c 39bd 00c5 76be
00000150: a290 5e3e 121d 573e c930 803e f736 95be
00000160: d3a0 8ebe d504 893e 12f7 883d b17e 7bbe
00000170: 35a3 243e f82d bd3d 76be 8bbe 8695 d03d
00000180: 7a09 8f3d 9e57 ac3e e6b7 b23d 8a00 f73d
00000190: 51bf 2f3e 9e37 07be 0f9a 4a3d 58e6 8dbe
000001a0: d134 a2bc b086 c0bd efbc 5e3e 2312 8b3e
000001b0: 0063 db3c b92d 853e 5c53 fe3d 57c1 193c
000001c0: 3ecf 823e 5634 19bd 3568 4e3d 602a b1bb
000001d0: 8818 5b3e 9352 df3d 75f7 053e baae bb3c
000001e0: 8ed1 c03d fc68 893e b4e7 853d ae57 71be
000001f0: 1eee 41be dc70 083e 68ad 9dbe b333 90be
00000200: 3f60 72be 73fe 5f3d 63b0 8a3e fca2 1f3e
00000210: 4399 80be 8b1a 24bd 388f dfbb 1378 2cbd
00000220: d64a 5c3d 8c83 37be c6fe 863d be63 40be
00000230: 9e9d 54be 544d 60be ae91 7bbd 4f43 483e
00000240: 61cc 813e a75c 923e fc9d e6bc 21d5 3e3e
00000250: d9e4 7ebe 04e6 17bd 6b55 fd3d a383 99be
00000260: 038b 033e 7c7d 873d 9116 683e ffb4 8b3d
00000270: 13ee 963e a452 433e cd67 c7bd 2b6c 8c3e
00000280: b8af 223e b132 47bd f06a a6bd 4d6c 5abe
00000290: aa03 663e 3828 9d3e d610 80be 25b5 103e
000002a0: 69ad a13d 87a3 0fbe c62f 483e 8f97 1fbd
000002b0: c8e3 413e 6e89 8abe 9477 57be c2d9 5fbe
000002c0: 5d42 3a3e 2161 1f3d c233 8f3e 5b38 82bd
000002d0: 6e8a 003d 0bda 993e 3000 c83c fabf 953e
000002e0: 0451 70be 42cd 293e 7f7a 283c b0f4 373e
000002f0: c885 9c3c d979 fabc be96 a5be 20fb a73e
00000300: eb51 4a3e 2516 6bbe 5962 9d3e 1565 50be
00000310: f29e babd 3ae1 893e 4a07 3cbd b733 18be
00000320: b4fd fd3d f56d 193e 07ff 613d 0b3e 88be
00000330: 51f1 3d3e e34b 8e3e aeec 2cbe 9eb9 353e
00000340: 6bfc ab3d 4064 213e 6fa8 46be 0091 7a3e
00000350: b83c 47be c261 b0bd eb82 e03c 8bab 59be
00000360: b35e fa3d c2bc 8ebd 9fde 17be 227c 8c3e
00000370: 8e9a 953e eedb b1bd 5b92 63be 88e4 e03d
00000380: 006d 103e 05a4 113e 0c5f 93be 3f96 a03e
00000390: d90c 8abe 1dff 73be ebad 5d3e c00a f73c
000003a0: ad23 9c3c 20e0 403e 80d8 8f3d d6c2 84bc
000003b0: 4c22 013e 2a7e 49be cae8 913e e6e6 8e3e
000003c0: be08 91be 0e54 77ba 39a2 59bd 6615 93be
000003d0: be09 c3bd 56f1 3cbe 6dee 983d e52b 30be
000003e0: 3c41 88be 06b9 e03c 28ca f23d aa3c d8bd
000003f0: 706f 03be 2b7b 30be 516b c2bd 9835 59bd

bias f4 [80]
-0.23632829 0.28660217 -0.11948837 -0.094930656 -0.26798075 -0.12703088 -0.26775852 0.26860878
-0.1434067 0.3627271 -0.07428827 0.28607988 -0.23888439 -0.2553875 -0.1650558 0.366505
-0.30929947 -0.18519711 0.3997627 0.2363067 0.35720664 0.3528467 0.41585228 0.31754583
0.5087212 0.41681573 0.4248626 0.33657327 -0.10907303 -0.04648 0.37401265 -0.22674613
-0.2921265 0.40302068 0.31751776 -0.04886311 -0.1460011 0.24082859 0.47300935 -0.039730527
0.3452736 0.364059 -0.22381146 0.40635654 0.29899952 -0.14887579 -0.2500006 0.39562768
0.4418397 -0.065637276 0.3629936 0.41571984 0.036729135 -0.14503357 -0.24154869 -0.20972113
0.39676213 -0.11744688 -0.19669984 0.48715127 0.422765 -0.27251443 -0.089099385 0.23076549
0.41725013 0.40010807 0.27903816 -0.1646892 -0.21817969 0.4187309 -0.10447852 0.2668607
0.415309 0.43327644 0.4898292 -0.03878591 -0.16680217 -0.13327928 -0.11987383 0.30723423
00000000: 0b00 72be 85bd 923e 52b6 f4bd 016b c2bd
00000010: c634 89be 6214 02be a517 89be 1787 893e
00000020: 35d9 12be 5eb7 b93e 7324 98bd 1079 923e
00000030: 1c9e 74be 27c2 82be 6304 29be 8ba6 bb3e
00000040: 805c 9ebe 50a4 3dbe b2ad cc3e 62fa 713e
00000050: cae3 b63e 53a8 b43e 97ea d43e 5e95 a23e
00000060: 8d3b 023f df68 d53e 9787 d93e 5553 ac3e
00000070: ae61 dfbd d061 3ebd 967e bf3e 2330 68be
00000080: 9b91 95be ba58 ce3e b091 a23e af24 48bd
00000090: 5081 15be c59b 763e 482e f23e 7abc 22bd
000000a0: b4c7 b03e f165 ba3e d52e 65be f70d d03e
000000b0: 7716 993e e572 18be 1400 80be b68f ca3e
000000c0: d038 e23e d66c 86bd 4cda b93e 3bd9 d43e
000000d0: 4a71 163d ae83 14be 8a58 77be 23c1 56be
000000e0: 6824 cb3e fd87 f0bd af6b 49be e46b f93e
000000f0: a774 d83e 0387 8bbe bd79 b6bd ca4d 6c3e
00000100: cfa1 d53e f7da cc3e 17de 8e3e 49a4 28be
00000110: 7f6a 5fbe e663 d63e d6f8 d5bd f7a1 883e
00000120: 62a3 d43e 69d6 dd3e e5ca fa3e f9dd 1ebd
00000130: 30ce 2abe 5d7a 08be 6980 f5bd ce4d 9d3e

weight f4 [40, 80]
-0.07781426 0.1595153 -0.061213575 -0.02393598 0.008627537 0.073326156 0.083946444 0.1845539
0.06691092 0.07892962 -0.015184182 0.0040394305 -0.030155009 0.02657432 0.064302005 0.10029915
0.037565045 0.004823218 0.01752306 -0.02831144 -0.053314622 -0.014511364 0.024688393 0.16282478
0.0033946969 0.11636165 0.080438524 0.07700501 -0.008357644 0.040159874 -0.03755709 -0.11158646
-0.038765885 0.04233039 -0.0032440121 -0.06264423 -0.06332981 0.072421916 -0.025047883 -0.06931895
0.020037362 0.099761374 0.1081051 0.13500626 0.13022594 0.0010662669 -0.031159285 0.097523294
-0.04377626 0.087237634 0.030170353 -0.0057703545 -0.07960163 -0.08074979 -0.09912816 0.09416932
0.07470579 -0.017749915 0.020527577 0.007975157 0.114150144 -0.04670211 -0.062995166 0.033053424
0.15936705 0.10665146 0.10735365 0.1088811 0.040460035 0.03240628 0.099672794 0.05369535
-0.052415807 0.1569986 0.10139724 -0.10218623 -0.041270085 0.0631687 -0.010998535 0.17730665
-0.056868605 -0.022612173 0.108409196 0.017823398 0.050184533 -0.0976737 -0.025195964 -0.08021876
0.063870795 -0.10038327 0.06749687 -0.08561853 -0.011717794 0.11143472 0.06897525 -0.11438246
0.103392884 0.0039911773 0.029709175 -0.089582555 0.06926083 0.038921878 -0.027958643 -0.11587821
-0.11425368 0.07325976 -0.110993855 0.073379666 0.053786024 0.012190392 -0.0052043316 0.07420645
-0.05794988 -0.09532138 0.054987542 -0.10111057 0.0029565776 0.08372122 0.0146377655 0.0082671475
0.034740817 0.013744874 0.10035234 0.02834581 0.011561229 -0.06292049 -0.017161591 -0.08575321
0.07231769 0.00241686 0.08378043 -0.009931944 -0.08423567 -0.093876116 0.008935973 0.03927339
0.05309314 0.044941336 -0.04585521 -0.10527527 -0.05451096 0.0023447822 -0.07985332 -0.05979786
0.013279975 0.02646284 -0.12279861 -0.030066444 0.06894327 -0.05988515 -0.034304563 -0.10444516
-0.0748896 -0.12216872 -0.09590963 0.09284046 -0.087267116 -0.08181419 -0.08606859 -0.050946016
0.03041429 0.101780646 0.068802446 -0.091295764 -0.05113603 -0.002352819 0.024834562 -0.034749873
-0.02767148 0.08808483 0.07915993 -0.046876233 0.056287438 0.0048432634 -0.051774204 0.088655695
-0.10192324 0.10693345 -0.074245766 0.105573215 -0.045273833 0.12866624 0.10048097 0.13261043
0.029267918 -0.04986326 -0.02317264 0.033764675 0.0043031326 -0.06947005 -0.006185611 0.0049635083
-0.07780894 -0.00875115 0.03415269 -0.07567142 0.05625069 0.103240505 -0.06900834 0.09646301
-0.043438736 -0.049416665 -0.0026352794 0.017940853 -0.028352568 -0.0010801014 -0.109051794 0.035650324
-0.008436844 -0.08584885 0.14668278 -0.059530754 -0.024983186 -0.022680623 0.09357913 0.085934184
-0.037116528 0.08923751 0.01412062 -0.007478964 0.1281835 -0.01688013 -0.07396993 0.08525887
0.13648668 0.1325937 0.02896818 0.033472788 0.059438765 -0.037402745 -0.078231394 -0.03768678
0.050015546 0.03410385 0.12841299 -0.040777173 -0.041477587 0.022828525 -0.01215246 -0.0003937574
-0.07883895 -0.06547721 -0.08806456 0.08220833 0.051919453 0.07971732 -0.079756744 -0.14811774
-0.0042822873 -0.12346728 0.04870078 -0.08692422 0.0020153807 0.090498105 0.08603005 -0.05842952
00000000: 155d 9fbd fb57 233e 16bb 7abd 6315 c4bc
00000010: 835a 0d3c 062c 963d 1dec ab3d b3fb 3c3e
00000020: 9808 893d daa5 a13d 13c7 78bc 335d 843b
00000030: a307 f7bc 63b2 d93c c5b0 833d a469 cd3d
00000040: cedd 193d 160c 9e3b 858c 8f3c 65ed e7bc
00000050: 6f60 5abd 12c1 6dbc 503f ca3c 8abb 263e
00000060: 9079 5e3b 044f ee3d f4bc a43d cdb4 9d3d
00000070: 80ee 08bc ae7e 243d 77d5 19bd 7187 e4bd
00000080: fac8 1ebd a262 2d3d 7e99 54bb 9e4b 80bd
00000090: 0fb3 81bd f151 943d 3831 cdbc 18f7 8dbd
000000a0: 6525 a43c b14f cc3d 3566 dd3d 153f 0a3e
000000b0: f359 053e fbc1 8b3a c241 ffbc 4bba c73d
000000c0: bc4e 33bd a5a9 b23d d127 f73c 3e15 bdbb
000000d0: 2e06 a3bd 2560 a5bd b403 cbbd d8db c03d
000000e0: 59ff 983d 4568 91bc 7329 a83c 3caa 023c
000000f0: 8dc7 e93d b64a 3fbd 9c03 81bd 0763 073d
00000100: 1e31 233e 156c da3d 3bdc db3d 0efd de3d
00000110: 6cb9 253d 73bc 043d 4021 cc3d a8ef 5b3d
00000120: f5b1 56bd 3ec4 203e 5ba9 cf3d 0447 d1bd
00000130: d20a 29bd 975e 813d 3333 34bc e08f 353e
00000140: 0eef 68bd 2a3d b9bc a405 de3d 6002 923c
00000150: 4c8e 4d3d 2609 c8bd c467 cebc bc49 a4bd
00000160: b1ce 823d be95 cdbd cd3b 8a3d c558 afbd
00000170: fefb 3fbc e337 e43d e542 8d3d 5a41 eabd
00000180: a6bf d33d 6cc8 823b a860 f33c 0f77 b7bd
00000190: 9fd8 8d3d 8c6c 1f3d 8609 e5bc 8e51 edbd
000001a0: d5fd e9bd 3709 963d bf50 e3bd 1448 963d
000001b0: bc4e 5c3d 36ba 473c 1989 aabb 8df9 973d
000001c0: da5c 6dbd db37 c3bd 9e3a 613d 0f13 cfbd
000001d0: 24c3 413b 0876 ab3d 3dd3 6f3c ee72 073c
000001e0: 634c 0e3d 2e32 613c 8785 cd3d 7935 e83c
000001f0: 4f6b 3d3c 75dc 80bd 7796 8cbc 619f afbd
00000200: 4c1b 943d 2f64 1e3b 1395 ab3d 98b9 22bc
00000210: c083 acbd 1f42 c0bd 3068 123c 22dd 203d
00000220: 3178 593d 6814 383d acd2 3bbd 909a d7bd
00000230: e246 5fbd ebaa 193b 238a a3bd 9aee 74bd
00000240: 4194 593c 99c8 d83c d67d fbbd e74d f6bc
00000250: 2132 8d3d 224a 75bd f182 0cbd 58e7 d5bd
00000260: b85f 99bd 9833 fabd 456c c4bd 2423 be3d
00000270: 1ab9 b2bd 338e a7bd bb44 b0bd c5ac 50bd
00000280: 6427 f93c 5f72 d03d 4ce8 8c3d 46f9 babd
00000290: 0474 51bd c131 1abb da71 cb3c e255 0ebd
000002a0: 4daf e2bc d265 b43d 9a1e a23d 4b01 40bd
000002b0: a88d 663d 3db4 9e3b 3011 54bd 1e91 b53d
000002c0: 22bd d0bd edff da3d 2a0e 98bd c536 d83d
000002d0: 0e71 39bd 15c1 033e f8c8 cd3d 07cb 073e
000002e0: 46c3 ef3c 6b3d 4cbd 8cd4 bdbc d44c 0a3d
000002f0: 4b01 8d3b 5046 8ebd aab0 cabb eda4 a23b
00000300: 4b5a 9fbd fc60 0fbc b1e3 0b3d 9ef9 9abd
00000310: 2067 663d c26f d33d 3f54 8dbd 668e c53d
00000320: d1ec 31bd 2169 4abd a7b4 2cbb b2f8 923c
00000330: a543 e8bc 3092 8dba 8c56 dfbd 1306 123d
00000340: b03a 0abc 86d1 afbd 0334 163e 85d6 73bd
00000350: 8aa9 ccbc b7cc b9bc 6aa6 bf3d 43fe af3d
00000360: 8007 18bd 28c2 b63d 2c5a 673c 1912 f5bb
00000370: 8942 033e 3348 8abc 8c7d 97bd 349c ae3d
00000380: 2ac3 0b3e a5c6 073e ad4e ed3c c31a 093d
00000390: 1076 733d 9f33 19bd c837 a0bd 745d 1abd
000003a0: 1add 4c3d 7bb0 0b3d b27e 033e f705 27bd
000003b0: 67e4 29bd e302 bb3c 1d1b 47bc 3971 ceb9
000003c0: 5176 a1bd ea18 86bd 315b b4bd d75c a83d
000003d0: 7ea9 543d d642 a33d 8157 a3bd 2dac 17be
000003e0: 6e52 8cbb 6adc fcbd 787a 473d 5305 b2bd
000003f0: 7a14 043b 1257 b93d 8630 b03d cb53 6fbd

bias f4 [40]
0.08131264 -0.06052336 0.08069452 -0.042669185 0.048047084 -0.053849835 0.13831362 -0.070014104
0.00086686085 0.054167323 -0.06721034 -0.08480818 -0.019399244 0.0057097054 0.022110574 0.028386995
-0.06443018 0.032992702 -0.16192369 0.0912913 -0.061615825 -0.01836897 0.026237207 0.14265835
0.038289938 -0.039946396 0.019235037 -0.024006417 -0.009696831 -0.0053319507 0.14162345 -0.09414238
-0.074814886 -0.014978868 -0.10650113 0.1313172 0.076912306 0.0802824 0.0074126055 -0.01593131
00000000: 3e87 a63d 58e7 77bd 2b43 a53d e2c5 2ebd
00000010: 05cd 443d a591 5cbd 16a2 0d3e 8e63 8fbd
00000020: 0c3e 633a 8ede 5d3d 93a5 89bd e9af adbd
00000030: 2aeb 9ebc 7b18 bb3b 3c21 b53c d88b e83c
00000040: f8f3 83bd 5b23 073d 53cf 25be eff6 ba3d
00000050: e060 7cbd 867a 96bc 69ef d63c 0815 123e
00000060: e9d5 1c3d d59e 23bd cc92 9d3c 1ba9 c4bc
00000070: 75df 1ebc a5b7 aebb bd05 113e b8cd c0bd
00000080: 8c38 99bd ed69 75bc 441d dabd 0478 063e
00000090: 3384 9d3d 196b a43d 71e5 f23b 6182 82bc

weight f4 [40, 80]
-0.008805545 -0.27439818 -0.020418474 0.032380823 0.03100059 0.0015287753 -0.02912458 -0.3557315
0.080140136 -0.21077025 0.109890014 -0.27012607 0.08573958 -0.070562504 0.016204933 -0.1726927
0.041393314 -0.091706075 -0.21270132 -0.23955345 -0.112862356 -0.20563188 -0.029983941 -0.15567411
-0.12401031 -0.13525337 -0.16385373 -0.06939411 -0.02072214 0.091339886 -0.15029429 0.0767896
-0.08829292 -0.05518804 -0.045686208 -0.07030563 0.020812904 -0.03651122 -0.08399336 0.05945332
-0.20693253 -0.219912 -0.07207759 -0.18253958 -0.012187458 -0.06488687 -0.09532282 -0.07465082
-0.17244753 0.020753434 -0.19173047 -0.12103344 -0.11135674 -0.021820834 -0.09811541 0.049630165
-0.18322915 -0.04975024 -0.049791075 -0.10947013 -0.17739078 -0.016520273 0.02590804 -0.29909512
-0.20334627 -0.0028152696 -0.24452056 -0.040274188 -0.06778688 -0.19874999 -0.0993138 -0.15420242
-0.101489194 -0.16573083 -0.15384665 0.0024735576 -0.056384545 0.058188077 0.08887954 -0.17831421
0.10243223 -0.20984744 0.1090487 0.10702419 -0.025618423 -0.068452 -0.07641075 -0.1749333
-0.03903562 -0.13398834 0.011544503 -0.28474635 0.099685855 -0.048113775 0.06511283 -0.008183768
0.08593305 -0.058967445 -0.076870136 -0.0060095307 -0.21639054 -0.049440883 -0.04958994 -0.06692515
-0.090649545 -0.16479817 -0.17447312 -0.19658042 -0.09597904 0.0038991873 -0.010618634 0.106759325
0.08534375 -0.20402296 -0.059677433 -0.07778584 -0.03866491 -0.052855566 -0.03530372 0.039168842
-0.19798383 -0.17167725 -0.009638612 -0.21643594 -0.034841023 -0.021339534 0.08696682 -0.1031798
-0.08461971 0.08231567 -0.19482489 0.005374546 -0.081536606 0.10018103 0.029138362 -0.061612643
-0.1940473 -0.059679534 0.058624476 -0.19142783 -0.044993345 0.017735748 -0.0013537653 -0.10123457
-0.09730731 0.0077580386 -0.08449795 -0.076400064 -0.042622168 -0.11875809 -0.0059873257 -0.08340769
-0.10202637 -0.11343243 -0.15699136 0.10254009 0.08718463 -0.10812127 0.0976003 -0.2191333
-0.004928349 -0.22133015 -0.09527357 -0.03780498 0.04592089 0.01492871 -0.019205892 -0.2740306
0.008642823 -0.16549288 0.09729051 -0.22380266 -0.092709206 -0.018159311 0.045393515 -0.22834188
-0.045351237 0.029460313 -0.13773312 -0.20910306 -0.14844817 -0.14336443 -0.17651395 -0.03892665
-0.14099327 -0.0038861816 -0.019419687 -0.121807024 -0.057574082 -0.018055206 -0.007978446 0.09650726
0.06467586 -0.15897486 -0.059196796 -0.038551982 0.00839451 -0.24021101 -0.09304234 -0.08193289
-0.211072 -0.11852451 -0.072595425 -0.08132069 -0.12983711 -0.026515717 0.04056659 -0.21950763
-0.14337736 -0.0036314412 -0.06076727 -0.19602321 -0.14525428 0.05916049 0.032574426 -0.025450662
-0.0662773 -0.05820835 0.031882863 -0.063927755 -0.06799495 0.07689329 -0.0060180067 -0.1626977
-0.06430272 -0.048154887 -0.2720202 -0.021226006 -0.01067016 -0.003805302 0.0072591505 -0.1466795
-0.105681844 -0.19582339 -0.085636854 0.053331234 -0.0451325 0.07655319 0.028820915 -0.26984775
0.09309702 -0.07796718 -0.021896537 0.041264772 -0.0094861 -0.05310247 -0.10898337 -0.12678
0.09867632 -0.19382733 0.08749492 -0.2727127 0.07430318 0.05823963 -0.022647183 -0.18867713
00000000: 2245 10bc eb7d 8cbe a544 a7bc c1a1 043d
00000010: f3f4 fd3c 3061 c83a ac96 eebc 7022 b6be
00000020: 8320 a43d 28d4 57be 040e e13d f74d 8abe
00000030: 3c98 af3d 1383 90bd 35c0 843c 5bd6 30be
00000040: 098c 293d 65d0 bbbd 60ce 59be 804d 75be
00000050: 6124 e7bd 2a91 52be e2a0 f5bc 0969 1fbe
00000060: 1ef9 fdbd dc7f 0abe 46c9 27be 801e 8ebd
00000070: 7ac1 a9bc 6810 bb3d bfe6 19be de43 9d3d
00000080: ebd2 b4bd db0c 62bd 7621 3bbd 66fc 8fbd
00000090: d37f aa3c ca8c 15bd b604 acbd 5385 733d
000000a0: 1fe6 53be 9c30 61be 6a9d 93bd a8eb 3abe
000000b0: e7ad 47bc 68e3 84bd 9c38 c3bd 87e2 98bd
000000c0: 1696 30be 1b03 aa3c fe54 44be 61e0 f7bd
000000d0: 010f e4bd 9bc1 b2bc bbf0 c8bd 0049 4b3d
000000e0: 6ca0 3bbe e8c6 4bbd baf1 4bbd e031 e0bd
000000f0: eea5 35be 8655 87bc 193d d43c ff22 99be
00000100: 013a 50be 6380 38bb 9963 7abe 8cf6 24bd
00000110: d9d3 8abd 1e85 4bbe 0965 cbbd 3de7 1dbe
00000120: 91d9 cfbd 58b5 29be fa89 1dbe 691b 223b
00000130: 7bf3 66bd 9f56 6e3d 7a06 b63d 0098 36be
00000140: fdc7 d13d 3fe2 56be ed54 df3d 802f db3d
00000150: badd d1bc 9030 8cbd 3d7d 9cbd b721 33be
00000160: d0e3 1fbd 3d34 09be 2825 3d3c 46ca 91be
00000170: 1928 cc3d f312 45bd e059 853d 3615 06bc
00000180: abfd af3d d987 71bd 176e 9dbd 99eb c4bb
00000190: 7b95 5dbe 8682 4abd d21e 4bbd 0e10 89bd
000001a0: 78a6 b9bd dac0 28be 15a9 32be 614c 49be
000001b0: a990 c4bd 8289 7f3b c7f9 2dbc a2a4 da3d
000001c0: b4c8 ae3d 65eb 50be 5370 74bd 2f4e 9fbd
000001d0: 195f 1ebd 147f 58bd a29a 10bd 826f 203d
000001e0: 46bc 4abe 29cc 2fbe 45eb 1dbc 62a1 5dbe
000001f0: 76b5 0ebd 3fd0 aebc a91b b23d ee4f d3bd
00000200: 194d adbd 1e95 a83d 2d80 47be f61c b03b
00000210: aafc a6bd b62b cd3d 93b3 ee3c 8a5d 7cbd
00000220: 56b4 46be 8772 74bd 3820 703d a805 44be
00000230: f14a 38bd 8f4a 913c d370 b1ba 1254 cfbd
00000240: 0e49 c7bd 2537 fe3b 430d adbd a377 9cbd
00000250: 9594 2ebd 7137 f3bd 5431 c4bb a7d1 aabd
00000260: 34f3 d0bd 434f e8bd 58c2 20be 8a00 d23d
00000270: db8d b23d af6e ddbd abe2 c73d 7b64 60be
00000280: fd7d a1bb 5fa4 62be ca1e c3bd 65d9 1abd
00000290: 8b17 3c3d 8c97 743c ad55 9dbc bd4d 8cbe
000002a0: a19a 0d3c f776 29be 3f40 c73d 862c 65be
000002b0: 53de bdbd d6c2 94bc 8dee 393d 74d2 69be
000002c0: 38c2 39bd c156 f13c e909 0dbe 1d1f 56be
000002d0: cc02 18be 20ce 12be 13c0 34be 8d71 1fbd
000002e0: 8a60 10be 4faf 7ebb 0916 9fbc f675 f9bd
000002f0: cdd2 6bbd 83e8 93bc 07b8 02bc 99a5 c53d
00000300: c774 843d 4eca 22be 5778 72bd afe8 1dbd
00000310: 2089 093c e0f9 75be fb8c bebd 6ecc a7bd
00000320: 4223 58be fabc f2bd e9ac 94bd 768b a6bd
00000330: 05f4 04be 7d37 d9bc 2729 263d 9cc6 60be
00000340: 84d1 12be 79fd 6dbb 1ae7 78bd 4fba 48be
00000350: 8abd 14be 4552 723d c36c 053d e87d d0bc
00000360: 65bc 87bd e16b 6ebd 9b97 023d 8eec 82bd
00000370: f040 8bbd 3b7a 9d3d b332 c5bb 3a9a 26be
00000380: 25b1 83bd 0f3e 45bd 3b46 8bbe 29e2 adbc
00000390: e5d1 2ebc 6062 79bb 2bde ed3b 2733 16be
000003a0: b96f d8bd ed85 48be 6062 afbd da71 5a3d
000003b0: dbdc 38bd ebc7 9c3d d719 ec3c 7c29 8abe
000003c0: a7a9 be3d 42ad 9fbd 5e60 b3bc 4005 293d
000003d0: 966b 1bbc fa81 59bd ac32 dfbd 9ed2 01be
000003e0: cf16 ca3d ac7a 46be 8930 b33d 00a1 8bbe
000003f0: 442c 983d ae8c 6e3d 9686 b9bc 9434 41be

bias f4 [40]
-0.13474324 -0.10651238 -0.09895075 -0.10516726 -0.20440382 -0.15778306 -0.11674496 -0.11040671
-0.11966996 -0.0106126955 -0.14041677 -0.04151033 -0.1146905 -0.1940449 -0.07306027 -0.13853487
0.0031544752 -0.040347658 -0.16185713 0.010216199 -0.19629973 -0.109315306 0.0076129395 -0.14660737
-0.095556304 -0.010364752 -0.10489544 -0.16248219 -0.110202104 -0.11745694 -0.032666918 -0.17651087
-0.012073469 -0.08281073 -0.0725135 0.0022473352 -0.09062071 -0.12220802 -0.15128168 -0.030024009
00000000: 22fa 09be 2a23 dabd b1a6 cabd ef61 d7bd
00000010: 3c4f 51be e291 21be fb17 efbd ea1c e2bd
00000020: 8615 f5bd dfe0 2dbc 6ac9 0fbe bc06 2abd
00000030: dae2 eabd b5b3 46be 9fa0 95bd 16dc 0dbe
00000040: 50bb 4e3b 9643 25bd e0bd 25be d861 273c
00000050: cc02 49be b4e0 dfbd f775 f93b 3e20 16be
00000060: 06b3 c3bd ecd0 29bc 6cd3 d6bd bb61 26be
00000070: a4b1 e1bd 448d f0bd bfcd 05bd 44bf 34be
00000080: cdcf 45bc ac98 a9bd f581 94bd 0748 133b
00000090: 5a97 b9bd 3348 fabd 96e9 1abe e9f4 f5bc

weight f4 [80, 40]
-0.011768449 0.020521263 -0.016555892 -0.05616943 0.055770688 0.06955567 -0.13897999 -0.14005698
-0.058593225 -0.10933575 0.05788987 -0.08078626 -0.058379035 0.001404359 0.08654774 0.0579407
0.08381156 -0.13577673 0.1747368 0.079110205 0.13074936 0.097018585 -0.017402664 -0.104328096
-0.12906024 0.10136079 -0.04146614 -0.044461902 0.0046367478 -0.11495079 0.13342035 0.011897906
0.007676095 0.084694654 0.08361171 0.07300731 0.052994918 -0.07974379 0.12549892 0.14754586
-0.017836113 -0.038152546 0.030798988 -0.10765938 0.09839999 -0.05371173 0.107145295 0.026785206
-0.0460687 0.010981954 0.10980257 -0.0453353 0.129706 -0.06974742 0.12794504 -0.00246998
-0.06277272 -0.11468285 -0.10009972 -0.016875247 -0.09455393 0.075827956 -0.08416001 -0.09076059
-0.09764291 0.14959413 -0.16984972 0.05630398 -0.02048546 -0.04698414 -0.058326874 0.060497567
0.10653842 -0.086826056 -0.124448575 0.012315928 -0.17129895 -0.098601036 0.050373744 -0.087557346
-0.017563412 0.047709934 -0.15452634 0.09353573 -0.07184643 -0.08166394 0.08771428 0.068460174
0.13494807 -0.14331286 -0.08923919 -0.16075528 0.09297251 0.028093142 0.014336809 -0.044729922
-0.15410969 -0.010606533 -0.12544775 0.07270804 -0.08707547 0.08543579 0.07502326 -0.061737254
0.02159299 -0.047596738 -0.040055852 -0.11768283 0.14116797 -0.04119927 -0.019124016 -0.08456427
0.11112833 0.14772947 0.049869243 -0.13817142 -0.12118114 0.0012373045 0.08616694 -0.047521085
0.04235577 0.13881971 -0.097104155 -0.005388201 -0.04004923 -0.12581861 0.006366216 0.11880546
-0.09522127 0.15180211 -0.083586894 -0.029696876 -0.044719007 -0.11085258 -0.050535727 -0.0034084024
-0.044627838 -0.010248977 -0.11682132 0.057226487 0.009926922 -0.0103516 6.770498e-05 0.01996558
-0.029026952 0.0045207697 0.034524765 -0.03612873 -0.054123636 -0.08016728 0.089577585 0.13297953
0.031012697 0.028576175 -0.09661099 -0.023787396 -0.10023185 -0.06716598 -0.10196514 0.015922029
-0.09667426 -0.03235114 0.017352605 0.012658043 0.056302883 0.032715145 0.05666017 0.1104602
0.07578649 -0.008072309 0.10298208 0.058262687 0.0036402715 -0.09817983 0.02623996 -0.051643893
0.03449963 -0.10903357 0.15610129 0.119176485 0.07559686 -0.06690941 -0.10549217 -0.0008121372
-0.07572508 -0.066253066 0.07654902 -0.0969556 0.085053936 -0.040121492 -0.1092762 -0.08601212
-0.0625764 -0.09106273 0.10992265 -0.05428368 0.1085393 0.019133994 -0.0627552 0.12905191
0.12500134 0.05799662 0.044673562 -0.029851673 -0.102569595 -0.09970602 -0.11103755 0.063319206
0.13628097 0.111113876 0.121868424 -0.08652377 0.017364008 -0.11522272 0.028766563 0.06494696
0.12291637 0.01797622 0.021961465 0.0044986936 0.1327716 -0.10235873 0.07494435 0.08393582
0.007111282 0.14403209 -0.08217232 0.070503116 -0.09008882 0.17214791 -0.12104554 -0.12452876
0.07861455 0.070255674 -0.04540652 0.16311564 -0.034379557 -0.02933612 0.135024 0.07456825
-0.07876945 -0.048400093 0.04176259 -0.0757498 -0.046394326 -0.10383673 0.10029715 -0.07156304
-0.08768556 -0.012562846 -0.025755906 0.03150529 0.078839816 -0.08129664 0.05756686 0.06748776
00000000: 74d0 40bc 351c a83c 39a0 87bc eb11 66bd
00000010: ce6f 643d 3473 8e3d c550 0ebe 196b 0fbe
00000020: 73ff 6fbd 6ceb dfbd ee1d 6d3d 4473 a5bd
00000030: db1e 6fbd 7812 b83a f13f b13d 3a53 6d3d
00000040: 65a5 ab3d 0e09 0bbe 34ee 323e 8804 a23d
00000050: 29e3 053e aeb1 c63d 0890 8ebc f8a9 d5bd
00000060: 5e28 04be 3f96 cf3d 66d8 29bd af1d 36bd
00000070: dcef 973b 526b ebbd 589f 083e 6fef 423c
00000080: c087 fb3b 6474 ad3d 9e3c ab3d db84 953d
00000090: 3311 593d b650 a3bd ca82 003e 4316 173e
000000a0: 0a1d 92bc d845 1cbd 294e fc3c 857c dcbd
000000b0: ef85 c93d d500 5cbd fe6e db3d a66c db3c
000000c0: 88b2 3cbd a7ed 333c 2be0 e03d 82b1 39bd
000000d0: a6d1 043e bcd7 8ebd 0604 033e 63df 21bb
000000e0: fc8e 80bd d8de eabd 1501 cdbd f53d 8abc
000000f0: 7ea5 c1bd b04b 9b3d 155c acbd b0e0 b9bd
00000100: 02f9 c7bd 342f 193e 16ed 2dbe 019f 663d
00000110: 20d1 a7bc 7172 40bd 29e8 6ebd 4ccc 773d
00000120: d130 da3d dcd1 b1bd e5de febd bfc8 493c
00000130: fe68 2fbe 57ef c9bd b354 4e3d 4451 b3bd
00000140: 25e1 8fbc 7e6b 433d 273c 1ebe a98f bf3d
00000150: 3924 93bd 6c3f a7bd 8ba3 b33d d934 8c3d
00000160: d42f 0a3e 9bc0 12be 09c3 b6bd 089d 24be
00000170: 5f68 be3d 9723 e63c efe4 6a3c b936 37bd
00000180: eece 1dbe 06c7 2dbc 6075 00be f4e7 943d
00000190: a054 b2bd f6f8 ae3d cca5 993d 34e0 7cbd
000001a0: c8e3 b03c ccf4 42bd 9b11 24bd b203 f1bd
000001b0: 568e 103e 91c0 28bd f8a9 9cbc 0830 adbd
000001c0: 4097 e33d 6546 173e b143 4c3d cf7c 0dbe
000001d0: d12d f8bd 0d2d a23a 4b78 b03d 78a5 42bd
000001e0: 3e7d 2d3d c126 0e3e 8bde c6bd 828f b0bb
000001f0: a90a 24bd 98d6 00be b19b d03b 4750 f33d
00000200: 5f03 c3bd 0372 1b3e 9b2f abbd dd46 f3bc
00000210: 472b 37bd ad06 e3bd 8dfe 4ebd 815f 5fbb
00000220: aecb 36bd 53eb 27bc 0440 efbd 5266 6a3d
00000230: 87a4 223c c299 29bc d6fc 8d38 db8e a33c
00000240: eec9 edbc f722 943b d769 0d3d b8fb 13bd
00000250: bfb0 5dbd be2e a4bd 7474 b73d c92b 083e
00000260: 570e fe3c 9518 ea3c fcdb c5bd c9dd c2bc
00000270: 5b46 cdbd 518e 89bd 19d3 d0bd ea6e 823c
00000280: 28fd c5bd a182 04bd 0d27 8e3c ae63 4f3c
00000290: da9d 663d 5100 063d 7f14 683d f538 e23d
000002a0: f335 9b3d b841 04bc 45e8 d23d dba4 6e3d
000002b0: 9f91 6e3b 8212 c9bd 2ff5 d63c 8c88 53bd
000002c0: 7c4f 0d3d fe4c dfbd 04d9 1f3e cd12 f43d
000002d0: 87d2 9a3d cd07 89bd 470c d8bd 9be5 54ba
000002e0: c015 9bbd b0af 87bd bcc5 9c3d a890 c6bd
000002f0: c230 ae3d 6f56 24bd 33cc dfbd 1f27 b0bd
00000300: 0e28 80bd 197f babd 201f e13d 9058 5ebd
00000310: da49 de3d e5be 9c3c cc85 80bd 2f26 043e
00000320: 5a00 003e dd8d 6d3d a0fb 363d 7f8b f4bc
00000330: 0210 d2bd ab32 ccbd a867 e3bd 80ad 813d
00000340: 3d8d 0b3e ac8f e33d 2796 f93d 6033 b1bd
00000350: f73e 8e3c e4f9 ebbd dba7 eb3c e902 853d
00000360: 94bb fb3d de42 933c 88e8 b33c c769 933b
00000370: 47f5 073e 74a1 d1bd 6c7c 993d 8be6 ab3d
00000380: c205 e93b 267d 133e f649 a8bd f063 903d
00000390: 7d80 b8bd 8b47 303e b9e6 f7bd ef08 ffbd
000003a0: aa00 a13d 35e2 8f3d 30fc 39bd c907 273e
000003b0: 94d1 0cbd 4d52 f0bc bb43 0a3e 3db7 983d
000003c0: e151 a1bd 2d3f 46bd 400f 2b3d b622 9bbd
000003d0: fa07 3ebd 5aa8 d4bd 9868 cd3d a58f 92bd
000003e0: 7d94 b3bd 65d4 4dbc 0dfe d2bc b10b 013d
000003f0: c576 a13d da7e a6bd 3acb 6b3d 0637 8a3d

bias f4 [80]
0.08448504 0.072773345 -0.04416274 -0.13473044 -0.026488055 0.14321083 0.13151324 -0.015920304
-0.09635498 0.0646448 -0.1834695 0.077233426 -0.08331341 0.09679643 0.025138862 -0.12596162
-0.13331363 -0.09159185 -0.14738256 -0.14374124 0.057966735 0.09006682 0.045819387 -0.11882846
0.101157114 -0.12862042 0.019313194 0.002299858 -0.14870436 -0.051800925 -0.028324164 0.16292371
0.100836076 0.09431189 0.09581184 0.056392364 -0.065987065 0.12747686 -0.06012358 -0.105186634
-0.03711087 -0.120045096 0.06387452 0.021924688 -0.067554 -0.08176425 -0.18998751 -0.044913407
-0.155887 0.008291281 -0.14851905 0.08137357 -0.13053375 -0.043724414 0.034513697 0.12897553
-0.04996571 0.11491279 0.013362142 -0.06353841 -0.12970577 -0.041983183 -0.10357628 -0.10480688
-0.076158196 -0.12641548 0.054332603 -0.029677046 -0.029504225 0.016775375 -0.043311246 -0.146828
0.12185056 0.102542125 -0.14350188 -0.15138486 -0.03655032 0.0210322 -0.050639853 -0.1696344
00000000: 7e06 ad3d 310a 953d fde3 34bd c7f6 09be
00000010: 7afd d8bc dca5 123e 68ab 063e 4c6b 82bc
00000020: c255 c5bd 7e64 843d 6edf 3bbe 8f2c 9e3d
00000030: 39a0 aabd 353d c63d 04f0 cd3c 15fc 00be
00000040: 5e83 08be 8294 bbbd 74eb 16be e730 13be
00000050: 876e 6d3d f474 b83d 1cad 3b3d 565c f3bd
00000060: 762b cf3d 12b5 03be b436 9e3c 37b9 163b
00000070: f545 18be 352d 54bd 1408 e8bc 79d5 263e
00000080: 2583 ce3d 9826 c13d ff38 c43d aefb 663d
00000090: 3a24 87bd 4b89 023e 2544 76bd 176c d7bd
000000a0: 9101 18bd 34da f5bd a5d0 823d 679b b33c
000000b0: c059 8abd 0474 a7bd 168c 42be 1ff7 37bd
000000c0: d7a0 1fbe 27d8 073c 6115 18be 30a7 a63d
000000d0: a4aa 05be 5f18 33bd 3c5e 0d3d 2912 043e
000000e0: d8a8 4cbd 6657 eb3d e3ec 5a3c 6d20 82bd
000000f0: 97d1 04be 8ff6 2bbd cd1f d4bd fda4 d6bd
00000100: d4f8 9bbd 0f73 01be dd8b 5e3d 471d f3bc
00000110: d8b2 f1bc 836c 893c 2267 31bd 145a 16be
00000120: c98c f93d 9b01 d23d 28f2 12be a204 1bbe
00000130: cab5 15bd b84b ac3c bc6b 4fbd a4b4 2dbe

weight f4 [5, 80]
-0.0102977 0.0012653967 0.011486887 0.025662994 -0.06799145 0.016449396 0.015697224 0.012156678
-0.025105009 0.027131895 0.043578696 0.032744076 0.0051727267 -0.03187538 0.012066902 -0.0109726805
0.07266014 0.06361789 -0.060847744 -0.00017945093 -0.04859579 0.043169662 0.047861844 -0.037604406
-0.058579013 -0.03396653 0.013942429 0.028783308 0.0017115806 -0.025040312 0.05824588 0.00029088365
-0.034418456 0.012672291 -0.030814214 0.013584808 0.056440707 -0.009661409 0.0048527624 -0.034937028
-0.005281907 0.059910588 -0.03549597 -0.019476164 -0.026894294 -0.0266107 -0.031958085 -0.07504817
-0.07218642 -0.014250246 0.050674792 0.025434868 0.026742436 0.03609099 0.013125155 0.019301085
0.027372142 -0.023658503 -0.041537866 -0.010954639 0.06445036 0.059919976 0.010890341 0.00055256253
0.059039123 -0.008564381 0.010191493 0.05710603 0.050743822 0.027560191 0.050066 -0.048977736
-0.011976882 0.060800813 0.013205441 -0.0673967 -0.06769829 0.04471741 0.014418005 0.013436603
-0.026311167 -0.016805496 -0.02031387 -0.012977462 0.07883975 -0.04283714 -0.05612492 -0.037644662
-0.06372199 0.021953199 -0.0015831694 -0.044439677 -0.008060754 0.046790157 -0.010291569 -0.060914095
0.0033301343 -0.043289524 -0.06434299 -0.0687149 -0.09356899 0.03134268 0.05943494 -0.0093884
-0.044544443 -0.0008247733 0.05318727 -0.038425427 -0.05801654 0.022641763 0.06020476 -0.05409406
-0.05885253 0.0023114297 -0.00952531 0.0797744 0.042504884 -0.067751214 -0.016162269 -0.01020573
-0.057075944 -0.03652357 -0.05898943 0.03942327 0.027778449 0.019044569 -0.022720354 0.04655412
0.03384607 0.026001606 -0.07860528 -0.036922663 -0.023693139 0.07454504 -0.007953833 -0.008097079
0.045371953 -0.04122616 0.023582999 0.012644899 -0.035561353 0.07126142 -0.026955597 0.0060932445
0.042944007 0.029911218 -0.025000136 -0.053461302 0.039988898 -0.03037151 -0.052980706 0.04990506
-0.051291745 -0.014750518 -0.03472469 0.063300535 0.04533058 0.04667099 0.0589339 -0.0066705826
-0.0043434566 0.014265812 0.0056379726 -0.00931028 0.036813315 0.011143468 -0.018000608 -0.015248288
-0.031156614 -0.0056317877 -0.04037214 0.011459172 -0.024736134 -0.022417005 0.043494284 0.052376244
0.015447796 -0.013599568 0.023139277 0.0015821079 0.022874972 0.05648912 0.044720147 0.0012096196
-0.054279502 -0.056020245 0.0119715575 0.051506985 -0.018552952 -0.058678 -0.027592676 0.012405121
-0.035292443 0.01845865 -0.054145027 0.02136622 0.037968837 -0.012110177 -0.046779417 0.0509047
-0.013933926 0.026517084 0.015574449 -0.0042132274 -0.029948648 0.02118862 -0.016991375 0.006620845
-0.051740788 0.014913104 -0.07019369 0.04057593 0.014687357 -0.05620229 -0.008377783 -0.014103088
0.049212348 -0.0294976 0.03132929 -0.018846525 0.03353548 0.04769636 -0.023708545 -0.030004725
0.0066596065 -0.009469673 0.034050897 0.03896799 -0.034111265 -0.02115507 -0.021538569 0.05387528
-0.021849154 -0.04517012 -0.033518955 0.082662284 -0.058061525 -0.035936166 0.020894589 0.012678573
-0.033323083 -0.018648855 -0.015767789 0.0056116655 0.04572616 -0.0045300936 -0.020539869 -0.023583554
-0.01165861 0.0151329 -0.017925683 -0.029972259 -0.0071374085 -0.07806728 -0.05031852 0.033485923
00000000: afb7 28bc abdb a53a 7f33 3c3c 333b d23c
00000010: 1a3f 8bbd e2c0 863c 7797 803c ce2c 473c
00000020: 05a9 cdbc b543 de3c 937f 323d a71e 063d
00000030: fa7f a93b c28f 02bd 41b4 453c c2c6 33bc
00000040: d7ce 943d 194a 823d 7c3b 79bd fe2a 3cb9
00000050: 610c 47bd acd2 303d c80a 443d 1407 1abd
00000060: 8cf0 6fbd 7d20 0bbd c96e 643c f9ca eb3c
00000070: 1d57 e03a 5721 cdbc 3b93 6e3d be81 9839
00000080: 5efa 0cbd 719f 4f3c 176e fcbc d192 5e3c
00000090: 5f2e 673d e34a 1ebc ec03 9f3b 211a 0fbd
000000a0: d913 adbb ce64 753d 3964 11bd 7a8c 9fbc
000000b0: 6c51 dcbc affe d9bc 7be6 02bd dbb2 99bd
000000c0: 79d6 93bd dd79 69bc 5f90 4f3d c95c d03c
000000d0: f412 db3c 25d4 133d e40a 573c 4f1d 9e3c
000000e0: 8b3b e03c 7acf c1bc 9c23 2abd 167b 33bc
000000f0: 8dfe 833d a66e 753d 676d 323c d8d9 103a
00000100: 02d3 713d 9e51 0cbc 38fa 263c 03e8 693d
00000110: c1d8 4f3d e9c5 e13c 0212 4d3d e19c 48bd
00000120: af3a 44bc 460a 793d a25b 583c 4807 8abd
00000130: 67a5 8abd 9a29 373d 7f39 6c3c 3325 5c3c
00000140: 848a d7bc aeab 89bc 4669 a6bc 6c9f 54bc
00000150: bc76 a13d ff75 2fbd 3ee3 65bd 4a31 1abd
00000160: ad80 82bd 32d7 b33c 5a82 cfba 6106 36bd
00000170: 4111 04bc 09a7 3f3d f89d 28bc 0f81 79bd
00000180: 623e 5a3b 5b50 31bd 42c6 83bd 66ba 8cbd
00000190: 19a1 bfbd 2f61 003d 0d72 733d ced1 19bc
000001a0: 3c74 36bd 9935 58ba e5da 593d fb63 1dbd
000001b0: c0a2 6dbd 387b b93c 4499 763d bc91 5dbd
000001c0: 5a0f 71bd 5b7b 173b 0c10 1cbc c360 a33d
000001d0: 9a19 2e3d 26c1 8abd bc66 84bc ef35 27bc
000001e0: 77c8 69bd bd99 15bd e79e 71bd 4b7a 213d
000001f0: a18f e33c 5b03 9c3c 0920 babc 88af 3e3d
00000200: 2da2 0a3d 5201 d53c cefb a0bd 383c 17bd
00000210: 1d18 c2bc 12ab 983d cb50 02bc 9ca9 04bc
00000220: f1d7 393d c3dc 28bd 2231 c13c 8d2c 4f3c
00000230: c8a8 11bd 82f1 913d fcd1 dcbc d7a9 c73b
00000240: 0ee6 2f3d 5f08 f53c 16cd ccbc 3dfa 5abd
00000250: 66cb 233d accd f8bc 4c02 59bd 4069 4c3d
00000260: 4b17 52bd 28ac 71bc 7a3b 0ebd b6a3 813d
00000270: 8fac 393d 142a 3f3d ac64 713d e794 dabb
00000280: 8e53 8ebb 27bb 693c bebe b83b 258a 18bc
00000290: 8fc9 163d 1893 363c 0376 93bc f5d3 79bc
000002a0: 283c ffbc dc8a b8bb 425d 25bd 40bf 3b3c
000002b0: 6fa3 cabc dea3 b7bc 1027 323d 7988 563d
000002c0: c118 7d3c b9d0 5ebc 958e bd3c bb5e cf3a
000002d0: 4b64 bb3c 2361 673d 792c 373d 198c 9e3a
000002e0: 2f54 5ebd 7c75 65bd 5a24 443c fdf8 523d
000002f0: 5cfc 97bc 5858 70bd 090a e2bc d93e 4b3c
00000300: cf8e 10bd 9836 973c 2dc7 5dbd 3608 af3c
00000310: 3685 1b3d c469 46bc c69b 3fbd 7281 503d
00000320: 1f4b 64bc 5b3a d93c f92b 7f3c 1d0f 8abb
00000330: de56 f5bc c293 ad3c 7f31 8bbc acf3 d83b
00000340: 26ee 53bd 1756 743c b6c1 8fbd f232 263d
00000350: 3da3 703c 5f34 66bd f842 09bc a310 67bc
00000360: e392 493d f3a4 f1bc 2453 003d 0764 9abc
00000370: 805c 093d 425d 433d 6c38 c2bc 78cc f5bc
00000380: d438 da3b b026 1bbc f478 0b3d e69c 1f3d
00000390: 41b8 0bbd 664d adbc a771 b0bc 53ac 5c3d
000003a0: fffc b2bc 4e04 39bd 2c4b 09bd d84a a93d
000003b0: ecd1 6dbd cd31 13bd 212b ab3c cab9 4f3c
000003c0: c97d 08bd 7cc5 98bc 732b 81bc 10e2 b73b
000003d0: 5b4b 3b3d 2e71 94bb 3a43 a8bc 4c32 c1bc
000003e0: c103 3fbc fcef 773c e2d8 92bc 6288 f5bc
000003f0: ece0 e9bb bde1 9fbd cb1a 4ebd 8928 093d

bias f4 [5]
-0.038400818 0.070207484 0.014115915 0.03937001 0.032222044
00000000: 2d4a 1dbd f1c8 8f3d 7046 673c 7342 213d
00000010: 43fb 033d
