final_project/mlruns/1/a784ad6f6aeb46b58ce8a801c1ffc9a5/artifacts/cvae_45/data/model.pth (torch, 48071 bytes, 10 tensors)

weight f4 [80, 10]
00000000: 7641 2b3d 2bd4 e13d 9689 073e 289f 0d3e
00000010: 81e1 b0bd de4e 39bd 8c55 f6bd ea2e 773d
00000020: e4e6 153e 9a1e 59bd b356 443e eda8 d9bd
00000030: 9f58 a8bc 9045 c63d 6eb9 86bd 6236 66be
00000040: ce54 a9bd 9d9f 993e c020 2a3d 59bd 843e
00000050: 6564 60bd 1c90 9b3e 54e3 2e3e c03b 45be
00000060: 565c 99be dc9f 69be cde5 9d3e f1dd 27be
00000070: dc2d cf3d 49a7 4b3d 0068 893e 4d71 8a3e
00000080: 385a eabc 8cd7 8abd 1c27 26be c194 b93d
00000090: 34a2 babd 1451 123c 16ba dd3d 5cbc 82be
000000a0: 249e e63c b0f4 473e 3764 923e 8ac9 203e
000000b0: 7d45 febd 8326 a1be 41eb a4bd dd76 68be
000000c0: ba3d 983d 45a7 323d af91 01bd d101 eb3d
000000d0: c970 0c3e f5d1 2b3e a28c 80be aff0 9cbe
000000e0: 3a48 b93d 23bb 88be 3f76 0f3e 8ddc 5b3e
000000f0: 400b 2f3c 2c3a d73b 43d2 18be 7785 2c3e
00000100: 3b46 8e3a 452d 17be 8763 603e 5c1a a0be
00000110: 808e 083e a5c1 d3bb 2f07 313e 431e 4dbe
00000120: 7652 ffbc e743 363e f5a5 0f3e 3e23 853e
00000130: 711e 25be 6a4d 61bd ced3 7abe 3fcd 5fbe
00000140: 7c3a 133e a872 6fbe 55c9 843e 1e5b 7f3d
00000150: 817a 743e deba a1be 379d 7bbe 2399 c83d
00000160: cd6f a1be b41e 2e3e 858d 9e3e 1a66 463e
00000170: e40c 3abe 5d9f 1bbd bfd2 56be 6e38 9ebe
00000180: dd7d 28be b2cb 9d3e 58fc 953e d829 30be
00000190: 8c34 e7bc 2410 2abc 91cf 11be 422a 8fbe
000001a0: f00c 2bbd 80db af3d 6150 63bd 94f5 55be
000001b0: 187f 2f3e 2b13 fb3d 0706 553e a9c5 573e
000001c0: 8f25 47be 34e3 16be b611 ee3d 4f19 1c3e
000001d0: 0625 963e 309f 9b3e 6def 8fbe 246b 503d
000001e0: 9abf 403e 0bd3 a6be cef7 a73e 7d5b 26be
000001f0: 86f9 8fbe 73c5 663d 5cb4 ae3d 0680 2c3e
00000200: 1ec4 103e 193c 743d 5dfe d7bd 1d27 92be
00000210: 68e9 e5bd 5cdd 213e 52e2 803e db4e b8bd
00000220: 4654 7bbe 487e 303c 5d20 91be fa10 b6bc
00000230: 8020 a1be f6a9 6bbe 4cd1 423e f51c 0bbe
00000240: f0d8 92be 9e6c ff3d ea71 65be db7f 923e
00000250: b481 813d ea5f d2bd 627c 87be 7888 083b
00000260: 892d 8abe 372e 85be 82ad 1fbd a39f 60be
00000270: ea04 e5bd 67ec 613d 297f 8cbe 5ca1 f03d
00000280: 1420 8a3e dc5c 95bd 3b83 4abe 9638 60be
00000290: 93f8 913e 28b3 10be e3bd 723e d684 243d
000002a0: dd3b 413e edce 823e 8aa9 63be 8659 33be
000002b0: 1ad4 963e 308a 00bd 7f2b 7abe 7083 c23b
000002c0: 7b10 3abe 748c 393d 6b04 36be 489c 57be
000002d0: 8b6a 833e d4b1 14be 4229 4b3e 9c60 72be
000002e0: 1913 5fbd 2092 1a3e e60e 373d 60b4 c2bc
000002f0: 1937 cd3d 17f6 ecbd 170f 0c3e 4f25 193e
00000300: b447 953e 4279 5b3d 6a28 833e fdd7 d0bc
00000310: f731 933e 5791 183e 2496 39be d6c7 143e
00000320: 258c 19be d2e1 883d 1e5f 3f3e 3e76 7cbe
00000330: 8e11 333c 1bad 32be c46b 8f3e 3d1d 283e
00000340: 1238 593e dc83 8e3e 553b 14ba 6085 183e
00000350: ecea df3c bc06 f73d 4aa7 62be e6fd f63d
00000360: 86a7 8b3e 360a 1b3e e2c5 97be b73c 833e
00000370: f856 313e 73ed 0d3e 44c8 3abe fc45 903e
00000380: 68ee d53b c105 9f3e 067e 673e da56 a03e
00000390: 317e 8e3e c8d5 30be 8229 54be 1bc3 f3bc
000003a0: 84ee 8c3e d575 923e 0609 16be 55ca 95be
000003b0: 86f5 4dbe 0a36 d03d bd97 e2bd 4679 553e
000003c0: 6c26 1cbe 8e21 74bd 83fe 32bc 7509 3c3b
000003d0: bf76 813d cf35 46be 3be0 793e 4fa0 91be
000003e0: 7545 ecbd a986 64be ac53 41be c2c3 28be
000003f0: 2cd8 b63d e653 f8bb c442 75be b1ed 643e
0.041810475 0.11026796 0.13236079 0.13830245 -0.086367615 -0.04524123 -0.120280355 0.060347475
0.14638859 -0.0530077 0.19173698 -0.10627923 -0.02055007 0.09681237 -0.06578337 -0.22481683
-0.08268128 0.30004588 0.04153514 0.2592571 -0.054783244 0.30383384 0.17078906 -0.19261074
-0.2995326 -0.22814888 0.30839387 -0.16393258 0.10116169 0.049720082 0.26837158 0.27039567
-0.028607473 -0.067793936 -0.16225857 0.09061576 -0.09112969 0.008930463 0.10826509 -0.25534332
0.02815158 0.19526935 0.28592083 0.15701881 -0.124155976 -0.31474695 -0.080526836 -0.22701593
0.074336484 0.043616552 -0.031633075 0.11474956 0.13714899 0.16779311 -0.25107294 -0.30652377
0.09046979 -0.26705274 0.14009951 0.21470852 0.010683835 0.006568214 -0.14923958 0.16847788
0.001085467 -0.14763363 0.21912967 -0.3127011 0.1333561 -0.006462293 0.17287897 -0.20031075
-0.03116725 0.1779934 0.14028151 0.2600345 -0.16124894 -0.05500547 -0.2449486 -0.21855639
0.14377779 -0.23383582 0.25934854 0.062342755 0.23874857 -0.3158788 -0.24571691 0.097948335
-0.3153061 0.170039 0.30967346 0.19374886 -0.1816898 -0.037993778 -0.20978831 -0.30902427
-0.16454263 0.3081947 0.29294086 -0.17203462 -0.028223298 -0.010379825 -0.14239337 -0.27961928
-0.041760385 0.08586788 -0.055496577 -0.20894462 0.17138326 0.122595154 0.2080308 0.21071495
-0.19447921 -0.14735109 0.11624472 0.1524403 0.29325122 0.30394888 -0.28112355 0.050883427
0.1882309 -0.32582888 0.32806247 -0.16245838 -0.2812006 0.056340646 0.085304946 0.16845712
0.14137313 0.059627626 -0.10546563 -0.28545466 -0.11226159 0.15807098 0.2517267 -0.089994155
-0.24543867 0.010772295 -0.28345004 -0.022224892 -0.31470108 -0.23014054 0.19025153 -0.13585265
-0.28681135 0.12471889 -0.22406736 0.2861317 0.06323567 -0.102722004 -0.26462084 0.0020833295
-0.26987866 -0.26011822 -0.03898383 -0.21935897 -0.11182578 0.05515709 -0.27440766 0.11749527
0.269776 -0.07293102 -0.19776623 -0.21896586 0.2850996 -0.14130843 0.23705249 0.040165745
0.18870492 0.25548497 -0.22232643 -0.17514619 0.29458696 -0.031381786 -0.24430655 0.0059360787
-0.1817035 0.045299962 -0.17775123 -0.2105571 0.25667223 -0.14520961 0.19839957 -0.23669666
-0.054461572 0.15094805 0.044691943 -0.02376765 0.10020275 -0.115703754 0.13677631 0.14955638
0.29156268 0.053582437 0.2561677 -0.025493616 0.28749058 0.14899193 -0.1812368 0.14529356
-0.14994867 0.06683697 0.18688628 -0.24654481 0.010929478 -0.17448847 0.28011906 0.16417404
0.21212795 0.27834976 -0.0005654593 0.14894629 0.0273337 0.12061831 -0.22134128 0.12060146
0.27276248 0.15140614 -0.2964316 0.2563226 0.17318332 0.13860111 -0.18240458 0.28178394
0.0065286644 0.31059077 0.22606668 0.31316262 0.2783065 -0.17269051 -0.20718959 -0.02975612
0.27525723 0.28605524 -0.1465188 -0.2925593 -0.20113191 0.10166557 -0.11064098 0.20847043
-0.15249032 -0.059602313 -0.010924938 0.002869216 0.06321477 -0.19356464 0.24401943 -0.28442618
-0.115366854 -0.22316994 -0.18879575 -0.16480926 0.0892795 -0.007578361 -0.2395125 0.22356297

bias f4 [80]
00000000: f1df 18be eb14 983e 32a8 06be d0a9 90bc
00000010: b20f 86be d73f 60be 48bf 35bd 8be1 16be
00000020: a16a 2bbe c660 22bd a37e d93e 9a37 db3e
00000030: 0507 a93e 0bb5 c8bc 5c02 df3e db0f 863e
00000040: 8bb3 35be 60ae 22be e022 5dbe f5f0 8c3e
00000050: 1f6b 9b3e 442f e6bd 7ae1 b43e 04ba 8d3e
00000060: ed0d 33be 6363 ddbd 2eb5 cf3e f972 ce3e
00000070: 1bea 4cbe 9ae3 3e3e 9f33 f53e ebcb fdbc
00000080: 1647 aa3e 6c97 debc 2a20 de3e 464c c2bc
00000090: 9dc8 d63e 8c6a 9b3e 0b08 f6bc 7495 c83e
000000a0: 6bb1 c53e 4b2a 94bd 4156 b63e d610 ab3e
000000b0: 9c16 56be 2a84 81be 6628 dbbd 0622 983e
000000c0: f980 c23e 46c7 89bd 1402 50be ec32 31be
000000d0: fcd2 9ebe 887b a43e cac3 7cbd 6007 9abe
000000e0: 182c f73e 6f23 ad3e 6066 ba3e 0711 d23e
000000f0: 2bf2 a53e df36 1dbe 3d32 013f b259 a0be
00000100: 069a 84be 84a3 cb3e b48f 96be a097 8e3e
00000110: e2ee 933e 2864 ba3e 28da 99bc 8d8e c53e
00000120: 402e 5b3e e750 ef3e 981c a03e b504 ffbc
00000130: 39f1 0fbe e016 063f ffff a43e 47c7 d33e
-0.14929177 0.2970346 -0.13150099 -0.017659098 -0.2618385 -0.21899353 -0.044371873 -0.14734475
-0.16739894 -0.03964307 0.4247943 0.42815858 0.33013168 -0.02450039 0.43556488 0.26183972
-0.17744271 -0.15886831 -0.21595335 0.27527586 0.30355164 -0.11239484 0.35328275 0.2768098
-0.17485781 -0.10809972 0.40567917 0.40322092 -0.20011179 0.1864151 0.47890946 -0.030981025
0.3325736 -0.027171813 0.43383914 -0.02371801 0.4194993 0.30354726 -0.030033132 0.39176524
0.38611922 -0.07234629 0.35612682 0.33411282 -0.20907062 -0.25296146 -0.10701065 0.29713458
0.37989023 -0.067274615 -0.20313293 -0.17304581 -0.31020343 0.32125497 -0.061710157 -0.30083752
0.48275828 0.33816096 0.3640623 0.41028616 0.32411322 -0.15352963 0.5046728 -0.31318432
-0.2589876 0.3977319 -0.29406512 0.27850056 0.2889319 0.36404538 -0.018780783 0.3858532
0.21404362 0.4674141 0.31271815 -0.031130174 -0.14056863 0.52378654 0.3222656 0.41362974

weight f4 [40, 80]
00000000: 267b c43d c68a 8b3c 5f3d 42bd 4b27 91bd
00000010: 5a43 32bd 4f66 69bc a069 dfbc 3cc9 a13d
00000020: 54ef 3ebd 17d4 473d 64ac 7fbd a7b3 253d
00000030: 4c13 c73b 28e3 9f3d 2f1a fdbd d186 e2bd
00000040: cebf da3d 4611 3ebd e09f 83bd c75e 94bd
00000050: 7849 9ebd c7e6 b93d 4e33 81bd c646 953d
00000060: aaaa 9ebd c2dd 9fbd 6ec9 4c3d 1052 c3bd
00000070: b350 323d 08ba 95bd 925a 1c3d d805 57bc
00000080: 35ea d7bd 110a 0abd e9c4 313d 99dc a03c
00000090: 1cbc 33bb 8f3f 313d 3b06 953d 16a6 b8bd
000000a0: e1bf 1e3d 371e 4fbd ad6f 003d a55d dcbd
000000b0: 7994 7abd a17d 8cbd 6ac9 d5bc 9e53 0cbe
000000c0: 3719 a9bd 6163 c33d 99b9 d8bd 0923 10bc
000000d0: 2972 34bd a3dc 80bd 9f9f 913d fb1e bd3d
000000e0: 0ae1 69bd 4bbc c03c 72fb 83bd 617c 293d
000000f0: 1a28 e3bc ed3d 96bd cfa0 05bc a3eb c6bd
00000100: 93bb a6bc d130 ac3d 7b3c acbd 5f30 71bd
00000110: b956 6cbd b4b9 08be ca3a 9d3d 7bf1 02be
00000120: 3215 ff3c aa28 dbbd 6c2d 3bbb d089 1c3d
00000130: 6788 763c 4ab0 84bd b314 d0bd 9a2a 3b3d
00000140: 1d76 8e3d 3f2c 90bd ee5e 1ebc 6363 763d
00000150: a213 8c3d b073 4e3d 91f5 c63d 92d5 6c3d
00000160: a548 c03d 6715 b4bc 25b6 a2bd 2f55 a03d
00000170: cd57 ef3c 3172 b03d b184 c03d 2f1a b3bd
00000180: f54f 80bd 0e98 a2bd 9b71 74bd 5eb2 df3d
00000190: 39fc 0d3c 7ad6 0e3d 47b5 3dbc 5dc7 0cbd
000001a0: f51b f8ba df03 55bd 65ed 873d 0b2f 21bc
000001b0: 7fc4 483d d510 b43d c276 f13b 4fef 4a3d
000001c0: cc39 79bd d569 993a 6f7a 4bbb d54c bdbc
000001d0: 6242 49bd bf82 03bc a536 513d db56 c73d
000001e0: 989e 163d 0baa 94bd 9bb5 95bd e831 bdbc
000001f0: a201 9bbd 0fbb 103d 7f61 90bd 8ed7 d23d
00000200: 4ea7 003e 1577 b3bd b93b ac3d 7d3e 223d
00000210: 6fa2 46bd 100e bbbd 326d 95bd 0f21 c33c
00000220: 621f dc3d 0231 91bd 0585 66bd c783 cbbc
00000230: f766 87bd b7fd 4abd 1e1b 103c 4483 713d
00000240: 626d 813d d5e0 3abd 7d8e a53c 0d1e 8abd
00000250: fef2 043e d4cf ff3c a7e8 143a b8dd 0a3d
00000260: 0220 083e 8a3e 8c3d f06b e93d d532 a63d
00000270: 4e0e 9e3d 1372 d83d 7cfb 1e3d 7c9e fabb
00000280: ef97 69bd 480f 35bd 228a c63c 3d94 1d3d
00000290: 2f1b debb 4528 a4bd c0f6 8ebd e785 31bd
000002a0: d004 b23d 337e 92bd 4f4b 263d 90cb 7fbd
000002b0: b33f a73d f42d 083d d9ed babd 39a3 17bd
000002c0: d459 3c3d f00b 12bd 0b95 ac3c 05a4 afbd
000002d0: ee5e f9b9 efb4 c0bd 5140 bf3b 4b30 5ebd
000002e0: 767b 5f3d a985 853d afea 903d 1639 dbbb
000002f0: ad5a 13bd e843 913d 94f6 743d d4db 1d3d
00000300: ad69 bcbc 0d70 2cbd 3dc3 d03d d70b 8ebc
00000310: ed5e b6bd 9279 f2bc 1a6c 6dbd 5635 a93d
00000320: 6c10 133d 75dd bd3d fb15 133c fcc1 10bd
00000330: 7c3d 8a3d f2f0 633d 8214 143a 6993 8a3d
00000340: f016 52bd 3a6c 9a3d b1e1 c33d a14f 803d
00000350: 1af3 993d d4ee debd 7e93 a63c 63a2 0d3d
00000360: 3e9b c03d e72d 893d 04b1 a63d 5ed0 ebbc
00000370: 107d c1bd f016 ffbc 0e2b 163d e4e3 bf3d
00000380: 44a3 60bd 19d3 cc3d fb0e a83c 30bd 58bd
00000390: 3c8c c83c 224a b6bc be91 913d 159c 7fbd
000003a0: bd24 c8bc 84aa ff3c e910 f4bc 9980 a23c
000003b0: 883f f43c 8ed9 a63d cb96 d23d 4f0c 97bd
000003c0: ea8e a2bd 678b 873d b7b4 46bd 9c2f af3b
000003d0: 1803 973d 422e 6d3d eafc 28bc da72 7dbd
000003e0: e90b 8f3d 48ee 4ebd 5ee3 7d3d edd8 c03d
000003f0: 4732 0e3e f9da 323c 46ac da3d 063b da3d
0.09593801 0.017033946 -0.04742181 -0.07087573 -0.043521263 -0.014245584 -0.027272046 0.078997105
-0.04661496 0.04878625 -0.062420264 0.040454533 0.0060752984 0.078069985 -0.1235851 -0.110608704
0.10681115 -0.046403192 -0.06426978 -0.0724464 -0.07728857 0.090772204 -0.06308614 0.072888896
-0.07747395 -0.07805969 0.049996786 -0.095371366 0.043533992 -0.07310873 0.038172312 -0.013123952
-0.10542718 -0.033701006 0.04340068 0.01963644 -0.0027425354 0.043273505 0.07276579 -0.090160534
0.03875721 -0.050565924 0.031356502 -0.10760049 -0.06117675 -0.06859899 -0.026097018 -0.13703772
-0.082567625 0.095404394 -0.10582275 -0.0087974155 -0.044054184 -0.06292083 0.071105234 0.09234425
-0.05709938 0.023527285 -0.06444444 0.041378383 -0.027729083 -0.0733603 -0.008156016 -0.09712913
-0.020353114 0.084077485 -0.08409973 -0.05888402 -0.057699893 -0.1335209 0.07677229 -0.1278743
0.031138036 -0.107011154 -0.002856101 0.038217366 0.015047169 -0.06478937 -0.10160198 0.045694925
0.06956122 -0.07039689 -0.009666188 0.060153376 0.06839682 0.050403297 0.09714807 0.057820864
0.09388856 -0.021982862 -0.079448976 0.078287475 0.029216671 0.0861553 0.09400309 -0.087452285
-0.062652506 -0.079391584 -0.059678655 0.10922693 0.008666092 0.03487251 -0.011578864 -0.034369815
-0.001892923 -0.052005645 0.06637076 -0.009837876 0.04901552 0.08792273 0.0073688934 0.04954463
-0.060846135 0.0011704514 -0.0031048318 -0.023107925 -0.049135573 -0.008026778 0.051077504 0.09733363
0.03677234 -0.072589956 -0.07310029 -0.023095086 -0.07568671 0.035334643 -0.07049846 0.1029502
0.12563822 -0.087629475 0.08409829 0.039610375 -0.048494752 -0.091335416 -0.07296218 0.023819475
0.10748173 -0.070894256 -0.0562792 -0.02484311 -0.06611436 -0.049558368 0.008795528 0.058963075
0.06319691 -0.045624573 0.020209545 -0.06744013 0.12983319 0.03122703 0.000568042 0.033902854
0.1329346 0.06847866 0.113975406 0.08115164 0.07717572 0.10568633 0.038814053 -0.0076482873
-0.05702966 -0.044204026 0.024235789 0.03847145 -0.006778143 -0.08015493 -0.069806576 -0.04334059
0.08692324 -0.07152977 0.040599164 -0.06244999 0.081664465 0.03324695 -0.09127397 -0.037020896
0.045984104 -0.035655916 0.021067163 -0.08576206 -0.0004756371 -0.0940951 0.0058365245 -0.054245275
0.0545611 0.06519634 0.07076012 -0.006690155 -0.035975147 0.0709303 0.059805468 0.038539723
-0.022999609 -0.042099047 0.10193489 -0.01733963 -0.089048244 -0.029598985 -0.05796442 0.08262126
0.035904333 0.09270755 0.0089774085 -0.035341248 0.067500085 0.055649705 0.0005648808 0.067663975
-0.051291406 0.07540174 0.095645316 0.06265188 0.07517071 -0.108853966 0.020334002 0.034578692
0.0940461 0.06698208 0.08139232 -0.02878588 -0.09447682 -0.031138867 0.036662154 0.093696386
-0.054843202 0.10001201 0.020514956 -0.0529148 0.024480931 -0.022252146 0.07107876 -0.06240471
-0.02443158 0.031209238 -0.02979322 0.01983671 0.02981545 0.08146964 0.10282668 -0.073753946
-0.07937415 0.06618386 -0.048512187 0.0053462517 0.07373637 0.057905443 -0.010314206 -0.06187711
0.069846936 -0.05052021 0.061984412 0.09416375 0.13886367 0.010916465 0.1067739 0.10655789

bias f4 [40]
00000000: fb66 e4bc b523 dabc 05d6 cebd d3e9 19bd
00000010: f7c4 58bd 5049 ddbd a5d2 c33d 04aa 393d
00000020: f3ae 8ebd a1f5 c5bc a3ec 63bd 9864 74bd
00000030: 359f b23d 28a0 243e 72b7 a9bd 1930 a93d
00000040: 44d6 8f3d 98f3 ae3d db06 89bb 045d 88bc
00000050: c2ac c93b db22 debd 217f b8bc 0e45 bf3d
00000060: 2cfc 333c ac2a 10bd 05b4 6d3d 00ca 2d3e
00000070: ce9f 2bbc 60ee 9dbd 7cea d33d cde1 efbd
00000080: da1f bb3c 11bd c3bc 54c0 8ebd 3279 47bc
00000090: 020b 683d eb94 263d 012a bdbd 8a95 a4bc
-0.027881136 -0.026628355 -0.10099415 -0.037576508 -0.052922215 -0.10804999 0.09561662 0.045328155
-0.06966963 -0.024164977 -0.055645596 -0.059666246 0.087217726 0.1607672 -0.082869425 0.08261127
0.0702329 0.085425556 -0.0041817254 -0.016645916 0.0061546275 -0.10846492 -0.022521557 0.09339343
0.010985415 -0.035196945 0.058033008 0.16971588 -0.010475112 -0.07711482 0.10347459 -0.1171299
0.022842336 -0.023893865 -0.069702774 -0.012174891 0.056651123 0.040669363 -0.09236527 -0.020090837

weight f4 [40, 80]
00000000: 4c91 d03d 70cc 37be bc7d d03d 20bb 1bbd
00000010: 6ed3 4c3d f514 b33d 5b56 d73d 0b13 86bd
00000020: f852 803c 27c4 9d3d 0db8 a3bd 22eb 65bd
00000030: 4364 5cbe 0f5b 3f3d 5618 69be 7f0e b5bd
00000040: a516 703d 6739 77bd 2e9b c93d d9b2 36be
00000050: 494e 76be 0239 2abd cb54 13be 7c54 34bd
00000060: e40a d0bc 3564 c8bc 10a2 52bd 2a02 30be
00000070: 6a70 533d 0790 7dbe 9c60 44be fd8c ba3d
00000080: cd4a a0bd c9ed 99bb 8f4b 41be c87a 923d
00000090: d0e2 0dbe fc3a 70be 26f0 e6bd 8bdb 7bbe
000000a0: 8007 edbd 7e1f b339 ed06 0fbd f5d5 08be
000000b0: 15a3 db3d 1910 9fbd 4d21 d13d cd8c 55bd
000000c0: fb7b 28be dbf2 d43d 9026 0c3d d284 a73c
000000d0: 9588 653d dac5 e2bd 026c a7bd 8bf4 5f3d
000000e0: aa8e 62be 90fa 73be 1030 33bc 75b8 9fbc
000000f0: 7b6d 17be 4ecf d23c 1b7c 52be 4a57 c1bd
00000100: 257c 0b3d 5746 02bd d080 75bd 72dd 1fbe
00000110: b3de 5abe 432c e8bd 8b78 5abd 3e91 f4bd
00000120: 305c 94be 163d d7bd 5658 f4bd e99b dc3d
00000130: 4270 69bc 7ce7 d7bd f302 b5bd 43ee a5bd
00000140: 97c7 bfbd 8b9d cebd 370f 9dbc 0d9b cabd
00000150: 6d47 2ebd 0c80 23bd aab5 93ba 3075 c0bd
00000160: 0ca6 1cbd 40fd 5e3c 428b c8bc 93e4 d5bd
00000170: 1f07 3bbc faa2 f43d c908 28be b750 93bd
00000180: 8b97 cabd 9848 e13d f03d d13d 7776 c9bd
00000190: f83a 30be f0db 853d 8385 5dbe d032 a7bd
000001a0: 5e03 27bd 5616 7dbd f3bb 08be 5dec 4fbe
000001b0: 30ca a6bd 6975 1ebe ee1f 9abc 06e9 9f3d
000001c0: d74f ddbd f4af 6cbd 3379 29be 36ff ce3a
000001d0: 27bd 46be b416 a1bd 6fde 9abd 4f21 d8bd
000001e0: 4a72 3fbe 12a5 433d 8c46 1dbe 3d88 0abe
000001f0: 111c 0bbb 34e6 c3bd a208 1ebd c371 9abd
00000200: bbff d4bd ba30 873d 3b7a a83c bfd0 a6bd
00000210: 653f 97bd 2887 3dbd 66da d03b dfad 49bd
00000220: 49ef fabd 97d9 56be c719 eb3b 4401 f23a
00000230: 3f84 2dbe 6290 8abd cbf3 3abe 0b73 27bd
00000240: 9f79 8e3d 2ab4 15bc 52fe 733a ca74 13be
00000250: 5108 1dbe e646 0bbd 936a 003c 17e0 3abe
00000260: 9359 10be e5fb 4cbd 0106 28be 7092 9bbd
00000270: a6ef e4bd 30e7 04be be42 0cbe 187b 92bd
00000280: c019 913d 954e 50be b5ad 243d cde6 10bd
00000290: 1133 303d a59b 89bd 42ae 893c fad4 d5bd
000002a0: 1896 943d 812d 56bc 78c0 29be 2aaf 71be
000002b0: 63e8 99bc 1e37 ad3d 0944 61bd dba2 8bbe
000002c0: ea38 343d 5f5d c8bd c55a d1bd 5505 efbd
000002d0: 41a9 dcbd 69a2 31bd ddae ecbd c70f b0bd
000002e0: d59a dcbc 4878 2c3c e888 34be f729 66be
000002f0: abb3 b4bd f520 18be 4698 0abd ba0b 92bd
00000300: ec4e fabd 8638 0e3d e567 efbd 0147 af3d
00000310: 3328 77be c1a5 6cbe 4c94 ea3d abd1 4ebe
00000320: 733f 12be 53b1 e03d e88a 11be d759 4ebe
00000330: 91f8 463d 3d75 11bd 749b 8f3d 5c1c b1bd
00000340: fc2b 7ebe fb39 2ebd fdf8 29ba b340 53bd
00000350: e534 4c3d 44f1 5dbd 1c40 ff3c 3b6c 783c
00000360: 2231 8abc 6f8d 9ebd e80e fbbd 26f4 1ebe
00000370: d382 53be 1279 123c b42d 5cbe d7ae acbd
00000380: 492a 003d 7d81 1fbd 68c0 0dbd 8a51 6dbe
00000390: cfc9 cdbd 7dde e2bd 9db1 06be 8586 e4bd
000003a0: e84e 85be 96fa febd 95cf 22be 4c13 083e
000003b0: d579 bfbd 38b6 e0bd 5c55 aebd be65 3abe
000003c0: 32a6 5d3d 48c2 31be 872c f5bb bd70 843d
000003d0: 0461 08bd 4e17 d23d 74fd 43bd 9e65 9ebd
000003e0: f0c7 773c afde 4dbd 025e e3bd b850 5ebe
000003f0: e243 ebbc a73b b1bd 917a 83bd 3382 38be
0.10183963 -0.1794908 0.10180232 -0.038020253 0.050006323 0.087442316 0.10514518 -0.06546601
0.015664563 0.07703429 -0.07994089 -0.056132443 -0.21522622 0.0467177 -0.2276319 -0.088406555
0.058615346 -0.060357478 0.09844051 -0.17841662 -0.24053301 -0.041558273 -0.14387815 -0.044025883
-0.025395818 -0.024461845 -0.051424086 -0.17188326 0.05162088 -0.24761973 -0.19177479 0.09108923
-0.07826767 -0.0046975357 -0.1887648 0.07152325 -0.13856053 -0.23460001 -0.112762734 -0.24595468
-0.11573696 0.00034165004 -0.034918714 -0.13362868 0.10724465 -0.07766742 0.1021143 -0.05213623
-0.16453545 0.103978835 0.034216464 0.020449076 0.056038458 -0.110728934 -0.08174898 0.054676574
-0.22124735 -0.23826051 -0.010936752 -0.019497136 -0.14787857 0.025733616 -0.20555155 -0.09440477
0.03405394 -0.031805363 -0.0599373 -0.15611818 -0.21374016 -0.11336567 -0.053337615 -0.11941765
-0.28976583 -0.10509698 -0.11930911 0.10771925 -0.014247956 -0.10542199 -0.08838453 -0.081020854
-0.093642406 -0.10088643 -0.019172294 -0.09892855 -0.042548586 -0.039917037 -0.001126935 -0.09397352
-0.038244292 0.013610184 -0.024480466 -0.10443988 -0.011415272 0.11945148 -0.16409601 -0.071931295
-0.09892186 0.11000174 0.10216892 -0.098370485 -0.17209995 0.065360904 -0.21632962 -0.081639886
-0.040774696 -0.06178888 -0.13352947 -0.20305009 -0.08144033 -0.15474476 -0.018814053 0.078081176
-0.10806244 -0.05778499 -0.1655014 0.0015792612 -0.19408093 -0.078656584 -0.07561957 -0.10553228
-0.18695942 0.047764845 -0.15358943 -0.13528533 -0.0021226446 -0.09565392 -0.03858245 -0.075412296
-0.10400339 0.06601091 0.020566097 -0.08145284 -0.073851384 -0.046271473 0.0063736914 -0.049238082
-0.12252671 -0.20981441 0.0071747038 0.0018463512 -0.16944979 -0.0676582 -0.18257062 -0.040881198
0.06956791 -0.009137193 0.0009307611 -0.1440002 -0.15335204 -0.03400316 0.007837909 -0.18249546
-0.1409667 -0.050044913 -0.1640854 -0.0759629 -0.11178522 -0.12978816 -0.13697335 -0.071523845
0.070849895 -0.20342477 0.040204722 -0.03537636 0.04301745 -0.0671914 0.016806725 -0.10441013
0.072551906 -0.013072372 -0.16577327 -0.23601976 -0.018787568 0.084577784 -0.054996524 -0.27272686
0.04399959 -0.09783434 -0.10222391 -0.11670939 -0.1077447 -0.043367777 -0.1155679 -0.08596759
-0.026929298 0.010526724 -0.1763035 -0.22476946 -0.088233314 -0.14856322 -0.033836626 -0.07131143
-0.122220844 0.034721874 -0.11689738 0.08558465 -0.24136429 -0.23110105 0.11454067 -0.2019717
-0.14282016 0.10971322 -0.14213145 -0.20151459 0.048576895 -0.035512198 0.07012072 -0.08647987
-0.24821466 -0.042535763 -0.00064839405 -0.051575374 0.04985513 -0.054185167 0.0311585 0.015162523
-0.016869131 -0.0774182 -0.122587025 -0.15522823 -0.20655374 0.008939998 -0.2150181 -0.084317856
0.031290326 -0.03894185 -0.03460732 -0.23175636 -0.100482576 -0.110775925 -0.13153692 -0.1115847
-0.26036763 -0.12450139 -0.15899499 0.13288611 -0.093494095 -0.109722555 -0.08512375 -0.18202874
0.054113574 -0.17359269 -0.0074821147 0.064668156 -0.033295646 0.10258351 -0.047849134 -0.07734226
0.015123352 -0.050261196 -0.11101915 -0.2171048 -0.028718892 -0.08653956 -0.06419862 -0.18018417

bias f4 [40]
00000000: c623 55be acab edbd 6ad1 16be 1944 85bd
00000010: ddd5 70bd 7f1b 39bd 4944 67bc 4c9f 8ebd
00000020: e897 14be c2e6 13be 762e f1bd cc0c 3fbe
00000030: 51c6 84bc 01f8 53bd 59d4 1cbe 8fde c1bc
00000040: 0d8f 02be 8711 55be 402b e6bc 5800 fdbb
00000050: 1839 70bd 96e1 1cbd f9b9 93bd 6036 4bbe
00000060: 62e3 bdbd e747 06be 138b 22be dd53 91bd
00000070: 75a6 debc 52a1 0ebe f2bc 32bd f567 35be
00000080: 4a5f dbbc 6000 44be 6779 34be 93d6 373c
00000090: 3b9a 4c3c dd5c 19be 2dd9 d5bd b9c7 cbbc
-0.20814428 -0.116050094 -0.14728323 -0.06507129 -0.058797706 -0.045192238 -0.014115402 -0.06963977
-0.14511073 -0.14443496 -0.1177644 -0.18657225 -0.016207846 -0.051750187 -0.15315379 -0.023665695
-0.12749882 -0.20807467 -0.028096795 -0.0077209882 -0.0586482 -0.038301073 -0.07213206 -0.19844961
-0.092718855 -0.13113366 -0.15873365 -0.07096074 -0.027178982 -0.13928726 -0.043637224 -0.17715438
-0.026778836 -0.19140768 -0.17624436 0.011220592 0.012487943 -0.14976831 -0.104418136 -0.024875509

weight f4 [80, 40]
00000000: fdce 123d 7f94 ddbd 0f50 ac3d 464d d9bd
00000010: adcf ee3d b06f ecbd c4e8 c43d dacd 8dbc
00000020: cdaa 983d 5bf4 9abd 8a2a 643d 6ad9 c5bd
00000030: 325d b23d 6a55 543b 82b5 723d 8be4 863d
00000040: 28bb 2c3c fc97 8f3d a08b eabd bd3b 953d
00000050: 6f59 fcbd a8b6 223e 8b9e cebd bedb 3bbe
00000060: dc10 b5bd e328 b43d 086a 2a3d 0ebc 0dbe
00000070: 46b1 09be f05e 503d 6dd0 a23d 20e3 ad3d
00000080: d845 4bbd f47d 913d 8852 673d 3312 223d
00000090: 35b6 9d3d fe81 893c 70df 67bc ce57 eebd
000000a0: 115d df3d 5663 b43d a71a a83d 87a4 e83c
000000b0: 63ff c33d a3ad 32bd 6265 a63d ff71 1f3d
000000c0: 0d2e 00bd 120d bc3d fc9a b43d 037c 583d
000000d0: c277 cebd 8dbd 093e e494 013e bb53 0dbe
000000e0: 50d0 a1bd 02aa 9e3d f079 77bd 3c3e 8fbd
000000f0: 889a 53bd 6501 4abd 1788 fb3d 2e8a 33bd
00000100: 91f6 c73d a140 f9bd 40c3 803d 655d 5abd
00000110: cf19 f43d 4fd2 d1bd 9dda 80bd 7e84 183b
00000120: ba98 473d 4be1 c7bd 6f79 98bd f3db ac3c
00000130: 7cdb c03d 8540 e6bc ff69 e83d ac0b 36bd
00000140: c7b8 803d b9fd 7f3d 2e3e 61bd 149d c4bc
00000150: 9e0a d1bc 08eb 37bd 9160 2f3d a095 3e3c
00000160: e5ff 2fbd 738d f9bd 9656 b63c 5637 babb
00000170: 2a8e 063e 6dd7 893d 46df ad3d b351 d8bd
00000180: de8b 26bc 67f4 d3bc 02d4 133d 136c 7dbd
00000190: 1566 f2bd 385e 8c3c 1c22 82bd f554 d6bd
000001a0: e9fd 263d c9bd b13d 75b2 9ebd 1067 103d
000001b0: 2461 dcbb 8260 53bd 8343 623d 459f 1abe
000001c0: 758d cdbd 9aa5 ef3d 3d81 033e be17 c03d
000001d0: 6013 a73d 0a02 a73d a220 09be 8c6b 09bd
000001e0: a194 743d 1544 bb3d 57ad c73d 3e28 22bd
000001f0: 4632 35bc 269e 8b3d 6878 46bc 61a2 1c3d
00000200: 4936 203d ba97 063d 37f2 0d3e 5537 0d3e
00000210: 6286 97bc 4c16 9bbd 8607 8cbd 1a56 8abd
00000220: fa4a 113e 5b33 48bd b1c4 df3d 2fa3 d7bc
00000230: a293 d53d 5464 e23d 9e54 e6bb d240 d33d
00000240: d58d c53d 66c0 2abd 690b bdbc bd0b cdbd
00000250: 284e 9cbd 910c 143e b4d1 06be 6cfc a83d
00000260: 6c11 e3bd 170f bc3c fd6d c23c b645 973c
00000270: 0b35 43bd 0754 183e b1ad 743d 3880 dfbd
00000280: cc97 06be d45d 6e3d 56dc fd3d 6a00 28bd
00000290: 20ff a53d 6f08 e5bd 3bf7 7f3c cbb6 11bd
000002a0: efba a2bd e32f 113e 241d 96bd f716 a73d
000002b0: fc3f 33bd 5601 c8bd f2c5 773d 0ff8 a63d
000002c0: fba4 20bd 98ad f63d 89e9 593d 0188 f33d
000002d0: 405f bf3c 9892 06be 9f4e 0fbe c2cc 09be
000002e0: 9142 dabd a5c1 7ebd 15d0 e03c 415e 13be
000002f0: a281 aebd 7c14 fb3c 4bd1 ccbd 5111 623d
00000300: 44af 05be 9635 d23d 4530 c83d 2b2b e5bd
00000310: 4329 293c a138 763d c565 223e 9067 cc3d
00000320: 8100 803c b2cb dabd 33a0 123e 6825 503c
00000330: fc24 fb3d 782e 193e 0da7 01be df41 98bd
00000340: 0ff6 f53d 1387 103d 5184 52bd 1fd7 1e3e
00000350: 3c86 413c 09f6 b83d 85f4 923d 1200 79bd
00000360: 8806 fe3c 7767 26bd 3b85 153e b7e9 563d
00000370: 631c dabd 65fd 093e 9660 e4bc fa02 a33d
00000380: 032a e2bc 93db a03c a81f e9bc 8eb8 3b3a
00000390: ff06 0bbd 6113 8fbd 782a 0dbe 6bdd 08be
000003a0: 1934 993d 48f2 9c3c 0e85 f8bd afb6 01bd
000003b0: 10d9 de3c 361d f3bd a01c d73d 15b7 47bd
000003c0: 8f00 fc3d 4624 ef3b 8604 f83d 8813 06be
000003d0: 7b27 063e 8cce 9b39 5c86 e03d a977 fbbd
000003e0: b725 a13d d3a9 ca3d 831b 7cbd b876 183e
000003f0: fbeb cb3c fa35 d3bb a03c 11bd 0c84 3d3d
0.03584193 -0.10819339 0.084137075 -0.10610442 0.11660705 -0.1154474 0.09614709 -0.017310072
0.07454453 -0.07566138 0.05570463 -0.09660609 0.08709182 0.0032399544 0.05925513 0.0658656
0.010542668 0.070114106 -0.114524126 0.07286785 -0.123217456 0.1588999 -0.100888334 -0.18345544
-0.08841106 0.08796861 0.041605026 -0.13841268 -0.1344653 0.05087179 0.0794991 0.08490586
-0.049627155 0.07104102 0.056475192 0.039568137 0.07700769 0.016785618 -0.014152393 -0.11637841
0.10906423 0.08808009 0.082082085 0.028398765 0.095701955 -0.043622624 0.08124806 0.038927075
-0.031293917 0.091821805 0.088186234 0.05285264 -0.10081436 0.13451214 0.12654454 -0.13801472
-0.079010606 0.0774727 -0.060419023 -0.06994292 -0.051661044 -0.049317736 0.122818165 -0.04383295
0.09763826 -0.1217053 0.06287241 -0.053311724 0.11918985 -0.10245191 -0.06291697 0.002327233
0.048729636 -0.09759768 -0.074450366 0.021100974 0.09416863 -0.028106937 0.11348342 -0.044444725
0.062852435 0.06249783 -0.05499094 -0.024000682 -0.025517758 -0.044901878 0.042816702 0.011632353
-0.04296865 -0.121851824 0.022258084 -0.005682866 0.13140169 0.06730542 0.08489852 -0.10562458
-0.010165183 -0.025873376 0.03609086 -0.061870646 -0.11835877 0.01713477 -0.06354162 -0.10465423
0.04076949 0.08678777 -0.07748882 0.035254538 -0.0067254473 -0.05160571 0.055240165 -0.15099819
-0.100367464 0.11701508 0.12842269 0.093795285 0.08157992 0.08154686 -0.13391355 -0.03354983
0.059712056 0.09143845 0.09749859 -0.03958916 -0.011059349 0.06817274 -0.012113668 0.038240794
0.03911427 0.03285954 0.13861929 0.13790639 -0.018496696 -0.07572612 -0.068373725 -0.06754704
0.14188758 -0.0488771 0.10926188 -0.02632293 0.10428549 0.11054292 -0.00702913 0.10315098
0.09646193 -0.04168739 -0.02307673 -0.100120045 -0.076320946 0.14457919 -0.13165933 0.08251271
-0.11087307 0.022956414 0.023734087 0.018465858 -0.047658008 0.14875804 0.059735958 -0.10913128
-0.13143843 0.05819495 0.12395541 -0.04101602 0.08105302 -0.11183249 0.015622909 -0.035574716
-0.07945811 0.14178424 -0.07329777 0.08158677 -0.043762192 -0.0976588 0.06049151 0.08152782
-0.039219838 0.12044829 0.053201232 0.11891175 0.023360848 -0.13141859 -0.13994835 -0.13457015
-0.10657228 -0.062196393 0.027442971 -0.14391424 -0.08520819 0.030649416 -0.10000857 0.055192295
-0.1305514 0.10264127 0.09774832 -0.11189874 0.010324779 0.0601126 0.15859134 0.099806905
0.01562524 -0.10683383 0.14318924 0.012704231 0.122629136 0.14959133 -0.12661381 -0.07434439
0.120098226 0.035285067 -0.051395718 0.1551175 0.011811789 0.090313025 0.07175545 -0.060791083
0.031008974 -0.040626016 0.14601605 0.05246898 -0.106499456 0.13475569 -0.027878087 0.07959552
-0.027607923 0.019635951 -0.028457478 0.00071609847 -0.03394222 -0.06986118 -0.13785732 -0.13365714
0.0748064 0.019158497 -0.12134753 -0.03166836 0.027203113 -0.11870806 0.10503507 -0.048758585
0.12304794 0.0072980253 0.12110238 -0.13093388 0.13100998 0.00029717793 0.10963127 -0.12278683
0.07868522 0.09895673 -0.061549675 0.14889038 0.024892798 -0.0064456435 -0.035458207 0.046268508

bias f4 [80]
00000000: fddf 033e 7e07 163e 1aae 0a3e 4c28 3abe
00000010: 7cd7 8d3c ee24 03bd 8834 fabc 096e 28be
00000020: d19c dfb9 8e46 34be 9baa 863d 0fe2 39be
00000030: 22e4 ce3d 4ba6 0f3e fbc2 03be e678 d8bd
00000040: d43e ac3c 2858 883c 0169 423d b1b6 6f3d
00000050: b7e5 6cbc 69e3 91bd 35d6 eebc e2cb 82bc
00000060: bdc0 d5bd 0df4 29be cf80 27be 477c 7abd
00000070: 6c31 ac3b 627b f73a 2881 46bd 4b46 893d
00000080: 50ab bb3d a416 db3d 6579 6d3d 9f62 003d
00000090: 1c44 be3a 3c75 54bd f773 1d3e ec98 9a3d
000000a0: 13ae 72bd 3c73 843d df62 a53d d675 00be
000000b0: c4e6 c0bd 40dc a03c 7cac 3bbe 0a8f ddbc
000000c0: 7dca ffbd 3b44 f6bc f7de db3d a8a4 09be
000000d0: f101 923b 0a73 a43d 577a 95bd f163 13bc
000000e0: f45e acbd 18f3 c4bd 05cd b03d b24f 15be
000000f0: 262f febd bbbb 1a3e 5645 563c 15d4 443d
00000100: 4b03 b1bd e9df 17bd 1b35 f0bd 4cb7 983d
00000110: 83b8 96bd bc6c 31bd f849 3bbc d828 37bd
00000120: cba0 c83d 6f0e f83d bf87 f83c 1694 c638
00000130: 07d2 f7bc 393a 12be 4c75 43be 9f9b d0bc
0.12878413 0.14651296 0.13542977 -0.18179435 0.017314665 -0.03201764 -0.030542627 -0.16448225
-0.00042650712 -0.1760504 0.06575509 -0.18152641 0.10102107 0.1402828 -0.12867348 -0.105699345
0.021026053 0.016643599 0.04746342 0.058523837 -0.014459065 -0.07123453 -0.029154876 -0.01596636
-0.104371525 -0.16597004 -0.1635773 -0.061153676 0.005254915 0.0018881375 -0.048463017 0.067028604
0.09163535 0.10697678 0.0579771 0.031344052 0.0014516148 -0.051869616 0.15376268 0.07548699
-0.05924804 0.06467292 0.08075499 -0.12544951 -0.09419015 0.019636273 -0.18327516 -0.027045745
-0.124897934 -0.030061832 0.107358865 -0.13441718 0.004455798 0.080297545 -0.07298725 -0.008995996
-0.08416548 -0.09616679 0.08632854 -0.14581183 -0.124113366 0.15110676 0.013078054 0.04805382
-0.08643206 -0.03707877 -0.11728879 0.07456836 -0.073594116 -0.043316588 -0.01143121 -0.044716686
0.09796294 0.12112128 0.030338166 9.468959e-05 -0.030251516 -0.14280023 -0.19087714 -0.02546483

weight f4 [5, 80]
00000000: 6f9c 62bc 3d8c 5b3c d659 c93b 454e 7bbd
00000010: 3008 1d3d 4b0e 13bc dd32 003d 535a 1abc
00000020: 7210 80bc 2a93 6a3d dd88 283d 027e eebc
00000030: 2392 0d3d fe3d debb de8e c0bc 5e7b 043d
00000040: 108e 623d fcd3 9f3c c9a0 68bc a3f9 16bc
00000050: 73d4 5d3d 4cc8 74bd 279c 38bd 2026 bdb8
00000060: 0b6e 463d d87f 8cbd 6b85 a33c e65c 643d
00000070: 9972 85bc 5e6c 04bd 764e 2039 9624 f53c
00000080: d2d8 683c 0198 823c 8880 b63b c378 d7bc
00000090: 830e 013d 02c4 a4bd 9f0f 803b c33e a0bc
000000a0: 7e58 533c ab07 9ebb 1055 2ebb 4996 473d
000000b0: e44d d43c 4eae d0bb 0a09 563c ad97 273c
000000c0: 6c59 8cbd 28cd ea3b 303a 08bd b404 eebc
000000d0: bd69 abbc 2c67 b03c ae17 53bd 9041 803d
000000e0: 1602 1b3c 3982 583d 8ac8 7cbc cc20 a2bb
000000f0: 6c85 88ba 06e6 89bc 00cf 08bd 8437 23bd
00000100: bda6 67bd a853 663c d6e3 a83b b041 06bd
00000110: 4a92 4d3d 30e8 c9bb 1e44 d03c 91fb cfbc
00000120: 1f73 9ebd 6b9d 8abb 4eec 073d 7796 eb3c
00000130: f798 91bd 5e53 db3c bde7 7a3c 28ad cc3b
00000140: 30c6 553d a22d e9bc bd7e 5bbc 9c66 593c
00000150: 81b4 8abb 15a4 1cbd deb7 a0bd 3249 3f3d
00000160: d8de 8d3c 9eb0 33bc 066a 8abd 0111 89bd
00000170: 2e53 0c3d 063b d3bc ff85 1b3c 240b 85bd
00000180: fa17 c0ba d75b 163d aeb3 9b3c 5ac9 a4bb
00000190: 2df5 6fbd 92a5 31bc 1516 163d 922c 843a
000001a0: f774 9e3d 7664 3abd b400 d9bc a15c 813d
000001b0: 2415 9cba f21d 363d ecf0 38bd b383 353d
000001c0: ce96 823b 3194 8b3b 514a a5bb 9c41 cc3a
000001d0: 3016 a83c a14b 00bd 5699 e5bb 4996 22bd
000001e0: 7aaa 1ebd 553e 793a f648 8abc 5977 ecbc
000001f0: 622c 1cbd 9bc7 063c a886 e03c 044f 87bd
00000200: 1a0d e5bc 8a82 253d 1cca 94bc b64e f33a
00000210: 0f46 8a3c 01d8 8bbc 22d3 9ebb 3748 84bd
00000220: 3758 343d e72b 443d a5d3 1bbd cf0a 6cbc
00000230: 8ee4 0abc 59bb 3dbd da43 ca3c 2541 98bd
00000240: c844 893d f980 2a3c 4087 5abd 86ec 043d
00000250: 7680 0abc 5df6 a2bc 2a8e ac3a ec66 e83b
00000260: 7fb5 4cbd 750f fcbc e2fd 79bc 19de b73c
00000270: 5857 403d 0d43 b6bc 92f0 823c 6c7f e23c
00000280: 949d 743b 6e4b c43c 691c e93c 0d03 7d3d
00000290: 91f0 9b3c 3ef6 803c ece1 b4bc fc20 863d
000002a0: 0036 e4bc bfb0 46bd e1db 603d a4e9 863d
000002b0: ded3 ea3c 731a 083b c6d8 49bd 3722 743d
000002c0: ffca 85bd 4d1b 013d 2740 e23c dac2 063d
000002d0: 5b2f 2d3c a89f eb3c 8e44 7d3c fd3d 28bc
000002e0: 9838 c2bc 4c1d 77bc 53cc 8bbd e19d 223d
000002f0: 6b79 1ebc cc30 003d 588c ecbc ac99 59bd
00000300: 3874 14bd 919a 41bc 65fd a83c 4f7a 6f3c
00000310: 7d2c 2abd 3822 983c f5b2 ab3b 4f04 20bd
00000320: d1fd cf3b 5a82 93bd b9bf 9bbc a94a dbbd
00000330: 0a29 b4bc 0aea ee3c 29d6 98bd 79ed 78bb
00000340: acf6 0f3d d281 8cbc 66f1 793d ca19 bfbc
00000350: 295e c7bb c0a3 873c 3073 27bd 24a5 933c
00000360: e51e 353d 7375 6dbd eb5b 6dbc 9d57 933c
00000370: 16d0 453c 5b0c 3a3d 5325 f83b 1f48 88bd
00000380: a8f9 5bbd 6290 83ba 9136 d9bc 3b04 0b3d
00000390: 7569 583d 3a48 92bc c8aa dbbb ee69 b8bc
000003a0: 5397 a5bc 10a3 abbc 9713 d53c 4e06 183d
000003b0: 702c 893d 88f5 163d fb6d 3b3d 5792 883d
000003c0: 9b25 2ebc 8b31 a53c d119 493d fe0a 1abc
000003d0: 8fe8 a2bd 4d4a b33c 6006 8a3d 2bfb 803d
000003e0: 6595 a53c d08c 34bc 30b2 aebc daf2 87bd
000003f0: 2cf3 9abb 22de 0a3d 3369 83bd 6dff 973d
-0.013831242 0.013400135 0.0061447425 -0.06135394 0.038337886 -0.008975576 0.031298507 -0.009420949
-0.015632842 0.057269253 0.041146148 -0.02911282 0.034563195 -0.0067822924 -0.023505624 0.032344215
0.055311263 0.019510262 -0.01419849 -0.0092147915 0.054157685 -0.05976133 -0.045070793 -9.0193236e-05
0.04844479 -0.06860322 0.01996108 0.055752657 -0.016289996 -0.03232991 0.00015288018 0.029924672
0.01421185 0.015941622 0.0055695213 -0.0263027 0.03150798 -0.08045198 0.003908112 -0.019561177
0.012899516 -0.0048226914 -0.0026600994 0.048727307 0.025916047 -0.006368435 0.0130636785 0.010229033
-0.06852993 0.00716557 -0.033258617 -0.029054977 -0.020924443 0.021533571 -0.051536255 0.06262505
0.009460947 0.052858565 -0.015428672 -0.0049477573 -0.0010415739 -0.016833317 -0.033400536 -0.039847866
-0.0565555 0.014058031 0.0051541133 -0.03277749 0.05018834 -0.006161712 0.025423106 -0.02538851
-0.07736801 -0.0042301915 0.033184342 0.02875827 -0.07109254 0.026773151 0.01531404 0.006246228
0.05219096 -0.028464142 -0.013396916 0.013269093 -0.0042329435 -0.03824242 -0.0784757 0.046700664
0.017318174 -0.010967402 -0.067585036 -0.06692696 0.034259014 -0.02578498 0.009492396 -0.064962655
-0.0014655583 0.03670868 0.019006576 -0.005028886 -0.058583427 -0.010842698 0.036642153 0.0010084084
0.07737153 -0.045505963 -0.026489593 0.06316496 -0.0011908156 0.04446215 -0.045151636 0.04431505
0.0039852625 0.004259609 -0.0050442596 0.0015583518 0.020518392 -0.031322125 -0.0070068045 -0.039694104
-0.038736798 0.00095078844 -0.016880494 -0.028865503 -0.038128264 0.008226301 0.02740796 -0.06606868
-0.027960349 0.040407695 -0.01816278 0.0018562886 0.01687911 -0.017070772 -0.0048469463 -0.064590864
0.04402944 0.04789343 -0.038043637 -0.014406874 -0.008477343 -0.046321247 0.024690557 -0.074343
0.06702572 0.010406726 -0.05335164 0.03245213 -0.008453479 -0.019892866 0.0013164927 0.0070923474
-0.049977776 -0.03076909 -0.015258284 0.022444772 0.046958297 -0.02224877 0.015983853 0.02764865
0.003732537 0.023961749 0.02845593 0.061770488 0.01903561 0.015742417 -0.022080384 0.0654926
-0.02785778 -0.048508402 0.054897193 0.06587532 0.02866548 0.0020767718 -0.049278997 0.059602942
-0.06532859 0.031520177 0.02761848 0.03290067 0.010570372 0.028762653 0.015458239 -0.010268685
-0.023708627 -0.0150826685 -0.06826081 0.039701346 -0.009672503 0.031296536 -0.028875515 -0.05312507
-0.036243647 -0.011816637 0.02062864 0.014616563 -0.041546334 0.018571004 0.005239839 -0.03906661
0.006347396 -0.07202597 -0.019012319 -0.107076 -0.021992225 0.029164333 -0.07462723 -0.0037983342
0.035147354 -0.017151747 0.06102123 -0.023327727 -0.006084223 0.016557574 -0.040881336 0.018023081
0.044218916 -0.057973336 -0.014487247 0.017986113 0.012073537 0.04542194 0.007572809 -0.06654381
-0.053704888 -0.0010037536 -0.026515277 0.03393958 0.052834947 -0.017856706 -0.0067037083 -0.022511449
-0.020213759 -0.020951778 0.026010318 0.037115388 0.06697929 0.03685525 0.045759182 0.06668537
-0.010629083 0.020165225 0.049096886 -0.009402035 -0.07954513 0.021886015 0.06739497 0.062979065
0.020212838 -0.0110199 -0.0213252 -0.06638117 -0.0047286954 0.03390325 -0.064165495 0.074217655

bias f4 [5]
00000000: 5f31 57bb 38bb 2a3d 3d82 0fbd 3fc1 09bd
00000010: 1798 ad3c
-0.0032835824 0.041682452 -0.035036314 -0.03363156 0.021190686
