final_project/mlruns/1/20ec8c96c89f4f02bc8af1eadffb7d2b/artifacts/cvae_1/data/model.pth (torch, 48071 bytes, 10 tensors)

weight f4 [80, 10]
000000 ff f4 83 3e ba 18 9e bd dd ac 45 3e be be e4 bc
       0.25772855 -0.0771956 0.19304223 -0.027922984
000010 4a f0 9a bd 47 fd 92 be 98 0f 51 3e a5 37 cc 3c
       -0.07565363 -0.2870886 0.20416105 0.024928877
000020 0b e0 15 be f7 3b 6e 3e 01 2f 1d be 4d 83 ee bd
       -0.14636247 0.23265062 -0.15349962 -0.116461374
000030 57 31 11 3e 09 4d 76 be be 65 1b be 29 3c 0e 3e
       0.14178978 -0.24052824 -0.1517553 0.13890137
000040 4c 7e 86 3e 44 38 34 be 8b 31 10 bc c5 b7 d7 bc
       0.26268232 -0.17599589 -0.008800874 -0.026332745
000050 44 40 78 be 29 61 31 be e5 06 57 be 5d c3 ad bc
       -0.24243265 -0.1732222 -0.20998724 -0.02121132
000060 b3 c5 a4 3c 79 3c ed bd 35 08 25 3e bf 6c 10 3e
       0.020113802 -0.115838 0.16116412 0.14103983
000070 6a db 26 bd 84 87 9e be 03 57 50 be 8a 6a 00 bc
       -0.040736593 -0.30962765 -0.20345692 -0.007837901
000080 40 91 7a bd be 8d 41 3d 38 11 8b be ae 34 e0 3c
       -0.061173677 0.047254317 -0.27161574 0.02736887
000090 c3 e9 89 3d 67 cf 3b bd 68 e9 99 bd b1 79 cc 3d
       0.0673404 -0.04585209 -0.07515222 0.09984148
0000a0 2d e1 cf 3c d7 91 96 3d 1c 11 92 3e a8 9f 35 be
       0.025375927 0.073520355 0.28528678 -0.17736685
0000b0 f0 80 ad 3e 3d e5 8d be 05 73 3b 3e de 81 16 be
       0.33887434 -0.27713957 0.18305595 -0.14697978
0000c0 2b 4f 94 39 d0 d2 99 3e d0 23 90 be 69 a5 c6 bc
       0.00028287744 0.3004365 -0.28152323 -0.024248796
0000d0 22 6b 7b be 2f 52 80 bd 2c 22 b7 3e e6 c5 1f b9
       -0.24552587 -0.06265675 0.3576826 -0.00015237145
0000e0 2c 3f a0 3e 97 4d 74 3d cb c0 73 be 22 eb a1 bd
       0.31298196 0.059644308 -0.23804013 -0.07906176
0000f0 be fc 56 3d 16 a7 8d be 30 3d a5 3e 68 c0 33 3d
       0.052487127 -0.2766654 0.32273245 0.043884665
000100 6d a1 0d 3e 36 8a 85 be 5d 6c 9a 3e aa 86 28 3e
       0.1383111 -0.2608201 0.301608 0.1645762
000110 2a 9e c6 3b e0 8d d3 3d 40 94 e1 bd f0 fb 2e be
       0.006061335 0.10329795 -0.110146046 -0.17088294
000120 6d f7 de 3c a2 a7 6d 3e 3d e0 bd bd 1b 7c 18 3c
       0.027217591 0.23208478 -0.09271286 0.009306933
000130 6b 81 8b bd 8d 27 ab bd cc b1 12 3e 5e ad 28 be
       -0.06811794 -0.08357153 0.14325637 -0.16472384
000140 34 8d 22 3c 1f ab 8b bd de 18 a0 3e 4a 2d 26 3d
       0.009921361 -0.06819748 0.31268972 0.040570535
000150 71 b7 8c bd a6 22 21 bb df a9 d4 bd bc 4a 02 be
       -0.06870926 -0.0024587302 -0.10383963 -0.12723821
000160 cd a8 95 be 9e 7d 9c 3e d4 cd 80 3e 7f 00 78 3d
       -0.29230347 0.30564588 0.25157034 0.060547348
000170 b9 2f fa bd 4a 34 ed bd 74 e5 0f 3e ca 41 67 bc
       -0.122161336 -0.11582239 0.14052373 -0.014114806
000180 de 89 58 be d1 ab 5f 3e ed 76 6f 3e 3e 14 8e bd
       -0.21146342 0.21842887 0.2338521 -0.06937455
000190 5d 8c 3d 3d b4 69 80 be 55 39 dd 3d c9 f2 1c 3e
       0.04627644 -0.25080645 0.10801951 0.1532699
0001a0 56 35 04 3e 50 1c a4 be 00 6a 50 3e 94 1b dd 3d
       0.12910971 -0.3205285 0.20352936 0.10796276
0001b0 86 db 06 3e 60 62 ec 3d c6 2a 7c 3d 39 52 06 be
       0.13169679 0.11542201 0.06156423 -0.13117303
0001c0 4d 92 57 3e c4 90 4d 3e 1f 37 5b bd 1a 99 8c 3d
       0.21051903 0.20074755 -0.053519364 0.06865139
0001d0 3d 3f 87 be ee 8f 08 3e 73 ec f0 3d c6 3a cd bd
       -0.26415434 0.13336155 0.11763849 -0.10020976
0001e0 43 46 82 3e 9c 2e c9 3c 64 51 af bc a7 d2 75 3e
       0.2544423 0.024558358 -0.021401115 0.24006139
0001f0 65 0b 35 3e f7 66 1f bd 03 5d 93 3e 8f 85 1c 3e
       0.17680128 -0.038916554 0.287819 0.15285324
000200 90 68 4c bd a9 8d 44 3e 94 34 79 3e 26 c7 ac 3d
       -0.049904406 0.19194664 0.24336463 0.08436422
000210 a5 5c 1f 3e 5a 7b e3 3c ad bd 86 3e 68 78 8a 3e
       0.15562685 0.02776878 0.26316586 0.27044988
000220 ad 5d 6b 3e ee 4e a0 be 44 b4 92 bc 8b 73 20 3e
       0.22984953 -0.3131022 -0.017908223 0.15669076
000230 33 e7 72 3e ab 9e 53 3e 26 82 29 bd 3d 7e 8d 3e
       0.23721008 0.20665996 -0.041383885 0.27635375
000240 18 fc 0a 3e da 8d 0e be 8f 91 91 3d 15 f7 1a 3e
       0.13572729 -0.139213 0.07107841 0.15133317
000250 4a ff 58 be 94 5b b3 3e 0b 6d 9b bb 02 10 34 3d
       -0.21191135 0.35030806 -0.0047432235 0.04396058
000260 57 8d 15 be b8 a4 38 3e be f0 2b 3e ee f9 60 bc
       -0.14604698 0.18031585 0.16791055 -0.013731463
000270 a2 67 94 3e 0d 5e a0 3d 71 43 98 be 08 fa a3 bd
       0.28985316 0.07830439 -0.29738954 -0.08006674
000280 18 79 0f be c2 8a 8e 3e cf 12 26 3e 75 87 8a 3e
       -0.14011037 0.2784024 0.16218112 0.2705647
000290 9a 1f 34 3e dc 59 48 be 68 12 ef 3c 2b a3 8c 3e
       0.1759018 -0.19565529 0.029183581 0.27468237
0002a0 0c 28 52 be a1 17 60 bd 55 ab 5a be 20 86 9f 3e
       -0.20523089 -0.054710034 -0.2135442 0.31157017
0002b0 8c cc 9f 3e bc 5e 8d be b2 f9 4e be a8 a8 3e 3e
       0.31210744 -0.2761134 -0.20212439 0.18619025
0002c0 ed 99 8a be 86 dc 1d 3e 3e f8 a5 bd 2e 9e 03 3e
       -0.2707056 0.15416154 -0.08103989 0.1285331
0002d0 2f 7b 7a 3e af 06 5a be 5f 56 b1 3d c5 d2 df 3d
       0.24461053 -0.21291612 0.08659052 0.10928873
0002e0 88 b6 dc bd 05 3a 7a bd 2c c3 84 bd 2e 3a 25 3e
       -0.107770026 -0.061090488 -0.064825386 0.16135475
0002f0 d4 88 5e 3d 90 ec ec bd dc 9d a7 be 40 a2 af 3c
       0.05432971 -0.11568558 -0.32737625 0.021439672
000300 8f 80 8a bd ed ef 53 3e 8f ef d7 3d f5 97 bf bb
       -0.06762802 0.20696993 0.10543739 -0.005846972
000310 49 2f 26 be ba 80 71 3e be f6 c4 bc 0f f0 0c be
       -0.16228975 0.23584262 -0.024043437 -0.1376345
000320 20 43 9c be e8 a1 0c be d2 2c f8 bc 47 d9 86 3e
       -0.30519962 -0.13733637 -0.03029481 0.26337644
000330 f3 b1 20 3e 91 8c 51 3e 9d 85 26 3e c7 8b 84 bd
       0.15692882 0.20463778 0.16261907 -0.06471973
000340 8d 95 8f 3e 56 ff 0f be cf 74 ae 3d 17 c2 5e be
       0.28043786 -0.14062247 0.08518373 -0.21753727
000350 e7 aa 86 3e 8f 6c 82 be b2 f1 6a 3e 4d fb 8b be
       0.26302263 -0.2547345 0.22943762 -0.27340165
000360 92 3c dc bd 3b bf 39 3c 42 ac 7b 3e 6a a5 8b be
       -0.1075374 0.011337097 0.2457743 -0.27274638
000370 73 7e 9a 3e 47 a1 4e be 3c 14 47 be 06 ea 85 3e
       0.30174598 -0.2017871 -0.19441313 0.26155108
000380 02 8b 99 be 47 1a 0c 3d 14 65 9d be 11 91 49 3e
       -0.29988867 0.034204748 -0.3074118 0.19684245
000390 60 e0 c3 3d ec 1e 16 be 4a 3d 3a 3e ff 7a 20 3e
       0.095642805 -0.14660233 0.18187442 0.1567192
0003a0 cd f6 7d bd 55 51 26 3e 85 30 c1 3e 1f 08 b0 3d
       -0.062002946 0.16241963 0.3773233 0.08595299
0003b0 d5 6a 85 bd 0a 73 bd bd 7f 09 7a 3e c5 ec be bd
       -0.06514517 -0.092504576 0.24417685 -0.09322504
0003c0 8e ac 97 3e 86 4d 54 3e 5e d5 0e 3e 38 5d 39 bd
       0.29623836 0.20732698 0.1394858 -0.045254916
0003d0 03 6d 60 bd aa 9e 44 3e 18 58 38 be 6a 62 d9 3d
       -0.05479146 0.1920115 -0.18002355 0.10614474
0003e0 06 c4 4b be dc 85 b7 bd 16 6b e2 3c 60 ac d9 3d
       -0.19898996 -0.089610785 0.027638953 0.10628581
0003f0 89 f6 ff 3d d6 ba 5e be e2 d3 1f be dc d8 55 3e
       0.12498195 -0.2175096 -0.1560817 0.20883507

bias f4 [80]
000000 70 ab 0e be 0e b6 02 3f 7c 7f 88 be 32 fa 7e 3e
       -0.13932586 0.51059043 -0.26659763 0.2490013
000010 fd d1 a8 3e 16 05 c8 3e 3b b3 8f 3e 7a 8d 30 be
       0.32972708 0.3906638 0.2806643 -0.17241469
000020 01 3c 81 be 78 f8 6a be 31 8b ff 3e 13 6e 5c be
       -0.25241092 -0.22946346 0.49910882 -0.21526365
000030 aa c3 5e 3e 59 e4 77 3e 60 42 c3 3e a4 81 61 be
       0.21754327 0.24208201 0.38136578 -0.2202211
000040 9f 75 74 be 97 50 02 3f 45 b7 42 be 35 45 9a 3e
       -0.23872994 0.5090422 -0.19015224 0.30130926
000050 bd fa b2 3e 90 f7 ea 3e 4c 72 1e be 97 c6 8d 3e
       0.34956923 0.45892 -0.15473288 0.27690575
000060 6f a5 8f bd 93 89 bc 3e b8 82 54 bd 5f a1 95 3e
       -0.07013976 0.3682371 -0.051882476 0.2922468
000070 92 5c fe 3e e9 1e 91 be ec e8 f2 3e 4e 64 74 3e
       0.4968 -0.28343895 0.4744333 0.23866388
000080 ce 1a ca 3e 84 61 9b 3e 2e 1e 8f 3e 87 83 9c 3e
       0.39473575 0.30347836 0.27952713 0.30569097
000090 93 3f 89 3e 7e c8 cc 3e 35 6f 5d be da 99 21 bd
       0.26806316 0.39996713 -0.21624453 -0.039453365
0000a0 79 b8 f9 3e 98 d4 8f bd 82 a4 76 be 0b 15 a2 3e
       0.48773554 -0.07022971 -0.24086192 0.3165668
0000b0 a8 b4 e6 3e 82 f1 b4 3e 67 e9 42 3e 3c 56 da 3e
       0.45059705 0.35340506 0.19034348 0.42643917
0000c0 4a a9 6b be f6 43 fa bd ae 63 9d be 9b ae b9 bd
       -0.23013797 -0.12219994 -0.30740112 -0.090665065
0000d0 f2 a6 ca bd d7 58 9d 3e 70 3a e9 3e 1b 41 38 be
       -0.098951235 0.30731842 0.45552397 -0.17993586
0000e0 ab 9e e5 3e 98 54 cc 3e e6 dc dd bd 1f c8 d9 bd
       0.44847617 0.3990829 -0.10833149 -0.10633873
0000f0 f7 76 ad 3e 02 78 c3 3e db c4 d1 3e e5 e5 8b be
       0.33879825 0.38177496 0.409705 -0.27323833
000100 f2 a3 9e be 50 10 82 bd cd 1d 8e 3e de b0 c6 3e
       -0.30984455 -0.063507676 0.2775711 0.38806814
000110 4b 40 31 be 27 a2 79 bd d7 b8 f0 3e db 05 3d be
       -0.17309682 -0.060945656 0.47016022 -0.18459265
000120 36 fd 46 be 60 8e ac 3e e6 d8 95 3e a9 05 af 3e
       -0.1943253 0.33702374 0.29267043 0.34184006
000130 d1 45 f3 bd 93 e2 b7 bd 57 c5 18 be aa 30 bb 3e
       -0.11878551 -0.089787625 -0.14919029 0.36560565

weight f4 [40, 80]
000000 6e e1 b0 3d ec 13 8b 3d 8b b0 f7 bc d8 69 6a 3d
       0.08636747 0.06790909 -0.03023555 0.057229847
000010 39 93 a6 bd 74 14 f5 bc 14 7b 9b 3d b3 6e a8 3d
       -0.08133549 -0.02991698 0.07591835 0.08224239
000020 0d 18 4e bd 7c d4 a9 3c 1a 30 26 bd 45 7e 9e bd
       -0.050315905 0.020731203 -0.040573217 -0.07738928
000030 b3 c9 a4 3d 5a 71 fd bc d6 01 96 3d c2 be d9 3d
       0.080462836 -0.03093784 0.07324569 0.10632087
000040 d5 3f 05 3c d9 56 e5 bc 57 6a 40 3d e2 0f 44 bd
       0.0081328945 -0.027995514 0.046976414 -0.04786671
000050 de 5c 95 bd 61 38 95 bd d3 4d 97 3d d9 50 70 bd
       -0.07293104 -0.07286144 0.07387891 -0.058670852
000060 b2 39 d8 bc 3d 49 59 bc a1 74 9f 3d 81 51 9d bd
       -0.026394699 -0.01326209 0.07785917 -0.07681561
000070 76 21 91 bc 93 fc 3d bd c2 a6 ec 3d a1 8b 80 bd
       -0.01771615 -0.04638345 0.11555244 -0.06276632
000080 43 98 c9 3d c1 0f 82 bd 3b 82 c7 3d c1 07 9e 3d
       0.09843495 -0.06350661 0.09741636 0.07716323
000090 35 d8 b7 3d 67 ef 4e 3d d2 44 e9 bc 84 a0 5e bb
       0.08976785 0.05052128 -0.028475199 -0.0033970186
0000a0 84 60 84 3d a9 09 d1 3d c7 32 42 bd d5 6c 95 3d
       0.064637214 0.10206921 -0.047411706 0.07296149
0000b0 dd 45 b8 3b f4 8e cb bd b3 e8 d8 3d ba 7e c8 bd
       0.0056235627 -0.099393755 0.10591259 -0.09789796
0000c0 93 44 d9 3d 02 e7 43 3d 6a 5d f6 3c aa 53 98 bd
       0.106087826 0.047827728 0.03007384 -0.07437833
0000d0 14 7a 40 bd 28 96 77 bd a8 7c 43 bb c2 8b c8 3d
       -0.046991423 -0.060445935 -0.002982894 0.09792282
0000e0 2d 2f d0 3d 42 46 dd 3d b5 72 00 bd 72 d9 da bd
       0.10165248 0.10804416 -0.031359393 -0.10686006
0000f0 00 f2 1c bd e8 db 01 bd ed 22 dd 3d 2b 52 a3 3c
       -0.038316727 -0.03170386 0.10797677 0.019936642
000100 06 f9 b4 3d 2e a6 c1 3d b2 14 ac 3d df 0f 8b bd
       0.0883656 0.094555244 0.08402385 -0.067901365
000110 e7 c1 71 bd b6 36 64 bd 70 3c 54 3d fc 88 dc bd
       -0.05902281 -0.05571624 0.05181545 -0.10768315
000120 3a 14 ee 3c dc 93 cb 3d c3 f2 45 3a 03 04 a2 3b
       0.02906238 0.09940311 0.0007551128 0.004944326
000130 ec 5a 54 3d 1f e0 c5 3d 32 2c 94 bd 70 c2 c9 3c
       0.051844522 0.09661888 -0.07234992 0.024628848
000140 85 a2 b6 bd 7a 3d cd bd ec 98 8a 3d 28 28 ee 3c
       -0.08917717 -0.10021491 0.06767449 0.029071882
000150 1e 70 d9 bd d7 12 19 bd 8d 8a e0 bd db 59 78 bd
       -0.10617088 -0.037371483 -0.109639265 -0.060632568
000160 32 87 b2 bd 99 a5 d7 bd a0 0b 6d bd 28 72 52 3d
       -0.08717193 -0.10529632 -0.057872415 0.0513784
000170 d1 06 95 bd 07 58 22 bd 4b d4 07 3d 8b ea da bd
       -0.07276691 -0.03963473 0.033161443 -0.10689267
000180 4d a9 c8 3d 7b 59 5c 3d 68 8f c2 3c b8 32 e4 bc
       0.097979166 0.053796273 0.023750022 -0.027856216
000190 7d fa 1c bd 88 cb 72 3a 0d 88 dd 3a 81 d8 20 be
       -0.03832482 0.0009261896 0.0016901508 -0.1570759
0001a0 df a7 f3 3c f7 4e d2 bb f0 13 2c bd 52 e7 9c bd
       0.029743133 -0.0064181047 -0.0420112 -0.07661308
0001b0 73 37 e9 bd cd 5a da bd 02 2f 10 be 8a 64 df bd
       -0.11387529 -0.1066185 -0.14080432 -0.10907848
0001c0 eb 28 25 bd 4c 3a c4 bd a3 59 ac bd 7c af c3 bd
       -0.040322226 -0.09581432 -0.08415534 -0.09554955
0001d0 60 54 55 bd 47 13 9d bc 9f 49 d8 3d 82 5a 90 bc
       -0.05208242 -0.019174231 0.10560917 -0.017621282
0001e0 c6 50 e9 bd e8 f1 c1 3d b6 8c ab bb 81 1f f2 3b
       -0.113923594 0.09469968 -0.00523528 0.0073890095
0001f0 a4 94 f4 bc 2a 10 fb bd f4 bc 60 3b c7 c3 27 3d
       -0.029856034 -0.122589424 0.0034292312 0.040958192
000200 9d 21 ef 3b 9d ff 66 bc 9c 11 74 bd 5c c4 97 bd
       0.007297708 -0.014099029 -0.059587106 -0.074104995
000210 04 90 ce 3d 3b c7 1c be 0c c1 71 3c 2e 21 8e 3d
       0.100860626 -0.15310375 0.014755499 0.06939922
000220 a1 df 48 3c 54 db 1b bc eb 86 27 3d e0 21 89 bc
       0.012260349 -0.009512741 0.040900152 -0.016739786
000230 2f aa 10 be b8 c4 c9 bd 59 92 1d be ec 46 d7 bd
       -0.1412742 -0.09851974 -0.15387858 -0.10511574
000240 33 d5 50 3d 2e e4 76 3d a0 7b e7 bd 5e a3 11 3d
       0.050984573 0.060276203 -0.113028765 0.03555619
000250 7e 8f a7 bd ae 96 f3 3b 92 ea 1a bd 02 cd de 3d
       -0.08181666 0.007433734 -0.03782136 0.10878946
000260 3c 5a c7 3d 57 9d b4 3b 8e fa 11 3d 64 7d 61 bd
       0.09734008 0.0055119204 0.03563934 -0.055051222
000270 48 86 ac 3d 36 ec 88 bc 1c 3d 72 3d b5 31 6e 3d
       0.084240496 -0.016714197 0.05914031 0.058152873
000280 76 f3 00 bd 8d 53 b9 3d 26 b4 af 3d 76 a1 84 bd
       -0.031482182 0.09049139 0.085792825 -0.06476109
000290 f5 16 8c 3c e4 79 1b 3d 67 c5 b5 3d 4b 29 aa bd
       0.01710079 0.03795804 0.08875542 -0.08308657
0002a0 6e 6f c4 3d d6 bc 89 3c 75 3d 39 bb 00 a2 1f bd
       0.09591566 0.016813677 -0.002826539 -0.038972855
0002b0 97 a0 50 3b ab 3a eb 3d d3 6a 11 3e f9 2f f9 3c
       0.0031834 0.114857994 0.14200906 0.030418383
0002c0 b1 d7 b4 3c ff 1e db 3c 2d 8c 0a bc a7 6b be 3d
       0.022075506 0.026748179 -0.008456272 0.09297877
0002d0 e0 38 02 3e 51 8d 94 3c 28 be cf 3d d2 b0 7f 3d
       0.12717009 0.018133791 0.10143691 0.06242449
0002e0 a4 2f 4d 3d 49 8e 92 3d f8 b9 e3 3d 48 04 94 3d
       0.05009426 0.07156045 0.11119455 0.07227379
0002f0 0b d5 62 3b d3 d9 2a bd 54 bc 46 bd 57 6c 14 3e
       0.0034611847 -0.04171164 -0.048519447 0.14494453
000300 5c 00 12 3d 07 4d f6 3c 5e 8d ce 3d 54 2f 96 3d
       0.035644874 0.030066026 0.100855574 0.07333246
000310 ed 92 a8 3d ad 90 0f 3d db 92 c8 3c e1 35 90 bc
       0.08231149 0.035050083 0.024484089 -0.017603816
000320 da c2 5c bd 06 23 cf 3d 70 6a 31 3d cb 3a 8f 3c
       -0.053896762 0.10114102 0.043314397 0.01748409
000330 ed 46 04 3e 31 a7 ba bb 9a 36 f2 3d b4 d3 09 3e
       0.12917681 -0.0056962003 0.11826821 0.13459665
000340 a9 83 cd bc b2 64 aa 3d 26 68 6f bd 49 66 b6 bd
       -0.025087195 0.08319987 -0.058448933 -0.08906228
000350 93 61 aa bd a2 00 0d 3e 42 23 81 bc ab c6 c3 bc
       -0.08319392 0.13769773 -0.015763883 -0.023898443
000360 3e 60 c3 3a c1 d5 f2 3d 83 63 90 3d 40 66 52 bd
       0.0014906002 0.118571766 0.0705023 -0.051367044
000370 fe 84 db 3d 47 33 56 bd 8a a9 01 bd 63 7b a0 3b
       0.107187256 -0.052294996 -0.031655826 0.0048975213
000380 33 fc 86 3d 65 67 4a bd 5f c1 fb 3d a3 59 0b 3e
       0.06591072 -0.04941501 0.12292742 0.13608412
000390 75 20 9d 3d 41 80 47 bd f6 0c bf 3d fb fd 58 3d
       0.07672206 -0.048706297 0.09328644 0.05297659
0003a0 e7 60 f3 3c 37 fb 66 3d 8d 31 d4 3d d8 7c 66 3c
       0.029709293 0.05639192 0.103610136 0.014067851
0003b0 2d 8d 96 3d 49 69 44 bd c7 04 a7 bd 09 b4 ae 3d
       0.07351146 -0.04795197 -0.08155208 0.08530433
0003c0 60 b5 c7 3c 7d 7d 63 bd c0 65 9e bb a7 96 56 3c
       0.024378479 -0.055539597 -0.004833907 0.013097442
0003d0 63 33 4b 3c 77 fd d1 3d a4 1e 36 bd c4 fd b4 3d
       0.012402388 0.10253423 -0.044462815 0.088374645
0003e0 2d 19 59 3d e0 7c d8 bd 69 f9 96 bd 10 f6 89 3d
       0.053002525 -0.10570693 -0.0737179 0.06736386
0003f0 61 f5 c1 3d 49 31 90 3d ee da 7f 3c a6 e3 ae bd
       0.094706304 0.070406504 0.015616162 -0.08539514

bias f4 [40]
000000 8c 1e ee 3b 61 3d e2 bc 7c 97 dc 3d 1f 55 38 bd
       0.007266825 -0.027617158 0.10771081 -0.045003053
000010 ba 3a c0 3c 9b 52 2f 3d bf 1d 4b 3d c1 4a 2f be
       0.023465503 0.042803388 0.049588915 -0.1711836
000020 0a ad 28 be 99 95 6f bd 59 ce fb bc 1a cf 55 3d
       -0.16472259 -0.058492277 -0.030738043 0.05219946
000030 55 27 13 bd 6a 26 e2 bd 55 88 68 3c 56 a9 4b 3a
       -0.03592618 -0.11042483 0.01419266 0.00077690685
000040 a3 d5 ac 3d 01 f8 86 3d 7e dd 02 3e 49 dd 61 3d
       0.084391855 0.06590272 0.12779805 0.055142675
000050 5f c8 17 3e 0b 9f 42 bb 1a 78 d3 bd 4c 22 c0 3d
       0.1482253 -0.0029696848 -0.10325642 0.093815416
000060 93 e2 d1 bc 3e e0 5f 3c 50 cf 01 3d 73 7d e8 3d
       -0.025620734 0.013664303 0.03169185 0.113520525
000070 f1 6d 6a 3c 45 6a 91 bd 5e 5e 7a 3d 05 b3 ed bd
       0.014308439 -0.071003474 0.06112515 -0.11606411
000080 60 ac 11 bd 88 c5 b0 bd c1 fa 78 bd 99 21 30 bc
       -0.03556478 -0.08631426 -0.060786013 -0.010750198
000090 a2 bf cd 3d a8 d9 aa bd 06 0d 99 bd b4 e2 a9 3d
       0.10046317 -0.08342296 -0.07473187 0.08295193

weight f4 [40, 80]
000000 52 6c 0f 3d bf 1b 09 be 7d b4 a9 3d 88 31 37 be
       0.03501541 -0.1338949 0.082863785 -0.17889988
000010 53 05 4a be d0 96 17 be e2 90 bc bd 15 78 ba bc
       -0.19728594 -0.14803624 -0.09207322 -0.022762338
000020 57 1b 8c 3c dd cb 81 bd bc c0 54 be 75 38 ae 3d
       0.01710288 -0.06337712 -0.20776647 0.08506862
000030 12 34 35 be 12 ac fc bd 89 16 76 be 3a 99 56 bc
       -0.17695644 -0.12337507 -0.24032034 -0.0130980555
000040 09 9a 85 3d 44 c9 0a be 47 0d 96 3d 4b 45 d2 bd
       0.065235205 -0.13553339 0.07326751 -0.10267123
000050 16 22 fa bd fb 50 cf bc 8c 77 92 bd f9 93 3a be
       -0.122135326 -0.02530717 -0.07151708 -0.1822051
000060 8f 04 cc bd c3 e9 11 be b9 51 0f 3d a9 48 43 be
       -0.09961807 -0.1424933 0.034990046 -0.19070686
000070 a0 61 63 be 83 49 9a bd 11 2f cd bc 1f d5 03 be
       -0.2220521 -0.075335525 -0.025046857 -0.12874268
000080 89 e4 46 be 41 7f a4 be 38 30 69 be 35 6b 83 be
       -0.19423117 -0.32128337 -0.227723 -0.2566773
000090 3a c9 91 be eb 3d da bd bc 28 cd 3c 50 f3 82 bd
       -0.28473836 -0.10656341 0.025043838 -0.063940644
0000a0 a4 96 c6 bd 34 e4 c2 bd 2e 67 2f 3d 7c ea b6 bd
       -0.09696701 -0.095161825 0.04282301 -0.08931443
0000b0 74 7b 1c be 8d 97 91 bd ad 9b 27 be c1 9e 49 be
       -0.15281469 -0.07108984 -0.1636798 -0.19689466
0000c0 4a 4a d3 bc b0 56 e3 3d 8a 1b 9a 3d 7f 60 e2 bd
       -0.02579226 0.11100519 0.07524784 -0.110535614
0000d0 32 c0 80 bd 5c 09 3d be 35 1f 44 be 88 4a ce bc
       -0.06286658 -0.18460602 -0.1915253 -0.025182024
0000e0 40 2b 01 be 7e 78 51 be a0 c6 06 bd 83 b6 9c bd
       -0.12614155 -0.2045612 -0.032904267 -0.07651999
0000f0 4e 72 0c be 2e 35 cc bc 3a 93 a7 bd 16 d4 c1 bd
       -0.13715479 -0.024927702 -0.08182378 -0.0946428
000100 8f bc 31 3d 5c 78 97 bd 6a 03 5b be e1 c4 8e bc
       0.043392714 -0.073960036 -0.21388021 -0.017427864
000110 7b f3 99 bc 55 33 5e 3d ed 5c 83 bd 6f ea 9b 3d
       -0.018792858 0.054248173 -0.064142086 0.07613074
000120 8c b6 b7 3d 0d 6e 18 be e1 3c 89 be e4 35 8d be
       0.08970365 -0.14885731 -0.2680426 -0.27580178
000130 bf 5a ef 3c 8f 0d b9 bc 36 f7 12 3d 33 e4 28 be
       0.029218076 -0.022589473 0.03588029 -0.16493301
000140 35 3e 1b 3d f5 02 05 3a 71 77 bb 3c 6d 34 49 be
       0.037901122 0.0005073988 0.022884103 -0.19648905
000150 48 8d 1b be 7e 24 46 be 01 57 87 bd 28 c5 6f bd
       -0.15190613 -0.19349858 -0.066083916 -0.058537632
000160 98 13 b7 bc 7b bc e9 3c 57 a9 e2 bd 63 4e 95 bd
       -0.02234821 0.028532257 -0.11067455 -0.07290342
000170 a5 4c 52 be ca ee bd bd 5e 1f 29 be 9a d5 03 3d
       -0.2053705 -0.09274061 -0.16515872 0.03218613
000180 62 19 be 3d 5a b8 52 be a9 ab 46 3d f2 50 57 be
       0.09282185 -0.20578137 0.04850355 -0.21026972
000190 f5 d4 31 3b 8c ed c8 bd 77 29 8a 3d 91 71 86 be
       0.002713499 -0.098109335 0.0674619 -0.2625852
0001a0 30 5f 31 3d 6b 0f 7e bd 7e 3f 6e bd f9 a5 1f be
       0.04330367 -0.062026422 -0.05816602 -0.15590657
0001b0 a6 27 40 be d9 55 80 bd 33 54 0c be c3 e1 07 be
       -0.18765125 -0.06266374 -0.13703994 -0.13269715
0001c0 ca 5a 45 be 42 d3 07 be 95 c1 6f be 9f 39 f8 bd
       -0.19272915 -0.13264182 -0.2341369 -0.12120365
0001d0 bd e5 55 be 48 9a b2 bd 0f d3 2a 3c 7b b4 be bd
       -0.2088842 -0.08720833 0.010426297 -0.09311768
0001e0 d9 bb 38 bd 9d e9 46 3d 33 a4 e3 3d cd 8b 99 bd
       -0.04510102 0.048562635 0.11115303 -0.07497368
0001f0 63 59 5d be f9 1c 24 be e3 d3 78 be 5d 2c 84 bd
       -0.2161613 -0.16026677 -0.24299578 -0.06453774
000200 82 0a f4 3c 16 5f 18 3c 4f e9 31 3d f3 4d 9e bd
       0.029790167 0.009300014 0.04343539 -0.077297114
000210 d6 98 74 3b 3b 0a a5 bd ff 2c 17 be 1e 90 38 3a
       0.0037322543 -0.08058592 -0.14763258 0.0007040518
000220 af ae 28 be cc 60 bb bc 99 5a bc 3c 60 e8 8c 3d
       -0.16472887 -0.022873305 0.02299242 0.068802595
000230 3e 2d 25 be 92 3c 06 be f1 3c 6a bd 42 e1 02 3d
       -0.1613054 -0.13109043 -0.057187025 0.031953104
000240 1d 7b 67 3d be 46 11 3d ef 7e a0 bd de 60 04 be
       0.056513894 0.035467856 -0.07836711 -0.12927577
000250 a1 8a de bd 04 43 94 ba 46 80 9f bd 1f 76 d7 bd
       -0.10866285 -0.0011311476 -0.07788138 -0.10520577
000260 b5 03 d8 3d 60 f3 16 be 68 3d 49 be 54 23 24 be
       0.10547582 -0.14741278 -0.19652331 -0.16029102
000270 79 24 1f bd 70 93 d4 3c 83 25 a8 3d 51 90 4d be
       -0.038853142 0.02594921 0.0821028 -0.20074584
000280 bf 9d ef 3c ef 55 92 bd 27 61 07 bd 5c 37 23 be
       0.029250024 -0.07145297 -0.033051636 -0.15939087
000290 60 da 6b be b3 95 04 bd 09 13 5e be 6c 7e 8e bd
       -0.23032522 -0.032369327 -0.21686949 -0.06957707
0002a0 30 b8 e0 3c 26 74 7b 3c 65 08 4e be aa 62 45 bc
       0.027431577 0.015347516 -0.2012039 -0.012047449
0002b0 21 cb ac bd 07 bc 5c be a5 17 36 be 9b 88 2e 3d
       -0.08437181 -0.21556102 -0.17782457 0.042610746
0002c0 04 59 85 3c e0 e3 60 be ed cd 9f 3c a9 e6 6c be
       0.016277798 -0.21961927 0.019507373 -0.23134865
0002d0 17 33 c5 bd f9 07 54 be a3 70 e2 bc 89 ab 22 be
       -0.09628885 -0.20706166 -0.0276416 -0.15885748
0002e0 6a 7c c1 bd 19 78 b7 bd a6 3f e3 bd 56 c1 0e be
       -0.09447558 -0.08958454 -0.11096124 -0.1394094
0002f0 4a 36 0f be 4f e2 d5 bd 59 04 cf bd 1e b5 69 bd
       -0.13985553 -0.104435556 -0.10108251 -0.057057492
000300 1f 00 01 be c4 20 14 be 3c 47 a6 be ca 19 2f be
       -0.12597702 -0.14465624 -0.32476223 -0.17099681
000310 f7 af 66 be e0 bb 08 be 2c 3c 1e bd fb b8 1c bd
       -0.22528063 -0.13352919 -0.038631603 -0.03826235
000320 f3 57 6a bd 11 cf 4a 3d ac 45 13 bb cc 1b 86 bd
       -0.05721278 0.04951388 -0.0022471948 -0.065482706
000330 85 83 49 be 76 9e f9 bc ec 9b 0b be 9b e7 5d be
       -0.19679077 -0.030471068 -0.13633698 -0.21670382
000340 4c 69 c9 3c 4a e9 63 bd 3f d6 40 3d 2b a9 9d 3d
       0.024586342 -0.055642404 0.04707932 0.07698282
000350 73 b6 d9 3d e5 64 25 be b1 67 a2 bc 4b c6 53 bd
       0.106305026 -0.1615177 -0.019824835 -0.05170278
000360 54 ff c6 bc ce 52 6d bd 97 01 18 3d 9d d4 c2 bb
       -0.024291672 -0.057940297 0.03711089 -0.0059457556
000370 cf 40 55 be e8 03 89 bd 26 a5 13 be ed 10 86 bd
       -0.20825504 -0.06690198 -0.14418468 -0.06546197
000380 95 e4 ce bd 77 e1 9d 3d 3f 09 a7 bd 27 e9 93 bc
       -0.10102192 0.0770902 -0.081560604 -0.018055512
000390 6c 1f 2b bc ec f2 65 bd da ab bb bd a5 31 2a 3d
       -0.010444503 -0.05613987 -0.091636375 0.04155125
0003a0 32 e1 5a bd 91 06 46 be 8a 9f 89 be 0e aa 8a bd
       -0.05343742 -0.19338442 -0.2687953 -0.067707166
0003b0 c4 14 a6 3d 08 89 fe 3b d7 7f 0d bd d1 fe 45 be
       0.081094295 0.0077678002 -0.034545746 -0.19335486
0003c0 cd 2a 0d bd 59 3f e3 bd 09 32 8b 3d eb 75 75 be
       -0.034464646 -0.11096067 0.06796653 -0.23970763
0003d0 82 f4 23 be 47 b7 22 be 8c 20 88 bd 06 19 6a bc
       -0.16011241 -0.15890227 -0.06646833 -0.014288193
0003e0 36 03 16 3d 5c de 26 bd 2b 62 43 bd db e9 ce bd
       0.036624156 -0.040739402 -0.047701042 -0.10103198
0003f0 c0 6f e8 bd 58 da ab bc f2 3d e9 bd 4a b8 34 bd
       -0.113494396 -0.020978138 -0.11388768 -0.044121064

bias f4 [40]
000000 3f cc bc bc 4f 2d 3f be 02 86 d7 bc 50 ce 1c be
       -0.02304661 -0.18669628 -0.026309017 -0.15313077
000010 54 c6 f4 bd 13 e6 92 bd af 0c 30 be 0c 1c 25 be
       -0.119518906 -0.071727894 -0.17192338 -0.1612398
000020 95 99 f3 bd b8 02 c9 bc f4 3b 5a be b9 8f 13 bd
       -0.11894528 -0.02453743 -0.21311933 -0.036025736
000030 36 52 27 be d9 3c af bd b8 a6 a5 bd 4a 92 52 be
       -0.16339955 -0.08556528 -0.0808844 -0.20563617
000040 5f 1d f8 bd ae ff 60 bc 00 73 1c bd c1 d3 35 be
       -0.12114977 -0.013732834 -0.03819561 -0.17756559
000050 9e d1 27 be 51 e5 0c 3c b9 f5 02 bd b3 8d 2c be
       -0.16388556 0.008599595 -0.03197262 -0.16850929
000060 85 e3 2b bd 7c 1e 09 be 19 eb 2b be 6b e3 09 be
       -0.041965026 -0.13390535 -0.16788901 -0.1346566
000070 9a bb e5 bd a6 8d ba bc 79 25 e0 bc 0d cf 46 be
       -0.11217423 -0.022772621 -0.027361618 -0.19414921
000080 a4 ad d2 bd 40 d5 4c be 43 94 7f bd cc 50 26 be
       -0.102870256 -0.20003223 -0.062397253 -0.16241759
000090 e7 6f c0 3c 38 b5 d3 3b 3f 4e b3 bd 15 c4 63 bd
       0.02349086 0.006460812 -0.08755159 -0.05560692

weight f4 [80, 40]
000000 75 72 09 bc 93 25 d9 3d 26 9e 87 3c 46 3a 2e 3d
       -0.008389105 0.1060287 0.016554903 0.042536043
000010 18 43 88 3d f4 d0 77 bc fb 11 93 bd bf be 9e 3c
       0.06653422 -0.015125502 -0.07181164 0.019378064
000020 ff 50 be 3c 01 ce c1 bc 96 d9 03 3e 59 7b ac 3d
       0.023231981 -0.0236578 0.12875971 0.08421964
000030 1b 1a 01 3c 78 07 65 3d 3f c8 85 3d f4 66 01 3e
       0.007879759 0.055915326 0.065323345 0.1263693
000040 c1 e9 70 bd a2 23 0a 3d b8 07 15 bb 8c 6b 0d 3d
       -0.058816675 0.03372539 -0.0022740196 0.034526393
000050 1f ee c7 bc 73 77 08 3e 63 fc ff 3d f4 22 39 bd
       -0.024405537 0.13326816 0.12499311 -0.04519935
000060 68 37 a9 3c 92 26 7b bd c8 82 95 3d 79 d5 c9 3d
       0.020656303 -0.06131608 0.07300335 0.0985517
000070 20 ff d2 bd 2e f4 0c bd bd ad d9 bc 82 e5 46 3d
       -0.103025675 -0.034412555 -0.026572103 0.04855872
000080 81 f1 9b bc 70 b2 15 bd 73 df d5 3d ef 94 c0 bd
       -0.019036056 -0.036547124 0.1044301 -0.09403407
000090 ab 8e b4 bd 9c 66 ba 3d b2 15 bb 3c 5d a5 4d 3d
       -0.08816274 0.091016024 0.022837494 0.05020653
0000a0 2a 6c 32 bd 38 00 e5 bc 15 81 ea bd 86 c4 01 be
       -0.043560185 -0.027954206 -0.11450402 -0.12672624
0000b0 c6 f8 4d 3d 49 ac 82 3d b1 8e 8b 3d 2d 8d 0a 3e
       0.050286077 0.06380517 0.068143256 0.13530417
0000c0 12 cf a1 bc 61 94 f6 bd 2e b0 f9 3d 0f df 9b 3d
       -0.01975206 -0.1204002 0.12191807 0.076109044
0000d0 cc 83 5d 3d 69 e8 60 3d 00 aa 0b 3e 67 e6 5a 3d
       0.05408077 0.054909144 0.13639069 0.053442385
0000e0 46 bf 0c 3d ca 84 e3 bc ee 03 9d bd 91 d0 b8 bd
       0.0343621 -0.02777328 -0.07666765 -0.09024156
0000f0 e7 96 d5 bd 16 93 96 bd 70 f8 15 be a0 92 1d 3e
       -0.10429173 -0.07352273 -0.14645553 0.15387964
000100 35 1b bb 3d c2 80 00 3e e1 6d 8f bc f1 c4 28 be
       0.09136049 0.12549117 -0.017508449 -0.16481377
000110 95 1a e4 bd 03 a0 b8 bd 18 b3 1b bd 6a 42 78 3d
       -0.111378826 -0.09014895 -0.038012594 0.060610212
000120 fe c3 7a bd 59 ca c8 3d 32 17 b5 bd 97 b8 a8 bd
       -0.06122207 0.0980422 -0.08842315 -0.08238333
000130 16 2f f2 bc de 73 c2 3d 0f 1b fb 3d 95 b6 b3 bd
       -0.029563468 0.09494756 0.122610204 -0.08775059
000140 1f 97 9c 3d 7f 2d c5 3d b9 f2 c6 3c 09 8c 22 3d
       0.076460116 0.09627818 0.024285661 0.03968433
000150 e3 90 83 bd d7 0a 67 3c ec 69 de 3d ec ec 13 3e
       -0.06424119 0.0141017055 0.10860047 0.14445847
000160 a9 32 bf 3d f9 c6 cb bc 14 d5 4b 3d a8 34 71 bd
       0.093358345 -0.024875151 0.049763754 -0.058888108
000170 5d 13 e8 3c 9e 8b 7a 3d 16 b2 6b 3d c8 74 bd bd
       0.028329546 0.061168306 0.057542883 -0.0925079
000180 45 47 c9 bd 4e 8e a4 3d 30 25 ca bd 29 b8 85 3d
       -0.09828047 0.08034955 -0.09870374 0.065292664
000190 ca 80 e1 bd 49 cf c8 3d c0 3d 9d bd 2d ff 0a bd
       -0.11010893 0.098051615 -0.076777935 -0.03393476
0001a0 56 7a 98 bd c7 e0 4e 3c 17 ad df bc 8f 0e f5 3c
       -0.07445209 0.012626833 -0.027304215 0.029914169
0001b0 06 45 d1 bd b4 97 33 bd 98 da 74 3d e7 17 b2 3d
       -0.10218243 -0.043845847 0.05977878 0.08695965
0001c0 e2 d9 92 bc 09 ca 54 3d 66 56 48 3c 8d 89 86 bd
       -0.01792616 0.05195049 0.01222763 -0.065692045
0001d0 44 3b 9b 3d 69 47 f4 3c b1 c5 7b bd 15 0c 83 3d
       0.075796634 0.029819207 -0.06146783 0.06398789
0001e0 2a c8 77 bd 0e e5 08 bd 0b 17 f2 bd b9 2b 20 bd
       -0.060493626 -0.03342157 -0.11820801 -0.039104197
0001f0 c2 a8 08 be b0 58 9f bd 24 eb a3 bd 98 fe 32 3d
       -0.13345626 -0.07780588 -0.08003834 0.04369983
000200 4c 16 27 bd 12 7e 8d bd 87 f1 9e bc 38 02 09 be
       -0.04079275 -0.06908812 -0.019402279 -0.13379753
000210 fa 79 37 3d a9 82 f6 3d 4b a6 96 bc db 3d bd bd
       0.04479406 0.1203664 -0.018389842 -0.092403136
000220 f3 7b af 3c 78 b8 ef bd da 95 85 bd 8a 8d d2 bd
       0.021421408 -0.117051065 -0.065227225 -0.10280903
000230 9f 9e f1 bc 39 cc 70 3d ac 99 a1 ba f7 55 25 bc
       -0.029494582 0.058788512 -0.0012329123 -0.010091296
000240 20 0b ed bd 46 0c e3 3d b2 84 5f 3d c5 4a 86 3d
       -0.115743876 0.11086325 0.054569907 0.0655723
000250 9e 2c 8a 3b 90 92 c3 3d 86 39 9c bd f8 72 1c 3d
       0.0042167446 0.09549439 -0.07628159 0.03819558
000260 71 d6 ee bd 91 f1 a3 bd 21 da 84 bc 78 6a 15 be
       -0.11661995 -0.080050595 -0.016217293 -0.14591396
000270 b7 00 dc bd 99 15 f3 3d a1 37 eb bd 41 c9 e6 bd
       -0.10742324 0.11869354 -0.1148522 -0.11268855
000280 e3 b1 6f 3d 0e e1 e6 bc 0d c7 dc 3d ea ac 4a 3d
       0.058519255 -0.028183486 0.107801534 0.04948131
000290 12 f5 f3 bc 61 44 e4 bd 77 f9 ec 3d b8 39 d6 3d
       -0.029779945 -0.11145855 0.11571019 0.10460228
0002a0 0a 78 08 3e 76 c2 84 3c 76 fc df bc 91 73 bc 3d
       0.13327041 0.016206007 -0.027342062 0.0920173
0002b0 e2 48 9c bd 1a c3 91 bc cb 20 0e be 67 73 62 3d
       -0.07631089 -0.017793227 -0.13879697 0.055285838
0002c0 b4 3f e9 3d 6c c0 4e 3d 59 ef 88 3d 57 70 31 bb
       0.113891035 0.050476477 0.06686277 -0.0027075016
0002d0 16 61 4a bd d2 89 0e be f3 80 a8 3d e0 15 8e 3c
       -0.049408995 -0.13919762 0.0822772 0.017344415
0002e0 17 b5 90 bd 80 2f 13 bd 2f c3 07 be 9c 18 4b 3d
       -0.0706579 -0.03593397 -0.1325805 0.049584016
0002f0 40 30 8d 3d d1 bd 10 be 8d 0f f3 bd 4f 34 03 be
       0.068939686 -0.14134909 -0.118682005 -0.12812923
000300 64 1b 10 3e 65 83 2a 3c 52 f2 26 be 7b 96 56 3d
       0.14072949 0.010407303 -0.16303375 0.052389603
000310 2d 43 4f be ca 84 77 bc 95 27 ca bb 16 b8 c3 3d
       -0.2024047 -0.015107343 -0.0061692693 0.09556596
000320 ca 80 bc 3d 59 5a dc 3c 75 70 b3 3d 27 f1 3f 3b
       0.09204252 0.02689855 0.08761684 0.0029288025
000330 4c 85 13 be c7 66 d8 bc 5d c4 b5 3d ea 3f 54 3a
       -0.14406317 -0.026416196 0.08875344 0.0008096682
000340 12 f6 dd 3d b6 32 c6 bc fc a0 04 3e 94 e7 d3 bd
       0.1083795 -0.024194103 0.12952036 -0.103469044
000350 05 43 6f 3d 0e ff a5 bd 33 72 4a bd 36 9e 36 bc
       0.058413524 -0.081052884 -0.049425315 -0.011146119
000360 a6 38 03 be 2d 98 04 3d 81 7b 63 3d 82 a5 9a bc
       -0.12814578 0.03237169 0.055537704 -0.018877748
000370 21 04 2d bd bf 57 18 bc 4e 38 7a bd 08 76 0e 3e
       -0.042240266 -0.009298264 -0.061088853 0.13912213
000380 34 a8 2d bd 3c af 53 bd 11 a1 d0 3d ca c9 c4 bc
       -0.04239674 -0.05168079 0.10186971 -0.024022002
000390 b9 f1 bc bd 23 27 8e 3d e5 3f f9 bd 08 d8 da 3d
       -0.092257924 0.069410585 -0.1217039 0.10685736
0003a0 45 6e 8a bd f7 94 77 3d cd eb f4 bd 7e e9 e2 3d
       -0.067593135 0.0604448 -0.11959038 0.11079691
0003b0 f7 47 0a bd f0 45 a5 bd db 64 cc 3c 2c ff 11 3e
       -0.033760037 -0.0806998 0.024950435 0.14257497
0003c0 06 d4 ae 3c e2 76 08 3e 28 1b 52 bc 9b 10 36 3c
       0.021341335 0.133266 -0.012823857 0.0111123575
0003d0 8c d9 2f 3d 33 16 e5 3d f7 9d a8 bc 0f 98 82 3c
       0.04293208 0.11185875 -0.020583136 0.015941648
0003e0 03 3b 10 3e eb c6 20 bd 54 42 ca bc e4 51 64 3d
       0.14085011 -0.039252203 -0.02468983 0.05574216
0003f0 7a 07 c0 3c 87 47 b1 3b 0e d4 91 bc 7e 6e ba bd
       0.023441065 0.005410138 -0.01780131 -0.09103106

bias f4 [80]
000000 0b e5 c7 bd 7e 16 8c 3d b1 9a 3c be b7 c9 0e bb
       -0.09760483 0.068402275 -0.18418385 -0.0021787712
000010 e0 0d 16 3d 2d d9 bb 3d 28 9e 83 bd 96 53 2e be
       0.036634326 0.09172282 -0.0642665 -0.17024073
000020 c6 de f5 bd 1f af 15 be ff db 22 be 88 d9 71 3b
       -0.12005381 -0.14617585 -0.15904234 0.003690334
000030 ef 51 f2 bb a1 77 25 bd f9 ab be bc 4f 5a 0d bd
       -0.007395021 -0.04039729 -0.023275362 -0.034509953
000040 d8 df b7 3c bd d4 20 be c8 85 14 3e fd d1 cf bc
       0.022445604 -0.15706153 0.14504158 -0.025368685
000050 f2 26 03 bd b0 47 74 bb e4 f7 1a be 2f 94 55 3d
       -0.032019563 -0.0037274174 -0.15133625 0.052143272
000060 c7 41 f9 bd 49 47 c4 bc d6 33 c0 bc b7 c4 ef 3d
       -0.12170749 -0.023959773 -0.023462217 0.11707442
000070 35 d1 63 3d 46 58 a3 3d 35 a7 ce 3d 19 ee d2 3d
       0.055619437 0.07975821 0.10090486 0.1029932
000080 30 71 2e be 1f 68 74 ba d3 39 2c be 2b 7c 07 be
       -0.17035365 -0.00093233766 -0.16818933 -0.1323096
000090 24 2e d9 3d 44 93 83 bd 24 3b a7 3d 76 c9 56 bd
       0.10604504 -0.06424573 0.08165577 -0.052438222
0000a0 69 3b e2 3d 3d cc 39 3d 32 ec e4 3d 20 30 11 3e
       0.11046488 0.045360792 0.11177863 0.14178514
0000b0 91 9e e4 3d d9 88 bd bc c2 d5 88 bd ad 24 e4 3d
       0.11163057 -0.023136543 -0.06681396 0.11139808
0000c0 97 ea d3 3d 9c 23 0f 3e 01 00 60 3d bc 7a a0 bd
       0.10347479 0.13978428 0.054687504 -0.0783591
0000d0 5d 00 01 3c 1f 89 e6 bd b9 a8 95 bd 47 41 55 bd
       0.007873622 -0.112566225 -0.07307572 -0.052064206
0000e0 12 d0 c3 bd d3 fa 25 be 89 09 0c be dd c4 28 bd
       -0.09561171 -0.16208963 -0.13675512 -0.04120337
0000f0 aa b8 ab bc 51 7e fe bd ac b9 95 bd b6 9b 7f 3d
       -0.020962078 -0.12426437 -0.07310805 0.062404357
000100 e2 07 07 3e c1 b6 8b bd 74 37 13 bd 25 ce fc bd
       0.13186601 -0.06821967 -0.035941556 -0.123440064
000110 5e 65 bb bd 35 63 d1 bd 47 bd 80 bd 48 2e 2b bd
       -0.09150194 -0.10224 -0.06286102 -0.041792184
000120 72 a9 10 3d 32 be 86 bc db 2e a6 3a 39 78 d0 bc
       0.035317846 -0.016448114 0.0012678759 -0.025447952
000130 c2 93 88 bc 54 fb 25 be 95 26 ea bd 08 e3 93 3d
       -0.016672019 -0.16209155 -0.1143314 0.07221037

weight f4 [5, 80]
000000 e0 aa 8a 3c 54 bd 85 3c 67 d5 83 bd 53 db e0 3a
       0.016927183 0.01632563 -0.06437188 0.0017155207
000010 0b 0f af 3c e7 ba eb bc b9 57 2b bd 9f 9e 7e 3c
       0.021369478 -0.028775645 -0.041831706 0.015540748
000020 81 07 a4 3d 89 b4 aa bd bd 34 6c bc bd ef 76 3d
       0.08009244 -0.083352156 -0.014416871 0.060287226
000030 d5 d0 59 3d f5 15 27 3d df 4d 77 bc 67 89 44 3d
       0.053177673 0.040792424 -0.0150942495 0.0479826
000040 1a 2d 3f 3b 6d 4f 26 bc 20 71 10 3d dc ad bf bc
       0.002917117 -0.0101507725 0.035264134 -0.023398332
000050 42 48 09 3c c0 49 55 3d b6 bf 7a bd 70 94 d4 bc
       0.008379044 0.052072287 -0.061217986 -0.025949687
000060 3c 8e e5 3c 04 d9 4f 3c cb 46 0d bb b2 29 87 bd
       0.028021924 0.012686018 -0.0021557088 -0.065997496
000070 1d 2d e9 3b bd 95 8f bc dc 00 0a 3d 55 02 49 3d
       0.0071159736 -0.017527455 0.033692226 0.04907449
000080 39 ea 15 3c a8 d7 6e bd 2b cf 66 3d 22 60 68 3c
       0.009150081 -0.058311135 0.056349915 0.014183076
000090 ea 51 d3 3c 39 52 03 bd 36 81 1d bd 5b 2b 43 bd
       0.025795896 -0.032060836 -0.038453303 -0.04764877
0000a0 26 84 24 3d 33 a7 45 3d 90 7f 44 3d 96 49 bb 3c
       0.04016509 0.048255157 0.047973216 0.022862237
0000b0 d0 ff 69 3d 8f 0a 9f 3d fb 7e 69 3d 93 08 81 bc
       0.057128727 0.07765686 0.057005864 -0.015751159
0000c0 a4 c2 93 3d f2 d8 5f bd d8 56 45 bd e0 37 aa bc
       0.07214859 -0.054650255 -0.048178524 -0.020778596
0000d0 bf 3d 48 3d bc 86 37 bd 47 49 26 3d a8 f1 83 bd
       0.04888701 -0.044806227 0.040597226 -0.06442577
0000e0 5f 34 f5 bc e9 6a 68 3d 2f 79 8e bd 8d 30 48 bd
       -0.029932199 0.056742582 -0.06956708 -0.048874427
0000f0 3c 7d e4 bc ba 78 4f bd 8a 8c 73 3d 07 ae 85 3c
       -0.027891748 -0.050652243 0.0594602 0.016318334
000100 f1 31 56 3a b9 b2 8c bc b5 da b0 3c 6b 70 1b bd
       0.0008170894 -0.017175065 0.021588663 -0.037949007
000110 2a 42 81 bb f9 76 1a bc ba c0 64 3c 17 c3 85 3c
       -0.003944655 -0.009427779 0.013961965 0.016328378
000120 f7 e4 23 bd cb bc cc 3c a5 72 80 bd b3 13 38 bd
       -0.04001328 0.024992367 -0.06271867 -0.04494066
000130 74 2b 29 3d 9b de 34 bd 0a 7a 5a bd 76 fa 83 bc
       0.041301206 -0.044157606 -0.05333904 -0.01611064
000140 18 78 59 bd b3 10 9c 3d 64 16 3a bb 10 63 0f bd
       -0.053093046 0.076203726 -0.0028394694 -0.035006583
000150 d5 5c e2 3c 48 ca 76 bd c2 33 e6 bc 48 35 a3 bc
       0.027632156 -0.060251504 -0.028100852 -0.019922867
000160 c6 d0 05 3d 1f a6 e0 3c 68 c7 75 3d b4 4a 00 3d
       0.032669805 0.027422963 0.06000462 0.031321242
000170 f9 90 d0 3b 5a 6c f3 bb 76 83 46 3c 54 28 2c bd
       0.0063649383 -0.007428688 0.012116304 -0.042030647
000180 4d 08 80 bc e3 f2 2d 3d 99 e1 bc 3c cd f8 05 bd
       -0.015628958 0.042467963 0.023056792 -0.032707978
000190 c8 3d a3 3d 01 7a 25 3d 6e 97 ba 3c 56 0c e8 bc
       0.07970768 0.040399555 0.022777285 -0.028326195
0001a0 98 3f 5f 3d 60 90 6a 3d 33 49 df 3c 89 bf 1e 3c
       0.054504007 0.057266593 0.027256584 0.00968922
0001b0 8c 35 96 bc 09 94 5e bd 88 64 0a 3d 24 de 38 3b
       -0.01833608 -0.054340396 0.03378728 0.0028208578
0001c0 b8 c8 f4 3c 58 55 f8 3b 99 ec 83 3d 31 46 a6 3c
       0.029880866 0.007578533 0.06441612 0.020297142
0001d0 17 9c cb 3c 48 15 02 bd 12 59 f6 bb 22 61 de 3c
       0.024854703 -0.031758577 -0.007517942 0.027145926
0001e0 ba b6 2e 3d 8a 10 09 bb b9 79 9f 3c cf 72 ad 3c
       0.04265473 -0.00209144 0.019467222 0.021172909
0001f0 29 00 8b 3a 3b 38 af bc dd 9b f8 bc a3 b0 f4 3b
       0.0010604906 -0.021389117 -0.030347759 0.007467346
000200 66 cf 7a 3d 91 e3 77 ba 43 46 ef bc 41 a3 63 3d
       0.061232947 -0.0009456212 -0.029208308 0.055575613
000210 0b 35 11 3d bc 72 67 bd 75 45 35 3d 48 f4 c3 bc
       0.035450976 -0.056505904 0.044255693 -0.023920193
000220 11 f6 13 3d 23 13 72 bd 20 2a 17 bd c3 2f 28 bc
       0.03612334 -0.05910028 -0.036905408 -0.0102652935
000230 c3 13 31 bd 38 11 62 39 3f ac 1a bd 5d 5a d3 bb
       -0.043231737 0.00021559454 -0.037761923 -0.006449981
000240 05 45 1a 3d 08 2b 1a bb b8 6d f1 bc 55 5b 6d bb
       0.03766348 -0.0023524184 -0.029471263 -0.0036217768
000250 79 02 d2 bc 06 6e fc 3b 4a 59 aa bd 47 b9 df 3b
       -0.025635945 0.0077035455 -0.08317812 0.0068275067
000260 da ba ac bc 9d 0d b4 3c 61 7c f7 bc 77 92 bf bc
       -0.021085192 0.021979148 -0.030210676 -0.02338527
000270 8e 78 b2 bc fc 94 9c 3d 60 4f 69 3c 14 ce 1f 3b
       -0.021786 0.07645604 0.014240116 0.0024384307
000280 7b a9 ce bb 74 2d 70 bc db 1c 34 bd aa 84 5c 3d
       -0.0063068247 -0.014659274 -0.04397283 0.053837456
000290 6a 52 ee 3c 5c 38 2b bd b1 2d 71 bd 0e ca cc 3c
       0.029092032 -0.041801795 -0.058881465 0.024998691
0002a0 94 98 c7 bc 1e e3 75 3c 8a 4d 6e bc 78 3c 59 bd
       -0.024364747 0.015007762 -0.014544854 -0.053036183
0002b0 c2 e2 ce 3c 4b 27 4d 3d ce c8 a0 bb d8 c2 bd 3c
       0.02525461 0.0500863 -0.0049067503 0.023164198
0002c0 ab 95 84 3d cd 5f 8b 3c d5 c6 07 bd c8 0d 2e 3d
       0.064738594 0.017013455 -0.033148605 0.04249361
0002d0 c3 c9 89 bc 7b 84 4f bd 19 44 93 3d b3 90 6c bd
       -0.01681984 -0.050663453 0.07190723 -0.057755183
0002e0 3a aa 4a 3d 59 cb 6c bd fc 4d 1d 3c d9 5c 45 3d
       0.049478747 -0.057811115 0.009601112 0.04818425
0002f0 c3 92 70 bc 70 7e 63 3d 31 4a 83 bd 55 b0 68 bd
       -0.014683428 0.055540502 -0.06410635 -0.05680879
000300 fb 60 09 bd bd 92 1e bd ec d7 6a bd b0 1b a2 3c
       -0.033539753 -0.03871416 -0.057334825 0.019788593
000310 96 62 be bc c5 c6 5e 3d 16 0e 48 3d fc 15 8d bc
       -0.023240369 0.05438878 0.04884156 -0.017222397
000320 16 8a bc bc 1f 61 71 3c 28 7f 32 bd b6 f5 d1 bc
       -0.023015063 0.014732628 -0.043578297 -0.02562986
000330 ba 8c 6e bd fc 8f 06 bd fa 43 c0 3c 12 8f a8 3b
       -0.058239676 -0.032852158 0.023469914 0.0051440084
000340 c2 76 a4 bc 23 ea a7 bb 8d cd 34 3c a0 65 35 bc
       -0.02007616 -0.005124347 0.011035335 -0.011071593
000350 f6 9b 14 bd 9c 0b 7a 3d 4a 7e 3d bd c6 93 4f 3d
       -0.03628155 0.061046228 -0.046263017 0.050678037
000360 c4 d0 08 bc a1 c7 a4 3c 71 ce 10 bd c7 1c 89 3d
       -0.008350555 0.020114722 -0.035353128 0.06694942
000370 e8 a0 39 bd dc e0 ef bb 9b d5 22 3d c6 d3 18 bd
       -0.045319468 -0.0073205065 0.03975449 -0.037311338
000380 b8 f4 c4 bb 7c 60 8a 3c e5 60 b0 3b 53 ab 4b 3d
       -0.006010618 0.01689171 0.0053826445 0.049723934
000390 ff 09 c1 bb 5c 78 bb 3c 9f 9e 94 bc d1 c4 c6 3a
       -0.005891084 0.02288454 -0.018142043 0.0015164857
0003a0 bb 85 a1 bd 4b d9 06 bd 63 2f 89 3d 42 00 4b 3d
       -0.07886835 -0.03292207 0.066984914 0.049560793
0003b0 94 38 5d 3c b2 17 8f 3d 7b 94 e3 bc ac 97 d0 bb
       0.013502259 0.069869414 -0.027780762 -0.006365737
0003c0 ee 61 a7 3c 9f 44 ed 3b 30 99 77 bd 7a cf de bc
       0.020432439 0.0072408463 -0.060448825 -0.027198542
0003d0 a5 fa 27 3d 44 15 a6 3c dc a4 3c bd bd 0c 96 3c
       0.041010518 0.020273812 -0.04605566 0.018316621
0003e0 bf 75 40 3d 9d 66 ba 3c a5 80 3e bd 0c 8d 89 bd
       0.04698729 0.022754008 -0.046509404 -0.06716356
0003f0 a3 c0 a8 bc e2 b3 8d 3c 50 a8 0b bb 6a 60 0f 3d
       -0.020599669 0.017297689 -0.002131004 0.035004057

bias f4 [5]
000000 b6 21 01 bd c8 a2 05 bd 24 87 16 3d de 0c a1 3c
       -0.03152629 -0.032625943 0.036749974 0.019659456
000010 c8 81 8e bd
       -0.069583476
