final_project/mlruns/1/3ba784c33f534af19cd6db1c707fc5e7/artifacts/cvae_22/data/model.pth (torch, 48071 bytes, 10 tensors)

weight f4 [80, 10]
-0.17222507 0.057001464 0.027591418 -0.18923649 0.1484363 0.1022406 -0.29342595 -0.07946073
0.13727868 -0.18030672 -0.2203898 -0.28591606 -0.13527524 -0.17936859 0.23906492 0.073100545
-0.31440672 0.18720601 0.15142533 0.23948544 -0.21342576 -0.08006014 -0.021731243 0.14163417
0.25519255 0.17800225 -0.08126966 -0.17248744 0.13171756 -0.30462405 -0.3016001 0.014288139
0.13745874 -0.17022733 -0.29326373 0.16974911 -0.11542295 0.12831458 0.10186814 0.13970788
0.23865005 -0.19335327 -0.29137832 0.113191344 0.33550924 0.16663122 0.03967139 -0.2886673
-0.052331537 -0.008341365 0.14635105 -0.051855862 -0.21026234 0.12783395 0.04060893 0.049229644
0.052559316 -0.1387357 0.14113082 0.047006093 0.29245216 0.008603418 0.19534348 -0.07679395
-0.23427197 -0.23327865 0.19592525 0.12338284 0.34069234 -0.060153123 -0.17815614 -0.29794613
0.07902829 -0.28812534 -0.22154534 0.1804315 0.096606195 0.15886934 -0.29718757 -0.241696
-0.30203035 0.07894518 -0.017440202 0.0643125 -0.05901498 -0.34019342 -0.05074665 0.3302282
0.046218123 -0.12465776 -0.22075464 0.27166703 -0.08820102 -0.07083309 -0.1718824 0.2794302
0.13130206 -0.31189573 0.19958617 0.009429185 0.27006385 0.27809116 0.29188445 0.23456255
0.12167964 -0.18869188 -0.22004122 -0.28427818 0.09380385 0.04664975 -0.25812596 0.3489073
0.13024198 -0.23485218 0.08208389 -0.35301524 -0.23126888 0.31120336 0.057068527 0.23970518
-0.20582624 -0.054493804 0.06973764 -0.04415849 0.03725755 0.15088603 -0.107263975 0.097021356
-0.17477928 0.02775572 -0.28686282 0.15004444 0.01770954 0.1923079 -0.110094085 0.14273953
-0.27193296 -0.21518049 -0.111849725 0.33798912 0.17382494 -0.22309084 -0.3069664 -0.02399421
-0.14319639 -0.07950663 -0.2564884 -0.124125704 -0.071414605 0.06543401 -0.2038796 0.18216822
-0.15537778 0.22946343 0.023873052 -0.17308766 0.29150864 -0.23067728 -0.08524258 -0.0692953
-0.2969443 0.11967212 0.25190595 -0.2818824 -0.25381592 -0.087063454 -0.073075764 0.18725893
0.2923756 0.27635548 -0.33204404 0.25977904 -0.2794614 0.18916816 0.29619452 0.12234628
0.022678744 -0.13112108 -0.24065118 0.15242618 -0.1537666 0.28337768 -0.13869627 -0.16332643
-0.23171043 -0.007083034 0.25142547 0.14175628 0.031837776 -0.19464755 0.083614245 -0.12458316
-0.2836121 0.11505521 0.018065369 0.22745179 -0.03987163 -0.13951713 -0.24435729 -0.20227222
0.13896213 -0.17822428 -0.015198383 -0.16016778 0.28301355 -0.07895343 -0.23587748 0.07631247
0.18883882 -0.0025818935 0.14749022 -0.09666988 0.12520175 -0.07987958 0.092863746 -0.08893015
0.35145172 0.28913802 0.32277742 -0.12862885 -0.1687064 0.12777239 0.009248426 0.06731974
0.114105016 -0.008399219 -0.078811646 -0.0938529 -0.31158316 -0.07928595 -0.039691437 -0.19278167
0.2691376 0.030665644 0.24891797 -0.037765123 -0.055651885 -0.25844893 -0.106759526 -0.14995477
0.29031554 -0.09119769 0.17697477 0.28010452 0.11623913 0.2918592 -0.27969185 0.306316
0.27390075 0.29457623 0.028380025 -0.30417514 -0.089509875 0.15783753 -0.132385 -0.12809572
00000000: c55b 30be 5e7a 693d 6607 e23c 36c7 41be
00000010: afff 173e 8563 d13d ed3b 96be 4fbc a2bd
00000020: c892 0c3e 53a2 38be ddad 61be 9763 92be
00000030: 9885 0abe 66ac 37be 6fcd 743e bdb5 953d
00000040: ebf9 a0be efb2 3f3e 3e0f 1b3e ac3b 753e
00000050: 488c 5abe 92f6 a3bd b805 b2bc 8c08 113e
00000060: 99a8 823e 3946 363e b570 a6bd 8ca0 30be
00000070: f8e0 063e aff7 9bbe 546b 9abe cc18 6a3c
00000080: fcc1 0c3e 1350 2ebe aa26 96be b6d2 2d3e
00000090: de62 ecbd e664 033e 3ea0 d03d 950f 0f3e
000000a0: ae60 743e 66fe 45be 8a2f 95be ddd0 e73d
000000b0: dec7 ab3e 60a1 2a3e 787e 223d 33cc 93be
000000c0: 9859 56bd 38aa 08bc 0ddd 153e d066 54bd
000000d0: 034f 57be e7e6 023e 8d55 263d 06a5 493d
000000e0: 7048 573d bb10 0ebe 9984 103e 7689 403d
000000f0: 4abc 953e 5af5 0c3c 1f08 483e 2546 9dbd
00000100: fee4 6fbe 99e0 6ebe a1a0 483e 24b0 fc3d
00000110: 3a6f ae3e 1f63 76bd 906e 36be 658c 98be
00000120: 96d9 a13d 2a85 93be c8dc 62be 09c3 383e
00000130: 78d9 c53d a5ae 223e f828 98be 287f 77be
00000140: b9a3 9abe 03ae a13d c1de 8ebc 46b6 833d
00000150: b1b9 71bd d52d aebe b8db 4fbd ac13 a93e
00000160: 374f 3d3d 914c ffbd 810d 62be f117 8b3e
00000170: bda2 b4bd f010 91bd f101 30be 7a11 8f3e
00000180: 0c74 063e ccb0 9fbe 5160 4c3e de7c 1a3c
00000190: cf45 8a3e f761 8e3e e171 953e 2a31 703e
000001a0: 2d33 f93d 7238 41be 7c52 61be e98c 91be
000001b0: 3c1c c03d cf13 3f3d 1629 84be faa3 b23e
000001c0: 275e 053e 177d 70be 991b a83d 6abe b4be
000001d0: c0d1 6cbe 0c56 9f3e b0c0 693d 4675 753e
000001e0: 1dc4 52be e534 5fbd 9cd2 8e3d 88df 34bd
000001f0: 5f9b 183d de81 1a3e 37ad dbbd 22b3 c63d
00000200: 57f9 32be f75f e33c afdf 92be 40a5 193e
00000210: 9913 913c 5dec 443e 0279 e1bd 502a 123e
00000220: cc3a 8bbe 4658 5cbe 7811 e5bd e90c ad3e
00000230: 2aff 313e ed71 64be b32a 9dbe 818f c4bc
00000240: 13a2 12be 5fd4 a2bd 7352 83be 9e35 febd
00000250: d241 92bd 4402 863d d0c5 50be 4e8a 3a3e
00000260: 5a1b 1fbe 76f8 6a3e 6b91 c33c e43d 31be
00000270: 9f40 953e aa36 6cbe a993 aebd b2ea 8dbd
00000280: 1509 98be a816 f53d d1f9 803e e452 90be
00000290: 29f4 81be 534e b2bd bfa8 95bd cec0 3f3e
000002a0: 41b2 953e 777e 8d3e ad01 aabe c201 853e
000002b0: 9115 8fbe 4cb5 413e cfa6 973e b090 fa3d
000002c0: c6c8 b93c 9b44 06be 436d 76be 9c15 1c3e
000002d0: fe74 1dbe e116 913e 6506 0ebe 0b3f 27be
000002e0: 8045 6dbe cc18 e8bb d7ba 803e 8f28 113e
000002f0: 5468 023d b051 47be f23d ab3d 7525 ffbd
00000300: 9b35 91be 11a2 eb3d d3fd 933c 1fe9 683e
00000310: 6f50 23bd 94dd 0ebe cc38 7abe 7320 4fbe
00000320: 174c 0e3e 6d80 36be a302 79bc 0603 24be
00000330: 27e7 903e 56b2 a1bd de89 71be b649 9c3d
00000340: f75e 413e fc34 29bb ad07 173e dcfa c5bd
00000350: e334 003e e897 a3bd 592f be3d 0321 b6bd
00000360: 7bf1 b33e e609 943e 1543 a53e 48b7 03be
00000370: 5fc1 2cbe c4d6 023e b686 173c efde 893d
00000380: e4af e93d e19c 09bc 0068 a1bd f335 c0bd
00000390: d487 9fbe ac60 a2bd 7d93 22bd 8f68 45be
000003a0: 67cc 893e 8436 fb3c 5ae4 7e3e 9aaf 1abd
000003b0: 3bf3 63bd 6b53 84be bda4 dabd be8d 19be
000003c0: 3da4 943e dbc5 babd e038 353e dc69 8f3e
000003d0: c80e ee3d 926e 953e c533 8fbe 73d5 9c3e
000003e0: b83c 8c3e b2d2 963e 3a7d e83c d8bc 9bbe
000003f0: f450 b7bd 29a0 213e ef8f 07be 862b 03be

bias f4 [80]
0.42252934 -0.13265532 -0.13958935 -0.04060816 0.45307693 0.5234031 0.42289805 -0.049817607
0.3060145 -0.22297828 -0.18173602 0.5145714 -0.091729976 0.5055482 -0.08809822 -0.22397895
0.47257057 0.36576024 0.36591375 -0.22602178 0.58579516 0.31277075 -0.043948703 0.49985373
-0.0990546 -0.11513875 0.49881738 0.41994318 -0.067144826 -0.14234734 -0.24722824 -0.20228812
-0.18728322 -0.27420136 0.5285739 -0.20593387 0.33834225 0.48984548 0.4819794 0.46884108
-0.28022388 -0.14400789 -0.30349162 -0.20784603 0.4803312 0.3625418 0.4943732 -0.09947044
-0.28040218 -0.11085935 -0.25924566 0.4444216 -0.09393093 -0.010384873 -0.07214428 0.34032285
-0.10843968 -0.3026438 -0.06574798 0.49639642 -0.24500191 -0.26751757 -0.10091797 -0.058904573
-0.23940013 0.35517433 0.3831049 0.3475351 -0.16471542 0.44101408 -0.11441379 0.343166
-0.12296418 0.49868155 -0.28560787 -0.3099311 -0.20297995 -0.16377677 0.4325332 0.44263145
00000000: c455 d83e ccd6 07be 83f0 0ebe be54 26bd
00000010: b3f9 e73e bffd 053f 1886 d83e 8c0d 4cbd
00000020: efad 9c3e 6b54 64be 0219 3abe f4ba 033f
00000030: eddc bbbd 9b6b 013f d76c b4bd bd5a 65be
00000040: c5f4 f13e ed44 bb3e 0c59 bb3e 4172 67be
00000050: acf6 153f 7d23 a03e 8e03 34bd d4ec ff3e
00000060: 23dd cabd ddcd ebbd fe64 ff3e cb02 d73e
00000070: 3a83 89bd 80c3 11be 6629 7dbe 9e24 4fbe
00000080: 2cc7 3fbe 1f64 8cbe 9e50 073f 54e0 52be
00000090: 323b ad3e 07cd fa3e 01c6 f63e f00b f03e
000000a0: 8179 8fbe ce76 13be 4163 9bbe 97d5 54be
000000b0: f9ed f53e 149f b93e 7c1e fd3e 28b7 cbbd
000000c0: e090 8fbe 3a0a e3bd d9bb 84be 3a8b e33e
000000d0: dc5e c0bd 5025 2abc 61c0 93bd cc3e ae3e
000000e0: 9f15 debd 21f4 9abe e0a6 86bd ac27 fe3e
000000f0: c8e1 7abe 10f8 88be 15ae cebd ec45 71bd
00000100: 4f25 75be 69d9 b53e 5326 c43e 1ff0 b13e
00000110: 29ab 28be 99cc e13e c751 eabd 74b3 af3e
00000120: a5d4 fbbd 3053 ff3e 323b 92be 4aaf 9ebe
00000130: fad9 4fbe 19b5 27be fe74 dd3e 97a0 e23e

weight f4 [40, 80]
-0.015269828 0.06674349 0.03761032 0.0048050783 -0.16558011 0.007921168 -0.18424572 -0.0706927
-0.094686694 0.041969005 -0.05061917 -0.15205647 -0.07733653 0.026331514 -0.10630897 0.028627312
-0.10725027 -0.16038138 -0.12581007 -0.027673934 -0.057210647 -0.088244684 -0.014595456 -0.007665212
0.033887714 -0.049016133 -0.1464663 0.0055762967 0.016048249 -0.013555619 -0.06825512 0.08252936
-0.09905878 -0.10345057 -0.14447314 -0.08703869 -0.032797083 -0.033544388 -0.15579253 -0.06948139
0.08783153 -0.059935592 0.061358664 0.09100691 -0.10070362 -0.2084961 0.025483819 0.012374825
-0.0627581 -0.048217572 -0.002527416 -0.07741814 -0.10378454 -0.013329912 -0.04318597 -0.19322054
0.025703868 -0.079450585 0.09186192 0.027478516 0.017923953 -0.082646914 0.08075388 0.08613306
-0.07786821 -0.16040538 -0.18679993 -0.11908259 -0.0033133684 -0.1630704 0.09158497 -0.18999891
0.0866727 0.013530946 0.020150635 0.10768672 0.09276024 0.020980783 -0.13864474 0.007425747
-0.05199264 0.102258705 0.037919182 -0.0022479943 -0.14933607 0.0046087736 -0.004845761 -0.029039374
-0.023078589 0.07239028 -0.040057234 -0.019062793 0.08402129 -0.02344863 -0.06560513 -0.08770178
-0.10687842 0.041901726 -0.13185337 0.11033573 0.05925398 -0.03051367 0.027739627 -0.1536026
0.09294363 0.05218821 0.06340653 -0.03775532 0.056707375 -0.09464104 -0.05761572 -0.07020468
0.053915348 0.08124154 0.026371982 -0.01258558 0.04283181 0.037157696 0.013678633 -0.13014033
-0.052682452 -0.012475518 -0.09861426 -0.02592698 -0.111316256 -0.070083424 0.006825179 0.07521416
-0.11161549 -0.089429356 0.08164566 -0.11768451 -0.031141093 -0.016899347 0.041590996 0.050462995
0.060546283 -0.09164505 0.046579227 -0.10236636 -0.09341803 0.030740814 0.03102422 0.09758434
-0.100856096 -0.051527258 0.04734659 -0.048172187 0.06334403 -0.017574983 0.067662835 -0.0930996
0.08150756 -0.003054232 0.072775856 0.04330899 -0.03669739 -0.06818029 -0.03123548 -0.06075343
0.06711966 0.030150622 -0.105584055 -0.087579615 0.028913222 -0.11996888 -0.13827775 0.024480063
-0.12636378 -0.023678305 0.006382794 0.06697408 -0.048980054 -0.04270568 -0.09718192 -0.05050042
-0.01684857 -0.12673312 -0.08839159 0.046595115 0.049849793 -0.023423493 -0.02178914 -0.077923335
-0.06450562 -0.07708712 -0.015738308 -0.034727946 -0.044175547 -0.09117506 -0.067740895 0.0756039
-0.051193487 -0.03664604 -0.03352589 0.023403868 0.016383324 0.040780313 -0.061827715 -0.09691711
-0.041457154 -0.11173134 -0.055095702 -0.054206043 -0.012161205 -0.024890732 -0.03181025 -0.069584906
0.052768007 -0.0038971482 0.06898367 -0.13453698 0.09701278 0.022553742 0.045482237 -0.067974016
0.08657207 0.052918572 -0.021714931 0.031750273 0.1001561 -0.10781097 -0.030881863 0.042452384
-0.06785137 -0.09244989 0.0010916607 -0.14117503 0.016125845 -0.009440658 -0.10244247 -0.075292
-0.002448421 -0.10529099 0.10358747 0.024136094 -0.020022886 -0.0042966153 -0.090946585 -0.10823835
-0.016327707 0.025523113 0.08383355 0.09401187 0.02597952 0.08385145 -0.030269824 0.07913521
-0.017507272 -0.10236677 0.05063642 0.040018145 0.014667135 -0.02644624 -0.057932675 -0.07160291
00000000: 4d2e 7abc d0b0 883d 470d 1a3d eb73 9d3b
00000010: d58d 29be c9c7 013c e9aa 3cbe 56c7 90bd
00000020: 19eb c1bd b1e7 2b3d 0c56 4fbd b1b4 1bbe
00000030: 9d62 9ebd 30b5 d73c 84b8 d9bd d383 ea3c
00000040: 08a6 dbbd 043b 24be 5bd4 00be 72b4 e2bc
00000050: b655 6abd a1b9 b4bd c821 6fbc 752c fbbb
00000060: d8cd 0a3d 24c5 48bd 43fb 15be 5eb9 b63b
00000070: 9e77 833c 6318 5ebc 57c9 8bbd 2705 a93d
00000080: 54df cabd e4dd d3bd c4f0 13be 5741 b2bd
00000090: 3c56 06bd d765 09bd 1488 1fbe 424c 8ebd
000000a0: 04e1 b33d 067f 75bd 3953 7b3d d561 ba3d
000000b0: b33d cebd 0080 55be 71c3 d03c c7bf 4a3c
000000c0: 5287 80bd ca7f 45bd 01a3 25bb 678d 9ebd
000000d0: fd8c d4bd b465 5abc c6e3 30bd 9bdb 45be
000000e0: eb90 d23c fdb6 a2bd 1a22 bc3d a01a e13c
000000f0: 41d5 923c c942 a9bd 4a62 a53d 8866 b03d
00000100: 5e79 9fbd 4f41 24be 7b48 3fbe 93e1 f3bd
00000110: 1925 59bb edfb 26be e790 bb3d 138f 42be
00000120: 7581 b13d e7b0 5d3c f212 a53c db8a dc3d
00000130: 15f9 bd3d e4df ab3c e3f8 0dbe ae53 f33b
00000140: 3cf6 54bd 036d d13d 2551 1b3d 1653 13bb
00000150: 8eeb 18be 3205 973b 31c9 9ebb fbe3 edbc
00000160: 4f0f bdbc 5b41 943d 0e13 24bd 9329 9cbc
00000170: 5b13 ac3d 5717 c0bc fb5b 86bd fe9c b3bd
00000180: 13e3 dabd 25a1 2b3d 9204 07be b3f7 e13d
00000190: 4db4 723d cef7 f9bc 373e e33c 004a 1dbe
000001a0: 3b59 be3d 4ec3 553d 48db 813d 53a5 1abd
000001b0: fe45 683d 29d3 c1bd 76fe 6bbd 79c7 8fbd
000001c0: 57d6 5c3d f761 a63d 0e0a d83c c033 4ebc
000001d0: 6870 2f3d ab32 183d 581c 603c 8243 05be
000001e0: 8ec9 57bd 1d66 4cbc 46f6 c9bd d164 d4bc
000001f0: c7f9 e3bd e687 8fbd c0a5 df3b e209 9a3d
00000200: a996 e4bd bd26 b7bd d735 a73d 9404 f1bd
00000210: 9b1b ffbc 8070 8abc 525b 2a3d 49b2 4e3d
00000220: 61ff 773d 66b0 bbbd dcc9 3e3d 74a5 d1bd
00000230: f451 bfbd 29d4 fb3c 8126 fe3c 4cda c73d
00000240: a48d cebd 3f0e 53bd 7fee 413d 3350 45bd
00000250: 84ba 813d 69f9 8fbc d092 8a3d 01ab bebd
00000260: 70ed a63d 8329 48bb 820b 953d c464 313d
00000270: 0150 16bd 1ca2 8bbd 8de1 ffbc 97d8 78bd
00000280: 0876 893d 70fe f63c 743c d8bd f15c b3bd
00000290: 6cdb ec3c 3fb2 f5bd af98 0dbe 6a8a c83c
000002a0: 8265 01be 01f9 c1bc c226 d13b b529 893d
000002b0: 4f9f 48bd 27ec 2ebd 5107 c7bd 87d9 4ebd
000002c0: 0306 8abc 54c6 01be a606 b5bd 85da 3e3d
000002d0: 4c2f 4c3d a0e2 bfbc 237f b2bc 4596 9fbd
000002e0: 861b 84bd dadf 9dbd a0ed 80bc e43e 0ebd
000002f0: 6bf1 34bd fdb9 babd bdbb 8abd 38d6 9a3d
00000300: 43b0 51bd 281a 16bd 7252 09bd 78b9 bf3c
00000310: 5236 863c 4209 273d 0f3f 7dbd 7a7c c6bd
00000320: face 29bd 67d3 e4bd 08ac 61bd 2807 5ebd
00000330: ca3f 47bc a6e7 cbbc 774b 02bd 8882 8ebd
00000340: 4423 583d 4c67 7fbb 4f47 8d3d 10c4 09be
00000350: a3ae c63d a0c2 b83c 954b 3a3d f635 8bbd
00000360: b34c b13d 25c1 583d 83e3 b1bc 930c 023d
00000370: a41e cd3d ffcb dcbd f6fb fcbc 8de2 2d3d
00000380: a9f5 8abd 5e56 bdbd 0e16 8f3a 3090 10be
00000390: 591a 843c fdac 1abc 5ccd d1bd b132 9abd
000003a0: b075 20bb cda2 d7bd ab25 d43d 0fb9 c53c
000003b0: 0907 a4bc 9fca 8cbb 3442 babd 11ac ddbd
000003c0: afc1 85bc d915 d13c edb0 ab3d 4c89 c03d
000003d0: 01d3 d43c 4fba ab3d 6cf8 f7bc a411 a23d
000003e0: 696b 8fbc aba5 d1bd 2268 4f3d 11ea 233d
000003f0: 6c4e 703c c9a5 d8bc d04a 6dbd 8ca4 92bd

bias f4 [40]
0.024796477 0.06306792 -0.01807526 0.021111332 0.04434429 -0.087165706 0.048283078 0.049123093
0.032655295 -0.058501266 -0.09837352 -0.02640778 0.079210065 -0.01331844 0.05570426 -0.044670135
-0.13881911 -0.09627592 -0.12135239 0.02821719 0.0983771 0.07955052 0.07331757 0.009529833
-0.09649422 -0.004209423 -0.023050254 -0.049245674 -0.064796776 -0.008997026 -0.10387999 0.0777474
-0.037472576 -0.033958476 -0.043076728 -0.08615044 0.11528503 0.14291148 0.08613551 0.08580342
00000000: fb21 cb3c c129 813d 9112 94bc acf1 ac3c
00000010: 5ca2 353d ef83 b2bd 7ac4 453d 4c35 493d
00000020: 8fc1 053d 069f 6fbd 0e78 c9bd 2155 d8bc
00000030: e338 a23d 9635 5abc 262a 643d 08f8 36bd
00000040: 9926 0ebe 4f2c c5bd 9a87 f8bd bd27 e73c
00000050: ef79 c93d 62eb a23d 8627 963d 0423 1c3c
00000060: c39e c5bd 33ef 89bb e3d3 bcbc d5b5 49bd
00000070: 2cb4 84bd 4368 13bc 08bf d4bd 073a 9f3d
00000080: d87c 19bd 0b18 0bbd 3971 30bd a46f b0bd
00000090: 8f1a ec3d 6357 123e d067 b03d b4b9 af3d

weight f4 [40, 80]
-0.1441058 0.08707154 -0.07551226 0.04948244 -0.166396 -0.0683632 -0.18362202 0.075580284
-0.23376673 0.109910384 0.07005372 -0.22264393 -0.05564836 -0.1605004 0.08770964 -0.003945089
-0.121154465 -0.13432612 -0.25001338 -0.10628484 -0.09402417 -0.2546451 -0.0710031 -0.13889216
-0.051784318 -0.06287889 -0.16712767 -0.08188908 -0.08442724 0.08102533 -0.012312583 -0.060120665
0.023200283 -0.0009836867 -0.19553305 -0.030812744 -0.10226498 -0.06650141 -0.24390805 -0.079500064
0.10911392 -0.004232854 0.065406695 0.10041959 -0.13956891 -0.1836896 -0.21167947 -0.037314106
-0.03552486 0.023758085 -0.08056833 -0.070594266 0.10010976 -0.09332758 0.042023983 -0.20976767
0.011017381 0.035784822 0.06904446 -0.13319635 -0.091580935 0.004882274 -0.011761949 0.01636243
-0.028844506 -0.08056985 -0.14933933 -0.20820092 -0.10850207 -0.24607901 -0.10444495 -0.08818634
0.10408408 -0.23402607 -0.09352551 0.1032386 -0.11157394 0.02518994 -0.18410538 -0.19744058
-0.018625725 -0.0128651485 -0.021173973 -0.06524636 -0.033430967 -0.13107136 -0.23173845 0.0069960956
-0.13288333 0.025709292 -0.080452085 -0.046597365 0.07089962 -0.15218082 0.009997522 -0.10896141
-0.1912628 -0.08746351 -0.1944385 0.027072307 -0.13583939 -0.123391576 -0.111228585 -0.04578083
-0.016399415 -0.09107248 -0.106385976 -0.17422566 -0.022928419 0.000646848 0.10786094 0.028585237
-0.06466473 0.010063282 -0.19155502 0.03535849 -0.07608862 -0.14321506 -0.051201835 -0.008904001
-0.08722104 0.039413374 -0.040599857 -0.04013383 -0.22544953 -0.08668808 -0.055048097 -0.023330044
0.08755366 0.11062339 -0.048025474 -0.11785833 -0.04199049 0.024636567 0.05204084 -0.18210545
-0.10603742 -0.05840395 -0.035482764 -0.16475059 -0.03884456 0.08020827 0.045559034 -0.022593113
-0.035492126 -0.25968593 -0.10398265 -0.11344618 -0.04859647 -0.19507998 0.069954135 -0.1341177
-0.021518022 -0.09299111 -0.111012205 0.09196692 -0.096596144 -0.08148112 -0.11604469 -0.21429232
-0.12060363 0.018540626 0.019004067 0.034849185 -0.22807302 -0.11796662 -0.15609547 -0.025494631
-0.19183776 -0.07650889 0.020271534 -0.16987838 0.048401844 -0.1827584 -0.044531606 0.05998981
-0.10815761 -0.12498299 -0.13794518 0.063488945 -0.1827446 -0.19860493 0.09876232 -0.14645107
0.047646735 -0.04007695 -0.23079173 -0.063914366 -0.08759873 -0.061134018 0.071115255 -0.04727428
-0.07163186 0.054622263 -0.16285782 0.008109437 -0.12876931 -0.013662754 -0.15569745 -0.16456659
0.0012770493 0.04894247 0.08857612 0.0006912569 -0.21134397 -0.09361625 -0.034927472 -0.10927822
-0.09919741 -0.022836668 0.05516646 -0.22689356 -0.016212396 -0.092517704 -0.089848496 -0.15663157
-0.01887917 0.015835881 0.009578225 -0.13002267 0.05223723 0.09915669 0.09513398 0.06449008
-0.012727563 -0.15058462 -0.22842914 -0.18180235 0.08599532 -0.072083704 0.05975024 -0.07164176
0.103191085 -0.20741354 -0.10649713 0.03604015 0.036603615 0.011756458 -0.24722517 -0.09792906
-0.012254371 0.015885541 0.0141887525 -0.03408181 -0.088737465 -0.11253981 -0.16027465 -0.013106186
-0.15725285 0.10131158 0.101413645 -0.17961963 0.062317174 -0.062220354 -0.005577623 0.037188623
00000000: 7990 13be 9052 b23d 2ca6 9abd 19ae 4a3d
00000010: b763 2abe 0102 8cbd 6907 3cbe d6c9 9a3d
00000020: 8c60 6fbe b218 e13d 5378 8f3d c5fc 63be
00000030: 89ef 63bd 385a 24be 1da1 b33d ce45 81bb
00000040: d51f f8bd c98c 09be c101 80be deab d9bd
00000050: be8f c0bd d860 82be 136a 91bd bf39 0ebe
00000060: cb1b 54bd a6c6 80bd 8423 2bbe 76b5 a7bd
00000070: 30e8 acbd 9cf0 a53d b7ba 49bc 1641 76bd
00000080: 850e be3c 0cef 80ba d139 48be 026b fcbc
00000090: 4d70 d1bd e431 88bd 08c3 79be eed0 a2bd
000000a0: 1e77 df3d c1b3 8abb f2f3 853d c9a8 cd3d
000000b0: 27eb 0ebe 2019 3cbe 81c2 58be add6 18bd
000000c0: 8482 11bd 51a0 c23c 0201 a5bd ba93 90bd
000000d0: 5906 cd3d 8822 bfbd 5721 2c3d 56cd 56be
000000e0: 3f82 343c 1b93 123d 2f67 8d3d a064 08be
000000f0: c98e bbbd 7cfb 9f3b 31b5 40bc 810a 863c
00000100: 504b ecbc ce01 a5bd 69ec 18be 9f32 55be
00000110: 5536 debd 23fc 7bbe 3ce7 d5bd 0a9b b4bd
00000120: 092a d53d 88a4 6fbe 4d8a bfbd c26e d33d
00000130: e180 e4bd 225b ce3c 1f86 3cbe dd2d 4abe
00000140: fa94 98bc 58c8 52bc 0a75 adbc e29f 85bd
00000150: e9ee 08bd 9237 06be d84c 6dbe 813f e53b
00000160: 9112 08be 4b9c d23c 10c4 a4bd e1dc 3ebd
00000170: d233 913d 4ad5 1bbe a6cc 233c 2927 dfbd
00000180: 65da 43be 1220 b3bd e31a 47be bec6 dd3c
00000190: 7b19 0bbe b9b4 fcbd d0cb e3bd ae84 3bbd
000001a0: 1158 86bc 3584 babd e4e0 d9bd 3668 32be
000001b0: 61d4 bbbc 3c91 293a 32e6 dc3d 962b ea3c
000001c0: f16e 84bd 77e0 243c 0027 44be 10d4 103d
000001d0: 5ad4 9bbd f8a6 12be 04b9 51bd 16e2 11bc
000001e0: f2a0 b2bd eb6f 213d 094c 26bd 5f63 24bd
000001f0: 3edc 66be 8589 b1bd 1d7a 61bd a61e bfbc
00000200: 554f b33d 848e e23d 5cb6 44bd b55f f1bd
00000210: 38fe 2bbd a0d2 c93c c728 553d da79 3abe
00000220: 262a d9bd fb38 6fbd 6056 11bd 61b4 28be
00000230: 791b 1fbd 3c44 a43d 1c9c 3a3d 3115 b9bc
00000240: 3160 11bd 8ef5 84be dbf4 d4bd 7956 e8bd
00000250: 180d 47bd 0cc3 47be 1d44 8f3d 2656 09be
00000260: 9046 b0bc 2072 bebd 5e5a e3bd 2759 bc3d
00000270: 33d4 c5bd 93df a6bd d7a8 edbd 726f 5bbe
00000280: 09ff f6bd 83e2 973c 6bae 9b3c 05be 0e3d
00000290: f98b 69be 7c98 f1bd 7ed7 1fbe 1eda d0bc
000002a0: 1e71 44be b1b0 9cbd 7d10 a63c 99f4 2dbe
000002b0: 0341 463d 0525 3bbe c666 36bd e0b7 753d
000002c0: bd81 ddbd 15f7 ffbd 8041 0dbe 7e06 823d
000002d0: 6721 3bbe 175f 4bbe e643 ca3d 45f7 15be
000002e0: 3929 433d ba27 24bd ab54 6cbe 89e5 82bd
000002f0: f766 b3bd aa67 7abd e0a4 913d ada2 41bd
00000300: bab3 92bd 98bb 5f3d 33c4 26be 72dd 043c
00000310: 1adc 03be bed9 5fbc 276f 1fbe 2584 28be
00000320: aa62 a73a e677 483d 6667 b53d 7735 353a
00000330: 8e6a 58be e0b9 bfbd 1c10 0fbd 42cd dfbd
00000340: 0328 cbbd f713 bbbc 3af6 613d c956 68be
00000350: dccf 84bc ec79 bdbd 7d02 b8bd 0764 20be
00000360: 7da8 9abc 40ba 813c fded 1c3c aa24 05be
00000370: b5f6 553d aa12 cb3d 9bd5 c23d 6013 843d
00000380: 4587 50bc db32 1abe 54e9 69be 652a 3abe
00000390: 501e b03d 9fa0 93bd abbc 743d eab8 92bd
000003a0: d955 d33d 3764 54be 2b1b dabd d69e 133d
000003b0: aced 153d 299e 403c 9828 7dbe 088f c8bd
000003c0: 8fc6 48bc 6522 823c f177 683c 5e99 0bbd
000003d0: fdbb b5bd 467b e6bd 0a1f 24be 54bb 56bc
000003e0: e406 21be 727c cf3d f5b1 cf3d 35ee 37be
000003f0: 4b40 7f3d c5da 7ebd 7ec4 b6bb 1953 183d

bias f4 [40]
-0.10839212 -0.19907908 -0.0101820305 -0.04980053 -0.1539179 -0.20355386 -0.04177906 -0.16205454
-0.2008942 -0.20773453 -0.13073693 -0.051938523 -0.0145694325 -0.029899755 -0.08385896 -0.11811364
-0.1779131 -0.045158196 -0.01838461 -0.03899834 -0.1639737 -0.124511324 -0.007935912 -0.017825795
-0.08809143 -0.19325942 -0.117185526 -0.06416475 -0.02207779 -0.20010434 -0.13807848 -0.096822254
-0.12219875 -0.16823691 -0.14124994 -0.14207351 -0.07464984 -0.1996751 -0.21719833 -0.03308692
00000000: b0fc ddbd 63db 4bbe 88d2 26bc a4fb 4bbd
00000010: a79c 1dbe 6c70 50be 8520 2bbd a0f1 25be
00000020: 36b7 4dbe 5cb8 54be e7df 05be 7dbd 54bd
00000030: a1b4 6ebc 55f0 f4bc 3fbe abbd 90e5 f1bd
00000040: da2e 36be cdf7 38bd 529b 96bc b9bc 1fbd
00000050: b9e8 27be cbff febd a105 02bc 6707 92bc
00000060: 4869 b4bd cce5 45be f7fe efbd cf68 83bd
00000070: 7bdc b4bc 27e8 4cbe 7264 0dbe bf4a c6bd
00000080: 5743 fabd 4c46 2cbe d3a3 10be b87b 11be
00000090: 04e2 98bd a177 4cbe 3d69 5ebe 2686 07bd

weight f4 [80, 40]
-0.12212467 -0.052484382 -0.12721637 0.016075207 0.113339856 -0.03218941 -0.10491895 -0.080284916
-0.05834126 -0.16543768 0.13136075 0.014889427 0.05888567 0.09105765 0.03138215 -0.03820821
0.17430814 -0.10275339 -0.10791307 -0.0034135717 -0.123646125 -0.0006354314 0.011634049 -0.037172943
-0.020799473 0.0890596 0.13683723 0.12656274 -0.13542753 0.082397886 0.009192047 -0.053640775
0.0025153246 -0.029694853 -0.07538221 -0.04258648 0.11482621 -0.12598333 -0.01276459 -0.10430317
0.11779047 -0.116937555 -0.021234699 -0.041711293 -0.086092316 0.049028408 -0.1060648 0.1147662
-0.10723681 -0.034635186 0.07537983 0.112571165 0.11343869 -0.021089582 0.1077724 0.041591864
-0.011537072 -0.12485887 -0.049998064 -0.024128014 0.13656552 0.012552927 0.06568618 0.16610579
-0.03993426 0.13357487 -0.08249219 -0.086109705 0.06345243 0.12679413 0.038123116 0.05841976
-0.10309777 0.06472833 -0.1264272 0.046273526 0.046099845 0.076345675 0.0018335774 -0.022838779
0.07055653 -0.05982208 0.0816907 -0.056560807 -0.12349231 -0.08433246 -0.10223463 0.06350616
-0.034677092 0.10886725 0.045122687 0.07055012 0.06902933 -0.028101496 -0.12639092 -0.007407023
-0.019926978 -0.066812575 0.13284345 0.077862486 -0.08686327 0.09335263 0.11278033 -0.07665336
-0.07929329 0.11339641 -0.0149840675 0.08196774 0.043414608 0.08413462 -0.0767169 0.022895614
0.037389502 0.11200493 0.04653741 -0.0010175821 -0.0651757 0.03561817 -0.09660961 0.009438969
0.10125404 0.10307566 0.11504429 0.13404188 -0.12544627 -0.070077114 -0.08928686 -0.0788061
-0.07751577 0.012514303 -0.0010692449 0.12711924 -0.007689809 -0.015003246 0.12677108 -0.055794187
0.16216809 0.15839487 -0.078950875 -0.06165601 0.09665851 -0.021219794 -0.13155542 0.045368366
-0.07720958 0.12213344 0.048609506 -0.008885071 0.07409703 -0.1327943 -0.037246764 0.07880029
0.063822635 0.013735745 -0.025584282 -0.11820268 0.092874415 -0.1365957 0.02094924 -0.11527591
0.13430755 -0.07544541 0.048674315 0.06680493 -0.015540597 0.055439163 0.00601708 -0.062216762
-0.108589366 0.065562464 0.049171966 0.0556881 -0.11712586 0.100511916 0.07738683 0.07937439
0.08239668 -0.108385615 0.14336142 0.060441397 -0.11204171 -0.10912907 0.028789574 -0.00963097
-0.103039935 -0.058941495 0.030946992 0.14739455 0.11422603 0.034563683 0.030271988 -0.14674959
0.123401664 0.0030301693 0.12967393 -0.16287883 -0.028746186 -0.10137064 0.09748173 0.019782066
0.05682596 0.11257423 0.03166606 -0.09620249 -0.14136732 0.108121246 0.03901952 0.10072183
0.022806244 -0.09390043 -0.0350981 0.07832351 0.05647531 0.06422678 0.07869139 -0.025331069
-0.060260795 -0.03443272 -0.08775478 0.050160605 -0.14261399 -0.093709715 -0.113607086 -0.10350502
-0.06802231 -0.07214421 0.11195787 -0.076095 -0.04136871 0.07771464 -0.124080904 -0.00046603745
0.10710193 -0.15781845 -0.10683742 0.034604784 -0.07546523 -0.11470096 0.012449962 -0.0440371
0.106854625 0.057957217 -0.042437494 0.0042055557 -0.035377897 -0.09199621 -0.06291909 0.13234676
-0.08562856 -0.13673367 0.10644321 0.0615975 -0.0006982695 -0.018207313 -0.03525625 -0.0460119
00000000: 801c fabd ddf9 56bd 0245 02be 27b0 833c
00000010: ba1e e83d 0bd9 03bd bfdf d6bd 6b6c a4bd
00000020: 3ff7 6ebd 7f68 29be 6f83 063e c9f2 733c
00000030: 1a32 713d 6f7c ba3d 928a 003d 3680 1cbd
00000040: d57d 323e 5f70 d2bd 8701 ddbd 3bb6 5fbb
00000050: 2e3a fdbd 1493 26ba bd9c 3e3c a842 18bd
00000060: a863 aabc e164 b63d 0f1f 0c3e aa99 013e
00000070: 84ad 0abe 39c0 a83d 3d9a 163c 6eb6 5bbd
00000080: 25d8 243b 9f42 f3bc fd61 9abd 296f 2ebd
00000090: 012a eb3d c601 01be 9222 51bc e79c d5bd
000000a0: 213c f13d f57c efbd 64f4 adbc 76d9 2abd
000000b0: 2b51 b0bd 03d2 483d 8038 d9bd 8b0a eb3d
000000c0: f99e dbbd a0dd 0dbd be60 9a3d b68b e63d
000000d0: 8b52 e83d 0fc4 acbc c7b7 dc3d 3b5c 2a3d
000000e0: fd05 3dbc 02b6 ffbd c5ca 4cbd 1da8 c5bc
000000f0: d5d7 0b3e cbaa 4d3c 7a86 863d a317 2a3e
00000100: 1b92 23bd dac7 083e aaf1 a8bd 495a b0bd
00000110: 59f3 813d 52d6 013e fc26 1c3d 8f49 6f3d
00000120: ec24 d3bd 4990 843d 2276 01be 4f89 3d3d
00000130: 31d3 3c3d 1f5b 9c3d a654 f03a 6418 bbbc
00000140: f17f 903d ff07 75bd 744d a73d 4eac 67bd
00000150: 89e9 fcbd 7fb6 acbd 6460 d1bd 850f 823d
00000160: 9109 0ebd cbf5 de3d 91d2 383d 957c 903d
00000170: 405f 8d3d 1c35 e6bc 9f6c 01be 9db6 f2bb
00000180: e73d a3bc 08d5 88bd 1d08 083e 5e76 9f3d
00000190: 5fe5 b1bd aa2f bf3d 60f9 e63d 70fc 9cbd
000001a0: 8564 a2bd 613c e83d bc7f 75bc b4de a73d
000001b0: 84d3 313d c64e ac3d c01d 9dbd 958f bb3c
000001c0: bc25 193d d762 e53d 039e 3e3d 6460 85ba
000001d0: d67a 85bd 5ce4 113d 42db c5bd e8a5 1a3c
000001e0: 475e cf3d 5519 d33d 579c eb3d 4642 093e
000001f0: fd74 00be 9784 8fbd 07dc b6bd 1865 a1bd
00000200: 97c0 9ebd cb08 4d3c e825 8cba 8c2b 023e
00000210: cbfa fbbb 2dd0 75bc 47d0 013e 7288 64bd
00000220: 640f 263e 4432 223e ffb0 a1bd 038b 7cbd
00000230: e6f4 c53d 22d5 adbc 77b6 06be 2ed4 393d
00000240: 0e20 9ebd 1921 fa3d c31a 473d b092 11bc
00000250: 2fc0 973d 3bfb 07be 1090 18bd 0c62 a13d
00000260: 71b5 823d e40b 613c 2196 d1bc 3f14 f2bd
00000270: f134 be3d bedf 0bbe be9d ab3c c715 ecbd
00000280: eb87 093e 2083 9abd b85e 473d 06d1 883d
00000290: fd9d 7ebc 2d14 633d ed2a c53b 01d7 7ebd
000002a0: 1a64 debd 9d45 863d 8b68 493d 3519 643d
000002b0: afdf efbd 31d9 cd3d fc7c 9e3d 0a8f a23d
000002c0: 97bf a83d 47f9 ddbd 56cd 123e 6691 773d
000002d0: 2076 e5bd 107f dfbd 1dd8 eb3c 37cb 1dbc
000002e0: 9a06 d3bd a36c 71bd 8c84 fd3c 99ee 163e
000002f0: 56ef e93d a692 0d3d f6fc f73c 8645 16be
00000300: 03ba fc3d ce95 463b 3ec9 043e b5c9 26be
00000310: 1f7d ebbc 699b cfbd 80a4 c73d 000e a23c
00000320: 56c2 683d 518d e63d 45b4 013d d005 c5bd
00000330: 98c2 10be ac6e dd3d efd2 1f3d 3f47 ce3d
00000340: 29d4 ba3c de4e c0bd 06c3 0fbd 1468 a03d
00000350: a852 673d 5489 833d f428 a13d 1a83 cfbc
00000360: 06d4 76bd 5309 0dbd c7b8 b3bd 3575 4d3d
00000370: 6709 12be e1ea bfbd d5aa e8bd 71fa d3bd
00000380: 484f 8bbd 58c0 93bd 2b4a e53d b2d7 9bbd
00000390: 3d72 29bd da28 9f3d 211e febd 7d56 f4b9
000003a0: 4258 db3d 299b 21be 94cd dabd bfbd 0d3d
000003b0: 848d 9abd 56e8 eabd edfa 4b3c 3f60 34bd
000003c0: 99d6 da3d 8c64 6d3d f0d2 2dbd c2ce 893b
000003d0: 6ae8 10bd 8268 bcbd b9db 80bd e985 073e
000003e0: 075e afbd e903 0cbe e6fe d93d a94d 7c3d
000003f0: 130c 37ba 8127 95bc dc68 10bd f976 3cbd

bias f4 [80]
-0.1212938 -0.12780547 -0.11128037 -0.14777224 -0.08195465 -0.077452265 0.09479022 0.123488806
-0.078943126 -0.18638618 0.17161515 0.067147166 0.03690599 -0.009765802 -0.034087438 -0.1355404
-0.037491262 -0.039195664 -0.0022633425 -0.13019909 0.08742162 0.0778993 -0.07282129 0.040495254
-0.057538047 -0.12204819 -0.11993397 -0.04954329 -0.0646829 -0.10428473 0.12240085 -0.095181085
-0.11225526 -0.19793513 0.008943181 0.1348928 0.099999025 -0.14660354 0.039479364 -0.16037597
-0.15605979 0.05834835 0.08864459 -0.049568843 -0.023217706 -0.08050096 0.0015558043 0.1460723
-0.17453408 0.051569633 -0.10167501 -0.04401104 0.03812045 -0.18355566 -0.16967382 -0.1650936
-0.080535814 0.013400441 0.012373881 -0.18233298 -0.12902036 0.0026564258 0.093048185 -0.095521025
-0.120972514 -0.16834082 0.057911962 -0.052573167 -0.19703084 0.060621325 -0.033965386 -0.014680375
-0.06198768 -0.0002389631 0.017212013 -0.07203356 -0.04134772 -0.16101614 -0.09144563 0.09560471
00000000: e268 f8bd 70df 02be f6e6 e3bd 9b51 17be
00000010: d7d7 a7bd 4b9f 9ebd 6021 c23d b3e7 fc3d
00000020: efac a1bd 05dc 3ebe e2bb 2f3e 7484 893d
00000030: bc2a 173d be00 20bc 459f 0bbd 1acb 0abe
00000040: 7090 19bd a28b 20bd 9654 14bb e952 05be
00000050: 1b0a b33d ab89 9f3d 5423 95bd 5ade 253d
00000060: 04ad 6bbd 67f4 f9bd f19f f5bd e8ed 4abd
00000070: 7878 84bd 3c93 d5bd 4cad fa3d 4dee c2bd
00000080: 16e6 e5bd 82af 4abe 6b86 123c 5721 0a3e
00000090: 4acc cc3d 3d1f 16be 1db5 213d 9939 24be
000000a0: 23ce 1fbe aefe 6e3d 4b8b b53d b308 4bbd
000000b0: 0f33 bebc b0dd a4bd 21ec cb3a fa93 153e
000000c0: 10b9 32be ae3a 533d fd3a d0bd ec44 34bd
000000d0: 3024 1c3d 04f6 3bbe f9be 2dbe 4c0e 29be
000000e0: f6ef a4bd 868d 5b3c d2bb 4a3c 7fb5 3abe
000000f0: ea1d 04be 6e17 2e3b 0c90 be3d 87a0 c3bd
00000100: 70c0 f7bd 8961 2cbe 1835 6d3d f656 57bd
00000110: 74c2 49be 114e 783d 4a1f 0bbd f585 70bc
00000120: cbe6 7dbd 2b92 7ab9 3500 8d3c 5586 93bd
00000130: 3a5c 29bd 6ae1 24be d947 bbbd 67cc c33d

weight f4 [5, 80]
0.038607042 -0.023645006 -0.033688996 -0.002662373 -0.02687579 -0.018542593 -0.012393668 -0.026561735
-0.008621156 -0.058368493 -0.030547712 0.008051898 0.026428955 -0.05146572 0.029544879 -0.011398241
-0.028393429 0.025491262 0.021792646 0.028784433 -0.050095536 -0.00090174493 -0.060060248 0.025191955
-0.044686522 0.03231663 0.030120436 0.015061851 0.033401567 0.00526616 -0.028593767 0.031221293
-0.036867946 -0.036114436 0.042653345 -0.040377155 0.009715579 -0.0118450485 -0.017535867 0.055876292
0.014115355 -0.019175235 0.019537125 -0.008178368 0.0045317444 0.0012835565 -0.015045305 -0.07735677
-0.022119062 0.040925585 0.002501089 0.067642935 -0.011403848 0.04542045 -0.019282065 0.03987204
-0.05456611 0.030993726 0.014048931 0.071784504 -0.061911903 -0.0459589 0.015188123 -0.06640178
-0.083915405 0.037882566 -0.025491068 0.005499972 -0.019362463 0.01110856 0.030258814 -0.00437456
0.0015760955 0.0037716855 0.054083157 -0.07541017 -0.021202575 -0.017467253 0.06808133 0.03195562
0.032755435 -0.07967129 0.025388984 -0.016997583 0.02068801 -0.0037788132 -0.042991567 -0.0100727985
-0.014939124 0.05267158 -0.013482187 0.0029264987 0.0021024079 0.04450359 -0.03723503 -0.0656046
-0.03848086 0.060994957 0.009687884 -0.05001208 0.050483815 0.04387283 -0.014564279 -0.0059416126
0.0032590888 -0.03598293 -0.026589587 -0.0328911 -0.04776326 -0.033570666 0.072876185 -0.024179678
-0.0036773866 -0.053204782 -0.05206517 -0.048283026 0.011728885 -0.0011506276 -0.009949574 -0.015986806
0.010343643 -0.022856738 0.027038839 0.00018530924 -0.031742502 -0.061695173 0.025105445 0.03679604
0.0034279206 0.05420215 0.015708456 -0.06679224 0.035346832 -0.018938642 -0.027983258 0.07270132
0.054565743 0.01199286 0.008784733 -0.038121216 -0.043886844 0.06374122 0.04470467 0.038708415
0.06183411 0.029622244 0.01662553 0.009799616 -0.016331846 0.01742392 0.06394014 -0.013603785
-0.039278068 0.014158569 -0.057398967 0.006752957 -0.03939315 0.0017610899 0.08486414 0.027981848
-0.020367812 -0.0137817785 0.016245382 -0.01976875 -0.041542396 -0.005680089 -0.002196231 0.0053714938
-0.019305278 -0.050962973 -0.017513392 0.009753842 0.006583216 0.048603494 0.0030707696 -0.003555018
-0.04178213 0.051156305 0.014634964 0.036487263 -0.058388572 0.025487026 -0.011882523 0.04173496
-0.022881066 3.419605e-05 -0.08424394 0.06429408 0.036900595 -0.03175391 -0.061681196 0.014846311
0.03439036 -0.015240493 0.05089705 0.020029524 -0.058980513 0.0033534733 -0.012251647 -0.07154627
0.016700218 0.05767265 -8.2142535e-05 0.019162515 -0.01904305 -0.0037277746 0.007783149 -0.020675778
-0.017574294 -0.0555791 0.006344833 -0.07370442 0.017464068 -0.035263006 0.036310874 -0.058827505
-0.0045854743 0.041826405 -0.01652972 0.01883002 -0.058590874 0.03873501 0.02718535 -0.07729205
0.046212092 -0.0071196794 -0.052925166 -0.01982651 -0.006388786 0.0091636535 0.07433323 -0.021586142
0.06302697 0.029490244 -0.036838263 -0.039364908 0.022702537 -0.0069462447 -0.025133764 0.06828513
0.024515184 0.0065606097 -0.03496062 0.066915505 -0.0050631636 -0.012952231 -0.021242034 -0.026330035
-0.0012505972 0.034445453 -0.018236795 -0.010364728 0.043288026 -0.048131175 0.037316993 -0.068698674
00000000: 6b22 1e3d 2cb3 c1bc 79fd 09bd 357b 2ebb
00000010: 9e2a dcbc a3e6 97bc d00e 4bbc ff97 d9bc
00000020: c03f 0dbc cd13 6fbd 323f fabc 1cec 033c
00000030: 8981 d83c b8cd 52bd 1a08 f23c b0bf 3abc
00000040: 5699 e8bc 0dd3 d03c 7e86 b23c 55cd eb3c
00000050: fa30 4dbd 1463 6cba bc01 76bd 5c5f ce3c
00000060: 3709 37bd 715e 043d 22bf f63c fbc5 763c
00000070: 15d0 083d c08f ac3b 7a3d eabc ccc3 ff3c
00000080: d802 17bd bbec 13bd 46b5 2e3d 8462 25bd
00000090: 182e 1f3c bc11 42bc 61a7 8fbc 8ade 643d
000000a0: 1744 673c 6215 9dbc 520c a03c 90fe 05bc
000000b0: 077f 943b 023d a83a 9580 76bc 3a6d 9ebd
000000c0: 0933 b5bc 96a1 273d 4fe9 233b 6188 8a3d
000000d0: 35d7 3abc cb0a 3a3d 6cf5 9dbc dd50 233d
000000e0: b780 5fbd 8ee6 fd3c 7d2d 663c c103 933d
000000f0: 5697 7dbd 663f 3cbd 9bd7 783c a8fd 87bd
00000100: d7db abbd c02a 1b3d a5d2 d0bc 1c39 b43b
00000110: 079e 9ebc ad00 363c 55e1 f73c 7858 8fbb
00000120: fd94 ce3a 622e 773b 4d86 5d3d a670 9abd
00000130: 06b1 adbc 7c17 8fbc 396e 8b3d e5e3 023d
00000140: 902a 063d b42a a3bd 8ffc cf3c 843e 8bbc
00000150: e779 a93c f7a5 77bb ed17 30bd 6108 25bc
00000160: 3ac3 74bc 28be 573d 64e4 5cbc 80ca 3f3b
00000170: 8dc8 093b 6549 363d c283 18bd b45b 86bd
00000180: 1b9e 1dbd d9d5 793d eeb9 1e3c 78d9 4cbd
00000190: 1ec8 4e3d ffb3 333d 039f 6ebc dcb1 c2bb
000001a0: 7096 553b d662 13bd 68d2 d9bc d1b8 06bd
000001b0: 68a3 43bd 6581 09bd 1c40 953d 7614 c6bc
000001c0: 4f00 71bb 42ed 59bd 4a42 55bd 6cc4 45bd
000001d0: 822a 403c a8d0 96ba 8a03 23bc c3f6 82bc
000001e0: 6278 293c 0e3e bbbc 8e80 dd3c 924f 4239
000001f0: 6d04 02bd 14b4 7cbd efa9 cd3c 72b7 163d
00000200: f7a6 603b 1303 5e3d 05af 803c 5fca 88bd
00000210: d7c7 103d 3625 9bbc 253d e5bc 6ee4 943d
00000220: 5480 5f3d b37d 443c d7ed 0f3c fe24 1cbd
00000230: b1c2 33bd c28a 823d 3e1c 373d b78c 1e3d
00000240: c445 7d3d 59aa f23c 4332 883c 928e 203c
00000250: 5dca 85bc 9cbc 8e3c 0cf3 823d 69e2 5ebc
00000260: 0ae2 20bd 58f9 673c 2e1b 6bbd e947 dd3b
00000270: b65a 21bd 5fd4 e63a 40cd ad3d 303a e53c
00000280: 66da a6bc f8cc 61bc 0915 853c 13f2 a1bc
00000290: 5c28 2abd 0a20 babb a4ee 0fbb 5b03 b03b
000002a0: 1a26 9ebc 8dbe 50bd 3f78 8fbc 94ce 1f3c
000002b0: 05b8 d73b 7514 473d f73e 493b 4efb 68bb
000002c0: bd23 2bbd 4689 513d 7dc7 6f3c ab73 153d
000002d0: db28 6fbd 2bca d03c eaae 42bc 47f2 2a3d
000002e0: 1371 bbbc bb6d 0f38 1688 acbd 9dac 833d
000002f0: 1425 173d 6310 02bd 6ca5 7cbd f13d 733c
00000300: e8dc 0c3d 43b3 79bc 6d79 503d f514 a43c
00000310: 8d95 71bd f2c5 5b3b 22bb 48bc da86 92bd
00000320: e5ce 883c 283a 6c3d f043 acb8 b5fa 9c3c
00000330: 2c00 9cbc ae4d 74bb c909 ff3b 4060 a9bc
00000340: f7f7 8fbc e9a6 63bd 51e8 cf3b 58f2 96bd
00000350: ce10 8f3c f16f 10bd b6ba 143d 1cf5 70bd
00000360: bf41 96bb 2a52 2b3d 5669 87bc 6a41 9a3c
00000370: fcfc 6fbd 9aa8 1e3d d0b3 de3c 4b4b 9ebd
00000380: e448 3d3d 334c e9bb 0fc8 58bd 356b a2bc
00000390: 0559 d1bb 2623 163c 053c 983d 6cd5 b0bc
000003a0: 4914 813d 8695 f13c b8e3 16bd 193d 21bd
000003b0: acfa b93c 539d e3bb 53e5 cdbc 13d9 8b3d
000003c0: 11d4 c83c 62fa d63b de32 0fbd ff0a 893d
000003d0: e5e8 a5bb 9835 54bc c603 aebc 16b2 d7bc
000003e0: 14eb a3ba ad16 0d3d 5565 95bc d2d0 29bc
000003f0: c94e 313d 3225 45bd b4d9 183d e4b1 8cbd

bias f4 [5]
0.017095638 -0.0068700267 0.0027288538 0.0045512146 -0.033062268
00000000: 270c 8c3c f61d e1bb 92d6 323b 5b22 953b
00000010: 4d6c 07bd
