final_project/mlruns/1/ebe1fc192111431d8f769d28b68a503e/artifacts/cvae_31/data/model.pth (torch, 48071 bytes, 10 tensors)

weight f4 [80, 10]
00000000: 07f0 4d3e d35a 0abe 8e96 98be 446d 2e3d
00000010: 2a3e 09be a4db a3bd 43b5 90be ed18 98be
00000020: 7ccd 943c 274e 903a d016 37bd 83c7 a53e
00000030: a0c0 993e 3e16 4a3e 186f efbd 032f 453d
00000040: 0487 7c3e 56f5 8ebe d804 623d 3c85 5bbe
00000050: 6276 7a3d 6529 3cbc 86ec 853d bd7d 473e
00000060: 5027 80be c2f6 19be c64d 58be 8416 2bbe
00000070: e88b 6fbe 016a 80be 90dd 0b3d 52f2 40be
00000080: 5183 983d 5b92 5d3e 5ae1 8bbe cb5c 9e3c
00000090: e633 71bb 724a cd3d 667f 1a3d c235 943e
000000a0: 5ffb 93be 1b65 38be 311a 953e 9a67 0fbe
000000b0: b070 c0bd d6ad 4ebe 7310 8b3d 4759 973e
000000c0: cff0 06be f73e 473e 0b2e 5ebc 476d b4bc
000000d0: d650 803e 3389 38be 568b 813e bba6 19bd
000000e0: 1acd e93d 3e40 a4bc de0e 10be a70d ad3c
000000f0: 2424 d9bd 5249 e7bd 14a3 a7ba 22d7 ccbd
00000100: 0c1b 923e b232 053e 2171 8cbc 1c04 96be
00000110: c202 86be 1ef7 2ebe 1255 a73e 2d71 7a3e
00000120: 74f9 513d 414d 38be 9ccb 6bbe 715a 17be
00000130: 715b 7b3e 612a 053d 1f24 be3b 672c 093e
00000140: 0c56 cdbd e0c1 93be 3847 373e 2e3c 86be
00000150: 0ae2 9f3d 3388 59be b8d9 e7bd ac15 6cbe
00000160: d4b8 013e 6250 c6ba 243c b83e d56a 023e
00000170: 82c9 833e 4a44 213e b2dd 923e 0697 24be
00000180: bbaa 9f3e 2ec0 643e 4ae2 8abe f25a 1f3d
00000190: 8e93 8cbe 622d 423e 0176 b03d b57e 2cbe
000001a0: 49fd af3c faa0 4fbe 1281 c93d d98d 1c3e
000001b0: 461c 143e 80d8 8e3c 423b aa3e 85be 703e
000001c0: 848b 433e 7ebe 42bd 6e3f 2bbe 163a 2abe
000001d0: 077f 65be d82a 253e 77dc 653e 345a f8bd
000001e0: 2626 193e 17a5 af3c b5b8 49be 2ac8 813e
000001f0: a53a 543e 457e 843e 953a ea3d 72b7 afba
00000200: f8e4 543e 5efd c2bd f6e4 df3d 7644 923e
00000210: 2df8 45be c626 b13d 975f e0bd fdf5 90be
00000220: 480e 4cbe 51b1 67be 90d9 80bd 26b6 723e
00000230: 7f77 703e 3720 6f3d 4b84 a93d 2245 94be
00000240: 66f8 513e b629 6dbd 8610 0e3e 6892 453e
00000250: 634f 5a3d 09b2 a23c 2fc9 94be 36ca 0dbe
00000260: c3c7 9fbd a6bc d0ba b138 433d 0bfc 963e
00000270: aeb9 4abe 38ac 3a3d df0f 3dbd 2edf 9bbe
00000280: 7f98 103e 6ca7 593e fcc9 30be 3905 47be
00000290: dca7 7a3e 7a35 203d 8aa9 483e c6a3 373e
000002a0: 4b03 163e 388c f3bd 5886 8f3d 3a15 893e
000002b0: 97ea 823e 0d1f 033e ce1c 8bbe eb16 44bd
000002c0: 3bbf 3b3e 2ab9 a73e 28e7 7f3e f6ce 383e
000002d0: 1b92 51be 2b4f 0ebe 6b2a 5abe f70d 043e
000002e0: fbe9 89bd 1712 54be 4cfd ebbd b5f1 783e
000002f0: 3db1 fabc 9372 84be 79c7 9fbe d338 653e
00000300: c50c 5ebe cb2c 77bd df40 5d3e 18fa 86be
00000310: d2a8 68be e75a 8b3d ae6c 8bbe 089d db3d
00000320: 8363 14be 51bf 113e 2663 5c3b ceb4 45be
00000330: b5c3 2d3e f821 1cbe a855 59be 3f61 86be
00000340: 5eb3 11be 555d a03e b6be 003e fa20 98be
00000350: b08b 1d3e 4acb 483e 18c2 78be e689 2dbe
00000360: 553e 54bd 7e1e 90be 558f bb3d 9ec8 4e3e
00000370: c54a 4dbe e03a 8c3d 07ce 6bbd dd69 61be
00000380: d0db 393d 8cc2 343e 0895 d83d 27f6 303e
00000390: 6ad9 80be 48bd b53d 00e5 5cbe 2b9c 1bbe
000003a0: f7a2 d0bc d7e8 60be 01f8 0cbe e8f9 d93d
000003b0: 73dc d4bd acf9 833b fdbd 5d3d eafe 56be
000003c0: 9a40 613e da39 ad3e 2df9 9dbb b824 653e
000003d0: febe 063e 1d4c b2be 8fcb 76bc 0a8a 71be
000003e0: a82f 97bd e17d e43d d44c 5fbe 541e a1be
000003f0: d2a5 9a3c 235c bdbc 32d7 45be 1412 953e
0.20111094 -0.13511209 -0.29802364 0.042584673 -0.1340262 -0.080008775 -0.28263292 -0.29706517
0.018164389 0.0011009619 -0.04469949 0.32378778 0.30029774 0.19735047 -0.11691111 0.048140537
0.2466088 -0.2792155 0.0551804 -0.21437544 0.061148055 -0.011484479 0.06539254 0.19481559
-0.25029993 -0.15035537 -0.21123418 -0.16707808 -0.23393214 -0.25080875 0.034146845 -0.18842438
0.074469216 0.21637861 -0.27320367 0.019331357 -0.0036804616 0.10023965 0.037719153 0.28947264
-0.28902718 -0.18007319 0.29121545 -0.14004365 -0.093964934 -0.201835 0.06790247 0.295603
-0.13177799 0.19457613 -0.013560782 -0.022024764 0.25061673 -0.18021087 0.25301617 -0.037512522
0.11416073 -0.020050164 -0.14068171 0.021124674 -0.106025964 -0.112932816 -0.001278969 -0.10001971
0.2853626 0.1300762 -0.017143788 -0.2930001 -0.2617398 -0.17086455 0.3268209 0.24457236
0.051263288 -0.1799822 -0.2302689 -0.14780594 0.24546601 0.03251112 0.005802646 0.13395844
-0.10026178 -0.28858852 0.17898262 -0.26217788 0.078067854 -0.21243362 -0.113208234 -0.23055142
0.12668163 -0.0015130157 0.35983384 0.12736066 0.25739676 0.15748706 0.28684765 -0.16073236
0.31184945 0.22338936 -0.2712577 0.03890509 -0.27456325 0.18962625 0.086162575 -0.1684521
0.02148308 -0.20276251 0.09839071 0.15288486 0.1446391 0.01743722 0.33248335 0.23510177
0.1909619 -0.04754495 -0.16723415 -0.1662372 -0.22411738 0.16129625 0.22447382 -0.1212658
0.14955959 0.021441026 -0.19699366 0.25348026 0.20725496 0.25877586 0.11436955 -0.0013406111
0.2079047 -0.09520982 0.10932343 0.28567857 -0.19332953 0.086499736 -0.10955732 -0.28312674
-0.19927323 -0.22626235 -0.06291497 0.23702297 0.23483084 0.05838033 0.08277186 -0.28958994
0.20504913 -0.057901107 0.1387349 0.19294131 0.053298365 0.019860284 -0.2905974 -0.13846669
-0.078017734 -0.0015925362 0.047661487 0.2948917 -0.19797394 0.045574397 -0.046157714 -0.3044371
0.14120673 0.21255273 -0.17264551 -0.19435586 0.24478096 0.0391135 0.19595924 0.17933568
0.14649694 -0.11891979 0.07008046 0.26774007 0.25569603 0.12804814 -0.27170414 -0.04787342
0.18334667 0.32758456 0.24990523 0.180477 -0.20465891 -0.13897388 -0.21305244 0.12895952
-0.06734081 -0.20710026 -0.11522922 0.24310954 -0.030602092 -0.25868663 -0.31206873 0.22384958
-0.21684559 -0.060345452 0.21606778 -0.2636268 -0.2272065 0.068044476 -0.27231354 0.10723311
-0.14491086 0.14233138 0.0033628433 -0.19307253 0.16969188 -0.15247333 -0.21224082 -0.26246068
-0.1422858 0.31321207 0.1257275 -0.2971266 0.15385318 0.19608799 -0.24292791 -0.16947135
-0.051817257 -0.28148264 0.09158198 0.20193717 -0.20048054 0.06847167 -0.05756953 -0.2201304
0.045375645 0.17652339 0.105753005 0.172814 -0.25165874 0.08873993 -0.21571732 -0.15196292
-0.025468333 -0.21963821 -0.13766481 0.10643369 -0.1039361 0.004027566 0.054136265 -0.2099568
0.219973 0.338332 -0.004820964 0.22377288 0.13158795 -0.34823695 -0.015063181 -0.23587814
-0.073821366 0.11156822 -0.21806651 -0.3146845 0.018877897 -0.023115223 -0.19320372 0.29115355

bias f4 [80]
00000000: df80 c73e ab2b 9a3e 23c3 05be a674 36be
00000010: d31d 01bd 3444 dd3e 84e5 793e 74c6 833e
00000020: 57a5 cb3e 6b2a db3e 477b 2cbe f6c3 a03e
00000030: 130b f53e 77c9 af3e 55a1 b83e 792b 4abd
00000040: 41b4 94be b1d7 a23e 65e2 95be 40ad b33e
00000050: 17ca 793e 2795 33be 7d18 8d3e e8de 9b3e
00000060: 7df8 7e3d b94c c7bd 9fca 903e 3f55 873e
00000070: 7a2a 663e 7dd7 82be b6fb 8bbe ca68 97bd
00000080: 7346 87be 66b6 f13e 4d8d c23d 17a5 98be
00000090: cca1 5fbe 31da f83e ed46 88be 9018 ea3e
000000a0: 27f4 3abe 8a5b 8dbe c1bd 9bbe 8c60 093f
000000b0: b52e 023f ed1d 68bd ad67 b6bd c5ff 31be
000000c0: 8c9d 933e d4ad 093f 1c51 963e c299 95be
000000d0: 00c7 c23e d440 e5bd 7736 65be 355b 983e
000000e0: d0e1 00be 3e5d aabd ee5d 8fbd 4261 85be
000000f0: 4151 01bd f09f 25be 9a5c 2d3e cc30 97be
00000100: 70a5 50bd 595d a53e d837 34be 7005 853e
00000110: 6b3d 9d3e 6360 f73e 7bd4 df3e fa1e a93e
00000120: ab69 a23e 9f86 15be 37d7 96be e93e c53e
00000130: 1f0e 44be 5459 ae3e 71c6 9f3e 759b 89bd
0.38965508 0.3011144 -0.1306272 -0.17817935 -0.031522583 0.43216097 0.2440396 0.25737345
0.39774582 0.428058 -0.16843902 0.31399506 0.4786001 0.34333393 0.36060587 -0.049357865
-0.29043773 0.31805184 -0.29274288 0.35093117 0.24393497 -0.17537366 0.27557746 0.304435
0.062248696 -0.097314306 0.28279588 0.26432225 0.22477141 -0.2555503 -0.27340478 -0.07393034
-0.26420936 0.4720947 0.09499607 -0.29813454 -0.21839064 0.48603967 -0.26616612 0.45721865
-0.18257199 -0.276089 -0.30418208 0.53662944 0.5085252 -0.056669164 -0.08906493 -0.17382725
0.28831136 0.53780866 0.29358757 -0.2921887 0.3804245 -0.111940056 -0.22384058 0.29757085
-0.1258614 -0.08318566 -0.070003375 -0.26050764 -0.03157163 -0.16174293 0.16929856 -0.29529417
-0.050939023 0.3229778 -0.17599428 0.2598071 0.3071092 0.48315725 0.43716797 0.33031446
0.31721243 -0.14602135 -0.2946107 0.3852456 -0.19146012 0.34052527 0.31206086 -0.06719104

weight f4 [40, 80]
00000000: fa8c cb3d 450a 96ba cfcc 10bd f73e 6fbd
00000010: b240 4fbc 3e31 d1bc 67d7 7e3d d722 de3d
00000020: 500f 1e3e 4052 123d 25ac 62bd 95d2 013e
00000030: 6e35 52bc 3b56 cb3d ca89 1e3e 8f43 693d
00000040: 5e75 963d d1f9 d83d 4bf8 70bd d359 b23d
00000050: 03f4 2f3e 37af 7fbd e15e 533b d385 133e
00000060: 9162 fdbd 769f 293d ee19 76bc 4933 d53c
00000070: 9212 d3bc 8c6f 0e3d 404d 2cbd 0c0d 83bd
00000080: b64b afbd 4542 b83d c3d3 81bc 1ab9 933d
00000090: 8785 ab3c 0b23 d03d 2830 b6bd 430b c03d
000000a0: bdd9 833d f167 d1ba a5cd 4c3c e00e 393d
000000b0: 034f 1a3e e543 193d da1a 3bbd 528a 0dbd
000000c0: 2057 b53d c359 bb3c 2c38 2f3d bcac 4e3d
000000d0: c76a 5dbd 365c 313d 0b64 c23d b343 0d3d
000000e0: 19f5 d7bd 778a 88bd 056b 8cbd e004 b2bd
000000f0: 8757 a03c 78b8 16bd dd98 0d3e 4e4a 1e3c
00000100: 215d 2ebd 072e b73c f2db 653d 6826 783d
00000110: 3e8f 93bd 80cf 3a3d f3a5 f1bc 506c 1d3e
00000120: b07b 7b3d 70d7 61bc 6c1b 8b3c e420 9d3d
00000130: 2489 d63d a148 debc c20c d33d a1b6 b23d
00000140: 2967 e6bd d6c6 e2bd ec21 94bb 1685 28bd
00000150: 4e44 cbbd 5ba0 6bbc 5fd5 c1bb acbc 9bbd
00000160: 5f80 debd 868a a23d 2056 6a3d d421 733c
00000170: e73f ffbd 32ef a53b 24ab 5dbd f416 0abd
00000180: 0ee2 cb3d ff5c cdbd 3ac7 a53a b2b1 a3bd
00000190: 86e3 3e3b 4331 91bb 2a96 643c db7c 923c
000001a0: e559 a7bd f47b d9bd 96bb b0b8 6235 bbbd
000001b0: 521f 15bb 5f3e e0bd be0d 493d e981 c3bd
000001c0: 82b3 9a3d 9c74 d4bd aebd c5bd e327 28ba
000001d0: 79af b53d 4d13 89bd 7932 613c 429a b5bc
000001e0: 09a6 95bd cf18 bdbd d63f b6bc f3a3 fabd
000001f0: 467c 23bd abdb 40bd 4f77 11bd 5602 adbd
00000200: 8e3b f8bd 0f9b b13d dcd6 afbb 31b8 aebd
00000210: bcf8 a5bd f95f bcbd 2498 043d 3741 0e3d
00000220: 97dc bc3d 04f2 9ebd d5ab a6bd 78cd 293d
00000230: 069a 3f3d e6df a0ba 0e11 c6bd c9a8 a23c
00000240: 03ec 443d 2b2c b03d b876 943d c0ec 5e3d
00000250: b665 463d ea0f adbc e09d de3c 6f7a 0f3d
00000260: f484 abbd aa3b e03c b0d5 32bd ea1d 68bc
00000270: 4fdf b2bd deaf a7bb 0dc7 b2bc ae7d ce3d
00000280: bcde acbd 0d18 4dbd db84 dcbd 15ce c4bd
00000290: 1587 e239 59bb 2d3c 0b98 bcbd e58e b13d
000002a0: 3419 fa3c f699 ba3d d13c 883d d12f c4bd
000002b0: 51ba 9d3b 71b4 00bd c827 753d 3a3b 2cbd
000002c0: 5457 e23d 2af8 15bd f9c3 9bbd c619 8f3d
000002d0: 516e ca3b 9257 a43d 67a0 5bbd 4759 b4bd
000002e0: e3c5 b33b bb41 af3d 198f e43d b3b9 103d
000002f0: 82aa 0dbd ccdc 733d cf81 91bd 7c3f cabd
00000300: f224 99bd 9dd2 823d c5be d43d 41cb 9a3d
00000310: d6f4 123c e149 9fbd aeff 8a3d 5fc7 a33c
00000320: 3197 933d 185d bcbd a33a 253c 698d 7cbd
00000330: 4ace df3d 809b b5bd 88e7 d3bd 00ec d53d
00000340: 57d7 adbc d246 993d 696b 023d f4d1 ec3c
00000350: 4de8 ecbc 48c8 65bd 2a2a ed3b cbc4 9a3d
00000360: 1b46 f7bc 4cd0 52bd 633c 283d b7b6 d53c
00000370: cc56 8f3d 87ad cf3d cba4 2fbd 837e b3bd
00000380: b893 463c a330 9b3c f962 d63d 1174 c7bc
00000390: 9ab4 7d3c 1125 88bd c4ac b03d aba5 223c
000003a0: 7de1 5f3d 91c5 8f3d 264b 583d 92c3 a03d
000003b0: b094 a1bd 66ef a13d cd51 053c 49c1 f73c
000003c0: 1a07 68b8 2321 1cbe 38e5 53bd ac04 c43d
000003d0: 8b58 bbbd 40e8 18be cefc e7bd b19c aabd
000003e0: 60ac 0b3c 7cd0 94bc 8ffb 653c 332b 4d3b
000003f0: 9c63 5bbd 900d ecbc dc8e 89bd c4c3 aebd
0.099389985 -0.0011447152 -0.03535157 -0.058409657 -0.012649702 -0.025536176 0.062217142 0.10846489
0.15435529 0.03572297 -0.05533995 0.12677987 -0.012830121 0.099285565 0.1548225 0.056949195
0.07346605 0.10594524 -0.05883054 0.08708539 0.17182927 -0.062422957 0.0032252597 0.14406519
-0.12372316 0.04141184 -0.015020831 0.026025431 -0.025765691 0.03477435 -0.04206586 -0.06398973
-0.085593626 0.08997015 -0.015848046 0.0721304 0.020937694 0.10162934 -0.08895904 0.09377148
0.06438015 -0.0015976412 0.012500201 0.0451802 0.15069203 0.037418265 -0.045679905 -0.03455574
0.088545084 0.02286995 0.04277818 0.0504577 -0.05405691 0.04330083 0.09491738 0.03448839
-0.105447955 -0.06667035 -0.0685635 -0.08692336 0.019572986 -0.036797017 0.13827844 0.00966127
-0.042569283 0.022360815 0.05611796 0.060583502 -0.07205056 0.045608044 -0.029498076 0.15373349
0.061397254 -0.013784274 0.01698085 0.07672289 0.10475376 -0.027134242 0.10305168 0.0872624
-0.11250145 -0.11073081 -0.0045206454 -0.041142546 -0.099251375 -0.014381493 -0.0059153284 -0.07604346
-0.108643286 0.079365775 0.05721104 0.014839608 -0.1246336 0.0050639147 -0.05411829 -0.033713296
0.09955226 -0.10027503 0.0012647875 -0.07992877 0.0029127314 -0.0044309213 0.0139518175 0.017881801
-0.08171443 -0.10619345 -8.4272746e-05 -0.09141041 -0.0022754264 -0.10949396 0.04908537 -0.09546263
0.0755377 -0.10373804 -0.09655319 -0.0006414635 0.088713594 -0.066931345 0.013744944 -0.022168282
-0.07307059 -0.092332475 -0.022247236 -0.12238302 -0.03991344 -0.04708449 -0.035514172 -0.08447711
-0.12120734 0.08672153 -0.0053661894 -0.085312255 -0.08104083 -0.09197993 0.032371655 0.034730162
0.09221762 -0.077610046 -0.08138243 0.041455716 0.046777748 -0.0012273758 -0.09671222 0.019855874
0.04807664 0.08602174 0.07249206 0.054425 0.048436843 -0.021125752 0.02717489 0.03502887
-0.08374968 0.0273722 -0.04366082 -0.014167288 -0.08733999 -0.0051174005 -0.02182343 0.10082565
-0.08440921 -0.050071765 -0.10767528 -0.096096195 0.00043206723 0.010603749 -0.092086874 0.08669833
0.030529596 0.09111397 0.06652225 -0.09579433 0.0048134704 -0.031422082 0.05985239 -0.04204867
0.11051813 -0.03661362 -0.07605738 0.06987338 0.0061777015 0.08024515 -0.05361977 -0.08806091
0.0054862364 0.08557459 0.11160106 0.035333347 -0.034586437 0.05953674 -0.07104837 -0.0987539
-0.0747775 0.063878275 0.10387949 0.07558299 0.008969506 -0.07777763 0.06787048 0.019992528
0.07206572 -0.09197444 0.010084781 -0.061658297 0.109280184 -0.0886755 -0.103468955 0.10445404
-0.021220846 0.07484211 0.031840716 0.028908707 -0.028919363 -0.056099206 0.0072376924 0.075570665
-0.030184796 -0.05146818 0.041073214 0.026088102 0.06998977 0.101405196 -0.04288177 -0.087643646
0.01212018 0.01894409 0.10468096 -0.024347337 0.015484953 -0.06647695 0.086267024 0.009927194
0.0546584 0.07020105 0.052806042 0.07849802 -0.07889688 0.0790699 0.008137179 0.030243533
-5.5319724e-05 -0.15247016 -0.051732272 0.095712036 -0.091477476 -0.14932346 -0.113275155 -0.08330668
0.008524984 -0.01816582 0.014037027 0.0031306266 -0.05356179 -0.02881506 -0.067167014 -0.08533433

bias f4 [40]
00000000: 998e e53d 4a28 5b3d da2b 4bbc 44c0 cb3c
00000010: cf0a 35bd dd57 03bd 831c 8dbd 6446 4b3d
00000020: 18da 8a3d 2db5 433d 6b92 c3bd 7081 d4bd
00000030: 46c7 94bd bf85 083d af8b 80bd 63ce a83d
00000040: f99b b33c fcbb a8bd 444e 203d f543 cf3d
00000050: 427d 8dbc 94d3 4ebb 9dbd c03c aaef 8d3d
00000060: e246 53bc 55a3 cbbb fe53 383d 4007 d9bc
00000070: 970a 53bd 99d6 923d d6fa bfbd c59d 9bbd
00000080: 4d9c 9cbd f5d9 d1bd cbfc 063d bc19 efbc
00000090: def3 b6bd 75fb 5ebd 0c05 96bb dfb6 a53d
0.11208839 0.05350522 -0.012400592 0.024871953 -0.04419976 -0.032066215 -0.06890204 0.049627677
0.06779879 0.047780205 -0.095494114 -0.10376251 -0.07264571 0.033330675 -0.062766425 0.0824249
0.02192496 -0.0823898 0.03913714 0.10120384 -0.017271642 -0.0031559216 0.023527915 0.06930478
-0.012895318 -0.006214539 0.045001976 -0.026492715 -0.05152377 0.071698375 -0.09374015 -0.075984515
-0.076469995 -0.1024665 0.032955926 -0.029187076 -0.08933233 -0.054439027 -0.0045782384 0.080915205

weight f4 [40, 80]
00000000: 61be 49bd 6955 e6bd edfc 00bd 82c2 a73d
00000010: 8f2d 89bc 38d4 2fbe 5f12 ddbd af01 61be
00000020: 2cb0 03bd e43c 50be 7919 a63d f494 c3bd
00000030: 7371 ecbd 4814 88be 7476 bbbd 8d90 8dbd
00000040: 6558 2fbd 5116 9abe 4eb6 833d 5eb7 33be
00000050: cbe5 d6bd bc5a e4bd 1d85 c5bd 7909 35be
00000060: 7218 b53c fae9 bcbd db80 3fbe 21d6 4dbe
00000070: aee0 36be 1a20 94bd 72e5 d9bd 5635 ab3d
00000080: 794c 183c 3cb3 e4bd 98ea 8dbd 1f8e 243d
00000090: e236 4ebb c29c dbbd fa2b d43d 9720 fabd
000000a0: d1cc 43bd fd36 69bd 87cd c93d 86d7 0dbd
000000b0: d003 10be 78f9 cbbc 847f 2b3c f6cc b33d
000000c0: b679 99be 4d19 46be b30a 62be 50aa 53bd
000000d0: c4bc 07be c57f 3bbd 0081 0ebd a42e 48be
000000e0: 07f2 e1bd cd10 9bbd 61e5 4ebd c605 d7bd
000000f0: 13dc dcbd f3e4 ab3c 09de 59be 2259 8cbd
00000100: f9e6 fdbc 891f 04be f357 e2bd 4f21 17be
00000110: 78bf 07be a989 18be a6ba 5cbd 5f60 68be
00000120: 52c8 f2bd a607 d43d 2787 c8bd ce6b c7bd
00000130: 8254 c23d cf92 4abe 938d 89be 1657 233c
00000140: 2689 06be 64e8 36be 123a a23d 0aae 83bc
00000150: b2c1 17bd 14dd 71be 1be1 a9bd 9622 d4bd
00000160: 05fc 60be b39a 18be 8ca4 03bd 7b8b 12be
00000170: 9536 54be d426 84be d1c7 52bd df88 80bb
00000180: 5e88 b53c 4ef8 65be 00fd 0cbd 8a66 1cbe
00000190: 37f7 9abe 6c41 933c aa12 c5bd b282 28be
000001a0: 15fa 40be 7545 86bd 423c 5dbe 7d31 40be
000001b0: 03dd 3abe ce71 123d 33f7 29bb a528 c1bd
000001c0: 7288 803d fec9 5dbe caf4 0fbe 6915 653c
000001d0: f164 813d 1664 b0bd 1692 9cbd c5da 0ebe
000001e0: bcdc 1cbd ba66 81bd 9d86 573d fbb7 bebd
000001f0: 9bf7 b6bd 071b b7bc e875 b13d d23e b13d
00000200: f413 41be 4bbd aabd e435 92be a60d 87bd
00000210: 8c1b 36bd 4821 713d 9e84 843b 0202 3cbe
00000220: b8bb 56bb 5d4d 163b 0f3b a7bd 1388 dc3c
00000230: d2ed 9dbd 4ccd ca3d cc6f acbc d87d b8bd
00000240: 934c c0bc d01b 92bd 7055 043d 0129 2cbe
00000250: 3eac bdbe f8cc 51be 897f 73bd 48ca 20be
00000260: 30cb 87bd 4af1 b23c df0c cabd 2e0b 60bd
00000270: a846 4dbd 4b02 06be afbf 1abe 8835 d43d
00000280: b085 9b3b 7323 89be 8236 d5bd bec4 623d
00000290: 5510 1ebd 0a94 fdbd ca44 23be 615a 00be
000002a0: 9a10 94bd ec3b babd e2b4 c73d 184b 2dbe
000002b0: 1d77 51be e9a1 a3be f420 2ebe a687 d9bd
000002c0: 2312 2d3d 2a7d 5fbe 642d 7b3d fd06 3bbe
000002d0: ce50 3cbe af5d 3abd d2a8 6dbe da8a 02bd
000002e0: 3a50 e63c 0e8e fa3c aeca 63be aefc 78be
000002f0: 6f63 06be ab67 dd3d 5c45 d5bd e3e6 ce3c
00000300: 56d0 a2bc defc 35be 873e 0abe e0af bb3c
00000310: de60 0bbd 72c1 513b be0c a63d ac9b 48be
00000320: b7c7 ca3c c758 e9bc 7228 b3bd 9b84 dbbd
00000330: 7208 fc3a 39ed 59bd b7ab be3c 3e69 0e3c
00000340: 3a13 a7be 4938 42be f0f7 bfbd 50eb a23d
00000350: cce6 40be 3d88 783d 86ab 88bd 62ac 3abe
00000360: 3b80 e0bc 7ab5 e03d 3021 dcbd 0e07 dfbd
00000370: 49de b2bd 09e0 d63d 360b 2dbd 794f debd
00000380: 204c ddba 9824 04be d05f b63c 37db e3bb
00000390: 301a a5be d22c 08be 485b bebd b3fe 33be
000003a0: 1196 2bbe dcff b9bd c64d 20bc 6bc0 32be
000003b0: 55eb 82bc 00e0 bcbc f722 78be 128a 8a3d
000003c0: 629f 54be 28cb 40be b835 80bd f5c6 4939
000003d0: efb4 a0bd 3877 bfbd b60f 55be a0e1 73be
000003e0: ba26 2ebe af51 ccbd 43ba b63c 8b85 31be
000003f0: e9e1 58be 3e56 7cbe 7a1f 34bd 91d4 aebd
-0.049253825 -0.112467594 -0.03149121 0.08191396 -0.016745357 -0.17170799 -0.1079452 -0.21973298
-0.032150432 -0.20335728 0.08110327 -0.09549895 -0.11545076 -0.26577973 -0.091534525 -0.069123365
-0.04280891 -0.3009515 0.06431256 -0.17550418 -0.10493048 -0.11150119 -0.0964453 -0.17679395
0.022106383 -0.09224315 -0.18701498 -0.20101215 -0.17859146 -0.072326854 -0.10639466 0.083597824
0.009295576 -0.11166999 -0.06929511 0.0401746 -0.0031465818 -0.107232586 0.1035995 -0.12213247
-0.04780275 -0.056937207 0.09853654 -0.034629367 -0.14063954 -0.02489923 0.010467414 0.087793276
-0.2997567 -0.19345589 -0.22074394 -0.051676095 -0.13255602 -0.045776147 -0.034790993 -0.19549042
-0.11032491 -0.07571564 -0.05051172 -0.10499148 -0.10784163 0.020983195 -0.21276106 -0.06852938
-0.030993925 -0.12902655 -0.11051931 -0.147588 -0.13256633 -0.14896263 -0.05388894 -0.22693013
-0.11854614 0.10353021 -0.09791403 -0.09737359 0.09488775 -0.19782566 -0.26865825 0.009969493
-0.13138255 -0.17862087 0.07921232 -0.0160742 -0.037049957 -0.23619491 -0.082948886 -0.10358159
-0.21971138 -0.14902763 -0.032139346 -0.1431102 -0.20723946 -0.25810874 -0.05146009 -0.0039225663
0.022159752 -0.22458002 -0.034420967 -0.1527349 -0.30266735 0.017975532 -0.096227005 -0.16456106
-0.18845399 -0.065562166 -0.21605018 -0.18768878 -0.18248372 0.035753064 -0.0025934696 -0.094315805
0.06276025 -0.21659085 -0.14058223 0.013982155 0.06318081 -0.0861284 -0.07645051 -0.13950641
-0.038296446 -0.06318422 0.05261861 -0.09312435 -0.08933946 -0.022351755 0.08665067 0.0865456
-0.18855268 -0.08336886 -0.2855674 -0.065944 -0.044459864 0.05886963 0.0040441295 -0.18360141
-0.0032765698 0.0022934296 -0.081655614 0.026920354 -0.07711376 0.099024385 -0.021049403 -0.09008378
-0.023474013 -0.07134211 0.032308042 -0.16812517 -0.37045473 -0.20488346 -0.0594478 -0.15702164
-0.06630552 0.021843571 -0.09865736 -0.05469816 -0.05011621 -0.13086812 -0.15112184 0.10361773
0.0047461614 -0.26784858 -0.10410787 0.05536341 -0.038589794 -0.12381752 -0.1594421 -0.12534477
-0.07229729 -0.090934604 0.097512975 -0.16923177 -0.20455594 -0.31959465 -0.17004758 -0.10621576
0.042253625 -0.2182509 0.061322585 -0.18264385 -0.183902 -0.0454995 -0.23208931 -0.0318707
0.028114427 0.030585315 -0.22245285 -0.2431514 -0.13123868 0.10810789 -0.1041362 0.02525658
-0.019874733 -0.17772242 -0.13500415 0.022911012 -0.034027927 0.0032006172 0.08107899 -0.19590634
0.024753435 -0.028484715 -0.08747949 -0.10718652 0.0019228591 -0.05320475 0.02327524 0.008692084
-0.32631856 -0.18966784 -0.09373462 0.079550385 -0.18838042 0.060676802 -0.066733405 -0.18229821
-0.027404895 0.10972114 -0.107485175 -0.108900174 -0.08733804 0.1049195 -0.04224702 -0.10855002
-0.0016883649 -0.12904584 0.022262484 -0.0069536227 -0.32246542 -0.13298348 -0.09294754 -0.17577629
-0.16756465 -0.090820044 -0.009784168 -0.17456214 -0.015981356 -0.02305603 -0.24232088 0.06764616
-0.20763925 -0.18827498 -0.06260246 0.00019242971 -0.0784701 -0.09348911 -0.20806774 -0.23816538
-0.1700696 -0.099765174 0.022305613 -0.17336099 -0.21179928 -0.24642274 -0.04397533 -0.085366376

bias f4 [40]
00000000: c81f 6cbc c431 febd 3bf9 abbd efe2 3ebe
00000010: 71e2 3abe c542 4abe 4a26 5bbe 15b0 59be
00000020: 34f7 3cbd 34c6 3fbe f39e 20be 5a61 12bd
00000030: d4a0 d3bc d606 cabd e7fc 34be e116 ddbd
00000040: 0d41 bebd 2e82 d5bc c590 2abe 24b3 b0bd
00000050: f04f 59bd 2abc 9fbd 58d1 0ebe 5dbe 2cbd
00000060: 9206 11be 56ad bbbd c1af 44be 688c 83bd
00000070: 9ece 1fbe 4964 76bd 99ec edbd 1e3e 52be
00000080: c8a5 50be c4ab cbbd b448 11be 7df2 e0bd
00000090: 6d54 d6bd f7e3 94bd 8822 19be 1640 52be
-0.014411874 -0.12411836 -0.08397146 -0.18641256 -0.18250443 -0.19752033 -0.21401325 -0.21258576
-0.04613419 -0.18727952 -0.15685634 -0.035737373 -0.025833525 -0.09864585 -0.176746 -0.107953794
-0.09289751 -0.026063051 -0.16656788 -0.08627918 -0.05305475 -0.07799561 -0.13947046 -0.042173732
-0.14162663 -0.091639206 -0.1920767 -0.06423265 -0.15606162 -0.060154233 -0.11617393 -0.20531508
-0.2037574 -0.09944871 -0.1418789 -0.10983751 -0.10465322 -0.07270043 -0.14954579 -0.2053226

weight f4 [80, 40]
00000000: 46f2 ef3c 0ca0 d33d 977f 10bd c6a8 7c3b
00000010: 452d 67bd c7a0 6dbd 25f3 3fbd 6901 8bbd
00000020: 78ad e1bc 4b5c 9abd 8d29 aabd 6fff e0bd
00000030: e9e6 063e d54c b83c 0a0b 24bd 40d1 063c
00000040: c988 5abd 7ba0 bdbd 3f75 963d 3a87 9ebc
00000050: e45e dcbd 7134 ffbd 959c 043e d271 963d
00000060: c574 cdbd 397f cebd 7662 69bd 220b 60bc
00000070: 233d 0b3c c08d 22bc 2a33 f23d 8ada 55bd
00000080: 713a 0a3e 31af 343e 4fcf 083e b374 6fbd
00000090: da0e 88bd 3514 a7bd 87f2 f83d 8b6e 1abe
000000a0: 36b0 15be 5be0 443d 67b4 843c fb6c 013e
000000b0: 307d 453d 7fd1 39be 5bf4 eebd 1a73 d1bd
000000c0: 3c9c e63d 7e0f 05be e2f9 2e3d a79a 913c
000000d0: a1cc a4bd f022 a6bd 07df 103e 33e0 873d
000000e0: 18f3 05be 0997 133d ce4c b93d 101d 2dbe
000000f0: 6799 de3d d061 99bc 7bfd 55bc 6090 02bd
00000100: 9ef3 c63d 47b1 19be 2a24 70bc fc9e 9fbd
00000110: 38de 1f3e c813 14be e305 603d 7eb7 8e3c
00000120: 5514 33bd 5219 9fbd 0d53 133d 3e72 c7bc
00000130: 158b c8bc ed94 89bd 0b49 c2bc 3aea 9fbd
00000140: ca10 03be af45 f63d d85f bb3d b4f0 f73d
00000150: 664f acbd d3e8 2fbd 6747 dbbc 2342 c0bd
00000160: 8853 b33d 6cbc a6bd 77d3 ed3d b1d1 c4bd
00000170: c2bb 213a 8b7e af3d a0df 63bd 37c9 463d
00000180: 9713 8dbd 3e06 7abc c811 b3bd 45d9 e7bd
00000190: b58b c93c df70 12be 5592 453d e9c1 0fbe
000001a0: 70d6 8b3d bc3d 81bd f2fd 83bd 3061 a23d
000001b0: 5769 853c a7df 0fbd 27e0 133d e07c babd
000001c0: 9e27 adbd b97d 29bd ac25 a13d 482a 9f3d
000001d0: f889 933d 1dda a03d f3e0 80bc 8905 b0bd
000001e0: fd84 96bc 22c8 bd3d 03c9 c53d 36ff ce3d
000001f0: 0e3a f7bd a22a c23d b105 f0bd d8bd dc3b
00000200: 2494 763d 6643 92bd 40df b13d d405 193d
00000210: 8677 dc3b 8aaa cebd 90b9 1cbe 5c86 bdbd
00000220: 4092 bebd e8c7 b93c 467d ef3d c0a3 edbc
00000230: 77a3 17be 6a0e 033d c92b c9bd 74dd 13bd
00000240: 5374 b6bc 91c6 713b fad3 0e3e 6458 1f3e
00000250: d240 ca3c 714e 35ba 0560 ec3c 5dc7 033e
00000260: a803 b83d 01f4 1d3d abdb ff3c db00 db3d
00000270: 04ed 31bd c520 89bd 0b80 a73d e328 cd3c
00000280: 6518 8bbd 59b5 5f3d b0ae fbbd cbc5 a13d
00000290: 1139 d93b 6f73 9abc 5233 50bd 4cf0 443d
000002a0: 75d2 473c dde6 65bd ff00 b1ba 9b59 b43d
000002b0: b5aa 523d 16d5 f63a 06bf 643d 8521 9dbc
000002c0: cc85 e6bd 678f 583d e9d0 c43d 1ae9 b0bc
000002d0: ebb1 103e 70dc 5d3d a4be 9d3d 95ed b4bd
000002e0: 85d5 c83b 9d71 b2bd 13ab df3d 8911 203e
000002f0: cc0c e6bc 3ffd bbbd 5201 ef3c f0f5 cf3d
00000300: d611 c93d 30df b4bd 9739 17bd d507 71bd
00000310: b7c8 973d a1e5 943d a965 bebc 23e4 703d
00000320: d376 c53d ba83 d5bd cb0a e2bd 5f87 ecbc
00000330: 9cd1 bfbd 451a f23d 85e7 043e e11a 8f3d
00000340: cb6a b3bd ea3a 853d 062d 1fbd 85ad 51bc
00000350: cba0 abbd 1276 efbc 2ef1 d03c 975d 53bd
00000360: 4ea5 e73b 57eb 06be c522 d83d 7e27 9abd
00000370: 5885 aabd 3695 11be bc4b 403c a114 943c
00000380: babd a73c 81a6 19be b52d 8f3d b5aa b93c
00000390: 94c2 a53d afdb c8bd dbdf 94bd bac8 053d
000003a0: 2d7a 99bd eb7f b33d 03f7 0cbe 31af abbc
000003b0: 18c0 8d3d 113c 51bd 350e e73c 35c2 0d3e
000003c0: 55cd 293c 1214 c53d 8b78 ed3d 3d2e 6bbd
000003d0: f40b bbbc d24f 52bd ef9d 943d 091f 9dbd
000003e0: e3f6 f7bd 9963 e7bd a0dc 10be 50bc 8dbc
000003f0: 1f23 3f3e a3c6 a3bc 6fcf 2c3d 6fc7 06bd
0.02929033 0.10333261 -0.03527793 0.0038552745 -0.056439657 -0.058014657 -0.04686274 -0.06787378
-0.027548537 -0.07537135 -0.083087064 -0.1098622 0.13174023 0.022497574 -0.04004959 0.0082286
-0.053353105 -0.09259125 0.07346582 -0.01935159 -0.107602865 -0.12461174 0.12950356 0.07345928
-0.10032038 -0.100828595 -0.056978665 -0.013674529 0.008498463 -0.009921491 0.11826165 -0.05221037
0.13498856 0.17644955 0.13360332 -0.058460902 -0.06643458 -0.08158151 0.121556334 -0.15081231
-0.14618 0.048065525 0.016199304 0.12639229 0.04821509 -0.18146323 -0.11667701 -0.10227032
0.11260268 -0.12994191 0.042718776 0.01777394 -0.08046842 -0.081121325 0.14147578 0.066345595
-0.13081014 0.03603271 0.090478525 -0.16905618 0.10869103 -0.018723398 -0.013060923 -0.031875968
0.09714435 -0.15009032 -0.01465706 -0.07793996 0.15612113 -0.14460671 0.054693114 0.01742148
-0.043720562 -0.07768501 0.035967875 -0.024346467 -0.024480382 -0.067178585 -0.02371647 -0.07808347
-0.12799373 0.1202501 0.0914914 0.12106457 -0.084135816 -0.042946648 -0.026767446 -0.093876146
0.08756167 -0.08141407 0.11612599 -0.09610308 0.00061696407 0.08569058 -0.055633187 0.048531737
-0.06888502 -0.015260277 -0.08743626 -0.11320738 0.02460275 -0.1430087 0.048235256 -0.14038815
0.0682801 -0.06310603 -0.064449206 0.07928693 0.016285582 -0.0351254 0.03610244 -0.09105849
-0.08454822 -0.041379664 0.078685135 0.077717364 0.0720405 0.07854102 -0.015732264 -0.08594806
-0.01837396 0.09266688 0.096574806 0.101072714 -0.1207162 0.09480788 -0.117198355 0.0067364983
0.06019987 -0.071417615 0.0868516 0.037359074 0.0067281155 -0.100911215 -0.15305161 -0.09254143
-0.09305239 0.02267833 0.11693816 -0.029008746 -0.1480845 0.03199617 -0.098228045 -0.036099866
-0.022272265 0.0036892036 0.1394805 0.15561062 0.024689112 -0.0006916291 0.02885438 0.1286902
0.089850724 0.03856278 0.031232676 0.106935225 -0.043438926 -0.066957034 0.08178719 0.02504391
-0.06791762 0.054616306 -0.12289178 0.07899054 0.0066291173 -0.018853871 -0.050830193 0.048080727
0.012196173 -0.05612837 -0.0013504325 0.088061534 0.05143233 0.0018831815 0.055846237 -0.019181022
-0.112559885 0.052871134 0.09610159 -0.021595526 0.1413037 0.054165304 0.077023774 -0.08834378
0.006128969 -0.08713076 0.10921302 0.15631689 -0.028082274 -0.09179162 0.029175434 0.10154331
0.09817855 -0.08831632 -0.036920156 -0.05884536 0.0741133 0.07270361 -0.023241835 0.058811318
0.096418045 -0.104255155 -0.11037215 -0.028873144 -0.09366152 0.11821417 0.12978943 0.069875486
-0.087606035 0.065053776 -0.038861297 -0.012797718 -0.08380278 -0.029231105 0.025505628 -0.051602926
0.0070692664 -0.13175713 0.10553507 -0.07527064 -0.083262146 -0.14217076 0.0117368065 0.018076243
0.02047621 -0.15004922 0.0699114 0.022664407 0.080937535 -0.09807526 -0.072692595 0.03266213
-0.07494006 0.08764633 -0.13766102 -0.020957561 0.069214046 -0.051082674 0.028205017 0.13843615
0.010363896 0.09622969 0.11595257 -0.057417143 -0.022832848 -0.051345654 0.07256686 -0.07671935
-0.12107637 -0.112982936 -0.14146662 -0.017301708 0.18665741 -0.019992178 0.04219001 -0.03290504

bias f4 [80]
00000000: f7cb 413d e130 c43d 3f1d f03d 26c9 d9ba
00000010: 8e55 713d 8f8f 13bd dc71 083d 173c 6cbd
00000020: a6dc 023e ae53 23be 142c 17be 2914 04be
00000030: 7f23 fdbd cd48 30bd a0ad 11be 7890 ea3c
00000040: 6444 cebc 0130 303d d885 283d fc7a 283c
00000050: 4275 1a3d f0dd 86bd 0eca 28be b1be efbc
00000060: acd8 0abe 2f57 31be 3e21 b53d ee8f f2bd
00000070: 29ec 95bd 9172 cebd 0909 16be 4888 febd
00000080: 0505 eb3d 5dc2 823d 7208 aabd 74c2 20be
00000090: 9046 043e 210d cf3d cbfd a83d eb6d 0c3e
000000a0: ba7c a63c 0616 8bbd 6c25 393d f786 23be
000000b0: c5fa 0f3d e67e a7bd 0c8a 283e f9e0 05bb
000000c0: 3e3a c8bd d538 dc3d a451 133e 5199 373d
000000d0: 694e 18be b478 3c3d 3bc3 63bd 0c84 e23d
000000e0: 9409 023d 572d b63d a233 07be af0b 4dbe
000000f0: 82da acbc 4e27 ec3d f6bf a13d cd1f 30be
00000100: 61f1 a13d 840c c3ba b13c 253e 9a72 9b3d
00000110: e4a5 02be 13ff 07be d6a5 02be 97d1 21be
00000120: e178 9d3d e44d 33be c200 12bc c03a 5c3d
00000130: d714 26be 5602 1ebe 68c1 d5bc 6e49 573d
0.047313657 0.095796354 0.11724328 -0.0016615733 0.058919482 -0.03602558 0.03331171 -0.057674494
0.12779483 -0.1594989 -0.14762908 -0.12898315 -0.12360286 -0.04303818 -0.14226389 0.028633341
-0.025179096 0.04301453 0.04114327 0.010283228 0.037709482 -0.065853 -0.16483328 -0.029265733
-0.13559216 -0.17318414 0.08844231 -0.11843859 -0.073204346 -0.100804456 -0.14651884 -0.12428337
0.11475567 0.06384728 -0.08302392 -0.15699178 0.12917542 0.10109926 0.08251532 0.13713805
0.020323146 -0.0679131 0.045201704 -0.15969454 0.03515126 -0.08178501 0.1645891 -0.0020428284
-0.09776734 0.10753027 0.14386612 0.04482395 -0.14873661 0.04601355 -0.05560611 0.11060342
0.031747416 0.08895367 -0.1320329 -0.20023988 -0.021100286 0.11530934 0.07897942 -0.17199631
0.079073675 -0.0014881049 0.16136433 0.07590218 -0.12758595 -0.13280897 -0.12758574 -0.15802608
0.076890714 -0.17510182 -0.0089113135 0.053766966 -0.16218887 -0.15430579 -0.0260932 0.052560262

weight f4 [5, 80]
00000000: 28eb d8bc f452 3fbc 08d5 8e3d d759 673d
00000010: a3fd 8c3d add8 a6bc b053 633c 3d8d 33bd
00000020: 5be6 943c 790d 8fbc 0494 c93c 8a90 4dbd
00000030: 1e25 263d f26f 67bd 46b5 69bd a118 04bd
00000040: 0ad5 16bc 990c 513c ec18 49bc 603b ccbc
00000050: 089e 81bd e12a 3b3d f88f 533d 4e6d 093d
00000060: 7a3a 1dbd 7945 e0bc 1826 1f3d fe17 643d
00000070: ce96 cc3c 8452 9f3d 3a9a 2b3c c362 1a3c
00000080: 9ee6 d33a 306f 9dbc 49a5 13bd e0b9 cc3a
00000090: 9036 e43c 7585 873d be4f a83c b623 0d3d
000000a0: 97a8 53bd cab3 033d 01ab c3bc 33de 4bbc
000000b0: 3050 07bd ce1a 273d 9d55 b2bc f2e7 3e3c
000000c0: 71c2 793c 8d11 cfbc 19c8 263c 0714 c7bc
000000d0: d294 c93c f579 323c e344 173d 0e88 41bd
000000e0: 7cd2 57bc b173 3abd 7f54 123d cc17 25bd
000000f0: e3c3 63bc ed30 11bd e6d9 54bd ee3e 05bc
00000100: dab2 ba3c f5ae cbbc d825 093d 517b 1ebd
00000110: 0f7a 593d 7c68 bb3b 5d61 4bbd e7b2 a3bb
00000120: 8f50 293d ef77 18bd bd6a f03b 57b2 113b
00000130: f6f6 863d 511c f4bc b7ad 01bd a52e 293d
00000140: 5baa 003d 00ab 1cbd f9c7 6d3d 2bf5 4ebc
00000150: e93d 4bbc 9a62 2e3d e322 bcbc 786e 473d
00000160: 6b2a 2a3d f9d2 14bc e757 03bd a252 87bc
00000170: 3416 983d b166 3fbd 5ec3 83bd 0520 c7bb
00000180: 0bfb 173d 8f24 dc3b 828a 97bc 9545 91bc
00000190: 6d4b 03bd 47df c63b 6447 3b3c c0f1 8e3c
000001a0: d844 12bc b239 9abc 5cd7 03bd e9ba 223d
000001b0: ce9b 93ba d51f 86bc fe92 a8bc 27f9 0d3c
000001c0: 8b5d 95bc 7a4f 443d 005b 993c 857b a8bc
000001d0: 0327 223d 7e9d 1f3d d9fa c83c 08c2 d63c
000001e0: 3f40 33bc 56bd a5bc 4bbd b23c e68c 70bc
000001f0: 5fd9 b53c 7d7e 28bd 23dc 833c 385e 6b3c
00000200: fdad 69bd 05b0 f23b 6306 b9bc c206 cb3c
00000210: 5441 9b3c 3c79 90bc 5578 09bd 185e bdbc
00000220: e7ba 1bbb fa97 16bd 755f 073b 327c 523d
00000230: 7588 2e3d 0207 163b 1a62 283d b892 36bd
00000240: c4f6 be3a 76be b83b 5a70 2e3d 707d 9f3a
00000250: 2f2c b23b 502f 983c 6f16 213c 43f9 fabb
00000260: 95a7 0cbd 212b cbba 2318 cf3c d624 e3bc
00000270: d7ab 883d 35fd d1bc ec08 7f3c 5fc4 e8bc
00000280: 40d9 1c3d 6ad1 b8bd d72a 6bbc 84bb 68bd
00000290: b787 b03c f890 633d 1754 12bc 23d6 e6bc
000002a0: ae8c b23c 9d0b 4cbd 340a b63c d6b8 2bbc
000002b0: 6363 6f3d ae6b 37bd 9ca6 72bd a4a5 913c
000002c0: 58d6 e33c 1028 503d c8da efbc f3ef 5abd
000002d0: f7a8 ad3b bf41 d13c c628 06bb b0e7 86bc
000002e0: dea9 f03b 1ddf ec3c b271 2abc 852c 80bc
000002f0: 53a5 ce3c b692 98bd 9f64 053d 088f 3fbd
00000300: 9ee0 123d 67ee d43c 9be3 443d 11ae 723c
00000310: 6dce 073d cf4d 7f3d 1ddc 20bc b3d4 0c3c
00000320: 8054 2bbd 31db 25bc 68cb 1d3c 6bac cb3c
00000330: 75d0 5a3c c813 4abd 67d6 d6bc dc0e e93b
00000340: b00f 7d3d 4468 72bb 7639 ebbc 2b41 523b
00000350: 3403 823d 8607 05bd 6b15 a8bd 8110 66bd
00000360: 1e40 e2bc a5a5 22bd 8358 503d bf4a 433d
00000370: f688 b3bc 6834 7abc 2dd4 95bc b30c 4b3c
00000380: 5bb8 243d a53d e0bb 6725 06bc a980 46bd
00000390: a110 c73c 48ed 32bd eb46 753d 101b cb3c
000003a0: fd06 6a3d 22e1 58bd 00d1 853c c954 0cbd
000003b0: c91f 0bbd 5428 2b3d 5f1d 04bd 0f7c 96bd
000003c0: 935d 20bd 711f 723d c198 c4bc ee95 043d
000003d0: 0c38 5a3c 0776 393b 78bc 9ebc 4079 8cbc
000003e0: f882 273d 0a88 d8bc ec44 ddbc efef 2dbb
000003f0: ab24 bd3b 5228 18bd 9ba1 233d 643c 313c
-0.026479319 -0.011677492 0.06974226 0.056482162 0.06884315 -0.020366991 0.013874933 -0.043835867
0.018176248 -0.017462479 0.024606712 -0.05018667 0.04056274 -0.056503244 -0.05705764 -0.03225005
-0.009206066 0.012759351 -0.012274008 -0.024930656 -0.0632897 0.04569519 0.05165097 0.033551507
-0.038385846 -0.027376877 0.03885469 0.055686943 0.024974253 0.077794105 0.010473782 0.009422961
0.0016166752 -0.019218057 -0.0360463 0.001561936 0.027858049 0.06617252 0.020545837 0.034457885
-0.05167445 0.032153882 -0.023885252 -0.012443113 -0.033035457 0.040797047 -0.02176934 0.01165198
0.015244112 -0.025276924 0.010179543 -0.024301542 0.024607096 0.010893335 0.03693093 -0.047248892
-0.013172742 -0.04552049 0.035725113 -0.040305898 -0.0139016835 -0.03544705 -0.051965617 -0.008132679
0.022790361 -0.0248637 0.033483356 -0.038691822 0.05309492 0.0057192426 -0.0496534 -0.004995692
0.041336592 -0.037223753 0.007336943 0.0022231543 0.06590073 -0.029798659 -0.031659808 0.04130425
0.031412464 -0.038249016 0.058052037 -0.012631695 -0.012404897 0.042574503 -0.022965854 0.048689336
0.04154436 -0.009083503 -0.032066252 -0.016518895 0.0742611 -0.046728794 -0.06433748 -0.006076815
0.037104648 0.0067182253 -0.018498663 -0.017733375 -0.032054354 0.006069097 0.011430595 0.01744926
-0.008927546 -0.01882634 -0.032187805 0.039729033 -0.0011261643 -0.0163726 -0.020577904 0.00866536
-0.018233081 0.047927357 0.01872015 -0.020566711 0.039587986 0.038968556 0.024533676 0.026215568
-0.01094061 -0.020231884 0.021818778 -0.01468203 0.022198377 -0.041136254 0.01609618 0.014365725
-0.057050694 0.007406237 -0.022586053 0.024783496 0.01895205 -0.017635934 -0.033562023 -0.023116156
-0.0023762526 -0.03676603 0.0020656262 0.051387973 0.042610604 0.002289236 0.041109182 -0.044573516
0.0014569391 0.005637939 0.042587616 0.0012168121 0.005437396 0.018577248 0.009832009 -0.007659109
-0.034339506 -0.0015500524 0.025280064 -0.027727526 0.06673401 -0.025633434 0.015566092 -0.02841395
0.038293123 -0.090243176 -0.0143534755 -0.056819454 0.021549089 0.055558175 -0.008931181 -0.02817828
0.021795597 -0.049815763 0.022221662 -0.01048108 0.058444392 -0.044780426 -0.059240922 0.017779179
0.027812168 0.050819457 -0.029279128 -0.05345149 0.005299683 0.025544045 -0.002047108 -0.0164679
0.0073444685 0.028914982 -0.010403084 -0.015646229 0.025225317 -0.07449858 0.032566663 -0.046767265
0.035858743 0.025992585 0.048068624 0.0148120085 0.033155847 0.062330063 -0.009818104 0.008595633
-0.041828632 -0.01012306 0.009631015 0.024862489 0.013355364 -0.04933527 -0.026225282 0.007112367
0.06178254 -0.0036988417 -0.028713923 0.00320823 0.06348267 -0.032477878 -0.0820721 -0.056168083
-0.027618464 -0.039708752 0.05086566 0.047678705 -0.021915894 -0.015271284 -0.01828965 0.012393164
0.040214878 -0.006843286 -0.008187628 -0.048462544 0.024299921 -0.04368332 0.059882086 0.024793178
0.05713557 -0.05294908 0.01633501 -0.034260545 -0.03396586 0.041786507 -0.032254573 -0.07347881
-0.03915174 0.059112016 -0.02399862 0.032369547 0.013319027 0.002829911 -0.019376978 -0.01714766
0.040896386 -0.026432056 -0.027010404 -0.0026540717 0.0057721934 -0.037147827 0.03994904 0.010817621

bias f4 [5]
00000000: 66d9 a0bb e146 12bd 117f 143d 7da2 073c
00000010: e503 693d
-0.0049087284 -0.035712127 0.036253992 0.008278486 0.05688848
