final_project/mlruns/1/ebe1fc192111431d8f769d28b68a503e/artifacts/cvae_35/data/model.pth (torch, 48071 bytes, 10 tensors)

weight f4 [80, 10]
000000 9c a3 71 bd e6 60 a0 3e 39 24 b0 3d 44 b9 72 be
       -0.05899392 0.31323928 0.08600659 -0.23703486
000010 a6 fd 08 3e 74 ca ac be 3e f0 45 3e 7b 92 37 3e
       0.13378009 -0.3374821 0.19329926 0.17926972
000020 a3 71 92 be b9 fa 4f 3e 99 dd 52 3e 34 7f 48 be
       -0.28602323 0.20310487 0.20592345 -0.19579774
000030 b8 67 72 3e d7 0d 1c 3d 51 4a 6c 3d 77 ab 07 3e
       0.23672378 0.038099136 0.05768806 0.13249002
000040 fe 0f 97 3e 6a 37 13 3e 32 42 90 be 0e 5b ae 3e
       0.2950439 0.14376608 -0.28175503 0.34053844
000050 9c 29 7a be eb e4 73 be 96 dd 19 3e 1b c1 88 3e
       -0.24429935 -0.23817794 0.15025935 0.26709828
000060 22 f8 6a be 48 2c 7a 3e c4 9f bf bd 2a 1f 78 3e
       -0.22946218 0.24430954 -0.09356645 0.24230638
000070 a9 ce 02 3e b5 19 cb bb 81 d9 d4 3d 37 d2 81 3e
       0.12774147 -0.006198133 0.10393048 0.25355694
000080 8c 3e a3 3d 60 18 c2 3d 61 5c 8e bc ed d8 0e 3e
       0.07970914 0.094773054 -0.017378034 0.13949938
000090 bb 61 9a be 03 36 27 be 6e 9e 93 be b5 57 77 3c
       -0.30152687 -0.16329198 -0.2883181 0.015096595
0000a0 2d e9 4f be eb f9 b4 bd 1d d3 63 bd c6 2e 73 bd
       -0.20303793 -0.088367306 -0.055621255 -0.05937078
0000b0 3c d1 1c bd 6a 89 7f be 12 aa 7e 3e 6b 08 92 3e
       -0.03828548 -0.24954763 0.24869564 0.28522047
0000c0 2d 24 c9 3d 99 4a 2f 3e 5e ad 80 be 59 11 6d 3e
       0.09821353 0.171183 -0.2513227 0.23151149
0000d0 38 3a 5a be bd e5 1a be 48 60 b6 3e a8 6a 8a 3e
       -0.21311271 -0.151267 0.35620332 0.27034497
0000e0 6d 30 1a 3e 2f 65 26 3d b3 4e 9d be 13 6a e3 bd
       0.15057535 0.04062384 -0.30724105 -0.111042164
0000f0 7c 8c 41 be 4c 84 98 3e 06 d3 04 3c db 68 91 3e
       -0.18901247 0.29788435 0.0081069525 0.2840031
000100 58 b8 e8 bd 2b 1b 81 3e 79 63 a0 3e 8d c3 7f 3d
       -0.11363286 0.2521604 0.31325892 0.06244235
000110 bc e5 6a 3e 6c c6 69 3c 14 55 3e 3e d5 71 f0 3c
       0.22939199 0.014268499 0.18587142 0.029351154
000120 c3 d0 9d 3d e3 d0 9f bc 4d 02 80 3e 2b 02 6b 3e
       0.07705834 -0.019508785 0.25001755 0.22950046
000130 e6 c3 51 3e c7 ac f8 3d 81 47 8e 3e 7f 6b 80 bd
       0.20484886 0.1214233 0.27788928 -0.06270503
000140 93 03 86 be d5 66 07 3e f5 f3 42 3e e0 ab 8f be
       -0.26174602 0.13222821 0.19038375 -0.28060818
000150 59 7c a6 3d cf 24 34 3e b7 26 1a be 9e 7f 07 be
       0.08129186 0.17592166 -0.15053831 -0.13232276
000160 06 61 26 be ad 0b 4d 3e e2 ff f7 bd 97 c8 98 3d
       -0.16247949 0.20023985 -0.12109353 0.074601345
000170 f7 1e 1d be 9f 2d 6a be 1f 2d 91 3e 4b a8 41 bd
       -0.15343843 -0.22868966 0.28354737 -0.047279637
000180 da 18 5c 3e a0 71 f8 3c 47 32 99 3e b1 06 98 3e
       0.21493855 0.030327618 0.2992117 0.29692605
000190 9a 02 86 be 4c 28 da bd 0e 1e 96 be bd 13 8a 3d
       -0.2617386 -0.10652217 -0.29319805 0.06742046
0001a0 3e 5d 8c 3e f6 34 94 be 15 94 c6 3d cd fa 66 bd
       0.27414888 -0.28946656 0.09696213 -0.056391526
0001b0 5d 5f a1 bd c5 3e 9d 3e 72 88 8c 3b 05 5e f7 3d
       -0.07879517 0.30711952 0.0042887265 0.1207848
0001c0 96 fd 14 3e f7 ca e3 bd 3f 49 23 3e 8a 60 17 be
       0.1454986 -0.11122697 0.1594591 -0.1478292
0001d0 40 46 bf bd 11 5b 20 be ce 78 0e be a9 99 85 3e
       -0.09339571 -0.15659739 -0.13913271 0.26093796
0001e0 e6 19 76 be 25 57 40 3e 94 0e 01 be 1e 22 8d be
       -0.24033317 0.18783243 -0.12603217 -0.27565092
0001f0 ea 6a 11 3e 2b 14 39 bd b0 e0 bc 3d 31 c3 94 bd
       0.1420094 -0.04518525 0.09222543 -0.07263792
000200 04 c3 81 bc a9 0c a1 be f5 b4 9f be 7c ec a4 bd
       -0.015840061 -0.3145497 -0.31192747 -0.08052918
000210 c6 ad 4e be ee b8 9e bd 4c d2 9b 3e ef 09 00 be
       -0.20183477 -0.07750116 0.3043388 -0.1250379
000220 19 f1 44 be 2f 81 38 3e ce aa dc bd 0f 74 c6 bd
       -0.19232596 0.1801803 -0.10774766 -0.09690105
000230 60 03 c7 bd fa 7c 9a 3e c2 0d 38 3e 15 bd 9e be
       -0.097174406 0.30173475 0.17973998 -0.31003633
000240 c7 19 0b 3d 8d 67 69 bd 7c 5e 90 be 68 94 a7 bb
       0.03396013 -0.05698352 -0.28197086 -0.005114127
000250 9f 9d 6d be c6 19 73 3e e7 a9 a5 be 15 27 83 be
       -0.23204659 0.237403 -0.32356188 -0.25615755
000260 94 8f 70 3e 9f 99 f4 3c 15 87 8d be 78 c2 9d 3d
       0.2349227 0.029858408 -0.27642122 0.077031076
000270 f0 48 88 3e 19 bf 59 3e 04 56 81 be ad d9 56 3e
       0.26618147 0.21264304 -0.25260937 0.20981474
000280 cc 43 df bc 1f 49 6d be 83 41 4a bd 33 d2 9f 3d
       -0.027254008 -0.23172425 -0.049378883 0.07803764
000290 6b f8 16 be 77 e2 91 be 05 b3 e4 3d f6 d2 27 3e
       -0.14743201 -0.2849309 0.11166958 0.16389069
0002a0 c5 b6 76 3e 4d 02 96 3e 5a cb f1 3d 65 b5 8e 3e
       0.24093159 0.2929863 0.11806364 0.27872768
0002b0 c7 03 75 be bb b6 c9 bd 3d 65 a5 bd 3e 55 34 be
       -0.23927222 -0.09849306 -0.0807595 -0.17610642
0002c0 da 85 9f 3d c2 96 8a bd ac 10 0c be 44 7e 63 3e
       0.07789202 -0.06767036 -0.13678235 0.22216135
0002d0 5d c3 43 3e d1 7e 7b bd ba 31 23 3e 5f ca 97 3d
       0.19117494 -0.06140024 0.15936938 0.07411646
0002e0 ca a3 92 3e 91 c5 f7 bb a5 e3 8e 3c a3 de 81 3e
       0.28640586 -0.0075613935 0.017442534 0.2536517
0002f0 f0 3b 83 3b fe 78 91 3e cf 10 98 3c 8c 07 99 be
       0.004004948 0.28412622 0.018562702 -0.2988857
000300 78 27 92 3e d2 2b 65 3e 1c 43 ed bc a4 ab 14 be
       0.28545737 0.22379997 -0.028962664 -0.145186
000310 17 f0 c8 3d 93 a6 32 bd c4 a4 1c bc 1a e8 fe 3c
       0.098114185 -0.04361589 -0.009560768 0.031116534
000320 3d 55 9e 3e 18 b0 25 3e 5a e3 ab 3d 54 79 0a be
       0.30924407 0.16180456 0.08392973 -0.13522846
000330 eb 5b 8d bd 91 8b 38 be 59 2b 9b bc 1f a4 db 3d
       -0.069022976 -0.1802199 -0.018941568 0.10724663
000340 16 1d ea bd 21 55 1b be b2 24 4b be 3f e0 c8 3d
       -0.11431329 -0.15169193 -0.19838217 0.098083965
000350 7e 40 6b be 68 64 7f 3e 28 1d 86 3e ba 0b 22 3e
       -0.2297382 0.24940646 0.2619412 0.15824786
000360 2d 01 41 3e dd f8 19 be 18 c5 e2 3c e8 95 f4 3d
       0.18848105 -0.1503634 0.027681872 0.11942655
000370 ab eb 22 3e 95 eb 1c 3e ae e9 84 be d2 62 9d be
       0.15910213 0.15324242 -0.25959533 -0.30739456
000380 5a 79 06 3e 2a 2e 4b be 0d 79 29 be 15 b9 30 3e
       0.1313223 -0.19841829 -0.16550083 0.17258103
000390 0e c6 85 be 27 aa cb 3d 72 25 ed 3d 9c 7e 2e be
       -0.26127666 0.09944563 0.11579408 -0.17040485
0003a0 5d 2e 71 bc 56 3e 81 bd a6 35 2c 3e 8f 14 ef 3d
       -0.0147205265 -0.06310718 0.1681734 0.11673843
0003b0 a9 0e 91 be 62 f4 6b 3e 71 c4 90 3e b8 6b 90 be
       -0.28331497 0.23042443 0.28274873 -0.28207183
0003c0 d7 db 32 be b9 e5 43 3e 0d 0a 97 be d4 4a 38 bd
       -0.17466675 0.19130601 -0.29499856 -0.044993237
0003d0 74 6f 79 be 94 09 42 bd 2b a7 dc 3d 5e 47 d2 bd
       -0.24358922 -0.047372416 0.10774072 -0.102675185
0003e0 52 1b c7 bd 41 09 08 be 07 97 9a bb 1d a8 8d 3e
       -0.09722008 -0.1328478 -0.004717711 0.27667323
0003f0 54 72 e1 bd 3e 5e 9b be 49 ef 21 be 6d 2e 44 be
       -0.110081345 -0.3034534 -0.15813936 -0.19158335

bias f4 [80]
000000 46 d7 8b 3e e9 00 da 3e de 10 fd 3e 64 3d 23 be
       0.27312678 0.4257882 0.4942693 -0.15941387
000010 fe 23 0e be 22 dc c6 3e 06 15 55 be a6 25 d6 3e
       -0.13880917 0.38839823 -0.20808801 0.41825598
000020 15 25 82 be 68 68 f0 bd d2 ca 80 bd 84 95 d1 bc
       -0.25418916 -0.11738664 -0.06288685 -0.02558399
000030 92 2c 8e bd f9 74 af 3e 7b ee 03 be c4 03 43 3b
       -0.06942095 0.3426893 -0.12883942 0.0029756883
000040 bd df 93 be 6f d7 35 be c9 a1 85 bc ba 13 75 3e
       -0.28881636 -0.17757963 -0.016312497 0.23933306
000050 3c e6 de bd 85 82 5c be a0 49 c4 3e 77 64 20 be
       -0.108837575 -0.21534164 0.3833742 -0.15663324
000060 58 fd c0 3e 5f 3c ac 3e e0 7d 90 3e d5 fb 86 be
       0.37693286 0.3363981 0.28221035 -0.26364008
000070 92 08 a2 3e a4 28 04 bd 2f 9b 1b be 33 da 70 be
       0.31647164 -0.03226532 -0.15195917 -0.23520736
000080 5e 64 74 3e dc 4b ce 3e 06 6e f0 3e 97 78 ad 3e
       0.23866412 0.4029225 0.4695894 0.33881065
000090 86 f4 a4 bd 66 b5 3e be 42 ba 0c 3f 2d 57 e0 3e
       -0.08054452 -0.18623886 0.54971707 0.4381651
0000a0 de ab a9 3e c4 72 9b be a1 04 ca 3e 1d 55 54 be
       0.33138937 -0.30360997 0.39456657 -0.20735593
0000b0 67 68 a5 3e 5e 7e 9b 3e 26 24 ff 3e 48 86 d2 bd
       0.32306215 0.30369848 0.49832267 -0.10279518
0000c0 e9 23 03 3f de d4 2a be 61 5d 01 3f 6f 7e f8 bd
       0.5122667 -0.16682765 0.5053311 -0.1213349
0000d0 13 a7 91 3e 10 2e 9d 3e c4 3e e0 3e eb 34 d3 3e
       0.2844778 0.30699205 0.43797886 0.4125131
0000e0 36 3d de bd 91 67 70 be 14 2b 60 bd 88 bb af 3e
       -0.10851519 -0.23477007 -0.054728583 0.34322762
0000f0 28 de 86 be 9a 5e 41 be 2b bb 19 be 59 27 a9 3e
       -0.26341367 -0.18883744 -0.15012805 0.33037832
000100 28 4e fe 3e 8b 76 3a bd d4 1b 97 3e 17 d0 b9 3e
       0.49669003 -0.045523208 0.2951342 0.36291572
000110 81 65 a2 3e d7 3c 2a be 87 e6 fb 3e ac 58 b1 3e
       0.31718066 -0.16624771 0.49199316 0.34637964
000120 7f ed dc 3e 84 ee ab 3e 3e e9 9d 3e 47 26 4d bd
       0.43149945 0.3358041 0.30842012 -0.050085332
000130 09 47 97 3e b2 dd 24 be 80 7a 98 3e 25 55 9d be
       0.29546383 -0.16100195 0.2978096 -0.30729023

weight f4 [40, 80]
000000 08 28 0f be 17 64 07 be 21 4e 12 be 1a 92 75 3d
       -0.13980114 -0.13221775 -0.14287616 0.059953786
000010 9c 09 63 3c 22 11 fb bd d9 18 b4 3d a5 28 af 3c
       0.0138572715 -0.12259127 0.08793802 0.021381686
000020 5b c9 f4 3b 81 6b 68 bd d2 e0 e7 3c 92 73 23 3c
       0.0074702925 -0.05674315 0.028305445 0.009976285
000030 db 76 5b bd 6b 22 08 be 6c e6 17 3d c5 fa f1 bd
       -0.053580146 -0.1329438 0.03708498 -0.118154086
000040 34 5d e2 3d 1c c0 df bd 48 33 94 bd e8 ca 80 bd
       0.11052933 -0.10925314 -0.072363436 -0.06288701
000050 23 b2 3b bd da 5c c5 3d 92 53 fa bd 70 ba 0d bc
       -0.04582418 0.09636851 -0.12222971 -0.008650407
000060 3f c3 59 3d 68 c2 14 bc d5 cb 1f be f3 ad c8 bd
       0.053164717 -0.009079553 -0.156051 -0.09798803
000070 cd b2 4f bc 12 b9 9c 3d 70 64 6a bd bd 72 5d bd
       -0.012676907 0.07652487 -0.05722469 -0.0540645
000080 e8 07 17 bc 85 7b 88 bc 73 7d c5 bb 69 0f 14 be
       -0.009218194 -0.016660461 -0.0060269176 -0.14459004
000090 ba b1 fc 3c 83 9b 91 bd dc 8e 87 bd 4a 76 80 bd
       0.030846465 -0.0710974 -0.06619045 -0.06272562
0000a0 8c cf 5f bd 00 45 50 3d c9 f3 f8 bd a8 75 81 bb
       -0.05464129 0.050847054 -0.12155873 -0.0039507933
0000b0 75 21 75 bd 3b 3a f5 bd e9 06 fc bd b3 18 84 3d
       -0.05984636 -0.11973997 -0.123060055 0.064500235
0000c0 51 2d e7 bd 0d 38 2d bd 85 a9 42 bd b9 f0 c4 bd
       -0.1128794 -0.042289782 -0.047524948 -0.09616227
0000d0 60 69 fc 3c 14 03 48 bd 6a b8 cd 3c 76 9a b4 bd
       0.030811965 -0.04883106 0.02511235 -0.088185236
0000e0 1d 3f b3 3d 5f 36 af bd 3b d7 1d bd 3f 75 d7 bd
       0.08752272 -0.08555292 -0.038535338 -0.1052041
0000f0 90 ab 5d bd e3 be 93 bd fe 49 bb 3b 97 e5 82 3c
       -0.054118693 -0.07214143 0.0057156077 0.015978618
000100 49 4d 5e 3d af 31 3f bc 9c 22 01 be d4 24 9d bd
       0.054272924 -0.01166956 -0.12610859 -0.0767304
000110 7c 64 2f be d7 80 fd 3b 85 13 1c be 88 45 af bd
       -0.17128175 0.007736306 -0.15241821 -0.08558184
000120 ad 2d a6 bd fe 1c e5 bc 60 5f 28 be 17 26 52 bd
       -0.08114181 -0.027967926 -0.16442633 -0.051305857
000130 c7 2d 11 be 32 68 e3 bc 41 12 f5 bd 46 ee f0 bc
       -0.14177619 -0.027759645 -0.11966372 -0.029410493
000140 d5 5a 27 bd f6 c1 d4 3c 0c e4 1a bd 7e 30 5d bd
       -0.04085811 0.025971394 -0.03781514 -0.054001324
000150 f4 51 da bd 3e 1b b7 3c 47 0e e2 3d 97 2e ed bb
       -0.106601626 0.022351857 0.110378794 -0.00723822
000160 84 24 dd bc c7 da f7 bc 23 af a7 bd c5 40 8c 3d
       -0.026994951 -0.030255688 -0.081877016 0.06848291
000170 bd 3a b0 bc b1 ed 8d 3d 89 a6 1c 39 12 d0 0e bd
       -0.021512384 0.06930102 0.00014939359 -0.0348664
000180 3c b6 95 3d 05 84 85 3d 8a d7 94 bd b4 cf f2 bc
       0.07310149 0.06519321 -0.07267673 -0.029640056
000190 6d ae ed 3c 2c e9 9b bc 15 a5 5c bd 97 af d3 bd
       0.029013837 -0.019032083 -0.053868372 -0.103362255
0001a0 47 58 c3 bc b2 4f 21 3c 7a f6 bc bd 0e fe d8 3d
       -0.023845805 0.009845661 -0.09226699 0.10595332
0001b0 f9 1d 8b bd f2 c4 44 bd d0 6b 85 3d dc 15 d0 3d
       -0.06792826 -0.048039384 0.06514704 0.10160419
0001c0 7d 0f c8 3d e1 c7 c0 bd 56 f6 a8 3d 78 ae c3 3d
       0.09768579 -0.09413124 0.0825011 0.09554762
0001d0 0a 92 b5 3c da 48 8f bd d7 2e 3a bd fd 9a c8 bc
       0.022164363 -0.06996317 -0.045454826 -0.024487967
0001e0 3a e6 87 3d 1d 25 f1 3c 3b 57 91 3d b0 42 0f 3d
       0.06635709 0.029436642 0.07096716 0.034975708
0001f0 75 d2 b7 3d fb 29 cb 3d 02 53 9b 3d e0 94 4b bc
       0.08975688 0.099201165 0.07584192 -0.012425631
000200 e4 83 c9 3d 3e b5 4b 3d 98 f6 bd 3d 08 eb ba bd
       0.09839609 0.049733393 0.0927555 -0.0912686
000210 2d c2 e2 bd e3 08 a5 3c 67 38 cb bd 02 0c 08 3d
       -0.11072192 0.02014584 -0.09922867 0.033214577
000220 d9 3e 56 bd c8 0d 29 bd 3e e0 0e 3d 14 67 56 bd
       -0.05230603 -0.04127291 0.034881823 -0.052344397
000230 15 11 60 3d 1a 24 83 bd 29 33 08 3d f6 16 7e 3d
       0.05470379 -0.0640337 0.033251915 0.062033616
000240 bb a5 9b bb 7d 26 86 bd 02 09 41 bd f5 ae 21 bd
       -0.004749981 -0.0655031 -0.04712773 -0.039473493
000250 7b 3c 89 3c e9 cd 2e bd 4f 65 a6 bd 12 3d e3 bd
       0.016752472 -0.04267684 -0.08124792 -0.110956326
000260 d4 67 29 bd 36 23 df bd 05 30 af bc f6 05 e2 bd
       -0.041358784 -0.10895388 -0.021385202 -0.11036293
000270 29 69 f2 3c 99 d4 29 3c d9 8f 5b bd 5d 3c 32 3d
       0.02959116 0.010365629 -0.05360398 0.0435146
000280 92 21 c1 bd 4f d8 cc bd 6e 5d 91 bd bc 0c a1 3d
       -0.09430231 -0.10002195 -0.070978984 0.07863757
000290 0a 14 a8 bd 97 b5 05 bc d6 55 73 3c 1e 64 cc bd
       -0.08206947 -0.00816097 0.014852008 -0.09980033
0002a0 c7 21 86 bd d2 98 55 3d 92 e9 75 3d d3 20 8d bd
       -0.06549411 0.052147694 0.060037203 -0.06891026
0002b0 b5 93 87 3d 0f 52 31 bd cd 91 d7 3d b7 c3 14 bd
       0.0661997 -0.043291148 0.10525856 -0.03631946
0002c0 71 83 93 bd 74 e3 41 bc f2 39 84 bd fe df b9 bd
       -0.07202805 -0.011834014 -0.06456365 -0.09075926
0002d0 2f 53 40 bd c9 b4 5e bd ad 1c 0e be 39 68 9d bd
       -0.04695433 -0.05437163 -0.13878126 -0.076858945
0002e0 3c 86 76 3b cf f0 d3 bd 59 34 4e bd 23 95 8f 3d
       0.003761663 -0.10348665 -0.05034289 0.070108674
0002f0 c8 87 40 bc 59 a1 9e bd 8b 99 5b bc 9f 7d cf bd
       -0.011751123 -0.077456184 -0.013403307 -0.10131382
000300 68 48 fa 3a ff 4f 53 3d 29 c1 40 bd 45 18 fb bd
       0.0019095065 0.051589962 -0.047059212 -0.122604884
000310 56 45 9e bd 93 13 53 3d 59 d6 7c bb 31 95 23 3d
       -0.077280685 0.05153234 -0.003857991 0.039937202
000320 2c e4 3c bd 04 60 49 bd 09 b0 8e bd 65 95 90 3d
       -0.04611604 -0.049163833 -0.0696717 0.07059745
000330 22 ee 41 3d f3 94 f5 bd 21 33 9a 3d c9 dc 39 3c
       0.04734624 -0.119913004 0.07529283 0.011344143
000340 e6 d0 c6 bd ad 1b 2b bc 1a e3 95 3d 71 2d 70 bc
       -0.09707813 -0.01044361 0.07318707 -0.014659272
000350 ce 7f a6 bd fe 42 6d bd c9 c8 ff 3b cb 41 53 3d
       -0.081298456 -0.057925217 0.007805918 0.051576417
000360 d3 c1 af 3b 01 fb 81 bd 5c e0 74 3d 2f 45 c6 3b
       0.005363682 -0.06346703 0.05978428 0.006050728
000370 1e b6 6e 3c 2f fb 14 3d 17 a8 79 3d 7a 8f 8b 3d
       0.014569787 0.03637236 0.06095132 0.06814475
000380 b2 c3 bf bd 93 6e c8 bd 8c e9 89 bc 71 a7 d9 bd
       -0.09363498 -0.09786715 -0.016834997 -0.1062764
000390 dd 64 99 bd f4 7b e0 bb 56 12 40 bd 77 92 34 bb
       -0.07489941 -0.006850714 -0.046892487 -0.002755312
0003a0 7b 65 41 bd 4c bd 22 bd 79 83 0b be 0b f4 bd bd
       -0.04721592 -0.03973131 -0.13624372 -0.09275063
0003b0 83 30 c3 3c 14 a6 52 bd b9 ce 0d be d2 f7 b8 bd
       0.023826843 -0.051427916 -0.1384839 -0.09031643
0003c0 32 9e c8 3d 98 60 4d 3d 8b 85 fe bc ce d7 a7 3d
       0.09795798 0.050140947 -0.031069538 0.08195458
0003d0 a5 f4 e1 3d ec d9 88 3d 17 78 5e bc 8d 95 a3 3d
       0.1103299 0.0668219 -0.013578436 0.07987509
0003e0 9a 2c 52 bc 84 9c c9 3d 7e af 5c bd 8c 4c 96 3c
       -0.012828017 0.09844306 -0.0538783 0.018347047
0003f0 a0 aa 3f bd 69 4c 0a bc b2 60 86 3d c2 ab 3a bc
       -0.04679358 -0.008441069 0.06561412 -0.011393489

bias f4 [40]
000000 91 97 8b 3c 8b 4e 46 bd cb 35 fa bd 8d 3d 5d bd
       0.017040046 -0.04841475 -0.122172914 -0.054013778
000010 79 6b 4d bd 82 9d 80 bc 2e 6e bc 3d 3a 59 35 3d
       -0.050151322 -0.015700106 0.092007026 0.044274546
000020 a4 75 a7 3d 01 24 69 bd 6e 80 e5 3c f6 e2 89 bd
       0.08176735 -0.0569191 0.028015342 -0.067327425
000030 d1 21 a0 3d bf 5f d0 3d 8b 3d da 3d d8 07 5e 3c
       0.0781895 0.10174512 0.1065627 0.013551675
000040 a0 b0 2b 3d 52 60 8f 3c f9 d2 9e 3d ef 67 c0 bd
       0.04191649 0.017501984 0.077550836 -0.09394824
000050 08 e2 c5 3d 20 a6 c6 3b 50 15 cf 3d 18 ab 05 bd
       0.09662253 0.006062284 0.10111487 -0.03263387
000060 36 e7 aa 3d b0 1f 2f 3d 09 53 b3 3d ad f2 8c bc
       0.08344881 0.04275483 0.08756072 -0.01720556
000070 c3 66 fd 3d b0 cf 9e bc 41 08 3f bc 35 dd f9 3d
       0.12373116 -0.019386142 -0.011659683 0.12200395
000080 08 66 a3 3d e3 37 c5 3d a5 ef b4 bb 52 d4 d0 bd
       0.07978445 0.096298 -0.005521732 -0.10196747
000090 ee c7 2a bd ef 1c 1c bd b2 1b d8 3b bf 2e 6d 3d
       -0.041694574 -0.03811353 0.0065950984 0.05790591

weight f4 [40, 80]
000000 74 5a 6f bd 84 43 97 bc 5b a4 6b bc 45 7d 52 3c
       -0.058435872 -0.018464811 -0.014382447 0.012847249
000010 51 3d 23 3d 46 e6 36 bd 39 1a 93 bd 10 73 e2 bd
       0.039853398 -0.0446532 -0.07182736 -0.11057103
000020 e8 93 c1 3c bd 47 ae 3d 1f 94 54 bd 7b 86 e2 bd
       0.023630098 0.08509777 -0.05189907 -0.11060806
000030 75 a7 a7 bd 9b f7 46 be 10 40 9f 3d 9f 79 87 bc
       -0.08186237 -0.19430391 0.07775891 -0.016537486
000040 4c d4 a9 3d a6 e3 b5 3d c0 1f 22 bd dd e7 ee bd
       0.082924455 0.08881311 -0.03958106 -0.11665318
000050 51 ab ba bc a9 90 ca bd 63 cf 3f be 00 b8 90 bd
       -0.022786768 -0.09890873 -0.18731456 -0.07066345
000060 c5 c0 d0 bd a6 60 8a be e8 6d 44 be ce 51 a0 3d
       -0.10193018 -0.27026862 -0.19182551 0.07828103
000070 b5 5f 18 be eb 9a c0 bd cb 20 9c bd 28 4b ae 3d
       -0.1488026 -0.09404548 -0.07623442 0.08510429
000080 88 56 e0 bd 1d 53 11 be 28 18 54 be 3c 75 41 bd
       -0.109540045 -0.14191861 -0.2071234 -0.047230944
000090 87 13 b1 3d 2e 17 63 bd bd f5 8f bd 14 c3 cd bd
       0.08646303 -0.055442028 -0.07029293 -0.10046974
0000a0 fd ce 19 be 5b 6e 8d bd 4e fa 27 be cd 85 29 bd
       -0.15020366 -0.06905814 -0.16404077 -0.041387368
0000b0 7c 2b 86 be 85 9f 53 be 70 d0 40 be f7 44 c1 bd
       -0.2620505 -0.2066632 -0.18829513 -0.09436982
0000c0 19 25 4e be 2f ab c2 bd 94 71 23 be c3 59 eb 3c
       -0.20131339 -0.09505307 -0.15961295 0.028729325
0000d0 6a d0 69 be 02 ea 87 be 8b 78 8c bd 56 72 12 be
       -0.2283341 -0.2654572 -0.06858929 -0.14301428
0000e0 04 83 9a 3d 1d 72 c2 bd 23 f7 b4 bd 06 ee e3 bc
       0.075445205 -0.09494422 -0.088362 -0.02782346
0000f0 f0 c7 ca bd 08 6c 91 3d 7a 4b 44 bd e3 7d 16 bd
       -0.09901416 0.071006835 -0.047923543 -0.03674115
000100 22 e6 58 be ee 47 28 3d b1 7d 61 be 05 e5 a4 bd
       -0.21181539 0.041084222 -0.22020604 -0.080514945
000110 1f 13 88 be 74 e3 b1 3c fa 2b 42 be 6f 03 66 be
       -0.26577088 0.021714903 -0.18962088 -0.22462247
000120 5e cc 3d bd 51 5a 70 be aa 25 38 be f4 2e 93 3d
       -0.046337478 -0.23471953 -0.17983118 0.0718669
000130 97 f1 3d be 75 5e 3d bd ab 66 50 be 4b 43 b4 bd
       -0.1854919 -0.04623266 -0.20351665 -0.088018976
000140 36 ed 6a be 44 41 29 bc 20 b1 15 be ab 56 51 bc
       -0.22942051 -0.010330502 -0.14618349 -0.012777011
000150 ed 4e 9c bd b8 d3 61 be 54 a4 93 bd 96 d9 02 be
       -0.076322414 -0.2205342 -0.072090775 -0.12778315
000160 06 7d c6 3d 45 86 96 3b 52 ec f5 bb 24 bb c8 bc
       0.09691815 0.004593643 -0.007504978 -0.024503298
000170 be cd a2 3d f9 09 a1 bd f7 cc cb bd d5 39 07 be
       0.079493985 -0.0786323 -0.09951203 -0.13205655
000180 29 9d c7 3d 08 8c 09 3d bc a9 9c 3d fb fb 45 be
       0.09746773 0.03358081 0.07649562 -0.19334404
000190 5c 9f e3 3d 86 3d 77 bc 0f 9e 68 bd 99 4a 16 3d
       0.1111438 -0.015090352 -0.05679136 0.036692236
0001a0 1e ff 3f be 9f a4 a7 be 18 d1 f9 bd 45 02 3b bd
       -0.18749663 -0.32742783 -0.121980846 -0.04565646
0001b0 3d a0 cc bd f5 0b b9 bd bd f1 9b 3d 6d 9f 1d bd
       -0.099915005 -0.09035484 0.07614467 -0.03848212
0001c0 c4 4d 61 be 74 64 48 be 8e 3e 85 bd a7 87 1b be
       -0.22002321 -0.1956957 -0.06506072 -0.15188466
0001d0 ba fd 5e 3d 07 10 8f 3c be 0f 0f be 83 32 b9 bd
       0.05444119 0.017463697 -0.13970849 -0.090428375
0001e0 55 39 fc bd e1 3e 84 bc 8b c6 53 be 6e 61 16 3c
       -0.12315623 -0.016143264 -0.20681207 0.0091785025
0001f0 8f 2c 32 be 44 fd ee bd 96 bb 38 be 31 9b b0 3d
       -0.1739981 -0.116694 -0.18040308 0.086233504
000200 e0 8a d5 bd c1 b7 d4 3d 19 37 74 bb f0 b8 a1 bc
       -0.10426879 0.10386611 -0.0037264286 -0.019741505
000210 17 07 4b bd 9f 93 cd bd 82 2b b8 bd 8d ea 3f be
       -0.04956731 -0.10037922 -0.089926735 -0.18741818
000220 77 c2 94 3d dc a3 4c bd 38 55 ab 3d 1d 08 c9 bd
       0.07263654 -0.049960956 0.083658636 -0.098160006
000230 a2 12 ee bc ff 76 2d 3d 8f d4 ba bd a3 da cc bc
       -0.02906162 0.04234981 -0.091225736 -0.025006598
000240 34 e9 5c be f2 3e dd 3d 78 0c 26 be 85 d2 a2 bd
       -0.21573335 0.108030215 -0.16215694 -0.0795031
000250 e4 1b 4c be 80 2c aa 3d 60 d7 b5 bd 52 1a 30 bd
       -0.19932514 0.08309269 -0.0887897 -0.04299385
000260 d9 09 a2 bd 62 a0 34 be 46 e5 2c be 0b cf 9a 3d
       -0.079120345 -0.17639306 -0.16884336 0.075590216
000270 3a 28 1f be 64 c6 db 3d 5a 70 8b be 4a 76 b7 3c
       -0.15542689 0.107311994 -0.27234155 0.022395272
000280 48 4c 1a be 06 c8 06 be 05 f0 04 be 57 89 60 bd
       -0.15068161 -0.1316224 -0.12982185 -0.054818477
000290 f2 51 0e 3d d8 d5 c5 bd e5 b7 0c 3c cd f7 31 be
       0.034746118 -0.09659928 0.008588766 -0.17379685
0002a0 2f e1 00 3b 3a 6c 12 3d af b0 b5 bd e2 f4 b7 bd
       0.001966547 0.035747744 -0.0887159 -0.089822546
0002b0 08 a8 77 3d 92 db d3 bd 52 e0 fc bc 96 05 f8 bd
       0.06046298 -0.10344614 -0.030868683 -0.121104404
0002c0 1b 9b ab 3c 8c 10 4e 3d 40 da 8c bc 5a 35 58 be
       0.020947983 0.05030875 -0.017193913 -0.21114102
0002d0 9d fa ba ba 46 af c3 bd d0 3f e1 bd 7f 82 a5 3c
       -0.0014265362 -0.09554915 -0.109984994 0.020203827
0002e0 ea 7d 24 bd d2 c2 59 be 50 e4 04 bd 5d 11 a7 bd
       -0.040159144 -0.21265724 -0.0324443 -0.08157609
0002f0 88 00 af bc 23 da d1 bd e2 c7 cb bc 6b 0c 92 3d
       -0.021362558 -0.102466844 -0.024875585 0.07131275
000300 c1 62 67 be 18 fc eb bd d5 11 85 bd 09 2e 8d bd
       -0.22596265 -0.115226924 -0.06497542 -0.06893546
000310 29 ce 43 bd 05 fe 50 3d 96 70 5b be 06 f8 ba bd
       -0.04780403 0.051023502 -0.21429667 -0.09129338
000320 c3 31 d5 bd ad 7b 62 bb 83 23 63 be 61 51 af bd
       -0.10409882 -0.003455858 -0.22181515 -0.08560444
000330 7e ea 50 be 88 53 91 bd 06 2c 5e bd 8c d6 96 3b
       -0.20401952 -0.070960104 -0.054241203 0.0046032127
000340 c3 03 4b bd 22 95 ce 3c f2 0f 46 bd fe c1 91 bd
       -0.049564134 0.025217596 -0.04835505 -0.07117079
000350 30 70 8a be b8 ec 36 be 3c a1 94 bc d3 dd 88 bd
       -0.27038717 -0.17863739 -0.018143289 -0.066829346
000360 24 ae ca bd bd 97 ad 3d a4 ed 4f bd 6a 76 ca bc
       -0.09896496 0.084762074 -0.05076374 -0.024714667
000370 b2 a8 3d 3c 44 b0 bb bc 17 1a 26 bd 2b 5b d2 bd
       0.011575865 -0.022911198 -0.040552225 -0.10271295
000380 e5 15 46 be e9 9f f6 bc 69 de 0f be c7 9c fc bd
       -0.1934429 -0.030105548 -0.14049686 -0.123345904
000390 84 39 87 be a6 7f ae bd f6 a5 63 be dd 26 02 be
       -0.26411068 -0.08520441 -0.22231278 -0.12710138
0003a0 a9 99 02 be 83 99 a5 bd 51 e5 1f be 83 ee 89 bd
       -0.12753929 -0.08085921 -0.15614821 -0.067349456
0003b0 3a 62 ff bd b7 b8 0b 3d 75 87 4a be 36 e8 bd 3d
       -0.12469907 0.034111705 -0.19778235 0.09272806
0003c0 f9 8d 4a be ff 26 01 be 55 77 6b bd 07 cd 82 3d
       -0.19780721 -0.12612532 -0.05748685 0.06386762
0003d0 5f 17 f6 3c ee 78 d8 bd 70 35 34 3c 54 42 6d bd
       0.030040441 -0.105699405 0.010999069 -0.057924584
0003e0 f7 93 f1 bc bb e5 9a bc ca 45 ab 3d ef b3 02 3d
       -0.0294895 -0.018908372 0.083629206 0.03190988
0003f0 c4 1c 04 bd fb 7b 42 be 09 c6 97 bd ba ca 36 3d
       -0.032253996 -0.18992607 -0.07410819 0.04462693

bias f4 [40]
000000 45 5e 95 bc 75 7d 0a bd d1 a2 4d bc 42 49 d3 bd
       -0.018233428 -0.03381105 -0.0125510255 -0.10316707
000010 03 48 07 be fc b3 8f bd 05 4d e4 bd f9 62 e0 bd
       -0.13211064 -0.07016751 -0.11147503 -0.109563775
000020 7a e9 2d be c3 01 f3 bd 26 5d a1 bd 58 0d 27 be
       -0.16983595 -0.118655704 -0.07879095 -0.16313684
000030 20 c4 9b bd e0 cd 9d bc c8 4d 40 bd 71 05 2f be
       -0.07605767 -0.019263208 -0.046949178 -0.1709192
000040 f9 0e fc bd f5 cd 04 be 08 73 2b be 9f 75 f0 bc
       -0.12307543 -0.12969191 -0.167431 -0.029352961
000050 64 82 84 bd 03 51 32 be 55 e0 14 bd cd 51 3e be
       -0.064701825 -0.17413716 -0.036346752 -0.18585892
000060 c8 55 55 be 78 44 b5 bd b5 4a 55 bd e8 a1 3e 3c
       -0.20833504 -0.0885095 -0.0520732 0.011635281
000070 ff e3 41 be 64 06 d2 bc cd 8e ba bd 1e 37 2d bd
       -0.1893463 -0.025637813 -0.09109268 -0.042288892
000080 1c 08 14 be 97 d7 3b bd 1f 08 0b be df 5f 0b be
       -0.14456218 -0.0458599 -0.13577317 -0.1361079
000090 ac 2c 3f be 61 d8 82 bc 24 ea d3 bd c0 e4 3c be
       -0.18669385 -0.015972318 -0.10347393 -0.18446636

weight f4 [80, 40]
000000 92 d0 d6 bc e6 86 da bd 59 19 65 3d 2c 32 85 3b
       -0.026222501 -0.10670261 0.055932377 0.004064819
000010 33 5a 03 3e 8a 13 47 bd 4f 8b 6e 3d 82 96 f7 3d
       0.12827377 -0.04860262 0.058238324 0.12089254
000020 0e fb 8b bd 39 98 d8 3c 9e 1e e0 3d 94 e9 c4 3c
       -0.06834994 0.026439773 0.1094334 0.02403716
000030 e0 cf 56 3d 47 13 ec 3c 3f 42 21 be 21 13 93 bd
       0.05244434 0.028817786 -0.15747927 -0.07181383
000040 cf a0 b2 bd f3 c2 87 3d f2 af 16 3d 0d af e9 bd
       -0.08722078 0.066289805 0.03678889 -0.114103414
000050 87 79 29 be de e5 4f 3d 80 c7 0a be 06 3e 47 3d
       -0.16550265 0.050756328 -0.13552666 0.048643135
000060 67 49 db 3d 28 25 8b 3d b9 57 86 bd c3 69 1b 3e
       0.1070736 0.06794196 -0.065597005 0.15177064
000070 4d 1b 97 3d 12 33 12 3d 72 bd fe 3d 7e 38 09 3c
       0.07378254 0.035693236 0.124384776 0.008375285
000080 8a b8 a7 bd d6 c2 3c bd 4b 70 a1 3d e5 00 05 be
       -0.08189495 -0.046084248 0.07882746 -0.12988622
000090 f5 99 ab bd 3a 57 c9 bd 2a 8f 73 3d 4b 4a dc 3b
       -0.08378974 -0.0983109 0.059462704 0.0067227236
0000a0 e4 5f e7 bd 59 86 a1 3d 0c 84 ce bc f5 c2 59 3b
       -0.112975866 0.07886953 -0.02520945 0.0033227776
0000b0 28 5d 88 bd 6c f2 ef 3d 34 4d d4 bd bd 6e a3 bd
       -0.06658393 0.1171616 -0.10366288 -0.07980106
0000c0 a5 2a ae 3d 6b a3 02 bb ba 8e f2 3d 7b 8f a4 3c
       0.085042275 -0.001993383 0.11843629 0.020087948
0000d0 98 9e 2e bd 22 66 0a bd be 9c 0f be 72 9c c2 3d
       -0.042631716 -0.033788808 -0.14024636 0.09502496
0000e0 1b 26 a0 3d 5f f9 5f 3d df 05 66 bd cc cf c9 bb
       0.07819768 0.05468118 -0.056157943 -0.0061588045
0000f0 5b 2a 3f 3d 68 17 83 3a ee 71 07 be 3a 5b 34 3b
       0.046671253 0.0010001482 -0.13227054 0.0027520196
000100 40 c1 1a bd 97 4f 45 3d 08 a5 68 bd 3b 66 fa 3d
       -0.037781954 0.048171606 -0.05679801 0.1222653
000110 4a ce c1 bd 74 ef d6 bd bf 48 eb bd 81 00 1d bd
       -0.09463175 -0.10494891 -0.114884846 -0.03833056
000120 bb 0f ec bd 63 ae 87 3c 21 f1 79 bc c9 e0 15 3e
       -0.11526438 0.016562646 -0.0152552435 0.1463653
000130 dd 0f 08 3e c2 0d e6 bc 25 32 f3 bc 04 bb 61 3d
       0.13287301 -0.028082732 -0.029686997 0.055109993
000140 0b 9a dd 3d 01 16 98 3d c7 91 67 bc 27 00 f3 3d
       0.10820397 0.07426072 -0.014133877 0.118652634
000150 bd 55 9f 3c 20 82 9c bd 38 4e 33 bd 2e dc 8d bd
       0.019450063 -0.07642007 -0.043775767 -0.069267616
000160 88 95 17 be e3 af 07 bd 4a 7f dd bd 65 af ca 3d
       -0.14803135 -0.033126723 -0.10815294 0.09896735
000170 44 00 fe bc 70 06 7d 3d db bb 43 bd e9 45 f0 bd
       -0.031005986 0.061773717 -0.047786575 -0.11732084
000180 5e d6 b6 3d e5 44 ea 3d 46 d2 0c 3e 19 de c2 3d
       0.08927606 0.11438922 0.13752088 0.09515018
000190 8e 58 57 bd 48 8c 18 3d 14 cc ed 3d 8d aa 00 3e
       -0.052574687 0.037243158 0.116111904 0.1256506
0001a0 82 9e 0a be 51 13 22 3e 73 4a ba 3d 96 a7 ff bd
       -0.13537028 0.15827681 0.09096231 -0.12483136
0001b0 f2 3f 85 bd 59 f1 84 3d a9 75 02 3e 50 cf b9 bd
       -0.06506337 0.06491346 0.12740196 -0.09072745
0001c0 f4 4d ed 3d e6 82 9e bd 3c dd 10 3e 53 19 b9 bc
       0.11587134 -0.07739811 0.14146894 -0.022595083
0001d0 37 6e cb bd 07 91 c1 3a 24 31 29 3d bd cc 16 be
       -0.09933131 0.0014767953 0.04130663 -0.14726539
0001e0 5f 7e a2 bd c9 29 d2 bc 8e 00 93 bc b2 9d 9e bd
       -0.079342596 -0.02565469 -0.0179446 -0.07744922
0001f0 3f 47 7a 3c 65 5f 07 3e 2a d4 3b bd c7 da cf bd
       0.015275775 0.13219984 -0.045856632 -0.1014915
000200 ee 22 3a bc 8d 85 f7 bd d6 38 65 3d 57 8b 2e 3d
       -0.011360867 -0.1208602 0.055962406 0.042613354
000210 e3 f3 09 be 48 d8 e0 3d 6e 3d aa 3d 1b a3 03 be
       -0.13471942 0.109787524 0.08312498 -0.12855189
000220 80 d7 b0 3d 2c 41 ff 3d a4 44 38 be 83 82 17 3d
       0.08634853 0.124636024 -0.17994934 0.0369897
000230 d5 8b 73 3c d4 17 02 3e 47 6a be 3d 5e b9 b0 3d
       0.0148648815 0.12704402 0.092976145 0.08629106
000240 6a fa c2 3d 23 95 5f 3d f8 df 01 be 13 81 a1 3d
       0.09520419 0.054585587 -0.12683094 0.07885947
000250 6d 20 c8 bd ef 64 f7 3c f6 0d e7 3d ee 72 26 3d
       -0.0977181 0.030199496 0.1128196 0.04063695
000260 d0 3f 72 bd d0 3e 8d bd 88 25 11 3e 0b 37 78 3d
       -0.059142888 -0.06896746 0.14174473 0.060599368
000270 57 ae 1c 3e 71 6b 57 bd a5 34 1d 3d 40 52 09 bd
       0.1530088 -0.0525927 0.038380284 -0.033525705
000280 4c f5 d3 3d c1 4d b6 bd d6 eb 02 3e 77 a7 a9 3d
       0.10349521 -0.08901549 0.12785277 0.082838945
000290 7a 8f 16 39 d8 f3 1b be 78 f0 c5 3d e4 ed 16 3d
       0.00014358564 -0.15229738 0.096650064 0.036847964
0002a0 48 22 e2 bb 89 20 07 be a8 ef f8 bd a3 27 dc 3d
       -0.0069010593 -0.13196005 -0.12155086 0.107497476
0002b0 15 f1 20 be 5c 63 68 3b 7f 3f b5 3d cc 2c 3f 3c
       -0.15716965 0.0035459613 0.088500015 0.011668395
0002c0 f7 a5 c8 3d d4 79 c8 3c 93 e0 c9 bd bd 64 16 be
       0.0979728 0.024472155 -0.09857287 -0.14686866
0002d0 dd 1c d7 3d e5 16 ae 3d 9e 0f 8f bd 5b a2 66 3d
       0.10503552 0.085004605 -0.069854006 0.056307178
0002e0 e7 d3 7c bd e3 55 1a 3d 89 f5 e1 bd 54 84 26 3d
       -0.061725523 0.037679564 -0.1103316 0.04065354
0002f0 a3 d1 cd 3c 4e 95 2c be 4f d9 03 3e 03 76 34 bd
       0.025124377 -0.1685383 0.12875865 -0.044057857
000300 8b d2 fb 3b 42 98 6f 3d 17 ee 0c bd aa ab f1 bd
       0.007685011 0.058494814 -0.034406748 -0.118003204
000310 8c 02 30 3e 47 f0 4b 3d 65 4f 6c 3d 19 6e 20 be
       0.17188472 0.049789693 0.057692904 -0.15666999
000320 1d 14 58 bd b6 57 b6 bc 2e c0 7f 3c d0 50 f4 bd
       -0.052753557 -0.02225862 0.015609784 -0.11929476
000330 4e 2c 50 bc 5d 09 d8 bd 1e 17 84 bd 09 52 bf bc
       -0.012705876 -0.10548661 -0.06449722 -0.023354547
000340 d5 be 1d 3b d2 8c 9a bc ea 64 b4 3d f2 c2 5d bd
       0.0024070044 -0.018865976 0.0880831 -0.054140992
000350 af 55 b3 bd cb 86 a2 3c 78 1d 97 bd 99 64 3d be
       -0.08756577 0.019839665 -0.073786676 -0.18495406
000360 54 e4 00 bd 1c 5d 1f be 2e f1 65 3d aa ec bd 3d
       -0.03146775 -0.15562862 0.05613821 0.09273656
000370 5e ce 81 3b e9 a5 f5 39 21 5f 9a 3d 2b 6c 7c bd
       0.0039613685 0.00046853654 0.07537676 -0.061626595
000380 84 cb da 3d ca 3b df bd 67 de cb bd e6 e5 e8 bd
       0.10683349 -0.10900076 -0.09954529 -0.11371975
000390 0b 47 96 3d e1 15 6c bd e3 35 cb bd f4 9f b2 3b
       0.07337769 -0.057638053 -0.099223875 0.005451197
0003a0 5e ad 42 bd 90 cd 3c 3d 59 2c 90 bb d3 09 0b be
       -0.047528617 0.046094477 -0.004399818 -0.13577966
0003b0 e0 89 0b bc 6d a2 e1 3d a9 32 5e bc e9 9b f1 bd
       -0.008516759 0.110173084 -0.013561883 -0.117973156
0003c0 b6 ec de 3c 09 c9 ec bd 20 f9 70 bd d5 eb 2d bc
       0.027212482 -0.11561782 -0.058831334 -0.010615309
0003d0 86 ca ad bd 69 b0 f8 3d 16 5b 8a 3d c5 7a 23 be
       -0.08485894 0.121430226 0.067556545 -0.15964802
0003e0 3a 8c ec bd 07 8f ed bd e2 4a 7b 3b b6 4a 02 be
       -0.115501836 -0.11599546 0.0038344194 -0.12723812
0003f0 e6 e8 c5 3d 42 d4 d1 bd 12 57 ce bd fa 95 c2 bc
       0.096635625 -0.10245563 -0.10075201 -0.023753155

bias f4 [80]
000000 32 1c 84 bd 82 22 ee bd d5 50 b2 3d 39 82 d1 3c
       -0.0645069 -0.116276756 0.08706824 0.02557479
000010 e6 f1 04 3d 88 85 8d bd 9c c3 a9 3d 66 71 ef 3d
       0.032457255 -0.06910235 0.08289263 0.11691551
000020 4f e8 0d 3d dd e3 2f be 30 7d 09 be b9 f0 28 3e
       0.034645375 -0.17176767 -0.13426661 0.16498078
000030 40 d0 1c be b2 c5 e7 3d 30 8b a2 bd 69 79 70 bd
       -0.15313816 0.11317004 -0.07936704 -0.058709536
000040 7f 23 6e bd b0 43 cf bd 7e 6c 8a bd f7 c2 31 3c
       -0.05813932 -0.10120332 -0.067589745 0.010849706
000050 78 2b f4 3d ac e7 ba bd 00 db 74 bc 82 ab a7 bd
       0.119223535 -0.09126219 -0.014944792 -0.081870094
000060 97 38 80 3d 74 2a ea bd bd 54 85 bd 75 d1 3a 3e
       0.06260794 -0.114338785 -0.06510303 0.18243964
000070 d1 d6 39 3d 96 ac 8b bc 85 e7 c1 3d 9d 7b 47 3d
       0.04537088 -0.017050069 0.09467987 0.04870187
000080 59 42 bb 3d a4 95 f4 bd 73 b6 ed bd 79 55 91 3d
       0.09143514 -0.11942604 -0.11607065 0.07096381
000090 0a 6e aa bd 01 e4 71 3d 31 f3 c3 bd 80 20 98 3c
       -0.083217695 0.059055332 -0.095678695 0.018570185
0000a0 50 a0 0d 3d 92 fb c5 3d b9 7b 37 3d 9c 65 9c bd
       0.034576714 0.09667124 0.044795725 -0.07636568
0000b0 01 fc 17 3d 02 5f d6 3d 98 47 09 be d9 ab 06 be
       0.037105564 0.1046734 -0.13406217 -0.13151492
0000c0 b2 00 21 bd dc ac ca 3c 20 c1 b8 3d 47 8a 23 be
       -0.039307304 0.024740629 0.09021211 -0.15970717
0000d0 a6 54 ba 3c e9 0b bc bd db 57 3f 3c ac 11 f2 bd
       0.022745442 -0.09181959 0.011678661 -0.11819777
0000e0 f3 35 26 be 4f 86 1a be d2 14 65 3d 49 d3 b2 3c
       -0.16231517 -0.15090297 0.05592806 0.021829264
0000f0 5c 5e b6 3d 7c 11 dd 3d 92 c8 0b be 22 9c d7 bd
       0.08904716 0.107943505 -0.1365073 -0.10527827
000100 d3 0f c8 3d a5 ae 1b bd 44 9c dd bd b2 27 10 3e
       0.09768643 -0.03800835 -0.10820821 0.14077643
000110 68 06 57 bd 21 eb 87 bc a2 ab 80 3d 6d 47 27 bd
       -0.052496344 -0.01659161 0.06282736 -0.0408396
000120 74 62 06 be f4 00 96 3d 58 37 69 bd b6 ec 32 be
       -0.13123494 0.073244005 -0.056937546 -0.1747311
000130 4f f4 0c be 9a 70 d7 bd e4 b6 17 3c c1 5d 82 bd
       -0.13765071 -0.10519524 0.009259913 -0.063655384

weight f4 [5, 80]
000000 d3 0a 0b bc 36 b0 54 3d 3c e7 25 3d df 17 90 bd
       -0.008486467 0.05192586 0.040503725 -0.07035803
000010 f5 f6 02 bd 64 4f bf 3b 62 0d 53 3c 57 f4 17 bc
       -0.031973798 0.0058383215 0.012881609 -0.009274564
000020 7e d6 71 3d 1b 24 4c 3d 98 8c 48 bc 97 c9 67 bd
       0.059042446 0.04983912 -0.012240551 -0.056588735
000030 b8 d7 20 3c 40 13 86 bc c0 4e 3b 3d 2f 6c 76 3c
       0.009817056 -0.016366601 0.0457294 0.015040441
000040 8e d5 01 bc ba 57 88 3d 10 18 7d 3b b1 2c b0 3b
       -0.007924451 0.066573575 0.0038619079 0.0053764214
000050 6a 95 43 3d 6a cc 02 bd 6a 84 17 bd ef 7a 8d bd
       0.047749914 -0.031933226 -0.036991514 -0.06908213
000060 29 2f 0d 3c 9b 96 98 3d a2 da 69 3d ed cd 2f bd
       0.008617201 0.07450601 0.05709327 -0.042920996
000070 19 43 0d bd ef f8 6a bd 27 2e 0b bd bf d5 59 bc
       -0.034487817 -0.057366308 -0.03397956 -0.01329559
000080 61 5b 0d bb bc dd c0 3c e7 b8 1d bc 87 a6 fc bc
       -0.0021569359 0.023543231 -0.009626604 -0.030841125
000090 70 39 0e bc 53 f6 69 3d d1 51 29 3c 14 00 89 bd
       -0.008680686 0.05711968 0.010334448 -0.06689468
0000a0 6a 46 60 3c a3 d4 07 3c 1d 93 e0 3c 33 71 60 bd
       0.013688663 0.008290443 0.0274139 -0.054795455
0000b0 0c c2 08 3c eb 09 20 bb 36 b3 75 3d 1d be a3 bc
       0.008347046 -0.0024419974 0.059985362 -0.019988114
0000c0 b6 53 12 3d dd 92 0f bc e1 c5 38 bc d1 d5 9b bc
       0.035724364 -0.008763042 -0.011277647 -0.019022854
0000d0 d6 7b f0 bc 24 d0 0b 3d 8d b2 2c 3d 1a c0 af 3c
       -0.029355925 0.034134045 0.042162467 0.021453906
0000e0 1b 78 ac 3c 4f 9c d9 bc c4 4c 48 bb 03 0f 8a bd
       0.021053365 -0.026563792 -0.0030563334 -0.067411445
0000f0 75 73 5b bc 5d 71 41 3d b9 8a 85 bc 7c 18 15 bd
       -0.013394226 0.047227252 -0.0163015 -0.036400303
000100 c7 6b 85 bd 69 ea c7 3b 40 91 a9 bc 9b 15 1d bd
       -0.065146975 0.006100942 -0.020699143 -0.038350683
000110 d1 8b 95 bd fe c2 da bc 4e 2d f6 3c 2a bf ad 3b
       -0.073020585 -0.026704308 0.0300509 0.0053023295
000120 02 c0 45 bc e6 5e 65 bc 10 5b f3 3b 56 ec 40 bd
       -0.012069704 -0.013999676 0.007426627 -0.047100388
000130 99 d0 74 3d f8 e2 b7 bb b4 87 80 3d 24 be ff bc
       0.059769247 -0.0056117736 0.06275883 -0.031218596
000140 f5 30 bd 3c 2f 54 bd bc ef 17 1a bd 25 9f 8a 3d
       0.023094634 -0.02311143 -0.03762048 0.06768636
000150 08 e0 58 3c 9e 43 33 3b 76 94 a6 38 3d 68 2f bb
       0.013237007 0.0027353535 7.94315e-05 -0.0026765012
000160 63 ea 2b 3d 2d 68 a4 bc 28 23 57 bc 14 37 56 bc
       0.041971575 -0.020069206 -0.0131309405 -0.013074655
000170 ab f3 05 bd fb cd 49 bc af 98 8f bc cf 56 5b 3c
       -0.032703083 -0.012317176 -0.01752886 0.013387396
000180 25 43 30 3d 05 a7 1e bc 16 55 79 bb ed 4b 31 3d
       0.043032784 -0.009683375 -0.00380451 0.0432853
000190 13 48 40 3d 50 b3 4e 3d be bb 9f 3c 78 5c 93 3b
       0.046943735 0.050463974 0.019498702 0.004497107
0001a0 fc 7d 2e 3d 9c f2 04 bd 6a cd 99 3d bf f4 2f 3d
       0.042600617 -0.032457933 0.07509883 0.042958017
0001b0 b1 68 3b 3d be b9 75 3d 21 12 dd bc 6a 19 7a bc
       0.04575414 0.05999159 -0.026986184 -0.015264848
0001c0 36 95 dd 3c a9 a3 42 bd e2 fd c5 3c d3 87 bf bc
       0.027048688 -0.04751936 0.024168912 -0.023380196
0001d0 7f e6 99 bc 7f f6 27 3d 18 b8 c4 bc 9f 1a 00 bd
       -0.018786667 0.04100656 -0.024013564 -0.031275388
0001e0 f7 b6 1d bd dc 53 b2 3b be 20 5e 3b 92 83 9a bd
       -0.038504567 0.0054421257 0.0033894028 -0.07544626
0001f0 6e 1b 7b bc 0d 79 63 3c 1d cc 7b 3c 44 99 ef bc
       -0.015326364 0.013883841 0.015368489 -0.029247887
000200 89 86 8f 3c 5b 5e b6 3a 3c 1f 7f 3c ea e0 8f bd
       0.017520206 0.0013913618 0.015571412 -0.07025321
000210 46 d0 08 bc 91 f9 0f bd aa ce 35 3d f6 88 a2 bb
       -0.0083504375 -0.035150114 0.044386543 -0.0049601747
000220 60 d0 6b bd d2 37 a4 3c e2 8f a1 bb 9a dd 22 3d
       -0.05757177 0.020046148 -0.0049304822 0.039762117
000230 a8 9d 46 3c 08 f8 f5 bb 3a 46 ba bd e5 a6 39 bd
       0.012122549 -0.0075063743 -0.09095426 -0.04532518
000240 8d f8 d5 bc 4e 7e 3f bc 5d 7b 81 3c cb 64 0b 3d
       -0.026119495 -0.011687828 0.015805895 0.03403167
000250 3d bd 22 bd 3f 58 f9 3c 08 30 47 bc 4a 4b 04 bb
       -0.039731253 0.030437587 -0.012157448 -0.0020186477
000260 7c fe 58 bd 7e 8e 95 3c b6 d8 a4 3c 89 13 04 3d
       -0.05297707 0.018256422 0.020122867 0.032245193
000270 e8 dc 00 3d b9 2a 72 bd 43 ab b1 bd f0 2d 36 ba
       0.031460673 -0.059122775 -0.08675244 -0.0006949594
000280 56 e0 c4 bc 02 92 21 bd 10 80 0d bd dd 1c bc 3c
       -0.024032753 -0.039445885 -0.034545958 0.022962982
000290 5e 83 41 3d f7 68 eb ba 58 c7 0b bb 17 a2 41 3d
       0.047244422 -0.0017960359 -0.0021328535 0.04727372
0002a0 03 13 22 3d 37 85 3c 3d dd 24 2a bd 41 a9 43 bd
       0.039568912 0.04602548 -0.04153906 -0.047768835
0002b0 0b 29 ce 3c c2 0f 47 bc 68 0f 67 3d f7 cd 23 bd
       0.025166055 -0.012149753 0.056411177 -0.039991345
0002c0 62 69 b6 bc e8 e7 ec 3c ec 4e 10 bd 39 97 27 bb
       -0.022267047 0.028919175 -0.035231516 -0.0025572313
0002d0 fc bb 15 bc 59 5b ae 3c f9 10 e5 bc 33 cb 95 bd
       -0.009139057 0.021283792 -0.027962195 -0.07314148
0002e0 dc d9 d6 3b 74 e5 e6 bc 4e 2b 10 3d 12 47 81 bd
       0.0065567326 -0.028185584 0.03519755 -0.06312384
0002f0 a0 42 c3 3c 5d e4 0b 3d bb a3 36 bd 47 d2 2c bc
       0.02383548 0.03415333 -0.04458974 -0.010548181
000300 83 63 17 3d 04 12 a7 3c eb ad a4 3c 17 d2 19 bd
       0.036960136 0.020394333 0.020102462 -0.037553873
000310 5e 86 06 bd 82 66 17 bd d2 81 f0 bc 92 b8 51 bb
       -0.032842986 -0.036962993 -0.029358778 -0.0032000882
000320 54 25 d4 bb b6 29 39 bc 4d c0 0d bd 21 a6 61 bd
       -0.0064741764 -0.011301449 -0.03460722 -0.055090073
000330 00 37 10 3d 50 fa 65 3c 5f 4f 25 3c 6c 67 8f bc
       0.035208702 0.01403673 0.010089724 -0.01750537
000340 e6 65 52 ba 8c 1a 31 b9 d1 9c 75 3c 97 c2 61 3d
       -0.00080260483 -0.00016889925 0.014991001 0.055117216
000350 b3 b2 d3 3b 2f 6e df bc 70 85 d6 3c a6 c3 8e 3d
       0.0064605116 -0.02727422 0.026186675 0.06970911
000360 74 10 fc 3c 75 ad 03 bd 23 e5 21 3c 58 58 41 3d
       0.030769564 -0.032147843 0.009881291 0.04720339
000370 82 dc 84 bd 77 5d 50 bd 04 98 05 3d 7b e3 4d 3d
       -0.06487371 -0.050870385 0.032615677 0.05026577
000380 2b 48 db bc b4 b0 1a bd 58 a6 9d 3a c9 cc 0d bd
       -0.02676781 -0.037766173 0.0012027724 -0.034619126
000390 f0 a1 2d bd 1c c6 68 3d e3 57 1a 3d 97 b0 f9 bb
       -0.042390764 0.056829557 0.03768147 -0.007619928
0003a0 a1 a2 9e bc 36 21 b1 bc f4 18 14 3d 2f 1d 93 bd
       -0.019364657 -0.021622282 0.03615661 -0.07183301
0003b0 a3 81 64 3d 4e b7 7f bd 7f 80 44 bd 14 13 c7 3c
       0.055787694 -0.062430672 -0.047974106 0.02430109
0003c0 6d b3 56 bc 83 12 2d 3b 73 c3 e5 3c 02 81 b0 bc
       -0.013104302 0.002640874 0.028047299 -0.02154589
0003d0 84 2d 87 3b 66 2a f4 3c a6 0b b1 bc 79 3a 6b bd
       0.004125299 0.029805373 -0.021612 -0.05742881
0003e0 ca cd ed 3c 95 d0 9f 3d 72 28 06 bd 5f 65 50 3d
       0.029028792 0.07803456 -0.032753415 0.050877925
0003f0 d8 ac e5 bc c4 1b c4 bc 85 bf 3d 3d dc 15 f5 3b
       -0.02803652 -0.023939021 0.046325225 0.0074794125

bias f4 [5]
000000 67 df 44 3d c8 51 00 bd 46 7a 47 3d 48 bb b6 b9
       0.048064616 -0.031327993 0.048700593 -0.0003485328
000010 0d 6a 36 bc
       -0.011133683
