final_project/mlruns/3/0671d91d15a34277869ed49560246e78/artifacts/cvae_40/data/model.pth (torch, 50311 bytes, 10 tensors)

weight f4 [80, 17]
000000 ff 83 a3 3d ad 59 b6 39 0f 92 78 be de 70 cc 3d
       0.07984161 0.0003478056 -0.24274467 0.09982465
000010 e0 95 36 3e ad 50 63 be 28 51 df bd b6 90 81 be
       0.1783061 -0.22198744 -0.10904151 -0.25305718
000020 8a 11 e2 bd 84 ac 14 3e ec d5 79 be b6 8e 64 3c
       -0.110385016 0.14518934 -0.24398011 0.013950041
000030 1c 16 21 be f4 d6 86 bd 14 16 97 bd b3 e4 31 be
       -0.1573109 -0.06583968 -0.07377258 -0.17372398
000040 86 52 a4 3d 15 7b 13 be 4a 28 1e 3e 31 93 52 3e
       0.080235526 -0.14402421 0.15445057 0.20563962
000050 31 55 0a 3d 41 b8 6b 3e e7 c0 f8 bd 38 b5 28 3e
       0.03377265 0.23019506 -0.12146168 0.1647538
000060 3f 16 df 3c 81 d5 7d be c7 5d bd bd 90 fb 7d be
       0.027232287 -0.24788477 -0.09246402 -0.24802995
000070 d2 a1 aa bd 75 a7 36 3e 9e 4e 2d 3d 29 2f 4a 3e
       -0.08331646 0.17837317 0.042311303 0.19744553
000080 34 92 44 be af 30 14 3d 4e b4 75 3e 6d b0 e1 bc
       -0.19196397 0.03617924 0.23994562 -0.027549947
000090 55 54 18 be 95 f9 80 3d e0 5e 74 3d e2 e1 53 be
       -0.1487592 0.06297604 0.059660792 -0.20691636
0000a0 01 2f 05 3e e6 26 f1 3d b6 d0 81 3e 01 8c 07 be
       0.13006212 0.117749974 0.25354546 -0.13237001
0000b0 f1 d2 1f be bd 64 5f 3e 57 66 5a be 76 bc 25 be
       -0.15607812 0.21815772 -0.21328102 -0.16185173
0000c0 ce 34 f7 3d db ab ce 3d 3f 8e 83 3d aa be c9 3d
       0.120706186 0.100913726 0.06423616 0.098508194
0000d0 8a e4 08 be bb 8f dd bd 5a 67 05 bd ec 92 be bd
       -0.1336843 -0.1081843 -0.032569267 -0.09305367
0000e0 63 96 3e 3e 9f ae f7 bd 6c 9d 27 be f4 ae 84 3d
       0.18612055 -0.12093853 -0.16368645 0.06478682
0000f0 5a ee 15 3e ff b9 7f 3e e7 69 0a be 95 67 80 3d
       0.14641705 0.24973296 -0.13516961 0.06269757
000100 8e eb 4e be 4f 15 53 be 7b ef 27 be b1 80 6c be
       -0.20207044 -0.20613597 -0.16399948 -0.23095967
000110 b0 c1 59 3e 72 a0 5e bd 84 fb 6f bd f6 f6 5f 3e
       0.21265292 -0.05435223 -0.058589473 0.21871552
000120 43 cb 9f bd cf 7c d7 3d 22 6a 5d be f9 6e 0b 3e
       -0.07802441 0.10521852 -0.21622518 0.13616551
000130 8e 30 4e be 4e 47 6c 3d 17 29 3a be a1 bf 8c be
       -0.2013571 0.05768519 -0.18179737 -0.2748995
000140 7a 0e a9 3d 95 10 82 3e c5 05 a9 bc e2 34 13 be
       0.08254714 0.25403276 -0.020632634 -0.14375642
000150 44 09 a2 bd 85 45 bf 3d 32 92 fb bd 0e 4e c4 3d
       -0.079119235 0.09339432 -0.12283744 0.095852
000160 8e 15 60 3d 46 84 69 3c 4b 2c 87 3d 1a 24 27 bc
       0.054708056 0.014252728 0.06600245 -0.010201478
000170 24 ae a5 bd 25 f5 12 3e 4d 6c 93 3b 1e bd 2d 3e
       -0.08089855 0.14351328 0.0044989944 0.16966674
000180 37 c9 1b be 5e 49 3b 3e 47 6a ac bb 23 ab b1 3b
       -0.15213476 0.18289706 -0.0052616927 0.0054220124
000190 9f fc ce bc 6a 54 39 3e ca c8 97 bd 40 40 fe 3c
       -0.025266943 0.18098608 -0.07411344 0.031036496
0001a0 f6 62 08 be b9 f3 85 be 3e 38 e4 3d 79 d8 19 bd
       -0.13319 -0.26162508 0.1114354 -0.03755996
0001b0 29 32 e1 bd 0a b3 10 be 20 61 0b be 38 47 2b bc
       -0.109958954 -0.14130798 -0.13611269 -0.010453992
0001c0 18 ed 2c be d1 a9 b8 3d 6d 87 f9 bc 6c 57 e3 3d
       -0.16887319 0.09016765 -0.030460084 0.11100659
0001d0 4f ed 06 be 3d ef 73 be af 52 6c be ac 6b 1a 3e
       -0.13176464 -0.23821731 -0.23078416 0.15080136
0001e0 c2 90 18 3b 1a 6a 36 be b2 2a f9 bd 7f b6 a9 3d
       0.0023279642 -0.17813912 -0.121663466 0.082867615
0001f0 b1 bc be bd 3b 8d 9e be 1e 4a 0e 3e 3f 9c d1 3d
       -0.09313334 -0.30967125 0.13895461 0.1023488
000200 6b f2 18 3e a6 e3 a5 3c a7 31 97 be 50 75 02 3e
       0.14936225 0.020250153 -0.2953007 0.12740064
000210 fc 04 b9 3d 5d ee ed 3c 5c c2 77 3c d2 5a ae 3d
       0.09034154 0.029044325 0.0151220225 0.08513416
000220 f6 01 ce bd f8 01 17 3d 0f 0d 74 3e 7e 54 1f be
       -0.10058968 0.036867112 0.23833106 -0.15559575
000230 47 f2 86 3e 8e e5 80 bd 16 fd 1e 3d bc df d1 3b
       0.26356718 -0.06293784 0.03881558 0.006404845
000240 1e 6d ed 3c f0 61 a2 3d ae 04 50 be f2 ff 1b 3e
       0.028982695 0.07928836 -0.20314285 0.15234354
000250 12 6d 8e 3d 1e a7 3b 3e 3c b4 8a 3d 10 a0 46 3e
       0.06954397 0.18325469 0.06772658 0.19396996
000260 b7 47 6e 3c 1c d2 09 be e6 2c 67 3e 11 6a 37 be
       0.014543465 -0.13459057 0.22575721 -0.17911555
000270 d6 44 0d be e8 f0 a7 bd 54 29 3a bc c3 ea 22 be
       -0.1379579 -0.08200246 -0.011362392 -0.15909867
000280 3d 67 b0 3d 0f f4 13 be 34 38 02 3d c5 85 81 be
       0.08613441 -0.1444857 0.03179188 -0.2529737
000290 45 83 31 3e aa f2 76 3e 16 db 01 be d7 e9 25 3e
       0.17335232 0.24116006 -0.12681231 0.16202484
0002a0 2f ef 80 bd 50 99 d7 bd 51 de ee bd 14 35 0c be
       -0.06295621 -0.10527289 -0.11663497 -0.13692123
0002b0 50 1d 75 be cc 37 31 3e 4c 57 18 3e f8 d9 d1 bc
       -0.23936963 0.17306441 0.14877051 -0.02561663
0002c0 02 e3 8c be 35 bd 21 3e 69 74 2b 3e 2d a5 53 3e
       -0.27516943 0.15794833 0.16743626 0.20668478
0002d0 1e dd 5d be c7 5c 51 be 83 1b 75 3e 01 a8 0c be
       -0.21666381 -0.20445548 0.23936276 -0.13735963
0002e0 3c f3 5e 3e 81 e6 08 be 75 a9 00 3e a8 45 2b be
       0.21772474 -0.1336918 0.12564643 -0.1672579
0002f0 21 9e bf bd 28 98 8d 3d 15 9b 98 3c 08 55 52 3e
       -0.093563326 0.06913787 0.018628636 0.2054025
000300 45 cc 46 be c7 58 2d be 49 b9 db bd 43 2e b6 3c
       -0.1941386 -0.16928397 -0.107287 0.022238856
000310 a0 fb 29 3e 37 02 50 3d 4b 5d 53 be cd 50 30 3e
       0.16599894 0.050783362 -0.20641057 0.17218323
000320 80 87 bd bc 29 0e 60 be 1a 0b 23 3e 42 b5 58 be
       -0.0231359 -0.21880402 0.15922204 -0.21162894
000330 12 5f 4d 3d f5 e2 48 3d af fe c7 bb ed 4a a5 bb
       0.050139494 0.049044568 -0.0061033587 -0.0050443322
000340 91 34 88 bc 51 f1 8d bc 14 b9 2f 3e 55 d2 58 3d
       -0.016626628 -0.017326983 0.17160445 0.052934963
000350 5e c7 bd 3d cf 02 4f bd 10 24 68 3d ab cd e9 3c
       0.09266542 -0.050539788 0.056675017 0.028540453
000360 9f eb 98 3c 88 dc 95 3d b6 6c 98 bb ca 99 cc bd
       0.01866704 0.073174536 -0.004651631 -0.099902704
000370 80 d7 5d be c3 2d 4d bd dc ca 52 3e 06 76 08 3e
       -0.21664238 -0.05009247 0.20585197 0.13326272
000380 7f ce 08 be 43 d0 3e be ef 0a b1 bd 19 af 53 3e
       -0.13360022 -0.18634133 -0.086446635 0.20672263
000390 20 87 f9 bd ff 26 be 3d 02 ec 82 be 20 5b 5e 3e
       -0.12183976 0.09284782 -0.25570685 0.21714449
0003a0 c8 bc 14 be 38 12 41 be f2 53 50 3d 74 50 e8 3d
       -0.1452514 -0.18854606 0.050861306 0.1134347
0003b0 6e 1d 51 be d0 62 3f 3e 21 a2 15 be 4f 44 2b be
       -0.20421383 0.18690038 -0.14612629 -0.16725276
0003c0 f8 18 82 3e 16 19 24 be 17 4d 0d be ae b8 d5 bd
       0.25409675 -0.16025195 -0.13798939 -0.104356155
0003d0 46 55 45 3e b5 97 03 be a3 54 df bd b4 b7 31 3e
       0.1927081 -0.1285084 -0.10904815 0.17355233
0003e0 19 bd dd 3d ad e2 b7 3d 19 ec 0d 3e b6 ef 20 3d
       0.10827083 0.08978782 0.13859595 0.039291106
0003f0 23 7f 75 be d1 b3 a4 bd 77 d6 5d 3d 19 80 98 3d
       -0.2397428 -0.0804211 0.054159608 0.07446308

bias f4 [80]
000000 fc 03 ea bc 4d d6 05 be e4 e2 2d be 22 00 13 be
       -0.028566353 -0.1307003 -0.16981083 -0.1435552
000010 21 51 5f 3e 4e a8 16 be b5 81 a8 3d b7 5c ba 3e
       0.21808292 -0.1471264 0.08227865 0.3639886
000020 78 c3 e0 bd 04 4b 04 3e 54 d0 43 be ff dd 2d be
       -0.10974783 0.12919241 -0.1912244 -0.16979216
000030 8a a2 4d be 98 05 83 bd e6 fd 8c 3e 54 05 32 be
       -0.20081535 -0.06397551 0.2753746 -0.17384845
000040 2b f5 a9 3e 9b e3 68 3e 92 eb b7 3d 7f 95 00 3e
       0.3319486 0.22743075 0.08980478 0.12557028
000050 d7 77 31 3e 47 d0 a6 3d c5 4e c6 3e f4 7d 65 3e
       0.17330872 0.081451945 0.3873197 0.22411329
000060 91 e9 89 be 8f 02 25 be 02 d9 73 3e 46 66 0f be
       -0.2693601 -0.16114257 0.2381325 -0.14003858
000070 48 a8 0e 3e 95 eb e9 3d fe 69 f3 bd 8c dd bf 3c
       0.13931382 0.11421887 -0.11885451 0.023421071
000080 e4 cd 61 be 98 03 5e 3e 44 0b a0 3e 34 9f 92 3d
       -0.22051197 0.21681058 0.31258595 0.07159272
000090 f0 eb 60 3d ef e4 4b 3e de b7 ae bc c1 2f 86 3e
       0.054912508 0.1991155 -0.02132791 0.26208308
0000a0 6a 79 47 be 4c f2 37 3e f0 4e 85 3e 1e 14 70 bd
       -0.1947991 0.17963523 0.26036787 -0.058612935
0000b0 61 a3 7e 3e b9 aa f9 3d 3a 5e ac 3d 90 bf 1a 3e
       0.24867012 0.12190766 0.0841641 0.15112138
0000c0 ad 44 a4 3e 69 30 69 3e 93 3c 72 3e 76 7e ac 3e
       0.32083645 0.22772373 0.2365592 0.33690232
0000d0 9b 37 57 3e 8e 32 42 bc 85 f0 63 3d ae 64 18 3e
       0.21017306 -0.0118528735 0.0556493 0.14882156
0000e0 dd f4 9b 3d b4 64 65 3e 72 ee aa 3e 37 33 2b 3e
       0.07615063 0.22401696 0.33385044 0.16718756
0000f0 70 19 4e 3e 43 8f e5 bd 57 75 46 bd cf d9 90 3e
       0.20126891 -0.11208966 -0.048451748 0.28291175
000100 72 dd f9 3c 9c 4f e2 3c 7d 9d 92 3d ac fd 05 be
       0.030501101 0.027625851 0.07158945 -0.1308505
000110 53 b8 6a be bf 13 cb bc 90 5c e7 3d f7 3d c0 3e
       -0.22921877 -0.02478969 0.11296952 0.37547275
000120 f4 40 19 be 92 b2 88 3e 88 7c d7 bd 25 d0 9d 3e
       -0.14966184 0.26698738 -0.10521799 0.30822864
000130 0f b5 8a bd 0d 10 87 3e 2c 17 c2 3e 50 16 87 bb
       -0.067728154 0.26379433 0.37908304 -0.004122533

weight f4 [40, 80]
000000 db e4 b2 bd cd 02 a2 3a 27 0e af 3d 4e d2 c6 3d
       -0.08735057 0.0012360454 0.08547621 0.09708081
000010 23 e0 dc bc 23 f0 98 bd 1f a6 e2 3c 37 0b 8c 3d
       -0.026962345 -0.074676774 0.027667103 0.068380766
000020 e9 b7 ad 3d bb 12 01 3d 8b 06 2c bd 9d 98 a5 bd
       0.08482344 0.031512003 -0.041998427 -0.08085749
000030 b0 e2 6f bd 67 b6 5e 3c d6 00 4a 3d 4b 1d c0 3d
       -0.058565795 0.013593293 0.049317203 0.09380587
000040 d4 f3 88 bd 40 f4 6d 3d 8e 4e 5a bd e5 81 bb 3d
       -0.066871315 0.058094263 -0.05329757 0.09155635
000050 33 46 3c 3d a0 41 97 3d 7d 6b b1 3d d0 4f b4 bc
       0.045965385 0.07385564 0.0866308 -0.022010714
000060 7f 95 d2 bd c1 ee c2 bd 7a 59 d6 bd b6 ce 96 3d
       -0.1028242 -0.09518195 -0.10466285 0.07363646
000070 f6 6e 6e ba e7 d7 37 3d 40 8d 86 3c c7 22 78 bd
       -0.0009095514 0.044883635 0.016424775 -0.06058004
000080 8a 91 2f 3d 37 ef 27 bd 4a 4c ae 3d 3a 79 e4 3d
       0.042863406 -0.040999617 0.08510645 0.11155935
000090 b6 1b 0e bd 9a a6 a5 3d 34 47 c8 bc 4e 3e db bd
       -0.034694396 0.08088417 -0.024448015 -0.10705243
0000a0 24 97 ba 39 ac c2 12 bd 68 45 be bd 32 8c 56 bc
       0.00035589293 -0.035830185 -0.09290582 -0.013094949
0000b0 b8 4d ba 3d bf ce d9 3c 31 f8 8f 3d 1d 6b b5 bb
       0.09096855 0.026587842 0.07029761 -0.0055364505
0000c0 5a ae de 3d 73 49 d3 bd 6e b2 da bc 6d 3a c0 3c
       0.10873099 -0.10316744 -0.02669641 0.02346536
0000d0 01 5b 6d 3d be dc 5b 3d 05 38 2b bd 80 9b a3 bd
       0.057948116 0.053677313 -0.04180147 -0.07988644
0000e0 5e f0 fa 3c 03 72 b4 3c 01 d3 94 bd ff 94 47 3d
       0.030632194 0.022027021 -0.07266808 0.048726078
0000f0 db ce e2 bd cc 5b 0d bd 32 a0 a2 3d 52 96 b3 bd
       -0.11074611 -0.034511372 0.07940711 -0.08768906
000100 7b b8 12 bd 84 b6 a0 3c 41 a1 ee bd 28 cc 2f bd
       -0.035820466 0.01961828 -0.116518505 -0.042919308
000110 78 08 34 bc d0 48 10 bd 37 7c 3d 3d c3 3a 8b bd
       -0.010988347 -0.03522569 0.04626104 -0.06798317
000120 57 31 30 3d 36 05 6d 3c d3 42 af bd 47 94 d1 3d
       0.043015804 0.014466574 -0.085576676 0.1023336
000130 29 06 02 bd 31 3e 79 bd 66 10 8b bd 38 47 ad 3d
       -0.031744156 -0.060850326 -0.06790237 0.084608495
000140 ec 60 d0 3d 10 17 8c 3d a0 2d 42 3d 89 ed fd 3b
       0.101747364 0.06840336 0.047406793 0.0077492637
000150 15 09 50 3d e7 0e 13 3d 09 e1 09 be 9c 83 5d 3d
       0.05078991 0.035902884 -0.1346475 0.05408059
000160 3e ad cb bd be 1d 72 bc cd 94 a7 bd 6c 87 92 bc
       -0.09945153 -0.014777599 -0.08182678 -0.01788684
000170 28 e8 02 3d 55 e9 8e 3d 5e 7a a7 3c 46 fb ce bd
       0.031959683 0.06978098 0.020444091 -0.1010652
000180 f0 0c ec bd cb 9d 97 bc a0 a9 1e bd c9 56 97 3d
       -0.11525905 -0.018507859 -0.038735986 0.073896
000190 7b 5b 9a bd c1 58 6c bd e0 3a 50 bd 4f f2 15 3d
       -0.0753698 -0.05770183 -0.050837398 0.036608037
0001a0 57 8b b0 3d 2a 47 66 3d 7f 0b cc 3b 33 8f cb 3c
       0.08620327 0.05622021 0.0062269564 0.024848556
0001b0 34 b0 e8 bd 2c 07 aa 3c 69 ad 6e 3d d2 11 89 bb
       -0.11361733 0.020755373 0.058270846 -0.0041830325
0001c0 00 c8 83 bd e2 81 b8 bd 30 6e f8 bd 37 36 96 bc
       -0.06434631 -0.09009148 -0.121303916 -0.018336399
0001d0 35 62 41 bd d7 dc e5 bc ad 84 3c 3d c6 09 04 bd
       -0.0472128 -0.028059406 0.046024967 -0.032235883
0001e0 24 69 66 3c 0e b3 f6 bb b5 24 88 3d e4 3d 8e 3d
       0.014063153 -0.007528669 0.06647626 0.069453984
0001f0 13 77 94 bd b4 c7 e8 bd d2 57 cb 3c 94 00 b8 bc
       -0.07249274 -0.11366215 0.02482215 -0.022461213
000200 f1 31 27 bc bc a5 70 3d 3f e6 ef bc 47 bd 1c bc
       -0.010204778 0.058751807 -0.029284595 -0.009566612
000210 da 18 68 bd 91 9f 1e bd ae bb 95 bb 8f 84 bb bd
       -0.056664325 -0.038726393 -0.0045694923 -0.09156143
000220 c2 ea c5 bd 3c 2d 9d bd bb bd 49 bd ff 09 ea bd
       -0.09663917 -0.076746434 -0.049253207 -0.11427688
000230 79 c8 f4 bd a3 53 16 3d 48 36 c7 bd ce 58 e6 bc
       -0.119522996 0.036700856 -0.0972715 -0.028118517
000240 b2 32 ab 3d 7a 8e 0b bd c3 bf b1 3c a2 22 9e 3d
       0.08359279 -0.034071423 0.021697884 0.077214494
000250 0d a1 a2 bd eb 35 b4 bc b1 09 01 bd dd dd ea bd
       -0.07940874 -0.021998366 -0.031503383 -0.11468098
000260 8e 78 db 3b 6e 38 f5 bc b8 d3 5f bd 86 3b 98 3d
       0.006697721 -0.029934134 -0.05464527 0.07433228
000270 92 86 1d 3b 74 da 72 bd a6 03 d6 bd ab 16 0f bd
       0.002403651 -0.059290364 -0.10449915 -0.034933727
000280 03 a3 d4 bd ef 87 cd bb 87 bd b0 bd a5 be bb bd
       -0.103826545 -0.006272308 -0.086298995 -0.09167222
000290 cf 97 0c be 8b 30 29 bd 10 7d 3d 3d 38 de be 3c
       -0.13729785 -0.04130606 0.046261847 0.023299322
0002a0 c2 3b 84 3d 57 0c be bb 1c 0e c1 3c 59 8a 91 bd
       0.064567104 -0.005799811 0.023566298 -0.07106466
0002b0 83 d6 1e 3d 07 02 9a 3c ca d2 a8 bd 65 c0 bb bd
       0.038778793 0.018799795 -0.0824333 -0.09167556
0002c0 a5 16 72 bd 67 3f 0a be 1b c2 e0 3c 66 f3 fa bd
       -0.059103627 -0.13500749 0.027436307 -0.12253456
0002d0 36 c4 bc 3c 49 43 80 3c 1d c0 05 be 02 9b 8d 3d
       0.02304278 0.015657084 -0.13061567 0.06914331
0002e0 1f 4e db 3d 4a 2f c5 3c 81 88 c6 3b 06 cd 7b bd
       0.1070826 0.0240704 0.006058753 -0.061474822
0002f0 7e fc 68 bc 1d 76 82 3d 87 b9 d3 bd 3b 2a 8f bd
       -0.014220355 0.063701846 -0.10338121 -0.06990477
000300 f8 64 51 3b 24 51 4f bc 63 9c bb bd c9 4f 54 3d
       0.0031951051 -0.012653623 -0.09160688 0.0518339
000310 7e 7b 38 3d 90 f3 a8 3c 44 e7 83 3d 3a 8e a8 bc
       0.045039646 0.020623952 0.06440595 -0.020575631
000320 1c f0 31 3c fb 45 45 3d 62 b7 12 3d 1f 37 1e 3d
       0.010860469 0.04816244 0.03581942 0.038626786
000330 f8 ff df bd f6 60 da bd e8 26 d5 bc a8 01 c1 bd
       -0.10937494 -0.10663025 -0.026019529 -0.09424144
000340 74 75 ee bd 35 cf b8 bd 7d 84 2d 3c 11 be 32 bd
       -0.11643496 -0.090238966 0.01059067 -0.043638293
000350 8a 13 c9 bc e7 4f b1 3c d2 75 02 bd 48 d5 60 bc
       -0.02454545 0.021644546 -0.031850643 -0.013722725
000360 80 b0 86 3d 2f f3 3f 3d ca 19 af bd 16 cf 67 bc
       0.065766335 0.046862777 -0.08549841 -0.014148494
000370 22 dc c4 bc a7 93 48 3d d8 53 a3 bd 3d 88 63 bd
       -0.024030749 0.048968937 -0.07974976 -0.05554985
000380 01 ae 7a bd 03 b7 8f 3d 99 77 7a bd 9d 4c ab 3d
       -0.0612011 0.070173286 -0.061149213 0.08364222
000390 50 76 b7 3d 06 16 9e bd 0d 9f 6a bd 18 ec 95 bd
       0.08958113 -0.077190444 -0.05728059 -0.07320422
0003a0 39 a6 69 3d 33 ac 92 3c f3 4b 34 3b fd c5 c9 bd
       0.057043288 0.017904377 0.002751109 -0.098522164
0003b0 cc e3 cf bc 2f c5 b9 bd 1a 30 d5 bd 1d f4 84 3d
       -0.025377177 -0.09070813 -0.10409565 0.064918734
0003c0 68 3d 0a 3c 85 28 55 3d 7c 2f bf bd 4b 08 0a 3c
       0.008437492 0.052040596 -0.09335229 0.008424829
0003d0 a9 2c 97 bc d6 8e 66 3d 21 53 8a 3d 24 68 d3 bd
       -0.018453913 0.056288563 0.06754137 -0.103225976
0003e0 c2 54 83 3d 7d 8e f5 bd 98 c7 b1 3c bb d0 bc bd
       0.06412651 -0.11990068 0.021701619 -0.092195
0003f0 33 66 e3 bd fe bc 8e bb a1 34 a3 3c 24 16 40 bd
       -0.11103477 -0.0043560257 0.019922556 -0.046896115

bias f4 [40]
000000 8d a1 28 bc 38 6b e9 3b 92 47 26 be 5c 2a 70 3d
       -0.010292423 0.007123377 -0.1623824 0.058634147
000010 26 96 59 3d 59 a6 9f 3d 2e 01 02 3c bf 99 96 3c
       0.05312171 0.077954 0.007934852 0.018383859
000020 56 5a e4 bd 41 cf 53 3d aa 31 66 3c a5 d1 90 3c
       -0.11150043 0.051711325 0.014049927 0.017678091
000030 e3 d6 db bd 3f 64 5a bd db 22 97 bd 2c 8a 2c 3d
       -0.10734346 -0.05331826 -0.07379695 0.04212396
000040 b3 74 f3 3d 2e 7a 3a bd 15 01 59 3d 66 e3 dc 3c
       0.11887493 -0.045526676 0.052979548 0.0269639
000050 86 25 93 3d a7 a1 27 3e f3 ab 94 bd a6 e1 b0 3d
       0.071848914 0.16370259 -0.07259359 0.08636789
000060 1b b0 fd bd ef 8e c6 3d b6 c1 b1 3d b0 f1 51 bd
       -0.12387105 0.09695231 0.086795256 -0.05125588
000070 4f 52 a3 bd b5 aa dd 3d 35 76 d0 bc bf 97 9d 3d
       -0.079746835 0.108235754 -0.02544699 0.07694959
000080 1f 3b db 3c d2 10 c0 3d 93 6c ca 3d 3a 22 4f bd
       0.02676159 0.09378208 0.0988399 -0.05056975
000090 05 55 bd bd 17 f5 92 3c 01 06 e4 bd 62 dd c1 bd
       -0.09244732 0.017939134 -0.11133958 -0.094660535

weight f4 [40, 80]
000000 77 aa d9 bc e7 39 d3 3a 94 d5 53 3d 6f 0d 2a 3d
       -0.026570542 0.0016115279 0.051717356 0.041516718
000010 c4 58 06 be 55 af eb bd 44 5d 50 bc 66 0a 17 be
       -0.13119799 -0.11508051 -0.012717549 -0.1475006
000020 48 ac 4b bd 76 08 29 3d 7a ea 97 bd cc 2a 11 be
       -0.049724847 0.041267835 -0.0741777 -0.14176482
000030 6a 29 7a bd 29 ca ca bd 18 ee f2 3c fa 06 cb bc
       -0.06107465 -0.0990184 0.029654548 -0.0247836
000040 3b 4d 1c be e4 7c ec 3c 6b 06 6f bd 24 04 18 3d
       -0.15263836 0.028868146 -0.05835573 0.037113324
000050 9e c0 c2 3c 8a ab 80 3d bd 9d ff bd 7c 31 a8 bd
       0.023773488 0.062827185 -0.12481258 -0.082125634
000060 f0 0d 2c 3d 35 8d 08 3d 7f 3e b0 bd 69 0d 0f be
       0.04200548 0.03333779 -0.0860567 -0.1396996
000070 bc 86 50 bd d6 cd 06 be 36 4b 3a 3d 39 3a 5b bd
       -0.050909743 -0.13164458 0.045481883 -0.053522322
000080 b3 39 a2 bd c9 9a 2f be 87 98 a0 bd bd 51 ec bd
       -0.079211615 -0.1714889 -0.07841592 -0.11539028
000090 e8 72 42 bc 2b 4d 22 be d7 ed 8a bb 6d f6 37 3c
       -0.011868216 -0.1584975 -0.0042397785 0.011228186
0000a0 52 e3 e0 bc d8 00 8e bd fc 42 25 be 00 c3 0a be
       -0.027452145 -0.06933755 -0.16138834 -0.13550949
0000b0 3b cc 66 3a 6b 1c 8e 3c 65 b9 22 3d 5b 12 b9 bd
       0.00088042364 0.017347535 0.039727587 -0.09036704
0000c0 77 88 ff bd 11 ae eb bd 2e 29 0c be 28 51 8e bd
       -0.124772005 -0.1150781 -0.13687584 -0.06949073
0000d0 9d 24 2b be d9 d0 30 3d 14 9a 1e be 3a c9 20 be
       -0.16713186 0.043167923 -0.15488464 -0.15701762
0000e0 e2 20 2e be 2b 48 31 3c c7 e7 4b bd 61 16 f5 bd
       -0.17004731 0.010820429 -0.049781587 -0.11967159
0000f0 19 11 3e bd 38 d6 10 bd 47 b3 0e be a7 bc 23 3c
       -0.046403024 -0.035360545 -0.13935576 0.009993709
000100 a4 ba b0 bd 4e fe 88 3d f1 6a 96 bd a6 99 b9 bc
       -0.08629349 0.0668913 -0.07344616 -0.022656273
000110 be d8 4a 3d bc 11 76 bc 48 5c c2 bd 97 c8 19 be
       0.049523108 -0.015018877 -0.094902575 -0.15017925
000120 2c 8d cf bc e0 26 1a be 65 8c 1a 3c af 31 13 be
       -0.02533587 -0.15053892 0.009432887 -0.14374422
000130 d7 37 9e bd 1f b3 df 3a c6 9b f2 bd 71 a9 06 be
       -0.07725494 0.0017066932 -0.11846118 -0.13150574
000140 f6 5c c8 bd f8 86 2c bd 6a ad 5d bc 6e bb 17 be
       -0.09783356 -0.042120904 -0.013530115 -0.14817593
000150 c0 d0 bf bd 8d 8a 19 be e4 2e 74 bd 4a 18 03 be
       -0.09365988 -0.14994259 -0.05961503 -0.12802234
000160 4b c0 09 3d 22 e6 e3 bc 69 55 26 3d f0 ec 06 3d
       0.03363065 -0.027819697 0.040608797 0.032940805
000170 f6 67 b2 bd db e1 0c bd 37 20 ae bd 46 27 b3 bc
       -0.08711235 -0.03439508 -0.08502238 -0.021869313
000180 3d 22 31 bd 17 5a ef 3c 35 99 52 3c 60 f1 a8 3c
       -0.043245543 0.029217763 0.01285391 0.02062291
000190 5e 7c 9e bd 80 30 89 bd 23 70 1e bd e5 5e c8 bd
       -0.07738565 -0.06698704 -0.03868116 -0.09783725
0001a0 23 f8 ed 3c dd 90 00 be 41 0a e6 bd 7f 12 bf bd
       0.029048985 -0.12555261 -0.112324245 -0.093297
0001b0 5a 4e 07 be 0f ba b6 bd c3 a0 98 bc 2c f4 1a be
       -0.13213482 -0.089222066 -0.018631345 -0.15132207
0001c0 0d 7f 67 3c 21 31 13 be 2c e7 06 be f9 26 0a 3d
       0.014129412 -0.1437421 -0.13174123 0.033728573
0001d0 70 97 37 bd 25 4d fe bd f7 99 2d be 25 aa e2 bd
       -0.044822156 -0.12417058 -0.16953264 -0.11067609
0001e0 52 36 22 bd 56 c3 da bd 6e e0 4f bb b3 78 7d 3c
       -0.039602585 -0.106817886 -0.0031719464 0.0154706715
0001f0 0f 69 03 be a9 90 70 bd 15 c6 d3 3c d5 a6 c1 3c
       -0.12833045 -0.05873171 0.025851289 0.023639122
000200 aa 16 00 3d 56 00 18 bd ea d4 a7 bb 39 d8 c1 bd
       0.031271614 -0.037109695 -0.005121817 -0.09465069
000210 2e a2 2f 3d 62 60 75 bd 9d 17 25 bc 60 b3 05 bd
       0.042879276 -0.05990637 -0.010076431 -0.03264177
000220 9b 96 5c bd 85 40 e1 bc a2 a2 cd bc 51 8c ad 3b
       -0.053854566 -0.027496586 -0.025101963 0.005296268
000230 2c a1 5c 3d e4 d2 c0 bd 8b 29 23 bd 74 81 df bd
       0.053864643 -0.09415224 -0.03983454 -0.10913363
000240 5c f5 bc 3c b2 d0 99 3c e0 2e 18 be 73 9f 0e bd
       0.023066215 0.018776271 -0.14861631 -0.03482003
000250 d8 e0 c8 bd 2b 89 2b bd 67 45 df bb 05 0e a2 bc
       -0.098085105 -0.04187886 -0.0068136933 -0.019782076
000260 c2 79 97 bd f7 82 ba bd 2b ab 93 bd e0 7c b7 bb
       -0.0739627 -0.09107011 -0.07210382 -0.005599603
000270 84 62 0b be 9a e3 74 3c 16 fe 11 be f2 28 14 bd
       -0.136118 0.014946843 -0.14257082 -0.03617186
000280 f7 ce 17 3d f0 b1 f3 bd d9 40 62 bd eb 0b dd bd
       0.03706261 -0.11899173 -0.055237625 -0.10793289
000290 3f a0 08 be 16 97 da bd eb fc 5a bc cf 02 13 be
       -0.13342379 -0.106733486 -0.013365964 -0.1435654
0002a0 81 8e bd bb 8e e0 f1 bd 27 f2 90 3a e2 9a db bd
       -0.00578481 -0.118104085 0.0011058495 -0.10722901
0002b0 d4 91 3c 3d 13 bc a6 3c 5b fb d2 bd c8 2b 80 3d
       0.04603751 0.020353353 -0.103018485 0.062583506
0002c0 7a 44 f4 bd 1b 95 d2 bd 74 e4 94 3c 7a d5 9c bc
       -0.11927123 -0.10282346 0.018175341 -0.019144762
0002d0 1c 2b 1e be 87 28 c2 bc 0d f5 24 be a8 a4 78 3c
       -0.15446132 -0.023700966 -0.16109104 0.015175976
0002e0 66 c9 c5 3d 66 bd 58 3d 8e e6 2a be fa cb 89 3c
       0.09657554 0.052915 -0.16689512 0.016820896
0002f0 56 2e e2 3c d0 c7 7f bc 02 be 92 bd 07 4b ae 3c
       0.027609985 -0.015611604 -0.07165147 0.02127601
000300 9b 57 29 bd de ad 1f 3c d1 c4 08 be dc 8d cc bd
       -0.041343313 0.009746043 -0.1335633 -0.09987995
000310 17 c2 18 be e8 46 dd bd f2 ec 4f 3a 36 47 dc bc
       -0.1491779 -0.1080454 0.0007931731 -0.026889425
000320 b6 df 3f 3d 9a cd 11 3d 88 77 b7 bd 45 8c 3c bd
       0.046844207 0.035596468 -0.08958346 -0.04603221
000330 0d 1a 95 bd 75 70 23 bd 73 72 89 bd 7f 9e e3 bd
       -0.072803594 -0.03990217 -0.067112826 -0.11114215
000340 08 ac cb bd 2f ff 09 be 20 59 bc bd 04 d6 ba bd
       -0.09944922 -0.13476251 -0.09196687 -0.091228515
000350 fe 2f 7e 3c 46 89 76 3d b5 c4 92 bd 93 f3 ff bd
       0.015514372 0.060189508 -0.07166425 -0.1249763
000360 51 7f 70 bd c5 53 3e bc 48 5f dd bd de 46 ef bd
       -0.05871517 -0.011616652 -0.10809189 -0.11683439
000370 76 d7 f5 bd 2a 2d 02 be d9 13 ff bd 0f f2 8e 3c
       -0.120039865 -0.12712541 -0.124549575 0.017449407
000380 31 35 45 3d 36 ca 1b be 8b 6c cf 3c 3f 9a f5 bc
       0.04814643 -0.15213856 0.025320312 -0.029980777
000390 a6 5e 85 3d db b3 70 bc 20 09 d7 3b 9f e8 4c bc
       0.065121934 -0.014691318 0.006562367 -0.012506633
0003a0 e1 ca 03 be bf b3 d2 bd 91 56 49 3c 27 ea 2b be
       -0.12870361 -0.1028819 0.012288705 -0.16788541
0003b0 c9 b0 db bd 93 84 25 3d fa c8 30 be 81 b1 fb bc
       -0.107270785 0.040409636 -0.17264166 -0.030724289
0003c0 53 2a 5f bc 20 5a 48 3d 2f 43 f4 3c e8 0f 40 3d
       -0.013620931 0.048914075 0.029817192 0.04689017
0003d0 e5 62 00 bd ad b6 04 be 8e 94 3e bd ee 27 17 be
       -0.031344313 -0.1296031 -0.04652839 -0.14761326
0003e0 86 71 70 3d bc 25 be bd 9c f4 ef bd 39 f8 64 3d
       0.058702014 -0.09284541 -0.117165774 0.055900786
0003f0 40 5a ad 3c 23 8f 99 bd 16 a6 70 3c cd 1a d3 3b
       0.021161199 -0.07498004 0.0146880355 0.006442404

bias f4 [40]
000000 b4 2a c5 ba e9 f0 d3 3c a3 5e 02 be 71 dc 9f bd
       -0.0015042634 0.02587171 -0.12731414 -0.07805718
000010 3e f7 18 be 86 0d 19 be e5 f4 a3 3c 66 db c8 bd
       -0.14938065 -0.14946565 0.020014236 -0.09807472
000020 db 77 0e be 25 79 37 be a1 bd a8 bd 5f 2b fa bd
       -0.13912909 -0.17917307 -0.08239294 -0.12215304
000030 b2 24 57 bd b7 47 62 3c 1f 8e fc bb 7a 65 f6 bd
       -0.05252523 0.013811043 -0.007707372 -0.12031074
000040 b4 d5 9b bd c0 4c 33 be 3a 45 16 be 9e 56 23 bd
       -0.0760912 -0.17509747 -0.14674845 -0.039877526
000050 b1 d5 21 bd 68 18 bc bd f4 84 18 be 80 d4 bb bd
       -0.039510433 -0.091843426 -0.14894468 -0.091713905
000060 0e 27 ca bb 8c 2c 8a 3b e1 ed f1 bd 73 25 17 be
       -0.0061692065 0.004216736 -0.1181295 -0.1476038
000070 87 4d 69 bd 2d 62 df bd 52 c2 31 be 96 9b 25 bd
       -0.0569587 -0.109073974 -0.17359284 -0.04043158
000080 83 e7 06 be d9 6b 1e be d5 c8 e7 bd 31 45 6a bc
       -0.13174252 -0.15470828 -0.113176025 -0.014298723
000090 36 32 c6 bc 25 6b 04 be e5 d5 c1 3c be fa 6c bd
       -0.024193864 -0.12931497 0.023661563 -0.057856314

weight f4 [80, 40]
000000 59 c9 f7 3d ad 13 84 bd 67 da 4a 3e 68 2e f0 bd
       0.12098951 -0.06449065 0.19809876 -0.11727601
000010 4e 0d 56 3c 27 af 48 bd 05 c9 ef bc 4f c0 88 3d
       0.0130646955 -0.048995163 -0.029270658 0.06677305
000020 73 6e d3 bd 2f e6 72 3d 3d 58 e1 3d ba 5b 08 be
       -0.10323801 0.05930155 0.11003158 -0.13316241
000030 68 03 16 3e 21 21 a2 bd 56 b5 cc bd 0d 51 00 be
       0.14649737 -0.07916475 -0.099955246 -0.12530918
000040 b8 88 f8 bd 94 92 0a bd d7 14 87 bd ea 4a 97 3d
       -0.12135452 -0.033831194 -0.06595772 0.073873356
000050 e8 2e 2b bc 25 2e b4 bc c5 7c 91 bc f9 21 0f 3d
       -0.010448195 -0.02199466 -0.01775969 0.03494451
000060 b7 33 b2 bd 50 63 b4 3c a4 44 c5 3c ed 49 8e bd
       -0.0870127 0.022020012 0.024080582 -0.06947694
000070 04 96 c7 bd 40 ea 8e 3d 82 a0 c2 3d 00 b3 a3 3c
       -0.0974541 0.069782734 0.09503271 0.019982815
000080 d2 7d 98 bd 86 97 d8 3d 00 9a ce 3d 38 23 76 bd
       -0.07445873 0.10575776 0.10087967 -0.06009218
000090 a9 d5 01 bd 80 ba 94 bb 8a ad 85 bd c9 85 4c bd
       -0.031697903 -0.004538834 -0.065272406 -0.049932275
0000a0 88 e5 d2 bd 09 96 22 3c 3e f1 92 3d 5b 50 55 3d
       -0.10297686 0.0099234665 0.071749195 0.052078586
0000b0 2b ae 83 bd 30 78 15 bc 50 57 fd 3c 85 00 02 be
       -0.06429704 -0.009122893 0.030925423 -0.1269551
0000c0 bc 33 b4 bc 13 d0 f8 3d 29 c3 e6 3d 54 57 43 3d
       -0.021997325 0.12149062 0.112676926 0.047690704
0000d0 9b 6a 0c bc 53 c4 3c bb 2d 7c a6 3d 81 7a 00 be
       -0.008570339 -0.0028803542 0.081291534 -0.12546732
0000e0 89 bb 88 bd f0 32 52 3c fa ca ca 3c 72 4b fb bb
       -0.066763945 0.012829527 0.02475499 -0.007668906
0000f0 7e c5 e5 3c 60 a7 7f 3d a6 f4 49 3d 04 92 04 be
       0.028048273 0.06241548 0.04930558 -0.12946326
000100 bf 79 b1 bd 96 2a 71 3c 3d 6a 64 bb f6 f2 bc 3c
       -0.08665799 0.014719626 -0.0034853362 0.023065072
000110 9d ca 9f 3d de 01 ec bd f6 32 42 3d d2 be e6 3d
       0.07802317 -0.11523794 0.04741188 0.11266865
000120 b2 55 e7 bd 4b 7b 1f bd 47 25 fd 3d fe 09 f6 3d
       -0.11295642 -0.03893594 0.12360626 0.120136246
000130 8c c7 c7 3c ca 03 fa 3d a2 ec 00 3e 37 40 01 3e
       0.024387144 0.12207754 0.12590268 0.12622152
000140 30 c3 d8 bd 9a 17 a7 bd 01 cb d9 bd 23 c7 73 3d
       -0.10584104 -0.081587985 -0.10634423 0.059516083
000150 6e 0d 03 be 34 78 91 3d 12 44 50 3d 78 61 dc bd
       -0.12798092 0.07103005 0.050846167 -0.10760778
000160 56 63 14 bc 52 f8 03 3d 5d 41 d0 bd 59 91 71 bd
       -0.009056887 0.03221924 -0.10168717 -0.058976505
000170 78 2a d2 bd dd ce 78 bc ef 3a c6 bc 78 32 53 bd
       -0.102620065 -0.015186039 -0.024198024 -0.051561803
000180 a8 18 5f bd 15 b2 ea 3d fb ef ea bd bf 0b 56 3c
       -0.054466873 0.11459748 -0.11471554 0.013064324
000190 c2 93 a9 3d 0a 07 27 be 31 8e 47 3d 92 7d 5b bd
       0.08280136 -0.16311279 0.04871959 -0.05358655
0001a0 24 91 cb 3c fa 27 e5 3d 73 89 52 3d ea 27 eb 3d
       0.024849482 0.111892655 0.051400613 0.114822224
0001b0 eb df c4 3c d7 45 84 3d 44 e0 30 3d 8b 8e cf 3d
       0.024032554 0.064586334 0.043182626 0.1013461
0001c0 1e b5 36 bd fe 6e ce bb c3 f5 26 bd 82 5e 92 3d
       -0.04460632 -0.0062998524 -0.04076172 0.07146932
0001d0 cd b3 00 be 45 48 b4 bd a2 df 9c 3d 57 fd 1d bd
       -0.12568589 -0.08802847 0.07659842 -0.03857168
0001e0 47 e5 9b bd c6 16 fe bd 9b e6 2e 3e 6a b4 e5 3d
       -0.076120906 -0.124066874 0.17080157 0.11216052
0001f0 82 20 b5 3d fb 40 55 bc b4 cb 0e 3e 41 20 a6 bd
       0.08844091 -0.013015981 0.13944894 -0.08111621
000200 c0 cd 77 3d d2 c0 60 3d 8f 34 9f bd 7f d6 c3 3d
       0.060498953 0.054871388 -0.07773697 0.09562396
000210 d3 a6 02 3e 6f ae 2d 3d 39 ae e1 bd 02 cc 41 bd
       0.12758951 0.04240268 -0.110195585 -0.047313698
000220 31 37 c0 3c d2 ce 6e 3d c1 63 cd 3d 3b ad c2 3d
       0.023463817 0.058302708 0.10028792 0.09505697
000230 d2 c7 9c 3d f6 51 25 3c ef d3 e1 3c ce 56 bf 3d
       0.076553 0.010090342 0.027566878 0.093427286
000240 16 61 1a 3d e2 b0 0f bd cd 8d 40 3d 0b 30 3c bc
       0.037690245 -0.035080798 0.04701023 -0.011486064
000250 88 17 dd 3d c6 31 c4 3d 0d 5a be 3c 43 95 83 bd
       0.10795504 0.09579806 0.023236299 -0.06424954
000260 3f f7 c8 bd 68 88 79 bd 58 1c f9 bd 52 a5 a9 bd
       -0.098127834 -0.060921103 -0.12163609 -0.082834855
000270 b1 7b e0 bd 22 7c b5 bd cc b3 06 3c f3 29 b2 bd
       -0.10961092 -0.08861567 0.008221578 -0.086994074
000280 51 d1 29 3d 83 a4 be bd d0 eb c5 3d f3 f5 8c 3c
       0.041459385 -0.09308722 0.09664118 0.017207121
000290 ff ed 34 3d f4 af b7 3c 55 3d cc 3d 39 b1 d7 3d
       0.044172283 0.022422768 0.09972636 0.105318494
0002a0 0b 67 94 bd 84 c0 ae 3d 90 ee 9d 3d d0 15 2f 3d
       -0.072462164 0.08532813 0.07711518 0.04274541
0002b0 3c 3c ef 3d 7d 47 ec bd 68 73 02 3e 4d 0b 6a b8
       0.11681411 -0.11537073 0.12739336 -5.5800472e-05
0002c0 d5 f5 5d bd d9 8d 86 bd a5 18 11 be d7 96 aa bd
       -0.05418952 -0.06570024 -0.14169557 -0.08329552
0002d0 58 76 48 bd 48 14 ab 3d 4e 80 99 bd 7a be d4 bd
       -0.048940986 0.08353478 -0.07495175 -0.10387893
0002e0 48 fc c2 bc fa c5 f2 bc cc 30 1e bc 0c af 88 3d
       -0.023801938 -0.029635418 -0.009655189 0.066740125
0002f0 cd 73 f4 3d 21 cb c6 3d 86 2b 24 3e af 9e 76 bd
       0.1193615 0.097067125 0.16032228 -0.060209926
000300 c6 2e e3 bd 57 9e e7 bd 73 7d 59 3c 38 34 f4 3c
       -0.11092906 -0.11309498 0.013274538 0.029810056
000310 5e 17 e8 bd 59 5b 8d 3c ec 5a 01 be 9c 77 8a 3b
       -0.11332582 0.017255472 -0.1263234 0.0042256843
000320 56 d7 a3 3d 60 f4 d7 3d 3f 31 3c 3d 9a fd 20 bd
       0.080000564 0.10544658 0.045945402 -0.039304353
000330 ba 80 cd bd 2b 46 e0 3d cd aa 9c 3d 7c 49 d0 3b
       -0.10034318 0.109508835 0.07649765 0.0063564163
000340 dc a9 35 bd a9 66 a6 39 ef 2f 9c 3d b4 e5 96 3c
       -0.044351444 0.00031738475 0.0762633 0.018420078
000350 b5 7d 87 3d 63 4f ec bc f4 4d a2 3d 43 54 e7 3d
       0.066157736 -0.028846448 0.07925025 0.112953685
000360 69 69 0c be 8b 31 a0 3d e2 91 41 bd 45 3c 41 3d
       -0.13712086 0.078219496 -0.047258265 0.047176618
000370 d7 16 18 be 0d 17 af 3d f2 25 c2 3b 4f 6b b8 3b
       -0.14852463 0.085493185 0.0059249336 0.0056280266
000380 8e 5e f1 3d 26 3c e2 bb b3 93 dc 3d fa 39 8b bd
       0.11785613 -0.006904143 0.10770359 -0.067981675
000390 c3 e7 f8 3d 8a bf b3 bc f8 af c1 bc 91 4b a8 3c
       0.1215358 -0.021941919 -0.023643479 0.020543845
0003a0 37 95 89 bd 6e b5 38 3d 51 c4 b3 3d 59 eb 14 3c
       -0.067179136 0.0450949 0.08777679 0.009089314
0003b0 64 f8 ff 3d 59 91 6f bc 2c 84 fb 3d d6 ab 9a bd
       0.124985486 -0.014622056 0.12281069 -0.07552306
0003c0 4c f6 d1 3c 20 39 5c bd 65 cf a3 bd 2e 73 5e 3c
       0.025630139 -0.053765416 -0.07998542 0.013577266
0003d0 49 89 3d 3d ab 5b 8d bd ae 02 9d bc 93 e0 b2 3d
       0.046273503 -0.0690225 -0.019166317 0.087342404
0003e0 7b 5e 12 3e e8 2b 24 bd de cb c7 3b 81 82 f9 bd
       0.14293854 -0.040080935 0.006097301 -0.12183095
0003f0 31 56 11 3e 39 35 59 3d 19 9f 74 bc 60 38 50 bd
       0.14193036 0.053029273 -0.01493051 -0.050835013

bias f4 [80]
000000 00 17 0f bd 8e 13 ae bc a4 94 e9 3d 48 70 27 be
       -0.034934044 -0.021249559 0.11405304 -0.16351426
000010 4b 92 d1 3d 4c 40 d8 bd a8 13 0f bd 2a 7e d2 bd
       0.10232981 -0.10559139 -0.034930855 -0.1027797
000020 e4 08 5c 3c c7 c9 02 3e f6 f4 60 bd 29 b5 f0 3d
       0.013429854 0.12772284 -0.054921113 0.117533036
000030 1c af ff bd bb cc 80 3d 92 13 38 be dc d0 f1 3c
       -0.12484571 0.06289049 -0.17976215 0.029518537
000040 43 a5 f2 bd c1 b3 15 be 98 60 22 be d9 45 eb bd
       -0.118479274 -0.14619352 -0.1585716 -0.11487932
000050 8c 93 b4 bc d9 ae 7b 3d 41 a0 96 3c c0 46 81 3c
       -0.022043012 0.061446045 0.018386962 0.015780807
000060 cb 69 69 bd d4 11 24 be be 22 cb 3d 8d f0 c8 3c
       -0.056985658 -0.16022426 0.09918736 0.024528766
000070 71 cb 4e 3d 89 2c 6a 3d d2 58 23 bd 5e 86 12 3d
       0.050486986 0.05717138 -0.039879628 0.035772674
000080 81 33 46 be 51 a3 9b 3c b5 fd 91 3b 76 d2 fd bd
       -0.19355585 0.018998774 0.004455293 -0.12393658
000090 c7 c4 cc bd 63 e3 0e 3c e7 b6 18 3e cb e8 80 3d
       -0.0999847 0.008721205 0.14913522 0.06294402
0000a0 73 ad b8 3d cf e0 0a 3c e3 9f 59 bc 02 6e 77 bd
       0.09017458 0.00847645 -0.013282749 -0.060407646
0000b0 b1 7c 7e bd 3c f8 03 3e e4 6d 95 bd 5a 0e 95 3d
       -0.062130634 0.12887663 -0.072963506 0.07278128
0000c0 a8 a0 34 be b9 36 05 3e 50 7c af 3d c8 b9 95 3d
       -0.1763941 0.13009156 0.085686326 0.073108256
0000d0 d4 82 a9 bd 79 bf dd bc 4b 2a a3 bd e4 61 d9 bd
       -0.082769066 -0.02706884 -0.07967051 -0.10614374
0000e0 61 dd 1c bd 58 7f c2 3d 11 d6 1c bd a9 97 06 be
       -0.03829706 0.09496945 -0.038290087 -0.13143791
0000f0 7d 96 b8 bd c4 c8 bf 3d 3c 52 35 bd c7 11 96 bd
       -0.09013078 0.09364465 -0.044267878 -0.073276095
000100 4d 32 f5 3d 48 81 b3 3d 5a 31 4d bd d2 02 d5 bd
       0.11972485 0.08764893 -0.050095893 -0.104009286
000110 2b 79 3d be d1 e8 04 3e e5 80 07 be e3 89 eb 3d
       -0.18503253 0.12979437 -0.13232763 0.11500909
000120 da 52 12 3e 8b f7 0c 3e e1 c1 ca 3d de 58 32 bd
       0.14289418 0.13766305 0.09900261 -0.04354178
000130 5a ba c5 bd 8a ec 3a be 1c 1a b3 3d fe dc 0c 3e
       -0.09654684 -0.18254295 0.08745214 0.13756177

weight f4 [5, 80]
000000 93 9c a6 3c 9c 88 68 bd 57 e6 63 3d 92 eb 96 3b
       0.020338332 -0.056770906 0.05563959 0.004605719
000010 3c ba 3d 3d 79 7a 74 bc 19 20 18 3b dd e0 9d bc
       0.046320185 -0.014921778 0.002321249 -0.019272262
000020 52 d1 62 3c b4 3c b3 bc 5a e9 dc 3c 85 19 3d 3d
       0.013843851 -0.021879531 0.02696674 0.046166915
000030 88 f5 0b bc b4 bc 84 3d fa e4 95 3c 44 d9 1a 3d
       -0.008542426 0.06481305 0.018297661 0.037804857
000040 78 43 a6 3d 7a a8 89 bd 3c 2a 21 bd 1b ec fe bc
       0.081183374 -0.067215875 -0.03934692 -0.031118443
000050 4f e0 68 ba 6d 0c 0b bd 62 d6 3d bd 55 bb 4e 3c
       -0.0008883522 -0.033947397 -0.04634703 0.012617906
000060 1b 0b 19 bd a9 a1 9c 3d 6e ca c4 3c 75 62 40 3d
       -0.037364107 0.07648022 0.024022307 0.046968896
000070 a1 76 98 bd ce 09 03 3d 2c 7f 22 bc 36 8f 80 bd
       -0.07444502 0.031991772 -0.009918015 -0.06277315
000080 a8 0e 4b 3d 63 08 c3 3c af b4 6a bb 3c 4b c8 3c
       0.049574524 0.02380771 -0.0035813262 0.024449937
000090 8e cd 82 3c 54 8d 0c bd 9f af 65 3d 65 4c 5a bd
       0.015967157 -0.03431447 0.05607569 -0.05329551
0000a0 fc cc 00 3d c7 59 78 bd 07 c5 65 bc ba d4 1f 3a
       0.03144549 -0.060632493 -0.014024026 0.00060970674
0000b0 fa df 6c 3d 0c e1 22 bd c0 04 c8 bc dc de 00 3d
       0.05783079 -0.039765403 -0.024416327 0.031462535
0000c0 ac 72 6c bc ca 31 ce bc 0c bb 8f bd 9b 80 98 bd
       -0.014431637 -0.025170226 -0.07018098 -0.074464045
0000d0 01 86 81 3c 67 03 3e 3d 57 4b 4a bc c4 8c 1c bd
       0.015810968 0.046389963 -0.012347064 -0.038220182
0000e0 ae 9d e4 3c 92 27 8a bd a5 82 0e bc fc da 50 bd
       0.027907219 -0.06745829 -0.00869814 -0.05099009
0000f0 9f 39 89 3d 00 06 92 bd 11 f6 6b bc 61 7a 17 bd
       0.067004435 -0.07130051 -0.0144019285 -0.036981944
000100 d0 08 02 bd 95 70 6c bd 1a 18 6a bb 0c 81 f8 bc
       -0.031746686 -0.057724554 -0.0035719932 -0.030334972
000110 ce d5 8e bb 1a 39 08 bc 73 6b 32 3d aa 8e 94 bd
       -0.0043589836 -0.008314395 0.043559503 -0.072537735
000120 4a b5 83 bd fd 95 78 bd 1b 78 8f bd e8 56 64 3d
       -0.064310625 -0.060689915 -0.0700533 0.055746943
000130 d4 c6 96 bc c3 a8 ce bb c9 21 57 bc 0a c5 87 3d
       -0.018405356 -0.006306739 -0.013130614 0.06629379
000140 5a ff 6a bd fb 68 32 bd 5c 77 ca bc 1f a1 0b 3c
       -0.05737243 -0.04355715 -0.024715118 0.008522301
000150 69 23 77 3c f0 7c 8e bd b9 67 ea 3c f0 29 11 bd
       0.015084126 -0.06957424 0.028613912 -0.035440385
000160 2c 20 a0 bc 44 b8 31 bd 92 d7 1b 3d 9d 7f 41 bc
       -0.01954659 -0.04338862 0.03804738 -0.0118102105
000170 6d f9 12 bd f8 4b 87 3d 0d c9 76 bd e4 09 0b bd
       -0.035882402 0.06606287 -0.06025033 -0.03394498
000180 cc d1 91 bd b8 90 65 bc eb d1 92 3d d6 32 1e bc
       -0.07120094 -0.014011554 0.07168945 -0.009655675
000190 bf 9e 32 3c 90 73 6d bb b0 e2 4b bd 1f 45 2c 3c
       0.010902106 -0.003623221 -0.049776733 0.010514527
0001a0 4b a4 80 3c 18 85 0c bd 68 fb de 38 1e 33 36 bd
       0.015703341 -0.034306616 0.00010632613 -0.044482343
0001b0 2a 13 c4 bc e2 c9 36 3d 85 ff 1d bd 9e dc 16 bb
       -0.02393492 0.044626124 -0.03857376 -0.0023019682
0001c0 bc b1 05 b9 79 e9 62 3c 08 7a e6 3c 41 c8 31 bd
       -0.0001275008 0.0138496095 0.02813436 -0.043403868
0001d0 26 67 7e bd d2 2c 80 bb d9 d8 61 bd 2d cb 01 3d
       -0.06211009 -0.003911593 -0.055138443 0.031687904
0001e0 98 cd d6 bc a6 67 46 3d 06 1b 6b 3c 10 62 e7 bc
       -0.026221082 0.04843869 0.014349705 -0.028245002
0001f0 6c 32 80 bc b1 28 d1 bb 91 9c 6d 3d e8 d5 99 bd
       -0.015649043 -0.0063830246 0.05801064 -0.075115025
000200 24 ae 03 3d a5 b3 8f 3c 7a f0 ea ba 71 72 63 3d
       0.032148495 0.017541716 -0.0017924451 0.05552906
000210 e4 32 3f 3d 0e 59 e3 bb 50 50 61 3c 9a ed 98 bc
       0.046679392 -0.0069381064 0.013752058 -0.018667985
000220 33 51 af 3d 35 f9 60 3d 7d d3 42 bd 73 da 9e bc
       0.085604094 0.054925162 -0.047564972 -0.019391274
000230 55 af 43 bd f5 d3 22 bd d4 4f 11 bd 33 83 7b 3c
       -0.04777463 -0.03975292 -0.03547652 0.015351105
000240 b4 72 0b bd b6 38 2b bd 56 8f 3d 3d 37 6c 28 bd
       -0.034044936 -0.04180213 0.046279274 -0.041118827
000250 81 c3 48 3c 41 f4 05 bd 51 62 dd 3c 9b 61 fb 3c
       0.012253643 -0.03270364 0.02702442 0.03068619
000260 0b 21 58 bd b0 af ba bc 7a 25 08 3d 65 ff f2 3c
       -0.052765887 -0.022788852 0.033238865 0.029662797
000270 80 41 04 3c 36 4e fc bc 44 95 55 3d 7f a5 65 bd
       0.008072257 -0.030799013 0.052144304 -0.056066032
000280 8f d8 e7 3c 5f 6c 21 bc 6c c8 1a 3c 7d b1 32 3d
       0.028301505 -0.009852498 0.009447198 0.043626297
000290 fb 4c 1c bd 38 5b 78 bd 9e d4 5e 3d 69 78 06 3d
       -0.03815935 -0.060633868 0.054401986 0.032829676
0002a0 9d c0 1f 3d 6b 1f 33 3c 7a b0 9f bc 8a 87 27 3d
       0.03900205 0.010932784 -0.01949333 0.040900744
0002b0 0b d1 75 bd 76 2a 00 3b c1 2b 81 3d 03 6d 5c 3a
       -0.060013812 0.0019556559 0.063071735 0.0008408578
0002c0 ff 43 ca 3c 74 d7 98 3c a1 a6 36 bc 24 91 96 3c
       0.024690626 0.018657424 -0.011148126 0.018379755
0002d0 8d 2e f9 3a c7 ec de 3c 72 2c 16 bd 85 e6 2d bd
       0.0019011066 0.027212514 -0.03666348 -0.04245617
0002e0 1b db f6 3b f7 d8 14 bd 8f df 7c bc f6 80 37 3d
       0.0075334436 -0.036339726 -0.01543416 0.04480072
0002f0 69 e6 0a 3d 42 8a 6b bc 3e da a5 3d 75 a3 08 3d
       0.033911142 -0.014376225 0.08098267 0.03335901
000300 4c 3f 2f bd e2 48 8f 3c 39 d7 09 3d 53 41 59 bc
       -0.042784974 0.017490808 0.033652518 -0.013260203
000310 9e dc 00 3b c1 cc 94 3b 0f bd 00 bd d1 7b 56 bc
       0.0019662748 0.00454101 -0.0314303 -0.013091044
000320 be 6a 08 3d 84 b0 fc bc 9f 2d 6b bd 74 d1 ee bc
       0.033304922 -0.030845888 -0.057416555 -0.02915261
000330 5f 9b ec bc ec db 00 ba 17 74 8d bd 52 6f 0b 3c
       -0.02888268 -0.00049155834 -0.06906908 0.008510428
000340 35 ab 9c bd 90 4d 3f 3d ce 6a eb bc 95 98 ee 3c
       -0.07649843 0.04670483 -0.028737452 0.029125491
000350 35 a6 4e bd 11 5e b7 3c bb 99 72 3b 9a 2e 01 bd
       -0.050451476 0.022383722 0.00370179 -0.031538583
000360 32 80 8a bb cd 11 0a bd 99 c1 54 3b 85 96 76 3d
       -0.004226708 -0.033708382 0.0032464026 0.06020214
000370 f0 26 b3 3d 61 5c 3f 3c 18 a7 e2 bb 55 f3 4a bd
       0.08747661 0.01167974 -0.006916892 -0.049548466
000380 24 ee 27 bb fb 24 05 bd 9e 8c e2 bc d0 69 74 3d
       -0.002562412 -0.03250597 -0.027654942 0.059671223
000390 e2 f6 d3 3b 76 df 88 bc ba 7f b5 3c cc ad 69 bd
       0.0064686397 -0.016708117 0.022155631 -0.05705051
0003a0 42 53 46 3c f4 27 4a bd 3f 7f 68 3d 11 d5 13 3d
       0.012104811 -0.04935451 0.056761976 0.036091868
0003b0 49 e8 56 bc b0 fa af bc 17 c6 3c 3d 58 31 7b bd
       -0.013116905 -0.021481842 0.04608735 -0.061326355
0003c0 2b ee 4a bc fb d0 66 bc 2e b3 eb bc 34 2c 16 ba
       -0.012385885 -0.014087911 -0.028771963 -0.00057286327
0003d0 4c 0b 4c 3d de 96 4a bd 14 cd 34 bd 4b 3c 4d bd
       0.04981546 -0.049460284 -0.04414089 -0.050106328
0003e0 dd 59 36 bd a0 2c 4d 3d 85 d8 96 3c c7 08 9b bc
       -0.044519294 0.050091386 0.018413791 -0.018925084
0003f0 c1 26 cc bd da 7a 40 bd 62 7b 51 bd 60 eb 1c 3d
       -0.09968329 -0.04699216 -0.051143058 0.03831041

bias f4 [5]
000000 7b cd 96 3d b3 35 84 3d 9e 96 2c bc c3 2f 34 bd
       0.07363411 0.06455555 -0.010533957 -0.04399086
000010 c2 39 95 bd
       -0.07286407
