final_project/mlruns/3/8c7e2e72a7a5444b9ba51613ed8546bf/artifacts/cvae_23/data/model.pth (torch, 48391 bytes, 10 tensors)

weight f4 [80, 11]
-0.25185424 -0.16802926 0.21346836 0.019984877 0.012237299 -0.10004863 -0.2497713 0.30898517
-0.020471083 -0.14226562 0.2986837 -0.20841953 -0.102435835 -0.24424599 -0.0941762 -0.08478567
-0.07777193 -0.22909838 -0.093378045 0.3022086 0.20998877 -0.054568578 0.011186783 -0.29375163
0.26415077 -0.038674176 -0.124690846 -0.18529142 0.04131077 0.17804308 0.2156576 -0.008522889
0.29642022 -0.16143432 0.08081842 0.04028095 -0.007982619 0.2068342 -0.34200618 -0.24482916
-0.07815248 0.019666823 0.042707656 -0.22063555 0.18398215 0.27726215 0.027301937 0.19406533
0.27413014 -0.071554475 -0.04353868 0.025459854 -0.19408664 -0.10351486 0.006921632 -0.05217933
-0.0841746 -0.10406482 0.1812106 0.07468927 0.17608675 0.24736044 -0.09610376 -0.12290465
-0.27031305 -0.036063626 -0.14082722 0.23401684 -0.31944284 -0.104719274 0.2625267 -0.1244981
-0.1036858 0.084003456 0.242046 0.026702318 -0.0848281 -0.1794183 -0.15813841 0.27909026
0.17541249 -0.11120895 0.11811284 0.20007248 0.08691618 0.03198127 -0.102049015 0.037573967
-0.086469926 0.15838149 0.2746952 -0.29239574 -0.19288613 -0.26245332 0.23672487 0.055326264
0.09124915 -0.28664848 -0.08989116 -0.24896078 0.12266614 0.12289642 0.037431184 0.13976566
-0.30147958 -0.14209281 -0.19669122 0.1794756 -0.14025283 0.119730406 -0.21320039 0.09357507
-0.25522092 -0.06698597 0.111344546 -0.14665839 -0.17002252 -0.13533947 -0.075519174 -0.25354552
-0.012829895 0.16116135 -0.22833948 -0.08532441 0.118054606 -0.20890875 -0.30041227 -0.16452467
-0.07284695 -0.082125075 -0.19439106 0.30417222 0.28430933 -0.028706444 0.102247864 0.1570237
-0.028753895 0.082054295 -0.062280282 0.27046043 -0.019893538 -0.0073423465 -0.27276856 -0.1353635
0.06903618 0.23522843 0.1595672 -0.19576931 -0.14678502 -0.06763725 -0.24790986 0.08419366
0.28082356 0.110612236 -0.26940614 -0.060635727 -0.022802245 0.17196539 0.22841714 0.13652568
0.18929946 0.23152545 0.15565445 -0.1775987 0.14059974 0.14535964 -0.1851497 0.18772475
-0.0899934 -0.04305254 0.1641587 0.0356235 0.002688629 -0.12716587 -0.25885957 -0.20874536
-0.08452355 -0.1683712 -0.14901318 -0.07257084 -0.1867573 0.12631871 0.2826544 0.017246123
-0.16744488 0.018235333 0.28222597 -0.15851694 -0.015715333 0.121124126 -0.26857483 -0.021196399
-0.013547511 0.3058056 -0.24613997 0.11882062 -0.2625954 -0.2456786 0.15571438 0.0152726
0.06653983 0.15866658 0.18654786 0.09429038 0.06542799 -0.08008446 0.0056245653 0.2747559
-0.20702468 0.053780872 -0.21305986 0.18815584 -0.10101344 -0.09122231 0.00012988903 0.2521979
0.17214088 0.22688372 -0.040091015 -0.04020525 0.11268916 0.015753893 0.20268588 -0.10147988
0.13337684 -0.08978068 0.30507344 0.21252288 0.3011795 0.055991784 0.14452553 0.027443567
0.09601493 0.070982754 -0.06733164 0.036391016 -0.33658573 -0.2554372 0.034116566 -0.31266367
0.15023541 0.22600013 0.10972618 0.19808169 -0.11022654 0.24983703 0.08896122 0.020299142
0.085333854 0.17856805 -0.18460636 -0.106427915 -0.069923565 0.0390051 0.1971012 -0.042947188
00000000: 0af3 80be dd0f 2cbe 7397 5a3e 53b7 a33c
00000010: f47e 483c 4ce6 ccbd 0cc4 7fbe 4e33 9e3e
00000020: f9b2 a7bc 14ae 11be 12ed 983e ee6b 55be
00000030: e1c9 d1bd 9f1b 7abe 74df c0bd 1ca4 adbd
00000040: e446 9fbd c498 6abe fd3c bfbd 16bb 9a3e
00000050: 4c07 573e 4d83 5fbd c548 373c 9d66 96be
00000060: c53e 873e d068 1ebd ea5d ffbd 09bd 3dbe
00000070: 7b35 293d ed50 363e 59d5 5c3e 96a3 0bbc
00000080: 64c4 973e 0a4f 25be 2184 a53d a3fd 243d
00000090: 88c9 02bc 58cc 533e 6f1b afbe 7fb4 7abe
000000a0: 680e a0bd 511c a13c 39ee 2e3d 49ee 61be
000000b0: d165 3c3e 4ef5 8d3e 50a8 df3c 10b9 463e
000000c0: c95a 8c3e 278b 92bd 9d55 32bd 2f91 d03c
000000d0: a6be 46be 99ff d3bd dcce e23b feb9 55bd
000000e0: bc63 acbd f01f d5bd 468f 393e b0f6 983d
000000f0: 1650 343e 0e4c 7d3e 0cd2 c4bd 6fb5 fbbd
00000100: 7966 8abe 74b7 13bd 0335 10be 1ca2 6f3e
00000110: 038e a3be 0f77 d6bd e669 863e dcf8 febd
00000120: 3959 d4bd 010a ac3d e8da 773e d2be da3c
00000130: 5bba adbd 6eb9 37be 09ef 21be ebe4 8e3e
00000140: 559f 333e 85c1 e3bd 25e5 f13d cddf 4c3e
00000150: 1c01 b23d cbfe 023d 13ff d0bd 29e7 193d
00000160: 2517 b1bd c22e 223e d9a4 8c3e e5b4 95be
00000170: f183 45be 4860 86be 0168 723e cb9d 623d
00000180: d6e0 ba3d 97c3 92be db18 b8bd 93ef 7ebe
00000190: 6338 fb3d 1eb1 fb3d 7151 193d bb1e 0f3e
000001a0: 885b 9abe c780 11be 6c69 49be 74c8 373e
000001b0: 709e 0fbe 3735 f53d 3451 5abe 49a4 bf3d
000001c0: 51ac 82be f12f 89bd 9c08 e43d 9e2d 16be
000001d0: 621a 2ebe 6e96 0abe cca9 9abd b8d0 81be
000001e0: 7b34 52bc 7b07 253e d3d1 69be 90be aebd
000001f0: 9dc6 f13d 2dec 55be a3cf 99be 2879 28be
00000200: c830 95bd 3131 a8bd 730e 47be 76bc 9b3e
00000210: fe90 913e c729 ebbc 5467 d13d d2ca 203e
00000220: 4a8d ebbc 150c a83d 9c19 7fbd ca79 8a3e
00000230: c6f7 a2bc 1198 f0bb 52a8 8bbe bb9c 0abe
00000240: d762 8d3d b9df 703e 9665 233e c077 48be
00000250: d04e 16be 6685 8abd 15dc 7dbe ba6d ac3d
00000260: 1bc8 8f3e ab88 e23d 9aef 89be 2b5d 78bd
00000270: c6cb babc b217 303e 2fe6 693e 63cd 0b3e
00000280: b8d7 413e 0215 6d3e e163 1f3e 6fdc 35be
00000290: 61f9 0f3e 28d9 143e e297 3dbe eb3a 403e
000002a0: 764e b8bd dc57 30bd 3819 283e f2e9 113d
000002b0: b633 303b c537 02be 3e89 84be 58c1 55be
000002c0: af1a adbd 8069 2cbe e996 18be 05a0 94bd
000002d0: 4e3d 3fbe b159 013e 14b8 903e be47 8d3c
000002e0: ac76 2bbe 4462 953c ec7f 903e 4452 22be
000002f0: 71bd 80bc ed0f f83d a482 89be 12a4 adbc
00000300: 61f6 5dbc 8d92 9c3e 1e0c 7cbe 3a58 f33d
00000310: e772 86be 2c93 7bbe 9773 1f3e ed39 7a3c
00000320: 0946 883d 7e79 223e 6706 3f3e 511b c13d
00000330: 1cff 853d 5203 a4bd 464e b83b ceac 8c3e
00000340: 47fe 53be 5549 5c3d 5d2c 5abe edab 403e
00000350: 22e0 cebd c3d2 babd d232 0839 1520 813e
00000360: b345 303e 3554 683e 7a36 24bd 43ae 24bd
00000370: 93c9 e63d 4f0e 813c e38c 4f3e afd4 cfbd
00000380: f093 083e efde b7bd 9632 9c3e 999f 593e
00000390: 3334 9a3e a457 653d 80fe 133e 55d1 e03c
000003a0: 7aa3 c43d 685f 913d 2ce5 89bd bf0e 153d
000003b0: f754 acbe aac8 82be d0bd 0b3d 7415 a0be
000003c0: 50d7 193e 946c 673e 1fb8 e03d edd5 4a3e
000003d0: 74be e1bd 47d5 7f3e 4d31 b63d 634a a63c
000003e0: 84c3 ae3d 8bda 363e 7309 3dbe e1f6 d9bd
000003f0: 1634 8fbd d0c3 1f3d e6d4 493e 64e9 2fbd

bias f4 [80]
-0.24894372 0.47513777 0.45331448 0.17774779 -0.24517292 -0.2122995 0.24010052 0.16767651
-0.15646324 0.18417135 0.14037007 0.27515048 -0.008185832 0.18723352 -0.29486772 -0.184495
-0.04296417 0.43548942 0.46653998 0.31039 0.28608972 0.34452224 -0.20907599 0.032258693
0.40966582 -0.2035101 -0.07192103 0.4272977 -0.08697276 -0.23124722 0.2868861 0.21387653
-0.14426786 -0.25750965 -0.10767046 0.4171516 -0.19685636 0.09252935 0.45695633 0.4318436
-0.04173722 -0.0310413 0.09767176 0.43356144 -0.07405442 -0.16696979 0.25489163 0.4369031
0.3823097 0.17560668 0.021505011 0.3128233 -0.21908273 0.17709514 -0.108330645 -0.21617024
-0.2660492 0.32822862 0.41137218 0.29527798 -0.18366563 0.26141688 -0.21407267 0.24986137
0.30296046 -0.13659857 0.33010218 -0.23717299 0.3426925 -0.16691607 0.052211985 0.3348312
-0.26602966 0.39174742 0.251716 0.14421004 0.0015546008 0.22466713 -0.19240874 -0.072848395
00000000: 1aeb 7ebe 4245 f33e d618 e83e 8403 363e
00000010: 9c0e 7bbe 0a65 59be e9dc 753e 64b3 2b3e
00000020: e637 20be 6a97 3c3e 2cbd 0f3e 86e0 8c3e
00000030: de1d 06bc 25ba 3f3e e7f8 96be 42ec 3cbe
00000040: 33fb 2fbd 78f8 de3e 54de ee3e 70eb 9e3e
00000050: 5a7a 923e 3865 b03e 0418 56be b121 043d
00000060: b8bf d13e f464 50be 554b 93bd c4c6 da3e
00000070: c61e b2bd 12cc 6cbe bce2 923e 7302 5b3e
00000080: f4ba 13be 4ed8 83be 5582 dcbd e594 d53e
00000090: b794 49be 0780 bd3d 2ef6 e93e 9b1a dd3e
000000a0: a6f4 2abd 534a febc 2208 c83d c4fb dd3e
000000b0: d8a9 97bd 21fa 2abe 2881 823e c3b1 df3e
000000c0: 19be c33e 3dd2 333e 472b b03c 602a a03e
000000d0: 3957 60be 6e58 353e 75dc ddbd bb5b 5dbe
000000e0: 9a37 88be 950d a83e 609f d23e ad2e 973e
000000f0: d812 3cbe 6fd8 853e de35 5bbe a9db 7f3e
00000100: a21d 9b3e 7fe0 0bbe 2703 a93e 7add 72be
00000110: 6475 af3e 0cec 2abe 3cdc 553d ff6e ab3e
00000120: 0a35 88be 1e93 c83e ebe0 803e ccab 133e
00000130: bfc3 cb3a 240f 663e cc06 45be 8a31 95bd

weight f4 [40, 80]
-0.033470094 0.07109085 0.071876414 0.081906624 0.1033979 0.06833571 -0.08872264 -0.040955614
0.022658272 -0.030564165 -0.0008172305 -0.05950916 -0.09703488 0.019802902 -0.09272512 -0.037061527
-0.045551397 0.03211046 -0.0766875 -0.045750495 -0.02777573 -0.03468739 0.0733683 0.036451496
0.026265142 -0.13375317 -0.061869882 -0.067909956 0.031627256 0.07891163 -0.055260643 0.04856963
0.07630967 -0.059573952 -0.09546317 -0.108501494 -0.04003351 -0.1092381 0.053709906 -0.09355482
0.08789173 -0.067427754 0.0911699 0.00453322 -0.070041955 -0.022238204 -0.0597945 -0.043404516
-0.04353074 -0.010731134 0.016888719 -0.09618632 0.04048002 -0.010484728 -0.07242313 0.048869308
-0.06275775 0.06308859 0.038538735 -0.028785383 0.008118641 -0.052108552 -0.072819225 0.030695932
-0.11674509 -0.12401874 -0.029820478 -0.08241799 -0.066632956 -0.072438665 0.00059787143 0.077374406
-0.111281686 -0.0074042734 -0.069525294 -0.13119227 -0.10561227 0.015106119 0.01924623 0.039209507
-0.088567354 -0.060514994 0.11854387 0.1017759 -0.03307111 -0.03360448 0.04475477 -0.08718913
0.04839633 0.081790045 0.04953439 0.07095201 -0.13149166 -0.08883193 -0.11082806 0.014461293
0.053100176 0.045243934 -0.0012986463 -0.023745118 0.08797502 0.026568701 0.039585717 -0.09306542
0.00920853 -0.012202799 -0.037035897 -0.043297317 -0.05206477 -0.020214543 0.08782429 -0.03024145
0.095260814 0.036447097 -0.09951293 0.107106954 -0.04543635 -0.0006557458 -0.022372685 -0.060439717
-0.09889541 0.0444876 0.05825953 0.09709165 -0.026867216 0.07572084 0.070319876 0.03430002
0.03616218 0.03908235 0.031068267 -0.08256866 0.099401966 0.07007655 0.01638251 0.036249164
0.07231399 0.05676286 -0.06217392 -0.05570077 0.026817458 0.05659157 -0.10732725 0.028130347
0.041913312 0.08132353 0.051230334 -0.05375506 0.072606854 -0.006648484 -0.05335347 0.11909983
-0.020166123 0.10792634 0.0803261 -0.12134743 -0.13003615 -0.09526936 -0.05498709 -0.06842215
0.080142826 0.036746982 0.042291597 -0.12847084 -0.06184368 -0.06001653 0.079336375 -0.024609292
0.06259444 -0.06885847 -0.019710796 0.034312252 -0.0117226755 -0.05657053 0.08032989 -0.030954113
-0.026845047 0.013036923 0.03344258 0.013696493 0.057310972 -0.030634692 0.077584185 -0.028772276
-0.079975374 -0.09152681 -0.07573055 0.010531599 -0.05498405 0.0140312025 -0.06223945 -0.018441591
-0.09790505 -0.10447446 -0.11905471 0.06518163 0.06917058 -0.07009573 -0.019518225 0.02708291
0.028449213 -0.089440644 -0.015800018 -0.016995845 0.11156672 0.07010501 -0.0058581857 -0.10861367
-0.08793743 -0.00018469486 0.10096143 -0.09328985 -0.06404024 0.026631955 -0.091617666 -0.0664785
-0.030363278 -0.03919883 -0.11477242 0.07013192 0.08166 0.08201456 0.023437575 -0.046807524
-0.08576707 -0.06864785 -0.12754673 0.068752415 -0.08842153 -0.081531584 0.028497066 0.046496727
0.08601064 -0.088854015 -0.024794914 0.032984897 0.071213044 -0.09279967 0.021661272 0.09960752
-0.012106065 -0.042453323 -0.049313094 -0.04598002 0.016838335 0.06459691 -0.007905419 0.027707038
-0.08113558 -0.016980194 -0.11675404 0.045511074 0.08125446 -0.058606736 -0.036118384 -0.07906335
00000000: f017 09bd 1498 913d f133 933d a9be a73d
00000010: 47c2 d33d 98f3 8b3d 37b4 b5bd 13c1 27bd
00000020: d79d b93c b361 fabc 693b 56ba e1bf 73bd
00000030: 39ba c6bd b239 a23c abe6 bdbd d4cd 17bd
00000040: 1a94 3abd 4286 033d 560e 9dbd df64 3bbd
00000050: ed89 e3bc 5d14 0ebd 1f42 963d 2a4e 153d
00000060: ff29 d73c 97f6 08be 466b 7dbd 6014 8bbd
00000070: 958b 013d 6c9c a13d fc58 62bd f3f0 463d
00000080: 3f48 9c3d d103 74bd 3282 c3bd 0836 debd
00000090: 2efa 23bd 3ab8 dfbd ebfe 5b3d ab99 bfbd
000000a0: 9400 b43d 9017 8abd 49b7 ba3d 688b 943b
000000b0: 2872 8fbd e52c b6bc 14eb 74bd efc8 31bd
000000c0: 4a4d 32bd a3d1 2fbc 365a 8a3c 55fd c4bd
000000d0: 61ce 253d 23c8 2bbc 9452 94bd 2f2b 483d
000000e0: 2387 80bd 9734 813d cbda 1d3d 53cf ebbc
000000f0: 0c04 053c c76f 55bd 3f22 95bd 0976 fb3c
00000100: 0d18 efbd 8afd fdbd 134a f4bc c3ca a8bd
00000110: dc76 88bd b95a 94bd 79ba 1c3a 7976 9e3d
00000120: a7e7 e3bd 8c9f f2bb 4763 8ebd 4457 06be
00000130: 3f4b d8bd a87f 773c 45aa 9d3c 269a 203d
00000140: cd62 b5bd 92de 77bd 21c7 f23d e26f d03d
00000150: 9275 07bd daa4 09bd c750 373d 3790 b2bd
00000160: 3b3b 463d 8a81 a73d 93e4 4a3d 4a4f 913d
00000170: c0a5 06be 84ed b5bd d2f9 e2bd 0fef 6c3c
00000180: 927f 593d b451 393d 5737 aaba 1f85 c2bc
00000190: 3f2c b43d 9ba6 d93c a224 223d 1599 bebd
000001a0: 60df 163c 40ee 47bc f4b2 17bd 8758 31bd
000001b0: de41 55bd f898 a5bc 39dd b33d ebbc f7bc
000001c0: 1a18 c33d 8d49 153d 6fcd cbbd e45a db3d
000001d0: 771b 3abd 5be6 2bba ec46 b7bc a38f 77bd
000001e0: ad89 cabd a138 363d 8ca1 6e3d fdd7 c63d
000001f0: a318 dcbc 8713 9b3d de03 903d 2e7e 0c3d
00000200: cb1e 143d d014 203d e182 fe3c c219 a9bd
00000210: 4293 cb3d 4b84 8f3d 9d34 863c 017a 143d
00000220: 5b19 943d 2c80 683d 15aa 7ebd 7e26 64bd
00000230: 49b0 db3c 90cc 673d 64ce dbbd 9d71 e63c
00000240: 4bad 2b3d f38c a63d e6d6 513d 442e 5cbd
00000250: e7b2 943d 87db d9bb 2b89 5abd 9dea f33d
00000260: 6d33 a5bc 7c08 dd3d 0382 a43d 0085 f8bd
00000270: 3228 05be 951c c3bd 253a 61bd ea20 8cbd
00000280: ec21 a43d 0184 163d f439 2d3d dc8d 03be
00000290: cc4f 7dbd e5d3 75bd 1c7b a23d 6d99 c9bc
000002a0: 8431 803d ab05 8dbd 8978 a1bc 018b 0c3d
000002b0: 7710 40bc 80b6 67bd ff83 a43d 7b93 fdbc
000002c0: 25ea dbbc d198 553c 16fb 083d 4167 603c
000002d0: e9be 6a3d 9bf5 fabc 75e4 9e3d d6b3 ebbc
000002e0: 21ca a3bd 6872 bbbd 9e18 9bbd ba8c 2c3c
000002f0: f536 61bd 21e3 653c cbee 7ebd d212 97bc
00000300: 7182 c8bd b5f6 d5bd f5d2 f3bd f27d 853d
00000310: 4ea9 8d3d 5a8e 8fbd afe4 9fbc fbdc dd3c
00000320: 530e e93c a82c b7bd 0a6f 81bc df3a 8bbc
00000330: 187d e43d 3793 8f3d 06f6 bfbb d870 debd
00000340: 8a18 b4bd a6aa 41b9 dec4 ce3d c00e bfbd
00000350: 8827 83bd 422b da3c 0ba2 bbbd e125 88bd
00000360: 69bc f8bc f48e 20bd cd0d ebbd 53a1 8f3d
00000370: 5c3d a73d 40f7 a73d 2800 c03c 3fb9 3fbd
00000380: a5a6 afbd 3e97 8cbd 9c9b 02be 11ce 8c3d
00000390: 5916 b5bd 08fa a6bd ae72 e93c 5a73 3e3d
000003a0: 5926 b03d 18f9 b5bd b41e cbbc 2c1b 073d
000003b0: 25d8 913d c10d bebd fb72 b13c 07ff cb3d
000003c0: 8458 46bc 89e3 2dbd 87fc 49bd 8c55 3cbd
000003d0: 8cf0 893c 624b 843d bb85 01bc dff9 e23c
000003e0: 692a a6bd 0c1a 8bbc be1c efbd d269 3a3d
000003f0: bd68 a63d 9e0d 70bd dff0 13bd f7eb a1bd

bias f4 [40]
-0.04756042 -0.008884413 -0.14552663 -0.016979763 0.035304144 -0.004405217 -0.065473825 -0.06463354
0.08661612 -0.13344668 -0.14786157 -0.113808855 -0.056533385 0.08173754 0.1293815 -0.12300815
0.042349815 -0.11383518 0.015556112 0.049244914 -0.06739713 0.020329675 -0.039284084 0.04034686
-0.03250309 -0.0019985915 -0.056263845 0.04554579 -0.03544558 0.019120768 0.026499853 -0.04582779
-0.015426412 0.07536371 0.045908466 0.16279268 0.011276137 -0.02366335 0.11921959 -0.09779465
00000000: b7ce 42bd ee8f 11bc ef04 15be 2519 8bbc
00000010: 149b 103d a359 90bb 2417 86bd 975e 84bd
00000020: cb63 b13d 3fa6 08be 0669 17be 9e14 e9bd
00000030: 8d8f 67bd 0366 a73d 957c 043e b2eb fbbd
00000040: 0077 2d3d 6b22 e9bd 10df 7e3c 09b5 493d
00000050: 8207 8abd 6b8a a63c 59e8 20bd c042 253d
00000060: f621 05bd cdfa 02bb eb74 66bd 398e 3a3d
00000070: 622f 11bd 28a3 9c3c 3816 d93c ecb5 3bbd
00000080: 10bf 7cbc 4a58 9a3d 840a 3c3d 20b3 263e
00000090: 8cbf 383c a4d9 c1bc 6729 f43d 9048 c8bd

weight f4 [40, 80]
-0.11072984 -0.12903205 -0.14582397 -0.030360317 -0.13048556 0.06803249 -0.0076689282 -0.008652265
0.025048623 -0.12340609 -0.065334894 -0.073297314 -0.023762299 0.022843791 -0.011690885 -0.08878643
-0.1656079 -0.09958313 -0.19072473 -0.014038411 -0.1547841 -0.1250943 0.012929083 0.019915046
-0.1558193 -0.0013187195 -0.14776087 -0.13536987 -0.085210435 -0.020057939 -0.14961883 -0.18093273
0.063970976 -0.059151363 -0.059267573 -0.106357604 0.08505487 0.01664651 -0.113622606 -0.17240529
-0.054126017 -0.12158997 -0.14667846 -0.004803516 -0.0069766636 -0.09761863 -0.2436403 -0.054915976
-0.07329362 0.013261917 -0.13550511 0.018349012 0.05772412 -0.08646609 -0.052454676 0.028712735
-0.11916438 -0.039465006 -0.03875515 0.007511465 -0.11211421 -0.13413335 0.09759784 -0.11459037
-0.14388327 -0.13845003 -0.116094306 -0.08982205 -0.035706993 -0.021143392 -0.0070500053 -0.15742184
0.01637536 -0.035345566 -0.02462019 -0.17766686 -0.041610014 -0.042275004 -0.040207118 -0.08217026
-0.06931287 -0.0073917215 -0.094672486 -0.06306274 0.020182736 -0.040606726 -0.023090934 -0.06051905
-0.1259407 0.018592376 0.026311867 0.014605392 0.034441147 -0.074321985 -0.061927717 -0.034465436
-0.022809893 -0.14708947 -0.041967154 -0.05045958 -0.18501844 0.012149982 0.04708265 0.0062778457
-0.08071613 -0.058773965 -0.048792034 -0.14840811 -0.028134279 0.018908853 -0.06858776 -0.032727722
-0.1117873 -0.011205605 -0.12202697 -0.13170877 0.059504326 -0.014561235 -0.11616206 -0.00048413494
-0.12916215 -0.07683692 -0.089236446 -0.09791739 0.10127424 -0.120274365 -0.12532568 0.012315227
-0.05480069 -0.11674614 -0.053335875 -0.13926305 -0.09350476 -0.11408912 -0.108851515 0.010542126
-0.04168977 -0.03743615 -0.17884478 -0.057226136 0.060763273 0.013898716 0.10459498 -0.0860107
-0.009222439 -0.042304713 -0.17809716 -0.002760398 -0.062427323 0.0045494633 0.006091131 -0.1205217
-0.035363603 -0.15223263 -0.005232162 -0.18147345 0.036908034 0.002521391 0.08626672 0.05636622
-0.06018514 -0.1500152 0.002337116 -0.16633946 0.03269526 -0.034459107 -0.026353 -0.08855831
0.059081793 0.013067238 -0.036673825 0.015072158 -0.08026051 -0.12891392 0.004711223 -0.14516823
-0.16516437 -0.11353548 -0.11083794 -0.060410928 -0.09107659 -0.0029279531 0.06406307 -0.08604514
-0.13323401 0.02882905 -0.09592562 -0.09838297 -0.0470189 0.022198789 -0.03848886 -0.1023929
-0.006907478 -0.13288452 -0.14217599 -0.056214895 0.10746096 0.030638073 -0.20657448 -0.14333773
-0.047190443 -0.011975914 -0.012679706 -0.18275243 -0.03506811 0.02346975 -0.09469288 -0.055028003
-0.10648838 0.010533538 -0.064068586 -0.06063936 0.03787738 -0.08488415 -0.025896696 -0.07044981
0.04533172 -0.042931616 -0.03279635 -0.09222502 -0.15377775 0.01142114 -0.063688464 -0.17888775
-0.14854103 -0.072034046 -0.13474059 0.027103582 -0.023705402 -0.105889246 0.006631827 -0.22973715
0.08165127 -0.08311752 -0.17199744 -0.06450258 0.034651633 -0.17855105 0.071815334 -0.079343766
0.07714001 -0.09065791 -0.0871658 -0.08480626 0.07862056 0.0072561754 -0.08520209 -0.111554906
-0.031069377 -0.12052942 0.015797446 -0.058145896 0.0013901572 -0.12712148 -0.026553515 0.037429772
00000000: 54c6 e2bd fa20 04be e152 15be 33b6 f8bc
00000010: 029e 05be 9e54 8b3d a24b fbbb 3bc2 0dbc
00000020: c532 cd3c 55bc fcbd 4dce 85bd e71c 96bd
00000030: 27a9 c2bc e722 bb3c 208b 3fbc a9d5 b5bd
00000040: 1e95 29be 3df2 cbbd 584d 43be 5d01 66bc
00000050: b97f 1ebe b818 00be 81d4 533c e124 a33c
00000060: 188f 1fbe e2d8 acba a04e 17be 669e 0abe
00000070: cf82 aebd 8c50 a4bc ae35 19be 6e46 39be
00000080: 3703 833d b348 72bd 8ec2 72bd 04d2 d9bd
00000090: 3f31 ae3d 435e 883c f8b2 e8bd 038b 30be
000000a0: 3eb3 5dbd 2a04 f9bd e132 16be d066 9dbb
000000b0: 7f9c e4bb 47ec c7bd d87c 79be 93ef 60bd
000000c0: f71a 96bd 8348 593c dac1 0abe ab50 963c
000000d0: 2070 6c3d 2215 b1bd b7da 56bd f836 eb3c
000000e0: 740c f4bd 0fa6 21bd b8bd 1ebd bc22 f63b
000000f0: 239c e5bd 415a 09be 60e1 c73d 5bae eabd
00000100: 2356 13be d8c5 0dbe dac2 edbd 9ff4 b7bd
00000110: 7f41 12bd e834 adbc bb03 e7bb 3133 21be
00000120: 9e25 863c 83c6 10bd 48b0 c9bc 4dee 35be
00000130: 436f 2abd 8e28 2dbd 38b0 24bd e248 a8bd
00000140: e8f3 8dbd 4136 f2bb a6e3 c1bd 0a27 81bd
00000150: 4456 a53c 3d53 26bd 3329 bdbc d3e2 77bd
00000160: 99f6 00be 0a4f 983c fc8b d73c 744b 6f3c
00000170: 2912 0d3d 2036 98bd eba7 7dbd a12b 0dbd
00000180: d0db babc 9f9e 16be c0e5 2bbd b4ae 4ebd
00000190: 7975 3dbe b810 473c bdd9 403d 63b6 cd3b
000001a0: 804e a5bd f8bc 70bd 28da 47bd 4cf8 17be
000001b0: dc79 e6bc bde6 9a3c bd77 8cbd 810d 06bd
000001c0: bdf0 e4bd b797 37bc 47e9 f9bd aade 06be
000001d0: cfba 733d 3f92 6ebc 60e6 edbd 7ed3 fdb9
000001e0: 1543 04be ad5c 9dbd 99c1 b6bd ea88 c8bd
000001f0: de68 cf3d 6852 f6bd 6055 00be cec5 493c
00000200: b076 60bd 9a18 efbd b876 5abd f99a 0ebe
00000210: 6c7f bfbd 8ea7 e9bd 8bed debd e2b8 2c3c
00000220: e4c2 2abd a656 19bd 1623 37be f465 6abd
00000230: e9e2 783d 71b7 633c e535 d63d 6126 b0bd
00000240: b619 17bc b547 2dbd 1a5f 36be cbe7 34bb
00000250: cbb3 7fbd aa13 953b 1c98 c73b 15d4 f6bd
00000260: 6dd9 10bd dfe2 1bbe 8e72 abbb 2dd4 39be
00000270: e12c 173d ec3d 253b 9bac b03d 44e0 663d
00000280: b284 76bd 969d 19be 4d2a 193b e454 2abe
00000290: 77eb 053d fe24 0dbd 3fe2 d7bc 0f5e b5bd
000002a0: c0ff 713d f817 563c 4b37 16bd 36f1 763c
000002b0: 9f5f a4bd 0302 04be 9a60 9a3b fba6 14be
000002c0: d920 29be 4a85 e8bd 00ff e2bd 7371 77bd
000002d0: 5d86 babd e7e2 3fbb 8033 833d 6f38 b0bd
000002e0: 7f6e 08be e62a ec3c a774 c4bd 037d c9bd
000002f0: e496 40bd 3cda b53c 7fa6 1dbd 5eb3 d1bd
00000300: 2058 e2bb e112 08be 9596 11be 9741 66bd
00000310: 7e14 dc3d b2fc fa3c 4388 53be 20c7 12be
00000320: c44a 41bd a036 44bc 8bbe 4fbc 7423 3bbe
00000330: 94a3 0fbd a243 c03c 57ee c1bd 0b65 61bd
00000340: 9416 dabd dc94 2c3c 6436 83bd fa60 78bd
00000350: 5025 1b3d bed7 adbd 4f25 d4bc fd47 90bd
00000360: c1ad 393d 10d9 2fbd 7755 06bd 79e0 bcbd
00000370: ea77 1dbe bc1f 3b3c 196f 82bd 5a2e 37be
00000380: 241b 18be 9686 93bd 70f9 09be 5508 de3c
00000390: d531 c2bc 76dc d8bd cc4f d93b 3740 6bbe
000003a0: c838 a73d 8539 aabd 1920 30be ee19 84bd
000003b0: dfee 0d3d 16d6 36be eb13 933d fc7e a2bd
000003c0: 95fb 9d3d dbaa b9bd fc83 b2bd e8ae adbd
000003d0: d103 a13d 36c5 ed3b 6f7e aebd e676 e4bd
000003e0: 3585 febc 21d8 f6bd a569 813c 642a 6ebd
000003f0: ef35 b63a 222c 02be c286 d9bc f64f 193d

bias f4 [40]
-0.12260602 0.013802421 -0.15350582 -0.05482802 -0.0702771 -0.2027856 0.009154485 -0.13557296
-0.20375282 -0.16051309 -0.047441904 0.016092053 -0.15747021 -0.09955004 -0.11007225 -0.17718098
-0.14759919 -0.09189829 -0.1972218 -0.03390827 -0.020571914 -0.04369544 -0.052718077 -0.08261871
-0.13594575 -0.07619044 0.02529539 -0.12778796 -0.09965971 -0.13436201 -0.025101261 -0.17226209
-0.004426147 -0.1716952 -0.04099505 0.00079560536 0.027671514 -0.13050863 -0.16546525 -0.19840354
00000000: dd18 fbbd 8d23 623c a130 1dbe 5993 60bd
00000010: 71ed 8fbd 07a7 4fbe b1fc 153c a3d3 0abe
00000020: 94a4 50be 8b5d 24be 7152 42bd 7bd3 833c
00000030: df3f 21be e4e0 cbbd 8f6d e1bd ee6e 35be
00000040: 3e24 17be 2c35 bcbd 83f4 49be 66e3 0abd
00000050: 6e86 a8bc fdf9 32bd e9ee 57bd 0034 a9bd
00000060: 5d35 0bbe bc09 9cbd 4738 cf3c d9da 02be
00000070: 641a ccbd 3296 09be 29a1 cdbc 7965 30be
00000080: 3609 91bb ded0 2fbe 6dea 27bd 2c90 503a
00000090: 5faf e23c 0ea4 05be b96f 29be 4c2a 4bbe

weight f4 [80, 40]
-0.042995658 0.105352126 0.15425189 -0.026722575 -0.048487667 0.024816941 -0.1260975 -0.06021616
0.11472694 0.040741727 0.066527985 -0.006596678 0.10364166 -0.09779874 0.06322227 0.091713905
0.010655736 -0.06780273 -0.116622195 -0.07994483 -0.10876184 0.04500279 -0.14503215 0.12143303
0.12466384 0.037399147 -0.06498127 0.044324297 0.030815521 -0.05772335 0.03247511 0.019644551
0.074182585 0.11314213 0.014506665 -0.018994538 -0.081217654 -0.10017831 0.04580812 -0.005259096
0.041462995 -0.05283532 0.064134255 -0.047218587 0.07917037 0.05729496 -0.0134971505 -0.090887345
-0.026629305 0.10734215 -0.01655029 -0.10632012 0.0138910245 0.09284623 -0.0769258 -0.1265781
-0.00213844 -0.11321672 0.035208542 -0.16697586 0.026623214 0.057029136 0.07338654 0.14053662
-0.0658908 0.06773058 0.0676545 0.0619829 -0.10676825 0.02956645 -0.0684505 0.05833373
-0.096671835 0.045052923 -0.0223147 -0.09614937 -0.1303667 0.120882414 0.13593836 -0.049552333
0.051217075 -0.08274693 -0.08055873 -0.030553699 0.14425488 0.112663195 -0.0034580955 -0.10624735
0.016131174 0.078303345 -0.022263393 0.06566807 0.018848315 -0.012563985 0.0925448 0.044180825
-8.595128e-05 0.12207482 0.10357287 -0.064779446 0.12275463 0.15345417 0.008012554 -0.03896633
0.11730275 -0.047679868 -0.0691367 0.1563352 -0.06299443 0.1406777 0.14616491 -0.052099876
-0.020556519 0.095854014 -0.0072652996 -0.12964666 -0.11679987 0.018555615 0.12230183 0.06006025
0.12170414 0.10995087 0.09020722 -0.0066845515 -0.111728095 0.15833904 -0.024082733 0.09457466
-0.07872572 0.08033052 0.08698649 -0.10306261 0.057389915 -0.07292307 -0.004261822 0.07618279
-0.10731339 -0.14214404 0.123621896 0.10169852 -0.012594954 -0.081976 -0.14269777 -0.049190104
0.14390704 -0.08743768 -0.12352877 0.09099602 -0.07806394 -0.0033182655 0.14771284 0.069060676
-0.12369833 0.10993936 -0.112278305 0.09333789 -0.02296749 -0.10769201 0.071211785 -0.09504373
-0.06987206 0.016836114 0.08426935 0.043699343 -0.06887987 0.03982607 -0.008616286 -0.10731227
-0.007154456 -0.046640385 -0.00022663141 0.0328674 -0.016431753 0.0070587783 0.08330357 -0.124201395
0.073500104 0.07232636 -0.07077498 0.040106613 -0.06948479 -0.0568936 -0.043404263 -0.088540345
-0.11870806 0.037189707 0.12503302 0.10589757 0.032271076 -0.07479314 -0.13439529 -0.030885663
0.03981172 0.04202211 -0.012828881 -0.033838518 -0.03125306 0.11482332 0.11847916 0.07700689
-0.036542524 0.11110896 -0.03692287 -0.035963293 0.14727476 -0.104915366 0.008098573 -0.09791552
-0.10812539 0.0022438588 0.12247198 0.079333335 -0.008475041 0.16757566 0.08321215 -0.10924474
-0.082434185 -0.120030895 0.13300514 -0.03289374 -0.04173495 0.10836047 -0.11670393 -0.080275826
-0.04040611 0.11097634 0.07229641 -0.10078722 0.079563074 -0.021478018 0.002896572 0.0014199256
-0.13021964 0.025479738 -0.09950536 0.094760835 -0.033540867 -0.10195022 -0.06142311 0.10940866
-0.01322216 0.046686355 -0.07175435 0.056962773 0.06776004 0.05509641 0.117103115 0.09920799
0.017654467 -0.046467472 0.045705166 -0.02145377 0.09730856 -0.050518587 0.060387913 0.05599816
00000000: 371c 30bd dbc2 d73d 35f4 1d3e 4de9 dabc
00000010: 019b 46bd e64c cb3c b41f 01be 38a5 76bd
00000020: f5f5 ea3d cce0 263d d33f 883d f228 d8bb
00000030: 1442 d43d b54a c8bd ad7a 813d 80d4 bb3d
00000040: 6595 2e3c 28dc 8abd 9ed7 eebd 1dba a3bd
00000050: 87be debd d854 383d 4f83 14be e1b1 f83d
00000060: c14f ff3d d92f 193d e614 85bd 658d 353d
00000070: d570 fc3c 526f 6cbd 9f04 053d 9ced a03c
00000080: 0aed 973d 10b7 e73d 5dad 6d3c 6f9a 9bbc
00000090: 7155 a6bd 492a cdbd 4ca1 3b3d 7f54 acbb
000000a0: 1ad5 293d d969 58bd d258 833d 4768 41bd
000000b0: 1324 a23d 1fae 6a3d 2723 5dbc 2523 babd
000000c0: b325 dabc 33d6 db3d 7994 87bc 5dbe d9bd
000000d0: 2e97 633c 2a26 be3d 468b 9dbd b09d 01be
000000e0: 1225 0cbb 2bde e7bd d536 103d b8fb 2abe
000000f0: ed18 da3c 6297 693d af4b 963d d5e8 0f3e
00000100: c1f1 86bd 55b6 8a3d 718e 8a3d c8e1 7d3d
00000110: 50a9 dabd 5735 f23c c72f 8cbd 59ef 6e3d
00000120: e2fb c5bd 6a89 383d 51cd b6bc f6e9 c4bd
00000130: d97e 05be 3391 f73d 6d33 0b3e 63f7 4abd
00000140: ffc8 513d 3977 a9bd fafb a4bd c04b fabc
00000150: 8db7 133e f6bb e63d 37a1 62bb 3698 d9bd
00000160: 8625 843c 815d a03d b861 b6bc fb7c 863d
00000170: c867 9a3c 2cd9 4dbc 2188 bd3d f4f6 343d
00000180: be40 b4b8 5d02 fa3d 031e d43d 16ab 84bd
00000190: c866 fb3d 1723 1d3e 1647 033c 299b 1fbd
000001a0: 6d3c f03d f74b 43bd 8b97 8dbd 5616 203e
000001b0: 3903 81bd d10d 103e 41ac 153e ae66 55bd
000001c0: 2566 a8bc 1c4f c43d c011 eebb 18c2 04be
000001d0: c534 efbd f201 983c 6279 fa3d bd01 763d
000001e0: 0540 f93d ec2d e13d 90be b83d 150a dbbb
000001f0: b3d1 e4bd a123 223e 2749 c5bc 5cb0 c13d
00000200: f33a a1bd 5484 a43d f925 b23d 7d12 d3bd
00000210: b011 6b3d b158 95bd c1a6 8bbb b905 9c3d
00000220: 1fc7 dbbd 358e 11be 7a2d fd3d 5047 d03d
00000230: 115b 4ebc 08e3 a7bd 5d1f 12be 907b 49bd
00000240: 5e5c 133e 8712 b3bd a7fc fcbd 1f5c ba3d
00000250: fddf 9fbd 4277 59bb 0942 173e af6f 8d3d
00000260: 8d55 fdbd e327 e13d 2bf2 e5bd f027 bf3d
00000270: 5126 bcbc a18d dcbd 7cd7 913d 4aa6 c2bd
00000280: 1519 8fbd e4eb 893c 6995 ac3d 15fe 323d
00000290: e410 8dbd a920 233d 532b 0dbc 89c6 dbbd
000002a0: ed6f eabb fd09 3fbd e8a3 6db9 f89f 063d
000002b0: e29b 86bc 534d e73b 109b aa3d 4d5d febd
000002c0: 3987 963d d81f 943d 79f2 90bd d546 243d
000002d0: 0b4e 8ebd 4309 69bd abc8 31bd a454 b5bd
000002e0: 361d f3bd 3c54 183d a808 003e d3e0 d83d
000002f0: ad2e 043d 252d 99bd eb9e 09be ee03 fdbc
00000300: 9d11 233d 601f 2c3d 3a30 52bc 429a 0abd
00000310: 3503 00bd 7d28 eb3d 34a5 f23d cab5 9d3d
00000320: 9dad 15bd 188d e33d 6f3c 17bd 3f4e 13bd
00000330: 32cf 163e dedd d6bd e1af 043c ef87 c8bd
00000340: d870 ddbd b40d 133b 97d2 fa3d 8479 a23d
00000350: e6da 0abc f498 2b3e 226b aa3d b5bb dfbd
00000360: 41d3 a8bd c2d2 f5bd 8032 083e 96bb 06bd
00000370: 44f2 2abd 18ec dd3d 7802 efbd a767 a4bd
00000380: e180 25bd 9047 e33d 2410 943d 8869 cebd
00000390: f7f1 a23d abf2 afbc 6ad4 3d3b cc1c ba3a
000003a0: 4c58 05be e2ba d03c 77c9 cbbd f811 c23d
000003b0: 2662 09bd 47cb d0bd cd96 7bbd a611 e03d
000003c0: c2a1 58bc 313a 3f3d f2f3 92bd cc51 693d
000003d0: c7c5 8a3d c6ac 613d c2d3 ef3d 8f2d cb3d
000003e0: 1aa0 903c ad54 3ebd 5735 3b3d d1bf afbc
000003f0: b649 c73d 94ec 4ebd 5159 773d 545e 653d

bias f4 [80]
-0.13165426 0.12978756 -0.1250744 -0.057848204 -0.04859979 -0.09116806 0.007044575 0.06001397
0.0009502187 0.10836272 -0.014048617 -0.05299053 -0.11448762 0.00876331 -0.15415832 0.065338165
0.12283953 0.028472738 -0.049248755 0.07877892 -0.14631087 0.115774184 -0.005283092 0.14016207
-0.05723221 -0.03199708 0.12429266 0.047406558 0.09221883 -0.00022671778 -0.07107821 -0.04039813
0.04463897 0.1213054 0.028922899 0.0020334143 -0.05436803 -0.080001645 -0.012261382 -0.0068970486
0.027453355 0.021202315 -0.019809803 0.041051768 0.124223955 -0.021196272 0.056147825 0.11861112
-0.006630104 0.009749337 0.11103233 -0.036674064 0.038648482 0.07526628 0.13701916 0.00818101
0.14457008 0.11148933 0.028344804 -0.1077481 0.03841971 -0.05537529 0.07658293 -0.14428693
0.018261293 0.105388254 -0.049302664 -0.17381112 -0.088230416 0.045626275 -0.12142698 -0.016092798
-0.11769549 -0.017555509 -0.10964659 -0.04145073 0.05098243 0.031987727 0.091251075 0.13678055
00000000: 60d0 06be 08e7 043e 8113 00be 3df2 6cbd
00000010: 9310 47bd 52b6 babd 2ed6 e63b 35d1 753d
00000020: 1918 793a 46ed dd3d 2c2c 66bc 990c 59bd
00000030: 7c78 eabd fc93 0f3c aedb 1dbe 04d0 853d
00000040: 4b93 fb3d a93f e93c 10b9 49bd d856 a13d
00000050: 84d2 15be 041b ed3d ca1d adbb a586 0f3e
00000060: 526c 6abd 5f0f 03bd 268d fe3d 612d 423d
00000070: 3add bc3d 17bb 6db9 7491 91bd 8278 25bd
00000080: 5ad7 363d f76e f83d b7ef ec3c 0843 053b
00000090: 03b1 5ebd e7d7 a3bd f7e3 48bc a300 e2bb
000000a0: dce5 e03c 7ab0 ad3c 2b48 a2bc e625 283d
000000b0: 2169 fe3d cea3 adbc 43fb 653d 63ea f23d
000000c0: 5841 d9bb afbb 1f3c eb64 e33d 8b37 16bd
000000d0: df4d 1e3d 3525 9a3d c04e 0c3e a509 063c
000000e0: 2e0a 143e 8554 e43d 5d33 e83c 09ab dcbd
000000f0: fc5d 1d3d 33d1 62bd 83d7 9c3d f4bf 13be
00000100: b598 953c ccd5 d73d 97f1 49bd 8bfb 31be
00000110: 26b2 b4bd 9ee2 3a3d b5ae f8bd 0bd5 83bc
00000120: 550a f1bd 92d0 8fbc 648e e0bd 3ec8 29bd
00000130: f4d2 503d 9005 033d d8e1 ba3d 3310 0c3e

weight f4 [5, 80]
-0.03899358 0.014757002 -0.013416333 0.002702198 -0.026694225 -0.0051857694 -0.04669434 0.07042546
0.06008334 -0.047588125 -0.022453213 -0.044418026 0.0037949712 0.009147414 -0.021780422 0.031293683
-0.055670034 -0.041878484 0.009900025 -0.022341758 -0.0052076844 0.06905639 -0.024620598 0.034700498
0.022835545 -0.015630616 -0.023135986 -0.029370751 0.02679769 -0.06373562 -0.059262287 0.015895884
0.009858862 -0.043269895 0.017987465 -0.051038686 0.029409233 0.059511226 0.054209877 -0.00082854665
0.06741693 0.052189823 -0.022284798 0.07049169 -0.05252525 0.008877706 0.05106681 0.02852289
-0.060994167 0.02515692 0.011077924 -0.028464545 -0.04800502 0.082878195 -0.044875167 -0.031161217
0.06349095 0.015509079 -0.017921116 -0.019206923 0.023306822 -0.07667652 0.016737718 -0.06254302
0.073318906 0.039815474 0.029330628 -0.040649362 -0.04686322 0.09817972 -0.0054020258 -0.06985386
0.074052535 -0.05285652 0.017051661 0.0073546194 -0.026142485 -0.053629056 0.043846548 0.048483863
0.03435604 -0.06682531 0.019981865 -0.0359239 0.037771616 -0.016131917 -0.010722447 0.0120076025
0.040765487 -0.031493958 -0.019887855 -0.0008380873 0.023620674 -0.03461542 0.00889013 0.04809477
-0.024000414 0.015383824 -0.07401103 -0.02565697 0.031740416 0.064013846 -0.06998701 -0.05335642
-0.0056411405 -0.05053814 -0.035548065 -0.06281968 0.059731107 -0.07802184 -0.005022624 -0.043157924
0.030855099 -0.047007225 -0.057530165 -0.00041789014 0.028006986 -0.012225103 0.021397056 0.032384586
-0.034086797 -0.05639913 -0.007097328 -0.04951774 -0.046039507 -0.050817154 -0.04024173 0.059890706
0.084639795 0.027579807 0.004632588 0.011394555 0.027898354 -0.005453149 0.015676979 -0.043054763
0.03229747 0.0017962615 0.004824289 0.020989342 0.008405945 -0.032104347 0.03559249 -0.07272905
0.009608275 0.007339324 0.0011018601 0.037017427 -0.06433784 0.024456942 0.025534498 0.047899466
-0.06916091 0.021330388 0.035797358 -0.038835946 0.03209592 -0.039596584 0.012081874 0.017055267
-0.0025968135 -0.027193062 0.062388618 -0.026613152 -0.035198696 0.04928919 0.033859614 -0.0050860625
-0.010247398 -0.030305458 0.028750306 0.016012324 -0.05280911 -0.0046591507 0.012385592 -0.026957234
-0.023313377 -0.048732374 -0.0062592546 -0.05342552 -0.012376827 -0.05564939 0.06702043 0.023445679
0.04161912 0.017785674 -0.04884547 -0.028635232 0.035072826 -0.025425287 0.05911445 0.05379937
-0.03006626 -0.01004801 -0.013213679 0.055422183 -0.0143769365 0.00766193 0.045510523 -0.03959929
0.035442717 0.034953147 -0.025849592 0.010437794 -0.054243043 0.033734184 0.06896773 0.015575928
-0.030385908 0.020837493 -0.028074734 -0.0129847145 -0.04239194 -0.053032532 -0.062367387 0.05429455
0.0029444043 0.018246071 -0.02140176 -0.01763725 -0.00722432 -0.010721841 -0.07660224 -0.030650575
0.05425322 0.0031262464 -0.0073461537 0.058452494 -0.07536847 0.070185915 -0.05965651 0.030847471
-0.0017144972 0.005224089 -0.01902941 0.008499843 0.04856863 -0.06973418 -0.019384695 -0.019431874
0.06330399 0.0010292113 -0.05342863 0.005933703 -0.033090256 0.03598777 -0.02540998 -0.008633324
-0.036606383 -0.045974728 0.013288885 0.0321062 0.04731601 0.03905413 -0.031976487 0.0076883947
00000000: bbb7 1fbd 5ac7 713c 2ed0 5bbc 5c17 313b
00000010: d9ad dabc 63ed a9bb 9042 3fbd 393b 903d
00000020: f319 763d c4eb 42bd cdef b7bc adef 35bd
00000030: 0db5 783b 09df 153c db6c b2bc ce2d 003d
00000040: 4306 64bd c688 2bbd b733 223c 1006 b7bc
00000050: 39a5 aabb 706d 8d3d 23b1 c9bc 1c22 0e3d
00000060: 9c11 bb3c c70b 80bc ae87 bdbc ee9a f0bc
00000070: d486 db3c d287 82bd 03bd 72bd 1638 823c
00000080: 1087 213c c63b 31bd 735a 933c f10d 51bd
00000090: a2eb f03c 0bc2 733d 2d0b 5e3d d332 59ba
000000a0: e311 8a3d ffc4 553d 9c8e b6bc f25d 903d
000000b0: b724 57bd cc73 113c 6e2b 513d d6a8 e93c
000000c0: 05d5 79bd e315 ce3c 2e80 353c 7a2e e9bc
000000d0: e9a0 44bd 0bbc a93d 06cf 37bd cf45 ffbc
000000e0: 8b07 823d cb19 7e3c 4ecf 92bc d657 9dbc
000000f0: f3ed be3c 9408 9dbd 8a1d 893c 8e16 80bd
00000100: 3928 963d 8d15 233d c946 f03c f27f 26bd
00000110: a6f3 3fbd 7312 c93d 7a03 b1bb 8a0f 8fbd
00000120: dba8 973d 1480 58bd edaf 8b3c 05ff f03b
00000130: c428 d6bc 24aa 5bbd 7098 333d 0497 463d
00000140: ebb8 0c3d b5db 88bd 02b1 a33c f024 13bd
00000150: 69b6 1a3d 1527 84bc 34ad 2fbc 89bb 443c
00000160: b6f9 263d cfff 00bd dbeb a2bc 16b3 5bba
00000170: 2580 c13c e6c8 0dbd e8a7 113c 06ff 443d
00000180: 849c c4bc 6f0c 7c3c 1893 97bd 912e d2bc
00000190: 3d02 023d b119 833d 5955 8fbd 438c 5abd
000001a0: 51d9 b8bb 1501 4fbd d99a 11bd 9ba7 80bd
000001b0: 9ba8 743d eac9 9fbd d394 a4bb 5dc6 30bd
000001c0: d5c3 fc3c a68a 40bd c0a4 6bbd 4418 dbb9
000001d0: e86e e53c cc4b 48bc e148 af3c b3a5 043d
000001e0: 999e 0bbd c602 67bd b490 e8bb 1dd3 4abd
000001f0: ec93 3cbd a625 50bd 83d4 24bd f54f 753d
00000200: a157 ad3d 0cef e13c f7cc 973b 3ab0 3a3c
00000210: 178b e43c 54b0 b2bb 026d 803c 315a 30bd
00000220: 5a4a 043d 8970 eb3a 1215 9e3b d7f1 ab3c
00000230: 17b9 093c d97f 03bd 6ec9 113d f8f2 94bd
00000240: 076c 1d3c b67e f03b 4a6c 903a 969f 173d
00000250: 8fc3 83bd ed59 c83c b92d d13c 3b32 443d
00000260: 3ca4 8dbd 11bd ae3c 40a0 123d 7112 1fbd
00000270: 0377 033d 0730 22bd 0df3 453c 7db7 8b3c
00000280: 4d2f 2abb fcc3 debc 358b 7f3d d303 dabc
00000290: 822c 10bd 76e3 493d 61b0 0a3d fca8 a6bb
000002a0: b4e4 27bc 2743 f8bc c385 eb3c 472c 833c
000002b0: 5e4e 58bd caab 98bb f0ec 4a3c 6bd5 dcbc
000002c0: b2fb bebc 999b 47bd 6f1a cdbb b8d4 5abd
000002d0: 2dc8 4abc 9df0 63bd 0242 893d 2711 c03c
000002e0: cf78 2a3d 43b3 913c 3012 48bd 6f94 eabc
000002f0: 86a8 0f3d b148 d0bc fe21 723d ba5c 5c3d
00000300: 844d f6bc 69a0 24bc 307e 58bc 5f02 633d
00000310: 3e8d 6bbc ed10 fb3b 3e69 3a3d dd32 22bd
00000320: 622c 113d 082b 0f3d 86c2 d3bc 4803 2b3c
00000330: f42d 5ebd db2c 0a3d f43e 8d3d 2d32 7f3c
00000340: deeb f8bc 64b3 aa3c fcfc e5bc d7bd 54bc
00000350: 2ca3 2dbd a438 59bd f274 7fbd f663 5e3d
00000360: e8f6 403b c978 953c be52 afbc fe7b 90bc
00000370: fdb9 ecbb a9aa 2fbc a3e1 9cbd ea16 fbbc
00000380: a038 5e3d b6e1 4c3b 01b8 f0bb e26b 6f3d
00000390: c95a 9abd a2bd 8f3d 625a 74bd d6b3 fc3c
000003a0: fbb8 e0ba d62e ab3b 91e3 9bbc ed42 0b3c
000003b0: e6ef 463d cbd0 8ebd a7cc 9ebc 982f 9fbc
000003c0: 86a5 813d 9ae6 863a fbd7 5abd 826f c23b
000003d0: a689 07bd e967 133d 9728 d0bc c972 0dbc
000003e0: 93f0 15bd ff4f 3cbd a0b9 593c ca81 033d
000003f0: 6fce 413d 39f7 1f3d c7f9 02bd eeee fb3b

bias f4 [5]
-0.040263142 0.060105536 0.04208762 -0.042585332 -0.054251056
00000000: f7ea 24bd 3931 763d 1164 2c3d f56d 2ebd
00000010: 5b36 5ebd
