final_project/mlruns/3/efbbd2238126466d94fc8ae20c5c9c1d/artifacts/cvae_32/data/model.pth (torch, 50311 bytes, 10 tensors)

weight f4 [80, 17]
0.21830508 0.03207265 0.022732329 -0.01935837 0.005425139 -0.03239274 0.0877972 -0.1316612
0.13324729 0.06515656 -0.08588003 -0.21243137 0.2654189 0.11369954 0.12407155 0.002332156
-0.17377578 0.0128508145 0.21197137 -0.014851586 -0.16181977 0.12702705 -0.022539923 -0.14376865
-0.08484174 0.0123031065 -0.08251265 0.23609395 -0.07947474 -0.14447294 -0.078950055 0.11991875
-0.1439384 0.13586457 0.18699796 -0.16715425 0.17268944 0.06627051 0.029029977 -0.19454178
0.080672495 0.026872229 -0.23502153 0.23418699 0.035829846 0.044578686 0.0008573368 -0.0072032446
0.1034006 0.14938308 -0.1747183 -0.23756713 0.094477676 -0.107691735 0.035094127 -0.09636009
0.0546258 0.057228576 -0.13628499 0.20652437 -0.08157985 0.023594746 0.015368462 -0.11854323
0.25009093 0.04056753 -0.21663035 -0.07721907 -0.05235677 -0.19088823 -0.23600508 -0.22295083
-0.03137155 -0.024093749 0.022121798 0.09840494 -0.1446824 0.19381298 -0.082681514 0.19293061
-0.08111938 0.11982964 -0.06949165 -0.22202596 0.23355828 0.22584413 -0.023676075 0.169249
-0.20621943 0.05709592 -0.00039033295 -0.06017383 0.13382562 0.21685912 0.15502092 -0.15984051
-0.038605228 0.014454004 -0.07066205 0.04198727 0.22730489 -0.060307834 0.017823748 -0.20925394
-0.10201457 -0.11978041 0.2246729 -0.24213214 -0.13781779 0.11927 -0.18860674 0.005524666
-0.29603988 0.07343389 -0.19724137 0.0075200843 -0.14474432 -0.09550322 -0.034031425 0.16600902
0.04327149 0.028862773 -0.11625698 -0.18613341 -0.04653305 -0.08478161 0.08627144 0.052865535
-0.20935172 0.2089735 0.09296473 -0.038586594 0.014094442 0.14872733 -0.20346019 -0.24482389
0.011757138 0.018704688 -0.24788459 -0.1466359 -0.012537612 0.16051072 -0.11624231 -0.17312042
0.15163541 0.17226997 -0.15590522 -0.2787913 0.044422876 -0.028834896 0.11877305 -0.085304506
0.19607726 0.0745555 0.17110273 0.050125122 -0.19069181 -0.10479021 0.06367491 0.08420316
0.03778663 0.043903507 -0.0406162 -0.17679022 0.08245458 -0.029097153 0.078227974 -0.13378559
-0.08899769 0.19331649 0.037616532 0.18445884 0.13282362 -0.17344286 0.11349896 -0.095189266
0.022712087 0.028200636 0.20003168 0.18169053 -0.17733207 0.010482978 0.08920986 -0.15025486
-0.20525937 0.14202216 0.109295994 0.22855712 -0.08549983 -0.17014204 0.27340958 -0.1908783
-0.15283623 -0.072264194 0.20430212 0.19541146 0.16314498 -0.2643484 0.21383096 0.22524372
0.08196965 0.002745885 0.13934286 -0.032306984 0.20547909 -0.04095509 -0.16208139 -0.09478208
-0.23388305 0.18772049 0.028626418 0.049526088 0.12662265 0.11765533 0.20690157 -0.21927108
-0.16988191 0.19880861 -0.15662348 0.058217958 -0.08979281 0.22887997 -0.17872892 0.17698501
-0.16507268 -0.15792918 0.16131252 0.09123439 -0.100954406 -0.1219599 0.046788856 -0.2940165
-0.21965787 0.13691238 0.15044002 -0.08772913 0.24246374 -0.0007877314 -0.21081805 -0.19631404
0.038769424 -0.05924137 0.05676494 0.1290208 -0.032792013 0.021560121 0.12554632 -0.17031303
0.15196508 0.19954906 0.20677738 -0.19876559 0.089757636 -0.12899897 -0.067808114 0.008713625
00000000: 5e8b 5f3e 9c5e 033d 2639 ba3c 7295 9ebc
00000010: 5dc5 b13b 40ae 04bd 05cf b33d 32d2 06be
00000020: fa71 083e cd70 853d dfe1 afbd 9c87 59be
00000030: fce4 873e 4edb e83d 3a19 fe3d 16d7 183b
00000040: 47f2 31be 398c 523c 060f 593e 1154 73bc
00000050: 15b4 25be 6113 023e a5a5 b8bc 1738 13be
00000060: 82c1 adbd f892 493c 64fc a8bd 9dc2 713e
00000070: a7c3 a2bd b7f0 13be 91b0 a1bd f697 f53d
00000080: 9764 13be 1520 0b3e 657c 3f3e 7c2a 2bbe
00000090: 80d5 303e d5b8 873d 46d0 ed3c f635 47be
000000a0: 9f37 a53d 2623 dc3c 7ca9 70be b7ce 6f3e
000000b0: 51c2 123d 2498 363d e6be 603a 3209 ecbb
000000c0: b2c3 d33d e1f7 183e 5be9 32be cc44 73be
000000d0: 837d c13d 7c8d dcbd dcbe 0f3d 7058 c5bd
000000e0: 4ebf 5f3d 8368 6a3d 4b8e 0bbe 207b 533e
000000f0: 5613 a7bd c549 c13c 00cc 7b3c cbc6 f2bd
00000100: eb0b 803e 232a 263d 59d4 5dbe 0825 9ebd
00000110: 0d74 56bd 3478 43be 51ab 71be 394d 64be
00000120: 747f 00bd 4160 c5bc c638 b53c 8788 c93d
00000130: a027 14be e976 463e ed54 a9bd 9a8f 453e
00000140: eb21 a6bd 3e69 f53d a351 8ebd c65a 63be
00000150: e729 6f3e af43 673e 54f4 c1bc 9c4f 2d3e
00000160: 302b 53be 69dd 693d 9aa5 ccb9 d578 76bd
00000170: 9509 093e 5110 5e3e cebd 1e3e 3bad 23be
00000180: 8420 1ebd 7dd0 6c3c 44b7 90bd d8fa 2b3d
00000190: 9dc2 683e 5905 77bd 1c03 923c aa46 56be
000001a0: 04ed d0bd 6e4f f5bd a710 663e 7df1 77be
000001b0: 1b20 0dbe d443 f43d 2022 41be 4208 b53b
000001c0: 8a92 97be 8264 963d a4f9 49be 0a6b f63b
000001d0: db37 14be 3197 c3bd 8964 0bbd 45fe 293e
000001e0: 723d 313d 9f71 ec3c 2418 eebd c299 3ebe
000001f0: 7099 3ebd fba1 adbd 15af b03d 8889 583d
00000200: 4c60 56be 26fd 553e 4b64 be3d fa0c 1ebd
00000210: 60ec 663c fa4b 183e de57 50be 1db3 7abe
00000220: 03a1 403c 933a 993c 75d5 7dbe b927 16be
00000230: 8e6a 4dbc ec5c 243e 7310 eebd 7b46 31be
00000240: 5046 1b3e 8a67 303e 9ea5 1fbe bcbd 8ebe
00000250: c3f4 353d 2937 ecbc 493f f33d 21b4 aebd
00000260: 7ac8 483e 8eb0 983d 8e35 2f3e 0050 4d3d
00000270: b744 43be 409c d6bd fe67 823d b572 ac3d
00000280: 27c6 1a3d 2ad4 333d 2c5d 26bd 7f08 35be
00000290: f2dd a83d 275d eebc fd35 a03d 17ff 08be
000002a0: 6c44 b6bd c2f4 453e cb13 1a3d c7e2 3c3e
000002b0: ea02 083e 019b 31be 2572 e83d 97f2 c2bd
000002c0: b30e ba3c 0505 e73c 1bd5 4c3e 150d 3a3e
000002d0: 8a96 35be ccc0 2b3c a9b3 b63d 69dc 19be
000002e0: 832f 52be 426e 113e 94d6 df3d e10a 6a3e
000002f0: 891a afbd b739 2ebe 57fc 8b3e 9a75 43be
00000300: 1a81 1cbe 40ff 93bd 9334 513e f119 483e
00000310: 7a0f 273e ac58 87be 81f6 5a3e 4aa6 663e
00000320: b4df a73d 4ef4 333b e5af 0e3e 5454 04bd
00000330: 1c69 523e 86c0 27bd aaf8 25be 1b1d c2bd
00000340: 0a7f 6fbe cd39 403e f381 ea3c dedb 4a3d
00000350: 5ea9 013e 47f5 f03d 01de 533e 9988 60be
00000360: 86f5 2dbe 7c94 4b3e e861 20be f475 6e3d
00000370: 4be5 b7bd 835f 6a3e b704 37be 8f3b 353e
00000380: d008 29be 30b8 21be 1c2f 253e 19d9 ba3d
00000390: 2fc1 cebd 1dc6 f9bd aca5 3f3d 5589 96be
000003a0: feed 60be c232 0c3e f30c 1a3e 55ab b3bd
000003b0: 6a48 783e c27f 4eba b0e0 57be 8c06 49be
000003c0: b0cc 1e3d 14a7 72bd 5b82 683d 071e 043e
000003d0: eb50 06bd da9e b03c 378f 003e 8a66 2ebe
000003e0: bc9c 1b3e 9756 4c3e 73bd 533e 3589 4bbe
000003f0: dad2 b73d 4e18 04be fbde 8abd 98c3 0e3c

bias f4 [80]
0.043695025 0.047120593 -0.08512705 -0.0530427 -0.17957135 -0.20141286 0.34329692 0.15585788
-0.05393628 0.2864715 -0.13079506 0.19732523 -0.20254324 0.16561712 -0.15270169 0.18984543
0.2238468 0.027894292 0.056128275 -0.21704207 0.10772168 0.2849736 -0.14016816 0.076993056
0.19914731 -0.10724372 -0.056998644 0.23580636 -0.083339 0.36124167 0.13479233 0.24167709
0.2536421 0.28941524 0.19921741 0.21945192 0.09437853 0.13747881 -0.028065147 -0.14890827
-0.18061721 0.26918113 -0.012739419 -0.010876979 0.02976514 0.00033838057 -0.119759575 -0.17638803
-0.097161934 0.21297926 -0.17422894 0.24250287 -0.053853814 -0.1431417 -0.1696489 0.25610378
-0.024094526 0.35809058 0.12530038 0.3043931 0.2407191 0.08407327 0.08683866 0.12153942
0.11458879 -0.0723831 0.30086738 -0.08675315 -0.04813269 0.23900886 -0.05159383 0.26619938
0.0519355 0.3018966 0.04532272 0.3589426 0.25522485 0.26079586 -0.09048883 -0.07157561
00000000: 8ef9 323d 8601 413d 1757 aebd 4d43 59bd
00000010: 8de1 37be 2c3f 4ebe 9dc4 af3e 3599 1f3e
00000020: 4aec 5cbd 64ac 923e 24ef 05be a00f 4a3e
00000030: 7f67 4fbe 8997 293e d55d 1cbe d766 423e
00000040: 1838 653e 9282 e43c c3e6 653d 4740 5ebe
00000050: 2f9d dc3d 0fe8 913e 3e88 0fbe 89ae 9d3d
00000060: 46ed 4b3e 98a2 dbbd 6977 69bd 3977 713e
00000070: a3ad aabd abf4 b83e 0007 0a3e 337a 773e
00000080: 61dd 813e 3c2e 943e a6ff 4b3e 01b8 603e
00000090: 8849 c13d 3fc7 0c3e e1e8 e5bc 697b 18be
000000a0: b8f3 38be 1cd2 893e ffb8 50bc 5b35 32bc
000000b0: 06d6 f33c ac68 b139 8244 f5bd 109f 34be
000000c0: d6fc c6bd 3c17 5a3e 1269 32be ac52 783e
000000d0: d195 5cbd bd93 12be 71b8 2dbe 0920 833e
000000e0: e261 c5bc a657 b73e be4e 003e 6ad9 9b3e
000000f0: 117f 763e 9b2e ac3d 78d8 b13d a9e9 f83d
00000100: 87ad ea3d 973d 94bd 4a0b 9a3e a3ab b1bd
00000110: c926 45bd bdbe 743e 0d54 53bd 494b 883e
00000120: 52ba 543d 3192 9a3e 51a4 393d 53c7 b73e
00000130: d5ac 823e 0987 853e 3552 b9bd 3c96 92bd

weight f4 [40, 80]
-0.058378994 0.10017501 -0.102768384 0.037163004 -0.09420721 0.0007978816 -0.06660399 -0.042380407
0.08263833 0.08493985 -0.062452123 0.05347967 0.03479304 -0.0033923583 -0.04478011 -0.07606399
-0.010655363 0.06677417 -0.022892257 -0.008149204 0.0027006804 0.010632442 0.099504344 0.014706839
0.08500449 0.08162115 0.0021717735 0.10132097 -0.10077338 -0.07589369 0.055393875 0.08761909
0.0632923 0.058228377 -0.026070263 -0.084554195 -0.06895997 -0.09030279 -0.08968172 0.048393074
-0.08317099 -0.093811065 0.045886118 -0.10298569 -0.09239325 0.015345868 0.063317165 0.07805497
0.08368919 0.042840123 0.011841956 -0.04137 0.018539812 -0.091065995 0.02303839 -0.003876607
-0.008474988 0.09522356 0.08960818 0.096568435 -0.091675825 -0.11150013 -0.0571143 -0.010884377
-0.10147128 -0.08020043 0.04846129 0.051010802 0.055582162 -0.11403941 -0.052604392 0.10451964
0.064061515 -0.06123578 0.0031930422 0.01807914 0.045707904 0.002412792 0.02051315 -0.09888536
0.023040194 0.015063317 -0.0673373 0.08961428 0.086916916 0.0804088 -0.03802817 -0.08757977
0.07185924 0.0598645 -0.06429538 0.025058782 0.031098232 0.010770911 -0.03987224 0.061379157
0.092856854 -0.1313959 -0.113425076 -0.07633275 0.04982582 0.056415655 -0.00039761077 -0.12044938
-0.028873485 0.12299602 0.08675291 0.11404266 -0.08654632 -0.072042696 -0.0963217 0.10395881
-0.071594335 -0.010522651 0.038416963 -0.012612394 0.08025185 -0.060797054 -0.007844351 -0.062807105
-0.015348784 0.03480484 0.08880789 0.033219617 -0.0976844 -0.08056682 0.07646774 -0.07860954
0.04309896 -0.0019735927 0.010298613 -0.042164844 0.027840672 -0.025901118 -0.08435087 -0.061765946
0.07528428 -0.049481682 0.00213739 -0.0764444 -0.07390664 -0.0043733944 0.03909441 -9.8092714e-05
0.027474325 -0.058694057 0.039240744 -0.101480395 0.014880767 0.030905362 -0.0811084 0.01186897
-0.013863119 -0.08869775 0.060704764 -0.10596923 0.05513938 -0.12363385 0.04146088 -0.130616
0.038720075 0.0987125 -0.0073759533 0.09633098 -0.08497239 -0.02473496 0.10258252 -0.112207696
-0.0960698 -0.089545436 -0.0057047973 0.014195615 -0.061754953 -0.05641878 0.026702154 0.07234772
0.08548437 -0.0014353867 -0.060598947 -0.0580401 0.027553273 0.06307345 0.052858885 0.09884221
-0.08145778 0.05392254 0.09942481 0.012041995 0.041807774 -0.030113904 -0.08754516 0.0726764
-0.05273528 0.08541245 -0.058235608 0.046511736 0.112303436 0.080357485 -0.049700126 0.11340638
-0.030211363 0.069765575 -0.07009034 -0.09244194 0.015363218 -0.096212104 0.08928709 0.11024304
0.059048597 -0.06335461 0.03759246 -0.05703906 0.06794755 -0.10448565 -0.015670652 -0.09525794
-0.052300923 -0.10736966 0.07673212 -0.04144305 0.02969209 0.01211014 0.08778745 -0.0503951
0.005735379 -0.09464144 0.074989125 0.086482584 0.05650337 0.056368712 0.014113875 0.0842966
-0.09476817 -0.009932012 -0.090396106 -0.051404957 0.012085547 0.06285317 0.085396424 -0.08912382
0.039641745 0.02826319 -0.08269425 -0.026867291 0.032446574 -0.021141708 -0.003924757 -0.08351081
0.08509764 -0.050854824 -0.09448604 -0.042445745 0.021098062 0.06526478 0.113059394 -0.03669754
00000000: d01e 6fbd 8e28 cd3d 3b78 d2bd 3c38 183d
00000010: b6ef c0bd ee28 513a ac67 88bd 1497 2dbd
00000020: 493e a93d f2f4 ad3d cccd 7fbd 800d 5b3d
00000030: 2683 0e3d 5452 5ebb 596b 37bd 70c7 9bbd
00000040: d593 2ebc e5c0 883d 8b88 bbbc 3d84 05bc
00000050: e6fd 303b b233 2e3c efc8 cb3d f4f4 703c
00000060: d616 ae3d fd28 a73d 5054 0e3b 5e81 cf3d
00000070: 4662 cebd 276e 9bbd b0e4 623d a371 b33d
00000080: 659f 813d e180 6e3d 4e91 d5bc c02a adbd
00000090: e23a 8dbd abf0 b8bd 0dab b7bd d137 463d
000000a0: 8d55 aabd 0420 c0bd 15f3 3b3d 29ea d2bd
000000b0: ac38 bdbd 3c6d 7b3c 6eac 813d 49db 9f3d
000000c0: 3d65 ab3d 2079 2f3d c304 423c 9773 29bd
000000d0: cee0 973c cf80 babd 01bb bc3c ac0e 7ebb
000000e0: adda 0abc 9204 c33d 7e84 b73d acc5 c53d
000000f0: 89c0 bbbd 2e5a e4bd aff0 69bd 6354 32bc
00000100: 2dd0 cfbd 1f40 a4bd 587f 463d b4f0 503d
00000110: 1faa 633d 7f8d e9bd b477 57bd 650e d63d
00000120: af32 833d 5fd2 7abd 5c42 513b b41a 943c
00000130: 3638 3b3d ef1f 1e3b 320b a83c 6884 cabd
00000140: cabe bc3c 21cc 763c 23e8 89bd b187 b73d
00000150: 7f01 b23d 5ead a43d 6dc3 1bbd 065d b3bd
00000160: f02a 933d 7a34 753d 4cad 83bd 1348 cd3c
00000170: b8c1 fe3c 7a78 303c 1351 23bd b668 7b3d
00000180: bc2b be3d a68c 06be 684b e8bd 5854 9cbd
00000190: 2916 4c3d 1a14 673d 6a76 d0b9 2aae f6bd
000001a0: 1688 ecbc 56e5 fb3d 82ab b13d 338f e93d
000001b0: 323f b1bd 1f8b 93bd 5044 c5bd 5be8 d43d
000001c0: 0da0 92bd 3267 2cbc 1b5b 1d3d 37a4 4ebc
000001d0: 155b a43d 5506 79bd 9885 00bc 03a1 80bd
000001e0: 7779 7bbc 858f 0e3d e9e0 b53d 4b11 083d
000001f0: c20e c8bd 3800 a5bd 1e9b 9c3d 0afe a0bd
00000200: 8988 303d 6457 01bb 84bb 283c 0bb5 2cbd
00000210: 1f12 e43c 952e d4bc 26c0 acbd 4afe 7cbd
00000220: a52e 9a3d 4ead 4abd 7413 0c3b e28e 9cbd
00000230: 5d5c 97bd b14e 8fbb 7621 203d 20b7 cdb8
00000240: d611 e13c 2e69 70bd e7ba 203d f4d4 cfbd
00000250: 76ce 733c 3e2d fd3c 291c a6bd 1176 423c
00000260: 2322 63bc 2aa7 b5bd 8fa5 783d 6506 d9bd
00000270: d5d9 613d be33 fdbd e2d2 293d 33c0 05be
00000280: f198 1e3d c729 ca3d fbb1 f1bb 2d49 c53d
00000290: 0106 aebd f9a0 cabc c916 d23d 26cd e5bd
000002a0: 3ec0 c4bd 9963 b7bd 4fef babb ba94 683c
000002b0: c3f2 7cbd 6117 67bd 7abe da3c 0b2b 943d
000002c0: 6e12 af3d 9623 bcba 9a36 78bd 75bb 6dbd
000002d0: 67b7 e13c a72c 813d 8f82 583d c96d ca3d
000002e0: 56d3 a6bd e2dd 5c3d 3c9f cb3d ca4b 453c
000002f0: a13e 2b3d 6fb1 f6bc e04a b3bd 5dd7 943d
00000300: f300 58bd b9ec ae3d 7688 6ebd 1783 3e3d
00000310: 58ff e53d 7792 a43d 5c92 4bbd 9b41 e83d
00000320: d27d f7bc 41e1 8e3d 868b 8fbd 3352 bdbd
00000330: 02b6 7b3c da0a c5bd 26dc b63d 1ac7 e13d
00000340: f1dc 713d 10c0 81bd 8dfa 193d caa1 69bd
00000350: 1628 8b3d 93fc d5bd bd5f 80bc 9816 c3bd
00000360: 7e39 56bd a0e4 dbbd bb25 9d3d 30c0 29bd
00000370: d33c f33c 9c69 463c e8c9 b33d 186b 4ebd
00000380: d9ef bb3b 5fd3 c1bd e693 993d c81d b13d
00000390: 1470 673d e1e2 663d e23d 673c b2a3 ac3d
000003a0: d015 c2bd e1b9 22bc 9821 b9bd 018e 52bd
000003b0: 7502 463c 2ab9 803d 52e4 ae3d 8d86 b6bd
000003c0: 625f 223d 3588 e73c 9a5b a9bd cb18 dcbc
000003d0: b3e6 043d 6031 adbc 3f9b 80bb b707 abbd
000003e0: ac47 ae3d 264d 50bd e681 c1bd 97db 2dbd
000003f0: d8d5 ac3c 8aa9 853d af8b e73d 2950 16bd

bias f4 [40]
-0.11144218 -0.042463988 -0.07218077 0.079560205 0.066442646 -0.15827791 -0.12977296 -0.08113599
0.018863311 -0.1197402 -0.069541775 -0.11374889 -0.0102203665 0.053285807 0.12375227 0.035381917
0.097964756 -0.03881971 -0.11668714 0.030735062 0.13989116 -0.070205234 -0.12196367 0.03118194
0.11531861 0.051611662 -0.087397076 0.1390959 0.09413458 0.008325279 -0.111672446 0.007680241
0.006338551 -0.104180515 -0.14079882 -0.118933745 0.05958378 0.09972314 -0.07463512 0.029277751
00000000: cc3b e4bd b8ee 2dbd 83d3 93bd 76f0 a23d
00000010: 1513 883d 9b13 22be 34e3 04be a02a a6bd
00000020: 3b87 9a3c 5a3a f5bd eb6b 8ebd 2ef5 e8bd
00000030: 5373 27bc 3842 5a3d d571 fd3d a1ec 103d
00000040: bfa1 c83d 6b01 1fbd abf9 eebd 19c8 fb3c
00000050: a13f 0f3e c3c7 8fbd 17c8 f9bd 4571 ff3c
00000060: 2a2c ec3d c066 533d 3dfd b2bd 286f 0e3e
00000070: a1c9 c03d c066 083c 86b4 e4bd 88aa fb3b
00000080: 9fb3 cf3b 985c d5bd 912d 10be 8993 f3bd
00000090: 1f0e 743d a53b cc3d 4cda 98bd e5d7 ef3c

weight f4 [40, 80]
-0.026007148 -0.06612718 -0.13639538 -0.098333195 -0.10168225 0.025742713 -0.077214256 -0.15115038
-0.10926114 0.016990727 -0.13747437 -0.1487169 -0.013228508 -0.06962877 -0.1378946 -0.11240683
-0.122786954 -0.03094398 -0.14115444 -0.050031718 -0.14206849 -0.044871595 -0.039502595 -0.056391943
-0.028699385 0.06021882 0.066922106 -0.07736211 0.0748221 -0.075709246 -0.0058544534 -0.14015199
-0.122143485 -0.16241923 -0.0848557 -0.03033951 0.037494846 -0.052966047 -0.011248996 0.031336088
0.03187944 0.034412477 0.011834803 -0.04253426 -0.01712584 -0.052645262 -0.10984427 -0.089085154
-0.0655674 -0.094906345 0.027927952 -0.03305171 0.012029562 -0.1155324 -0.0441645 -0.06882211
0.06783529 -0.11477761 0.0063214214 -0.1304488 -0.10691007 -0.11732294 -0.11638281 0.03215074
-0.14356545 -0.10500144 -0.07664745 -0.14447807 0.019199196 -0.13853836 0.012473951 -0.013197174
-0.044989377 -0.025995899 -0.010296555 -0.0986324 -0.03663545 -0.11826548 -0.002109105 0.07454277
0.030944703 -0.15449207 -0.034197588 -0.1423787 -0.060369954 -0.054558776 -0.040420994 0.004195985
-0.06368477 -0.10869816 0.04131871 -0.14855494 -0.15698199 -0.12567762 -0.118677124 -0.16501632
-0.014139731 -0.11898165 -0.16488418 0.048391763 0.035069436 0.033335738 0.064965 -0.108861014
-0.13833089 -0.14917058 -0.028692015 -0.17875744 -0.03393102 -0.16599834 -0.15122233 0.034857884
-0.07074142 -0.003767079 -0.09790838 -0.05508163 -0.03723714 -0.036899805 -0.0044788327 -0.113380924
0.06550655 -0.012016699 -0.13976696 -0.051800683 -0.07157195 -0.055637296 0.061259802 0.017988848
0.042474456 -0.14337473 0.034180824 -0.1449752 -0.049299043 0.02618421 -0.08057563 -0.025460595
-0.14259364 -0.019901333 -0.04089333 -0.09708234 -0.11178707 -0.10796625 -0.1507739 -0.113794096
-0.10006704 -0.10161674 0.010850868 -0.018473975 -0.14395234 -0.13178211 0.04936806 0.013562302
-0.15114167 -0.09300415 -0.09765972 -0.044536162 -0.074165076 0.021913057 -0.0106887845 -0.06563414
0.0462082 -0.14675233 -0.09921104 0.015650775 0.061026372 0.029858204 -0.14608127 -0.078560255
-0.01678354 -0.00769694 -0.04501235 -0.13137309 -0.018978795 -0.014169102 -0.04113318 -0.16629611
-0.051313944 0.002395143 -0.1113464 -0.100765094 -0.039734535 -0.10579382 0.058172096 -0.045497734
-0.024276908 0.04132337 0.06584733 -0.14299335 -0.045106538 -0.048346892 -0.11857681 -0.06859801
-0.035039473 -0.041254167 -0.0025487377 -0.059913404 -0.1234071 -0.10082943 -0.003694582 -0.03457243
-0.10654779 -0.12150941 -0.122504674 -0.14608428 -0.020330116 -0.015487046 -0.13067155 -0.114626765
-0.15467343 -0.14821963 -0.098416574 -0.17916542 -0.0773066 -0.069685586 -0.06155626 -0.1875687
-0.077511616 -0.07661517 -0.090108015 -0.042926647 -0.084745854 -0.07626799 -0.1341224 -0.021727214
-0.14246322 -0.034102328 -0.18768771 0.037532445 -0.12561929 -0.10429405 -0.12751545 -0.102522485
-0.07213644 -0.040399298 -0.1381571 -0.16994327 -0.14839016 -0.009956178 -0.073205605 0.076434575
0.009826599 -0.046776917 -0.035259366 -0.0162222 -0.12769301 0.02897011 -0.1188845 -0.13441782
-0.0936632 -0.08712558 0.064780265 -0.09521902 -0.012910773 -0.105696894 0.051809497 -0.14919722
00000000: f10c d5bc b06d 87bd 3bab 0bbe ea62 c9bd
00000010: c93e d0bd 62e2 d23c 8222 9ebd 2ac7 1abe
00000020: 4ec4 dfbd 2330 8b3c 15c6 0cbe 3e49 18be
00000030: 62bc 58bc 8799 8ebd 3e34 0dbe 8d35 e6bd
00000040: ba77 fbbd 3b7e fdbc ca8a 10be 0fee 4cbd
00000050: 677a 11be 47cb 37bd 79cd 21bd 3dfb 66bd
00000060: f91a ebbc 02a8 763d 750e 893d 0770 9ebd
00000070: 543c 993d 730d 9bbd b7d6 bfbb 0184 0fbe
00000080: 5d26 fabd 3a51 26be d3c8 adbd 908a f8bc
00000090: 3294 193d edf2 58bd b54d 38bc 455a 003d
000000a0: 0494 023d 19f4 0c3d c3e6 413c 6738 2ebd
000000b0: 7d4b 8cbc 8fa2 57bd 08f6 e0bd 4772 b6bd
000000c0: 3348 86bd 425e c2bd 29c9 e43c 3b61 07bd
000000d0: a417 453c 409c ecbd d6e5 34bd 9bf2 8cbd
000000e0: 3bed 8a3d 8610 ebbd ed23 cf3b 5f94 05be
000000f0: abf3 dabd 0247 f0bd 1c5a eebd 7fb0 033d
00000100: d202 13be ff0a d7bd 57f9 9cbd 0ff2 13be
00000110: a247 9d3c 00dd 0dbe 8b5f 4c3c f638 58bc
00000120: c846 38bd 5af5 d4bc e2b2 28bc c9ff c9bd
00000130: 0e0f 16bd 2c35 f2bd e938 0abb e1a9 983d
00000140: bf7f fd3c 2b33 1ebe c512 0cbd b9cb 11be
00000150: 7c46 77bd 0679 5fbd 7c90 25bd 797e 893b
00000160: 296d 82bd 249d debd cf3d 293d c91e 18be
00000170: e3bf 20be a2b1 00be fe0c f3bd 0afa 28be
00000180: 55aa 67bc a7ac f3bd 66d7 28be 7136 463d
00000190: f8a4 0f3d 0e8b 083d 5f0c 853d 86f2 debd
000001a0: 9da6 0dbe 2cc0 18be 840b ebbc 310c 37be
000001b0: 41fb 0abd 78fb 29be 07da 1abe 24c7 0e3d
000001c0: e1e0 90bd 19e1 76bb 3084 c8bd 469d 61bd
000001d0: f985 18bd 4024 17bd 2cc3 92bb 4234 e8bd
000001e0: 4c28 863d b0e1 44bc 121f 0fbe f42c 54bd
000001f0: 5194 92bd efe3 63bd 8feb 7a3d 595d 933c
00000200: b2f9 2d3d d3d0 12be 3101 0c3d 6174 14be
00000210: cbed 49bd 4580 d63c d604 a5bd bd92 d0bc
00000220: 1104 12be 1f08 a3bc c47f 27bd 1bd3 c6bd
00000230: 9ff0 e4bd 691d ddbd 7964 1abe e10c e9bd
00000240: f3ef ccbd 701c d0bd d7c7 313c bc56 97bc
00000250: 3e68 13be e4f1 06be 2a36 4a3d 6b34 5e3c
00000260: e2c4 1abe f678 bebd d201 c8bd 8d6b 36bd
00000270: dce3 97bd 0383 b33c 0320 2fbc 316b 86bd
00000280: cf44 3d3d 3e46 16be 282f cbbd 0e36 803c
00000290: caf6 793d 3199 f43c 5496 15be 33e4 a0bd
000002a0: a27d 89bc 9d36 fcbb df5e 38bd ab86 06be
000002b0: 6b79 9bbc 8525 68bc 447b 28bd 8749 2abe
000002c0: 922e 52bd d5f7 1c3b 9509 e4bd ee5d cebd
000002d0: aec0 22bd 6eaa d8bd dd45 6e3d d55b 3abd
000002e0: 5ee0 c6bc b242 293d f7da 863d d96c 12be
000002f0: a2c1 38bd 6407 46bd 66d8 f2bd 1d7d 8cbd
00000300: 8d85 0fbd 21fa 28bd b908 27bb c267 75bd
00000310: ddbc fcbd a97f cebd cd20 72bb d29b 0dbd
00000320: ba35 dabd edd9 f8bd bbe3 fabd 1e97 15be
00000330: 588b a6bc 61bd 7dbc c3ce 05be 70c1 eabd
00000340: b662 1ebe e3c6 17be a18e c9bd 2477 37be
00000350: ec52 9ebd 51b7 8ebd 6b22 7cbd 0212 40be
00000360: 69be 9ebd 6ae8 9cbd 8d8a b8bd dad3 2fbd
00000370: 3c8f adbd 6432 9cbd 6257 09be 45fd b1bc
00000380: e1e1 11be e2ae 0bbd 3531 40be 9fbb 193d
00000390: 58a2 00be 1e98 d5bd 6993 02be 4ff7 d1bd
000003a0: 45bc 93bd bc79 25bd 0e79 0dbe 9c05 2ebe
000003b0: 97f3 17be 3d1f 23bc d2ec 95bd bb89 9c3d
000003c0: beff 203c 2799 3fbd 206c 10bd 6be4 84bc
000003d0: f5c1 02be b952 ed3c b779 f3bd d3a4 09be
000003e0: 7ed2 bfbd e56e b2bd 84ab 843d 3102 c3bd
000003f0: b587 53bc 9d77 d8bd 3236 543d 28c7 18be

bias f4 [40]
-0.16401681 -0.1177984 -0.018996913 0.013551188 -0.13517402 -0.07769691 -0.055665374 -0.17495202
-0.12952054 -0.11860542 -0.10691131 -0.14189018 0.013414766 -0.021480368 -0.03252162 -0.16235064
-0.17120206 0.013617047 -0.18986242 -0.1721715 -0.057074312 -0.019441793 -0.008151265 -0.14598863
-0.14658931 -0.15260322 -0.11735282 -0.037913274 -0.15074493 -0.054052167 -0.107502684 -0.16883454
-0.027277319 -0.1492628 -0.19021523 -0.19329812 -0.14349896 -0.036832377 -0.11291906 -0.09260963
00000000: 06f4 27be 4a40 f1bd 6a9f 9bbc cd05 5e3c
00000010: 0f6b 0abe 8f1f 9fbd 6001 64bd 9f26 33be
00000020: 08a1 04be 66e7 f2bd 51f4 dabd a94b 11be
00000030: 9bc9 5b3c 99f7 afbc 6435 05bd 3f3f 26be
00000040: 984f 2fbe 091a 5f3c 4b6b 42be ba4d 30be
00000050: c1c6 69bd 6544 9fbc e28c 05bc 0b7e 15be
00000060: 821b 16be 0544 1cbe ad56 f0bd f34a 1bbd
00000070: e15c 1abe ce65 5dbd 5e2a dcbd f6e2 2cbe
00000080: af74 dfbc 59d8 18be c8c7 42be f1ef 45be
00000090: 64f1 12be 8cdd 16bd 1c42 e7bd 1eaa bdbd

weight f4 [80, 40]
0.11825006 0.0975406 0.01461111 -0.011278449 0.0023220838 0.034113754 -0.07865338 0.068532735
-0.030453078 -0.11201447 -0.12572697 0.05384478 -0.03419134 0.018810418 -0.030951438 0.024753004
-0.090283915 -0.10749233 -0.03520146 -0.03846554 -0.106340446 -0.07992962 -0.12140734 -0.06920884
0.17417826 -0.0019489203 0.011452787 -0.044798713 -0.02049147 -0.14049599 0.025692971 0.096846454
0.13335592 0.102056794 -0.06158686 -0.05299309 0.10176061 0.019470418 -0.112487316 0.11458358
0.18312885 -0.09221227 0.012030425 0.09754877 -0.0801121 -0.031975 0.1419692 0.049530398
0.087512955 0.06481301 0.09215784 0.1141486 0.070175804 0.03934263 0.008867282 0.09258185
0.06468752 0.009131194 0.10960575 0.01608053 0.09508774 0.010172073 -0.096030235 -0.049033053
0.08661756 -0.040761117 0.13548197 0.095908314 -0.14574005 0.021738099 0.01877088 0.02112255
0.12557013 -0.1186791 -0.097378075 0.05781398 -0.15760176 0.12112958 0.036488973 -0.03943851
0.023471372 -0.099807225 0.06394817 -0.0580421 -0.012670061 0.12489796 0.033693798 -0.046179418
-0.00195587 -0.009761266 0.11278015 0.08624854 -0.07469473 -0.072075814 0.020779148 0.028914168
0.0040387944 -0.040099937 0.15274371 0.103520416 0.090229906 0.050069585 0.13657434 0.11287865
-0.014870588 0.08229318 -0.005201154 -0.14210613 0.08875676 -0.112935804 0.15022117 0.11578982
0.030499427 -0.02823758 -0.015121806 -0.02182271 0.07919092 0.055761214 0.005655919 -0.028419027
0.07594322 -0.09477734 -0.09159014 -0.13907346 0.08885885 0.09130474 0.1274824 0.1351201
0.080467656 0.101446666 0.011276752 0.06722393 -0.05981251 0.027350424 -0.088584594 -0.06321518
-0.020640125 0.07881519 -0.0829578 -0.038544152 0.009505603 -0.0042672786 0.078969724 -0.03852912
-0.0711744 0.02296704 -0.04468324 -0.090296544 -0.0143903615 -0.08323267 0.04018745 0.042963125
0.0760482 0.07778519 0.038902607 0.0893431 0.11454643 0.04504936 -0.009317498 0.07032727
-0.08218616 -0.070830055 -0.098419815 -0.081409745 -0.026983967 0.036710456 0.0358802 0.044444762
0.008354449 -0.06520375 -0.070196986 -0.05507079 -0.077978685 -0.027764186 -0.09071731 -0.024820922
0.0068848524 0.042835206 -0.033566434 -0.008356259 0.077953026 -0.122920334 -0.081241414 0.1348144
-0.07286977 0.040865257 -0.08588338 -0.08586245 -0.05133833 0.13598147 0.0036232192 -0.04429117
0.10562955 0.11188748 -0.031055266 -0.023509374 0.1664713 -0.072852165 0.104600154 0.06265441
-0.1180176 -0.06671829 -0.026774872 0.099919885 -0.04790065 0.046543166 0.08468571 -0.11324436
-0.018669723 -0.07806621 -0.11075673 0.024361039 0.117491156 -0.028840931 -0.027547011 0.065410875
-0.115384206 -0.09851092 0.05671426 -0.07496897 -0.020121418 -0.06963984 -0.028776031 -0.12922923
-0.085349105 0.016595092 0.067524984 0.0009613824 -0.10999479 0.087443784 0.051036675 -0.08623112
-0.031554423 -0.09995654 -0.057275668 0.009214471 0.011906392 -0.15544811 0.060673956 -0.058182765
0.069795474 0.078787334 0.01116742 0.03704687 -0.012285017 0.10273431 -0.10435717 -0.07503671
0.12706198 0.075292125 -0.108575806 0.07204943 0.0048572533 0.014146265 0.07841168 0.13716881
00000000: 162d f23d 5ec3 c73d 7063 6f3c 3ec9 38bc
00000010: 1a2e 183b ddba 0b3d 0615 a1bd e45a 8c3d
00000020: bc78 f9bc d867 e5bd 92be 00be 588c 5c3d
00000030: 380c 0cbd 4e18 9a3c df8d fdbc d0c6 ca3c
00000040: c6e6 b8bd f024 dcbd 682f 10bd 0b8e 1dbd
00000050: 05c9 d9bd 24b2 a3bd 69a4 f8bd 5dbd 8dbd
00000060: c95b 323e ea72 ffba 78a4 3b3c db7e 37bd
00000070: badd a7bc 2ede 0fbe 117a d23c 6f57 c63d
00000080: 748e 083e 2703 d13d 8142 7cbd 480f 59bd
00000090: de67 d03d 6d80 9f3c c05f e6bd ccaa ea3d
000000a0: 2186 3b3e c9d9 bcbd 421b 453c a6c7 c73d
000000b0: d011 a4bd 38f8 02bd 6060 113e 63e0 4a3d
000000c0: fe39 b33d afbc 843d 40bd bc3d bec6 e93d
000000d0: 55b8 8f3d bd25 213d 1448 113c 8e9b bd3d
000000e0: e47a 843d 019b 153c fb78 e03d 51bb 833c
000000f0: 5cbd c23d c4a8 263c 80ab c4bd e2d6 48bd
00000100: 8c64 b13d 21f5 26bd c9bb 0a3e 946b c43d
00000110: e13c 15be 1914 b23c 63c5 993c 3309 ad3c
00000120: 7595 003e 070e f3bd 286e c7bd 5ace 6c3d
00000130: 5b62 21be c912 f83d 7675 153d 468a 21bd
00000140: 0947 c03c bb67 ccbd 42f7 823d 8ebd 6dbd
00000150: 1696 4fbc 80ca ff3d 8202 0a3d a126 3dbd
00000160: 0e2e 00bb b8ed 1fbc 47f9 e63d 13a3 b03d
00000170: 8df9 98bd 7c9c 93bd 0839 aa3c 68dd ec3c
00000180: dd57 843b d53f 24bd d968 1c3e 8302 d43d
00000190: 75ca b83d c415 4d3d 25da 0b3e ec2c e73d
000001a0: c4a3 73bc 5489 a83d 716e aabb 4584 11be
000001b0: 1bc6 b53d e34a e7bd 94d3 193e 3723 ed3d
000001c0: efd9 f93c 7f52 e7bc 74c1 77bc 8ac5 b2bc
000001d0: d92e a23d df65 643d 4a55 b93b 05cf e8bc
000001e0: 1e88 9b3d 9f1a c2bd 9c93 bbbd 4669 0ebe
000001f0: a1fb b53d fbfd ba3d bf8a 023e ec5c 0a3e
00000200: 3acc a43d 45c3 cf3d 20c2 383c b3ac 893d
00000210: f6fd 74bd ff0d e03c d76b b5bd f676 81bd
00000220: 7b15 a9bc dc69 a13d c7e5 a9bd 79e0 1dbd
00000230: 64bd 1b3c 87d4 8bbb e1ba a13d b6d0 1dbd
00000240: e2c3 91bd 6025 bc3c c605 37bd 65ed b8bd
00000250: 8dc5 6bbc e475 aabd 989b 243d 1afa 2f3d
00000260: 29bf 9b3d d74d 9f3d 5758 1f3d 84f9 b63d
00000270: 5297 ea3d ad85 383d 6ba8 18bc be07 903d
00000280: 3851 a8bd 590f 91bd 5490 c9bd 27ba a6bd
00000290: 7b0d ddbc b45d 163d 1ef7 123d b60b 363d
000002a0: 19e1 083c 8b89 85bd 70c3 8fbd e991 61bd
000002b0: 4ab3 9fbd b871 e3bc ffc9 b9bd 3f55 cbbc
000002c0: 549a e13b f873 2f3d f57c 09bd b1e8 08bc
000002d0: d6a5 9f3d a8bd fbbd e661 a6bd c90c 0a3e
000002e0: bf3c 95bd 5462 273d a0e3 afbd a7d8 afbd
000002f0: 2448 52bd ba3e 0b3e 8873 6d3b a86a 35bd
00000300: 4e54 d83d 4325 e53d 9d67 febc bb96 c0bc
00000310: 7477 2a3e 8433 95bd 9b38 d63d f550 803d
00000320: 36b3 f1bd 99a3 88bd fa56 dbbc cca2 cc3d
00000330: 7933 44bd 0ca4 3e3d b46f ad3d a9ec e7bd
00000340: 3ff1 98bc 2de1 9fbd 6dd4 e2bd cd90 c73c
00000350: 349f f03d d143 ecbc 45aa e1bc 23f6 853d
00000360: 8e4e ecbd 18c0 c9bd 364d 683d 5589 99bd
00000370: acd5 a4bc 559f 8ebd b6bb ebbc ab54 04be
00000380: 83cb aebd 6ef2 873c 8a4a 8a3d 4805 7c3a
00000390: f344 e1bd ba15 b33d d50b 513d f199 b0bd
000003a0: 363f 01bd 04b6 ccbd e499 6abd 4bf8 163c
000003b0: 0713 433c ca2d 1fbe 4185 783d 0d51 6ebd
000003c0: eef0 8e3d 415b a13d 8ef7 363c 75be 173d
000003d0: 1947 49bc 5e66 d23d 36b9 d5bd d9ac 99bd
000003e0: 891c 023e c232 9a3d fe5c debd a78e 933d
000003f0: 9829 9f3b bcc5 673c 4e96 a03d fb75 0c3e

bias f4 [80]
0.04734493 0.058204073 -0.011978982 -0.017511586 0.15556897 0.057093672 -0.0147584975 -0.0416317
-0.100690015 0.10977958 -0.16995335 0.0021932903 -0.12415584 -0.16783176 0.151728 -0.14200376
-0.123607054 0.114936285 0.13623951 0.041703228 0.03863776 0.034272064 -0.053158853 0.0035857286
-0.10925153 -0.030852448 -0.09388731 0.014020378 0.1345092 -0.042812586 -0.10732066 -0.0494639
-0.1134585 -0.06466076 0.080423556 0.0013980756 0.02953938 -0.09858844 -0.13108179 -0.19233838
-0.057900026 0.048795808 0.029730244 -0.21716316 0.100555845 -0.10191667 -0.030833997 -0.016193584
0.04743034 -0.153299 -0.08688182 -0.028312473 0.10347233 0.13916922 -0.110732205 -0.10933354
0.13877882 0.04843361 0.04773223 -0.0902284 0.061803017 0.020344015 -0.09486626 -0.19134024
-0.094433606 0.080661245 -0.09435069 0.038547285 -0.011037775 -0.17438614 0.09852049 0.062206864
-0.0077935364 -0.17630191 -0.05121412 -0.13222475 -0.18284073 0.019484973 -0.030083003 -0.111000605
00000000: c2ec 413d 6567 6e3d 7e43 44bc 7574 8fbc
00000010: 794d 1f3e 0edb 693d a0cd 71bc 0086 2abd
00000020: 9136 cebd 1ed4 e03d 4008 2ebe 4ebd 0f3b
00000030: 6b45 febd 17dc 2bbe 965e 1b3e 6f69 11be
00000040: b225 fdbd b763 eb3d 5f82 0b3e 01d1 2a3d
00000050: a142 1e3d dd60 0c3d 19bd 59bd 8bfe 6a3b
00000060: 44bf dfbd 46be fcbc fd47 c0bd bab5 653c
00000070: c8bc 093e 405c 2fbd efca dbbd a99a 4abd
00000080: ee5c e8bd dc6c 84bd 1bb5 a43d a23f b73a
00000090: 92fc f13c bce8 c9bd 4e3a 06be 5af4 44be
000000a0: 9428 6dbd 1dde 473d d78c f33c 0560 5ebe
000000b0: 39f0 cd3d b0b9 d0bd 9497 fcbc 68a8 84bc
000000c0: 5146 423d 6afa 1cbe 18ef b1bd 8fef e7bc
000000d0: 4de9 d33d 6082 0e3e 91c7 e2bd 43ea dfbd
000000e0: 091c 0e3e 5262 463d df82 433d abc9 b8bd
000000f0: 2925 7d3d 7ea8 a63c 3e49 c2bd b2ee 43be
00000100: 6866 c1bd b931 a53d ef3a c1bd c2e3 1d3d
00000110: c9d7 34bc 4892 32be 1cc5 c93d a0cc 7e3d
00000120: ec60 ffbb 7d88 34be e6c5 51bd ed65 07be
00000130: 9a3a 3bbe f39e 9f3c a170 f6bc 4954 e3bd

weight f4 [5, 80]
0.033345263 -0.01575201 -0.0012042096 -0.08546262 -0.0114901075 0.053489663 0.038814224 0.0073329057
0.06716795 -0.060317613 0.025806637 0.036770627 -0.04875042 0.015443202 -0.022893563 -0.06985364
-0.05684631 0.06873765 -0.05018548 0.026304403 0.039427735 0.06986381 -0.04216495 0.0070993905
-0.029565446 0.038352598 0.035316907 -0.07003416 -0.03754221 -0.031838447 -0.021252355 -0.056267094
0.012944642 0.0075032823 -0.028959684 -0.06995348 -0.0429171 0.08012628 -0.026365912 0.03126818
0.0067534954 0.030682357 0.03446997 -0.031953607 0.054664493 -0.00967961 -0.037748378 -0.04606449
-0.019326584 0.031992402 0.072795376 -0.04431787 0.05547117 0.0707492 0.0018550205 0.0007523346
0.067574695 -0.010375966 0.04836736 -0.06936345 0.0065708724 -0.07441475 0.007742486 -0.011459213
-0.012294913 -0.021208812 0.008561705 -0.008892946 -0.07992992 -0.026762944 0.03899249 0.030870697
-0.05331103 0.06799954 -0.009101088 0.014719146 0.046630967 -0.03275868 -0.023801839 0.0055224993
0.023401957 0.047309455 0.058652773 -0.033917338 -0.004431624 0.028296674 -0.028419178 -0.032200824
0.007597887 -0.024289647 -0.0041680676 -0.009141062 0.035460614 -0.06883357 -0.059102435 -0.0026851345
0.044798583 0.034692913 -0.019463958 -0.033329554 -0.03479656 0.034297463 0.04466051 0.025796322
0.06714688 -0.06737268 -0.007141723 0.053034063 -0.010331259 0.028998608 -0.016417872 -0.0004661953
-0.062411692 -0.056317665 -0.059676874 -0.03147392 -0.030546885 -0.0004387913 0.059107162 0.0058301534
0.043017894 -0.053350672 -0.052936975 -0.081046104 0.066552594 0.021272562 -0.09512174 0.06930481
-0.047429785 0.031064669 -0.02692715 0.04286021 -0.03787168 0.045095146 0.036439203 -0.031947512
-0.03677272 0.034050032 0.042366114 0.025943492 0.027494898 0.0175285 0.058182973 0.028930224
0.019794792 -0.019081622 0.0010150608 0.024927385 -0.07022119 -0.05463365 0.0040184786 -0.008446535
-0.0074761263 -0.024440935 0.007224119 -0.03230585 0.049408928 0.044955447 0.0035380078 0.06522927
0.014172908 -0.014834618 -0.06059706 -0.04290052 0.015510886 0.026953667 -0.017673135 0.06220589
0.0661842 0.010671341 0.007261708 0.054048046 0.000351824 0.032798328 0.024127023 -0.0021536937
-0.0043470385 -0.04245127 0.037298046 -0.058718085 -0.016411232 0.056476578 -0.023504885 -0.044620447
-0.006104793 0.054684 -0.05021949 -0.046618998 -0.04148763 0.030435191 -0.022349918 0.03666027
-0.053660516 0.03110993 0.046561368 -0.031263113 0.0013062045 0.0036763377 -0.00028599592 0.045805447
0.04891526 0.0085873725 -0.025415251 -0.049860157 0.0225941 0.040430114 -0.06291511 0.02972416
-0.009423224 -0.05067404 -0.04609503 0.021862043 0.019345548 -0.04146839 -0.056532227 -0.057136003
0.027363952 0.004541022 -0.027643383 -0.0018967013 0.010063308 -0.05140309 0.034591574 -0.02225288
-0.018500634 -0.04705236 -0.064735465 -0.040620435 -0.020309977 -0.009944456 0.053980257 -0.03145333
-0.019664137 0.08686989 -0.0011172779 -0.055475906 0.028105572 3.394876e-05 -0.02890526 -0.044635955
-0.082167156 -0.022427883 0.04163459 0.037181113 -0.04526715 -0.03417591 -0.010851953 -0.0009086474
0.03412251 -0.059270725 -0.019129395 0.031282295 -0.030696133 -0.044265952 -0.05430731 0.056092326
00000000: 0b95 083d 5c0a 81bc 92d6 9dba 0707 afbd
00000010: 0141 3cbc fa17 5b3d aafb 1e3d df48 f03b
00000020: 5a8f 893d 9a0f 77bd 7168 d33c cc9c 163d
00000030: 85ae 47bd 7c05 7d3c 488b bbbc 6d0f 8fbd
00000040: add7 68bd 53c6 8c3d 4a8f 4dbd 557c d73c
00000050: fa7e 213d c214 8f3d 28b5 2cbd 01a2 e83b
00000060: 3c33 f2bc 9d17 1d3d 76a8 103d 126e 8fbd
00000070: dcc5 19bd 0869 02bd 6b19 aebc 5378 66bd
00000080: c415 543c 18de f53b dc3c edbc c543 8fbd
00000090: d7c9 2fbd 3f19 a43d 53fd d7bc 1013 003d
000000a0: 6d4c dd3b 9159 fb3c 6230 0d3d c9e1 02bd
000000b0: e0e7 5f3d 3a97 1ebc 0b9e 1abd 1eae 3cbd
000000c0: c952 9ebc 770a 033d be15 953d a886 35bd
000000d0: bd35 633d f5e4 903d 2924 f33a 5238 453a
000000e0: 9a64 8a3d f5ff 29bc da1c 463d 6d0e 8ebd
000000f0: 7950 d73b c366 98bd aeb4 fd3b 6cbf 3bbc
00000100: 9a70 49bc 1abe adbc 6546 0c3c b8b3 11bc
00000110: 4cb2 a3bd f63d dbbc 97b6 1f3d 8be4 fc3c
00000120: ab5c 5abd 5843 8b3d bb1c 15bc 9328 713c
00000130: 1d00 3f3d f72d 06bd 13fc c2bc 15f6 b43b
00000140: 76b5 bf3c 8fc7 413d e43d 703d e8ec 0abd
00000150: 2837 91bb 6dce e73c 56cf e8bc 03e5 03bd
00000160: b2f7 f83b 15fb c6bc 4994 88bb 65c4 15bc
00000170: 263f 113d 9df8 8cbd 6515 72bd 15f9 2fbb
00000180: b87e 373d 281a 0e3d e172 9fbc 9284 08bd
00000190: d686 0ebd 7f7b 0c3d f0ed 363d cf52 d33c
000001a0: 4e84 893d b0fa 89bd 1d05 eabb 3f3a 593d
000001b0: 7144 29bc 7d8e ed3c c67e 86bc ad6b f4b9
000001c0: 67a3 7fbd 5aad 66bd bd6f 74bd ccea 00bd
000001d0: 763d fabc 920d e6b9 5a1a 723d df0a bf3b
000001e0: 8833 303d 3c86 5abd 71d4 58bd 80fb a5bd
000001f0: ba4c 883d cc43 ae3c 30cf c2bd aeef 8d3d
00000200: bc45 42bd 557b fe3c 5496 dcbc 308e 2f3d
00000210: 561f 1bbd b0b5 383d 4641 153d 65db 02bd
00000220: fe9e 16bd 0c78 0b3d 1788 2d3d 7287 d43c
00000230: fb3c e13c ee97 8f3c 4551 6e3d 14ff ec3c
00000240: b028 a23c 1051 9cbc ca0b 853a 8434 cc3c
00000250: 21d0 8fbd 89c7 5fbd 71ad 833b 5663 0abc
00000260: 4bfa f4bb 5b38 c8bc 4db8 ec3b 2453 04bd
00000270: 0461 4a3d 3423 383d ecdd 673b ec96 853d
00000280: 7c35 683c e60c 73bc 9f34 78bd 75b8 2fbd
00000290: 5f21 7e3c f0cd dc3c 40c7 90bc 9acb 7e3d
000002a0: 958b 873d d9d6 2e3c 9ff3 ed3b 7c61 5d3d
000002b0: 0575 b839 8a57 063d 09a6 c53c fc24 0dbb
000002c0: 9a71 8ebb 62e1 2dbd d6c5 183d 6082 70bd
000002d0: d970 86bc fc53 673d 518d c0bc eec3 36bd
000002e0: b70a c8bb 54fc 5f3d f4b2 4dbd 90f3 3ebd
000002f0: efee 29bd 3953 f93c 2d17 b7bc 1429 163d
00000300: 21cb 5bbd 40da fe3c 22b7 3e3d c00d 00bd
00000310: f334 ab3a b6ee 703b b9f1 95b9 7e9e 3b3d
00000320: 5e5b 483d 0db2 0c3c a533 d0bc 2a3a 4cbd
00000330: 4317 b93c 0c9a 253d a3d9 80bd 1580 f33c
00000340: de63 1abc 958f 4fbd 24ce 3cbd 0718 b33c
00000350: 8e7a 9e3c c2da 29bd 568e 67bd 7107 6abd
00000360: 5e2a e03c dacc 943b 6074 e2bc bc9a f8ba
00000370: 93e0 243c 0c8c 52bd e5af 0d3d ac4b b6bc
00000380: a48e 97bc fab9 40bd 0794 84bd 9d61 26bd
00000390: 1c61 a6bc 12ee 22bc 671a 5d3d 35d5 00bd
000003a0: af16 a1bc d7e8 b13d a071 92ba b43a 63bd
000003b0: a83d e63c 3464 0e38 b9ca ecbc 31d4 36bd
000003c0: 4147 a8bd aeba b7bc 0889 2a3d 394b 183d
000003d0: 0c6a 39bd 0afc 0bbd 64cc 31bc 4b32 6eba
000003e0: 0cc4 0b3d dcc5 72bd 40b5 9cbc dd21 003d
000003f0: 7576 fbbc 3750 35bd 5871 5ebd 11c1 653d

bias f4 [5]
0.013220698 -0.018609554 0.020285184 0.040545274 -0.016658626
00000000: a09b 583c 1073 98bc 1d2d a63c cd12 263d
00000010: ac77 88bc
