final_project/mlruns/3/0671d91d15a34277869ed49560246e78/artifacts/cvae_11/data/model.pth (torch, 50311 bytes, 10 tensors)

weight f4 [80, 17]
00000000: 102e 8c3e 2cc8 aa3c 2045 073d dae5 b9bd
00000010: 4dea 13bd 5f09 bfbd a5a9 9a3b 9eff 8cbe
00000020: 6b4b 80bd cb67 99bd 5634 93be 2b34 6a3d
00000030: 047f 383e 84ff 54bd e72b e23c 709d b2bd
00000040: 768d 39bc 4f8a 923e 515f fd3d 9129 233e
00000050: 5cb8 7c3e 13a1 93bd fe05 163e 5758 0d3e
00000060: 15f9 73be 6ec9 563e 4fe1 47bc 1248 92bd
00000070: add8 7abe 111e 0e3c bf5d 7dbe 6b4a a9bb
00000080: 9717 48be a788 b9bd 7e77 563d d2a5 2d3e
00000090: 5c5c bebd b7f0 273e e5d1 193d 8e6c 913e
000000a0: 3828 d3bd bad9 3f3e b733 72be 3553 3cbe
000000b0: 07b5 75be cc55 f63c 897b 903d 65c6 13be
000000c0: 6608 0b3e 110c 573d 98c9 cfbc be62 d83d
000000d0: b655 a7bd 1eb9 cbbd 24fd 1c3d 993b c4bd
000000e0: 5419 3d3e 18b6 c53c b711 143e 298f f0bd
000000f0: 3e98 d33d 6ba9 6cbe 853a af3d 9981 603e
00000100: a56c 01be dd06 e8bc bdcf 3abe 0b52 8bbd
00000110: 4657 db3d f2e7 c8bd ea5b e8bd 9bda b1bd
00000120: 2c9c 14be 56b7 683e 2f20 333e 67a4 1d3e
00000130: dbfe 653d 341b 38be 550f 27bd 746f 743e
00000140: 72a8 4c3e 0dd5 84bc f958 92bd f338 353e
00000150: c196 903e 4f7e f5bc a84f 1bbd 2eb0 3cbe
00000160: da2a e63d b243 3dbe 61ed 48bd 825a 553e
00000170: dbf3 2fbe c492 4ebe 1cf0 223e 44c2 e3bd
00000180: aa91 d43b 9d7c 0c3e f62b 51be af8f a33d
00000190: 3b8f 893e 1402 1abe ceb7 c3bd b431 4d3c
000001a0: ec6c ba3d 0bc5 46bd 46d9 e5bd 838c 21be
000001b0: 2ec5 0cbe 758a 203e f45a c0bc 6864 813e
000001c0: 8c1b 8dbe f7d3 5a3e 5b4f 233e 0971 52bd
000001d0: 480b 473e 92bc 4fbe 4a97 a0bd 2841 f9bc
000001e0: 45a0 043e aba6 123e c3bc 373e 508c d9bd
000001f0: a2fe eabc cd91 b8bc 7660 8fbd e944 12be
00000200: 33a2 023d 9e49 773e 7126 82be 877a acbd
00000210: 78bb 3d3e 2aad 573d 40ce 033e c4b9 b7bd
00000220: 638f 44be e796 ce3c f8b2 83bb 062d 50be
00000230: a038 babb 8e97 68bd 5081 1b3d 1777 953d
00000240: cbca 113e 92d5 033e 8629 08be 2221 193e
00000250: d6c6 f5bd d1e9 f8bc 2264 8fbd 0fb6 8b3d
00000260: eb79 0d3e 1a75 473e 4db0 1abe 1343 b53d
00000270: 6fe5 9a3d 24ef 9f3d 0fc8 123d 81cb 52be
00000280: 540e 723d eb69 833e 7e24 023c 6a81 7b3e
00000290: 6699 13be 3493 31be 7b43 01be c53f 40be
000002a0: 66d0 153d 343a c9bc af8b 343d 1dde 3dbd
000002b0: d953 68be 8712 48be 0058 2abd 4ee3 b8bd
000002c0: 08b8 1abd cb22 d83d 6194 903e 015d 423e
000002d0: d46e 6d3e c82a adbd 2192 41be 2f99 b2bd
000002e0: 3963 7a3e 4ecf 153d 4eeb e43d 3a89 b3bc
000002f0: e4d3 583d 5ca8 0ebe 66b2 80be cb9b 273e
00000300: 4a46 513e 2921 8dbd 21af 233e 6959 843e
00000310: d97e 37bd eed5 bf3c 8afc cbbc 7965 483e
00000320: 8498 98bd 7269 5c3e 6c92 2cbe 5fc7 17be
00000330: cbbe 6abe 5e0d 8dbd 1dca 803d 1aee 23be
00000340: ecd7 303e 13e4 bfbd dc67 3e3e 0b53 30be
00000350: 7ef8 eabd adf4 47be 271b 61be 35b8 3f3e
00000360: 7e5f f03d 140f b4bd 5ce9 193e 3e7f 6abe
00000370: 0514 213d a2b1 46be 32ad e33d aaeb 533e
00000380: e4df 703d 1ee4 dbbd 74c8 1a3e 21eb 733e
00000390: 4c18 973c f37f c0bd c3af 3f3e c6d0 0f3e
000003a0: d78f 143d 7e69 843e 113f e13d 8124 453e
000003b0: c0df 1e3d 42af c33d eb63 37bc 5988 a63d
000003c0: 19cf 34be 284f 0e3d fc8e 02be 41ed b73b
000003d0: 5a8a 563e 47df 483d 864a a2bd e80f 25be
000003e0: 15b4 58be d9bf 5d3e c232 21bd 0cf3 2d3e
000003f0: c8f5 143e 0ed6 8a3d 2ab0 1cbe 478b 753e
0.27378893 0.020847403 0.033024907 -0.09077044 -0.03611212 -0.09327959 0.0047199302 -0.2753877
-0.06264385 -0.074905 -0.28750867 0.057178658 0.18017203 -0.05200149 0.027608825 -0.08721435
-0.011325231 0.28621146 0.12371696 0.15933825 0.24679703 -0.07208457 0.14650723 0.1380323
-0.23825486 0.20975277 -0.012199714 -0.071426526 -0.24496718 0.008674161 -0.24742793 -0.005166342
-0.19540249 -0.090592675 0.05236005 0.16957787 -0.0929496 0.16400419 0.037553687 0.28403133
-0.103104055 0.187354 -0.2365254 -0.18391116 -0.23994838 0.030070208 0.070548125 -0.1443115
0.13577422 0.05250174 -0.025364682 0.105657086 -0.08170645 -0.09947418 0.03832735 -0.0958168
0.18466693 0.02413468 0.14459883 -0.11746056 0.10331772 -0.23111503 0.085560836 0.21924438
-0.12639101 -0.028323585 -0.18243308 -0.06802758 0.107100055 -0.09809865 -0.11345656 -0.08684274
-0.145127 0.22726187 0.17492746 0.15394746 0.056151252 -0.17979127 -0.040786106 0.23870641
0.19986132 -0.016214872 -0.071458764 0.17697506 0.28240016 -0.029967455 -0.037917763 -0.18426582
0.11238642 -0.18482855 -0.049054507 0.20835307 -0.17182867 -0.20173174 0.15911907 -0.111210376
0.006487091 0.13719411 -0.20426926 0.0798639 0.2686709 -0.15039855 -0.09556542 0.012524057
0.091028064 -0.04852776 -0.11223082 -0.15776257 -0.13747093 0.15677817 -0.02348087 0.25271916
-0.2756008 0.2136992 0.1594824 -0.05137733 0.19437897 -0.20286778 -0.07841356 -0.030426577
0.12951763 0.14321391 0.179431 -0.106224656 -0.028685872 -0.02253046 -0.0700082 -0.142841
0.031892966 0.24149176 -0.25419953 -0.08421808 0.18528545 0.052655376 0.12871647 -0.08970979
-0.19195323 0.02521844 -0.0040191375 -0.20329675 -0.0056830198 -0.05678516 0.03796512 0.07298105
0.14237516 0.1287444 -0.1329709 0.14954045 -0.120008156 -0.03038493 -0.07001521 0.06821834
0.1381604 0.19478264 -0.15106316 0.08850684 0.07563292 0.07809284 0.035835322 -0.20585443
0.059095696 0.25666746 0.007943271 0.24561086 -0.14413986 -0.1734131 -0.12623398 -0.18774326
0.036575697 -0.024563886 0.044078525 -0.0463544 -0.22688235 -0.19538318 -0.04158783 -0.0902773
-0.037773162 0.10553511 0.28238204 0.1898079 0.23186809 -0.084554255 -0.189034 -0.08720624
0.24451913 0.036574654 0.11177693 -0.02191602 0.05293645 -0.13931412 -0.25136107 0.16368024
0.2043697 -0.068910904 0.15984775 0.25849465 -0.044798706 0.02341744 -0.024900693 0.19569959
-0.07450965 0.21524599 -0.1685273 -0.14822148 -0.22924344 -0.06887315 0.0628855 -0.16008797
0.17269868 -0.093696736 0.18594307 -0.17219178 -0.114731774 -0.1952693 -0.21983014 0.18722613
0.11736964 -0.087919384 0.15030426 -0.22900102 0.039325733 -0.19403699 0.11117019 0.20695367
0.05880727 -0.10736869 0.1511553 0.23820163 0.018444203 -0.093994044 0.18719392 0.14044484
0.03626999 0.25861734 0.10998357 0.19252206 0.038787603 0.09554912 -0.011193256 0.08131475
-0.17657126 0.034743458 -0.12749857 0.0056129997 0.20951214 0.04904106 -0.079243705 -0.16119349
-0.21162446 0.21655215 -0.039355047 0.16987246 0.14546883 0.06779109 -0.15301576 0.23978911

bias f4 [80]
00000000: 8954 b03e 36ac 6c3e 1086 873e 18b2 2cbe
00000010: be7a 953d 71a6 b43d 6767 a83e 5c81 52be
00000020: 7a97 593e 218f 3b3e 3b5c 91bd a8ab 98bd
00000030: 8992 793e 5a12 3dbe 09c5 fa3c c8f4 923d
00000040: 822a 55be b5b6 463c f192 a3bd 6c76 253e
00000050: d286 6d3c c976 1b3e 201a bb3e 7154 5f3e
00000060: 5b7f 9b3d 563a 433e c4b2 883e 6bdc 13be
00000070: ecb0 3d3e a468 803b e575 ba3e f43d 1d3e
00000080: 053d 853d d5e8 8dbd 6ef9 463d 3d8a e53d
00000090: 495c 843e 3dbd 6a3e 1d99 14be 9326 02be
000000a0: 8d16 833e dda8 ab3e 9e12 30be 4b15 24be
000000b0: cf7a 803e c28f 6d3e 8bca ccbd e544 103e
000000c0: 8f81 053d 54e4 743e d09d fbbd 5c7b d3bd
000000d0: a61b 6a3e e4df b23e b391 71bd 7775 793e
000000e0: f82b bc3d eefe f6bd 59e7 37be e94f 0abe
000000f0: 43ea 91bc 18fb 813d 1312 3b3e 0714 803d
00000100: 6d76 453e d553 9b3e 3fc2 8f3e 9c3b 1fbe
00000110: 103f 93bc 78bd 5cbc f8f0 ac3e 8e4e 1d3d
00000120: 4fd3 a83e c5f5 be3e 4e7c ee3d 4f20 a93d
00000130: 9b1e 003e 2956 b13e c56d 6cbd f81e c3bc
0.34439495 0.23112568 0.2646947 -0.16864812 0.07298802 0.08820809 0.3289139 -0.20557159
0.2124919 0.18316318 -0.0709767 -0.07454616 0.24372305 -0.18464032 0.030611532 0.071755946
-0.20816997 0.012128522 -0.07987011 0.16158456 0.014497476 0.15182032 0.3654337 0.21809556
0.075926505 0.19065222 0.26698887 -0.14439552 0.18524522 0.003918724 0.3641807 0.15355664
0.06505779 -0.06929175 0.04857772 0.112080075 0.25851658 0.22923751 -0.14511533 -0.12710027
0.25603142 0.3352727 -0.17194602 -0.16023748 0.25093696 0.2319937 -0.099995695 0.14088781
0.03259426 0.23915225 -0.1228596 -0.10326263 0.2286211 0.3493644 -0.05897684 0.24361216
0.09188074 -0.12060343 -0.17959346 -0.13507046 -0.0178119 0.063467205 0.18268614 0.0625382
0.19283457 0.30337396 0.28077886 -0.15550083 -0.017974406 -0.013472907 0.33777595 0.038404994
0.32973716 0.37296882 0.11644803 0.082581155 0.12511675 0.34636047 -0.057721872 -0.023818478

weight f4 [40, 80]
00000000: 7960 043d edae 2f3c e942 d7bd 969b a03d
00000010: f08c be3d 8126 88bd 8ee8 50bc 2cb0 8a3d
00000020: 4911 5fbd 3a4e 143d d3c9 85bd 8c98 e0bd
00000030: 7776 50bd baa7 17bd fe07 bdbd e452 4d3d
00000040: 2c93 34bd 05fd 533d f510 c1bd 447b 423d
00000050: 2be3 19bd 538f 163d 83cf b43d 1382 c0bc
00000060: f457 9abd cf3d 9ebd 2c7c b8bb ac37 f03d
00000070: c3d6 a6bc 5ec6 753d 00b9 d03b 2803 c03d
00000080: bee4 d4bd c502 3cbb 0d27 893d efc7 73bd
00000090: 7b4e 5cbd d59a 5e3d feb9 3dbd ab37 863d
000000a0: 08b5 7c3d e10a b63c 032d 573d e61c 41bd
000000b0: 8ac4 ae3c abe9 893d 7af7 b93d d711 393d
000000c0: 2ec8 e43c a1e8 1dbd ffaf 8bbc 742f 323d
000000d0: ec70 a1bd be3c 883d dffd aebd 5ea1 91bd
000000e0: 5c6f d23d db26 423d 27a6 13bc 30ef b9bd
000000f0: 77cf 963d 38b7 483c f6da 753d 9476 573d
00000100: c8b9 20bd 2c3e 63bc e6ec da3d 70d4 b93d
00000110: 5aa2 93bd 7a0a ddbd 0e16 c33c 18b9 86bd
00000120: d18a 9f3d 604b 3c3d f0f8 fbbd f952 8ebd
00000130: 9bb4 1bbd f569 993c 63fb fc3d ed9b debd
00000140: db0e 083d 4f3d 52bd 746d c5bd 13d2 943b
00000150: 0b20 e93c 7a6d 893d b926 05be 1b0d c3bd
00000160: 7990 1abe 2aba e3bd 259e 953c e5e6 893d
00000170: 7664 60bd ac63 8fbc e5d4 5a3d 84d6 fdbd
00000180: 492f 453b c125 a1bc dd70 733d cafe 5b3d
00000190: d8db fc3c b2d2 dcbd 8622 dcbb 3ee4 5c3c
000001a0: 2943 ae3d c634 84bd ea71 dfbd 4088 debd
000001b0: 0ac9 27bd eaff edbd 066f 803d 93df c6bd
000001c0: 54c9 8c3d 009f 85bd 982b b93c d8bf b4bd
000001d0: 990b 173d 3b02 043d ce57 d3bc 099e dbbd
000001e0: 47d3 0fbd b46e f3bd 108d 103c df2a 54bd
000001f0: 919a debd bf57 87bd 3961 ef3c f2e7 45bd
00000200: 8b48 0fbe e2e9 e3bd 85ed 11be 3206 8a3d
00000210: 389d 1bbe 4bc9 9bbd 1a7d ac3d 5cfe cbbb
00000220: f8c6 583d 4a75 81bc 925d 873d 3afd f9bc
00000230: 11f5 e8bc dbe6 90bd 78b1 9e3d 623a 94bd
00000240: 9dd2 8fbd dba6 e6bd 65b6 0c3d 6004 b6ba
00000250: a87b c7bc c97a a9bd 78d3 85bd 2daa 443d
00000260: 5786 42bd 8533 893c 5f5d 533b 181d bebd
00000270: 9c05 d8bc 9bc2 12be eae3 ebbd daa4 6dbd
00000280: 4725 afbd 961d 8f3c fa63 9e3c 4306 bfbd
00000290: 90c1 773c ce4d 553b 7b67 06bd 3c38 b7bc
000002a0: 8bc4 3c3d 9175 2d3d 43ec 473d 98e3 ed3d
000002b0: 5099 b83d 3c62 d23d 7041 03bb c2cc d4bd
000002c0: b5c2 a93d 2cf4 9a3c eb5a b1bd df5b 4e3d
000002d0: 0972 dfbd d054 0b3d 9998 86bd 0b61 7abd
000002e0: 8b80 92bd b916 d1bd 6f01 17bd c435 9abd
000002f0: eaf5 7fbd d010 9cbd 3398 ae3d 52ab a23d
00000300: d12d e23d e802 d43d 6a89 cfbd 29d6 b7bd
00000310: 8076 a2bd 5a7a b03d 48b5 c1bc 555f 373d
00000320: 650d f13b ccc9 6b3d a530 cf3c 68e6 83bc
00000330: dea6 4fbc 6661 84bd f020 e23d 1e81 fcbc
00000340: 526d f83c 7215 9a3c 8c96 c83d 5aae b53d
00000350: b80e b6bd bcf9 8cbd 7662 4abd 6279 a83c
00000360: d9c6 b8bd 81e5 c2bd d2d9 133d d490 a13d
00000370: a676 40bd 0714 9e3b 6b9f c93d 0dcb ab3d
00000380: 8119 413d 51b2 72bd a26d 40bb 1132 c23d
00000390: 24b5 dabd 3f96 a5bd 9bcc b3bd be8f c6bc
000003a0: c764 9abd 963b 6abd c4fc 8f3d 7b24 b83d
000003b0: 1ba0 9ebc 34cf 733c b695 9e3d 605f 503d
000003c0: f757 813d 6dba 073d 7108 90bd 4308 103d
000003d0: e404 643d 6db8 b1bd 58df c2bb 733a 03bd
000003e0: 7398 fbbb 5541 5ebc 0912 353d 1811 58bc
000003f0: 4c5e d43d c24c 0f3c 77ec d4bc 0e8a c9bd
0.032318566 0.010722858 -0.10510809 0.07842176 0.093042254 -0.06647969 -0.012750758 0.06771883
-0.054459844 0.036207415 -0.065326355 -0.10966596 -0.050894227 -0.03702519 -0.0923004 0.05012788
-0.044085667 0.05175497 -0.094270624 0.047480837 -0.03757016 0.03675778 0.08828642 -0.023499524
-0.07536307 -0.07726633 -0.005630037 0.117293686 -0.020366078 0.06000363 0.00636971 0.09375602
-0.103951916 -0.0028688174 0.066969015 -0.059516843 -0.053785782 0.054346878 -0.046319954 0.065535866
0.061696082 0.022221984 0.05253316 -0.0471467 0.021333952 0.06734022 0.090804055 0.04518303
0.027927484 -0.03855193 -0.017051695 0.043502286 -0.07882866 0.06652211 -0.08544516 -0.071108565
0.10275146 0.047400337 -0.009011782 -0.090788245 0.073637895 0.012250714 0.06002327 0.05260332
-0.039239675 -0.013869803 0.10689716 0.09073722 -0.072087005 -0.10793014 0.023814227 -0.065782726
0.07790149 0.04597032 -0.123033404 -0.069494195 -0.038014036 0.018727282 0.12352636 -0.10869584
0.033217292 -0.051328 -0.09640017 0.0045416444 0.028457662 0.06710334 -0.13003053 -0.09523984
-0.15094174 -0.11119492 0.018263886 0.06733493 -0.054783307 -0.017503582 0.05342569 -0.12394431
0.0030087999 -0.019671323 0.059433807 0.053709783 0.030866548 -0.107823744 -0.0067179827 0.013482152
0.085089035 -0.06455378 -0.10910399 -0.108658314 -0.04096321 -0.11621077 0.06271176 -0.09710612
0.06874338 -0.065244675 0.022603795 -0.08825654 0.036876295 0.03222869 -0.025798704 -0.10723502
-0.0351136 -0.11886349 0.008822694 -0.051798698 -0.10869325 -0.06608533 0.029221164 -0.048316903
-0.13992517 -0.11128594 -0.14250763 0.06739463 -0.15196693 -0.07606753 0.08422299 -0.0062253904
0.052924126 -0.015802998 0.06609644 -0.030516256 -0.02843717 -0.07075282 0.07748693 -0.07237698
-0.07022593 -0.11262294 0.034353632 -0.0013886802 -0.024350956 -0.082753725 -0.06534475 0.048013855
-0.047491398 0.0167482 0.0032251698 -0.09282893 -0.026369862 -0.14332049 -0.115180805 -0.058018543
-0.08552032 0.017470162 0.019334782 -0.09327366 0.0151218325 0.0032547596 -0.03281353 -0.022365682
0.046085875 0.04234845 0.0488093 0.11615676 0.09013617 0.10272643 -0.0020028017 -0.10390617
0.082890905 0.018915258 -0.08659919 0.050380584 -0.10910422 0.03401643 -0.065720744 -0.061127704
-0.07153424 -0.10209412 -0.0368666 -0.07529786 -0.06249038 -0.07620394 0.085251234 0.07942833
0.11043895 0.10352117 -0.101336315 -0.08976395 -0.07932758 0.08617087 -0.023646012 0.04476865
0.007356333 0.057565495 0.02529175 -0.016101077 -0.012674062 -0.0646389 0.110414386 -0.030823287
0.030325565 0.018809054 0.097943395 0.088711455 -0.08889526 -0.068835706 -0.049410306 0.020565692
-0.09022302 -0.09516431 0.0360964 0.07888952 -0.046988152 0.004824165 0.0984486 0.08388338
0.047143463 -0.059252087 -0.0029362221 0.09482206 -0.10679081 -0.08085298 -0.0877926 -0.024238463
-0.07538753 -0.05718573 0.07030633 0.08991333 -0.019363454 0.014880944 0.07743399 0.050872207
0.06315606 0.033136774 -0.0703286 0.03516413 0.055668727 -0.086777546 -0.005947035 -0.032038163
-0.0076780855 -0.013565381 0.044206653 -0.013187669 0.10369548 0.008746328 -0.025991661 -0.09840785

bias f4 [40]
00000000: ea3e 863d 1f6e 32bd 1b0a 463c 1105 bdbd
00000010: 539a d3bd 0909 9bbd 8293 3fbd 9e66 373d
00000020: a355 f4bd a380 c5bd e468 da3d fbe7 d63a
00000030: bd9d 7e3d 7a71 c73c c218 a5bd 6b1f 9d3d
00000040: 307c 48bd e99f 013e 9516 973c 0118 40bc
00000050: 59e6 e4bb e6bf 15bd 7601 783d a91f 353d
00000060: 994a 1abd de4c 703d 399a e03d 4212 b53d
00000070: 1e23 cf3d 0282 933c 2154 d7bc 7ce3 cebd
00000080: 1cd1 f83c 9d62 4fbd 989e f3bd d0f0 e5bd
00000090: 12a2 813c 0d45 193e 1c0e 11be ce6f 023e
0.06554969 -0.04356205 0.01208737 -0.09229482 -0.103321694 -0.07570083 -0.046771534 0.044775598
-0.119303964 -0.09643676 0.106645375 0.001639604 0.06216215 0.024346102 -0.08061363 0.07672008
-0.04894656 0.12658657 0.018443385 -0.011724473 -0.0069854674 -0.03655996 0.06054827 0.044219647
-0.037668798 0.058667056 0.10966916 0.08841373 0.1011412 0.018006328 -0.026285233 -0.10101983
0.030373149 -0.050631154 -0.11895484 -0.11227572 0.015824351 0.14967747 -0.14165539 0.12737963

weight f4 [40, 80]
00000000: bf12 2a3d 5eb6 febd a874 c5bd bac7 8a3d
00000010: 33f2 7cbd 2a7c 05be a1ad 03be c054 273d
00000020: eba5 a9bd 2147 d6bd 5a5b 1abe e0f0 183d
00000030: 07c7 d9bd 1aa8 be3c 8a89 c0bd 9446 1cbe
00000040: a833 8b3d 10a5 01be c34a f6bd 9106 063d
00000050: f0b1 e6bd f4b8 92bd f2ca 5cbb be7b 11bd
00000060: 0f9a 563d 9952 99bd 576f 5d3d 335f efbc
00000070: b0b6 dbbd 820c b8bd 3dc2 babd 8bb1 d53c
00000080: fe6e 2abd 8baa a7bd 5e23 90bd f142 073c
00000090: fe5a e0bd 7f71 f4bd 1786 05be 5723 873d
000000a0: ac9d 8f3c 22b8 89ba d0ac 593d d3ee 2bbd
000000b0: 43b4 42bd d3e8 2f3d d58b ebbd d126 d5bd
000000c0: dc49 853d 8503 cd3c 8ee7 32bd bf0e 97bd
000000d0: b7f9 2a3d c770 c73c e0fe dd3b b0fc cbbd
000000e0: b9d9 abbd 20ef 04be f702 3a3d 162d 84bd
000000f0: 4c33 c3bd f509 2d3d 465f 78bd 1f32 eb3c
00000100: bc16 8dbd 5d30 41bd 53bb 1ebd 85a7 22be
00000110: 29e2 3dbd f3af c1bd 3766 0bbe c457 66bc
00000120: 4912 f1bd d136 c2bd abc9 c5bd 077a d4bd
00000130: 1841 9dbd 67f8 abbd abbc b3bd 89c1 e4bd
00000140: 6c9c 22be 61ab 913c 915d f8bd 2904 acbd
00000150: 8b4b dbbd 8efe 26be f09f 433c 6b59 413d
00000160: 7476 b3b8 1976 73bd 206b fbbd e42b 0bbb
00000170: e328 0abe 4674 0fbd 1279 69bc dfca e7bd
00000180: 905b 05be e902 9d3c d16e 0ebd a897 6cbc
00000190: 7950 f6bd 5813 c7bd 0d71 40be b892 0abc
000001a0: 8c38 60bd 862b aebd 3c63 ddbd ea90 b43c
000001b0: aa60 79bc 6bd5 debd 6843 1fba 3ca7 79bd
000001c0: 804c 0ebe befa ab3c 6474 6c3c e327 253a
000001d0: aa78 c4bd 264f a2bd c187 b2bd 0f96 04bd
000001e0: 5850 afbb b56d 1fbe 5daa b4bd d286 d9bc
000001f0: 31a1 333d c349 88bd ee10 79bd 7342 c6bc
00000200: efce 9abd 63f8 de3b b6a6 7fbd c9e1 5cbb
00000210: f205 1abd d726 0bbe 5586 15be 6859 753c
00000220: c825 a33c 6c06 a13a 3a2f c1bc 14cd 08bb
00000230: 6a51 633c c1af 64bd 3b65 393d 6956 513d
00000240: be41 36bd b2f5 97bd 6f41 88bc d6d9 4fbc
00000250: b5ab 1a3d 8c0c b4bd 428a c1bc f21f d5bd
00000260: 5cce 06bd 7304 37be fd38 8dbd c10b 21be
00000270: 46be 11be 1925 03bd 1c33 98bd 5cf0 b83c
00000280: 3701 3abe 9e53 1bbe e24d 65bc bb29 db3c
00000290: da18 92bc 8535 57bd 380e 84bd e2d3 3a3c
000002a0: e937 10bd 73b1 8cbd 67ed c03b 4ce1 fabd
000002b0: ad7b 43bd 6bf9 7dbb de7b 473d 8d62 6ebd
000002c0: c461 17bd 6f0c 06be dac4 9e39 6ec8 17bd
000002d0: 05ac 94bd fc0f da3b 322f 25bd c6ee eb3c
000002e0: a94d c1bd 3198 f7bc 725a 1b3c c5a2 d8bd
000002f0: e49d f8bd 2760 93bc bd29 97bd 7db1 a5bc
00000300: 2bfa aebc 1f92 9ebd fb8a ce3c 2278 1abe
00000310: 3bfe 91bd 5165 b5bd c5f2 56bb 0db3 03be
00000320: 78db 1fbe 593a 2cbe 773f 863c 5a9a 593d
00000330: abe5 753b 930d 8c3c dddd f53c 6f38 d4bd
00000340: 7fcc a6bd 56d2 95bd fc1f e3bc 4c26 abbc
00000350: 6ade d3bd 87b6 8dbd 9235 4c3c 8a8d 1f3d
00000360: db84 88bd 7e1b 01be f9d7 563d e378 9dbc
00000370: 241b 2cbc a73c 09bd 0b77 28bd 2269 29be
00000380: a200 fb3b ddea 1abe a9e2 1cbe 847f 18bd
00000390: 670c e9bd 167e 5eba 1917 e3bd a190 10be
000003a0: 7d0b 0abd eb11 d23c 9696 39bd 2911 8dbd
000003b0: 1cd0 95bc d1b1 20be 0a26 95bd 7f2d ac3c
000003c0: 5ab5 033d 5b3a cabc 6c17 40be de15 48bc
000003d0: d9d4 a4bd 1669 d1bd 8fe1 f4bc b7ec 953d
000003e0: fdbd 30be 5cbe 923d 496b 5c3c 8851 203c
000003f0: b8fe bcbd e79c 093d 05b8 07be 3a9b 07be
0.041521784 -0.124371275 -0.09641391 0.06776376 -0.061754417 -0.13035646 -0.12859203 0.04085231
-0.082835995 -0.104627855 -0.1507391 0.03733909 -0.106336646 0.023273516 -0.094012335 -0.15261298
0.06796962 -0.12660623 -0.120259784 0.032721106 -0.11264408 -0.07164183 -0.00336903 -0.0355184
0.052393015 -0.074864574 0.05406126 -0.0292202 -0.10728204 -0.08986761 -0.09119079 0.026085636
-0.041609757 -0.08186825 -0.07037996 0.008255706 -0.109548554 -0.1193571 -0.13039432 0.065985374
0.017531238 -0.0010507146 0.053143322 -0.041975807 -0.047535192 0.042946648 -0.1150128 -0.10407794
0.06508228 0.025026092 -0.04367786 -0.073758595 0.041742053 0.024345769 0.0067747682 -0.09960306
-0.08391137 -0.12981844 0.045412984 -0.06453912 -0.095312685 0.042245824 -0.060637735 0.028710423
-0.06889102 -0.047165263 -0.038752865 -0.15884216 -0.04635826 -0.09457388 -0.1361321 -0.014059011
-0.11771066 -0.09483112 -0.09657606 -0.10374837 -0.07678431 -0.08396988 -0.0877622 -0.111697264
-0.15879983 0.017781915 -0.121272214 -0.08399231 -0.10707768 -0.16308042 0.011939988 0.047204416
-8.557449e-05 -0.0594388 -0.12276292 -0.0021235878 -0.1349216 -0.035022996 -0.014250057 -0.113179915
-0.1302321 0.019166427 -0.03477365 -0.014440455 -0.12027068 -0.097204864 -0.18793125 -0.008457832
-0.054741427 -0.08504395 -0.10809943 0.022041757 -0.0152208 -0.1088055 -0.0006075413 -0.060950503
-0.1389637 0.020993587 0.014432047 0.0006300194 -0.09593327 -0.079252526 -0.08717299 -0.03236967
-0.005350154 -0.15569194 -0.08821557 -0.026553545 0.043854896 -0.06654694 -0.06080716 -0.024201607
-0.07559001 0.0068045123 -0.062414847 -0.0033703914 -0.037603326 -0.13589035 -0.14602025 0.014974929
0.019915476 0.0012285239 -0.02358209 -0.002087419 0.013874391 -0.055831674 0.045262557 0.051107798
-0.04449629 -0.074199095 -0.016632764 -0.0126862135 0.03776141 -0.087914556 -0.023625497 -0.10406484
-0.032911643 -0.17872791 -0.06895635 -0.1572714 -0.1423274 -0.0320178 -0.07431623 0.02257555
-0.18164526 -0.15168616 -0.0139956195 0.026753297 -0.017834116 -0.052541275 -0.064480245 0.011403056
-0.03520957 -0.06869783 0.0058876756 -0.12250003 -0.04772537 -0.00387534 0.048702113 -0.058199454
-0.03695847 -0.1309068 0.00030282774 -0.03705638 -0.072593726 0.0066547375 -0.040328212 0.02880038
-0.094386406 -0.030223938 0.009482013 -0.10577921 -0.1213949 -0.017990185 -0.07381008 -0.020226235
-0.021359524 -0.07742714 0.025212755 -0.1508489 -0.07128569 -0.08857215 -0.003279851 -0.12861271
-0.15611064 -0.16819133 0.016387684 0.053125717 0.0037520926 0.017096316 0.03001302 -0.10362326
-0.08144473 -0.07315509 -0.027725212 -0.020892285 -0.103451565 -0.0691958 0.012463944 0.03895334
-0.06665965 -0.12608144 0.05245206 -0.019222682 -0.010504518 -0.03350511 -0.041129153 -0.16544011
0.0076599875 -0.15128656 -0.15320839 -0.037230983 -0.11379319 -0.0008487416 -0.1108839 -0.14117672
-0.033702362 0.02564331 -0.045309626 -0.06888039 -0.01828771 -0.15692832 -0.07282646 0.021017788
0.032155372 -0.02468603 -0.18758935 -0.012212245 -0.0804841 -0.10225122 -0.029892711 0.073205404
-0.17259975 0.071652144 0.013453313 0.009785064 -0.09228271 0.0335969 -0.13253792 -0.13242808

bias f4 [40]
00000000: 1469 18be 247d edbd 20e1 95bd 5f70 80bd
00000010: c35c a6bd 4b12 dabd 1225 9bbd bdb5 b4bd
00000020: c76e 02be 76a2 963c 65f5 debd ce66 c83c
00000030: 5d16 8dbd 0319 00be b885 b539 a04e b3bb
00000040: 2a79 cebd 041c 003d bbe7 c03c a193 1bbe
00000050: eb08 623c 3b0f 23bc 2b93 d0bd 9694 16be
00000060: d7eb 61bb 5116 f8bd 9b4a d03c 7ecd debd
00000070: c747 973b 9b26 adbb d5cc 22be e24a 0ebe
00000080: 4716 1fbe ad35 25be d8d9 1fbe c276 2dbe
00000090: a10f 08be 4772 e73c e22a 89bc 8ea5 b8bc
-0.14883834 -0.11596134 -0.0731833 -0.06271433 -0.08123162 -0.1064802 -0.0757543 -0.08823726
-0.1273757 0.018388014 -0.10886649 0.024463084 -0.06889031 -0.12509541 0.00034622638 -0.0054720193
-0.10081704 0.031276718 0.023547998 -0.15193035 0.0137960715 -0.009952362 -0.1018432 -0.14705119
-0.0034472847 -0.121136315 0.0254262 -0.10879038 0.004616711 -0.005284143 -0.1589845 -0.13895753
-0.15535842 -0.16133757 -0.15610445 -0.16939834 -0.13287212 0.028252734 -0.01674408 -0.02253988

weight f4 [80, 40]
00000000: 8a47 b53d dda6 b33d 9fe7 d2bd 5638 75bb
00000010: eea8 a1bd 7c6e 333d f515 eebd f116 80bd
00000020: 5800 b73d 4fce 993d 963a 373d 10b9 babd
00000030: 3473 153e 956d ccbd 9c62 d1bd 63aa 123d
00000040: 7b4b a8bd 6f88 1ebe c727 863d c157 24bd
00000050: 020b babd 13fd 8fbd bcae c33d e093 b13c
00000060: 0760 913d 8513 413d b38d c1bc e4b8 3ebd
00000070: ac83 73bd 6ed6 c93d 6e46 283e e3c0 12bd
00000080: 76ed 22be 5401 84bd 60c2 b3bd bfa7 6d3d
00000090: 8cb1 0d3e 66c3 adbd 335a 5b3d 90e6 7d3d
000000a0: 5b55 8c3c b4cd 89bd 3510 b8bd 0f67 d0bd
000000b0: 412b b43d 439e 31bd 4856 c23d f366 9d3d
000000c0: 41de d33d c55f bdbd 1033 04be 2bba bd3d
000000d0: 54a6 893d f060 b9bd f97e 55bd e1f0 7b3d
000000e0: 1d94 a1bd b3d3 043c 95a9 aebc c7b3 fcbd
000000f0: ca00 92bd aa59 d1bd de8d a8bd 5877 f0bd
00000100: 8dc9 bd3d 4a39 ab3d fcb8 923d 7806 b83d
00000110: 7409 a5bd acbd bbbd e1b9 4fbd 8e0e eabd
00000120: 0da4 4dbc 28c0 03bd 8bfe ae3d d8c5 bd3d
00000130: 4933 f83d 51d8 4ebc 3959 c9bd 0121 05be
00000140: 976f ae3c adfc d0bd 07c9 82bd 56f3 df3d
00000150: 3f7c b9bd 1ab2 f53d ab06 64bd a7da f3bc
00000160: b892 8dbd cb0e ea3d 24bf 453a 1386 aabd
00000170: afe7 523d c86a 983d 1eb6 bf3c e0b4 37bb
00000180: 87f0 22be f730 4d3d b73b 39bc d8d9 483c
00000190: 077e 7e3d 838b d1bd 38cc a93d 99b4 02be
000001a0: 2bc3 b13c 9183 db3d 33b4 a5bc decd d13c
000001b0: b121 03be ed8d 69bd 70d5 fc3d 19a5 d23d
000001c0: 278c a7bd 289a eebc 98fa e73d 56cd 023b
000001d0: b095 f23d c7f8 6b3d 04cb dcbd 5f85 19be
000001e0: dd35 313c fd59 ae3d 13d7 8d3d a675 a13c
000001f0: 4465 d8bb 4d27 2fbd 237a 113e 30a6 503c
00000200: 5d54 003d 9f77 193d bc43 04be d428 5dbd
00000210: bb18 e63d e874 92bd 35ef 993d 86df 6c3c
00000220: ae73 5c3d 4b2d 3bbd 9dcd d63d 3360 13bc
00000230: a742 6c3c bf70 e43d 7b7c 24bd 18b2 123d
00000240: d70c f63c b69f 77bd 0041 853d 6e76 393d
00000250: df27 fbbd 9000 3c3d a704 a5bc a2eb 89bb
00000260: 938b 903a c8c6 91bc 9dfa 39bc 49c2 a23d
00000270: 304d 613c a543 a53d 547e babd fb0c ffbc
00000280: 400d 92bd 2177 e23d 1811 fe3d 915e dbbd
00000290: 7d22 563d 85ed 3f3c fd82 5abb 8976 163e
000002a0: 2511 28bb 657c 343e 5d71 913d e92b a73d
000002b0: 982d fbbd 9e20 aebd aa24 023e 04f2 a33d
000002c0: 17f0 4dbd efc8 fb3d 211e 003e 41aa db3c
000002d0: 74ae c9bd 619d cc3c ffeb 9d3d 0801 aa3d
000002e0: 1baa 89bd f7af e23d 42ad 0b3e 482c f03d
000002f0: ef05 59bc 6f09 683b 0dd5 8c3d 2920 083e
00000300: cedc d6bd 442b a8bd 0a9a a4bc 2fc0 d2bd
00000310: e543 6fbc 6fca 0cbc 7ea5 733d 1dc2 d23d
00000320: 2e71 fe3d 77e0 e43d de2f c6bd 0e81 91bd
00000330: 83dc 883d 88f1 0fbd 6384 143e 93a3 e63d
00000340: fcdc 3abd 10d7 d23d f75a d4bd 2863 f53d
00000350: 6f3e f9bd a94b 48bd 8035 f0bd 334c c8bd
00000360: 95bd c0bd 8e2c 8a3d bbff f5bd ed99 2f3d
00000370: feb5 393d cc62 35bd 9216 5fbd e8b9 363b
00000380: aeff 2d3b f8fa bdbd c4b2 0b3e 901f 59bc
00000390: aa1f 263d e6c0 13be 3800 05bd dd69 b7bd
000003a0: 2f27 00be 0e60 81bd f259 343e 85f2 c1bd
000003b0: eb2a d53d d818 a93c a683 1d3e 3d7e d73b
000003c0: ecf2 7b3d 2208 ad3d 1761 cabd 56e9 27bd
000003d0: 0b49 f03d 0723 93bd 38c3 69bd dc9e 473c
000003e0: 6140 15be a828 d3bd f589 143d 994f abbc
000003f0: 7d07 ebbd e4e0 1e3e 9f58 893c 78cf 90bd
0.088515356 0.08772061 -0.102980845 -0.0037417612 -0.07893549 0.043806538 -0.11625282 -0.06254376
0.089356124 0.07510053 0.044733606 -0.09117329 0.14594728 -0.099818386 -0.10223886 0.035807025
-0.08217522 -0.15481733 0.06550556 -0.04012275 -0.09084131 -0.07030692 0.09554812 0.021676958
0.07098394 0.047137756 -0.023627138 -0.046563044 -0.059451744 0.09855352 0.16433117 -0.035828482
-0.15910897 -0.06445566 -0.087773085 0.058021303 0.1383726 -0.08484535 0.053552818 0.06198746
0.017130544 -0.06728688 -0.08987466 -0.10175907 0.087973125 -0.04336382 0.09489113 0.07685652
0.10345126 -0.09246782 -0.12910104 0.09264024 0.06721178 -0.090516925 -0.052123044 0.061509017
-0.078895785 0.008107114 -0.021321097 -0.12338977 -0.07129057 -0.1022218 -0.08230184 -0.11741513
0.092669584 0.083605364 0.07164189 0.08985609 -0.08058444 -0.091670364 -0.050714377 -0.11428557
-0.01255132 -0.032165676 0.08544644 0.09266251 0.12119157 -0.012624816 -0.09831471 -0.13000871
0.021293445 -0.10204444 -0.06385999 0.109350845 -0.09056901 0.11996861 -0.05567042 -0.029767347
-0.0691275 0.11428603 0.0007543436 -0.08326354 0.051490482 0.07442242 0.02340227 -0.0028031394
-0.15912066 0.050095525 -0.011305741 0.012258969 0.062131908 -0.10231688 0.08290905 -0.12764205
0.021699509 0.10718454 -0.020227527 0.02561086 -0.12805821 -0.057020117 0.123453975 0.10285396
-0.08181029 -0.029126242 0.11327094 0.0019958816 0.11844957 0.0576103 -0.1078091 -0.14992283
0.010816065 0.08513258 0.06925788 0.01970942 -0.0066038687 -0.04276209 0.14206748 0.012734935
0.031330455 0.037467595 -0.12916464 -0.053994015 0.11235186 -0.07151204 0.07516328 0.014457589
0.05382126 -0.04569749 0.10488436 -0.008995104 0.014420188 0.11154317 -0.040157776 0.035814375
0.03003542 -0.060455047 0.065065384 0.04527896 -0.12263464 0.045898974 -0.02014382 -0.004208998
0.0011027924 -0.017794982 -0.011351255 0.07947213 0.013751313 0.08069543 -0.091061264 -0.03113412
-0.071314335 0.11057878 0.12405604 -0.107113965 0.052278984 0.011714344 -0.0033342235 0.14693655
-0.0025644985 0.17625578 0.071017005 0.08162672 -0.12264556 -0.08502315 0.12709299 0.08005145
-0.050277796 0.122941844 0.12511493 0.026814582 -0.098477274 0.024977388 0.07711028 0.08300978
-0.06721898 0.11068719 0.13640311 0.11727196 -0.013246044 0.0035406013 0.06876574 0.13293518
-0.10491334 -0.08211377 -0.020092983 -0.10290562 -0.01460359 -0.008593186 0.059483998 0.102909304
0.12423931 0.11175626 -0.09677099 -0.07104693 0.06682684 -0.03514245 0.14503627 0.11261668
-0.045620903 0.10294926 -0.10368913 0.11981803 -0.121701114 -0.04890028 -0.11728954 -0.09780159
-0.0941116 0.067467794 -0.12011667 0.042871404 0.045339577 -0.044283673 -0.054464884 0.0027881805
0.0026550102 -0.09276384 0.13642412 -0.013252154 0.04055754 -0.14429054 -0.03247091 -0.08955739
-0.12514947 -0.06317149 0.17612436 -0.09470085 0.104085766 0.02064173 0.15382251 0.006576328
0.061510965 0.08448817 -0.098818 -0.04099401 0.11732682 -0.07184415 -0.05707094 0.012183871
-0.1457534 -0.10310489 0.03626438 -0.020911979 -0.11476038 0.15515476 0.01676589 -0.070708215

bias f4 [80]
00000000: 2b0b ad3b 21de 8dbd d29f 8e3d 8704 82bb
00000010: b2f8 e0bd f432 123d 96fa 733d 40c4 e9bd
00000020: 32d1 63bd 8fe2 c7bb 869f 77bd 6546 7e3d
00000030: a330 7ebd 5a74 5bbd 9d13 af3d 5795 3e3d
00000040: 0189 5f3d eb7a 103d dd2c a43d 5fba 943d
00000050: 7d34 73bb b378 7fbd f57f 18bd efa0 883d
00000060: 20a2 6f3d 4122 8f3c 35d4 1cbd bdcb df3d
00000070: 29b1 74bc 3df5 94bd fa3c b63d f99d a0bd
00000080: 3bd4 0fbe 0ff3 a4bd d2e8 c1bd ded2 27bd
00000090: 0b1b 663c 4e06 133e d25a 023e 3370 11be
000000a0: 9094 b7bd e772 0c3e 2805 c43d 0f9d 1dbe
000000b0: dc69 81bd c120 f5bc eb3d 203c 2b35 bf3c
000000c0: 4e31 b63d 909f 063e 5fb8 d5bd 7fee 4ebd
000000d0: 52c1 0c3d 632d 61bd 9622 18bc 2865 fcbd
000000e0: 799c 1bbe 32f8 4c3d 8154 c83d 504c 9abd
000000f0: 54b8 133d e118 083e fe89 22be 6e28 d43d
00000100: d79a 203e 3b43 e03b b561 c93d 806a 27be
00000110: 7b4d bc3d 283a c03d c6d0 a43d 2228 ddbd
00000120: 3125 6f3c 371c 213d 7033 9f3d c4b5 e43d
00000130: fe40 80bd 453c 26be 459c 27be e073 943d
0.0052808723 -0.06927133 0.06964077 -0.003967825 -0.10984935 0.035693124 0.05956515 -0.11414385
-0.055619426 -0.006100006 -0.060454868 0.062078852 -0.062058102 -0.05357776 0.08548663 0.04652914
0.054574016 0.035273474 0.080163695 0.0726211 -0.0037110143 -0.062370967 -0.037231404 0.06671321
0.058504224 0.017472388 -0.038288314 0.10927532 -0.014934816 -0.07273338 0.08898349 -0.07842631
-0.14045803 -0.08054172 -0.09468235 -0.040972583 0.0140445335 0.14357874 0.12729958 -0.14202957
-0.08963883 0.13715707 0.09571296 -0.15391944 -0.06319019 -0.029922845 0.009780387 0.023340782
0.08896123 0.13146806 -0.104355566 -0.050520416 0.034364052 -0.054974925 -0.00928559 -0.123239815
-0.15196408 0.050041385 0.09781743 -0.07534087 0.03606446 0.1329074 -0.15872952 0.10359274
0.15684067 0.006843952 0.09833089 -0.1634922 0.09194466 0.093860924 0.08047633 -0.1079867
0.0145962695 0.03933355 0.07773483 0.111674815 -0.06262396 -0.16233929 -0.16368206 0.07248664

weight f4 [5, 80]
00000000: cbb8 96bc 9b7f 6c3d 6d99 5c3d 09c7 683d
00000010: ce78 72bb bb16 bd3c 8667 0d3d 6431 413d
00000020: 751e 5cbc 4a48 3dbd 626c 453c e813 32bd
00000030: 533f 90bb f53c 573d a6cd 41bd d561 8c3d
00000040: 0a8b b43b 6b46 3dbd 0915 8fbc 83ee 1b3d
00000050: 2f9b 6ebb 0eec 50bd efdc 3f3d efb1 83bd
00000060: 5157 5abb adb3 9bbc dd4f 5abc 5c63 67bd
00000070: 0329 1d3d cc5b 823c fef2 84bc 0947 153d
00000080: c9ac 203d 127c 403d abc6 d13b afc7 53bd
00000090: be53 debc 68fb a43c 9c92 69bd d032 013d
000000a0: 7cfc 773d 10a1 a4bc 07ad 5d3c 85ce 3e3d
000000b0: 4148 73bd 87fb 97bc 9465 363c 717e f9bc
000000c0: 0cea 153d c375 953c 448d 0abd 6e3d d43b
000000d0: d484 84bd 5647 883d 903d e9bc 76e8 a53c
000000e0: 095e 47bb b302 083c 9c2c 34bc 7e52 453c
000000f0: b5c5 043d f61c 8a3b abdd 2d3d a5ea 2ebd
00000100: f9b4 e9bb 5c0e 25bc 2561 35bd decb 53bd
00000110: f141 e53c 3517 10bc b809 88bd e348 493d
00000120: b0aa 2fbd 6ec4 01bd ff38 e0bb 2987 a2bc
00000130: 0c2a 25bc 4ff3 64bc 8de5 2cbd 9dd5 473c
00000140: 0fde 9c3d 5303 72bd 460c f53c 8af3 903d
00000150: 31da 2d3d db07 3e3d 30b1 34bd 8dca 9b3d
00000160: 3d8e 4dbd 152c e5ba 25c4 edbc 81a5 6f3d
00000170: 4223 17bd ce20 2cbd 0b10 533c d002 d33b
00000180: 1d4c acbb dc16 21bd 21ed 703b 8da2 f3bc
00000190: 8a8f 373c fce3 a9bd d1f0 1ebd 03ea b8bc
000001a0: e51a 353d 2e1b 3a3d 19b4 c43c 302f b2bc
000001b0: 0a6e a1bc 2b16 e7bc 3e98 b1bc 3c82 7a3b
000001c0: 6b82 be3b 2656 463d a803 453c 1c32 573d
000001d0: 5246 1bba 71c7 82bd 2c3a 68bc ac8b 273c
000001e0: efaa 80bd 83f4 583d b34a fb3b 4fca 19bd
000001f0: f0e7 033d 605a 863c 370c 2d3d d299 90bc
00000200: 6f35 513d ab7c 86bd bafb 02bc 70d6 ffbc
00000210: 244e 46bd f1f2 60bb c450 bbbc d5c2 4ebd
00000220: 42e7 313a 54cf 673d 52fa ccbc 45e3 d1bc
00000230: 4703 23bd 706e 433d 4b7a d43c 328d 56bd
00000240: b46a bdbc ace1 f63b 7e03 31bd f65c 833d
00000250: 7800 203d ab50 72bd c469 0dbc 37c2 aabd
00000260: 18ae 6fbd 99c2 21bd ff31 16bc 1cb0 0ebd
00000270: 8277 19bd 26a6 26bc ce2e 053c 53ed fd3c
00000280: e8a8 5dbd 8d64 a23b f1b5 143c f875 50bd
00000290: 45d6 8d3c 110e 08bd 911e 853c fa4d 653b
000002a0: d01c 6dbc c4e5 bebc 1abb 12bd 0a44 4e3d
000002b0: 4930 1a3c 439e 5d3c 665b 29bd dda3 423d
000002c0: e08f 8cbd 5e66 493d 4326 683b 8343 28bd
000002d0: 17e1 1abb 452f 4e3d 6506 f0bb a3b7 65bd
000002e0: f5ef 143d 39d7 f1bc aa8b af3c b6b4 133c
000002f0: 7bff 83bb 697e 4abd 28ab 85bd 110a 4dbd
00000300: c7bd f23b 6799 8b3d 2734 98bd ce00 173d
00000310: 0976 b8bc a33b 043d bc9c 3bbc fad9 50bc
00000320: f75a 613d 2e04 733d 0866 81bc 3822 86bc
00000330: 0d06 5a3d c97f 67bd 54bf 05bc 0be3 29bc
00000340: 067f 013d b280 26bd 65c8 c23c f646 80bc
00000350: c8fa 34bd c667 9f3a 0311 5c3c e711 c5bc
00000360: 6eaa 77bb a9ef 883d 3ecb 7cbd 422f 3ebd
00000370: 060b 17b9 671a 683d e9e9 083d c211 babc
00000380: e93b 37bc 7067 8539 2699 60bb 45ea 97bd
00000390: 7f88 763c e23b d0bc 6a8f c73c 9ac4 89bd
000003a0: 3ba9 79bc 5d52 8c3d 6533 f8bb 3c70 51bc
000003b0: 3a88 74bd 2289 69bc ac4e 463d e5ea 283d
000003c0: 83bc 80bd 1810 72bc 2770 11bd a86e ea3c
000003d0: 0976 30bd b70a 94bd aaef ec3b 3086 893c
000003e0: 1a7c ad3d 6784 073d 2c89 d4bc 2f4c 1cbd
000003f0: c37e ef3c 9d73 a23b d63f 71bd 946d 973d
-0.018398663 0.05773888 0.053857256 0.05683044 -0.0036998275 0.023082128 0.034522556 0.047166243
-0.013434996 -0.04621152 0.012049766 -0.043476015 -0.00440208 0.052548368 -0.047315262 0.068545975
0.005509739 -0.046209734 -0.017466085 0.03806926 -0.0036408415 -0.05100637 0.046841558 -0.064304225
-0.0033316205 -0.019006575 -0.013324705 -0.05649124 0.03836919 0.015912913 -0.016229149 0.036444698
0.03922728 0.046993323 0.006401857 -0.051704105 -0.02713954 0.020139411 -0.057024583 0.0315426
0.060543522 -0.020096332 0.013530022 0.04658367 -0.05939508 -0.018552555 0.011132617 -0.0304558
0.036600158 0.01824463 -0.033826128 0.0064770496 -0.064706475 0.06654231 -0.028471738 0.020252448
-0.003042104 0.008301425 -0.010996964 0.012043593 0.03241511 0.004214878 0.042447727 -0.042704243
-0.0071321693 -0.010074224 -0.044282097 -0.051708095 0.027985545 -0.0087945955 -0.06642479 0.049141776
-0.04288739 -0.03168147 -0.006842732 -0.01983984 -0.010080826 -0.013974025 -0.042211104 0.0121969255
0.07659542 -0.0590852 0.029913079 0.070777014 0.04244441 0.04639421 -0.04411429 0.07606993
-0.050184477 -0.0017484451 -0.029024193 0.058507446 -0.03689886 -0.042023472 0.012882243 0.0064395443
-0.005258097 -0.03932844 0.0036762434 -0.029740596 0.011203656 -0.08295438 -0.03880388 -0.022572523
0.0442151 0.045436077 0.024011659 -0.021751016 -0.019705791 -0.028208813 -0.02167904 0.0038224598
0.005813887 0.048422 0.0120247975 0.052538022 -0.00059232593 -0.06385697 -0.0141740255 0.010226171
-0.06282603 0.05296756 0.007668817 -0.037546452 0.032203615 0.016400516 0.042247977 -0.017651472
0.05107635 -0.06566747 -0.007994587 -0.031230181 -0.048414364 -0.0034324492 -0.02286566 -0.050478775
0.0006786474 0.056594208 -0.025021706 -0.025621066 -0.039798047 0.047712743 0.02593722 -0.052380748
-0.02312217 0.0075342264 -0.04321622 0.06414215 0.039062947 -0.059158962 -0.0086311735 -0.08337825
-0.058515638 -0.039492223 -0.009167193 -0.03483592 -0.037467487 -0.010171449 0.008128835 0.030996954
-0.05411616 0.0049558342 0.009076581 -0.050893754 0.017314086 -0.03321654 0.016249927 0.0034989105
-0.0144722015 -0.02330292 -0.035822965 0.050357856 0.009410926 0.013526502 -0.04134693 0.047519553
-0.068633795 0.04916989 0.0035423196 -0.04108001 -0.00236327 0.05033805 -0.007324981 -0.056083333
0.036361653 -0.029521571 0.021428902 0.009015253 -0.0040282584 -0.04943696 -0.06526786 -0.05005843
0.007407877 0.068163686 -0.07431822 0.036866 -0.022517221 0.032283437 -0.011450943 -0.012747282
0.05501839 0.059330158 -0.015795723 -0.016373739 0.053228427 -0.05651835 -0.008163292 -0.010369073
0.03161528 -0.040650077 0.023777196 -0.015658837 -0.044184476 0.0012161664 0.01343179 -0.024056388
-0.0037790793 0.066863365 -0.061717264 -0.046431787 -0.00014404589 0.056665804 0.0334262 -0.022713546
-0.011183717 0.00025444804 -0.003427097 -0.0741773 0.015047192 -0.02541918 0.024360377 -0.06726952
-0.015238102 0.06851647 -0.007574486 -0.012783106 -0.05970023 -0.014253886 0.04841487 0.041239638
-0.06285956 -0.014774345 -0.035507347 0.028617218 -0.043081317 -0.07228606 0.0072307186 0.016787618
0.08470936 0.033085253 -0.025944315 -0.03815859 0.02923525 0.00495763 -0.05889877 0.07393947

bias f4 [5]
00000000: 6646 fc3c 0ba1 563d 146d bf3c 4473 a83c
00000010: fba3 403d
0.030795287 0.052399676 0.023367442 0.020562775 0.047031384
