final_project/mlruns/1/62a1202877a74ababffaaab96dda9ca6/artifacts/cvae_27/data/model.pth (torch, 48071 bytes, 10 tensors)

weight f4 [80, 10]
000000 9c 70 3f be 9a eb ac 3e 51 a9 c0 bd f6 bd 8d 3e
       -0.18695301 0.337735 -0.094072945 0.2768399
000010 22 7b cf 3d 94 8b 5e be 1c 26 e4 3d a5 97 ae 3b
       0.101309076 -0.21732932 0.11140081 0.005328136
000020 91 57 3d 3e 54 6a 9c 3e 8a a4 54 be 60 40 f4 3d
       0.18490435 0.30549872 -0.20765892 0.11926341
000030 71 fb 8b bd c0 65 82 bd 44 bc 4d bc fe 6f f7 3d
       -0.06835068 -0.063670635 -0.012557093 0.12081908
000040 6a fa b2 3d 8c a0 12 be 0c 4d ce bd 2f 2d ab 3d
       0.08739169 -0.14319056 -0.10073289 0.083582275
000050 85 7f 84 be 2c 9d f5 3d 90 d0 ad bd e5 6a 17 3e
       -0.2587854 0.11992869 -0.08487046 0.14786871
000060 03 21 67 be 42 b9 91 bd 76 fc ab 3d ff db a0 3e
       -0.22571187 -0.07115413 0.083977625 0.31417844
000070 04 0b 1a be 61 25 93 be 12 8d 33 3e 75 35 09 3d
       -0.15043265 -0.28739455 0.17534283 0.033498246
000080 59 96 b6 bd 73 f1 86 bd af 5e 03 3e 8a b3 a6 bd
       -0.08915395 -0.065890215 0.12829088 -0.08139713
000090 92 49 79 be 36 b1 61 be 27 b3 f0 bb fc ab 03 3e
       -0.24344471 -0.22040257 -0.0073455754 0.12858576
0000a0 fc 91 82 3d a2 e4 0c 3e 4c 3e 66 be 0d 37 17 be
       0.063755006 0.13759091 -0.22484702 -0.14767094
0000b0 2f bc f6 bd 43 f9 3f be c1 cb 4d be cf 4f 43 3e
       -0.12047612 -0.1874743 -0.20097257 0.19073413
0000c0 ae 7f 3b be 5e 56 97 bd 13 de 25 3d 7b 85 06 be
       -0.18310425 -0.0738952 0.04049499 -0.13136856
0000d0 1a 78 0d 3d 1b 35 9b 3e 94 89 56 3e df 5c e1 3d
       0.034538366 0.30313954 0.2095092 0.11004042
0000e0 f3 6c 4e 3e 2f a0 fa 3d 24 22 2c be 6e 33 4a be
       0.20158748 0.12237584 -0.16809899 -0.19746181
0000f0 7b c0 74 be 08 fd 91 be 5b 4e 9c 3c cf 49 d3 3d
       -0.2390155 -0.2851336 0.019080332 0.10316812
000100 6e 42 9f be cc 18 40 3e d7 20 46 bd 47 02 ef bc
       -0.3110537 0.1875946 -0.048371162 -0.02917589
000110 dd 97 7a 3e 5d bb 82 be 31 73 fd bd 48 f3 8d 3e
       0.24471994 -0.25533572 -0.12375487 0.2772467
000120 ca 4f ee 3c 47 38 1f 3e 71 1b 56 3c 54 40 01 3d
       0.02909078 0.15548812 0.013068066 0.03155549
000130 dd 98 51 be 64 b0 d7 bc ae 23 57 3d 4b a7 1c 3d
       -0.20468469 -0.026329227 0.05252426 0.03824548
000140 3f 0f 17 3e 69 73 c5 bd 8d 89 68 be c5 dd c1 bc
       0.1475191 -0.09641153 -0.22708721 -0.023665318
000150 cb 49 b7 3d 88 3d 67 3e a5 36 ce 3a 83 f6 11 bd
       0.08949622 0.22582066 0.0015732838 -0.035635483
000160 f7 82 82 3e dd e3 90 be 27 43 f7 bc 6c f4 7b 3d
       0.25490543 -0.28298846 -0.030183388 0.061512396
000170 40 78 a0 3e 90 6f 93 3d f4 05 ec 3d 2a c3 70 3e
       0.31341743 0.07199013 0.11524573 0.23511949
000180 17 b3 dc bd 7a 61 2e be b4 10 b8 bc 31 9d 9a be
       -0.10776346 -0.17029372 -0.022468902 -0.30198053
000190 2f f3 8d bd fd 37 c5 3e f8 3a 8b be 1b 9c ac bd
       -0.06931149 0.38519278 -0.27193427 -0.08428212
0001a0 d2 11 21 3d 8a c8 b8 be ae 22 78 3d 82 6d 8a 3e
       0.039323635 -0.360905 0.060579948 0.27036673
0001b0 26 ae a2 bd 3f a8 b9 3d 1c 2a 46 be 72 a8 e0 bd
       -0.079433724 0.090652935 -0.19352001 -0.109696284
0001c0 fd 0f c9 3c f8 43 76 3e 8b 0f 6e be 84 07 1b 3d
       0.024543757 0.24049366 -0.23248117 0.037848964
0001d0 49 80 1b 3e 2c 93 7a bd 78 8b 4b be bf e6 71 be
       0.15185656 -0.06117551 -0.19877422 -0.23623179
0001e0 5a 3f 4c bc 46 e6 95 3e ac 7b 44 be 3e bd 89 3e
       -0.012466276 0.29277247 -0.19187802 0.26902193
0001f0 86 c8 85 be 12 81 af be ea 13 d3 3d d3 b4 7a be
       -0.2612955 -0.3427816 0.10306533 -0.24483041
000200 3e 53 3b bc 14 dc b8 bd c5 38 9b bd cf 9a a0 3e
       -0.011433421 -0.090263516 -0.07579187 0.3136811
000210 6d 6c 5b 3e 57 20 bc 3e 33 ca 82 be 13 a6 3d be
       0.2142808 0.36743423 -0.2554489 -0.18520384
000220 1b 7b 37 3c 18 68 38 3e c6 7b 65 3e c5 82 9f 3e
       0.011198784 0.18008459 0.22410497 0.31154457
000230 1d 7d 3c 3e 32 ba 69 3c d8 92 0f bb 65 aa 43 3e
       0.18407102 0.014265584 -0.0021907594 0.19107969
000240 a3 92 d9 bd 3d 0c fe 3d de fc 4d be e5 ec 79 3c
       -0.10623672 0.12404678 -0.20115992 0.015254234
000250 5e 8c 28 3e c5 f8 38 3d 16 07 04 3e 91 17 2a be
       0.16459796 0.04515912 0.12893328 -0.16610552
000260 e9 0c 97 3e a1 5c 4d bd 38 cd b2 3d 46 35 2f bc
       0.29502037 -0.050137166 0.087305486 -0.010693854
000270 be 48 73 bc 97 f1 11 be a2 fb 20 3e 4b b4 b5 3d
       -0.014848886 -0.14252315 0.1572099 0.08872279
000280 2f 40 c6 bd 31 4f 2a 3e 41 48 37 bd 2d 54 ce bd
       -0.09680211 0.16631772 -0.04474664 -0.10074649
000290 f1 a5 4b bb 46 45 de 3d 53 8a fa bd af 52 17 be
       -0.003107425 0.108530566 -0.122334145 -0.14777635
0002a0 36 12 12 be 84 1f 93 3e 7d d4 23 3e b6 ce 34 3e
       -0.1426476 0.28734982 0.15999027 0.17656979
0002b0 c1 59 99 be 28 19 25 be 27 a4 4e 3e 86 00 09 3e
       -0.2995129 -0.16122878 0.20179807 0.13379106
0002c0 5b 01 b0 bd 06 2d 98 3e 97 2d 92 3e df 91 9d be
       -0.085940085 0.2972185 0.28550407 -0.30775353
0002d0 5e 62 c1 3d 2e 3e a3 bd d7 b0 7c bd a3 df 00 be
       0.0944259 -0.07970844 -0.061692085 -0.1258531
0002e0 a1 08 63 3d 18 5c b0 be 71 04 42 3e ff f8 00 3e
       0.05542815 -0.34445262 0.18947007 0.12594984
0002f0 d4 f8 8a bd 1a 55 68 3d 60 93 58 3e 64 45 27 3e
       -0.067857414 0.056721784 0.21149969 0.16335064
000300 3e a0 87 be 7d af 99 3e 1e c8 1b b9 a8 e4 48 be
       -0.26489443 0.300167 -0.00014856501 -0.19618475
000310 4c 3d 46 3e 8e 28 87 bd 94 7a 33 be 5d 31 16 be
       0.1935932 -0.06599532 -0.17527229 -0.14667268
000320 a9 4f b6 bc 2b d6 d2 bd 6a 54 8e 3d 06 5c 90 be
       -0.022254782 -0.102947555 0.069496945 -0.28195208
000330 e1 26 50 be 52 90 8e bc 9d 8f 9f 3c bf f1 9c be
       -0.20327331 -0.017402802 0.01947766 -0.30653188
000340 34 37 1b 3e 35 4c 4a 3e 36 42 23 bd 93 16 ff 3d
       0.15157777 0.19755633 -0.039858066 0.124554776
000350 60 9f 80 be d0 f6 53 be 5f 09 4c bd a4 c9 98 bd
       -0.25121593 -0.2069962 -0.049813624 -0.07460335
000360 d5 71 d5 3c f8 67 9e 3e b1 c8 3a 3e 44 f1 65 be
       0.026055256 0.30938697 0.1824062 -0.22455317
000370 0c b0 40 3e f0 76 4a be fd 37 79 3b be c9 84 be
       0.18817157 -0.19771934 0.0038027756 -0.25935167
000380 26 08 3a be 9b f8 67 3e d2 54 a3 3e 3b 50 5d be
       -0.18167171 0.22653429 0.3190065 -0.21612637
000390 0f 61 89 3d 57 62 b1 3e 69 eb b7 3d 42 4c 57 be
       0.067079656 0.3464534 0.08980448 -0.21025184
0003a0 7d 42 b8 3d 8e 1c 94 be 95 b5 46 3d eb 2f 9c be
       0.08997057 -0.28928035 0.048513014 -0.30505309
0003b0 2b 59 8e 3e e7 46 5e 3e aa a9 22 3d b7 a6 d2 3c
       0.27802405 0.21706735 0.039712586 0.025714261
0003c0 bc a9 96 be 48 b4 6e 3e 9a 8c bc bb 99 e6 16 bd
       -0.29426372 0.2331096 -0.0057540657 -0.03684101
0003d0 03 34 96 be 55 95 cf 3d 63 f0 8e 3e b8 24 10 3e
       -0.29336557 0.10135905 0.27917776 0.14076507
0003e0 aa 53 01 be b9 79 2c 3e 8b bc a2 be 1a 59 18 3e
       -0.12629572 0.16843309 -0.31784472 0.1487774
0003f0 d5 02 b5 3c 6d 1e 60 bd 36 94 42 bd 1b f3 42 3e
       0.022096077 -0.054716516 -0.047504626 0.1903805

bias f4 [80]
000000 38 1e c3 3e ee 23 4b bd ff 91 e4 3e b8 a1 93 3e
       0.38108993 -0.049594812 0.44642636 0.2883432
000010 84 e4 55 be b1 51 3a be 07 a0 7e bd fd b0 ff 3e
       -0.20887953 -0.18195225 -0.062164333 0.4993972
000020 f5 46 b6 3e 10 77 26 be 5d 4c e6 3e 82 f2 d6 3e
       0.3560101 -0.16256356 0.44980136 0.41981894
000030 bc 9c 9d 3e 9a 7f b3 3e 61 f0 b5 3e 8b 4a 97 be
       0.3078364 0.3505829 0.35534957 -0.2954906
000040 02 0b a1 bd 8f fe 91 be e9 26 82 3e 42 20 10 be
       -0.07863428 -0.28514525 0.2542031 -0.14074805
000050 56 45 7f bd ce ed 03 3f ca d9 da 3e e3 17 8c bd
       -0.062321983 0.51534736 0.42744285 -0.068404935
000060 b9 cc 02 3f 50 3f 9d 3e 80 18 2e be ae 8c fe bd
       0.5109363 0.30712366 -0.17001534 -0.12429176
000070 97 4b 07 3f 88 28 89 be 9e 35 0a 3f 8b 45 5c bd
       0.52849716 -0.26788735 0.53988063 -0.05377726
000080 1b 9a 6f be 16 e3 3e bc e8 31 3e bd bf d3 78 be
       -0.2339863 -0.011650821 -0.046434313 -0.24299525
000090 4d a3 d9 bd c1 bc 2a be a3 38 fb 3e 10 2d 99 3e
       -0.1062685 -0.16673566 0.49066648 0.29917192
0000a0 c2 a7 a1 be 3b 29 a0 be 47 78 b0 3e 88 59 09 be
       -0.31573302 -0.31281456 0.34466764 -0.1341306
0000b0 44 96 a2 bc ca bc ab 3e 3e 46 94 3e d8 89 dd 3e
       -0.019847043 0.33542472 0.2895984 0.4326923
0000c0 dd 9f 29 be b0 28 da bd 78 3a 05 be bc 32 e5 3e
       -0.16564889 -0.10652292 -0.13010585 0.4476527
0000d0 42 f1 e7 bd 6b d5 65 be 62 d8 bf 3e 85 c3 02 bd
       -0.11325313 -0.22444694 0.37469774 -0.031924743
0000e0 6f 01 8e 3e b2 6b b7 3e f9 96 8f 3e 64 14 a3 bd
       0.2773547 0.35824353 0.2804487 -0.079628736
0000f0 5d 57 ce 3e 81 ba 98 3e 8c 47 00 3f b8 ae 0e be
       0.40301028 0.2982979 0.5010917 -0.13933837
000100 59 46 10 3d c7 fb 9e 3e e6 aa b4 3e 22 bf c8 3e
       0.03522334 0.31051466 0.35286635 0.39208323
000110 e3 c8 a5 3e 09 e3 aa 3e ff d2 02 3f 20 46 86 be
       0.32379827 0.3337634 0.51103204 -0.26225376
000120 d4 77 95 be 6b 34 8a be 14 d5 9a be 4e 2e 81 be
       -0.29192984 -0.26993117 -0.3024069 -0.2523064
000130 ca 39 ae 3e 16 d9 3d bd e3 98 ca 3e e2 39 a4 3e
       0.34028465 -0.046349607 0.39569768 0.3207541

weight f4 [40, 80]
000000 69 63 d4 3c 6d d1 89 3c f4 5e 8f bd 56 71 eb 3c
       0.025926309 0.016823495 -0.07000533 0.028740566
000010 58 20 df bd e1 82 6d 3d d1 3a 8e bd f7 9f 0d 3d
       -0.10894841 0.057986144 -0.06944812 0.034576382
000020 09 44 4b bc e9 37 3c 3b c3 a6 66 3d 87 21 63 bc
       -0.012406358 0.0028719848 0.05631138 -0.013862974
000030 e9 b8 1c 3e 51 54 64 bd e0 04 c7 3d db ff 95 bd
       0.15304913 -0.055744473 0.09717727 -0.07324191
000040 26 c4 c1 3d 4e 95 a7 bd d9 41 64 bd f0 0d b9 bd
       0.094612405 -0.081827745 -0.05572686 -0.090358615
000050 43 13 1b 3c c5 a3 d9 3d 0c 20 32 bd 13 84 1c 3d
       0.009465042 0.1062694 -0.043487594 0.038211893
000060 de 3f 66 bd b6 e2 db bb 5e 3e c0 bd f8 35 c8 3d
       -0.056213252 -0.0067103757 -0.093868956 0.09775919
000070 6d 34 5c bd 98 8a b8 3d f8 64 08 3e 4e 7a 17 bd
       -0.053760935 0.0901081 0.13319767 -0.036981873
000080 9c e4 47 3d b8 a8 c0 3d ae b9 8a 3a 27 04 8a 3d
       0.048802003 0.094071805 0.0010583901 0.06739073
000090 96 ee 8f 3d 70 34 e7 3c 3c 7e c7 3d 19 c8 4d bc
       0.070279285 0.028223246 0.09740874 -0.012559914
0000a0 0a fe 9e 3d 1f 46 1c bd 9f 24 53 bc 8d 6b 53 bd
       0.07763298 -0.03815281 -0.012887149 -0.05161624
0000b0 83 3d a0 3d c2 09 ba 3c c1 3d 6a bd da 6b 4e 3d
       0.078242324 0.022709731 -0.0571878 0.050395824
0000c0 1b fc ae bd fa cf a6 bc b7 9a bc 3d c9 d6 79 bd
       -0.08544179 -0.020362843 0.09209197 -0.06099585
0000d0 0e 65 d5 bd dd e0 6d bd 1d db 0d 3d 41 38 ed 3c
       -0.10419665 -0.058075774 0.03463279 0.028957488
0000e0 9c 66 5a bc 2d ce a7 3d 97 ff 0f bb c4 a9 32 bc
       -0.013330128 0.08193622 -0.0021972412 -0.010904733
0000f0 bd b7 b6 3b ab d5 15 3e 47 48 4a 3d fb b2 98 bd
       0.0055761025 0.14632289 0.049385335 -0.07456013
000100 f3 24 57 3b ae a5 47 3c 38 4a 33 bd 78 f2 bd bb
       0.003282842 0.012185497 -0.043771952 -0.005796727
000110 e2 b6 ba 3b 00 15 12 bc 98 cb 4a bd 97 9a 86 3d
       0.005698071 -0.00891614 -0.04951057 0.065724544
000120 d4 d0 3b 3d da 1e a1 bd 35 eb 2f bd 94 16 89 3d
       0.04585345 -0.078672126 -0.04294892 0.066937596
000130 de 62 00 3e bd c3 19 ba b9 a7 5d 3d 55 41 ce 3c
       0.12537715 -0.0005865654 0.05411503 0.025177637
000140 d0 b3 0a 3d 86 ae 47 3d 62 2c 09 3c b2 b2 40 bb
       0.03386289 0.048750423 0.008372398 -0.0029403386
000150 db 86 0d bd 6d c0 ba 3d b6 3d 17 bd 41 fc f5 3d
       -0.034552436 0.091187336 -0.036924087 0.12011004
000160 31 52 cf 3d 7d e0 d3 3d 6a 7b 52 3d b5 e8 7b bd
       0.10123099 0.10345552 0.051387228 -0.061501224
000170 af e8 8f 3d 34 13 65 3c 5c 19 35 bd da 63 a7 bd
       0.07026803 0.013981629 -0.044213638 -0.08173342
000180 20 93 33 bd a3 fe 39 3d 05 ba 82 3d d5 7f bf bd
       -0.04384148 0.045408856 0.06383137 -0.09350554
000190 b1 ed df 3d 96 65 22 bc da b6 54 bd 42 7a a0 bd
       0.10934008 -0.009911915 -0.051932193 -0.07835819
0001a0 1c 89 33 bc 81 67 28 3d 5d cf a3 bd ef ea a5 bd
       -0.010957982 0.041114334 -0.07998536 -0.08101451
0001b0 9a d6 c8 3d 8a b1 a6 bc 92 c4 22 3d d2 bd 8b 3b
       0.09806557 -0.02034833 0.039738245 0.0042645717
0001c0 7d b5 d0 bd 2f 35 ac bd bd 04 30 bd 26 0c 84 3c
       -0.10190866 -0.084085815 -0.04297327 0.016119074
0001d0 6c 5c 8f bd bc 7e e0 3d 19 bc eb 3d a3 c7 c2 3c
       -0.0700005 0.10961673 0.11510486 0.023776835
0001e0 08 9c 71 3d cb cc d1 3d c5 ac 41 3c e0 0d 93 bd
       0.058986694 0.10244139 0.011820977 -0.07180381
0001f0 21 a5 5b 39 0f 36 a2 3d 70 a9 88 bb 2e c0 23 bd
       0.00020946983 0.07920467 -0.004170589 -0.0399782
000200 87 d7 3e bd af 88 a7 3d 12 04 b2 3d 6c ce 34 3d
       -0.04659226 0.08180367 0.086921826 0.04414217
000210 95 e5 f1 3c fd 13 f7 bb 7e 09 9b bb 78 a5 e5 3c
       0.029528419 -0.0075402246 -0.004731356 0.028033003
000220 97 e8 82 3d e8 c5 97 bd df 0d 9a 3d 3b f3 99 bc
       0.06392019 -0.074107945 0.07522177 -0.01879274
000230 a0 27 18 3d 9d 06 af 3d 2f 7c b6 bc d0 85 dd 3c
       0.037147164 0.08546183 -0.022276012 0.027041346
000240 8f fa 07 be c8 49 36 bd 40 f6 83 3d b1 fb c7 bd
       -0.13279174 -0.044503957 0.06443453 -0.09764803
000250 a5 fb d4 3d 4b ee 68 bc 81 3d 30 3d a9 67 af bd
       0.1039956 -0.01421697 0.043027405 -0.085646935
000260 9a 5f 4b bc 4f 62 59 bc 7f 70 e2 3c be f8 87 3d
       -0.01241293 -0.0132680675 0.027641533 0.06639241
000270 35 cd b0 3d 93 88 e8 3c ab ee 90 3c 73 dc 35 bc
       0.0863289 0.028385436 0.01769193 -0.0110999225
000280 4e 54 fb 3c 64 88 4d bd 3a 03 2a 3b 4c eb c4 bd
       0.030679848 -0.0501789 0.0025941865 -0.09615192
000290 65 d8 d5 bc d1 ce da bc 46 5f 77 3d 3e e1 82 3d
       -0.026104162 -0.026709946 0.060393594 0.06390618
0002a0 46 4c eb bd 50 c8 4f 3c d1 e1 e5 bd 50 25 4f 3b
       -0.114891574 0.012682036 -0.11224712 0.0031607933
0002b0 01 31 fc bd f8 8b 22 3d c4 c1 61 bd 0b 0e 64 bd
       -0.12314034 0.039684266 -0.05511643 -0.055677455
0002c0 09 6c 0d 3d 7c 31 72 bd 37 f3 ef 3c 60 71 8c bd
       0.03452686 -0.059129223 0.029290779 -0.06857562
0002d0 06 bb 93 bd 94 83 57 bc f9 7f 93 bd 94 20 d2 3d
       -0.07213406 -0.013153929 -0.07202143 0.1026012
0002e0 10 fc 93 bc b6 3a 17 bd 5f 69 5b bd f1 6a df 3d
       -0.018064529 -0.036921225 -0.053567287 0.10909069
0002f0 9b d9 c6 bd 88 34 8f 3c cb 89 43 bd 45 17 93 3d
       -0.09709474 0.017481104 -0.04773883 0.07182173
000300 c3 a8 d6 bd 7d 05 ba 3d 57 b1 9f 3d 71 8a 6e bd
       -0.104814075 0.09083078 0.07797497 -0.058237497
000310 bc b2 e2 bd 68 4d aa 3d c5 bf a3 3d f6 9e 19 bd
       -0.11069247 0.08315545 0.079955615 -0.037505113
000320 aa 2d 70 bc 31 21 ba bd 1b 1c a5 3d bf c4 b7 bb
       -0.014659325 -0.09088362 0.08062001 -0.0056081708
000330 cc 64 d2 bd 47 50 55 bd 9d 06 ba bc fa 84 95 bd
       -0.10273132 -0.05207851 -0.022708232 -0.07300754
000340 16 61 7c 3d b1 68 75 3d 70 59 bc bd 1e 40 d8 bd
       0.061616026 0.059914295 -0.09196746 -0.105591044
000350 5e d0 82 bd cc 7d 58 3d bf 9b 1e 3d a2 fa b2 3d
       -0.06387399 0.052854344 0.03872275 0.08739211
000360 49 e9 a7 3d 82 04 a0 bc 4d 73 d1 3c b9 57 90 3c
       0.081987925 -0.0195334 0.025567675 0.017619954
000370 9a 15 73 3d fc 63 d1 3c 06 98 32 bc be ee b0 bc
       0.059346773 0.025560372 -0.010900503 -0.021598216
000380 5d 20 35 3d 71 0c c0 bd 22 e2 32 3c d9 1e db 3c
       0.044220317 -0.09377373 0.010918172 0.026748108
000390 c8 f6 b8 bd 77 b0 1e bd 4a f6 9a bd 04 98 33 3c
       -0.09031445 -0.03874251 -0.07566507 0.010961536
0003a0 54 91 dc bd 23 cc c6 bd 11 42 f0 bb 76 ae 6f bd
       -0.10769907 -0.09706905 -0.0073320945 -0.05851599
0003b0 f8 fe 61 bc a7 50 cf 3c 11 be c9 bd 27 5c f9 3a
       -0.013793699 0.025307013 -0.098507054 0.0019024656
0003c0 3d c5 18 be 14 dd 89 3d 98 3f 6e bd 64 e3 25 be
       -0.1491899 0.067316204 -0.058166116 -0.16200024
0003d0 38 9d 93 3d ef 46 87 bd 23 49 db 3d b7 45 35 3d
       0.072077215 -0.066053264 0.10707309 0.04425594
0003e0 92 00 c9 bd 7c 3a dc 3d 19 eb 05 be dd 0d 5d bd
       -0.09814562 0.107533425 -0.13077964 -0.0539683
0003f0 04 8e 8b bd dc cf b0 bd 97 7d a7 3b 72 63 90 bd
       -0.06814197 -0.08633396 0.005111407 -0.07050218

bias f4 [40]
000000 57 4b d1 3d ef be bb bd 23 eb f6 bd a7 d4 17 be
       0.10219448 -0.09167277 -0.120565675 -0.14827214
000010 af fd 40 3d a5 05 77 bd dc 35 90 bc bb 46 8d 3d
       0.04711693 -0.060308117 -0.017603807 0.068982564
000020 74 6e 21 39 c2 cc 00 3d f6 b7 06 3b 94 d9 9f 3d
       0.00015395303 0.031445272 0.0020556427 0.078051716
000030 41 84 99 bc e8 d3 86 bd 96 5e 6c bd c4 ab 1b be
       -0.018739821 -0.06583387 -0.05770739 -0.15202242
000040 1f c6 8b 3c b7 06 45 3d 29 90 0d be 4e f8 ae bd
       0.017062245 0.048102107 -0.13824524 -0.08543454
000050 6e 28 98 3b f9 2e b5 3d 78 63 c0 bd d7 af 29 bd
       0.0046434915 0.0884685 -0.09393972 -0.04142746
000060 2f 28 09 bd 3a 49 b4 3b d9 1f 05 bd 01 6f 78 bb
       -0.033485588 0.0055018933 -0.032501075 -0.003790796
000070 15 36 ea bd e8 32 e4 bd 7a ab a8 3d f3 84 92 bd
       -0.114360966 -0.11142522 0.082358316 -0.07154264
000080 89 d7 b7 3d d0 da c5 3d db 12 e7 bd a8 11 fa bd
       0.08976657 0.09660876 -0.11282893 -0.12210399
000090 8e 57 29 3d 68 b4 1b be 23 df a2 3d 95 87 d1 3b
       0.041343264 -0.15205538 0.07952716 0.0063943365

weight f4 [40, 80]
000000 6f 78 08 be 79 95 51 3d fd 6f 4d be 6f 99 08 be
       -0.13327192 0.05116794 -0.20062251 -0.1333978
000010 0b 3b e0 3d b8 7b cb bc 7a d8 46 bd 23 ab 89 bd
       0.109487616 -0.024839267 -0.048546292 -0.06722095
000020 3f c3 cd bd 21 e2 c3 bd 34 ac 67 bd c4 df 41 be
       -0.10047006 -0.09564615 -0.05656071 -0.18933016
000030 2d 82 b8 bd b9 00 5b be d8 04 37 be ee 9a e0 3d
       -0.09009204 -0.21386994 -0.17872941 0.109670505
000040 69 d6 30 bd 9d b9 be 3d 4a b2 87 be 05 88 6c 3d
       -0.043173227 0.09312747 -0.2650321 0.057746906
000050 58 9c 7d bc 9b 31 46 be 10 48 81 bd 28 f1 db bd
       -0.01547917 -0.1935486 -0.06312573 -0.10739356
000060 0e 6d 3a be d9 5c b0 bc 9b 0a ca bd 27 e6 f8 3c
       -0.18205664 -0.021528648 -0.09865304 0.030383183
000070 aa f2 d6 bd 4f 83 a2 bd 54 32 34 be a6 34 01 bd
       -0.10495503 -0.079352014 -0.17597324 -0.03154435
000080 82 35 35 bd 4f 35 f7 bd 09 9a 17 3d 6e 16 6c bd
       -0.044240482 -0.12070715 0.037012134 -0.057638578
000090 ab ca 92 bd 29 73 49 3c 5d f0 66 bd 3e 8e 1f be
       -0.07167562 0.012295523 -0.056381572 -0.15581605
0000a0 0f de fd bc 77 aa 94 bd 67 c4 37 bd df 5b 88 3c
       -0.030989675 -0.07259076 -0.04486504 0.01664537
0000b0 bc 14 a8 bd ca 61 14 be 24 86 22 be 65 b2 48 be
       -0.0820708 -0.14490429 -0.15871483 -0.19599302
0000c0 8a 8f 9f bd e1 f3 ca 3c 17 68 82 bd ee 1e c5 bc
       -0.0779105 0.024774494 -0.0636751 -0.0240626
0000d0 9a 08 43 3d e3 ff 01 bd cd 58 47 bd cb d9 38 3d
       0.047615625 -0.031738173 -0.04866867 0.04512958
0000e0 98 da 12 3b 45 0a 1f be 9e 74 70 be 1c d1 54 bd
       0.0022408124 -0.15531261 -0.23481986 -0.051957235
0000f0 51 4f c4 bc 15 81 7c be 06 00 52 be 6b 45 30 3d
       -0.023963602 -0.24658616 -0.20507821 0.043034952
000100 07 67 03 be fa 9e b1 bd fd c9 5c be 1f 86 6c bd
       -0.1283227 -0.086729005 -0.21561427 -0.057745095
000110 5f 85 a7 bc 2b ee 52 be bd e8 09 be f1 78 c1 bd
       -0.020449338 -0.20598666 -0.13467689 -0.09446896
000120 ae ac 1f bd 50 36 a3 bd b7 07 d6 bc 72 36 c1 bd
       -0.03898304 -0.07969344 -0.026126726 -0.09434213
000130 cc a4 24 bd 8a fe 7e bc f6 50 80 bd eb 02 77 be
       -0.040196225 -0.0155636165 -0.06265442 -0.24122207
000140 9d e8 0d be fa 43 cf 3d b4 0f a7 bd de 75 1d be
       -0.13858266 0.101203874 -0.08157292 -0.15376994
000150 3c ec 9e 3d 3b e0 d2 bd aa af 4a 3d 7f 22 0f be
       0.07759902 -0.10296675 0.049483933 -0.13978003
000160 fc fe 81 bd 73 fe 30 bd 97 ff 3c be 1a 15 44 be
       -0.063474625 -0.04321141 -0.18456875 -0.19148675
000170 9a 99 20 be 6d 66 49 be 8f 88 83 bd a6 c8 66 3d
       -0.15683594 -0.19667979 -0.06422531 0.056343697
000180 8f de a0 bd 71 5e 08 3c cd 49 1e be 07 3b 86 bc
       -0.0785495 0.008323298 -0.1545784 -0.016385568
000190 e0 17 13 bd 0b 3e b0 bd d3 d4 e1 bc ac 8e a3 3d
       -0.03591144 -0.08605584 -0.027567303 0.07986197
0001a0 1a 85 0d be ef 50 32 be 59 29 0e 3a b5 fc e3 3d
       -0.13820305 -0.17413686 0.00054230314 0.111321844
0001b0 e3 4a 0b be 80 dc 96 bd e8 50 3f be 63 ef a8 bd
       -0.13602786 -0.07366276 -0.18683207 -0.082487844
0001c0 52 94 10 3d 94 f7 7c 3d fc 4f 8c bd 22 82 de bd
       0.0352977 0.061759546 -0.06851193 -0.108646646
0001d0 73 f2 2a 3d df e8 3f bb d0 09 a1 bd 81 88 3d be
       0.041735124 -0.002928309 -0.078632 -0.18509103
0001e0 64 d1 ec bb 2f ca c0 bd 77 32 65 bd 1b bc 36 bb
       -0.0072271097 -0.094135635 -0.05595633 -0.0027883116
0001f0 9e 03 a3 3d 82 fd e3 bd 7b c1 46 be 3f 69 23 be
       0.07959674 -0.11132337 -0.19409744 -0.15958117
000200 8d 26 d9 bb 1f d3 0d 3d fc c0 6b bd c9 51 52 be
       -0.00662691 0.03462517 -0.05755709 -0.20539011
000210 c0 19 ac bd 3b cf 13 3d df fa 57 bc f3 e1 a2 bd
       -0.08403349 0.036086302 -0.013182371 -0.07953253
000220 c9 11 9c bc 37 53 3f be f2 1c 81 be 01 1f 8c 3a
       -0.01905145 -0.18684088 -0.25217396 0.0010690392
000230 19 76 63 bd d9 04 b0 bd 79 ae ba bd df 0d bf 3d
       -0.05553255 -0.085946746 -0.09115309 0.093288176
000240 b8 5d 28 bc 6f b0 07 be 1f d0 19 be cf 6b db bd
       -0.010276251 -0.13250898 -0.15020798 -0.10713922
000250 e8 00 28 bd e4 85 c3 bd 0d ce 6d bd 78 b4 bd bd
       -0.04101649 -0.09547022 -0.058057833 -0.09262937
000260 a6 58 83 3d 81 60 93 3b 1e d1 83 bd 5f fd 2e bd
       0.06413393 0.004497588 -0.0643637 -0.042722102
000270 b6 f3 62 bd 35 1b be 3d 74 36 a9 bd 0b 63 03 be
       -0.055408202 0.09282533 -0.08262339 -0.1283075
000280 08 e5 79 be b6 89 ab 3d 0a 91 34 bd 84 ad 17 be
       -0.24403775 0.08375876 -0.044083633 -0.14812285
000290 51 a3 f4 bc b8 38 ac bc b3 be c1 bc 7c 40 91 bd
       -0.029863032 -0.02102314 -0.023650503 -0.070923775
0002a0 e8 34 3d be 83 76 d2 3d 97 61 01 be 6c a1 a8 bd
       -0.18477213 0.102765106 -0.12634884 -0.08233914
0002b0 09 bc 3d be 44 40 56 be 53 94 de bd 81 e8 8f 3c
       -0.18528761 -0.20922953 -0.10868134 0.017566921
0002c0 32 92 09 3d 74 19 ad 3d 2c 2f 3a be bb 4a df bb
       0.03358669 0.084521204 -0.18182057 -0.0068143285
0002d0 aa 14 63 bd 0e fc 47 be 89 dc 00 be 95 ba 6a bd
       -0.05543963 -0.19529745 -0.12584127 -0.057306845
0002e0 9c af 2a be c9 80 14 be b3 0f 61 bc 3f 34 da bc
       -0.16668552 -0.14502253 -0.013736653 -0.026636241
0002f0 bb 80 07 be ea cc da 3d 4a 3d 66 bc 81 de 8b bd
       -0.132327 0.106836155 -0.014052698 -0.068295486
000300 41 d7 8f 3d 2e 67 f0 bd 6f 61 ae bd f9 93 da 3d
       0.07023478 -0.1173843 -0.08514678 0.10672755
000310 5d 24 1f 3d 0b be 6f 3d 11 1c a7 bd 1b 9d 48 be
       0.038853038 0.05853085 -0.0815965 -0.19591181
000320 d7 72 b2 bc e6 7e cf bd db ad cf bc 38 24 9d 3d
       -0.021783276 -0.10131626 -0.025351455 0.07672924
000330 67 69 e1 3d fa 3b d2 bd 75 59 6b be 42 ad 1c be
       0.11006432 -0.10265346 -0.22983344 -0.15300468
000340 fa a5 d4 bd 2a ac ee 3c 07 22 7b bc e8 fb 42 be
       -0.1038322 0.029134829 -0.015327937 -0.19041407
000350 23 fe bf bd 7e 44 45 bd 4d 9f e9 bc fb 9e de 3c
       -0.093746446 -0.048161022 -0.028518343 0.027175417
000360 f4 a8 36 bd 4e b5 5b be 3d 41 73 be de 1e ae 3c
       -0.04459472 -0.21455881 -0.23755355 0.021254953
000370 58 dd 5b be 53 d5 7b be 17 38 3c be a9 5a 47 bd
       -0.21471155 -0.24593095 -0.18380772 -0.048670445
000380 22 e6 f0 bd 66 45 83 be 83 f9 62 be 96 5a eb bc
       -0.11762644 -0.25638884 -0.22165494 -0.028729718
000390 e1 24 39 be d6 ca 8b bc df 84 d5 bd 23 27 52 3d
       -0.18080474 -0.017064493 -0.10425734 0.051306855
0003a0 98 35 dd 3c be 71 27 3d d2 aa d1 bd c9 df 26 3d
       0.027003095 0.040879957 -0.102376595 0.040740762
0003b0 59 73 b7 bd 19 f3 3d 3c 85 b4 2d be 5d b6 25 be
       -0.08957548 0.0115936035 -0.16963394 -0.16182847
0003c0 7a ab 5f bd 6f 29 c7 bd 9e cb 5a be 00 7e f5 bd
       -0.054606892 -0.097247 -0.21366736 -0.11986923
0003d0 63 bf 92 3d 40 e0 e2 3d fc 4a 69 bd e9 81 cd bd
       0.0716541 0.110779285 -0.056956276 -0.10034544
0003e0 45 0f 52 bd 34 51 ca 3d 69 04 45 be f2 7f ce bd
       -0.051284093 0.098787695 -0.19239964 -0.100829974
0003f0 37 70 62 be f9 67 ac bd 26 1a 39 bd 0a c5 a1 bd
       -0.22113119 -0.08418269 -0.045190953 -0.0789891

bias f4 [40]
000000 15 b6 9c bd 22 5d f0 bc a8 d6 f7 bd ea 1c f5 bd
       -0.07651917 -0.029341284 -0.12101489 -0.119684055
000010 ca 0d 5e be fd 00 43 bc 80 b3 0e be 10 72 5b be
       -0.21684948 -0.011902091 -0.13935661 -0.2143023
000020 fb 70 d8 bd a3 5f 75 bd b3 4b 52 bd 11 8e 3a be
       -0.10568424 -0.05990566 -0.051341724 -0.18218257
000030 fb a1 ae bd 45 fb 1d be b9 05 e2 bd ba dd 2a be
       -0.08526989 -0.15427883 -0.11036248 -0.16686144
000040 a2 12 f1 bd 0d 95 4a be 95 1f 31 be c7 be 9c bc
       -0.11771132 -0.19783421 -0.17297204 -0.019133938
000050 0c cb 31 be b1 e4 4f bd 10 a3 4c bc d2 e4 ba bd
       -0.17362612 -0.050755206 -0.012490049 -0.09125675
000060 31 89 f7 bd 19 ab 41 be 7d f5 e3 bd d4 6a 43 be
       -0.12086714 -0.18912925 -0.111308075 -0.1908372
000070 41 f3 55 bc ff 4d b0 bd 2e 51 88 bd e6 6a 4c bd
       -0.0130584845 -0.086086266 -0.06656109 -0.049906634
000080 2c e9 8b bc 15 16 81 bb 4a 49 e5 bc c7 23 e5 bd
       -0.017078958 -0.0039394 -0.027989049 -0.111884646
000090 78 2b 69 ba 66 3e 74 39 7a cb e9 bd 39 1f 40 bd
       -0.0008894722 0.00023292899 -0.11415763 -0.046904776

weight f4 [80, 40]
000000 25 ed fe 3d cb e9 65 3d 6b 91 49 bd eb 7a 11 3e
       0.124475755 0.056131165 -0.049210947 0.14207046
000010 5a 63 05 be 1c c8 06 be ab 0c a6 3c 52 0b e2 3d
       -0.13026181 -0.13162273 0.020269712 0.110373154
000020 7b 9d d5 bd 94 f2 b9 bd 7d 90 0e 3e ba 0c 20 3e
       -0.10430428 -0.09079471 0.13922305 0.15629855
000030 6a b6 ef bc 88 d6 b9 bc 80 2b 83 bc 56 33 d2 3c
       -0.029261786 -0.022685304 -0.016011953 0.025659245
000040 56 45 88 bd 21 96 08 be ec d6 ef bb 2b 87 d8 3d
       -0.0665385 -0.1333852 -0.007319322 0.10572656
000050 bf 35 d9 3d c5 fa 28 bc b8 70 dd bc ca d3 e7 3d
       0.106059544 -0.010313694 -0.027031288 0.113196924
000060 04 b6 62 bd dd 3f 06 be f1 39 d4 3c c5 45 fc 3c
       -0.055349365 -0.131103 0.025906535 0.030794987
000070 2f 39 9c bd 73 d8 ec 3d be 77 87 3d 75 90 cf bc
       -0.076280944 0.11564722 0.06614636 -0.025337437
000080 06 98 4b 3b c2 dc 1c be ac 02 94 bd e9 45 92 bd
       0.0031065955 -0.15318587 -0.07227072 -0.071422406
000090 e0 da 09 bc 97 5f 63 3d e9 88 86 bb 0a 66 a7 bc
       -0.008414 0.055511083 -0.0041056764 -0.020434398
0000a0 fb 47 41 bd 6c 37 47 3d 65 15 c7 bd 95 19 27 3e
       -0.047187787 0.04863684 -0.097208776 0.16318353
0000b0 ec 23 57 bc 75 59 ae bd 45 8f 7b bc 1e f5 3b 3d
       -0.013131123 -0.08513156 -0.015353982 0.04588806
0000c0 3f 9d d5 3d b2 ef 5d 3d a9 41 a6 bb 18 40 fd 3c
       0.10430383 0.05418367 -0.0050737453 0.030914351
0000d0 56 71 aa bd 05 16 1d 3d a8 7c 71 3d 58 e8 ae bd
       -0.08322398 0.038351078 0.058956772 -0.0854041
0000e0 76 f0 08 3e 79 0b 91 3d 1a 16 83 bd a6 59 e7 3d
       0.13372979 0.07082266 -0.064007 0.11296396
0000f0 2c da 56 3d 4e a4 11 be 6d 86 2f bd 23 f8 b9 bd
       0.05245416 -0.14222834 -0.042852808 -0.090805314
000100 e5 7f 5a bd 8e cf cd ba 6f 3f d0 3c 4c ed bc 3d
       -0.053344626 -0.0015702115 0.025420872 0.09224948
000110 c7 63 06 3e 07 69 d0 bd b2 32 0b bd d9 03 38 bc
       0.13124 -0.101762824 -0.033983894 -0.011231386
000120 c6 38 08 be 77 af 92 3d d8 3a e8 3d 02 a9 86 bd
       -0.13302907 0.071623735 0.113393486 -0.065752044
000130 53 da f0 3d 14 ea 9a 3d 94 75 e8 bd ed 40 e2 3d
       0.11760392 0.07564178 -0.11350551 0.1104754
000140 bf 79 f2 bd ea a0 0b be 0c 9b 82 bc 7c 46 10 3d
       -0.118396275 -0.13635603 -0.015943073 0.03522347
000150 3a 42 d8 bd 72 7a cf bc 36 fe 32 3e 86 ca dd bd
       -0.10559507 -0.025326941 0.17479786 -0.10829644
000160 04 1e 44 3d ae 85 1a 3d 71 e4 33 bd 1e 34 8f 3d
       0.047880188 0.037725143 -0.04391903 0.069923624
000170 fe 82 47 bc 91 ae 39 3d 72 43 73 3d c7 6c b4 3d
       -0.012177227 0.045332495 0.059390493 0.0880981
000180 5c e3 11 bc 78 49 ad 3d b5 91 ac 3d 90 f6 a6 bd
       -0.008904304 0.08461279 0.08426229 -0.08152497
000190 b5 21 04 be 27 88 84 3d f1 86 ec 3d 0e 09 be 3d
       -0.12903483 0.064712815 0.115491755 0.09279071
0001a0 e5 1a 38 bd 0e 53 af 3d 2d c7 a2 bb 80 a1 b2 bd
       -0.044947524 0.08560763 -0.0049675913 -0.0872221
0001b0 96 2d 24 3d 03 bf 19 3d 20 bf 97 3c 80 5a 9f bc
       0.040082537 0.03753568 0.018523753 -0.019452333
0001c0 21 6e 03 be 94 b2 cd 3d 86 89 20 bd e3 e5 14 3e
       -0.1283498 0.10043827 -0.039193653 0.1454082
0001d0 c4 93 0f bd a8 16 01 bd 2e 50 4b 3d de 44 8b 3d
       -0.03505303 -0.031515747 0.049637012 0.06800245
0001e0 04 87 8e bb 7c c8 9f bd 87 28 4a bb 15 3d fa 3d
       -0.004349591 -0.07801911 -0.003084691 0.12218682
0001f0 b5 4f 88 bc 8c ac 07 bd e5 dd 9d bb c0 18 ad bd
       -0.01663957 -0.033123538 -0.0048177117 -0.08451986
000200 6a ab ac bd f0 09 ee bd 8f 6c 5e bd f0 88 52 3c
       -0.08431132 -0.11622989 -0.05430275 0.012850031
000210 84 1d dc bd e5 06 a5 bd 8e e0 17 3d 4f c1 ed bd
       -0.10747817 -0.08057956 0.037079386 -0.11609136
000220 88 6f 24 3e 2c f0 17 3e d1 12 e4 3d 90 0d ac bd
       0.16058171 0.14837712 0.111364014 -0.08401024
000230 e5 b5 4f bd e7 73 80 3d f3 a4 20 bd 12 b1 03 3c
       -0.050710578 0.062721066 -0.039219808 0.008037822
000240 71 b8 60 3b 3d 7b 96 bd 85 f1 9a bd 20 4e ac 3d
       0.0034289623 -0.073477246 -0.075655974 0.08413339
000250 a4 41 53 3d a4 00 00 bc 33 81 86 bd 9a 29 dd bd
       0.05157627 -0.007812653 -0.065676115 -0.107989505
000260 46 35 3b bc 9d 37 e6 3c eb 84 d6 bd a9 40 c5 bb
       -0.011426276 0.02810269 -0.10474571 -0.006019671
000270 db 04 02 be ad 05 a6 3c 5c 20 96 3d 9c 38 c4 3d
       -0.12697165 0.020266378 0.07330391 0.0958111
000280 5c 93 4e bd 45 f3 17 bd d8 e5 a4 3d 80 90 b8 3c
       -0.0504335 -0.037097234 0.08051652 0.02252984
000290 46 b3 3e 3d 50 bf 93 bd 4a 2e c2 bc e4 c1 a8 bd
       0.046557687 -0.07214224 -0.023703713 -0.08240107
0002a0 f0 7c 5f 3b dc 75 8a 3d 1e 61 e7 3a 12 f6 14 be
       0.0034101568 0.06760761 0.0017652845 -0.14546993
0002b0 8a d0 f7 bd 42 f5 01 3d 34 40 bc bd 85 74 1f 3e
       -0.121003225 0.031728037 -0.09191933 0.15571792
0002c0 a2 cc 0d be 32 25 01 bd 95 35 0a 3e 5f 90 98 bc
       -0.13847592 -0.031529613 0.13497002 -0.018623529
0002d0 d5 a2 2b 3b 10 90 92 bd c3 cc 49 bb ee f7 57 3d
       0.0026189585 -0.07156384 -0.0030792214 0.05272668
0002e0 4c f0 cf 3b d0 f4 03 bc 48 97 3d bd f4 ea 5b ba
       0.0063457843 -0.008053973 -0.04628685 -0.0008389198
0002f0 aa cb e4 bd 1a f8 bf 3d b0 0f b3 bd fe 81 de 3d
       -0.11171658 0.093734935 -0.087432265 0.10864638
000300 d3 54 ea bd 41 d2 5b bd 4f f8 55 3d a0 9b b0 3d
       -0.1144196 -0.05366731 0.05223876 0.08623433
000310 ed bd 02 be 1a c6 8e bd 57 02 ec bd 10 dc cc bd
       -0.12767763 -0.069713786 -0.11523884 -0.10002911
000320 97 f4 9d 3d b8 d9 cb 3d c3 fb 10 be 97 55 c5 3d
       0.077126674 0.09953636 -0.1415854 0.096354656
000330 38 f2 a5 bc 91 95 10 bd 51 03 ad 3d 33 d5 d1 bc
       -0.0202571 -0.035298888 0.08447898 -0.025614357
000340 f1 8d 14 be 04 4e b8 3c c0 1e 6c bd 0c fd 03 3e
       -0.14507271 0.022498138 -0.057646513 0.12889498
000350 e2 eb 64 3c 6c 38 6e bd 7e a2 cd 3d c6 ac 1b 3d
       0.0139722545 -0.058159277 0.100407586 0.038006566
000360 d9 28 f1 3c 7b 8d 57 bd 29 ab 01 3d 03 a1 35 bd
       0.029438423 -0.05262516 0.03165737 -0.044343006
000370 8c 7d 7c bd d6 b3 69 bc 5a 60 31 bc c2 da 78 bd
       -0.06164317 -0.014264068 -0.010826195 -0.0607555
000380 b9 e8 c6 bd f6 55 05 bd 66 a7 63 3d 2d bb 9e 3d
       -0.09712357 -0.032552682 0.055579565 0.07750545
000390 4d 91 be 3c c4 04 8a bd ee c0 c4 bd dc 2d bb 3d
       0.023262644 -0.0673919 -0.09607111 0.09139606
0003a0 6f 03 05 3d a5 bc af bd 59 7a 9b 3d b9 a4 8b 3d
       0.032473978 -0.08580903 0.07591695 0.06818528
0003b0 10 89 c7 3c d9 ce 5e 3d 0f 9b 1a bc 6d 1a 25 3d
       0.024357349 0.054396484 -0.009436383 0.040308405
0003c0 14 ba 5a bd 72 db 88 bd c0 ff f1 bd 38 b3 03 3e
       -0.053400114 -0.06682481 -0.118163586 0.12861335
0003d0 9f a3 a3 bd 23 88 a9 bb d3 20 af bd 21 7e 49 3d
       -0.079901926 -0.0051736995 -0.085511826 0.04919255
0003e0 b3 8e d4 bd bb 73 b3 bd b5 bd a0 3d 22 e3 4c bd
       -0.1037878 -0.08762308 0.07848684 -0.0500213
0003f0 7b 39 06 bd b7 86 56 3d fb 0a f7 bd cd 47 a7 bd
       -0.03276966 0.052374568 -0.12062641 -0.08167992

bias f4 [80]
000000 22 95 be bb 4b 56 89 bd 3a 34 19 bc cd b4 a8 3d
       -0.005816118 -0.06705912 -0.009350831 0.0823761
000010 19 c7 3b bd 4d fe 1c be 64 5b 14 be 63 ea cc bc
       -0.04584417 -0.15331383 -0.14487988 -0.025014108
000020 4b ea 04 be d5 80 26 3c 1a b2 e9 3d 11 cf e5 bc
       -0.1298 0.010162552 0.11410923 -0.028052839
000030 4b 9d f2 bd da b1 94 bd f9 98 22 bd 0e 38 85 bd
       -0.118464075 -0.07260485 -0.039696667 -0.06504832
000040 a9 61 89 3d 42 85 07 be e5 09 1d bc 11 31 e1 bc
       0.0670808 -0.13234428 -0.009584879 -0.027489217
000050 ab 29 06 be 1c 48 3c be 58 9a 96 bd cd 27 bc 3d
       -0.13101833 -0.18386883 -0.073536575 0.09187279
000060 8e 6f eb 3d ed 0d f3 bd 0a 05 60 3c a1 37 c6 3d
       0.11495887 -0.118678905 0.013673076 0.09678579
000070 7e 1b a2 b9 f2 77 0a be 52 0a 9a bd 79 55 49 bc
       -0.0003091953 -0.13522318 -0.075215 -0.012288445
000080 7f 64 4b be 06 e3 15 3e 9a 41 e1 bd 08 11 2c bd
       -0.19862555 0.14637384 -0.10998841 -0.04200843
000090 88 0c bd ba 88 53 e1 bd b4 8a 2a 3d 85 78 5d bd
       -0.001442329 -0.110022604 0.041636184 -0.054070015
0000a0 82 78 ca 3d 99 40 f7 bd 40 52 a8 3d 4a 2d c7 bd
       0.09886266 -0.12072868 0.08218813 -0.09725435
0000b0 6a 2d 8a bc e6 f1 3d bd 2f ef ed 3d 62 0c 54 bd
       -0.016867358 -0.04637327 0.11617886 -0.05176962
0000c0 c9 58 89 3d 81 88 aa 3c ae fa 05 bd 1b 37 fd 3d
       0.067063875 0.020817043 -0.03270977 0.12364026
0000d0 4d 4f 47 3d c8 1b 71 bd 71 8f bf bd fb 85 19 be
       0.04865961 -0.058864385 -0.09353531 -0.14992516
0000e0 28 4d 90 3c 65 40 a2 bd 7d d9 8f 3d 6a ad 10 3e
       0.017614916 -0.079224385 0.070239045 0.14128652
0000f0 e0 4f e5 3b ad 8e 17 3c 7c f5 2a be dc 87 65 bb
       0.006998047 0.009250325 -0.16695207 -0.0035023605
000100 74 8b e4 bd 41 f2 2c 3d 30 7e 13 be cf 30 3f be
       -0.11159411 0.04222322 -0.14403605 -0.18670963
000110 55 6b 8f bc 3f 3f c3 3d a9 e5 4d bd cd ea 1f be
       -0.017507235 0.095335476 -0.05026785 -0.15616913
000120 a2 a0 3f be 6f c5 83 3c 43 25 a8 3d 8e 4f 73 bb
       -0.1871362 0.016085355 0.08210232 -0.0037126276
000130 96 3b 4c bd 25 ce c4 3d 79 36 fa bd 20 46 1f be
       -0.049861513 0.096096314 -0.12217421 -0.15554094

weight f4 [5, 80]
000000 ca 01 66 bd 07 63 d1 bc cf f4 52 bd 07 c3 75 3c
       -0.05615405 -0.025559915 -0.051503 0.015000111
000010 af 55 4f bd 8a 67 c1 bd 9a 14 cc 3b a8 a9 61 3d
       -0.050618824 -0.09443577 0.006228042 0.055093437
000020 8b b3 2d 3d b3 09 8a 3d cd 07 00 bc 62 c0 b6 3c
       0.042407554 0.06740131 -0.00781436 0.022308532
000030 10 d0 1a bd 1a 07 d5 3c 93 8a c7 bc 2e 37 89 bc
       -0.03779608 0.026004363 -0.02435807 -0.016749945
000040 eb 37 e1 3c 5e ba 1f 3d bc 6f 87 ba ee fb 1e 3d
       0.027492484 0.038996093 -0.0010332982 0.038814478
000050 57 2c 0c bd 9a 4b 14 bd 85 74 e4 3c a3 29 d6 3c
       -0.034221973 -0.03620491 0.027887592 0.0261429
000060 5c 17 2a bd 1d 1a c0 bc 9f c9 3a 3d aa 79 93 bd
       -0.041526183 -0.023449952 0.045602437 -0.0720094
000070 ba 99 c6 3c 0b 46 c2 3c ee e3 50 3d 67 a7 24 bb
       0.024243224 0.02371504 0.05099862 -0.0025124194
000080 a0 4e 2c 3d 89 c1 69 3c cd 29 0b bd a7 40 01 3d
       0.04206717 0.014267334 -0.03397541 0.031555798
000090 8d e2 58 3c 15 60 92 bc 8d b7 9f 3c 1e e1 95 3d
       0.013237608 -0.017868081 0.019496704 0.07318328
0000a0 2b 35 6f bd a8 01 8d 39 e6 fa 96 3d 35 84 d3 bc
       -0.058400314 0.0002689485 0.07372074 -0.025819877
0000b0 d3 22 0e 3d df 49 53 bb 85 3c f1 bc c2 49 50 3d
       0.03470118 -0.0032240076 -0.029447803 0.05085159
0000c0 c2 b1 0f bd d1 33 47 3d 1e 36 ec bc 53 1e 31 3d
       -0.035081632 0.0486334 -0.028834399 0.04324181
0000d0 7f a6 07 3d 3d 0c de 3b 7b f9 7b bd d6 17 d2 bc
       0.033117767 0.0067763613 -0.06151722 -0.025646131
0000e0 d6 01 00 bd 17 c8 aa 3c 34 ad 45 bc bf 9d f9 bb
       -0.03125175 0.020847363 -0.012065221 -0.0076176818
0000f0 c5 6d a8 3c 4e ef 42 3d b8 ef 22 bc fe a8 46 bd
       0.020560155 0.0475915 -0.009944849 -0.048501007
000100 37 3a 93 3c b2 35 8e bb 0f 94 2f 3b c7 f5 01 bb
       0.017972095 -0.004339897 0.002679113 -0.0019830333
000110 1a 68 54 bd a0 e7 db 3c 50 d7 b7 3c 2c 03 4e 3b
       -0.05185709 0.026843846 0.022441536 0.0031434996
000120 f7 28 8c bd 12 92 c4 bb 46 a9 85 3c 10 f1 ab 3c
       -0.06843751 -0.0059988583 0.016316067 0.020988971
000130 0b 40 6b 3d 07 fd 45 3d 5a 2c bc bb 72 11 88 3b
       0.057434123 0.04833701 -0.005742592 0.0041524703
000140 74 01 ae 3d e6 01 59 bd a7 27 1f 3c 30 ed bb bc
       0.08496371 -0.052980326 0.009714044 -0.022940248
000150 3b 9c 25 3d 44 57 20 3d b2 76 cd 3a 0e 9b 69 3d
       0.040432196 0.039145723 0.0015675633 0.057032637
000160 06 98 74 3d ee d0 2b bb c9 9c 12 bd 06 41 06 3c
       0.059715293 -0.002621706 -0.035794053 0.008194214
000170 0d 9d a6 3c 79 67 f9 3c 98 29 11 3d d5 a6 6a 3d
       0.02033856 0.030444847 0.035440058 0.05728801
000180 5d 2a 9c 3c bd 7d 84 bc 2e ae 6f bd 86 30 37 3d
       0.01906317 -0.016173238 -0.05851572 0.04472401
000190 ff 88 e4 3a ea 95 1c bb eb 8a 2a ba 65 e3 bd 3c
       0.0017435848 -0.0023893067 -0.0006505686 0.02317972
0001a0 9b 04 61 3b a4 e1 cb 3b 14 82 40 bb a8 72 3d 3d
       0.003433502 0.006221967 -0.0029374408 0.046251923
0001b0 3b ab 5c 3d 21 e1 fb ba d5 a3 83 bd fa fb b3 3a
       0.053874236 -0.0019216874 -0.06427733 0.0013731711
0001c0 a5 f9 2f bd 75 49 bb 3c f0 9d 44 3b 7e 68 0d bb
       -0.04296269 0.022862175 0.0030001365 -0.0021577175
0001d0 26 81 73 3b e0 6d 7b 3c 0f 2e 15 bd 72 9c 10 bd
       0.0037155836 0.01534602 -0.036420878 -0.035305448
0001e0 bb ce d7 3c 93 87 c7 bc d3 18 b9 3c 6c a8 ea 3c
       0.026343694 -0.024356639 0.022594845 0.028644763
0001f0 1b a9 42 3d b4 be ba 3b 0f e1 8c 3d 7f 1d 48 bd
       0.047524553 0.005699003 0.06878864 -0.048856255
000200 d3 77 09 bd 60 08 75 3d c1 a1 e5 3c a2 b6 0e bd
       -0.03356154 0.05982244 0.028031232 -0.03484214
000210 70 64 62 3d a1 9b b1 bc be 8b dc bc 43 03 cb bc
       0.055271566 -0.021680655 -0.026922103 -0.024781829
000220 25 17 20 bd 61 72 f1 3b 95 ac a7 3b 66 26 29 3d
       -0.039084572 0.0073683714 0.005117009 0.041296385
000230 a6 4a 97 3c 54 55 d9 3c ae 13 0e bd 2d 02 a0 bc
       0.018468212 0.026529945 -0.034686737 -0.019532287
000240 20 24 07 bc 0b 69 26 bd a1 42 0c 3d e2 f0 96 ba
       -0.008248359 -0.04062752 0.03424323 -0.001151588
000250 2e 16 74 3d 61 c8 09 3d 9e bf 65 bc c2 60 ed 3c
       0.059591465 0.03363836 -0.014022736 0.028976802
000260 bf 63 f3 bc 60 c6 2d 3c 2d ef af 3c cc 4e ff 3c
       -0.029710649 0.010606378 0.021476353 0.031165503
000270 41 31 3a bd 35 28 95 bb 18 d8 ec bc 05 79 aa 3c
       -0.04545713 -0.004551912 -0.028911635 0.02080966
000280 89 fe 10 bc 9d 3e 93 bc 25 26 ab 3c 4f 12 dc 3b
       -0.008849748 -0.017974192 0.020892212 0.0067160497
000290 9f 35 cf 3c a0 d0 dd bc 78 f8 31 bd 7a b2 24 bc
       0.025294123 -0.02707702 -0.04344985 -0.010052318
0002a0 cd 6f 28 3d 8d 8f eb bc 6f fc 65 bc 46 cc 31 bc
       0.041122247 -0.028754974 -0.014037236 -0.010851925
0002b0 4c 8d c2 bc 9a f1 99 bc 9e 0a c2 bc 2d 79 ef 3c
       -0.023749016 -0.018791962 -0.023686703 0.029232586
0002c0 bc d9 15 bd 7f d3 74 bd 4d d4 7d bc 53 36 15 bd
       -0.0365846 -0.05977201 -0.015492511 -0.03642876
0002d0 73 ee 46 bd c3 ee 88 bc be dc 13 bc 8f e6 00 bd
       -0.048567247 -0.016715413 -0.009024797 -0.031469878
0002e0 43 8f 31 3d 06 a1 89 3b ca b9 30 3d f7 c9 c3 3a
       0.043349516 0.0042001037 0.043145932 0.001493751
0002f0 fe 48 09 3d 57 ff 1a bd 70 34 3e 3c e8 5d bf 3c
       0.033516876 -0.037841167 0.011609182 0.023360208
000300 c6 2b f4 ba 8f 6e b7 bc 93 b9 28 3c 6b 3e b2 bc
       -0.0018628768 -0.022391586 0.010298151 -0.021758279
000310 65 63 a7 3c 98 f0 22 3d 3a 29 a6 bb d7 d8 74 3d
       0.020433137 0.03978023 -0.0050708326 0.059777107
000320 d6 e2 1d 3d 3b f2 5c bd fd 43 17 3d 3c 4d d7 3b
       0.038546406 -0.053941946 0.036930073 0.0065704864
000330 e2 cb 31 3d 95 33 c0 3b c0 ab d3 3b f0 85 8f 3a
       0.04340733 0.005865524 0.006459683 0.0010949951
000340 e0 17 02 3c 50 a5 25 3d d7 cb f9 3c 5f 26 c9 3b
       0.007940263 0.040440857 0.030492706 0.0061386074
000350 98 58 86 bd 1c 31 ed 3c 69 44 5c b9 16 39 50 bd
       -0.06559867 0.028954081 -0.0002100632 -0.05083569
000360 cf 0e a6 bc 93 ba 26 bd 94 a8 68 3a 54 f4 e3 bb
       -0.020270733 -0.040705275 0.0008875218 -0.0069566164
000370 2d 2b 89 3a 9e 7f 05 bd d1 cf c4 bc a6 3f e8 3c
       0.0010465138 -0.03259241 -0.024024876 0.028350662
000380 96 b8 f5 3c 9c a2 df 3c 9a 73 87 3b 58 0e ab 3b
       0.029995244 0.027299218 0.004133654 0.005220216
000390 09 0e c9 bc 7c 9f 96 bc f0 c5 c1 bc c8 fa aa 3c
       -0.024542825 -0.018386595 -0.023653954 0.020871535
0003a0 33 76 73 bd 4f e0 70 bd 78 56 00 bd 78 90 3a bd
       -0.059438895 -0.058807667 -0.031332463 -0.045547932
0003b0 8f d5 85 3c fb e6 bc 39 94 ff 6c bd 28 34 cb bc
       0.016337184 0.00036030248 -0.057860926 -0.024805143
0003c0 36 10 23 bd f1 2e 1b 3d 8a 6b 86 3d c8 73 db b9
       -0.03981038 0.037886564 0.0656348 -0.000418572
0003d0 ff d0 33 3d 18 7d 08 3d 85 67 90 bc 4e 70 0e bd
       0.043900486 0.033322424 -0.017627487 -0.03477507
0003e0 fa 1c d2 bc 92 85 76 bd 6d 44 50 3d 0e 92 3c bb
       -0.025648583 -0.060185976 0.050846506 -0.0028773579
0003f0 be 3f e8 bc 41 82 b8 3c 14 1e 56 3d ba c3 ce 3b
       -0.028350707 0.022523047 0.05227478 0.0063099535

bias f4 [5]
000000 02 15 08 bd 34 96 61 bd 31 cf 17 3d 72 91 b3 bc
       -0.03322316 -0.055074885 0.037062827 -0.02191994
000010 cd fa 58 3d
       0.052973557
