final_project/mlruns/3/0671d91d15a34277869ed49560246e78/artifacts/cvae_20/data/model.pth (torch, 50311 bytes, 10 tensors)

weight f4 [80, 17]
0	0x3e13a803	0.1441956
1	0x3e61d1c1	0.22052671
2	0xbd20be40	-0.039243937
3	0xbe494545	-0.1965533
4	0xbc7c3160	-0.015392631
5	0x3daa6c74	0.08321467
6	0x3e177841	0.14791967
7	0xbe3b6366	-0.18299636
8	0xbdc786da	-0.09742518
9	0x3c0120ac	0.007881325
10	0x3e3d05fc	0.18459314
11	0x3e559b05	0.20859917
12	0x3c2e98bc	0.010656532
13	0x3cd36399	0.025804328
14	0x3d8e7e6f	0.06957709
15	0xbd45c0bf	-0.04827952
16	0xbdb72d36	-0.0894417
17	0xbde88f92	-0.11355509
18	0xbe3e6e3b	-0.18596737
19	0x380d2c98	3.365855e-05
20	0x3db20707	0.086927466
21	0xbe06490d	-0.13113804
22	0xbab8754d	-0.0014073044
23	0x3e6e79b2	0.2328861
24	0x3d7ecf9e	0.062209718
25	0x3e84906e	0.2589144
26	0xbde9202e	-0.11383091
27	0x3d775e83	0.060392868
28	0xbcfc6e30	-0.03081426
29	0x3e752d2d	0.23943014
30	0xbe0a323c	-0.13495725
31	0xbe747e16	-0.23876223
32	0xbdd0ec89	-0.102013655
33	0x3ccc1fc6	0.024917495
34	0x3e955a7c	0.29170597
35	0x3e0bcb47	0.13651763
36	0xbdd2aa05	-0.10286335
37	0xbd48fd44	-0.049069658
38	0xbe3063ce	-0.17225572
39	0x3dcb1b52	0.0991732
40	0x3d8c2812	0.0684358
41	0xbd5464a4	-0.05185379
42	0x3d261ea8	0.04055658
43	0xbe62ca69	-0.22147526
44	0xbe2094d9	-0.15681781
45	0x3da7cbb9	0.08193154
46	0x3e0f3d33	0.1398819
47	0xbe1d1c05	-0.1534272
48	0xbe748d58	-0.23882043
49	0x3e66f795	0.22555383
50	0xbe47db4c	-0.19517249
51	0xbd90da60	-0.07072902
52	0xbe5eb77a	-0.21749678
53	0x3e6ca70e	0.23110601
54	0xbe27928a	-0.16364494
55	0xbd599cfe	-0.053128235
56	0xbe5cd760	-0.21566534
57	0x3dac2269	0.08405001
58	0x3e290103	0.16504292
59	0xbe0665c6	-0.13124761
60	0xbdc14fa7	-0.094390206
61	0x3e46b38e	0.19404432
62	0xbe189319	-0.14899863
63	0xbe592376	-0.21204934
64	0xbe32f8e2	-0.17477754
65	0xbd44e711	-0.048071925
66	0x3e5d6c73	0.21623401
67	0x3e0f5092	0.13995579
68	0xbe3d64a0	-0.18495417
69	0x3e19c85f	0.15017842
70	0x3b6db00e	0.0036268267
71	0xbe77b1dd	-0.24188943
72	0x3c74b071	0.014934645
73	0x3cae6080	0.02128625
74	0xbd06e3be	-0.032932036
75	0x3c4dab27	0.012553013
76	0xbdacf18d	-0.0844451
77	0x3daec0a0	0.08532834
78	0x3b6de6ce	0.00363009
79	0x3d8c4af8	0.06850237
80	0xbe0ff464	-0.14058071
81	0x3e4ddc6f	0.2010362
82	0xbe243bfe	-0.1603851
83	0xbda8327c	-0.08212754
84	0x3e327cfc	0.1743049
85	0xbe035360	-0.12824774
86	0xbe4e0b6d	-0.20121546
87	0xbcf36ef7	-0.029715998
88	0xbde96f95	-0.11398236
89	0x3dcf274c	0.10114917
90	0x3e485764	0.19564587
91	0x3c2fffdc	0.010742154
92	0x3e877047	0.26452848
93	0xbd8a5183	-0.067538284
94	0xbc654f4b	-0.013995956
95	0x3e268fa4	0.16265732
96	0xbde91d90	-0.11382592
97	0x3e540a77	0.20707117
98	0x3c9239e3	0.017849868
99	0x3d873cf6	0.06603424
100	0x3dead053	0.11465516
101	0xbe0d3818	-0.1379093
102	0x3dc932ef	0.09824168
103	0x3df0089a	0.117203906
104	0xbdbffbe1	-0.09374214
105	0x3e2e38fc	0.17013925
106	0x3e4392d7	0.19098984
107	0x3d515716	0.051108442
108	0xbe11e7d7	-0.14248596
109	0xbdb5bcb0	-0.0887388
110	0xbc43727f	-0.011929153
111	0x3e55cd1e	0.20879027
112	0x3e6344f3	0.22194271
113	0x3d936620	0.07197213
114	0xbc539e65	-0.012916182
115	0xbe47a663	-0.19497065
116	0x3e0dc9c8	0.13846505
117	0x3d8aff93	0.06787028
118	0x3e5d1a42	0.21592048
119	0x3db44e79	0.0880403
120	0xbe53290b	-0.20621125
121	0x3d7e3256	0.062059723
122	0xbd1799a6	-0.037011765
123	0xbe367e44	-0.17821604
124	0xbd291bd9	-0.041286323
125	0xbdf00ee6	-0.11721592
126	0xbe2e822a	-0.17041841
127	0xbe07d8b4	-0.1326626
128	0xbe9078a5	-0.28217044
129	0x3dfd5ae8	0.123708546
130	0xbe64f932	-0.22360685
131	0x3bf48a5b	0.0074627823
132	0xbd1996ae	-0.037497215
133	0x3c2d85ad	0.010590953
134	0x3de499c6	0.111621425
135	0xbe12da8f	-0.14341186
136	0xba624a4c	-0.0008632287
137	0xbdd3364f	-0.10313093
138	0x3e284b11	0.16434886
139	0x3df02649	0.11726052
140	0x3e23aec7	0.15984641
141	0xbe056098	-0.13025129
142	0xbe53398d	-0.20627423
143	0xbd50c8e9	-0.050972853
144	0x3e83fb66	0.2577774
145	0x3da88c1e	0.0822985
146	0x3e00cb53	0.12577562
147	0xbe54cfab	-0.20782344
148	0x3d4924ad	0.049107242
149	0xbd6b5b64	-0.057460204
150	0xbe40a396	-0.18812403
151	0x3d0721d3	0.03299124
152	0xbe5cbbaa	-0.21555963
153	0xbe4c1fef	-0.19934057
154	0xbe4d7cd3	-0.20067148
155	0x3e072079	0.13195981
156	0x3e547ae4	0.20750004
157	0xbd6b6514	-0.057469442
158	0x3e1ff44d	0.15620537
159	0x3e090299	0.13379897
160	0xbd46cdd8	-0.04853615
161	0xbd88644f	-0.06659757
162	0xbe817e0b	-0.25291476
163	0xbdada977	-0.084795885
164	0xbe58b598	-0.21163023
165	0x3de8eafa	0.11372943
166	0xbdaf1296	-0.08548467
167	0x3d55678c	0.052100703
168	0x3e50d0f6	0.20392212
169	0x3dd46982	0.103716865
170	0xbd6b92dd	-0.057513107
171	0x3e697db6	0.22801861
172	0x3d43be67	0.047789004
173	0xbdb65935	-0.08903734
174	0xbdc45440	-0.09586382
175	0x3e22275b	0.15835325
176	0x3d914b3e	0.070944294
177	0xbdb9ded6	-0.09075706
178	0x3dd86ed9	0.105680175
179	0x3d992810	0.074783444
180	0xbbfa8772	-0.007645541
181	0xbda6a32f	-0.081365936
182	0xbe66f4e5	-0.22554357
183	0x3d8f1ebd	0.06988285
184	0xbde2d52e	-0.11075817
185	0x3e177e0b	0.14794175
186	0x3ddf2d43	0.10897305
187	0xbe02de20	-0.12780046
188	0x3de2d143	0.1107507
189	0x3da8aed2	0.08236469
190	0x3cb29614	0.021800078
191	0xbdb9d06f	-0.09072959
192	0x3e619bf2	0.22032145
193	0xbe130f85	-0.14361389
194	0x3e6c07a3	0.23049788
195	0x3d67d938	0.05660364
196	0x3ca6dae2	0.020368043
197	0xbd85303b	-0.0650334
198	0x3e035898	0.12826765
199	0xbe250dde	-0.16118571
200	0x3d50c0ac	0.050964996
201	0x3df0f39e	0.11765216
202	0x3e528979	0.20560254
203	0x3ce55d67	0.02799864
204	0xbd10d675	-0.035360772
205	0x3e2e8e97	0.17046581
206	0x3cd73a74	0.02627299
207	0xbd8d46e3	-0.06898286
208	0x3dc2fbdf	0.09520697
209	0x3dbea5ed	0.093089916
210	0x3e349c2d	0.17637701
211	0xbd9378b9	-0.072007604
212	0x3cf9e486	0.030504476
213	0x3d3c9b70	0.046046674
214	0xbe861767	-0.2618973
215	0xbb761977	-0.00375518
216	0xbd372d49	-0.04472092
217	0xbe26f647	-0.16304885
218	0xbc4440b9	-0.011978322
219	0xbd0ff5bd	-0.035146464
220	0xbe0acdc8	-0.13555062
221	0x3e7177ca	0.23580852
222	0xbe662445	-0.22474773
223	0x3de4d8a3	0.11174133
224	0xbe552540	-0.20814991
225	0x3e188ce8	0.14897501
226	0x3e08411f	0.13306092
227	0x3dcf0e46	0.10110144
228	0xbbaa055e	-0.005188628
229	0x3ddcf76d	0.1078938
230	0x3e273c22	0.16331533
231	0x3d06542f	0.032795127
232	0xbdb47667	-0.08811646
233	0xbe6cbb47	-0.23118316
234	0xbe4ff9ec	-0.20310181
235	0x3bdcde65	0.0067403787
236	0x3e466dc7	0.19377814
237	0x3e602614	0.21889526
238	0x3c7e4703	0.01551986
239	0xbd95f17a	-0.073214486
240	0x3e2d21ce	0.16907427
241	0x3d613601	0.054983143
242	0xbda1ba8c	-0.07896909
243	0xbe1574a6	-0.14595279
244	0xbd88857b	-0.066660844
245	0xbe6c1c09	-0.2305757
246	0xbc29fbaf	-0.010374947
247	0x3c429bb2	0.011877941
248	0x3dc74b3a	0.09731145
249	0xbe03d12c	-0.12872761
250	0x3dc8eef7	0.09811204
251	0xbd8fae1d	-0.07015631
252	0xbe552862	-0.20816186
253	0xbdf479c4	-0.119372874
254	0x3e206046	0.15661725
255	0xbe4b58fa	-0.1985816

bias f4 [80]
0	0xbe24edf4	-0.16106397
1	0xbb0cab96	-0.0021464578
2	0x3eb44d87	0.352154
3	0xbe4117eb	-0.1885678
4	0x3b8aa393	0.0042309253
5	0xbe028f7c	-0.12750047
6	0xbe3559c7	-0.17710029
7	0x3e856281	0.26051715
8	0x3e09b13e	0.13446519
9	0xbc3a1466	-0.011357402
10	0x3dc8f1e9	0.09811766
11	0x3deddaaa	0.116139725
12	0x3d9c055b	0.07618209
13	0xbdc2db19	-0.09514446
14	0x3c5a355e	0.013318388
15	0xbe09996a	-0.13437429
16	0xbe016a7c	-0.12638277
17	0x3b8eb222	0.004354731
18	0x3c3feda3	0.011714372
19	0x3eaab3ca	0.33340293
20	0xbe6e90e1	-0.23297454
21	0x3db56354	0.08856836
22	0xbca20a89	-0.019780414
23	0x3e5e9163	0.21735148
24	0xbe01422d	-0.126229
25	0xbdf29f13	-0.11846747
26	0xbdb3c95d	-0.087786414
27	0x3df2b7f0	0.118514895
28	0xbcf0a221	-0.029374184
29	0x3d40b66c	0.04704897
30	0xbdde13d0	-0.10843623
31	0x3e8d375b	0.27581295
32	0x3de69c7e	0.11260317
33	0x3e206292	0.15662602
34	0x3e1fa007	0.1558839
35	0xbdd9dd97	-0.10637968
36	0xbd9e9508	-0.07743269
37	0x3c0b6aa5	0.008509313
38	0x3e6624c5	0.22474964
39	0xbe070b9a	-0.1318802
40	0x3ea5a6ab	0.3235372
41	0xbe0d2fda	-0.13787785
42	0xbe5a263f	-0.21303652
43	0x3e8a91ce	0.27064365
44	0x3ca27a28	0.01983364
45	0xbd993437	-0.07480662
46	0x3e93a58f	0.2883725
47	0x3e460037	0.1933602
48	0x3ea9024d	0.33009568
49	0x3c488bc1	0.012240351
50	0xbd83f5c2	-0.06443359
51	0x3d9f74ec	0.07785973
52	0x3ed2443e	0.4106769
53	0x3ec442da	0.38332254
54	0x3da8fe42	0.08251621
55	0xbd0506dd	-0.03247725
56	0xbe1bb6bd	-0.15206428
57	0x3e222078	0.15832698
58	0x3e3d607d	0.18493839
59	0x3e14611d	0.14490171
60	0x3ea4db23	0.32198438
61	0x3e1a51de	0.15070292
62	0x3e557292	0.20844486
63	0xbe107758	-0.14108026
64	0xbdd1f778	-0.10252279
65	0x3dcfea2a	0.10152085
66	0x3e9734f1	0.2953258
67	0xba8d5dde	-0.0010785421
68	0x3e0acd0b	0.1355478
69	0x3e6dcd07	0.23222743
70	0x3ec60392	0.386746
71	0x3de062fe	0.10956381
72	0x3ddb3805	0.10704044
73	0x3e01c37c	0.12672228
74	0x3db44cae	0.08803688
75	0x3d8da8f1	0.06916989
76	0xbda5014f	-0.0805689
77	0x3e570557	0.2099813
78	0xbd6314f2	-0.055439897
79	0x3e359f5c	0.17736572

weight f4 [40, 80]
0	0xbd833c17	-0.064079456
1	0x3d474524	0.048649922
2	0xbcf26898	-0.02959089
3	0x3b8f63b1	0.004375898
4	0x3dd2847e	0.10279177
5	0x3dead518	0.11466426
6	0x3dc44cee	0.09584986
7	0xbd802f07	-0.0625897
8	0xbc95979e	-0.018260773
9	0x3dcd3e5e	0.10021661
10	0x3c4d8ac9	0.012545296
11	0x3d1d99d4	0.03847678
12	0xbd8eeebe	-0.0697913
13	0xbda400d1	-0.08007968
14	0xbd5bc200	-0.05365181
15	0xbcd8a306	-0.026444923
16	0x3d0122cf	0.031527337
17	0x3d44cc06	0.048046134
18	0xbd562013	-0.052276682
19	0x3df4ca00	0.11952591
20	0xbd8b6588	-0.06806475
21	0x3d2712b5	0.040789325
22	0x3e013288	0.12616932
23	0xbd709da7	-0.0587441
24	0x3d308f03	0.043105137
25	0x3da9508a	0.08267315
26	0xbc9b4013	-0.018951451
27	0xb9e137a0	-0.00042956788
28	0x3c87ea8b	0.016591331
29	0xbd0e6bb7	-0.034770694
30	0x3ce47e4b	0.027892252
31	0x3cdf980b	0.02729418
32	0xbcd966d1	-0.026538284
33	0x3d6c1067	0.05763283
34	0xbcbc3344	-0.022973664
35	0x3d851179	0.06497473
36	0xbb3c5a7b	-0.0028740454
37	0xbd8b39b0	-0.067981124
38	0x3d68ae1a	0.05680666
39	0xbd675326	-0.05647578
40	0xbaafbe91	-0.0013408234
41	0x3d8e552f	0.06949841
42	0xbcecc5ff	-0.028903006
43	0xbda1ab0b	-0.07893952
44	0xbd04076d	-0.032233644
45	0x3c1f1574	0.009709705
46	0xbd60b20a	-0.05485729
47	0xbd2f6b63	-0.04282702
48	0xbd6d19bc	-0.05788587
49	0xbd10ac8c	-0.035320804
50	0xbd03f611	-0.03221709
51	0x3d0a72c8	0.03380087
52	0x3df34250	0.118778825
53	0xbc35b5d9	-0.011090719
54	0x3d53aa40	0.051676035
55	0xbd49fa87	-0.049311187
56	0x3daf9289	0.08572871
57	0xbc49f7ac	-0.012327116
58	0x3e085398	0.13313138
59	0x3d661eef	0.056181844
60	0x3da77589	0.08176715
61	0x3d1ce5ba	0.03830502
62	0xbda47471	-0.08030022
63	0xbc58e26a	-0.013237575
64	0xbd460499	-0.04834423
65	0xbcfb3b7f	-0.030668018
66	0x3ddedef3	0.10882368
67	0xbdbc2a12	-0.09187712
68	0xbd9bd193	-0.076083325
69	0xbd97e530	-0.07416761
70	0x3de6940d	0.11258707
71	0xbd623c59	-0.055233333
72	0xba3f48e0	-0.0007296931
73	0x3db50543	0.08838894
74	0xbdd6205e	-0.10455392
75	0x3d41a3c9	0.04727534
76	0xbd3f766e	-0.046743803
77	0x3cecff2e	0.028930273
78	0x3d3064fa	0.04306505
79	0x3d4fae87	0.05070355
80	0xbdc1720b	-0.0944558
81	0x3d73b08d	0.059494544
82	0x3a14b5d1	0.00056728447
83	0xbd999d5c	-0.07500717
84	0xbc923a30	-0.017850012
85	0x3d88b8c8	0.06675869
86	0xbdc19585	-0.09452347
87	0x3d3c674f	0.04599696
88	0xbd86e470	-0.0658654
89	0xbd9248eb	-0.07142814
90	0xbccb6a8f	-0.024831085
91	0xbe08ca0e	-0.13358328
92	0xbd7843f0	-0.060611665
93	0x3dab7cc4	0.083734065
94	0x3dc5fb76	0.09667103
95	0x3d93e619	0.07221622
96	0xbd2d2f7d	-0.042281616
97	0xbd012893	-0.031532835
98	0xba66128d	-0.0008776568
99	0x3d37d045	0.044876356
100	0xbd2eb51b	-0.042653184
101	0xbdeaa3df	-0.11457037
102	0xbbb07ccc	-0.0053859707
103	0x39c01377	0.00036635596
104	0x3d5b8210	0.053590834
105	0xbb5f188b	-0.0034041728
106	0xbd8d017d	-0.068850495
107	0xbdabeddf	-0.0839498
108	0xbd114f6d	-0.035476137
109	0xbe0e08a5	-0.13870485
110	0xbde1c948	-0.110247195
111	0x3d4b2367	0.04959431
112	0xbd825cdb	-0.06365367
113	0x3ca2abcc	0.01985731
114	0xbd037265	-0.032091517
115	0xbcd5eb88	-0.026113287
116	0x3da4adda	0.08040972
117	0x3b042807	0.002016546
118	0xbd726c6f	-0.05918544
119	0x3da5bdd9	0.08092851
120	0xbdf6e665	-0.12055663
121	0x3cc17551	0.023615511
122	0x3d77ed70	0.060529172
123	0x3be393ac	0.006945094
124	0x3d65d2b6	0.056109153
125	0xbddf4f9f	-0.109038584
126	0x3cef070b	0.029178163
127	0xbd48327d	-0.048876274
128	0x3d7b11fc	0.061296448
129	0xbd67cea5	-0.056593556
130	0xbd0c1028	-0.034195095
131	0x3d079324	0.03309931
132	0xbc860175	-0.016358117
133	0xbdd64564	-0.10462454
134	0xbcc0567e	-0.023478743
135	0x3cf5750d	0.02996304
136	0xbcb0371e	-0.021510657
137	0xbdc0a763	-0.094069265
138	0xbdbef10f	-0.09323322
139	0x3d7dc528	0.0619556
140	0xbd869f22	-0.06573321
141	0x3dab0b71	0.08351792
142	0x3d2d7155	0.04234441
143	0xbd772072	-0.060333677
144	0x3d74f3bf	0.059802767
145	0xbc136703	-0.008996728
146	0xbdbb5b9d	-0.09148333
147	0xbddd9ca3	-0.10820892
148	0xbcb9dc86	-0.022688162
149	0xbc71ea32	-0.014765309
150	0xbe132294	-0.1436866
151	0x3d848617	0.06470888
152	0xbd2ee0bb	-0.04269479
153	0xbcdd4db9	-0.0270146
154	0xbbeea35f	-0.007282659
155	0x3d8f82e1	0.07007385
156	0xbde4ca57	-0.11171406
157	0x3d6a158d	0.05714946
158	0x3d34e589	0.044164214
159	0xbd350640	-0.044195414
160	0xbdea57b7	-0.114425115
161	0xbd82b4e1	-0.06382156
162	0xbd88eab9	-0.06685395
163	0x3d956055	0.072937645
164	0x3cc6e376	0.024278384
165	0xbdc2b00c	-0.095062345
166	0xbc942414	-0.01808361
167	0xbe0bdcb9	-0.13658418
168	0x3c9eece6	0.019400071
169	0x3cf5bf88	0.029998556
170	0x3da0b99b	0.078479014
171	0x3c98f53c	0.018671624
172	0x3baecf3d	0.0053347633
173	0x3c85d540	0.016337037
174	0x3d8aebb7	0.0678324
175	0xbde5daf4	-0.112234026
176	0xbcdbe1d0	-0.026841074
177	0xbdffe8c0	-0.124955654
178	0xbded5dc7	-0.11590152
179	0xbcb7b0a4	-0.022423096
180	0xbc509cfa	-0.012732739
181	0xbdee2a77	-0.11629193
182	0xbd0e14fa	-0.034687974
183	0xbde37da6	-0.1110795
184	0xbd69be32	-0.05706615
185	0x3d497a76	0.049189053
186	0xbcce9222	-0.025216166
187	0x3d54a5ca	0.05191592
188	0x3dbc4ccb	0.091943346
189	0x3db3c4ee	0.08777796
190	0x3d3d03ad	0.046146084
191	0xbdb274e6	-0.08713703
192	0xbdb280b5	-0.08715955
193	0x3cc25df7	0.023726447
194	0x3db59fcd	0.0886837
195	0xbd07e884	-0.03318073
196	0x3c88c033	0.01669321
197	0xbd69033f	-0.05688786
198	0xbde17644	-0.110088855
199	0xbdd70748	-0.10499436
200	0xbd737872	-0.059441037
201	0x3dc60d0b	0.096704565
202	0xbdec1f58	-0.11529416
203	0x3d4b0256	0.049562775
204	0x3d0ff2bf	0.03514361
205	0x3b85447d	0.0040670023
206	0xbdef362b	-0.116802536
207	0xbd911a0a	-0.07085045
208	0xbc1068a9	-0.008814015
209	0x3da35f36	0.079771444
210	0x3c38d1d7	0.0112804985
211	0x3d9a665a	0.07539053
212	0x3db6e129	0.08929665
213	0x3c448172	0.011993753
214	0xbd620a80	-0.055185795
215	0xbde2bf7c	-0.11071679
216	0x3db23633	0.08701744
217	0xbcd34082	-0.025787596
218	0xbded34af	-0.11582314
219	0xbd1530d4	-0.03642352
220	0x3d6af085	0.057358284
221	0x3cc07787	0.023494495
222	0xbde8ca9c	-0.1136677
223	0x3cdbd7d4	0.026836313
224	0x3d22fe62	0.03979338
225	0xbc454da3	-0.012042436
226	0x3d5f1163	0.05445994
227	0xbd0e682b	-0.03476731
228	0xbdf31b94	-0.118704945
229	0xbd8bc7b5	-0.068252005
230	0x3cce83a8	0.025209263
231	0xbdbea63f	-0.09309053
232	0xbd328910	-0.043587744
233	0xbd35e006	-0.0444031
234	0x3d3a4482	0.04547549
235	0x3c9c97c0	0.019115329
236	0xbde01a8f	-0.10942566
237	0x3cfd0584	0.03088642
238	0xbe07d3dd	-0.13264413
239	0x3d35b4ae	0.044361763
240	0xbd917005	-0.07101444
241	0xbc27e9d7	-0.010248623
242	0x3ce80a90	0.02832535
243	0x3cdac81e	0.026706751
244	0xbc986b9a	-0.018605996
245	0x3dee41d3	0.11633649
246	0x3d6058fb	0.05477236
247	0xbbe1b703	-0.006888272
248	0xbc1156cd	-0.008870793
249	0x3ccd29f2	0.025044415
250	0x3d582e3e	0.052778475
251	0xbd124a5b	-0.035715442
252	0x3c1c3e19	0.00953629
253	0x3c012f60	0.00788483
254	0x3aea61ab	0.001788189
255	0x3db6418f	0.08899223

bias f4 [40]
0	0xbbbb2288	-0.0057109036
1	0x3c84c2aa	0.016206104
2	0x3d422024	0.047393933
3	0xbcd94420	-0.026521742
4	0xbda821b7	-0.082095556
5	0x3d69b541	0.057057623
6	0xbb07ab09	-0.002070131
7	0xbd4bd631	-0.049764816
8	0xbc45557d	-0.012044308
9	0x3e02640f	0.12733482
10	0xbd82a364	-0.063788205
11	0xbd4d19ce	-0.050073437
12	0xbd66b8a6	-0.05632844
13	0xbcd659d5	-0.026165882
14	0x3d74d933	0.05977745
15	0x3de6c1a3	0.11267402
16	0xbc331e33	-0.010932493
17	0x3c381b4d	0.011236978
18	0xbe0e7cac	-0.13914746
19	0xbbaa1cac	-0.0051914062
20	0x3d456f81	0.04820204
21	0xbbc90a49	-0.0061352593
22	0x3c51dc27	0.012808836
23	0xbd9a4392	-0.07532419
24	0xbdb08e7e	-0.08620928
25	0xbd92e52f	-0.071726196
26	0x3d8bc148	0.06823975
27	0x3bed8539	0.0072485474
28	0xbe1909f3	-0.14945202
29	0x3d2ccd78	0.042188138
30	0x3df1c408	0.11804968
31	0xbb626755	-0.0034546454
32	0x3b88bc76	0.004172857
33	0xbe1468a3	-0.1449304
34	0x3da343ce	0.07971917
35	0x3d9f18ca	0.077684
36	0xbdf2daaa	-0.11858113
37	0x3db63e10	0.08898556
38	0x3cbc9f00	0.023025036
39	0x3e08ef5f	0.13372563

weight f4 [40, 80]
0	0xbc2e979e	-0.010656266
1	0x3d087194	0.03331144
2	0xbe4c0364	-0.19923168
3	0xbc47ed73	-0.012202608
4	0xbd9c6e7d	-0.076382615
5	0x3d9326a9	0.07185108
6	0xbe035714	-0.12826186
7	0xbd265a1b	-0.040613275
8	0xbdf1733b	-0.117895566
9	0xbd821bcf	-0.0635296
10	0xbc9aa62e	-0.018878069
11	0xbc81f6df	-0.015864788
12	0x3c9b71a1	0.01897508
13	0x3db2e973	0.08735933
14	0xbd85b8b2	-0.065293685
15	0x3c844732	0.01614723
16	0xbe056235	-0.13025744
17	0xbe081d27	-0.1329237
18	0xbd3333b1	-0.04375047
19	0xbd208be2	-0.039195903
20	0xbd1ac29a	-0.037783243
21	0xbd9292b3	-0.07156887
22	0x3d559117	0.05214032
23	0xbe0c7680	-0.13717079
24	0xbd2b2fa7	-0.04179349
25	0xbd43756a	-0.047719397
26	0xbcf675a9	-0.030085402
27	0xbcb68574	-0.022280432
28	0xbdf41b42	-0.119192615
29	0x3cb31296	0.021859448
30	0xbdf16964	-0.1178768
31	0x3caf6776	0.021411639
32	0xbe236a0a	-0.1595842
33	0xbdbd1dba	-0.092341855
34	0xbc014715	-0.007890482
35	0x3d0dbe76	0.034605466
36	0xbc5ae465	-0.013360118
37	0xbd4f5cff	-0.050625797
38	0x3d6254ee	0.055256777
39	0x3d6c060f	0.057622965
40	0xbe41b5ac	-0.18916959
41	0xbd3a0783	-0.04541732
42	0xbdb3ff6c	-0.08788952
43	0x3c642ebe	0.01392716
44	0xbd97ddfb	-0.07415386
45	0xbd6006db	-0.054694038
46	0xbdf151da	-0.1178319
47	0xbcce62ca	-0.02519359
48	0x3d053dc8	0.032529622
49	0xbde7302e	-0.112884864
50	0xbdcf4300	-0.10120201
51	0xbe2d87f9	-0.169464
52	0xbdc59b00	-0.096487045
53	0xbe077651	-0.13228728
54	0x3d09ec48	0.0336726
55	0x3d5a39f3	0.05327792
56	0xbd6c166d	-0.057638574
57	0xbcfc2d6d	-0.03078338
58	0xbdd45215	-0.103672184
59	0xbe156d7f	-0.1459255
60	0xbe2830cb	-0.16424863
61	0xbe2460f9	-0.16052617
62	0x3c9a1109	0.018806951
63	0xbdfa80d7	-0.122316055
64	0xbdabffd0	-0.08398402
65	0xbc943909	-0.018093603
66	0x39c589ec	0.00037677528
67	0x3d82fb0a	0.06395538
68	0x3c890a66	0.016728591
69	0x3a85434c	0.0010167151
70	0xbdfc622f	-0.123234145
71	0x3ca04ced	0.019567931
72	0x3b909406	0.004412177
73	0x3d4faa38	0.050699443
74	0xbde5f809	-0.112289496
75	0xbe226348	-0.15858185
76	0xbe1301c3	-0.14356141
77	0xbb13bb57	-0.0022542083
78	0xbdb91d6b	-0.09038814
79	0xbdc5793a	-0.09642263
80	0xbcbdc687	-0.023165954
81	0xbd552b81	-0.05204344
82	0xbe39ea4a	-0.1815578
83	0x3c874273	0.016511178
84	0xbdf57d69	-0.11986811
85	0x3d9299da	0.07158251
86	0x3cf54f24	0.029944964
87	0xbdd7e49d	-0.105416514
88	0xbe112f5a	-0.1417822
89	0x3c27769a	0.010221148
90	0xbd580bf4	-0.052745774
91	0xbc62c54d	-0.0138409855
92	0xbcbfb713	-0.023402726
93	0x3da43c7b	0.08019348
94	0xbdf76c86	-0.12081246
95	0xbdc0b09f	-0.09408688
96	0xbe0eacf8	-0.1393317
97	0xbb93cf50	-0.0045107976
98	0x3b00117b	0.001954167
99	0xbde989ac	-0.11403212
100	0xbd805d59	-0.06267805
101	0xbe2fec13	-0.17179899
102	0xbd3b8545	-0.045781393
103	0xbd6ec034	-0.058288768
104	0xbc1e7b55	-0.009672959
105	0xbdaacda1	-0.08340002
106	0x3bef1e2c	0.007297298
107	0x3d46bbbb	0.048518877
108	0xbd948a0f	-0.07252895
109	0xbdc9338a	-0.098242834
110	0xbc5424ef	-0.012948259
111	0xbdfdf174	-0.12399569
112	0x3c387522	0.011258395
113	0xbe06f1d7	-0.13178192
114	0xbe00f15d	-0.12592073
115	0xbd3aa92c	-0.04557149
116	0xbda4f9ef	-0.080554835
117	0xbe2c4552	-0.16823319
118	0x3c8fdb7d	0.017560715
119	0xbdf70707	-0.12061887
120	0xbe0c586f	-0.1370561
121	0x3c95e50e	0.018297698
122	0x3d1ac56d	0.037785936
123	0xbdd8488a	-0.10560711
124	0xbb2cd0ba	-0.0026369528
125	0xbdbe23ef	-0.092841975
126	0xbdf307bd	-0.1186671
127	0xbe0916d6	-0.13387617
128	0x3cb800fb	0.022461405
129	0xbe2814f6	-0.16414246
130	0xbe043068	-0.1290909
131	0x3c797435	0.01522546
132	0x3ba78e54	0.0051134024
133	0x3a9e719c	0.0012088302
134	0xbd0aedf9	-0.033918355
135	0x3c048447	0.008088178
136	0x3cde51c2	0.027138595
137	0xbda2e8d6	-0.07954566
138	0x3ce0060e	0.027346637
139	0xbdfd6e3a	-0.1237454
140	0xbdbc999d	-0.09208987
141	0x3c5a7f04	0.013335947
142	0xbe32ea1a	-0.17472115
143	0x3d8643c6	0.065558955
144	0xbdd5e37e	-0.10443781
145	0xbe18e9f8	-0.14933002
146	0xbe158e25	-0.14605005
147	0xbe0048c7	-0.12527762
148	0xbd79ef20	-0.061019063
149	0xbcfce6d3	-0.030871784
150	0xbd8f5a06	-0.069995925
151	0xbba69f88	-0.0050849356
152	0xbd831882	-0.06401159
153	0xbda3d432	-0.079994574
154	0xbdd84247	-0.105595164
155	0x3b825241	0.0039770906
156	0x3cfe8e5f	0.031073747
157	0xbd2a0407	-0.041507747
158	0xbd5d9326	-0.05409541
159	0xbd861a05	-0.065479316
160	0x3cc05676	0.023478728
161	0xbdedfa1b	-0.116199695
162	0xbdf150be	-0.117829785
163	0x3c1f9d57	0.009742103
164	0xbd212b23	-0.03934778
165	0xbd14ca36	-0.036325656
166	0x3d35c43c	0.044376597
167	0xbe13d599	-0.1443695
168	0x3c23c2ed	0.009995204
169	0xbcfae45b	-0.030626466
170	0x3c4f0b00	0.0126369
171	0x3d3e6147	0.04647949
172	0xbc9d7464	-0.019220538
173	0xbdbde66a	-0.092724636
174	0x3d0373eb	0.03209297
175	0xbc255e8f	-0.010093345
176	0x3c7651e9	0.015034177
177	0x3d2dc277	0.042421784
178	0xbda75546	-0.081705615
179	0xbe4260f7	-0.18982302
180	0x3c88eeaf	0.016715376
181	0xbd26997b	-0.040673714
182	0x3cf8ee11	0.030386956
183	0xbdf8d236	-0.121494696
184	0x3d87dd48	0.06634003
185	0xbdb84868	-0.089981854
186	0xbdd5c8dd	-0.10438702
187	0x3cd79b1b	0.026319077
188	0xbd098591	-0.033574644
189	0x3d3fc0e2	0.046814807
190	0xbcb33eb1	-0.02188048
191	0xbde1f507	-0.110330634
192	0xbd416f34	-0.047225192
193	0xbdb4fc12	-0.08837141
194	0xbd34b2c4	-0.044115797
195	0xbe2b715b	-0.1674246
196	0xbe1f0420	-0.15528917
197	0xbc53e2d3	-0.012932497
198	0x3d333f54	0.043761566
199	0xbd7b1c9e	-0.06130659
200	0x3ccbc71e	0.02487522
201	0x3db15a4e	0.086598024
202	0xbd53d0d3	-0.051712822
203	0xbd52c2a1	-0.051455144
204	0xbda1d725	-0.07902364
205	0xbbf5f24c	-0.0075056907
206	0x3ab775a9	0.0013996857
207	0xbd47c716	-0.048773848
208	0xbba57334	-0.0050491337
209	0xbd6fe88e	-0.05857139
210	0xbe01b887	-0.12668048
211	0xbd3ab7e2	-0.04558552
212	0xbe224ca5	-0.1584955
213	0x3c9ebebe	0.019378062
214	0xbdf1b603	-0.11802294
215	0xbc724c2b	-0.014788668
216	0x3c0c347b	0.008557434
217	0xbe15282b	-0.14566104
218	0xbdc225d5	-0.09479872
219	0xbdb9c163	-0.09070089
220	0xbe45ba95	-0.19309457
221	0xbe177946	-0.14792356
222	0xbd027539	-0.031850073
223	0xbdff008e	-0.12451278
224	0xbd71faa5	-0.059076924
225	0xbd914f0b	-0.070951544
226	0xbd227b95	-0.03966864
227	0x3cc861be	0.02446067
228	0xbcb5e2dd	-0.022202903
229	0xbde3297c	-0.11091897
230	0xbde594a3	-0.11209991
231	0xbd7d9f13	-0.061919283
232	0xbe12df70	-0.14343047
233	0x3d585381	0.05281401
234	0x3cd79cd1	0.026319893
235	0xbd48424f	-0.04889136
236	0xbce86966	-0.02837057
237	0x3c067e95	0.00820889
238	0x3c91609c	0.017746262
239	0xbc048a1d	-0.008089569
240	0xbe061b10	-0.13096261
241	0x3cbd0fbd	0.023078794
242	0xbe212925	-0.15738352
243	0x3b8cd6e6	0.004298079
244	0xbce3820b	-0.02777197
245	0xbe157b52	-0.14597824
246	0xbdaefa55	-0.08543841
247	0xbe132fbb	-0.14373676
248	0xbdbde7d5	-0.09272734
249	0x3d4902c0	0.04907489
250	0x3cb0339b	0.021508982
251	0x3d62841f	0.05530178
252	0x3d5f1636	0.05446454
253	0x3d5dba27	0.054132607
254	0x3cf6a82c	0.030109487
255	0x3b82ba13	0.003989467

bias f4 [40]
0	0xbd17b883	-0.0370412
1	0xbdd02e1b	-0.10165044
2	0xbe270aca	-0.1631271
3	0xbd0a91d1	-0.033830468
4	0xbe3345ca	-0.17507091
5	0xbde247f8	-0.11048883
6	0xbda51a7c	-0.08061692
7	0x3c2ed948	0.010671921
8	0xbe375cb8	-0.17906463
9	0xbe2b0968	-0.16702807
10	0xbcb1380d	-0.021633172
11	0xbe344d67	-0.17607652
12	0xbd1b9bba	-0.03799031
13	0x3c4ff16a	0.012691835
14	0xbd7696a5	-0.06020226
15	0xba2bcfda	-0.00065541046
16	0xbde0d4c4	-0.10978082
17	0xbc8df0b0	-0.017326683
18	0xbdec74de	-0.11545728
19	0xbcab2885	-0.020893345
20	0xbe29775f	-0.16549443
21	0xbe1a12de	-0.1504626
22	0xbcfc8d42	-0.030829076
23	0xbdb627e4	-0.08894327
24	0xbdea4efb	-0.114408456
25	0xbe06ba1b	-0.13156931
26	0xbd85aac0	-0.065267086
27	0xbe48d1d3	-0.19611292
28	0xb939692a	-0.00017682152
29	0x3c0d5956	0.008627256
30	0xbe25dea6	-0.16198215
31	0xbdf91a0d	-0.12163172
32	0xbd3d31f9	-0.046190236
33	0xbe1dbf71	-0.1540506
34	0x39ba688c	0.00035554578
35	0x3ca1f13c	0.01976835
36	0xbdaefeda	-0.08544703
37	0xbcd4b2dc	-0.025964193
38	0xbc4fae87	-0.012675888
39	0xbe15a70c	-0.14614505

weight f4 [80, 40]
0	0x3c33cc0b	0.010973941
1	0x3db91f9b	0.090392314
2	0x3d933ae1	0.07188965
3	0xbc0cf3b8	-0.008603029
4	0xbaafd6c9	-0.0013415451
5	0xbc67726d	-0.014126402
6	0xbc3f586b	-0.011678795
7	0xbd93c49f	-0.07215237
8	0x3dec7195	0.115451016
9	0x3c822a1b	0.015889218
10	0xbd468e89	-0.048475776
11	0xbd9416db	-0.07230922
12	0x3daa552b	0.08317026
13	0xbda9de09	-0.08294303
14	0xbcaed653	-0.021342432
15	0x3deca08f	0.115540616
16	0x3e1a11f3	0.1504591
17	0x3d8e5a56	0.06950824
18	0xbdc11a3e	-0.094288334
19	0x3d1443e5	0.03619756
20	0xbd99ceef	-0.075101726
21	0xbc8ea310	-0.017411739
22	0xbd67c546	-0.05658462
23	0xbb0c8866	-0.0021443604
24	0xbdd444fe	-0.10364722
25	0xbda1ca04	-0.078998595
26	0x3d7bee9f	0.061506864
27	0xbdc220ab	-0.09478887
28	0x3db3d807	0.08781438
29	0x3dadff9a	0.08496018
30	0xbd103895	-0.03521021
31	0xbd03dae5	-0.032191176
32	0x3dba83a1	0.091071375
33	0xbdff90f3	-0.12478819
34	0xbdfee89c	-0.124467105
35	0x3d3af38f	0.04564243
36	0x3d99a2e5	0.07501773
37	0xbcfcce42	-0.03086007
38	0xbdcbb412	-0.09946455
39	0xbd70c278	-0.05877921
40	0x3d50fd0f	0.051022585
41	0xbde5135f	-0.11185335
42	0xbc894634	-0.016757108
43	0xbe2039c9	-0.15647043
44	0xbdc3e5a5	-0.095652856
45	0x3dd5b82e	0.1043552
46	0xbbc2a6f3	-0.005940312
47	0xbd493f92	-0.04913289
48	0x3d21c018	0.039489836
49	0xbde6dda6	-0.11272745
50	0x3d4d8a4e	0.050180726
51	0xbc9d1c78	-0.019178614
52	0xbe00b8e3	-0.12570529
53	0xbddda762	-0.10822941
54	0x3def39ee	0.11680971
55	0xbde2eed2	-0.110807076
56	0x3de8340e	0.11338054
57	0x3daddca2	0.08489348
58	0x3e1109d0	0.141639
59	0xbdafc2e2	-0.08582093
60	0x3e1184c9	0.1421081
61	0x3ca652eb	0.02030321
62	0xbd447727	-0.047965195
63	0xbd215d49	-0.039395604
64	0xbd0f8619	-0.035039995
65	0x3e028adb	0.12748282
66	0x3b525758	0.0032095518
67	0xbd106d3a	-0.035260417
68	0xbd811345	-0.063025035
69	0x3d0d496d	0.034493852
70	0xbded342a	-0.11582215
71	0xbd0a5c1e	-0.033779256
72	0x3d5f4cb6	0.054516517
73	0x3d9b4a03	0.07582476
74	0xbc11c1a4	-0.008896265
75	0xbc11edf7	-0.008906833
76	0x3d8aa752	0.06770195
77	0xbe034bf6	-0.12821946
78	0x3bdb1bce	0.006686664
79	0xbda630a7	-0.081147484
80	0x3d7c7eaf	0.061644252
81	0x3dec03b3	0.11524143
82	0x3dcde12a	0.10052712
83	0x3de4528b	0.11148556
84	0xbdcdd21a	-0.10049839
85	0xbcbf7614	-0.023371734
86	0x3c3346eb	0.010942201
87	0xba65ad6c	-0.00087614986
88	0xbdc5f911	-0.09666646
89	0x3db7a432	0.08966865
90	0xbd80eddd	-0.06295369
91	0x3e045caa	0.12925974
92	0xbc6b0e70	-0.014346704
93	0xbb75bb95	-0.003749584
94	0xbd554782	-0.05207015
95	0xbdf846ff	-0.121229164
96	0x3c8d16d5	0.017222801
97	0x3d88d773	0.06681719
98	0xbdc5a7ca	-0.09651144
99	0x3cefc730	0.029269785
100	0x3d066d26	0.032818936
101	0xbd1cc330	-0.038272083
102	0x3c07bb53	0.008284408
103	0x3d564686	0.05231335
104	0x3dd16c59	0.10225744
105	0xbdd615df	-0.1045339
106	0xbd94657c	-0.07245919
107	0x3d4f88eb	0.050667685
108	0x3d91f8ce	0.07127534
109	0x3db339ef	0.08751284
110	0xbd5ba228	-0.05362144
111	0x3d667247	0.056261327
112	0x3e1c14df	0.15242337
113	0x3d5b2db6	0.05351039
114	0x3d11f61d	0.035635103
115	0xbdcdb693	-0.10044589
116	0x3decd2bc	0.11563632
117	0x3e0b8b4f	0.13627361
118	0x3d9529ac	0.07283339
119	0xbe17c720	-0.14822054
120	0x3b23f222	0.0025016149
121	0x3c0e39fe	0.008680819
122	0x3ddc481b	0.107559405
123	0x3cc0ae5a	0.023520637
124	0xbdf1ff96	-0.11816327
125	0xbe09a6b4	-0.13442498
126	0xbcb1382d	-0.021633232
127	0xbe061d06	-0.13097009
128	0xbd939302	-0.07205774
129	0xbe0ec51b	-0.13942377
130	0x3d0b6e13	0.03404052
131	0xbd279db4	-0.04092188
132	0x3dcb0133	0.09912338
133	0xbdb7d058	-0.08975285
134	0xbcb19f2c	-0.021682344
135	0x3ab46737	0.001376367
136	0xbe1f642c	-0.15565556
137	0x3d75d21a	0.06001482
138	0x3e01f020	0.12689257
139	0xbbb4f37f	-0.005522191
140	0x3e2562f1	0.16151024
141	0x3a8a5830	0.0010554846
142	0x3e101749	0.14071383
143	0xbd9b0834	-0.07569924
144	0x3d383558	0.044972748
145	0xbda9c2a0	-0.08289075
146	0x3d586624	0.052831784
147	0x3db504a5	0.088387765
148	0x3d8346c6	0.06409983
149	0xbe050d29	-0.12993301
150	0xbcc0befe	-0.023528572
151	0xbca50608	-0.020144477
152	0xbdf19657	-0.11796253
153	0x3d2fc4e1	0.042912368
154	0xbdefe278	-0.11713117
155	0xbd557beb	-0.05212013
156	0x3d48dd08	0.049038917
157	0x3d11b86e	0.035576276
158	0xbc46a96e	-0.012125356
159	0xbca39ad1	-0.019971283
160	0xbd7763bb	-0.060397845
161	0x3d49baa5	0.049250264
162	0x3de1fab4	0.11034146
163	0xbd353a9e	-0.044245355
164	0xbdc3c5a4	-0.09559181
165	0xbc62146b	-0.013798813
166	0xbd3fc2e4	-0.04681672
167	0x3c12c920	0.008959085
168	0xbcdc9aee	-0.026929345
169	0x3d8727c1	0.06599379
170	0x3d915b15	0.07097451
171	0x3ddbdf3b	0.10735937
172	0x3cc536b0	0.024073929
173	0x3d934749	0.07191331
174	0xbd146f11	-0.036238734
175	0x3d60270d	0.05472474
176	0xbdc404e6	-0.09571247
177	0xbcbfdd4b	-0.02342095
178	0xbe090ea8	-0.13384497
179	0xbdfb49ce	-0.122699365
180	0x3b9a63fd	0.0047116266
181	0x3d61b031	0.05509967
182	0x3d7ecdf3	0.062208127
183	0x3e0b527a	0.13605681
184	0x3d85aed6	0.06527488
185	0x3e0d9347	0.13825713
186	0x3d6e80b7	0.05822822
187	0xbdfab191	-0.12240899
188	0x3c160973	0.009157526
189	0x3cc7e30d	0.024400258
190	0xbcd55c11	-0.026044877
191	0xbd5e276c	-0.054236814
192	0xbd6c5391	-0.057696883
193	0x3e295982	0.16538051
194	0xbdbede77	-0.093197756
195	0xbdcc4e12	-0.09975828
196	0xbc056d68	-0.00814376
197	0x3dd3c396	0.103400394
198	0xbd35457a	-0.04425571
199	0x3d820faf	0.06350648
200	0xbe29944a	-0.16560474
201	0x3d7880c9	0.060669694
202	0x3dd7e6ed	0.105420925
203	0x3d1aa231	0.037752334
204	0x3d978080	0.07397556
205	0xbcdaa6e6	-0.026690912
206	0x3e0d207f	0.13781928
207	0x3c261897	0.010137699
208	0x3d0099f7	0.031396832
209	0x3dc47988	0.09593493
210	0xbd363203	-0.04448129
211	0x3dd53ea6	0.1041234
212	0x3b17c5a3	0.0023158572
213	0xbd9d579e	-0.07682727
214	0xbd38aa87	-0.045084503
215	0x3d38256b	0.04495756
216	0xbd04e63c	-0.03244613
217	0x3dbdabe8	0.09261304
218	0x3dd76eb8	0.10519165
219	0x3e0a9e3b	0.13536923
220	0x3d4994dd	0.049214233
221	0x3dccec7c	0.10006043
222	0x3bf0bb45	0.007346543
223	0xbc984a10	-0.018590003
224	0xbdd6a98e	-0.10481559
225	0x3b5b47f1	0.0033459628
226	0x3dab398a	0.08360584
227	0x3d84aaba	0.06477876
228	0xbdcc3f6c	-0.09973034
229	0x3db08041	0.086182125
230	0x3de98dd8	0.11404008
231	0xbdc03fdb	-0.093871795
232	0xbdb51e06	-0.08843617
233	0xbdc0c444	-0.09412435
234	0x3be34e8b	0.0069368533
235	0x3d45f167	0.048325922
236	0xbdbb492a	-0.09144814
237	0xbd82ed4f	-0.06392919
238	0x3da1364d	0.07871685
239	0xbcd93af1	-0.026517363
240	0xbc509057	-0.012729726
241	0xbde438f6	-0.11143677
242	0x3dc448a0	0.095841646
243	0x3c967fca	0.018371481
244	0x3df090c5	0.117463626
245	0x3d28f354	0.04124768
246	0x39dd04d3	0.00042156
247	0x3e204bee	0.15653965
248	0xb9eb63bd	-0.00044897004
249	0xbccd775d	-0.02508133
250	0xbd9583b9	-0.07300515
251	0x3df04a0b	0.117328726
252	0xbdfa941f	-0.12235283
253	0xbcf0337f	-0.02932143
254	0xbdb7d938	-0.08976978
255	0x3d9bf41b	0.07614919

bias f4 [80]
0	0x3dedf092	0.11618151
1	0xbd920988	-0.07130724
2	0x3c30340f	0.010754599
3	0xbc0b6d15	-0.008509894
4	0xbc75b16f	-0.014995917
5	0x3d401989	0.046899352
6	0xb997b8f6	-0.0002893877
7	0xbdbf3fc4	-0.09338334
8	0x3cfd57f9	0.030925738
9	0xbdd13c7a	-0.10216613
10	0xbd0cc06b	-0.03436319
11	0xbd1a2125	-0.037629265
12	0xbcbd968a	-0.023143072
13	0xbd9ca9a0	-0.07649541
14	0x3d8f76a3	0.0700505
15	0x3e0659aa	0.13120142
16	0xba869894	-0.001026886
17	0xbe17f594	-0.14839774
18	0xbdce6464	-0.10077742
19	0x3db88e4a	0.090115145
20	0x3dbc8ff5	0.09207145
21	0xbe0eae43	-0.13933663
22	0xbe02a42e	-0.12757942
23	0x3d89bffd	0.06726072
24	0xbd64611b	-0.05575667
25	0xbd4fee1a	-0.05076418
26	0xbdca0a16	-0.09865205
27	0xbdedc404	-0.11609653
28	0xbdaff257	-0.085911445
29	0x3cacaed0	0.02107945
30	0xbd840465	-0.06446151
31	0xbd273d12	-0.040829726
32	0xbd7af790	-0.06127125
33	0xbd5c2b59	-0.053752277
34	0xbe0371c5	-0.12836368
35	0x3da130d5	0.07870642
36	0x3ac9a0e7	0.0015383036
37	0xbdfb2993	-0.12263789
38	0xbce57bde	-0.028013166
39	0xbdaad218	-0.083408535
40	0xbdd460c7	-0.10370021
41	0x3ded947d	0.116005875
42	0x3d2e2629	0.04251686
43	0xbdc307b1	-0.095229514
44	0xbe226ca6	-0.15861759
45	0xbe3152b2	-0.17316702
46	0xbd69ed14	-0.05711086
47	0xbdf9da5a	-0.121998504
48	0x3dfffb36	0.124990866
49	0xbe286854	-0.16446048
50	0x3d2668b9	0.040627215
51	0xbe0e6c5d	-0.13908525
52	0xbe2f7b52	-0.17136887
53	0xbdd3e63b	-0.10346647
54	0xbdaf2706	-0.08552365
55	0x3dfe6f32	0.124235526
56	0xbdff5f2b	-0.12469324
57	0xbd1289ce	-0.035775952
58	0x3d2a1612	0.041524954
59	0x3bd0e4d5	0.006374935
60	0xbc528553	-0.01284917
61	0xbbc85edb	-0.0061148233
62	0xbe343090	-0.1759665
63	0xbd1f7fd1	-0.038940255
64	0xbdeae8c4	-0.11470178
65	0x3c5516ce	0.013005925
66	0xbd2a4a18	-0.041574568
67	0xbdaf4569	-0.08558161
68	0xbdf3a24c	-0.1189619
69	0x3d9e879c	0.07740709
70	0x3dac81ef	0.0842322
71	0xbe2c5b43	-0.16831689
72	0xbb230302	-0.002487362
73	0x3d66fa61	0.056391124
74	0x3de76515	0.11298577
75	0x3dd28f38	0.10281223
76	0x3ad4014d	0.0016174704
77	0xbd7ce72d	-0.061743904
78	0xbdbf2f07	-0.09335142
79	0xbe2f3d07	-0.17113124

weight f4 [5, 80]
0	0x3cec44af	0.028841345
1	0x3bdd91cf	0.0067617665
2	0x3c3865e2	0.0112547595
3	0x3d9208af	0.071305625
4	0xbca729d0	-0.02040568
5	0xbb3e4b96	-0.0029036752
6	0xbbab7ef4	-0.00523364
7	0x3ce1f38b	0.02758195
8	0x3bdd3879	0.006751117
9	0xbc24e9c4	-0.0100655
10	0xbd55cd1c	-0.05219756
11	0x3cac0370	0.020997733
12	0x3d9cb4fa	0.07651706
13	0xb89c3f7f	-7.450487e-05
14	0x3d2dcb47	0.04243019
15	0xbc247f16	-0.010040065
16	0xbd3e99ce	-0.0465334
17	0xbca688c7	-0.020328892
18	0x3ccaac7e	0.024740454
19	0xbd9ed7a4	-0.07755974
20	0x3ba2cc09	0.0049681705
21	0xbc5bb7c1	-0.01341051
22	0xbbcbb2fe	-0.006216406
23	0x3d5d3a19	0.054010484
24	0xbda106b1	-0.078626044
25	0x3c1361ab	0.008995454
26	0xbcc4dc03	-0.024030691
27	0x3cc0dc06	0.023542415
28	0x3abf448f	0.0014592576
29	0x3c99c080	0.018768549
30	0xbc3d0e0a	-0.011538992
31	0xbc76a3a6	-0.015053665
32	0x3cfdd6c4	0.030986197
33	0x3b829bd2	0.0039858604
34	0xbd8d83fa	-0.06909938
35	0xbc6f67ff	-0.014612197
36	0x3d2f5fa2	0.042815812
37	0x39878daa	0.00025854754
38	0x3cbee8d2	0.023304377
39	0x3ca89d56	0.020582836
40	0xbd7c0700	-0.061530113
41	0x3d27e353	0.040988278
42	0xbd7cf5cb	-0.061757844
43	0x3cb0b2a5	0.02156956
44	0xbd6a42b5	-0.057192523
45	0xbcede121	-0.029038014
46	0x3d7c3568	0.06157437
47	0x3c82e09c	0.015976243
48	0xbc094a73	-0.0083795665
49	0xbc0d6d13	-0.008631962
50	0x3b33c976	0.0027433312
51	0xbc1f6790	-0.009729281
52	0xbc3308b8	-0.010927372
53	0x3c96f33a	0.018426526
54	0xbcced077	-0.025245888
55	0x3d59cf1d	0.053176034
56	0xbcaea87e	-0.021320578
57	0x3cd76c11	0.026296647
58	0x3c33af63	0.010967108
59	0x3d79193d	0.060815085
60	0x3d312a3e	0.043253176
61	0xbcbc5bc7	-0.022992982
62	0xbd60707b	-0.05479477
63	0x3b8bded3	0.004268506
64	0x3b7302ef	0.0037080606
65	0x3d19d9dd	0.037561286
66	0x39d7bf5c	0.0004115057
67	0x3c66dc0d	0.01409055
68	0x3d25bb53	0.04046185
69	0xbbc3e252	-0.005977907
70	0x3cecf140	0.02892363
71	0x3cdb62cf	0.026780514
72	0xbcc8bb98	-0.024503514
73	0xbd33ecc9	-0.043926988
74	0xbd3c308d	-0.04594474
75	0x3ce4ae07	0.027915014
76	0x3b10a913	0.0022073432
77	0x3c9314a5	0.01795418
78	0xbd6ea622	-0.058263905
79	0x3d8e509b	0.06948968
80	0xbc3dbec9	-0.011581131
81	0xbcab190f	-0.020885972
82	0x3c7ca63f	0.0154204955
83	0x3cd138be	0.025539752
84	0xbadef1ac	-0.001700928
85	0xbb0dfdb2	-0.0021666107
86	0x3ca7722f	0.02044019
87	0x3c60d686	0.013723021
88	0xbca426e7	-0.020038081
89	0x3cce9ca0	0.025221169
90	0x3caa3584	0.020777471
91	0xbd0372e2	-0.032091983
92	0x3d6e9cfd	0.058255184
93	0x3c95dc13	0.018293416
94	0xbb69030d	-0.0035554797
95	0xbd55482f	-0.052070793
96	0x3d65fc1d	0.056148637
97	0x3d4e1aa6	0.050318383
98	0xbd501820	-0.050804257
99	0x3b0983f5	0.0020983194
100	0xbb638c47	-0.0034721063
101	0x3d52c43c	0.051456675
102	0x3c916c2c	0.017751776
103	0x3d4bb84d	0.04973631
104	0x3d8584cb	0.06519469
105	0x3cbd3c4b	0.023100039
106	0x3c4ebbeb	0.012618045
107	0xbc221c43	-0.009894433
108	0xbb51164c	-0.003190416
109	0xbcac2ef3	-0.02101848
110	0x3d120a53	0.035654377
111	0xbb8fd735	-0.0043896683
112	0xbc1ac235	-0.009445717
113	0xbd142f17	-0.03617772
114	0x3cb177b2	0.02166352
115	0xbd2a6fc6	-0.0416105
116	0xbc2268c1	-0.009912671
117	0x3ce9231f	0.02845913
118	0x3d1c9bbc	0.038234457
119	0x3d1b2fb5	0.037887294
120	0xbd81f86a	-0.06346209
121	0xbcec012e	-0.028809156
122	0xbd65fd64	-0.056149855
123	0x3d1e3f35	0.038634498
124	0xbd442a31	-0.0478918
125	0x3d6f9724	0.05849375
126	0xbd910cc4	-0.07082513
127	0x3d0f05cf	0.03491765
128	0x3a33079f	0.0006829444
129	0x3c7f43ca	0.015580127
130	0x3cbde2bc	0.023179404
131	0x3d95ba4c	0.07310924
132	0x3d34e83d	0.044166792
133	0xbd2e9b3a	-0.042628504
134	0xbc815f43	-0.015792495
135	0x3d1a0e3e	0.03761124
136	0x3d06e180	0.032929897
137	0xbd057ff2	-0.03259272
138	0x3d070fcd	0.032974053
139	0x3d616daa	0.055036224
140	0xbd9694be	-0.07352589
141	0x3b9e3501	0.004828096
142	0xbd1ad7e0	-0.03780353
143	0x3c6e495a	0.014543856
144	0xbcc48eb9	-0.023993837
145	0xbc2777cc	-0.010221433
146	0xbca31f71	-0.019912453
147	0x3cc2911e	0.023750838
148	0xbd78064f	-0.06055289
149	0x3c42941e	0.011876134
150	0xbd4c3507	-0.04985526
151	0xb958cfac	-0.00020676729
152	0x3cb86c33	0.02251253
153	0xbd8622ec	-0.065496296
154	0x3d8f6967	0.07002526
155	0xbcf0142f	-0.0293065
156	0x3bb1982a	0.0054197507
157	0xbc47f14b	-0.012203525
158	0xbd47d4d2	-0.048786946
159	0x3d49b825	0.04924788
160	0xbd308104	-0.04309179
161	0x3d6818fa	0.056664445
162	0xbd494747	-0.04914024
163	0xbc30de77	-0.010795227
164	0xbc943859	-0.018093275
165	0x3d1c6568	0.038182646
166	0xbd648ebf	-0.055800196
167	0xbce71856	-0.028209846
168	0xbc6bda47	-0.014395303
169	0x3ce5a3d4	0.02803222
170	0x3c61251e	0.01374176
171	0xbd30e38d	-0.04318576
172	0x3d23b55f	0.03996789
173	0xbc5c56f2	-0.013448464
174	0x3ba06344	0.004894646
175	0x3ceb826d	0.028748715
176	0x3b896b8c	0.004193729
177	0x3bbd80ec	0.005783191
178	0xbbcdb624	-0.0062778164
179	0x3c86ba50	0.016446263
180	0xbd805409	-0.062660284
181	0x3d28296b	0.041055124
182	0xbcb00161	-0.021485033
183	0x3d5d2d31	0.053998176
184	0x3bf0222d	0.007328293
185	0xbc99b8ad	-0.018764818
186	0x3c792e50	0.015208796
187	0xbc9806a4	-0.018557854
188	0x3db3f052	0.08786072
189	0xbd68c83e	-0.05683159
190	0x3c6d2a73	0.014475453
191	0xbafc13dc	-0.0019231993
192	0xbd7ab4a5	-0.061207432
193	0xbc5a2875	-0.01331531
194	0x3bf46e07	0.0074594053
195	0x3b62c52f	0.0034602394
196	0x3bfa41b8	0.007637229
197	0xbd70cfa4	-0.05879177
198	0xbcc5f14e	-0.024162915
199	0x3b190878	0.0023350995
200	0xbd750ee9	-0.059828673
201	0xbd10b971	-0.0353331
202	0xbd194561	-0.03741968
203	0xbda96da0	-0.082728624
204	0xbd914493	-0.070931576
205	0xbbaf3060	-0.005346343
206	0xbd83bf1a	-0.06432934
207	0xbcbe609c	-0.023239426
208	0xbd093a36	-0.03350278
209	0xbd1d0fd5	-0.038345177
210	0x3d1864d0	0.037205517
211	0x3c98161e	0.018565234
212	0xbcff7388	-0.03118302
213	0x3cebe429	0.028795319
214	0x3d3f309c	0.046677217
215	0xbced5b1e	-0.028974112
216	0x3c9551e2	0.018227521
217	0xbc8422b2	-0.016129825
218	0x3bbab387	0.005697671
219	0x3b34c678	0.0027584117
220	0xbda2ed05	-0.07955364
221	0xbc72ff72	-0.014831411
222	0x3d4216df	0.047385093
223	0x3c5fc6f9	0.013658279
224	0x3cdef2e1	0.027215423
225	0xbcfd0250	-0.030884892
226	0x3c5f1b98	0.013617419
227	0xbc8f9685	-0.017527828
228	0x3d244305	0.040102977
229	0x3cca3a12	0.024685893
230	0xba994326	-0.0011692985
231	0x3d91a13b	0.071108304
232	0x3d059ba0	0.03261912
233	0x3d6c49cf	0.057687577
234	0x3d0527c8	0.03250864
235	0x3d2d7bab	0.042354267
236	0xbd03cf86	-0.03218033
237	0x3d112bb2	0.03544206
238	0x3d503f6d	0.050841738
239	0x3d6dcc1b	0.05805598
240	0x3c2d922e	0.010593934
241	0xbd0caf52	-0.034346886
242	0x3d35a7c0	0.044349432
243	0x3d5590ab	0.05213992
244	0xbd0bfcd7	-0.034176674
245	0x3a8cea29	0.0010750938
246	0x3d38c052	0.045105286
247	0xbcdca636	-0.026934724
248	0xbbe651ae	-0.00702878
249	0x3cce907b	0.025215378
250	0x3d824c44	0.06362203
251	0xbd1c1b38	-0.038111895
252	0x3d847f26	0.06469564
253	0x3c9e363d	0.019312972
254	0x3b019453	0.0019772246
255	0xbcc1cf62	-0.023658458

bias f4 [5]
0	0xbcbad6f8	-0.022807583
1	0xbc18d51a	-0.009328151
2	0x3c9a7d8b	0.018858692
3	0xbd133b5e	-0.03594529
4	0x3d4b187b	0.049583893
