final_project/mlruns/1/ebe1fc192111431d8f769d28b68a503e/artifacts/cvae_26/data/model.pth (torch, 48071 bytes, 10 tensors)

weight f4 [80, 10]
0	0xbbfbaec6	-0.0076807467
1	0x3e7a5188	0.24445164
2	0xbd8956f9	-0.06706042
3	0x3e815ace	0.2526459
4	0xbe62a217	-0.22132145
5	0xbe41a9ce	-0.18912432
6	0x3e3cd7c6	0.18441686
7	0x3e527720	0.20553255
8	0x3c6fa8c6	0.014627641
9	0x3c01907f	0.007907986
10	0x3df35592	0.118815556
11	0xbd174bbc	-0.03693746
12	0xbc4ef6db	-0.012632097
13	0xbe8caaab	-0.2747396
14	0xbe6171b1	-0.22016026
15	0x3d657ee4	0.056029215
16	0xbd5fdb12	-0.05465228
17	0x3c118027	0.008880652
18	0x3d07e191	0.0331741
19	0x3e71422b	0.23560397
20	0x3d285f48	0.041106492
21	0x3e4de6df	0.20107602
22	0xbe86454f	-0.26224753
23	0xbd232e77	-0.039839234
24	0x3d26a0ed	0.040680815
25	0x3de0e080	0.1098032
26	0x3dbb4a5a	0.09145041
27	0x3e60b05a	0.21942273
28	0xbdf6ae21	-0.12044931
29	0xbe33110a	-0.17486969
30	0xbe1cdbd9	-0.1531824
31	0xbeac0d02	-0.33603674
32	0xbc5d2d52	-0.013499575
33	0xbe049c44	-0.12950236
34	0x3e0715d0	0.13191915
35	0xbe02639b	-0.12733309
36	0x3d143b0b	0.03618912
37	0x3e132e9d	0.1437325
38	0x3dd1b39c	0.10239336
39	0xbdaaf6e9	-0.083478756
40	0x3e2dceba	0.16973391
41	0x3c9a65b5	0.018847326
42	0x3da40d6b	0.08010372
43	0xbdd9eb94	-0.10640636
44	0x3d324244	0.043520227
45	0xbe9231a8	-0.2855351
46	0x3e91a5a3	0.28446683
47	0xbd5ea04b	-0.054352086
48	0xbe7444ec	-0.23854417
49	0xbd080fa6	-0.03321805
50	0xbe291fe2	-0.16516069
51	0xbe3c550f	-0.18391822
52	0x3e870dcb	0.2637771
53	0xbe94741e	-0.2899484
54	0x3e07329a	0.13202897
55	0xbcb9d108	-0.022682682
56	0x3e845f95	0.25854173
57	0xbd99f936	-0.07518236
58	0x3e8a63ce	0.2702927
59	0xbcd5d537	-0.026102645
60	0x3dff0fa3	0.12454154
61	0x3e26ef40	0.16302204
62	0xbd3e5160	-0.046464324
63	0x3e8cc5b3	0.27494583
64	0xbe13fa19	-0.14450873
65	0xbe8340b8	-0.25635314
66	0xbe90d3bc	-0.2828654
67	0xbc264bdd	-0.010149923
68	0x3c9112dc	0.017709188
69	0x3e8fe563	0.28104696
70	0x3bc04854	0.005867997
71	0xbe96d11f	-0.29456422
72	0xbe017ede	-0.12646052
73	0xbe95d792	-0.2926603
74	0xbdfe87db	-0.12428256
75	0x3e8b95e6	0.272628
76	0xbe1c31e7	-0.15253411
77	0xbe81bf20	-0.2534113
78	0x3c57364f	0.013135507
79	0xbe6dc466	-0.23219451
80	0xbe4d8c7a	-0.20073119
81	0x3e5e27f6	0.21694931
82	0x3e8ed991	0.27900365
83	0xbe74f323	-0.23920874
84	0xbe1f3df0	-0.15550971
85	0x3de387bb	0.11109873
86	0x3ddfac36	0.109215185
87	0x3e2b3d5f	0.1672263
88	0xbdf3fef3	-0.11913862
89	0xbda48174	-0.08032504
90	0x3e751e4d	0.2393734
91	0x3d1bd061	0.038040522
92	0xbe5d5bd9	-0.21617068
93	0x3e4018cc	0.1875946
94	0xbe982a2c	-0.29719675
95	0xbde68e1d	-0.11257575
96	0x3e79c928	0.24393141
97	0x3e87ca52	0.26521546
98	0x3dde5798	0.10856551
99	0xbddc84dd	-0.10767529
100	0x3e6fe6e6	0.23427925
101	0x3df00c62	0.11721112
102	0xbd51b87a	-0.05120132
103	0xbe985440	-0.29751778
104	0xbca489c6	-0.020085227
105	0xbe87808a	-0.26465255
106	0xbd9cf8e6	-0.07664661
107	0xbba52d58	-0.005040806
108	0xbe340e60	-0.17583609
109	0x3dbca0b1	0.09210337
110	0x3e7df962	0.24802163
111	0x3db96986	0.0905333
112	0xbdc20928	-0.09474403
113	0xbeabe471	-0.33572724
114	0x3e7f8254	0.2495206
115	0xbe3e322c	-0.18573827
116	0xbdde4199	-0.108523555
117	0xbe401ced	-0.18761034
118	0x3e046118	0.12927663
119	0x3e0e443c	0.13893217
120	0xbea207dd	-0.31646624
121	0xbdd106f6	-0.10206406
122	0xbd054d7e	-0.032544605
123	0xbc553d89	-0.013015159
124	0x3bb33181	0.005468548
125	0xbd469180	-0.048478603
126	0x3e82d0f9	0.25550058
127	0xbc4c3015	-0.0124626355
128	0x3c8be3e4	0.01707644
129	0xbe251b8e	-0.16123793
130	0xbe882ede	-0.26598257
131	0xbe2caccd	-0.16862793
132	0xbdb962f5	-0.09052078
133	0x3da5211e	0.08062957
134	0x3e9ba3e4	0.30398476
135	0x3e49d620	0.19710588
136	0x3dddd513	0.10831656
137	0xbdbf9c7a	-0.093560174
138	0xbe8a8bdd	-0.27059832
139	0x3e26bcf6	0.1628302
140	0x3e82562e	0.25456375
141	0x3e506239	0.20349969
142	0xbd9a82df	-0.07544493
143	0x3c9c85b7	0.019106729
144	0xbdaac143	-0.08337643
145	0xbc4d3b7e	-0.012526391
146	0x3e987908	0.2977984
147	0x3ea574bd	0.32315627
148	0xbd264af6	-0.040598832
149	0xbdf2ccab	-0.118554436
150	0xbe4c276a	-0.1993691
151	0x3de2f43e	0.11081742
152	0xbd991fbc	-0.07476756
153	0xbe933315	-0.2874991
154	0xbd807725	-0.06272725
155	0x3e820aa5	0.25398746
156	0xbb288edf	-0.0025719923
157	0x3e291a5b	0.1651396
158	0xbe2cb97c	-0.16867632
159	0xbe8d835b	-0.2763928
160	0x3e225c3a	0.15855494
161	0xbb0f7565	-0.002189004
162	0x3d602a9d	0.05472814
163	0xbe0dba70	-0.13840652
164	0x3ea97446	0.33096522
165	0xbdfc02a9	-0.12305195
166	0x3e342a5a	0.17594281
167	0xbe582060	-0.211061
168	0xbe8bdd5d	-0.27317324
169	0xbdf5568f	-0.119794
170	0x3e269163	0.16266398
171	0x3e1ed420	0.15510607
172	0xbe295f36	-0.16540226
173	0x3e83296d	0.25617543
174	0x3e72ecbd	0.23723121
175	0x3e8ab455	0.27090707
176	0xbd4057c6	-0.046958707
177	0x3eacc3e3	0.337432
178	0x3e1fab90	0.1559279
179	0x3ea08b21	0.31356147
180	0x3dc22490	0.0947963
181	0xbc04cba5	-0.008105193
182	0xbe687e17	-0.2270435
183	0xbd520e0f	-0.05128294
184	0x3e3b4ca1	0.1829095
185	0xbe81db2e	-0.25362533
186	0xbe558087	-0.2084981
187	0xbdc9d207	-0.09854513
188	0xbe6fcf96	-0.23419032
189	0x3e3955d8	0.18099153
190	0xbe934a4a	-0.28767616
191	0x3e774fb1	0.24151494
192	0x3e0e1900	0.13876724
193	0x3e61b819	0.22042884
194	0xbe60eaa4	-0.21964508
195	0x3e2a5e05	0.16637428
196	0x3db4efa2	0.08834769
197	0x3e047672	0.12935808
198	0x3e839dc6	0.2570631
199	0xbe92cfb7	-0.286741
200	0x3c5d03f2	0.01348971
201	0xbe0ebb7a	-0.13938704
202	0x3e60a27c	0.21936983
203	0xbe1d97fe	-0.15390012
204	0xbd515992	-0.05111081
205	0x3e70ee91	0.23528506
206	0xbd1ed07f	-0.038773056
207	0xbe29d2a1	-0.16584255
208	0x3cd491fa	0.025948513
209	0xbe14498b	-0.1448118
210	0x3da52233	0.080631636
211	0x3e93365e	0.28752416
212	0x3d8a238c	0.06745061
213	0x3d2fef1b	0.042952638
214	0x3e5ff81e	0.21871993
215	0x3e4cd841	0.2000437
216	0x3e3f42b0	0.18677783
217	0x3e421710	0.1895411
218	0x3e3afb60	0.18259954
219	0xbe5bfe18	-0.21483648
220	0x3e8ee6b6	0.27910393
221	0x3e4bb88d	0.1989462
222	0xbea0340c	-0.3128971
223	0x3e733e14	0.2375415
224	0x3c54c3dc	0.01298615
225	0xbe60450c	-0.2190134
226	0x3d54a6a6	0.05191674
227	0xbe4402e2	-0.19141725
228	0xb94e4c91	-0.00019674214
229	0x3e6bdad7	0.230327
230	0x3d79f64b	0.0610259
231	0xbe4b27ff	-0.19839476
232	0x3cd38909	0.02582218
233	0x3e8b5ad1	0.27217725
234	0xbe13b51d	-0.14424558
235	0xbe988025	-0.29785267
236	0xbe97c614	-0.2964331
237	0xbe393e09	-0.18090071
238	0x3d09b4b2	0.03361959
239	0x3e23ced0	0.15996861
240	0xbe2917b2	-0.16512945
241	0x3e667f77	0.22509561
242	0x3cd134bc	0.025537841
243	0xbddaaf29	-0.106779404
244	0x3ebd2ac3	0.36946687
245	0x3db18dce	0.08669625
246	0x3e0326d8	0.12807786
247	0xbd1c7603	-0.038198482
248	0xbe56b3eb	-0.20967071
249	0x3e86ade7	0.26304552
250	0xbe9c61b3	-0.3054329
251	0xbe059748	-0.1304599
252	0xbe1aa75f	-0.1510291
253	0x3e2acaa9	0.16678871
254	0x3e062779	0.13100995
255	0x3dab360a	0.083599165

bias f4 [80]
0	0xbe852a2c	-0.26008737
1	0xbe8f7e3d	-0.28026
2	0x3e97d8bf	0.29657552
3	0x3eeb9efc	0.46019733
4	0x3e81bf77	0.2534139
5	0x3ee508ff	0.44733426
6	0x3ecfa10a	0.4055255
7	0xbe900c71	-0.28134492
8	0xbe9ef912	-0.310494
9	0xbe9a7ce1	-0.301734
10	0xbe0642c2	-0.13111404
11	0x3ec8bcde	0.39206594
12	0x3e97cb51	0.29647306
13	0xbd3ab2a6	-0.04558053
14	0x3eaf95ca	0.34293967
15	0xbc99a50e	-0.018755462
16	0x3ea6ac66	0.32553405
17	0x3ee08e54	0.43858588
18	0x3ed2d41c	0.41177452
19	0xbd4886f0	-0.04895681
20	0xbe911979	-0.28339747
21	0x3e6a0743	0.22854333
22	0xbe8bdc21	-0.27316383
23	0x3eeb88e9	0.46002892
24	0x3eb4a101	0.35279086
25	0xbe25c2d5	-0.16187604
26	0x3ecb2a60	0.39680767
27	0x3e97440d	0.29544106
28	0xbe70d586	-0.23518953
29	0x3ade526f	0.0016961823
30	0x3ec5f0d7	0.3866031
31	0xbe583d01	-0.21117021
32	0x3eca4b04	0.39510357
33	0xbe2ff2f8	-0.17182529
34	0x3e8e7e0e	0.27830547
35	0x3ec0ccc2	0.37656218
36	0xbe48fea0	-0.19628382
37	0x3eee4d36	0.46543282
38	0x3ea4278e	0.32061428
39	0x3f007902	0.50184643
40	0x3e900b40	0.28133583
41	0xbe057a5e	-0.1303496
42	0xbcea6de4	-0.028616853
43	0x3ecf2a83	0.4046212
44	0x3eaf2011	0.34204152
45	0xbda38437	-0.07984202
46	0x3e8109bc	0.2520274
47	0x3e854b49	0.26034
48	0x3e9fa3b5	0.31179586
49	0x3ee9a782	0.4563561
50	0x3ed7583b	0.42059502
51	0x3ebedb75	0.37276807
52	0xbe9a4eea	-0.30138332
53	0x3e77815f	0.24170445
54	0x3ee6f3f7	0.45108005
55	0x3ea67836	0.3251359
56	0x3ec992fd	0.39369956
57	0xbe669040	-0.22515965
58	0x3edcd1df	0.4312887
59	0xbd525c67	-0.051357653
60	0xbe291adc	-0.16514152
61	0xbe67c0b5	-0.22632106
62	0xbe1b5cbd	-0.15172096
63	0xbd2fe27c	-0.0429406
64	0x3e79c236	0.24390492
65	0xbdd3e1cc	-0.10345802
66	0x3e8eb222	0.2787028
67	0x3e38c1cf	0.18042682
68	0xbe0d0a2d	-0.13773413
69	0x3eea7a8d	0.45796624
70	0x3eae58bf	0.34052083
71	0xbe98da02	-0.29853827
72	0x3e9a2254	0.30104315
73	0xbdd9a18b	-0.10626515
74	0x3e86082b	0.26178107
75	0xbd3ec484	-0.04657413
76	0x3eab0a37	0.3340623
77	0xbe9e6d07	-0.30942556
78	0x3e662797	0.2247604
79	0x3eb14f08	0.3463061

weight f4 [40, 80]
0	0x3d1ca25c	0.038240775
1	0xbdd9fc1e	-0.10643791
2	0x3dbe10ed	0.09280572
3	0x3cebdb34	0.028791048
4	0x3ddd72e6	0.10812931
5	0x3d66b590	0.056325495
6	0x3d272bf1	0.04081339
7	0xbcba1ce8	-0.022718862
8	0xbca14813	-0.019687688
9	0xbcdbfae5	-0.026853034
10	0x3d6e81e0	0.058229327
11	0x3d22988d	0.039696265
12	0x3e0d04c0	0.13771343
13	0xbc4f310f	-0.012645974
14	0xbc8ed77d	-0.017436737
15	0xbce41abe	-0.027844783
16	0x3de0909f	0.10965084
17	0x3dd0ef70	0.10201919
18	0x3dbd49c4	0.09242585
19	0xbda99617	-0.082805805
20	0xbd2544a1	-0.040348653
21	0x3ce38ea3	0.027777975
22	0xbcdfc7ec	-0.02731701
23	0x3d0a649e	0.033787362
24	0xbc03f124	-0.008053098
25	0x3c40ac87	0.011759884
26	0xbcb7a398	-0.022416875
27	0x3e2fdc3c	0.17173856
28	0x3de26c37	0.110557966
29	0xbd94e4c6	-0.072701976
30	0x3d0969ff	0.03354835
31	0x3d9196d3	0.071088456
32	0x3d67fa59	0.056635235
33	0x3c0f8cb7	0.008761576
34	0x3e268477	0.16261469
35	0x3dc34e3c	0.095364064
36	0x3d5c4af6	0.053782426
37	0xbd0b65f2	-0.03403277
38	0x3c3a42e1	0.011368484
39	0xbbcf1f9d	-0.0063209073
40	0x3cd878f0	0.026424855
41	0xbd60a1e9	-0.05484191
42	0xbda8614b	-0.08221682
43	0xbc95c812	-0.018283878
44	0x3d7c44bb	0.061588984
45	0xbdc9d4ec	-0.09855065
46	0x3e13d171	0.14435364
47	0xbd1d1406	-0.038349174
48	0x3e0c0c39	0.13676538
49	0x3cb4e8cb	0.02208366
50	0x3e0ad34f	0.1355717
51	0x3e3da94a	0.1852161
52	0xbd65ad16	-0.05607327
53	0x3d94f746	0.07273726
54	0x3dcec327	0.10095816
55	0x3d9c036b	0.076178394
56	0xbb56ca91	-0.0032774548
57	0xbd56dea8	-0.052458435
58	0x3df3fa23	0.11912944
59	0x3d77c460	0.060490012
60	0xba836d38	-0.0010027057
61	0x3d818ec5	0.06326059
62	0xbd36acf2	-0.044598527
63	0xbdcbbf87	-0.0994864
64	0x3d248133	0.040162276
65	0x3dc21d5e	0.094782576
66	0x3e1f3b11	0.15549876
67	0x3ba3a27b	0.0049937344
68	0xbd5b437f	-0.053531166
69	0x3dd22499	0.10260887
70	0x3de3ceaf	0.11123406
71	0xbd329ef6	-0.04360863
72	0x3e50f83c	0.20407194
73	0xbdd4a08e	-0.10382186
74	0x3c51eb08	0.0128123835
75	0xbb14ce1a	-0.0022705854
76	0x3df0dee7	0.11761265
77	0x3c6fae43	0.01462895
78	0x3b939aeb	0.0045045516
79	0x3e1e92f1	0.15485741
80	0x3d6858d9	0.056725357
81	0x3db2674c	0.087111086
82	0xbe0acac0	-0.13553905
83	0xbda82939	-0.082109876
84	0xbcb9b2e2	-0.022668306
85	0xbc977477	-0.018488152
86	0xbc9de951	-0.019276293
87	0x3cb0a714	0.021564044
88	0x3b2f74cb	0.0026772495
89	0x3c2802fe	0.01025462
90	0x3d68fa47	0.056879308
91	0x3d92fe26	0.07177381
92	0xbc6cb861	-0.014448256
93	0x3dd7445c	0.105110854
94	0x3d4b6d9d	0.049665082
95	0x3cad347c	0.02114319
96	0x3d889093	0.066682
97	0xbd8fbb8e	-0.07018195
98	0xbd06fa1b	-0.032953363
99	0xbd92204e	-0.07135068
100	0xbdb33378	-0.08750051
101	0x3d2804f9	0.041020367
102	0xbd8b405a	-0.067993835
103	0x3baa54d3	0.0051981
104	0x3d8590a0	0.06521726
105	0xbd11a4f7	-0.035557713
106	0x3b092918	0.0020929035
107	0xbc6d53a5	-0.014485274
108	0xbdbdd066	-0.092682645
109	0xbdb58137	-0.088625364
110	0x3bbcdedc	0.0057638716
111	0x3c0856d7	0.0083214855
112	0x3b8e7c2f	0.0043483
113	0x3bff2ed6	0.0077875657
114	0xbde66c57	-0.11251133
115	0xbe022a89	-0.12711538
116	0xbb660caa	-0.0035102763
117	0xbdff3e76	-0.12463085
118	0x3c372166	0.011177396
119	0x3d3a0336	0.04541322
120	0x3d0918cb	0.03347091
121	0xbc9ea744	-0.019366868
122	0x3dae09fa	0.08497997
123	0xbd11c699	-0.035589788
124	0xbd376b90	-0.044780314
125	0x3d5251c0	0.051347494
126	0xbd22bdf2	-0.039731927
127	0xbdd9b9ee	-0.106311664
128	0x3bd28b9c	0.006425334
129	0xbdd96e60	-0.106167555
130	0xbe038e41	-0.12847234
131	0xbdeed230	-0.11661184
132	0x3d97a672	0.07404794
133	0xbde4b42d	-0.11167178
134	0x3c6c1dc5	0.0144113945
135	0xbdbe3896	-0.09288137
136	0xbcae76bb	-0.02129685
137	0xbdce9bc7	-0.10088306
138	0x3d312610	0.04324919
139	0xbd18e7f6	-0.03733059
140	0x3dc75302	0.09732629
141	0x3daf59e9	0.08562071
142	0xbdba80d8	-0.09106606
143	0x3d1bfbc2	0.03808189
144	0xbaaf29a3	-0.0013363849
145	0x3d38342f	0.04497164
146	0x3c057fa9	0.008148112
147	0xbda1b2bb	-0.07895418
148	0x3d985be7	0.07439404
149	0xbc3303c5	-0.010926192
150	0xbe19e5a2	-0.15029004
151	0xbc11eea8	-0.008906998
152	0xbe2526cb	-0.1612808
153	0xbdc98f12	-0.098417416
154	0xbe17a3a8	-0.14808524
155	0xbb213cb2	-0.0024602828
156	0x3d90ea13	0.07075896
157	0x3d3704ab	0.044682186
158	0x3d1d9dfc	0.038480744
159	0xbcea8d77	-0.028631909
160	0xbda59cac	-0.080865234
161	0xbd6430ed	-0.05571072
162	0x3d227590	0.039662898
163	0x3d375e23	0.04476751
164	0xbccb3617	-0.024806065
165	0x3cd8b52b	0.026453575
166	0xbd93f4c4	-0.0722442
167	0xbdbfefd9	-0.09371919
168	0xbdb702c2	-0.08936073
169	0x3cffaa68	0.031209186
170	0xbd91959a	-0.07108612
171	0xbd4793cc	-0.048724934
172	0xbb815eb8	-0.003948059
173	0xbce49ece	-0.027907755
174	0xbcc229eb	-0.023701629
175	0xbda96234	-0.08270684
176	0xbc04fef9	-0.008117431
177	0x3bc9e1c8	0.0061609484
178	0x3ce3085a	0.027713943
179	0xbd8c37e1	-0.068465956
180	0xbd6ca3d2	-0.05777342
181	0x3cd035bb	0.025416246
182	0x3cc9c01c	0.024627738
183	0xbc491cac	-0.012274902
184	0x3c9fc9e7	0.019505454
185	0xbdd32f02	-0.103117004
186	0x3d540790	0.051765025
187	0x3c2663e2	0.01015565
188	0xbdbac350	-0.09119284
189	0xbdf3278f	-0.118727796
190	0xbc63854a	-0.013886759
191	0xbcabd851	-0.020977171
192	0xbdf5d4eb	-0.120035015
193	0x3d8e6385	0.069525756
194	0x3cfc4b74	0.030797698
195	0xbcc053bf	-0.023477433
196	0xbcd33f8e	-0.025787141
197	0xbb9ff97c	-0.004882036
198	0x3d640083	0.05566455
199	0xbd967865	-0.07347182
200	0xbd40606b	-0.04696695
201	0x3d015876	0.031578504
202	0xbd67a11f	-0.05655014
203	0x3d9dd842	0.077072635
204	0xbb4a975d	-0.0030912973
205	0xbcc07680	-0.023494005
206	0x3d3c50be	0.04597544
207	0xbc429094	-0.01187529
208	0x3d6d262a	0.057897724
209	0x3d1c8b22	0.038218625
210	0xbdc90b2a	-0.098165825
211	0xbd8522e1	-0.06500793
212	0xbd28beef	-0.041197713
213	0x3bf74236	0.0075457348
214	0xbd930dac	-0.07180342
215	0xbd787ac6	-0.06066396
216	0xbd4c1186	-0.0498214
217	0xbd3888f9	-0.045052502
218	0x3db6248f	0.08893692
219	0x3d8d3f12	0.06896795
220	0xbc0a85f8	-0.008454792
221	0xbcad7230	-0.021172613
222	0x3d856053	0.06512513
223	0x3cf60016	0.030029338
224	0xbcd068ce	-0.0254406
225	0xbd946f6b	-0.07247814
226	0xbdc2cad7	-0.09511345
227	0xbdcd017f	-0.10010051
228	0x3ab6e7b6	0.0013954553
229	0xbcc2dfc8	-0.023788348
230	0xbde83136	-0.11337511
231	0xbc9d250b	-0.019182703
232	0xbdf862ff	-0.12128257
233	0xbb4c4a0d	-0.0031172067
234	0xbdac65c9	-0.084178515
235	0x3d445b77	0.04793879
236	0xbc5cdc69	-0.013480284
237	0x3bf104b8	0.007355299
238	0xbd71cc48	-0.05903271
239	0x3cc05e7c	0.023482554
240	0xbd91cef3	-0.071195506
241	0xbd8d53cf	-0.06900751
242	0x3c272ef3	0.010204065
243	0xbcdd6250	-0.027024418
244	0xbb45e827	-0.0030198188
245	0x3dda11a9	0.106479
246	0xbd2402f1	-0.040041868
247	0x3b32f693	0.0027307614
248	0xbdd8724b	-0.10568675
249	0x3d4271d6	0.047471844
250	0x3da1f17c	0.079073876
251	0x3d744903	0.059639942
252	0xbc4ccf08	-0.012500532
253	0x3d69053a	0.05688975
254	0x3d53782c	0.051628277
255	0x3d86de02	0.065853134

bias f4 [40]
0	0x3dfdc97a	0.12391944
1	0xbddac21e	-0.10681556
2	0xbd5ea31e	-0.05435478
3	0xbd79a4b8	-0.060948104
4	0x3baf09f9	0.005341765
5	0x3ccb7164	0.024834342
6	0xbcfabe3c	-0.030608289
7	0x3c99f1a2	0.018791977
8	0xbd4d6f9e	-0.050155275
9	0xbd4542e5	-0.0481595
10	0xbd3bad66	-0.045819663
11	0x3d1e41ed	0.03863709
12	0x3d94b2e3	0.072606824
13	0xbbd92933	-0.006627226
14	0x3d9bf050	0.07614195
15	0x3d5aa28a	0.053377666
16	0x3d84fa2c	0.06493029
17	0xbdc67990	-0.09691155
18	0xbdab7ace	-0.083730325
19	0xbe038d7f	-0.12846945
20	0xbc1c02d2	-0.009522157
21	0x3da513a5	0.080603875
22	0xbdf1a6c2	-0.11799385
23	0xbe101961	-0.14072181
24	0x3da9247e	0.082589135
25	0x3dab2c5c	0.0835807
26	0xbd52d52a	-0.05147282
27	0x3d721afc	0.059107766
28	0xbe3859c3	-0.18002991
29	0xbded82f2	-0.115972415
30	0x3dc422c4	0.095769435
31	0xbce0a47b	-0.02742218
32	0xbd9b4b66	-0.075827405
33	0x3da47bf6	0.08031456
34	0xbdd00f0c	-0.1015912
35	0xbd4172c6	-0.047228597
36	0x3d92a951	0.07161201
37	0xbd000792	-0.03125722
38	0xbc15233b	-0.009102638
39	0xbd4d05ca	-0.05005435

weight f4 [40, 80]
0	0xbdd634dd	-0.104593016
1	0x3982f321	0.00024976677
2	0xbe39802e	-0.18115303
3	0xbcad81d1	-0.021180065
4	0xbe909fc4	-0.28246891
5	0xbe535fe2	-0.20642045
6	0xbdf5c59b	-0.12000581
7	0xbcfe942f	-0.031076519
8	0xbd82722a	-0.06369431
9	0x3d747581	0.059682373
10	0x3d8dd348	0.06925064
11	0xbdaa3493	-0.08310809
12	0xbe293f15	-0.1652797
13	0x3d564079	0.05230758
14	0xbde65500	-0.11246681
15	0x3cd07471	0.025446149
16	0xbd8a8aae	-0.06764732
17	0x3be02813	0.0068407147
18	0xbbbf6006	-0.0058403043
19	0x3d9a7203	0.07541277
20	0xbcca9b86	-0.024732362
21	0xbe5ace37	-0.21367727
22	0x3d67e142	0.056611307
23	0xbe3f36eb	-0.18673293
24	0xbe25ee60	-0.16204214
25	0xbd1455c2	-0.036214598
26	0xbdcb6f66	-0.09933357
27	0xbe585a3b	-0.2112817
28	0x3ccba9d6	0.024861258
29	0xbd466995	-0.048440535
30	0xbdb7d806	-0.0897675
31	0xbd9883eb	-0.07447036
32	0xbe2a3df7	-0.166252
33	0x3db50351	0.08838523
34	0xbd866ca4	-0.0656369
35	0x3c871441	0.01648915
36	0x3de37f37	0.11108249
37	0xbe456b41	-0.19279195
38	0xbdaba41c	-0.08380911
39	0xbe2ccfe0	-0.16876173
40	0xbe09923a	-0.13434687
41	0xbdd139a9	-0.10216076
42	0x3d21d67d	0.039511193
43	0xbda7776c	-0.08177075
44	0xbd9122b3	-0.070866965
45	0x3cabc2f6	0.020966988
46	0xbe6c9666	-0.23104247
47	0xbb87a34c	-0.0041393396
48	0xbdf6adb4	-0.1204485
49	0xbe4a70f9	-0.19769658
50	0xbd056f71	-0.032576982
51	0xbde99b3f	-0.11406564
52	0xbdc4ea10	-0.096149564
53	0xbe4627a2	-0.19351056
54	0xbda9beec	-0.082883686
55	0xbd42d21a	-0.04756365
56	0xbe15a553	-0.14613847
57	0x3cdf8331	0.027284237
58	0xbd50f5f5	-0.051015813
59	0x3d06be65	0.032896418
60	0x3caa377c	0.02077841
61	0x3d7810b9	0.060562823
62	0xbcc9aecf	-0.024619488
63	0xbd846f70	-0.064665675
64	0xbdaa57de	-0.083175406
65	0xbd8192b1	-0.06326807
66	0xbe6f3de9	-0.2336346
67	0xbe22d283	-0.15900616
68	0x3dcbffa0	0.09960866
69	0xbd4479e2	-0.0479678
70	0xbd867410	-0.06565106
71	0x3d94d3f5	0.0726699
72	0xbe6dd0e6	-0.2322422
73	0x3d20be87	0.0392442
74	0xbe5b91fe	-0.2144241
75	0xbd33fea7	-0.043944027
76	0xbdb29f97	-0.087218456
77	0x3dd65263	0.10464933
78	0xbd89f040	-0.06735277
79	0x3c532f88	0.01288975
80	0xbd9f04a1	-0.07764555
81	0xbca6b23d	-0.020348663
82	0xbe275729	-0.16341843
83	0xbdd3e3a2	-0.10346152
84	0xbe2cf7ee	-0.16891453
85	0xbe4c1674	-0.1993044
86	0xbdcb2bfc	-0.09920499
87	0xbd7e7013	-0.0621186
88	0xbd499fac	-0.04922454
89	0xbca427e1	-0.020038547
90	0xbdaa9722	-0.083296075
91	0xbdaa4283	-0.08313467
92	0xbe464499	-0.19362105
93	0xbd6b7ec1	-0.05749393
94	0xbe2c2dcb	-0.16814344
95	0x3daf3bb7	0.085563116
96	0xbcbfebb6	-0.023427825
97	0xbcfb68de	-0.030689653
98	0xbcb1b5e5	-0.02169318
99	0xbda6b2ba	-0.08139558
100	0xbd6c2314	-0.05765064
101	0xbe6b9a95	-0.23008187
102	0xbc896e12	-0.016776118
103	0xbd37c70d	-0.044867564
104	0xbdb8df22	-0.09026934
105	0x3d8f3630	0.06992757
106	0xbd0f5edb	-0.03500257
107	0xbde33620	-0.11094308
108	0x3d973682	0.073834434
109	0x3db52aa8	0.08846027
110	0xbe18cb50	-0.14921308
111	0x3cebed09	0.02879955
112	0xbd7d6919	-0.061867807
113	0x3d2053a4	0.039142266
114	0xbe472ba6	-0.19450244
115	0xbd660e55	-0.05616601
116	0x3d51cb80	0.051219463
117	0xbe2f699c	-0.1713013
118	0xbc1e44f3	-0.009659993
119	0xbe21541c	-0.15754741
120	0xbe16ad51	-0.14714552
121	0xbd844750	-0.06458914
122	0xbda0c039	-0.078491636
123	0xbe1ee341	-0.15516378
124	0xbe13bf34	-0.14428407
125	0x3bbf7faa	0.005844076
126	0xbd995835	-0.07487527
127	0xbdc98d9b	-0.09841462
128	0xbe60eb25	-0.219647
129	0x3b884acf	0.0041593085
130	0xbe362b4d	-0.17789955
131	0xbe5818b3	-0.21103172
132	0xbd5ed280	-0.054399967
133	0xbe01d07b	-0.12677185
134	0xbe45f2c8	-0.19330895
135	0xbe070eb8	-0.13189209
136	0xbe1ff248	-0.15619767
137	0x3c2878f1	0.010282741
138	0xbd3865fd	-0.04501914
139	0x3c1c071b	0.009523178
140	0x3cfc7d3c	0.030821435
141	0x3db2c5d2	0.087291375
142	0x3ca85ba7	0.020551516
143	0xbc3d24ef	-0.01154445
144	0xbe37d046	-0.17950544
145	0xbc72509b	-0.014789726
146	0xbe28a94e	-0.16470835
147	0xbe3aed1e	-0.18254516
148	0xbd668fc4	-0.05628945
149	0xbe3c5290	-0.1839087
150	0xbd5b54b0	-0.05354756
151	0xbd6aa51d	-0.05728637
152	0xbd9e396a	-0.077257946
153	0xbcc521f5	-0.024064044
154	0xbe37dbb6	-0.17954907
155	0x3daf1213	0.08548369
156	0xbe1a145e	-0.15046832
157	0xbc98fc3a	-0.018674958
158	0xbcb77b55	-0.022397676
159	0xbe3a3e7f	-0.18187903
160	0x3d0bfeb8	0.034178466
161	0x3d6d0565	0.057866473
162	0xbe5c0523	-0.21486335
163	0xbd3b02e4	-0.045657054
164	0xbde6a260	-0.11261439
165	0xbe19535b	-0.14973204
166	0xbe4539bd	-0.19260307
167	0xbcabcf26	-0.0209728
168	0x3ddfdd8b	0.10930928
169	0x3de45d57	0.11150616
170	0x3cd14e33	0.025549984
171	0xbd3daeb1	-0.046309177
172	0xbe47b2d3	-0.1950181
173	0xbcdb0f4d	-0.026740694
174	0xbe0861cc	-0.13318557
175	0xbb894e00	-0.0041902065
176	0xbdc1417f	-0.094363205
177	0xbcf04b94	-0.029332913
178	0x3b5b301c	0.0033445423
179	0x3dbfb4ce	0.09360658
180	0xb94beded	-0.00019448223
181	0xbe395619	-0.1809925
182	0x3d81e090	0.0634166
183	0xbe460d46	-0.19341001
184	0xbe38c201	-0.18042757
185	0x3db2643c	0.087105244
186	0xbe12276d	-0.14272852
187	0xbcebf74b	-0.028804442
188	0xbdc6b9f1	-0.09703434
189	0xbdec480a	-0.11537178
190	0xbc85821b	-0.01629739
191	0xbdc97498	-0.098366916
192	0xbe16f3e4	-0.14741474
193	0x3dd89b50	0.105764985
194	0xbe2d3391	-0.16914202
195	0xbddb49fb	-0.1070747
196	0x3c908c21	0.017644944
197	0xbd6c8a7a	-0.05774925
198	0xbdb72831	-0.08943213
199	0xbe058160	-0.13037634
200	0xbdcf20cb	-0.10113677
201	0xbcc6f1a9	-0.024285154
202	0x3dac5319	0.08414287
203	0xbe090bdf	-0.13383435
204	0xbc30b374	-0.010784972
205	0xbdc72ed9	-0.09725732
206	0xbe308439	-0.17237939
207	0xbd927397	-0.07150953
208	0xbdb5cea7	-0.088773064
209	0xbdc9483c	-0.09828231
210	0xbe3984dd	-0.1811709
211	0xbb6bd5bd	-0.0035985552
212	0x3d4a7969	0.049432192
213	0xbdcb45b0	-0.09925401
214	0xbe4d8d55	-0.20073445
215	0xbe0121a1	-0.12610485
216	0xbda83e5d	-0.0821502
217	0xbd9fe1eb	-0.07806762
218	0xbde236b6	-0.110455915
219	0xbd519873	-0.051170778
220	0xbca4bad8	-0.020108625
221	0xbb97c0c6	-0.0046311347
222	0xbd8896e6	-0.066694066
223	0xbdc683f1	-0.096931346
224	0xbe17d8d4	-0.14828807
225	0x3d6f3f86	0.05841019
226	0xbde4857c	-0.111582726
227	0xbda654d5	-0.08121649
228	0xbdafc447	-0.08582359
229	0xbd074bcd	-0.033031274
230	0xbe2cb7d3	-0.16866998
231	0x3dae3b31	0.085073836
232	0xbdfaa728	-0.12238914
233	0xbd3658c5	-0.04451825
234	0xbd6fc57c	-0.058537945
235	0x3dd1d4cf	0.10245668
236	0xbe2c4229	-0.16822113
237	0x3c170c61	0.00921926
238	0xbe0aad85	-0.13542755
239	0xbe2a039f	-0.16602944
240	0x3d9cf4c7	0.07663875
241	0xbc1f8f17	-0.009738705
242	0xbe133f91	-0.14379717
243	0xbe37b2f6	-0.17939362
244	0xbe0a7667	-0.1352173
245	0xbe3fe703	-0.18740468
246	0xbe397c46	-0.18113813
247	0x3bdbf3e1	0.0067124222
248	0xbdbebf78	-0.093138635
249	0x3d4a3c89	0.049374137
250	0x3d7680b0	0.06018132
251	0xbdf67933	-0.12034836
252	0xbbcd8023	-0.0062713786
253	0xbcdcb017	-0.026939435
254	0x3bdd3ecc	0.0067518707
255	0xbdea7da9	-0.11449749

bias f4 [40]
0	0xbe35b184	-0.17743498
1	0x3b2c2fbb	0.0026273567
2	0xbe2af136	-0.16693577
3	0xbe27d384	-0.1638928
4	0xbc8bee27	-0.017081333
5	0x3c02c842	0.0079823155
6	0xbb3e80df	-0.0029068512
7	0xbc2703c4	-0.010193769
8	0xbd879820	-0.066208124
9	0xb99a6c2c	-0.00029453763
10	0xbda9d379	-0.08292288
11	0xbd0cc099	-0.034363363
12	0xbe3fd266	-0.18732604
13	0xbe0da90c	-0.13834018
14	0xbe46d772	-0.19418123
15	0x3b88115f	0.0041524614
16	0xbd24a91b	-0.040200334
17	0xbd143497	-0.036182966
18	0xbd946667	-0.07246094
19	0xbe37d0ad	-0.17950697
20	0x3cfeaecc	0.031089209
21	0xbd542852	-0.051796265
22	0xbdf02e35	-0.11727563
23	0xbd93bc4d	-0.0721365
24	0xbe22d995	-0.15903313
25	0xbcb272f8	-0.021783337
26	0xbd9ba3a9	-0.07599575
27	0x3b84ca6b	0.0040524504
28	0xbdcac7e0	-0.099014044
29	0xbda51bc2	-0.08061935
30	0xbd357ec7	-0.044310357
31	0xbdc1f861	-0.09471203
32	0xbc945faa	-0.018112022
33	0xbe31ee25	-0.17376001
34	0xbd9e5f3e	-0.0773301
35	0xbe17293e	-0.14761826
36	0xbdb61fc6	-0.08892779
37	0xbe08f3a4	-0.13374192
38	0xbdf41bf4	-0.11919394
39	0x3d1f3f09	0.038878474

weight f4 [80, 40]
0	0x3d0ecd67	0.034863856
1	0xbdd70b04	-0.10500148
2	0x3e0691c1	0.13141538
3	0x3e15ca21	0.14627887
4	0xbd4c1f95	-0.049834806
5	0xbd0994ce	-0.033589177
6	0xbe0c6975	-0.13712104
7	0xbd08336a	-0.033252157
8	0x3c5a5726	0.013326442
9	0xbdb2eb18	-0.08736247
10	0xbd60de99	-0.054899786
11	0xbd069fbd	-0.032867182
12	0xbd456f64	-0.048201934
13	0x3e143abb	0.14475529
14	0x3e12e1d4	0.14343959
15	0x3de0c300	0.10974693
16	0x3da96735	0.08271638
17	0x3d3c3d49	0.045956884
18	0x3dcdc72f	0.10047757
19	0xbac3e139	-0.0014944441
20	0x3d5438e9	0.051812086
21	0xbc170e93	-0.009219783
22	0xbd808bf1	-0.06276692
23	0x3e14c553	0.14528398
24	0x3e180b38	0.1484803
25	0xbe05cc60	-0.13066244
26	0x3ce6ac81	0.028158428
27	0xbd884495	-0.06653706
28	0xbd917e21	-0.07104135
29	0xbd453e64	-0.048155203
30	0x3ceea258	0.029130146
31	0xbc774b86	-0.01509369
32	0x3e00ad9b	0.12566225
33	0x3d2d6592	0.042333193
34	0xbd14fd81	-0.036374573
35	0x3ce220f8	0.027603611
36	0xbcb896ab	-0.022532782
37	0xbda70cbb	-0.08156725
38	0xbdaa35f1	-0.0831107
39	0xbac4dd51	-0.0015019571
40	0xbd0bb4d6	-0.034108005
41	0x3d533eb5	0.051573474
42	0xbce7cf37	-0.02829705
43	0x3e24634f	0.16053508
44	0xbdb8af21	-0.09017778
45	0xbd22f2b1	-0.03978223
46	0x3e14cf0d	0.14532109
47	0xbd85d23e	-0.06534241
48	0xbd7c5f69	-0.061614428
49	0xbcf6c255	-0.030121962
50	0x3ddf7fc7	0.109130435
51	0xbdeac906	-0.114641234
52	0x3dc45cee	0.095880374
53	0x3df6bf08	0.12048155
54	0xbb806ba1	-0.0039190804
55	0xbdd50b75	-0.10402576
56	0x3de64722	0.11244036
57	0xbdae4d52	-0.085108414
58	0xbd620251	-0.05517799
59	0x3de42953	0.111406945
60	0xbdbcd12d	-0.092195846
61	0xbe109bfa	-0.14122
62	0x3d5370ea	0.051621355
63	0x3e0968f3	0.13418941
64	0x3d7ac6ae	0.061224632
65	0x3d8ffcae	0.07030617
66	0x3d34f40f	0.044178065
67	0x3e1a792e	0.15085289
68	0x3e182614	0.14858276
69	0x3dda3367	0.106543355
70	0x3df33634	0.11875573
71	0xbe08efda	-0.13372746
72	0x3dce89b0	0.100848556
73	0x3d64fac5	0.055903215
74	0xbdc7ae7a	-0.09750076
75	0x3d387df7	0.045042004
76	0x3d528212	0.051393576
77	0x3d33f26b	0.04393236
78	0xbc903a43	-0.017605906
79	0xbdc9d40f	-0.098549
80	0x3d04608f	0.032318648
81	0x3cfde9c1	0.030995252
82	0x3d9ff401	0.07810212
83	0x3d32c5cf	0.043645676
84	0xbe056883	-0.1302815
85	0xbe161c91	-0.14659335
86	0xbda9aa20	-0.08284402
87	0xbdde7073	-0.10861292
88	0xbd895659	-0.06705923
89	0x3e09cbd6	0.13456663
90	0xbcff0daa	-0.031134445
91	0x3e1b6f6d	0.15179224
92	0x3dac0317	0.08399027
93	0x3df07324	0.11740711
94	0x3d5877ea	0.052848734
95	0x3cee7b1d	0.02911144
96	0xbd57a8c7	-0.052651193
97	0x3d1865f9	0.037206624
98	0xbc36414a	-0.011123965
99	0x3c1c3e29	0.0095363045
100	0x3dcba361	0.099432714
101	0xbdf082db	-0.11743709
102	0xbc2ea5f3	-0.010659683
103	0x3cacd572	0.021097872
104	0x3c6487d7	0.013948402
105	0xbd9f79e0	-0.07786918
106	0xbd695cbc	-0.056973204
107	0x3e03d7fd	0.12875362
108	0xbb51a4b5	-0.0031989042
109	0xbdac2b71	-0.08406723
110	0x3dbd6ff6	0.092498705
111	0xbdbff9df	-0.09373831
112	0x3dead571	0.11466492
113	0xbdc07dd7	-0.09399002
114	0x3c40e83f	0.011774122
115	0xbd0551e2	-0.032548793
116	0x3d870bee	0.06594072
117	0x3c8fe752	0.017566357
118	0xbdfaa3b9	-0.12238259
119	0x3db170f3	0.086641215
120	0xbdaae3a6	-0.08344202
121	0xbd94115a	-0.07229872
122	0xbcb6e43b	-0.022325626
123	0xbdbbdd4d	-0.09173069
124	0xbc368ee2	-0.011142464
125	0xbe205fe7	-0.15661584
126	0xbddc75b6	-0.10764639
127	0xbdd61acd	-0.104543306
128	0x3df3b6f6	0.119001314
129	0xbe0310e4	-0.12799412
130	0x3dc4e0ca	0.096131876
131	0xbd6d52d4	-0.05794032
132	0xbd7fe748	-0.062476426
133	0x3d9d42b5	0.07678739
134	0xbd936218	-0.07196444
135	0x3dcaef90	0.09908974
136	0x3db5aa3b	0.088703595
137	0x3de4e95f	0.111773245
138	0x3d92f107	0.071748786
139	0xbce6c528	-0.028170183
140	0xbdd59f9f	-0.10430836
141	0xbc8e6d95	-0.017386237
142	0xbdbe5399	-0.09293289
143	0x3e183dcc	0.14867324
144	0xbdf55a03	-0.11980059
145	0xbd990b07	-0.074728064
146	0xbbccf68c	-0.0062549766
147	0x3df4bc77	0.11950009
148	0xbd7902f4	-0.060793832
149	0xbda64679	-0.0811891
150	0x3dbe2065	0.092835225
151	0xbd1b0743	-0.037848722
152	0x3caa2693	0.020770347
153	0xbe24ff0f	-0.16112922
154	0xbb1fcf99	-0.0024385212
155	0xbd5aa4ca	-0.05337981
156	0xbdeef24a	-0.11667307
157	0xbdeb4da5	-0.11489419
158	0x3d273e29	0.040830765
159	0xbdd76e44	-0.105190784
160	0x3d02f8ad	0.031975437
161	0xbe0f0bba	-0.13969317
162	0x3db9b2cb	0.09067305
163	0xbbc842b4	-0.0061114673
164	0x3d1b053c	0.03784679
165	0x3dc3c0b0	0.095582366
166	0xbdbab36a	-0.09116252
167	0xbddef2cd	-0.10886154
168	0xbdb8faa1	-0.09032179
169	0x3e0de2cd	0.13856049
170	0x3d424949	0.04743317
171	0xbda6499e	-0.0811951
172	0x3d5c2e66	0.053755186
173	0x3d7c16ec	0.061545298
174	0x3e014d19	0.12627067
175	0xbde13c1c	-0.10997793
176	0x3d003b4b	0.031306546
177	0x3da49976	0.08037083
178	0x39da6989	0.0004165883
179	0x3e0b4967	0.1360222
180	0xbd9ca84b	-0.07649287
181	0xbe04e1d0	-0.12976766
182	0xbcea62dc	-0.028611593
183	0x3dc4d1ec	0.09610352
184	0x3c0300d7	0.007995806
185	0xbdcaa8af	-0.09895455
186	0x3e0085a1	0.12550975
187	0x3df6eb54	0.12056604
188	0x3e15b737	0.14620672
189	0x3e0e18de	0.13876674
190	0x3ca6d202	0.020363811
191	0x3e0abea8	0.13549292
192	0x3c1f303f	0.009716093
193	0x3df2cf32	0.118559256
194	0x3bfb705f	0.007673308
195	0x3ddfdd25	0.10930852
196	0x3d7ef68a	0.062246837
197	0xbc14c64d	-0.009080482
198	0xbd55d7f8	-0.052207917
199	0x3e0ca620	0.13735247
200	0xbd8f0ed0	-0.06985247
201	0x3e11bab0	0.14231372
202	0xbc54be7e	-0.01298487
203	0xbd88025f	-0.06641077
204	0x3dcf00ca	0.101075724
205	0x3d8e0eb4	0.06936398
206	0x3d90c752	0.07069267
207	0xbdddd38f	-0.10831367
208	0x39f83408	0.00047341012
209	0x3d514d7c	0.051099285
210	0x3d2d6603	0.042333614
211	0x3d64d55b	0.055867534
212	0x3d6cad9e	0.05778276
213	0xbd1c2c9c	-0.03812848
214	0x3df90508	0.12159163
215	0x3dd6091e	0.10450958
216	0x3e0c0de9	0.13677181
217	0xbdad0721	-0.08448625
218	0xbd223e23	-0.03961004
219	0x3d2957af	0.041343387
220	0x3e107c64	0.14109951
221	0x3e073174	0.13202459
222	0xbddb2b4b	-0.10701617
223	0x3d5f7075	0.054550607
224	0xbdccb8db	-0.09996196
225	0xbd44aa13	-0.048013758
226	0x3c3c7b42	0.011503996
227	0xbcc78976	-0.024357539
228	0x3de2ba86	0.11070733
229	0x3d979b70	0.07402694
230	0xbc86ba0c	-0.016446136
231	0xbd7491aa	-0.05970923
232	0xbd9693f6	-0.0735244
233	0xbd9c55dd	-0.076335646
234	0x3d16df42	0.03683401
235	0x3db16010	0.086609006
236	0x3d0f3646	0.03496387
237	0x3d3347c4	0.043769613
238	0x3dd502d8	0.10400933
239	0xbd037238	-0.03209135
240	0xbd11b3d6	-0.035571896
241	0xbd12e98e	-0.035867266
242	0x3cbd3c59	0.023100065
243	0x3d90ad50	0.07064307
244	0xbe27e98c	-0.16397685
245	0xbe00f1e0	-0.12592268
246	0xbbe4d247	-0.006983075
247	0xbc18873b	-0.009309585
248	0x3c5a4914	0.013323087
249	0x3dfc7590	0.12327111
250	0xbd11916f	-0.035539087
251	0xbc388bb6	-0.011263778
252	0xbbaa1aa3	-0.0051911636
253	0x3d930ba3	0.07179954
254	0x3e0ff8dc	0.14059776
255	0x3dd28d72	0.10280885

bias f4 [80]
0	0xbc1846cd	-0.009294224
1	0xbd9250c5	-0.07144312
2	0x3de27a32	0.11058463
3	0xbdd170b2	-0.10226573
4	0xbddad042	-0.10684253
5	0xbdc97b18	-0.098379314
6	0xbc11c932	-0.008898066
7	0x3d5f8c22	0.054577
8	0xbd2f8d11	-0.04285914
9	0xbe056dc5	-0.13030155
10	0xbe12c529	-0.14333023
11	0x3d4341f2	0.047670312
12	0x3ac8518b	0.0015283091
13	0x39a58274	0.00031568448
14	0xbe07f3fd	-0.13276668
15	0x3d04ea27	0.032449868
16	0xbcf66ef4	-0.030082203
17	0xbc8b58e3	-0.017010158
18	0x3e079871	0.13241746
19	0x3d7beec4	0.061507
20	0x3dce277f	0.10066127
21	0x3cefe69b	0.029284766
22	0xb978b4f1	-0.00023718529
23	0x3dac9057	0.08425968
24	0x3d0b21d4	0.033967808
25	0xbb52e0ec	-0.003217752
26	0x3dd0fa89	0.10204036
27	0x3b840c6b	0.0040298006
28	0xbc8858d8	-0.016643927
29	0x3e0159a6	0.12631854
30	0xbe035ae9	-0.12827648
31	0xbdfb775e	-0.12278627
32	0xbda2e62f	-0.0795406
33	0xbe0587ff	-0.1304016
34	0xbcc3d593	-0.023905551
35	0xbe0a9a18	-0.13535345
36	0xbcac43e0	-0.02102846
37	0xbd988c62	-0.07448651
38	0xbbf9064c	-0.0075996276
39	0xbe0d14b9	-0.13777436
40	0xbca2a450	-0.01985374
41	0xbe31fbc7	-0.17381202
42	0xbdcc3ef1	-0.099729426
43	0xbdd05bfb	-0.10173794
44	0xbda1a958	-0.07893628
45	0xbdabb3f5	-0.083839335
46	0x3db969e0	0.09053397
47	0xbe0b7d6f	-0.13622068
48	0x3d3f114c	0.046647355
49	0x3e0045d7	0.12526642
50	0xbe0df0a1	-0.13861324
51	0x3da23f07	0.07922178
52	0x3d728650	0.05921012
53	0xbd51ccba	-0.051220633
54	0xbdec335f	-0.11533236
55	0x3d8faeb0	0.07015741
56	0x3c671212	0.014103429
57	0xbe046879	-0.12930478
58	0xbdb4e723	-0.08833148
59	0xbda5b4e5	-0.080911435
60	0xbe0ec54d	-0.13942452
61	0x3d13a66b	0.03604738
62	0x3d419c1a	0.04726801
63	0xbe014620	-0.12624407
64	0xbde88339	-0.11353154
65	0x3dbe84f6	0.09302704
66	0x3d0ceb35	0.034404
67	0xbe3d1f8a	-0.18469062
68	0x3d616461	0.05502737
69	0x3cb627cc	0.022235774
70	0x3dcefd4f	0.101069085
71	0x3dabecca	0.08394773
72	0xbde69b32	-0.1126007
73	0x3d71fd73	0.0590796
74	0xbe2f7623	-0.1713491
75	0xbe0a1606	-0.13484964
76	0xbe153673	-0.14571552
77	0xbd8fed9a	-0.07027741
78	0x3e03ad8d	0.12859173
79	0x3ce82238	0.02833663

weight f4 [5, 80]
0	0xbd9754bc	-0.07389209
1	0xbd3233da	-0.04350648
2	0xbb7ad0d5	-0.0038271446
3	0x3bc63670	0.00604897
4	0x3d0074fb	0.03136156
5	0x3ce26cb6	0.027639728
6	0x3d2af8f0	0.04174131
7	0x3c1fcc1e	0.009753255
8	0xbb0844d0	-0.0020792969
9	0x3c69c25d	0.014267531
10	0xbca1a31c	-0.019731097
11	0xbae84a3d	-0.001772232
12	0x3d6fd6d5	0.05855449
13	0x3ce7887e	0.028263327
14	0x3b745d5f	0.0037287099
15	0xbd4c2e67	-0.04984894
16	0x3ca295fe	0.019846912
17	0x3d283bc2	0.041072614
18	0xbcac67c6	-0.021045577
19	0x3bf7df2d	0.0075644464
20	0xbcc76b17	-0.024343057
21	0x3d6e7820	0.05822003
22	0x3bc94ac4	0.006142946
23	0xbd1e19a4	-0.03859867
24	0xbcb1fee0	-0.02172798
25	0x3c3be646	0.011468476
26	0x3d84017c	0.064455956
27	0x3d5ddc14	0.05416496
28	0xbb42895a	-0.0029683919
29	0x3ccc0218	0.024903342
30	0xbd043bb7	-0.03228351
31	0x3d3d5751	0.04622585
32	0xbd5d2121	-0.053986672
33	0xbd70e70c	-0.058814093
34	0xbdd880eb	-0.10571464
35	0xb9b8f13d	-0.0003527495
36	0xbd1ce0a7	-0.038300183
37	0xbd193ba8	-0.03741041
38	0xbb3d2782	-0.002886266
39	0xbb9701f9	-0.0046083895
40	0xbcff2ba1	-0.031148734
41	0xbce20a7e	-0.027592894
42	0x3c88b4f9	0.016687857
43	0x3cf2f223	0.029656475
44	0xbd122a1a	-0.035684682
45	0xbb5dda67	-0.0033852102
46	0xbac8efc4	-0.0015330245
47	0x3c90212e	0.017593946
48	0xbbfede56	-0.0077779694
49	0xbda5c496	-0.080941364
50	0xbb85b0d1	-0.004079916
51	0x3c5c113d	0.013431844
52	0xbccad8d2	-0.024761591
53	0xbd6e5749	-0.05818871
54	0xbd186fe6	-0.03721609
55	0xbd86b9f8	-0.065784395
56	0x3d52e850	0.05149108
57	0x3d2510e2	0.040299304
58	0xbba1b3e8	-0.0049347766
59	0x3d44828f	0.047976073
60	0xbdacd765	-0.08439521
61	0x3bf07bf9	0.0073389974
62	0x3d80760c	0.06272516
63	0xbcc819a7	-0.024426294
64	0x3d682dc8	0.056684285
65	0xbaa27365	-0.0012394009
66	0x3ba1922d	0.0049307556
67	0xb9027fdd	-0.00012445399
68	0xbd0bad78	-0.03410098
69	0x3d54aa60	0.051920295
70	0x3d28b4fa	0.041188218
71	0xbd012068	-0.031525046
72	0x3c076cf0	0.008265719
73	0xbcf7591a	-0.030193854
74	0x3ce43b29	0.027860241
75	0x3d45a47d	0.04825257
76	0x3d2332ac	0.039843246
77	0xbd804130	-0.062624335
78	0xbc4c6217	-0.012474558
79	0xbd443c34	-0.047908977
80	0xbbd46f2f	-0.0064829807
81	0xbd8ac463	-0.06775739
82	0x3cc8d0d4	0.02451364
83	0xbd6fcc4b	-0.05854444
84	0xbd1a4450	-0.037662804
85	0xbc6570f9	-0.014003986
86	0x3ce33837	0.027736766
87	0x3d0f845f	0.03503835
88	0xbd033080	-0.032028675
89	0xbd9ac307	-0.0755673
90	0x3d3fbe4e	0.046812348
91	0xbca1e184	-0.019760855
92	0xbd6b3a2b	-0.05742852
93	0x3b7a6070	0.0038204454
94	0x3d822959	0.06355543
95	0x3d8ae116	0.06781213
96	0x3d8aadb0	0.067714095
97	0x3cc4a84a	0.024006028
98	0xbc746f50	-0.014919117
99	0x3d9bb0b0	0.0760206
100	0xbc5d14f9	-0.01349377
101	0x3d89f257	0.06735676
102	0xbd4e0cf4	-0.05030532
103	0xbd9e6708	-0.077344954
104	0x3ce2b74a	0.02767529
105	0xbd2afff9	-0.04174802
106	0x3ccc6467	0.02495022
107	0x3d668bdf	0.056285735
108	0x3d16df88	0.03683427
109	0x3dbad777	0.09123128
110	0xbd0117bd	-0.03151678
111	0x3d1b55e4	0.03792371
112	0x3d4c6e3f	0.049909826
113	0xbc92bf9d	-0.017913634
114	0xbd8818f6	-0.06645386
115	0x3cf24a7f	0.029576538
116	0x3ce60f20	0.028083384
117	0x3d1924bb	0.037388545
118	0x3d92b288	0.071629584
119	0x3d811eec	0.06304726
120	0x3d2cee46	0.042219423
121	0xbd551a0a	-0.052026786
122	0x3bf59856	0.0074949665
123	0x3d370b21	0.044688348
124	0xbd7137d8	-0.058891147
125	0x3d479d1d	0.04873382
126	0xbd37735c	-0.04478775
127	0x3d65dee2	0.05612076
128	0x3b372638	0.0027946364
129	0xbd823053	-0.06356873
130	0x3caf5278	0.021401629
131	0x3bbb7f34	0.005721951
132	0x3d85ba0a	0.06529625
133	0xbbc007c4	-0.0058603007
134	0xbd5119af	-0.051049884
135	0x3d1ad61a	0.03780184
136	0xbd900c6b	-0.070336185
137	0xbb3f7d01	-0.0029218795
138	0xbdac444c	-0.08411464
139	0xbd7c8cc0	-0.061657667
140	0xbc2e565d	-0.010640708
141	0x3b8c197e	0.0042755
142	0x3d19eb98	0.037578195
143	0xbc79f79e	-0.01525679
144	0x3c4462fa	0.0119864885
145	0xbd016317	-0.03158864
146	0x3d2f684a	0.042824067
147	0xbd61d31f	-0.05513298
148	0xbd42753a	-0.047475077
149	0xbbd90225	-0.00662257
150	0xbcbae57c	-0.022814505
151	0xbc364de1	-0.011126966
152	0x3c4f3b3a	0.012648398
153	0xbd833a45	-0.064075984
154	0xbd9fa827	-0.077957444
155	0xbd7611c4	-0.060075536
156	0xbd11b252	-0.03557045
157	0xbd880234	-0.06641045
158	0xbbbedbcf	-0.005824543
159	0x3cd44ec0	0.025916457
160	0x3cc47fa9	0.023986654
161	0xbc59509e	-0.01326385
162	0x3d1013a2	0.035174973
163	0xbd15dfef	-0.036590513
164	0x3d5c69bb	0.05381177
165	0xbd61f89c	-0.055168733
166	0xbdb5b8b1	-0.08873118
167	0x3ca16e96	0.019706052
168	0x3d3024e9	0.04300395
169	0x3cf88a2e	0.030339327
170	0xbd0bd6f7	-0.034140553
171	0xbd256be1	-0.040386084
172	0x3ca86c2f	0.020559398
173	0x3d6714d2	0.05641634
174	0xbd45abfb	-0.048259716
175	0xbca729ad	-0.020405615
176	0xbd9cde36	-0.07659571
177	0x3d10bb97	0.03533515
178	0x3bda4af2	0.006661766
179	0x3dc4f219	0.09616489
180	0x3c60e79f	0.013727098
181	0xbd6c2442	-0.057651766
182	0xbcdfcc56	-0.027319115
183	0x3d617e1c	0.055051908
184	0x3d0c5e2f	0.034269508
185	0x3c661824	0.0140438415
186	0xbd3a1bf7	-0.045436826
187	0x3d8d22ea	0.06891425
188	0x3b93cc45	0.004510435
189	0xbd7f3009	-0.06230167
190	0xbcfd3407	-0.030908598
191	0x3d86bf99	0.06579513
192	0x3d157b8c	0.036494777
193	0xbd126a88	-0.035746127
194	0x3ce9c136	0.028534513
195	0xbd157c38	-0.036495417
196	0x3d6dfeb2	0.058104225
197	0x3c92bf1d	0.017913396
198	0xbc8996e5	-0.016795585
199	0xbd050f9b	-0.032485586
200	0x3bda754e	0.006666816
201	0xbc844552	-0.016146336
202	0x3c679b47	0.014136142
203	0xbae3e9b2	-0.0017388372
204	0x3cdef0eb	0.027214488
205	0xbaca3d72	-0.0015429689
206	0x3c513fe6	0.012771582
207	0xbdc3d402	-0.09561922
208	0x3dc281a0	0.0949738
209	0x3d3e2759	0.046424244
210	0x3c2ebbe1	0.010664911
211	0x3d53c692	0.051703043
212	0x3d821d56	0.06353252
213	0x3d13e388	0.036105663
214	0x3c2030b0	0.009777233
215	0x3d474b06	0.048655532
216	0x3cb4782a	0.022029955
217	0xbd5d803a	-0.054077365
218	0xbd803778	-0.0626058
219	0xbd0920b2	-0.033478446
220	0x3d9b7611	0.07590879
221	0xbba978ac	-0.005171856
222	0xbc733cb1	-0.014846013
223	0x3bb9c23d	0.005668907
224	0xbd4b2cbf	-0.04960322
225	0xbd770352	-0.0603059
226	0xbadde68e	-0.0016929673
227	0x3c67821b	0.014130141
228	0xbda2b966	-0.07945518
229	0x3d3c58c6	0.0459831
230	0x3ca8a4ef	0.020586459
231	0xbda0911c	-0.078401774
232	0x3d4a7bbd	0.049434412
233	0xbc068a64	-0.008211706
234	0x3d33671c	0.043799505
235	0x3d80db48	0.062918246
236	0xbab6ab80	-0.0013936609
237	0xbca410d9	-0.020027565
238	0x3b6c05dd	0.0036014237
239	0x3bca9941	0.00618282
240	0xbc4def20	-0.012569219
241	0x3c198856	0.009370884
242	0xbc89750a	-0.016779441
243	0xbc8e0220	-0.017334998
244	0xbd9b96b8	-0.07597107
245	0x3d6e3779	0.05815837
246	0x3d982f9d	0.074309565
247	0xbc739c84	-0.014868859
248	0xbd838177	-0.06421178
249	0x3c7546f6	0.014970532
250	0x3cfd5e2e	0.030928697
251	0x3b06e9b1	0.0020586068
252	0xbc9a7e02	-0.018858913
253	0xbdc09099	-0.0940258
254	0xbcf3822e	-0.02972516
255	0x3d05c6af	0.032660183

bias f4 [5]
0	0x3ce266f1	0.027636977
1	0x3ca483a6	0.020082306
2	0xbc4cb0cf	-0.012493326
3	0x3ca89f75	0.020583848
4	0xbd64d2d1	-0.055865113
