final_project/mlruns/1/62a1202877a74ababffaaab96dda9ca6/artifacts/cvae_43/data/model.pth (torch, 48071 bytes, 10 tensors)

weight f4 [80, 10]
0	0xbe95b8f5	-0.29242674
1	0xbdd3b664	-0.103375226
2	0x3d0a3a72	0.033747144
3	0xbe9dcff1	-0.3082271
4	0xbe50a626	-0.2037588
5	0x3e866a67	0.26253054
6	0xbad30d2e	-0.001610195
7	0x3e5181d5	0.20459683
8	0x3dbd4cbd	0.09243152
9	0xbe64f783	-0.22360043
10	0xbe15f15b	-0.14642851
11	0x3e9cdc85	0.30636993
12	0xbe01c153	-0.12671404
13	0xbe8f11f3	-0.27943382
14	0xbdf823fe	-0.1211624
15	0x3b172a0e	0.0023065838
16	0x3be4dd19	0.0069843647
17	0xbda8a925	-0.08235387
18	0xbe8084f0	-0.25101423
19	0x3d08118e	0.033219866
20	0xbe587612	-0.2113879
21	0x3e23f66f	0.16011976
22	0x3cb99ffd	0.022659296
23	0x3d5d4f66	0.0540308
24	0xbd1f526f	-0.038896974
25	0xbe2f7e1f	-0.17137955
26	0xbe83df15	-0.25756136
27	0xbcb12cb8	-0.021627769
28	0xbe0ec111	-0.13940836
29	0x3e779c2e	0.24180672
30	0xbe910df0	-0.28330946
31	0x3ea400da	0.320319
32	0x3d485109	0.048905406
33	0xbdf1c44d	-0.118050195
34	0x3e76e808	0.2411195
35	0x3c83c52c	0.01608523
36	0xbe717c0c	-0.23582476
37	0x3e31584d	0.1731884
38	0xbe5aa7b0	-0.2135303
39	0x3e13467e	0.1438236
40	0x3dd71705	0.105024375
41	0xbda5570c	-0.080732435
42	0x3e7fad19	0.24968375
43	0xbe0e2ca9	-0.13884224
44	0x3d338b82	0.043834217
45	0x3e97bacd	0.29634705
46	0xbe8283f4	-0.25491297
47	0x3e722325	0.23646219
48	0x3cb92891	0.022602351
49	0x3de55845	0.11198477
50	0xbd6bb221	-0.057542924
51	0x3e1d9989	0.153906
52	0xbe364683	-0.17800336
53	0x3e324082	0.1740742
54	0xbe826882	-0.25470358
55	0x3e8fa4a6	0.28055304
56	0xbc9baacd	-0.019002343
57	0x3e89d16c	0.2691759
58	0x3e5046c5	0.20339496
59	0x3e43005e	0.19043109
60	0x3e1d1606	0.15340433
61	0xbe562fc8	-0.20916665
62	0xbe6a8778	-0.2290324
63	0x3d39f7d0	0.045402348
64	0xbe8a1ae5	-0.26973644
65	0x3caf4ab2	0.021397922
66	0xbe89a529	-0.2688382
67	0x3e9e8152	0.3095804
68	0xbd93392c	-0.07188639
69	0x3ca01d9a	0.019545365
70	0x3e8c0209	0.27345303
71	0x3e1d896d	0.15384455
72	0x3d968858	0.07350224
73	0x3e9d0132	0.30664974
74	0x3dfdf303	0.123998664
75	0x3e0fb815	0.14035065
76	0x3da79dcc	0.08184394
77	0xbe95c5cb	-0.29252467
78	0x3e836bc1	0.25668147
79	0x3e4ee1e8	0.20203364
80	0x3ea38940	0.3194065
81	0xbd1fc1d2	-0.0390032
82	0x3d91afa7	0.07113581
83	0xbd072f5e	-0.033004157
84	0x3e5e2549	0.2169391
85	0xbe8da97b	-0.27668366
86	0xbd3e2109	-0.046418224
87	0xbd9e41df	-0.07727408
88	0xbba731ba	-0.0051023634
89	0xbdf0f0ea	-0.11764701
90	0xbe1de702	-0.15420154
91	0xbe8a2c5d	-0.26986971
92	0x3ea84ea6	0.32872504
93	0xbe91a9b1	-0.28449777
94	0x3dbc6b55	0.092001595
95	0x3e69559e	0.22786567
96	0x3cdc571a	0.026897002
97	0xbe0ae752	-0.13564804
98	0xbd8feff7	-0.070281915
99	0x3db76f37	0.089567594
100	0x3c69ab62	0.014262052
101	0x3e68c40b	0.22731034
102	0x3e4392dc	0.19098991
103	0xbd5b4342	-0.05353094
104	0x3e5f4a0d	0.21805592
105	0x3e2fdb82	0.1717358
106	0xbe88d800	-0.26727295
107	0x3dd3b9c1	0.10338164
108	0xbe96a674	-0.2942387
109	0x3e86a1c5	0.26295295
110	0xbd8e46ff	-0.06947135
111	0xbe12972a	-0.14315477
112	0xbe623012	-0.2208865
113	0xbe8bb53d	-0.2728671
114	0xbd71ddb6	-0.05904933
115	0xbe941a27	-0.28926203
116	0x3e907e4e	0.28221363
117	0x3e05e349	0.13074984
118	0xbe331bf8	-0.17491138
119	0x3df9b1b0	0.12192094
120	0x3e78c8f7	0.24295412
121	0xbe4106e8	-0.18850291
122	0xbe870886	-0.2637369
123	0x3e9fb654	0.31193793
124	0xbdd8f0b1	-0.10592783
125	0x3e15263d	0.14565368
126	0xbe699107	-0.2280923
127	0xbe7b4770	-0.2453897
128	0xbc39cd66	-0.011340475
129	0x3e6fec63	0.23430018
130	0x3e10bcd8	0.14134538
131	0x3e0ea47d	0.13929935
132	0x3d6ac260	0.057314277
133	0xbe93b674	-0.28850138
134	0xbd6ce11a	-0.05783186
135	0x3cf07ef0	0.029357404
136	0x3e647d2c	0.22313374
137	0xbe0a6906	-0.13516626
138	0xbde863ac	-0.11347136
139	0xbe59883c	-0.21243376
140	0x3ddd4f27	0.10806113
141	0x3e9a3365	0.30117336
142	0x3dd32b19	0.103109546
143	0x3e08f2e4	0.13373905
144	0xbe890dd7	-0.2676837
145	0x3e5d11ff	0.21588896
146	0x3d1b1375	0.037860353
147	0xbe4d0ef2	-0.20025232
148	0x3dc67f3c	0.09692237
149	0x3cdecb37	0.02719651
150	0xbdc83f5e	-0.09777711
151	0xbe4e9efb	-0.20177834
152	0xbdd2441f	-0.10266899
153	0xbe67382b	-0.2258002
154	0x3ebbdd17	0.36692116
155	0x3e770b1e	0.24125335
156	0xbe71f3cc	-0.23628157
157	0xbe74f4e6	-0.23921546
158	0x3e365251	0.17804839
159	0x3daff5cf	0.08591806
160	0xbe0b816b	-0.13623588
161	0xbe192e8e	-0.14959165
162	0x3e21aa89	0.1578771
163	0x3e1f4061	0.15551902
164	0xbd8bc74e	-0.06825124
165	0x3e9b0947	0.30280516
166	0x3b879cc0	0.004138559
167	0xbd8459cf	-0.06462442
168	0x3d0c3cd3	0.034237694
169	0xbe4435ea	-0.19161192
170	0xbdd4e51b	-0.10395261
171	0xbe329377	-0.17439066
172	0xbda3e089	-0.08001811
173	0x3dee6b24	0.11641529
174	0x3df65587	0.12028032
175	0x3de4d110	0.11172688
176	0x3bf7480e	0.0075464314
177	0xbe677313	-0.22602491
178	0xbe6e2018	-0.2325443
179	0x3df40ee6	0.11916904
180	0xbe776c13	-0.24162321
181	0xbe3aebd0	-0.18254018
182	0x3daa61e3	0.08319452
183	0x3e669a1a	0.22519723
184	0xbd2acd68	-0.041699797
185	0x3e098de1	0.13433029
186	0x3dd10cb5	0.10207502
187	0xbde8195c	-0.11332962
188	0x3da151f1	0.07876957
189	0x3e53ada1	0.20671703
190	0xbe1d41ba	-0.15357104
191	0xbde980ff	-0.11401557
192	0x3ddbb3eb	0.10727676
193	0xbc6f8fb5	-0.014621665
194	0xbe246674	-0.16054708
195	0x3e485842	0.19564918
196	0xbe3de8f5	-0.18545897
197	0x3e9bb095	0.3040816
198	0x3e00a25e	0.12561938
199	0xbe88a7e7	-0.266906
200	0xbd89a599	-0.06721038
201	0x3e53a9a8	0.20670187
202	0xbe4bec0c	-0.19914263
203	0x3e13e204	0.14441687
204	0xbe14faa6	-0.1454874
205	0x3dc006cb	0.09376296
206	0xbcc5fa9d	-0.024167353
207	0x3e34e5e5	0.17665823
208	0x3e691c99	0.22764815
209	0x3bd848a3	0.006600456
210	0xbd994568	-0.07483941
211	0x3b8fa67f	0.0043838616
212	0xbe84ae3d	-0.25914183
213	0xbe477bef	-0.1948087
214	0x3e35e8f4	0.17764646
215	0xbe0467d1	-0.12930228
216	0x3e17ebbc	0.1483602
217	0x3e9b5fc5	0.30346504
218	0xbea04837	-0.31305096
219	0x3e2e97d9	0.17050113
220	0xbe6d94c8	-0.23201287
221	0x3e81c84d	0.2534813
222	0x3e3d8516	0.185078
223	0x3e49f51f	0.19722413
224	0x3e43edc6	0.19133672
225	0xbd475b92	-0.048671313
226	0x3e1c9348	0.15290558
227	0xbbb7b87e	-0.00560671
228	0x3d177f3a	0.036986567
229	0xbe51924e	-0.20465967
230	0xbe3959b6	-0.18100628
231	0xbe8a8d5e	-0.2706098
232	0x3da50238	0.08057064
233	0x3d824b27	0.063619904
234	0x3d6cbab8	0.057795256
235	0x3dff4033	0.12463417
236	0x3e95eb16	0.2928092
237	0x3e35b879	0.17746152
238	0x3e5c9801	0.2154236
239	0x3e6e9107	0.23297511
240	0xbdbe57f9	-0.09294123
241	0x3e5a7390	0.21333146
242	0x3ea6a18d	0.32545128
243	0x3e0800d4	0.13281566
244	0xbda7b25a	-0.08188315
245	0x3dd34de8	0.10317594
246	0xbdbbd418	-0.09171313
247	0xbe876815	-0.26446596
248	0xbe8a4e8b	-0.2701305
249	0x3df43de3	0.119258665
250	0x3de2e9c4	0.110797435
251	0xbcbeba40	-0.02328217
252	0x3e87b626	0.26506156
253	0xbe9913f6	-0.2989804
254	0xbe80376d	-0.25042287
255	0xbe74305e	-0.23846576

bias f4 [80]
0	0x3eb643e3	0.35598668
1	0xbe4f86f0	-0.20266318
2	0x3eb4bc5a	0.3529995
3	0x3ea7b794	0.32757246
4	0xbe6808c4	-0.22659594
5	0x3e8b55eb	0.27213988
6	0xbe86ab4e	-0.2630257
7	0xbdea462d	-0.11439166
8	0x3ec5532f	0.38540027
9	0x3e85532f	0.26040027
10	0xbe5cf1b7	-0.21576582
11	0xbe688b0b	-0.2270929
12	0xbe1d8dec	-0.1538617
13	0xbe003fe2	-0.1252437
14	0x3e6ded81	0.23235132
15	0x3eefb02f	0.46814105
16	0xbe82fb53	-0.2558237
17	0xbe5b080e	-0.21389791
18	0xbdb99cc2	-0.09063102
19	0x3ecea258	0.40358233
20	0xbe05256e	-0.1300256
21	0xbca65a2c	-0.02030667
22	0x3edda1e2	0.4328757
23	0xbe920dcc	-0.2852615
24	0x3ecae4a6	0.3962757
25	0x3e89322f	0.267961
26	0x3efd9cbe	0.49533647
27	0x3e96908e	0.2940716
28	0x3eb4e2f0	0.3532939
29	0xbcbc110c	-0.022957347
30	0x3ea19e25	0.31565967
31	0xbe51421f	-0.2043538
32	0xbe428d61	-0.18999244
33	0xbe9fe7e7	-0.31231615
34	0x3ec8adee	0.39195198
35	0xbd80dd23	-0.062921785
36	0xbdbc6e18	-0.09200686
37	0x3e888a84	0.2666818
38	0x3e96d478	0.29458976
39	0xbdc32243	-0.09528019
40	0x3ec255b2	0.37956005
41	0xbe99bddf	-0.30027673
42	0x3e9a999c	0.3019532
43	0x3e9f2476	0.31082505
44	0x3f03aa84	0.5143206
45	0x3ebeb7a2	0.37249476
46	0x3f0b338e	0.5437554
47	0xbe65af16	-0.22430071
48	0x3e9881d8	0.29786563
49	0x3e8ebf7a	0.2788046
50	0xbe57c72e	-0.21072075
51	0xbd6299b1	-0.055322353
52	0xbe52d5bc	-0.20589346
53	0xbd8e8e9a	-0.06960793
54	0xbd96a6b4	-0.07356015
55	0x3ecfe818	0.4060676
56	0x3e9138bc	0.28363597
57	0xbe6c94e9	-0.2310368
58	0x3edd0f3e	0.4317569
59	0x3ed04bd6	0.40682858
60	0xbe79fffe	-0.2441406
61	0x3ef22799	0.47295836
62	0xbe7b3368	-0.24531329
63	0x3e707a41	0.23484136
64	0x3eaf928c	0.34291494
65	0x3e842cfe	0.25815576
66	0xbe1c7c86	-0.15281877
67	0x3ede42ac	0.43410242
68	0xbe13c14a	-0.14429203
69	0x3e82ed69	0.25571755
70	0x3ee8c972	0.4546619
71	0xbe0c7a31	-0.13718487
72	0x3eefe30a	0.46852905
73	0xbdaf7fe5	-0.08569316
74	0xbe84784c	-0.2587303
75	0x3e822b67	0.25423738
76	0x3ebb38f4	0.3656689
77	0xbdffb2b1	-0.124852546
78	0xbe2d89af	-0.16947053
79	0x3eb64c8d	0.3560528

weight f4 [40, 80]
0	0x3b1a3937	0.0023532638
1	0xbd323d83	-0.043515693
2	0xbe117e62	-0.14208367
3	0xbdb06137	-0.08612292
4	0xba693d46	-0.0008897375
5	0x3d0c65cb	0.034276765
6	0x3d991dc8	0.074763834
7	0x3d30c61e	0.04315769
8	0x3bf55923	0.0074874326
9	0xbd58b1fd	-0.052904118
10	0x3cc52134	0.024063684
11	0x3d64cb37	0.055857863
12	0xbdb719a1	-0.08940435
13	0x3cfd8fb6	0.030952316
14	0x3cfbccf4	0.030737378
15	0xbd5ccec1	-0.053908113
16	0xbd49e5bf	-0.04929137
17	0x3dda5662	0.106610075
18	0x3dc28775	0.09498493
19	0xbd0572fa	-0.032580353
20	0x3db9b1b0	0.09067094
21	0x3d1b2b65	0.03788318
22	0xbcab85f7	-0.020937903
23	0xbdba93b6	-0.09110205
24	0xbd82ffcb	-0.06396445
25	0x3ba43a5f	0.005011841
26	0x3b78e11d	0.0037975975
27	0xbdc21ece	-0.09478532
28	0xbdb3d360	-0.08780551
29	0xbcfdc3d4	-0.030977167
30	0xbdef09fb	-0.116718255
31	0x3dda95dc	0.10673115
32	0xbc3b258b	-0.011422525
33	0xbd1fa741	-0.038977865
34	0xbde2e30a	-0.110784605
35	0x3d13d7d3	0.036094498
36	0xbd959a91	-0.07304872
37	0xbcffadd5	-0.03121082
38	0xbd691310	-0.056902945
39	0x3de45bc6	0.11150317
40	0x3bed0a9f	0.007233932
41	0xbda33b56	-0.07970302
42	0xbdcfb8de	-0.101426825
43	0xbcf6232b	-0.030046066
44	0x3cc0f82c	0.023555838
45	0x3d31ed89	0.04343942
46	0xbe02df72	-0.1278055
47	0x3de2fcf8	0.11083406
48	0xbb883340	-0.0041565
49	0xbd8d2066	-0.06890945
50	0xbd2b8dad	-0.04188316
51	0xbdd9eb5e	-0.10640596
52	0xbc2851b3	-0.010273385
53	0x3d1ef5b3	0.038808536
54	0xbd208679	-0.039190743
55	0xbd56b97e	-0.052422993
56	0xbda5ea6d	-0.08101354
57	0x3c4c185b	0.012456979
58	0x3d156188	0.036469966
59	0xbe24bb05	-0.16086967
60	0xbc45eecf	-0.012080862
61	0xbdf7d2fc	-0.12100789
62	0x3ca8450a	0.020540733
63	0xbdd53f7c	-0.10412499
64	0xbe09743c	-0.13423246
65	0xbe14df5b	-0.14538328
66	0xbd3b3076	-0.045700513
67	0xbd73400f	-0.059387263
68	0xbd82ef54	-0.063933045
69	0x3c911639	0.017710792
70	0x3d68694a	0.056741036
71	0x3d075c7c	0.033047184
72	0x3d8c2eba	0.0684485
73	0xbdd0de4b	-0.10198649
74	0x3d3c281e	0.045936696
75	0xbd498493	-0.0491987
76	0xbd7d6ae6	-0.061869524
77	0xbd838085	-0.064209975
78	0x3c6a8e15	0.014316102
79	0x3ca72f33	0.020408249
80	0x3d01eed0	0.03172189
81	0x3ca3908d	0.019966388
82	0xbd664b05	-0.056223888
83	0x3c8c2e2a	0.017111856
84	0xbc80ef7e	-0.015739199
85	0xbcd68a72	-0.026189063
86	0x3da1074e	0.078627214
87	0x3d26719e	0.040635698
88	0x3d8ff971	0.07029999
89	0xbdb9f549	-0.090799876
90	0x3cf8f6d0	0.030391127
91	0xbd576936	-0.05259057
92	0xbc339a07	-0.010962016
93	0x3c60c1a9	0.013718047
94	0x3cda34a7	0.026636435
95	0xbd9e5e66	-0.07732849
96	0x3b49f053	0.003081341
97	0xbd3b79c3	-0.045770418
98	0x3d53c3d2	0.05170042
99	0xbdba503b	-0.09097334
100	0x3cc2a951	0.023762377
101	0x3d699c14	0.057033613
102	0xbe04bd26	-0.1296278
103	0x3d27412e	0.040833645
104	0xbd021cc9	-0.031765733
105	0xbdd8a80a	-0.10578926
106	0x3cd29b7c	0.025708906
107	0xbdf748e4	-0.1207445
108	0x3ce62bfa	0.028097142
109	0x3d735663	0.059408557
110	0xbdb675cb	-0.08909186
111	0xbcda7229	-0.026665764
112	0x3d1d6881	0.03842974
113	0xbdabaa55	-0.08382098
114	0xbd95c09c	-0.07312128
115	0x3d21f26b	0.03953783
116	0xbc4c02aa	-0.012451807
117	0xbde22d32	-0.110437766
118	0x3cb084be	0.021547671
119	0xbd44e1f3	-0.048067044
120	0xbd56b274	-0.05241628
121	0xbd80bb21	-0.06285692
122	0xbd92b7f3	-0.07163992
123	0xbd7f2087	-0.06228688
124	0xbdbd9981	-0.09257794
125	0x3d652b4b	0.05594949
126	0xbde230da	-0.11044474
127	0xbd8dd6dc	-0.06925747
128	0xbdf0d5cd	-0.11759529
129	0xbd8d6c39	-0.069054075
130	0xbd00f74b	-0.031485837
131	0xbd220699	-0.039557073
132	0x3d28bbad	0.041194607
133	0xbc961a94	-0.01832322
134	0x3c0d3f83	0.008621099
135	0xbe02d307	-0.12775813
136	0xbd0f100d	-0.034927417
137	0xbd0304b3	-0.031986903
138	0x3d99cb1f	0.075094454
139	0x3d979dd9	0.07403154
140	0x3dd26867	0.102738194
141	0xbd333eee	-0.043761186
142	0x3d64916d	0.05580275
143	0xbd80a551	-0.062815316
144	0x3d3ae84f	0.045631703
145	0xbcc88de2	-0.024481717
146	0xbbaf48be	-0.0053492477
147	0x3d689167	0.05677929
148	0x3d32ccad	0.043652225
149	0xbdc431ef	-0.095798366
150	0xbdd210be	-0.102570996
151	0x3ce3bead	0.027800882
152	0xbca2ff6e	-0.019897189
153	0xbd4c7ae3	-0.04992188
154	0x3c82b303	0.0159545
155	0xbd291779	-0.04128215
156	0x3d2a541f	0.04158413
157	0xbdab3a1a	-0.08360691
158	0xbcec1c30	-0.028822035
159	0xbdb8eca6	-0.09029512
160	0xbd6b8808	-0.057502776
161	0xbc370fcb	-0.011173199
162	0x3c78e41f	0.015191107
163	0xbba929d7	-0.0051624584
164	0xbc25564e	-0.010091377
165	0xbd7309c6	-0.059335493
166	0xbd7bea16	-0.06150254
167	0x3d9433a9	0.07236416
168	0x3d66426a	0.05621568
169	0xbdf6991d	-0.12040923
170	0x3d9cafcf	0.0765072
171	0x3cb07d67	0.021544171
172	0x3d42b663	0.04753722
173	0x3d937c74	0.07201472
174	0xbd25669f	-0.04038107
175	0xbd86b23a	-0.06576963
176	0xbddcc9a4	-0.107806474
177	0xbd46e5ac	-0.048558876
178	0xbdc60cb4	-0.09670392
179	0x3cf33ee7	0.02969308
180	0x3de3086e	0.11085592
181	0xbcacc50b	-0.021090051
182	0xbbfe649d	-0.007763459
183	0x3dc2a999	0.095050044
184	0x3c4085a8	0.011750616
185	0xbdc336fc	-0.09531972
186	0x3d342625	0.04398169
187	0x3c4b1dd4	0.012397248
188	0x3cc9f6dd	0.024653846
189	0xbcb27e2e	-0.021788683
190	0x3d0bd137	0.03413507
191	0xbcf97269	-0.030450063
192	0x3da2b482	0.079445854
193	0x3d2658de	0.040612094
194	0x3d5feb8f	0.054668006
195	0xbccdb094	-0.025108613
196	0x3c2b1147	0.010441131
197	0x3d0cc455	0.034366924
198	0x3daed7db	0.08537265
199	0xbd104bff	-0.035228726
200	0x3d58b83a	0.052910067
201	0x3d950a8d	0.07277403
202	0x3d94a64d	0.07258282
203	0x3d569806	0.052391075
204	0xbdbc0a0d	-0.091816045
205	0x3dacc483	0.08435919
206	0x3ce4192d	0.027844036
207	0x3da7b93e	0.08189629
208	0x3d5f5454	0.05452378
209	0x3d8a71e9	0.06760008
210	0xbd8c4a99	-0.06850166
211	0x3dce6498	0.100777805
212	0x3d9df851	0.07713378
213	0xbd8dc327	-0.06921988
214	0x3d72b615	0.05925568
215	0x3dba196c	0.0908688
216	0xbd14a594	-0.03629072
217	0x3d0d827b	0.034548264
218	0xbcd0854e	-0.02545419
219	0xbd050830	-0.03247851
220	0x3cc7770b	0.024348756
221	0xbc0a263c	-0.008431967
222	0xbc44aec6	-0.01200456
223	0x3e0d84fd	0.13820262
224	0x3c56bb6f	0.013106211
225	0xbdaeaf42	-0.085295215
226	0xbde4aefe	-0.111661896
227	0x3daf2059	0.08551092
228	0x3da467ff	0.08027648
229	0xbc60c19e	-0.013718037
230	0x3d8eb9f2	0.0696906
231	0xbdcc68aa	-0.099809006
232	0xbb1fb404	-0.0024368772
233	0x3cb2bb1b	0.021817734
234	0x3cce4217	0.025177998
235	0xbd88753c	-0.06662986
236	0xbda0d959	-0.07853956
237	0xbd458137	-0.048218932
238	0x3c0c8cd9	0.008578503
239	0xbc9e0e7d	-0.019294018
240	0x3db1f4ae	0.08689247
241	0x3ca706d1	0.020388993
242	0x3db670cd	0.08908234
243	0x3e00bb45	0.12571438
244	0xbdaaa6dd	-0.08332608
245	0x3d266c7a	0.040630795
246	0xbd51e94c	-0.05124788
247	0xbd274c55	-0.04084428
248	0x3da059ba	0.07829614
249	0x3e264380	0.16236687
250	0x3daa1e9c	0.083066195
251	0x3cb87b20	0.022519648
252	0xbdd96bdb	-0.10616275
253	0x3d9cce2a	0.0765651
254	0xbcf32d13	-0.029684579
255	0x3e29b6fd	0.1657371

bias f4 [40]
0	0xbb544a83	-0.0032393045
1	0x3c024918	0.007951997
2	0x3d914708	0.07093626
3	0x3d888b7a	0.06667228
4	0x3d349819	0.044090364
5	0xbcb8aba7	-0.022542788
6	0x3d05cceb	0.032666128
7	0x3d0d4e7d	0.03449868
8	0x3d1d02a3	0.038332593
9	0x3db7bed5	0.08971945
10	0xbdeb2d1d	-0.11483214
11	0x3c077e0b	0.008269797
12	0xbd89ec21	-0.06734491
13	0xbdae3280	-0.08505726
14	0x3cabe9a7	0.020985438
15	0x3c9d4c20	0.019201338
16	0x3e25799c	0.16159672
17	0xbda6b329	-0.08139641
18	0xbd81360f	-0.06309139
19	0x3c86d08c	0.016456865
20	0x3da49cba	0.08037706
21	0xbd8a36a3	-0.067487024
22	0x3dda39fe	0.106555924
23	0x3c7433be	0.014904914
24	0xbda47aff	-0.08031272
25	0x3c921a82	0.017834906
26	0x3bd07086	0.00636107
27	0x3d9d7220	0.07687783
28	0xbd0d3d4c	-0.034482285
29	0x3c02d9d8	0.007986508
30	0xbdc85f5d	-0.09783814
31	0x3c34baa2	0.011030825
32	0xbd95ea04	-0.073200256
33	0xbc8998d8	-0.016796514
34	0x3bd834b8	0.0065980814
35	0xbdda4203	-0.10657122
36	0x3cf61444	0.03003896
37	0x3db1614c	0.08661136
38	0x3e23c389	0.1599256
39	0xbdcd7fb1	-0.10034121

weight f4 [40, 80]
0	0xbe1f1792	-0.15536335
1	0x3d9fe2e7	0.0780695
2	0xbe3ef5b3	-0.18648414
3	0xbe305ba0	-0.17222452
4	0x3c2bdfd6	0.010490378
5	0xbe0a662b	-0.13515536
6	0x3d8d09aa	0.06886609
7	0xbd93526e	-0.071934566
8	0xbd933c8b	-0.07189282
9	0xbe66d72d	-0.2254302
10	0x3c902d9a	0.01759987
11	0xbc8ad833	-0.016948795
12	0x3d134a04	0.03595926
13	0x3cc45461	0.023966016
14	0xbe0cbcd8	-0.13743913
15	0xbe31728d	-0.17328854
16	0x3dbdebec	0.09273514
17	0xbc9a108d	-0.01880672
18	0x3cbe753d	0.023249263
19	0xbd69a159	-0.05703864
20	0xbd581ff7	-0.05276486
21	0xbbfd511f	-0.0077306177
22	0xbd959c9f	-0.07305264
23	0x3c71797f	0.01473844
24	0xbe392a23	-0.1808248
25	0xbe851d2e	-0.25998825
26	0xbddf8a9b	-0.10915109
27	0xbe36ae69	-0.1783997
28	0xbe4acd9a	-0.19804993
29	0x3d256a83	0.04038478
30	0xbe7ff8f7	-0.24997316
31	0xbd6fa511	-0.05850703
32	0xbda08030	-0.0783695
33	0x3dc21e01	0.09478379
34	0xbe4b40c2	-0.19848922
35	0x3dd81f2d	0.10552821
36	0x3db2da83	0.08733084
37	0xbe248090	-0.16064668
38	0xbd4a3697	-0.049368467
39	0x3d9aaf53	0.07552972
40	0xbc9f1f65	-0.01942415
41	0xbd09940a	-0.033588447
42	0xbe91bad9	-0.28462866
43	0xbd3f7f7c	-0.046752438
44	0xbe03f760	-0.12887335
45	0xbe042675	-0.12905295
46	0xbd3eee13	-0.046613764
47	0xbcbd215b	-0.023087194
48	0xbd662968	-0.05619183
49	0xbdd5bcf7	-0.10436433
50	0xbddc21a6	-0.107486054
51	0xbd903033	-0.07040443
52	0x3d991850	0.0747534
53	0x3db61949	0.088915415
54	0xbd516835	-0.05112477
55	0xbdf2e5f7	-0.118602686
56	0xbe815cb7	-0.25266048
57	0x3b919d7d	0.004443823
58	0xbe06e8d4	-0.13174754
59	0xbdb7308d	-0.08944807
60	0x3dd284b9	0.10279221
61	0xbc416ed6	-0.0118062105
62	0xbb6fb7fe	-0.0036578174
63	0xbe070895	-0.13186868
64	0xbdf4f782	-0.11961271
65	0xbd7674c5	-0.060169954
66	0xbdb0c5ba	-0.08631463
67	0xbdab7b6c	-0.0837315
68	0x3da1263d	0.078686215
69	0xbe88af59	-0.2669628
70	0xbb13c14d	-0.0022545636
71	0x3d9af7cf	0.07566797
72	0xbde87da7	-0.11352091
73	0x3d390ae4	0.0451764
74	0x3da778ba	0.08177324
75	0xbe120261	-0.1425872
76	0xbe27247a	-0.16322508
77	0xbdbd08d4	-0.092301995
78	0x3d228d41	0.03968549
79	0xbe53854d	-0.20656319
80	0xbe10a7dd	-0.14126535
81	0x3d4eb2df	0.050463554
82	0xbe50c832	-0.20388868
83	0xbd4a9df4	-0.049467042
84	0xbd5bbdda	-0.053647853
85	0xbe810ef3	-0.25206718
86	0xbd4094fb	-0.04701708
87	0xbca8c29f	-0.020600615
88	0xbdc7b19d	-0.09750674
89	0xbe40af88	-0.1881696
90	0xbd925b6a	-0.07146342
91	0xbdbe88aa	-0.0930341
92	0xbd609266	-0.054827116
93	0x3da3dc2c	0.08000979
94	0xbd95b45d	-0.07309792
95	0xbc365a9b	-0.01113
96	0xbdd94050	-0.1060797
97	0xbd7e20bc	-0.062042937
98	0xbd9c9499	-0.0764553
99	0xbd89fac4	-0.06737283
100	0x3da0b746	0.07847457
101	0xbde3aa95	-0.1111652
102	0xbe082780	-0.13296318
103	0x3d361768	0.044455916
104	0xbd53c5bf	-0.051702257
105	0xbe87c266	-0.26515502
106	0xbe59ac20	-0.21257067
107	0xbdcf7b58	-0.10130948
108	0xbe5498e5	-0.2076145
109	0xbc09e8f4	-0.008417357
110	0xbe3d7fc3	-0.18505768
111	0x3d8ca7c4	0.06867936
112	0x3dd86417	0.105659656
113	0xbd0603b2	-0.032718368
114	0xbd03d289	-0.032183204
115	0x3ceefc0d	0.029172922
116	0xbd023e51	-0.03179771
117	0xbe1b797e	-0.15183064
118	0xbd582708	-0.052771598
119	0xbce2b42a	-0.0276738
120	0xbe2d8b57	-0.16947685
121	0x3d291cf2	0.04128737
122	0xbe7f0922	-0.24905828
123	0xbdb8bb29	-0.09020073
124	0xbd8e92a9	-0.06961567
125	0xbe0f0ea0	-0.13970423
126	0xbd7fb408	-0.06242755
127	0xbd6e5fa3	-0.058196675
128	0xbe53674a	-0.2064487
129	0xbe7cbcaf	-0.24681352
130	0x3b14fa60	0.0022732243
131	0x3c809a8d	0.015698696
132	0xbd373705	-0.044730205
133	0xbdb9be92	-0.090695515
134	0xbc1fa346	-0.009743517
135	0xbe0c94f2	-0.13728693
136	0xbe21c73e	-0.15798661
137	0xbd91a749	-0.07111985
138	0xbe13ecd9	-0.14445819
139	0xbd84b573	-0.06479921
140	0x3dc8115e	0.097689375
141	0xbd8beac2	-0.06831886
142	0xba83e2d6	-0.0010062109
143	0xbea19b16	-0.31563634
144	0xbe261bfa	-0.1622161
145	0xbe196a16	-0.14981875
146	0xbd5fe7b0	-0.054664314
147	0xbd7b6830	-0.061378658
148	0xbd81f2ed	-0.063451625
149	0xbe2b3c9e	-0.16722342
150	0xbe320917	-0.1738628
151	0xbca0d291	-0.019631656
152	0xbda17764	-0.078841
153	0x3daae355	0.083441414
154	0x3d8f6942	0.07002498
155	0xbe10d64c	-0.14144248
156	0xbde259e3	-0.11052301
157	0x3dd1b3e7	0.10239392
158	0xbdd180d5	-0.10229651
159	0xbe03ad22	-0.12859014
160	0xbe566fd7	-0.20941101
161	0x3c33aff1	0.010967241
162	0xbd258e6c	-0.040419027
163	0xbd356000	-0.044281006
164	0xbd109cfc	-0.035305962
165	0xbdf550ef	-0.119783275
166	0x3d7cb2e6	0.06169405
167	0xbdc5f99d	-0.096667506
168	0xbddf65e6	-0.109081075
169	0xbd891d41	-0.06695033
170	0x3d45c030	0.048278987
171	0x3d00cbad	0.03144424
172	0x3d3c8735	0.04602738
173	0xbb58c96b	-0.003307904
174	0xbe05fc39	-0.13084497
175	0xbdddf580	-0.10837841
176	0x3d4dab81	0.050212387
177	0xbd6edfee	-0.058319025
178	0xbd8f5c9b	-0.07000085
179	0xbe482124	-0.19543892
180	0x3dd95751	0.106123574
181	0x3c43c853	0.0119496165
182	0xbd2621b5	-0.04055949
183	0xbd7a7d22	-0.061154492
184	0xbd26cab7	-0.040720668
185	0xbe7f68e7	-0.24942361
186	0xbde92db7	-0.113856725
187	0xbe82abe8	-0.2552178
188	0xbd0244c2	-0.031803854
189	0x3cb56888	0.022144571
190	0xbe17e3f1	-0.14833046
191	0x3d3ece63	0.046583544
192	0xbd686a8e	-0.056742243
193	0x3b898f2a	0.0041979747
194	0xbd15e68c	-0.03659682
195	0x3ca068b8	0.019581184
196	0xbc4a42c8	-0.012345023
197	0xbe8194cf	-0.25308844
198	0xbde681ef	-0.112552516
199	0xbcd2dbf7	-0.025739653
200	0xbc7c47e9	-0.015398004
201	0xbdb228d0	-0.086991906
202	0xbde055c4	-0.109538585
203	0xbdc38050	-0.09545958
204	0xbe0a9e4f	-0.13536952
205	0xbdf86660	-0.121289015
206	0xbe1f7ec4	-0.15575701
207	0xbc731c89	-0.014838346
208	0xbd0e347c	-0.03471802
209	0xbe47e379	-0.19520368
210	0x3d2d48cb	0.04230575
211	0xbddd1e3c	-0.107967824
212	0xbdcdf769	-0.10056955
213	0x3d47162e	0.048605137
214	0xbd9276f2	-0.07151593
215	0xbd0b2d1d	-0.03397857
216	0xbe6fb827	-0.23410092
217	0x3dd0e7ed	0.10200486
218	0xbe3d1c80	-0.18467903
219	0xbdba1979	-0.0908689
220	0x3d9de79a	0.0771019
221	0xbc30c892	-0.010790007
222	0xbd7105e4	-0.05884351
223	0xbe27f0f1	-0.16400506
224	0xbe74e33f	-0.23914813
225	0xbe2e3c59	-0.17015208
226	0xbdd59f0a	-0.10430725
227	0xbd065f95	-0.032805998
228	0x3db1dc8b	0.08684643
229	0xbe90cf04	-0.2828294
230	0xbda60b24	-0.08107594
231	0xbd63f43b	-0.05565284
232	0xbe0679ba	-0.13132372
233	0x3db245ca	0.087047175
234	0xbddd5149	-0.108065195
235	0xbe8b9f67	-0.27270052
236	0xbc8c40d8	-0.017120764
237	0xbd69aee2	-0.057051547
238	0xbcfcf939	-0.030880557
239	0xbe1f155e	-0.15535495
240	0xbdcecd2c	-0.10097727
241	0xbd793495	-0.06084116
242	0xbdf68b06	-0.12038235
243	0xbdfed8e8	-0.12443715
244	0x3d90370a	0.07041748
245	0xbe9e3668	-0.30900884
246	0x3b2a2c6b	0.0025966417
247	0x3d6b7889	0.057488
248	0xbdb7e8ef	-0.089799754
249	0xbe90f5a4	-0.2831241
250	0x3ddab2ba	0.10678621
251	0xbce047be	-0.02737796
252	0x3d1b4d63	0.0379156
253	0x3c85599a	0.016278077
254	0xbe3ec90d	-0.18631382
255	0xbd42aa2f	-0.04752558

bias f4 [40]
0	0xbd252342	-0.040316828
1	0xbd125117	-0.035721865
2	0xbd8ba37e	-0.06818293
3	0xbe28a136	-0.16467747
4	0xbdb1de2e	-0.086849555
5	0xbcc6ee3e	-0.024283525
6	0xbd30485b	-0.043037754
7	0xbe277c38	-0.1635598
8	0xbd39a779	-0.04532573
9	0xbcf65626	-0.030070376
10	0x3bd99a03	0.006640674
11	0xbe0b9d6d	-0.13634272
12	0x3c0ef84d	0.008726192
13	0x3b7ada02	0.0038276915
14	0xbda0c05f	-0.07849192
15	0xbdcc97b8	-0.099898756
16	0xbc5878c7	-0.013212389
17	0xbcae509d	-0.021278674
18	0xbdaeb3fd	-0.08530424
19	0xbd81a021	-0.0632937
20	0xbe3f9c89	-0.18712057
21	0xbdf7e5a6	-0.12104349
22	0xbe21bba5	-0.15794237
23	0xbdccce18	-0.10000247
24	0xbd9712e5	-0.07376651
25	0xbdb4ae82	-0.08822347
26	0xbbbafab6	-0.0057061566
27	0x3af2c349	0.0018521334
28	0xbe4282c5	-0.18995197
29	0xbe3722bf	-0.17884348
30	0xbb0f0f25	-0.0021829095
31	0xbdbc6d18	-0.092004955
32	0xbe0f3abd	-0.1398725
33	0xbddb3c2f	-0.107048385
34	0xbe3e6d6a	-0.18596426
35	0xbe1a6721	-0.15078403
36	0xbdabc420	-0.08387017
37	0xbe25939d	-0.16169591
38	0xbe198a53	-0.14994173
39	0xbe2be965	-0.16788252

weight f4 [80, 40]
0	0x3ccc7b29	0.024961071
1	0xbb7ded45	-0.003874616
2	0xbe07ed69	-0.13274159
3	0x3cf8818d	0.030335212
4	0xbd51ffa9	-0.051269207
5	0x3d21dd9e	0.03951799
6	0xbe098cd4	-0.13432628
7	0xbdb41d56	-0.08794658
8	0xbcd27934	-0.02569256
9	0xbdfefc5d	-0.12450478
10	0x3d7be27b	0.061495285
11	0xbcb9f429	-0.022699432
12	0x3d8ea122	0.069643274
13	0x3db43517	0.087991886
14	0x3d5ff89d	0.054680455
15	0xb93175c5	-0.00016923908
16	0xbdd2ff0e	-0.10302554
17	0x3d953f9c	0.07287523
18	0xbe001269	-0.12507023
19	0x3d3282d3	0.043581795
20	0xbcd434f6	-0.02590416
21	0x3d96e537	0.07367938
22	0xbc8cc037	-0.017181499
23	0xbc8e3498	-0.017359063
24	0xbd543188	-0.05180505
25	0x3dbd98f4	0.09257689
26	0xbdb311d2	-0.08743633
27	0xbd13009b	-0.03588925
28	0x3dab5195	0.0836517
29	0xbd439d08	-0.04775718
30	0xbc99b0d0	-0.018761069
31	0xbdf42f99	-0.11923141
32	0x3cea67f9	0.028614031
33	0x3dfbca4a	0.12294443
34	0xbe13bbcf	-0.14427112
35	0x3ccf1cf5	0.025282362
36	0xbcb4eae5	-0.022084663
37	0x3dbb01c6	0.09131198
38	0x3c15d101	0.009144069
39	0x3b285444	0.0025684992
40	0x3d964953	0.07338204
41	0xbca8a19a	-0.02058487
42	0x3d9b49ff	0.07582473
43	0x3e04a48b	0.12953393
44	0x3c54c757	0.012986979
45	0x3df9d88c	0.12199506
46	0xbdcf4da1	-0.101222284
47	0xbc2a9da8	-0.010413565
48	0x3d6e7f77	0.05822703
49	0xbd495e59	-0.049162243
50	0x3e2c26bc	0.16811651
51	0xbdbe96e9	-0.093061276
52	0xbd0606b5	-0.03272124
53	0xbd0da98b	-0.034585517
54	0xbdc5eadc	-0.096639365
55	0x3c9024c2	0.017595652
56	0xbd013039	-0.03154013
57	0xbd94d797	-0.07267683
58	0x3d55834b	0.052127164
59	0xbdeeef28	-0.11666709
60	0x3ddaef6b	0.106901966
61	0x3d84bd83	0.06481459
62	0xbdbf1026	-0.09329252
63	0xbd9861e0	-0.07440543
64	0xbdcb1ae1	-0.09917236
65	0xbd557918	-0.052117437
66	0x3c82f9f5	0.01598833
67	0xbdaad488	-0.08341318
68	0xbda957c4	-0.08268693
69	0xbe0a1bda	-0.13487187
70	0x3d7581cc	0.059938237
71	0xbd68d349	-0.056842122
72	0x3d2cb118	0.042161077
73	0x3db2822b	0.08716234
74	0x3de78ba3	0.113059305
75	0xbd69dfec	-0.057098314
76	0x3da28c36	0.07936899
77	0x3dc5eed9	0.09664697
78	0xbe219941	-0.15781118
79	0xbe11f8d4	-0.14255077
80	0x3df3477e	0.118788704
81	0xbc924059	-0.017852949
82	0x3e08b4bf	0.13350199
83	0x3d82001e	0.063476786
84	0x3c3ff7bd	0.01171678
85	0x3dde5a77	0.108570985
86	0x3dda17cd	0.10649071
87	0xbe132dc9	-0.14372934
88	0xbdd87cf3	-0.10570707
89	0xbd91d125	-0.07119969
90	0x3e124866	0.1428543
91	0xbc84adb2	-0.016196106
92	0xbd9c9c59	-0.076470084
93	0x3d9d1e46	0.0767179
94	0xbd582f24	-0.05277933
95	0xbe30d769	-0.17269672
96	0xbd2f1489	-0.042744193
97	0xbda2cd53	-0.07949319
98	0x3bbff4af	0.005858026
99	0xbbbfc50c	-0.0058523472
100	0x3c8b9983	0.017040974
101	0x3d1ea9bd	0.038736094
102	0xbdbe7469	-0.09299547
103	0x3dffd173	0.12491121
104	0xbd21207b	-0.039337616
105	0x3e1ba93d	0.15201278
106	0x3dcf013d	0.10107658
107	0xbd5ff9ff	-0.054681774
108	0x3da4b5da	0.08042498
109	0x3dbb4aab	0.09145101
110	0xbe0ef248	-0.1395961
111	0xbdb081b6	-0.086184904
112	0x3d1b0892	0.03784997
113	0x3ce03410	0.027368575
114	0xbdc29448	-0.09500939
115	0x3de7434e	0.11292134
116	0xbd630bda	-0.055431224
117	0x3c84de1e	0.016219195
118	0x3d063757	0.03276762
119	0x3d7f7e3f	0.062376257
120	0xbc38c5cf	-0.01127763
121	0xbdc4feaf	-0.096188895
122	0x3dcc5e9d	0.099789836
123	0xbd471567	-0.048604395
124	0xbd1e89f6	-0.03870579
125	0x3d980388	0.074225485
126	0x3e0e165e	0.1387572
127	0x3ce9330b	0.028466722
128	0x3d838460	0.06421733
129	0x3d8209f7	0.06349557
130	0xbc9a238c	-0.018815778
131	0x3d0a501f	0.033767816
132	0xbd86dcef	-0.065851085
133	0x3d67e331	0.05661315
134	0xbd08d6e2	-0.033408053
135	0xbe02dc46	-0.1277934
136	0xbdb19ca8	-0.08672458
137	0x3d1bd610	0.038045943
138	0x3dd64d12	0.10463919
139	0xbdcb72cd	-0.09934006
140	0xbc81da4a	-0.015851159
141	0x3c967827	0.01836784
142	0xbd249d00	-0.04018879
143	0xbdc8afe1	-0.09799171
144	0xbd8659be	-0.06560086
145	0x3cff5ff1	0.031173678
146	0xbd9871f7	-0.07443612
147	0xbd93adae	-0.07210861
148	0xbcdb2a6f	-0.026753632
149	0x3e010b19	0.1260189
150	0x3df298f7	0.11845582
151	0xbe048d65	-0.12944563
152	0xbde2cef3	-0.11074629
153	0x3d2b135e	0.041766517
154	0xbc9398cc	-0.018017195
155	0x3d97ff70	0.07421768
156	0xbd44bb8a	-0.048030414
157	0xbdbfb737	-0.09361117
158	0xbe0e5d86	-0.13902864
159	0xbcda0601	-0.026614191
160	0xbdd738ff	-0.10508918
161	0xbdea056e	-0.11426817
162	0x3d9267b3	0.07148685
163	0x3de40251	0.11133254
164	0xbdbb2d05	-0.09139446
165	0xbc8bdc80	-0.017072916
166	0x3e0dd92e	0.13852379
167	0xbcffabc7	-0.03120984
168	0xbd3e95f4	-0.046529725
169	0xbcadcd86	-0.021216165
170	0xbd27c385	-0.040957946
171	0xbce7b1e1	-0.028283061
172	0xbd0e0258	-0.034670204
173	0xbd58644a	-0.052830018
174	0xbe0faa1c	-0.14029735
175	0xbd845770	-0.0646199
176	0xbde536c8	-0.11192089
177	0xbe20c87e	-0.15701482
178	0xbe11a1bf	-0.14221857
179	0xbdebb3fc	-0.11508939
180	0xbd804e50	-0.06264937
181	0xbd9f7140	-0.077852726
182	0x3d8f53eb	0.06998428
183	0x3d268b76	0.040660344
184	0x3dd616c6	0.104535624
185	0xbe03cb81	-0.128706
186	0x3d9eef92	0.07760538
187	0x3d9125d3	0.070872925
188	0xbd8b3f5b	-0.067991935
189	0xbd3d1736	-0.046164714
190	0xbcb1cd48	-0.021704331
191	0xbdf01f76	-0.11724751
192	0xbc7b6445	-0.01534373
193	0x3d403741	0.046927694
194	0x3dd2b6b3	0.10288753
195	0x3e1b6069	0.15173496
196	0x3cb90f79	0.022590386
197	0x3ddd32ff	0.10800742
198	0x3d757f87	0.059936073
199	0x3deb1a7c	0.11479661
200	0x3e06d788	0.13168156
201	0xbd2ff535	-0.042958457
202	0x3e077469	0.13228
203	0x3d28b3d4	0.041187122
204	0x3e088054	0.13330203
205	0x3d1d3c72	0.038387723
206	0x3db8babb	0.09019991
207	0x3db3f149	0.08786256
208	0xbd033959	-0.032037113
209	0xbd727ed9	-0.059203003
210	0x3e1a9924	0.15097481
211	0x3d8086a4	0.06275681
212	0x3e03276d	0.12808008
213	0xbd51d4dd	-0.051228393
214	0x3dd5a541	0.1043191
215	0xbdd70333	-0.10498657
216	0xbde455db	-0.11149188
217	0x3e072398	0.13197172
218	0xbd05eae5	-0.032694716
219	0xbda8b3c3	-0.08237412
220	0x3b8dd23b	0.00432804
221	0xbd86f946	-0.06590514
222	0xbdaf3fb5	-0.08557073
223	0xbd62fdaa	-0.055417694
224	0x3bc97d2e	0.006148956
225	0x3d72338e	0.059131198
226	0x3c859a7d	0.016309017
227	0xbe0b5549	-0.13606752
228	0xbc82386c	-0.015896045
229	0x3c9eb637	0.019373996
230	0x3dacbbb7	0.08434241
231	0x3cca0005	0.024658212
232	0xbd90e0a8	-0.070741
233	0x3e2b5f04	0.16735464
234	0x3d803789	0.062605925
235	0xbdaef795	-0.08543316
236	0xbda984bd	-0.08277271
237	0xbcdc0845	-0.026859412
238	0xbdbb4599	-0.09144134
239	0xbb110ea7	-0.0022133978
240	0xbd908425	-0.070564546
241	0xbb161386	-0.002289982
242	0xbd2742a9	-0.040835056
243	0xbde233e3	-0.11045053
244	0xbda5d95b	-0.08098098
245	0x3d37d97a	0.044885136
246	0x3df01584	0.11722854
247	0x3dc7fe50	0.09765303
248	0xbd8dd7d0	-0.069259286
249	0x3dd3724d	0.103245355
250	0xbdcf30d3	-0.10116734
251	0x3cd6678a	0.026172418
252	0x3d33f3c6	0.043933652
253	0xbd5cdf34	-0.0539238
254	0x3cba0e78	0.022711977
255	0xbe279f30	-0.16369319

bias f4 [80]
0	0xbdf284d6	-0.11841743
1	0xbe2a857a	-0.1665248
2	0x3de90a65	0.11378936
3	0x3dc9406b	0.0982674
4	0xbe0019d8	-0.12509859
5	0xbdd706db	-0.104993545
6	0xbdc1c7d7	-0.094619446
7	0xbdff5f47	-0.124693446
8	0xbdef44f8	-0.116830766
9	0xbe1a0de3	-0.1504436
10	0xbe0e10a3	-0.13873534
11	0xbdad1a0b	-0.08452233
12	0x3e116707	0.14199458
13	0xbde3d2c5	-0.111241855
14	0xbe1c2178	-0.15247142
15	0x3d9f6932	0.07783736
16	0xbe1be240	-0.15223026
17	0xbd005aa6	-0.03133645
18	0xbe26e8c5	-0.16299732
19	0x3b3b2af8	0.0028559547
20	0x3e05bb3d	0.13059707
21	0x3ce8e7b9	0.028430806
22	0xbcf30b07	-0.029668344
23	0xbe0b1656	-0.13582739
24	0xbe1e2f91	-0.15447833
25	0x3dee60b9	0.11639542
26	0xbe21413e	-0.15747544
27	0xbe09c685	-0.13454635
28	0x3d179d9e	0.03701555
29	0x3d4dd450	0.050251305
30	0x3dad9613	0.0847589
31	0xbd02d863	-0.031944644
32	0x3d80c02f	0.06286656
33	0xbd890f4b	-0.0669237
34	0xbda345ff	-0.07972335
35	0xbe03c649	-0.12868609
36	0xbdbbbcb3	-0.09166851
37	0x3e078492	0.13234165
38	0xbe533b16	-0.20628008
39	0xbdea607f	-0.114441864
40	0xbe1fc834	-0.15603715
41	0xbd86aa99	-0.06575508
42	0x3d6ccfdf	0.05781543
43	0x3da92f0f	0.08260929
44	0x3cb747ee	0.022373166
45	0xbe0adb46	-0.13560209
46	0xbe182814	-0.14859039
47	0xbde1e3cb	-0.11029776
48	0xbe5c7ccc	-0.21531981
49	0x3dbeea4d	0.09322033
50	0xbd0daae4	-0.034586802
51	0x3e056da3	0.13030104
52	0xbd84c79c	-0.06483385
53	0x3ca5c8d9	0.020237373
54	0xbd96b037	-0.07357829
55	0x3e1e260b	0.154442
56	0x3d9cd3e8	0.076576054
57	0x3b0dc263	0.0021630756
58	0x3d86f43f	0.06589555
59	0x3dd2a4f9	0.10285372
60	0xbdd2ccf6	-0.102929994
61	0xbddd78fa	-0.1081409
62	0xbe0c8e7b	-0.13726227
63	0x3c92f4f1	0.017939063
64	0xbe26c3f3	-0.16285686
65	0x3d9e8212	0.07739653
66	0x3e0dcbea	0.13847318
67	0xbe2706bd	-0.16311164
68	0x3d07fd61	0.033200625
69	0x3e1f300a	0.15545669
70	0xbba2df66	-0.004970479
71	0x3d89eff6	0.06735222
72	0x3dc5b65b	0.09653922
73	0xbce44652	-0.027865563
74	0x3c1d4a73	0.00960027
75	0xbddbc337	-0.10730594
76	0x3c3bdb8c	0.011465918
77	0x3deead9f	0.11654209
78	0xbd24e117	-0.040253725
79	0xbe2d0004	-0.16894537

weight f4 [5, 80]
0	0x3c3bb922	0.011457713
1	0xbd29fe83	-0.041502487
2	0x3c300de9	0.010745504
3	0xbd49e487	-0.049290206
4	0xbac65407	-0.0015131243
5	0x3d0c9a34	0.034326747
6	0x3c69d8fc	0.0142729245
7	0x3cd13ab8	0.025540695
8	0xbcc13f3e	-0.023589727
9	0x3c11e3bf	0.008904397
10	0xbd23bccd	-0.039974976
11	0x3d1e9ac0	0.0387218
12	0xbd67772b	-0.05651013
13	0xbcb08ca3	-0.021551436
14	0x3d701e0d	0.05862241
15	0x3c40719e	0.011745838
16	0xbc751fed	-0.014961225
17	0x3c7def2e	0.015498919
18	0xba0bfe5c	-0.00053403317
19	0x3d2e01d9	0.04248223
20	0xbac37591	-0.0014912357
21	0x3c862696	0.016375821
22	0x3cb48d78	0.022040114
23	0xbd242e99	-0.0400835
24	0xbce2a79b	-0.027667811
25	0xbcb820c5	-0.022476563
26	0x3d7a30db	0.06108175
27	0x3cdf07f5	0.027225474
28	0x3c4b4d28	0.012408532
29	0xbd36c5d8	-0.044622272
30	0x3d4c4026	0.049865864
31	0xbd73ba77	-0.059504
32	0xbd2015af	-0.03908318
33	0x3cc511f5	0.024056414
34	0xbc10dc28	-0.008841552
35	0x3b26e2ef	0.0025464853
36	0x3c874c2b	0.016515812
37	0x3d3f8c53	0.046764683
38	0xbc779d4e	-0.015113188
39	0x3d1e8555	0.038701374
40	0xbcd3bc90	-0.02584675
41	0x3d7227e8	0.05912009
42	0x3d1a5802	0.037681587
43	0xbcbc2bd6	-0.022970121
44	0x3bcdf38c	0.0062851366
45	0x3ab956be	0.0014140231
46	0x3cb5841c	0.022157721
47	0x3cc954d7	0.024576588
48	0x3ad23e49	0.0016040291
49	0x3cb23a24	0.02175624
50	0xbd5039da	-0.05083642
51	0x3c4079f4	0.011747826
52	0x3cb513f3	0.02210424
53	0x3d54bbc6	0.051936887
54	0x3c31949b	0.010838653
55	0x3cbc310d	0.022972608
56	0x3d2e1f45	0.04251029
57	0xbd947fa4	-0.07250908
58	0x3d74c3ba	0.059756972
59	0xbbefe6a8	-0.0073211975
60	0x3ce5213f	0.027969955
61	0xbd04aa94	-0.03238924
62	0x3c90e63a	0.017687906
63	0x3cae611d	0.021286542
64	0x3d245aa7	0.040125515
65	0x3c7395a9	0.014867225
66	0x3cc1a691	0.023638995
67	0xbbbc506c	-0.0057468917
68	0x3cb4d412	0.02207378
69	0x3d34eabb	0.04416917
70	0xbd438905	-0.047738094
71	0x3d1cb816	0.038261496
72	0xbd2fb4f9	-0.0428972
73	0xbcc8604c	-0.02445998
74	0xbcdeff95	-0.02722148
75	0xbd752696	-0.05985125
76	0x3da133f5	0.07871238
77	0x3d22f324	0.03978266
78	0xbd187a8b	-0.03722624
79	0xbd3eb25b	-0.04655681
80	0x3d40c590	0.04706341
81	0xbd0f9833	-0.035057258
82	0x3c864977	0.016392453
83	0xbd686d98	-0.05674514
84	0xbd25cdaa	-0.04047934
85	0xbd483f60	-0.048888564
86	0x3ce9a7c3	0.028522378
87	0x3d3bb1ad	0.04582374
88	0xbceffc7c	-0.029295199
89	0x3d5176a7	0.051138546
90	0xbd256380	-0.040378094
91	0xbc518622	-0.012788327
92	0xbd128d85	-0.035779495
93	0xbc1b718e	-0.009487523
94	0x3b65994c	0.0035034
95	0xbc120681	-0.008912683
96	0x3cf41bbe	0.029798385
97	0x3b5e6996	0.0033937446
98	0xbd3191c3	-0.0433519
99	0x3d1dbc59	0.0385097
100	0xbd0cce73	-0.034376573
101	0x3bb8d546	0.0056406585
102	0x3c991cde	0.018690523
103	0xbd8cfe13	-0.06884398
104	0xb9c891e3	-0.00038255667
105	0xbd5e8e8f	-0.054335173
106	0xbd820d0b	-0.06350144
107	0xbd41f211	-0.047349993
108	0xbc8c4281	-0.017121555
109	0xbd5cba06	-0.053888343
110	0x3c9178aa	0.017757732
111	0x3c29e6a2	0.010369929
112	0xbd5d0f4d	-0.05396967
113	0x3cdc2aae	0.02687582
114	0xbcccf0f0	-0.025017232
115	0xbc473184	-0.012157802
116	0x3d8de471	0.06928337
117	0x3d0eac11	0.034832064
118	0xbc79aea1	-0.015239389
119	0xbcbcb152	-0.023033772
120	0x3bbe72da	0.005812031
121	0x3dae298a	0.08504017
122	0x3c1d8da3	0.009616288
123	0xbca0fecb	-0.019652745
124	0x3b9a56c0	0.0047100484
125	0x3cd0a905	0.02547122
126	0x3cfcd970	0.030865401
127	0x3ce02dce	0.027365591
128	0x3c46d8c3	0.012136641
129	0x3c12caa1	0.008959443
130	0xbc7ef8db	-0.015562261
131	0xbcacc6ed	-0.021090949
132	0xbabf56ae	-0.0014597976
133	0x3c24b1f5	0.010052194
134	0xbd3e4a17	-0.046457376
135	0x3ca84422	0.0205403
136	0xbd2d0272	-0.04223866
137	0xbd5335b5	-0.05156489
138	0x3d0f750a	0.035023727
139	0xbc507ecd	-0.012725544
140	0x3d986f1a	0.07443066
141	0xbce08046	-0.027404916
142	0xbcd39efd	-0.025832647
143	0x3d41dafd	0.047327984
144	0xbb76202a	-0.0037555792
145	0x3bd6d3ee	0.0065560257
146	0x3c8f1a5f	0.01746863
147	0xbd2803c1	-0.041019205
148	0x3c39829e	0.0113226455
149	0x3c56451e	0.013078002
150	0xbc7f147b	-0.015568848
151	0x3d74603e	0.059662096
152	0x3d0f6496	0.035008036
153	0xbca8e540	-0.020617127
154	0xbcc11096	-0.02356748
155	0xbd1f8276	-0.038942777
156	0xbd8d14d6	-0.0688874
157	0x3c6f35f7	0.014600269
158	0xbd6d95ce	-0.058004193
159	0xbd9d63c0	-0.076850414
160	0xbd931eef	-0.071836345
161	0xbc5e2cb8	-0.0135604665
162	0x3bd11910	0.0063811615
163	0xbd162397	-0.036655035
164	0x3c737fae	0.014861984
165	0xbbf62b6f	-0.007512502
166	0x3cb0d8ef	0.021587817
167	0x3d3c3913	0.045952868
168	0xbd80265f	-0.06257319
169	0xbd1080d6	-0.035279118
170	0xbb91ec3a	-0.004453209
171	0x3b178954	0.0023122625
172	0x3c3a6312	0.011376159
173	0xbd4cfce0	-0.050045848
174	0xbd8b7595	-0.06809536
175	0x3bf0257c	0.0073286872
176	0x3d5e6864	0.054298773
177	0xbbb961a8	-0.0056573935
178	0x3d27e69e	0.040991418
179	0x3cb5275e	0.022113498
180	0x3b9b4a2f	0.004739068
181	0xb8f34eea	-0.00011601842
182	0xba0c6185	-0.0005355108
183	0x3cf2fb08	0.029660717
184	0x3d8ad25d	0.06778405
185	0x3c81c9df	0.01584333
186	0x3d21dc88	0.039516956
187	0x3d542322	0.051791318
188	0x3c0e6bf8	0.008692734
189	0x3d0061f7	0.031343427
190	0xbab8ce0f	-0.0014099496
191	0x3d8b7c3e	0.06810807
192	0xbd4f9444	-0.050678506
193	0x3d50f34a	0.05101327
194	0xbc413178	-0.011791579
195	0x3d8281f0	0.0637244
196	0x3d09a458	0.033603996
197	0x3b8c1fcb	0.004276251
198	0xbd54d85b	-0.051964145
199	0x3c986e4e	0.018607285
200	0xbd119091	-0.03553826
201	0xbc8bbbf3	-0.017057395
202	0xbc08ee35	-0.008357574
203	0x3b8dffac	0.004333457
204	0x3c84d39a	0.01621418
205	0xbc1deb16	-0.009638568
206	0x3c7d7166	0.015468931
207	0x3a8922d9	0.0010462656
208	0xbc08f340	-0.008358777
209	0xbba3e6d1	-0.0050018807
210	0x3c87087f	0.016483543
211	0x3ba1d707	0.0049389633
212	0x3b88a3d6	0.0041699214
213	0xbd94fe3a	-0.07275052
214	0x3bbdc3d3	0.0057911663
215	0xbb8c67f1	-0.0042848517
216	0x3b3cf0fc	0.0028830161
217	0x3d7468a8	0.05967012
218	0xbd168962	-0.036752112
219	0x3c352d48	0.011058159
220	0x3c88a960	0.016682327
221	0xbbd68f53	-0.0065478473
222	0xbca49f23	-0.020095414
223	0xbc5ec7e4	-0.013597462
224	0xbd9cd348	-0.07657486
225	0x3bec1e0a	0.0072057294
226	0xbc140e46	-0.009036606
227	0xbc496bb8	-0.012293749
228	0xbc39c212	-0.011337774
229	0x3c1aec99	0.009455823
230	0x3be109ad	0.0068676085
231	0x391dd12d	0.00015050611
232	0xbb51e776	-0.003202883
233	0x3be2926f	0.006914429
234	0x3c9db6d8	0.019252226
235	0xbd3dfa75	-0.046381433
236	0x3d85b510	0.065286756
237	0xbc16aa25	-0.009195839
238	0x3c66bd5d	0.014083234
239	0xbcf5e33c	-0.03001558
240	0xbdb29dd2	-0.08721508
241	0xbd599fa7	-0.053130772
242	0xbcfb12c9	-0.030648606
243	0x3d575590	0.052571833
244	0xbc2e04da	-0.010621274
245	0xbcc5a920	-0.024128497
246	0x3c93a823	0.01802451
247	0x3d252336	0.040316783
248	0xbd97a7e7	-0.07405072
249	0xbd6eca84	-0.058298603
250	0x3d0708fa	0.032967545
251	0xbba200d2	-0.0049439454
252	0x3d2405a4	0.04004444
253	0x3cb1993d	0.021679515
254	0x3ce20a50	0.027592808
255	0x3d076c66	0.03306236

bias f4 [5]
0	0xbd3b8ffa	-0.045791604
1	0x3cb04916	0.021519225
2	0xbc00f367	-0.007870532
3	0x3c5d8163	0.013519618
4	0xbd644ede	-0.055739276
