final_project/mlruns/3/8c7e2e72a7a5444b9ba51613ed8546bf/artifacts/cvae_25/data/model.pth (torch, 48391 bytes, 10 tensors)

weight f4 [80, 11]
000000 72 97 82 3e 04 68 02 3e 30 05 96 3e 56 5a eb bd
       0.2550617 0.12734991 0.29300833 -0.114918396
000010 5f fb b8 3c ae b6 b5 3b f9 0a 91 3d 3a 7a 27 be
       0.0225808 0.0055454588 0.07082171 -0.1635522
000020 f1 ba 85 be 1d d8 75 3e c0 71 3c 3e 23 5d 52 3e
       -0.26119187 0.24008222 0.18402767 0.20543341
000030 1f 1c c7 3b f6 0d 6d bd 5d 8e 0a 3d b8 d6 38 bc
       0.0060763503 -0.057874642 0.033827174 -0.011281662
000040 92 65 74 be 33 e7 87 be 1d 02 b2 bd 00 e2 75 3e
       -0.23866871 -0.26543579 -0.08691809 0.24011993
000050 fa e8 12 be 31 f3 8f be 41 51 ec 3d cd 79 77 3e
       -0.14346686 -0.28115228 0.115389355 0.24167557
000060 8b 15 dc bc e2 e4 6e be b3 a4 3d be 89 b3 70 3d
       -0.026865741 -0.233295 -0.18519859 0.058764968
000070 b6 89 83 be 36 d4 d4 3d 08 ff 8d be e7 e7 99 3e
       -0.25691003 0.103920385 -0.27733636 0.3005974
000080 c4 fa 3a be 5d ef 48 3e b0 90 3e 3c 54 57 9a 3c
       -0.18259722 0.1962256 0.011631176 0.01884047
000090 6d 80 90 3c cc 32 4e bd 3c 6e a8 bb 75 6d 68 3e
       0.017639363 -0.050341412 -0.005140094 0.22698005
0000a0 b9 68 03 3e 68 ad 48 3e 16 e9 84 3d e3 80 5b be
       0.12832917 0.19597399 0.0648977 -0.21435885
0000b0 d9 63 6d 3e f7 c9 21 be 87 56 2b bc c8 d9 d5 3d
       0.2318262 -0.157997 -0.010457641 0.10441929
0000c0 87 e1 d9 bd e4 88 f7 bc 3e 0b 94 3e 3d 13 04 3e
       -0.10638719 -0.030216642 0.28914827 0.12897964
0000d0 36 70 3b be 38 05 67 be 1a e7 41 be a8 12 4d 3e
       -0.18304524 -0.22560585 -0.18935814 0.20026648
0000e0 d4 f6 86 3e b6 79 f2 3c c6 ea ad 3d 2a 3c 80 3e
       0.2636019 0.029599052 0.08492045 0.25045902
0000f0 32 82 3b 3e 37 26 22 bc cc 27 59 bd 41 69 07 3c
       0.18311384 -0.009896806 -0.05301647 0.008264841
000100 a7 2f 30 3e 55 ea 30 bd 0d cc 98 3e 1b 4b 85 3d
       0.17205678 -0.043192226 0.29843178 0.06508466
000110 c5 a6 3e 3e 58 dc 29 3e 3c 17 82 3e c9 6e ff bd
       0.18618305 0.1658796 0.2540835 -0.124723025
000120 a4 6d 95 bc 52 68 83 3e 7a ea 58 3e 40 f6 1e 3e
       -0.018240757 0.25665528 0.21183196 0.15523624
000130 fd b6 4a be 9c 47 f2 bd 03 9b 79 bb 26 f5 6d bd
       -0.19796367 -0.11830065 -0.003808678 -0.05809512
000140 99 8d c5 bb 01 bf 82 3d 13 45 09 3e 8d a1 94 3e
       -0.0060288426 0.06384087 0.13405256 0.29029503
000150 79 94 1f 3d 7a 51 9c 3e 4e b5 10 be 20 d7 58 bd
       0.038959954 0.30530912 -0.14131662 -0.052939534
000160 7f 90 96 3e d9 2e 94 3e 70 70 99 be e4 a3 b0 bd
       0.29407117 0.28941992 -0.29968596 -0.0862501
000170 6f 9d 4f 3e af e7 de 3d ba b6 bd 3d 5d d5 48 3e
       0.202749 0.10884034 0.09263368 0.19612642
000180 9c 44 4b be 16 30 08 be 70 a7 81 3e 98 23 41 be
       -0.19850391 -0.13299593 0.25323057 -0.18861234
000190 74 68 4c 3c e7 d6 5a be b6 f4 3c be 6a da 0e 3e
       0.012476075 -0.21371041 -0.18452725 0.13950506
0001a0 9a 19 08 be 1f 4c 68 be 18 20 88 be 0a c8 da bd
       -0.13291016 -0.22685288 -0.26586986 -0.10682686
0001b0 1d 35 02 be 75 c4 61 3e 76 1f 29 3e eb 42 8d be
       -0.12715574 0.22047599 0.16515908 -0.27590117
0001c0 d4 21 a9 3c 7c 3a 17 3e 40 45 ac 3d 2c fc 9e 3e
       0.020646013 0.14768404 0.08411646 0.31051767
0001d0 3d 3e 66 3e 1f fd 4f 3e 02 d6 6f 3e 81 41 c3 3d
       0.2248468 0.20311402 0.23421481 0.09533978
0001e0 c9 0e 9c 3d 2a 5c 7d 3d 47 59 b3 3d 3a cd 79 3e
       0.076200075 0.061855473 0.08757263 0.24394694
0001f0 f3 b3 08 3e 3e 39 9b 3c ca e4 db bc 19 0a 44 3d
       0.13349895 0.018948194 -0.026842494 0.047861192
000200 a8 18 80 3e d1 c7 9c bc 4f a6 4d bd 9d f6 43 be
       0.2501881 -0.019138249 -0.050207432 -0.19137044
000210 3a 5e 9e 3e ea e0 b4 3c 45 14 a1 3d 45 8e 89 be
       0.30931264 0.022079904 0.07865194 -0.26866356
000220 07 3e 57 3e 67 18 88 3e eb d6 d1 bd e6 74 8a 3e
       0.21019755 0.26581118 -0.102460705 0.2704231
000230 d5 71 40 3c 56 43 90 be c1 a2 c4 bc f0 ea b5 3d
       0.01174589 -0.28176373 -0.024003388 0.088827014
000240 11 e8 65 be 00 5b 1b be 3c 87 87 be 49 35 20 be
       -0.22451808 -0.15171432 -0.26470363 -0.15645327
000250 f5 0a 9e 3e 21 99 2c be 73 50 c8 3d 72 40 e0 3d
       0.30867735 -0.16855289 0.097809695 0.10949792
000260 69 17 9f be 64 04 7b be 44 6a 89 be 6f 2f f7 bd
       -0.31072548 -0.24513394 -0.26838887 -0.12069594
000270 71 49 f3 bd 3e 63 33 3e 93 fc 4d 3e e8 7e 96 3e
       -0.11879242 0.17518327 0.2011588 0.29393697
000280 60 82 2c be 0a 0c 5d 3d f0 86 23 bc 48 19 d2 bd
       -0.16846609 0.05396656 -0.009980902 -0.10258728
000290 3c eb aa 3d 55 60 87 be 0e 81 e4 3c f5 02 4f 3e
       0.08345649 -0.26440683 0.02789357 0.20215972
0002a0 c5 1b 3c bc fa 97 25 3d 8b e5 9d be 92 e4 ae bd
       -0.01148123 0.04042814 -0.3083919 -0.0853969
0002b0 96 e9 8c be 6f 13 98 3e f6 41 02 3e 50 85 64 bb
       -0.27521962 0.29702327 0.12720475 -0.00348695
0002c0 87 a3 9a be 6b b2 3e 3d d8 ad 97 3d 70 9f 11 be
       -0.30202886 0.04655687 0.07406205 -0.14220977
0002d0 1d 94 1f 3e 3d 76 e2 bd 63 e2 53 3e de 72 92 bd
       0.15583844 -0.110577084 0.20691828 -0.071508154
0002e0 5d 8c 04 be 1a c5 5e 3e b9 c9 7d bc 57 1f 51 be
       -0.1294417 0.21754876 -0.015489989 -0.20422111
0002f0 61 f7 70 be eb 93 b1 bd 3e 5e 85 be 69 27 b5 3d
       -0.23531868 -0.08670791 -0.26048464 0.088454075
000300 da 82 b2 3d 1d 49 38 3d cc d0 68 be 4a a1 fc bd
       0.08716364 0.0449916 -0.227359 -0.12335451
000310 64 38 a8 bd 80 e2 d0 bd 24 0d 92 3d 38 15 5b 3e
       -0.08213881 -0.101994514 0.071314126 0.21394813
000320 ef 84 03 3e 26 a4 0d 3d 1d b1 43 3d 03 c4 12 3e
       0.12843679 0.034580372 0.04777633 0.14332585
000330 a7 71 59 be 86 00 97 be 64 b7 c9 3c 65 60 a4 bd
       -0.21234761 -0.29492587 0.02462358 -0.08026198
000340 82 5a 02 be 71 4e bb 3e b5 74 56 3e ab ec 2d 3d
       -0.12729838 0.36583284 0.20942958 0.042462032
000350 d5 94 61 bc e4 64 e9 bb 49 a4 c6 bd 9c 4b f4 bd
       -0.0137683945 -0.007122623 -0.09699304 -0.11928484
000360 8b b6 de bd ec 35 9d 3e 2d 6a 99 bd 4e f7 47 3e
       -0.10874661 0.30705202 -0.074909545 0.19527933
000370 7c 37 ce 3b 64 bb 0a 3e 4c 64 f5 3b 40 7d 90 3e
       0.0062932353 0.13548046 0.007488763 0.28220558
000380 5b 84 fd 3d 7b 5a 8c be 02 eb fc bc 35 15 e1 3d
       0.123787604 -0.2741278 -0.03087378 0.10990373
000390 a5 82 0f be 6d 79 cb bc c8 7b 8c bd dd c2 13 3d
       -0.1401468 -0.024838174 -0.06859547 0.036074508
0003a0 eb 1c e1 bd 67 a4 a5 bd d1 4e 9b 3e bf 43 6a be
       -0.10991844 -0.08087998 0.3033357 -0.22877406
0003b0 77 73 4d be ff b1 3e be 93 e8 ee bc 88 6d ce bd
       -0.20063578 -0.18622588 -0.029163634 -0.10079485
0003c0 05 6d 89 be 72 79 53 be 1c 01 92 3e 54 26 98 bd
       -0.26840988 -0.20651796 0.2851647 -0.074291855
0003d0 d2 b5 f8 3d fc 60 76 bd e7 cd 89 3e 25 e7 5b be
       0.121440545 -0.060151085 0.26914904 -0.21474893
0003e0 2e b5 5e bd 47 48 89 be b7 b1 43 be 68 3a 6b 3d
       -0.054372005 -0.26812956 -0.19110762 0.057428747
0003f0 dd 64 33 3e 94 52 45 be 66 98 63 3e 39 c6 16 3e
       0.17518945 -0.19269782 0.22226104 0.14724053

bias f4 [80]
000000 c7 24 d7 bd e4 d6 41 be 98 a2 81 be 79 b9 67 be
       -0.105050616 -0.1892963 -0.25319362 -0.22629346
000010 73 c7 01 3f a1 99 b1 3e 2c 8c de 3d 91 45 7f be
       0.5069496 0.34687522 0.108665794 -0.24928881
000020 61 8b 85 3e de 78 7c 3e ec 22 30 bc 23 fe c4 3e
       0.260829 0.24655482 -0.0107505135 0.3847514
000030 93 fc 6c be dd f3 2c 3b 75 a7 a2 bd bb 88 14 bc
       -0.23143224 0.002639047 -0.07942096 -0.009065802
000040 80 99 ec bd 75 a9 76 3e 6b 57 51 be 87 1d 92 3e
       -0.11552715 0.2408808 -0.20443504 0.28538153
000050 d5 3f cc bb 4d e8 95 be b4 98 dd 3e b5 e9 c2 3e
       -0.0062331953 -0.29278794 0.43280566 0.3806893
000060 af 60 05 be 09 71 b9 bd 5e 45 1b be d1 96 3b be
       -0.13025163 -0.09054763 -0.1516318 -0.1831925
000070 e6 b6 db 3e 34 67 af 3e 29 d1 c0 bd 38 f4 dd 3e
       0.42912978 0.34258425 -0.09414894 0.43350387
000080 8f ef cd 3e 6a 05 64 3e fe 7c 56 be f6 ce 94 3e
       0.4022183 0.2226769 -0.20946118 0.2906415
000090 29 e0 47 3e 3a 51 cc 3e 77 60 f0 3e 4d e5 13 3e
       0.19519104 0.3990572 0.46948597 0.1444294
0000a0 11 5c bf 3e f7 94 ad 3e 6f 12 54 bd b8 dd 43 be
       0.3737493 0.33902714 -0.051775392 -0.19127548
0000b0 c2 1c 70 be 7e 65 c3 3d 60 75 b2 bd a7 bd a2 3e
       -0.2344847 0.095408425 -0.08713794 0.31785318
0000c0 87 08 af 3e ad ec db 3e 86 e3 8a be 96 6d 10 bd
       0.34186193 0.42954007 -0.27126712 -0.03526076
0000d0 85 62 93 3e 68 b7 92 be 74 59 08 bd 99 10 89 bd
       0.28786102 -0.28655553 -0.033288434 -0.06692619
0000e0 13 8a 7c 3e 20 63 98 3e 08 96 9a be a8 81 18 be
       0.24662046 0.29763126 -0.3019259 -0.1489321
0000f0 4f ea be 3e 05 06 a5 3e 00 45 a8 3d 83 27 c3 3e
       0.37288138 0.32231155 0.08216286 0.38116083
000100 ec 41 0d 3e ec 4d 6c 3e c4 9a 90 be b1 bd f2 3e
       0.13794678 0.230766 -0.28243077 0.47410348
000110 95 f2 c1 bd 60 33 46 bd f6 8c 79 be 49 ce 29 3d
       -0.09470097 -0.04838884 -0.24370179 0.041456494
000120 c7 32 27 be e2 9d c1 bb de 2a 5d 3d 4e 2e 54 3e
       -0.16327964 -0.0059087137 0.05399596 0.20720789
000130 01 5b dc 3d 35 d2 1f be a5 a0 bb 3e 4c fc 92 be
       0.10759545 -0.15607531 0.36646 -0.28708112

weight f4 [40, 80]
000000 c9 63 99 bd 96 03 df 3d 4a dc 15 3d e7 1a 92 bd
       -0.07489736 0.10889356 0.036587037 -0.071340375
000010 ac bb ae bc f8 ed ba 3d 83 dd d1 3d 2f 2f 42 3d
       -0.021329723 0.0912742 0.10247328 0.04740828
000020 49 5c 88 bd d9 03 6d 3d bb e3 c8 3d 9e da 1b 3d
       -0.06658227 0.057864998 0.09809061 0.038050286
000030 11 c4 ba bc 1b bc b5 3d 45 6e 3e 3d 44 9e 09 bd
       -0.02279857 0.08873769 0.04649188 -0.0335982
000040 22 5a bd bc b8 26 4b 3d 0e e2 e8 bd a8 1b c5 3b
       -0.023114268 0.049597472 -0.113712415 0.00601526
000050 8b 65 85 3c 3b 49 83 3d 6d 8b 2e bd f6 71 7e 3d
       0.016283771 0.06410452 -0.042613436 0.0621204
000060 63 a3 4b bd c6 27 a6 3d 8e f1 6d bb 82 62 83 3d
       -0.049716365 0.08113055 -0.0036307308 0.06415273
000070 86 44 67 bd 4b 49 97 3d 64 25 b2 bd 6e 7f ce 3d
       -0.056461833 0.073870264 -0.08698538 0.10082899
000080 f1 1d 8a 3d c2 d0 8d 3d d8 a6 da 3d 2c 17 5f bd
       0.06743992 0.06924583 0.10676354 -0.054465458
000090 b8 1d e9 3c 64 ad 08 3e 8f 68 a9 3d c3 2c 95 3d
       0.028456554 0.13347393 0.08271896 0.07283928
0000a0 bf 9a 89 3d 52 07 69 3d 82 02 a9 3d 41 2d 93 bd
       0.067189686 0.056891747 0.082524315 -0.07186366
0000b0 0a 49 a2 3c bc 9e a2 3c 57 b1 af bc ba 3c 01 3e
       0.019810218 0.019851081 -0.021446867 0.12620822
0000c0 36 e6 8f 3d 3c 36 16 3e 91 d1 f0 bc 59 07 a0 bd
       0.07026331 0.14669126 -0.029396804 -0.078139015
0000d0 7e ed 13 bd 24 ae b7 3c ab 22 56 bd 8b f6 af bd
       -0.036115162 0.022421904 -0.052279156 -0.08591946
0000e0 ea 6c 2d 3d 12 23 a0 3d 95 b3 fc bb fd c2 4d bd
       0.042340197 0.07819189 -0.0077118375 -0.050234783
0000f0 9d 4d c2 bc 7d ed 98 bc 5d c5 32 bd 14 9c 37 bd
       -0.02371865 -0.01866793 -0.04364525 -0.044826582
000100 25 7b bd bd db 29 a8 3d 41 65 f1 bc 91 71 d8 3d
       -0.092520036 0.08211108 -0.029467227 0.10568536
000110 22 e2 93 3d 33 f8 54 3d d3 a7 3b bd 8c 9d 98 bd
       0.07220866 0.051994514 -0.045814347 -0.07451925
000120 4a 8e 42 bc 00 66 5f bd 6e a1 0a bd da 03 d8 3d
       -0.011874745 -0.054540634 -0.033845358 0.105476096
000130 42 5f 96 3d af cc a6 3b 2c e9 e2 3d 43 bb ca bd
       0.07342388 0.005090318 0.1107963 -0.098989986
000140 e8 ee 64 3d 7d e6 47 3c d0 d8 55 3d 21 a5 db bd
       0.0558919 0.012200949 0.05220872 -0.10724855
000150 d5 be 91 3c 93 97 a7 bd ae b8 39 3d a2 be c9 3d
       0.017791191 -0.08183207 0.04534214 0.098508134
000160 4b b8 5f 3d 7c 3f bc 3c d8 f8 d0 3d b7 6b 5d 3c
       0.054619115 0.02297949 0.10203713 0.013514451
000170 d9 cc c5 bd 72 b2 64 bd 69 41 3f 3d 94 4e b8 3d
       -0.09658212 -0.05583424 0.04669324 0.089993626
000180 40 8a 31 bd 6b 36 e1 3d c8 c8 51 3d 0f e7 a1 bd
       -0.043344736 0.109967075 0.05121687 -0.07905399
000190 57 ab fb 3b bb 0e 34 3d 16 e9 dd bc f6 44 84 3c
       0.0076803374 0.04395936 -0.027088683 0.016146164
0001a0 11 02 bd 3c b0 38 17 3d 1b 3e d9 bd fb e4 c3 3d
       0.023072274 0.036919296 -0.10607549 0.09565159
0001b0 65 3b 70 bd 8c 95 a7 3c d4 87 9b 3d 30 80 d2 3d
       -0.058650393 0.020457052 0.075942665 0.10278356
0001c0 a4 71 d9 3d 88 67 ad bd a3 f2 ed bc c7 56 57 3d
       0.10617378 -0.08467013 -0.029046362 0.05257299
0001d0 11 49 9f 3d 96 96 d9 3c 13 1f 3f 3c ab 79 d3 3d
       0.07777608 0.026561063 0.0116651235 0.10325941
0001e0 62 15 a8 bb a6 10 cb 3b 4d 93 08 bd e7 ab 9b bd
       -0.005129502 0.006197053 -0.033343602 -0.07601147
0001f0 df d0 ea bc 3e 5d cb 3d 77 38 29 3d 12 61 b0 3b
       -0.02866405 0.09929894 0.041313615 0.0053826654
000200 7e 41 73 3c 21 a3 ad 3d 11 7a 4a bd 0c d0 00 3d
       0.0148471575 0.0847838 -0.049432818 0.03144841
000210 51 2d 75 ba 8f 5c bf 3d 73 ea 84 3d 24 f2 a7 3d
       -0.0009352761 0.09343826 0.0649003 0.082004815
000220 91 0b 91 3d f5 a7 2d 3c 46 e3 71 3d bd 84 b7 bb
       0.07082284 0.010599126 0.059054635 -0.0056005404
000230 1f 11 3c bc 74 86 cf 3d 8f 47 c7 bd da 55 17 3e
       -0.011478691 0.10133067 -0.097304456 0.14778844
000240 c2 4a 9c bd 16 00 8a bd 36 6b a9 3d 55 c1 05 3e
       -0.076314464 -0.06738298 0.08272402 0.13062032
000250 a1 94 55 bd 47 20 23 bd 87 be 67 3c a8 58 aa bc
       -0.052143697 -0.039825704 0.014144546 -0.020794228
000260 a9 f0 a5 bd 44 f7 41 bd 50 d5 ca bd 55 55 31 3b
       -0.08102543 -0.04735495 -0.099039674 0.0027058918
000270 e4 cd 58 3d 8b 06 86 bd c6 36 bf 3d ee 84 d4 bc
       0.052930728 -0.06544217 0.09336619 -0.025942292
000280 5c 25 04 bc f9 dd 91 bd dc 0a 40 bc 9b 22 f6 3c
       -0.008065548 -0.07122416 -0.011721339 0.030045798
000290 4b d3 a4 bd 12 50 a5 bd 62 c6 9e 3d e7 bd c7 3b
       -0.080481134 -0.08071913 0.07752682 0.006095636
0002a0 88 93 2d 3d 7b 91 3b 3d 0a 78 32 3d bc 4c c7 bd
       0.042377025 0.045793038 0.04357151 -0.09731433
0002b0 1a b5 a6 bd f6 ce 7f 3d a3 45 1f bd 66 53 17 3a
       -0.08140011 0.062453233 -0.03888477 0.000577262
0002c0 70 f9 db bd b1 ba bf bd 6c 73 5c 3d cb 16 6d bd
       -0.10740936 -0.093617804 0.053821012 -0.057883065
0002d0 96 cc 16 bd 0a 3d 05 3d 41 56 85 3c 4f 70 08 3d
       -0.036816202 0.032528915 0.01627648 0.03331023
0002e0 58 c7 a8 bd 67 54 64 bb e7 8f 9b 3d 67 a3 bc 3d
       -0.08241147 -0.0034840347 0.075958066 0.09210854
0002f0 fb bf 84 bd 51 e6 72 bd c4 84 8a bc de c8 ac 3d
       -0.0648193 -0.059301678 -0.01690901 0.0843675
000300 b9 8e e8 bd 01 6b d6 bd 0b 14 0c bd ec 85 8b bd
       -0.11355347 -0.10469628 -0.034198802 -0.06812653
000310 31 21 d3 bc 92 3b be 3d 2c fa 42 bd 58 5e 8f 3d
       -0.025772663 0.09288706 -0.047601864 0.070004165
000320 67 1e 00 be 6e fe 5b 3d ef fb 26 bd 8e f5 40 bc
       -0.12511598 0.05370944 -0.040767606 -0.011777295
000330 ba 7d a7 3d 7c 1d da 3c 91 34 ca bc 3b 31 01 be
       0.08178277 0.026625387 -0.024683269 -0.12616436
000340 70 b7 72 bc 73 79 5c bd 07 cb d2 3a b4 ed ab bd
       -0.014814243 -0.05382676 0.0016082235 -0.08394948
000350 6f 5d d9 bd 20 d0 39 3c f7 f3 c2 bd 8e 12 27 bb
       -0.10613524 0.011341125 -0.09519189 -0.0025493237
000360 b7 05 e8 bd cf 31 b3 bd e8 e6 88 3d 63 d5 e9 3d
       -0.11329215 -0.087497346 0.06684667 0.114176534
000370 6a 80 09 be f1 05 55 bd 3a 7b 0d 3d 15 c6 cb bd
       -0.13427892 -0.05200762 0.034541346 -0.099498905
000380 e3 db eb 3c 5a 52 73 bd 30 19 11 bc 45 2d 18 bd
       0.028791374 -0.05940471 -0.008856103 -0.037152547
000390 dc a1 c1 3d 16 c4 d1 3a 83 b3 e4 3d 0b 79 ab bd
       0.094547 0.0016003873 0.11167052 -0.083726965
0003a0 e6 54 55 3d 32 bb 26 3d c3 45 44 bc 11 c6 df bd
       0.05208292 0.040705867 -0.011979523 -0.1092645
0003b0 f2 ed 5d bd c4 59 c7 bd ca 4e 80 3d 37 6c ef 3c
       -0.054182 -0.09733918 0.06265028 0.029226406
0003c0 af 91 68 3d d5 1c e3 3b 6e 87 c7 3d fb 83 00 bd
       0.05677956 0.0069309273 0.09742628 -0.031375866
0003d0 ea b2 47 3c 4d 83 53 bc 5a 9a 93 3d 57 80 cd bb
       0.0121886525 -0.0129097225 0.072071746 -0.006271403
0003e0 c0 28 8d bb 0d e4 01 3d ef 58 af bd 73 89 14 bc
       -0.0043078363 0.031711627 -0.085618846 -0.009065974
0003f0 67 e8 12 bd fe a4 56 3d f3 b7 27 3d 16 ea df 3d
       -0.035866167 0.052403443 0.040946912 0.1093332

bias f4 [40]
000000 45 88 dd 3d 9b 24 df 3d c0 47 b9 3c b1 11 6d 3d
       0.10817007 0.10895654 0.02261722 0.0578782
000010 9f 39 c3 bd 73 f2 0d bd 75 f1 ec bd eb 9d 65 bd
       -0.09532475 -0.034655046 -0.11569492 -0.056058805
000020 1c 9e 1e 3a 46 8f 45 3d b5 7c eb 3a b2 a1 03 3c
       0.0006050782 0.04823234 0.0017966243 0.008034157
000030 32 a3 c6 bc dc 62 bf 3d ed c0 75 bc cf 49 b7 3d
       -0.02424774 0.09345028 -0.01499961 0.08949625
000040 58 2e c9 bc 39 2d d5 3d 12 8f 94 bd a5 16 30 bc
       -0.024558231 0.10409016 -0.07253851 -0.010747586
000050 c3 98 df 3d 28 6f da 3c 4c fd 7f bd 99 55 b6 3d
       0.10917809 0.026664332 -0.062497422 0.08903045
000060 af 03 81 bc ab 2c 19 3c e0 29 9f 3d f2 93 07 3d
       -0.015748827 0.009349029 0.07771659 0.033100076
000070 03 bc f7 bd c7 24 4d bd cc d5 1f bc dc e0 3b bd
       -0.12096407 -0.0500839 -0.009755563 -0.04586874
000080 6d 31 ff 3d 7a 86 60 3d 74 7a ac 3d 84 5c af bd
       0.12460599 0.054815747 0.084217936 -0.08562568
000090 71 66 28 3e 0d b0 de 3c 65 75 a8 3d f7 aa af bd
       0.16445328 0.027183557 0.08225516 -0.08577531

weight f4 [40, 80]
000000 65 e3 21 bd 5c 2a d0 3c 92 88 86 3d 03 26 7b bd
       -0.0395235 0.025410824 0.065690175 -0.061315548
000010 44 d8 69 bd b3 05 bb bd 1a 6d 01 3d ce 33 d7 3b
       -0.057091013 -0.091319464 0.031598188 0.006567455
000020 59 3f 47 bd af c0 96 bd 11 54 91 bd db 00 33 be
       -0.048644397 -0.0736097 -0.070961125 -0.17480795
000030 0d 16 19 be 41 59 bd 3c a5 0d c4 3c 27 45 f9 bd
       -0.14949818 0.023113849 0.023932287 -0.12171393
000040 37 69 c3 bd f2 56 ec 3b c9 38 a3 3d 5e 8a 43 be
       -0.095415525 0.007212513 0.07969815 -0.19095752
000050 37 03 35 b9 66 af 21 3b 9c fb 08 be 4f 30 dc bd
       -0.00017262703 0.0024671196 -0.13377231 -0.10751402
000060 5d 2e 91 bd 4f 08 5a 3c b1 c3 0e bd 60 ce 82 3c
       -0.07088921 0.013307645 -0.034854595 0.015967548
000070 12 fb 48 3c 50 8e e0 bb 3c ad bd bd f1 87 55 bd
       0.012266891 -0.0068529025 -0.092615575 -0.052131597
000080 a8 d8 04 be dd 59 cb bd 8c 47 a8 bd 6d b0 3b be
       -0.12973273 -0.099292494 -0.082167715 -0.1832902
000090 3b df 14 be a3 ca 44 be cc 85 bd bc bb 91 11 be
       -0.1453828 -0.19217925 -0.023135088 -0.14215748
0000a0 55 c5 c5 bd 3b af 41 be 5e 4f df bd 9c 2c c6 3d
       -0.09656779 -0.18914501 -0.1090381 0.09676477
0000b0 12 32 56 bd 7b b1 16 bc a5 d7 30 3d 88 3a 44 be
       -0.052293845 -0.009197588 0.043174405 -0.19162953
0000c0 7e b6 35 be 96 96 d1 bd 17 dc 1c 3d ff 43 ac bc
       -0.17745396 -0.102338 0.03829583 -0.021028517
0000d0 03 6e a5 bd 56 c2 45 bd 74 f0 16 bd f9 25 b1 bd
       -0.08077624 -0.048281036 -0.036850408 -0.08649821
0000e0 2c f0 06 3c 49 28 a1 bd ee 7d 64 3c d6 13 07 bd
       0.008235972 -0.07869012 0.01394604 -0.0329779
0000f0 18 91 1d bd ff 71 10 bd 3b 97 5f 3d c1 43 06 bd
       -0.03846845 -0.035264965 0.054587584 -0.03277946
000100 05 df f9 3c 3f 7a c7 bd 55 df 5b 3d 02 93 30 be
       0.030501852 -0.097401135 0.053679783 -0.17243579
000110 34 f7 02 bd da 12 03 be 74 02 81 3c 98 22 e9 bd
       -0.031974033 -0.1280016 0.01574824 -0.11383551
000120 7d 29 c5 3d 42 85 e0 bd 41 a0 62 bd 97 bf 28 be
       0.09627054 -0.10962917 -0.05532861 -0.16479336
000130 2c 56 09 be 3d 5b 01 be da e3 78 bd c3 b4 31 3d
       -0.13411778 -0.12632461 -0.06076417 0.04338528
000140 7e 77 12 3d 5f 67 e2 bd ff b5 b1 bd 42 e4 e3 3d
       0.035758488 -0.11054873 -0.08677291 0.11127521
000150 f5 99 a9 bd 5c 11 0b be 48 42 15 3d d3 24 0b 3d
       -0.08281318 -0.13580841 0.036440164 0.033970665
000160 b3 cd 96 bc 1f bc df bd 4a c1 45 3d b9 7c 8c bd
       -0.018408632 -0.10924553 0.048280038 -0.068597265
000170 1d 87 e6 bc 82 41 4e bd 9b 51 ac bd 8c 6c f5 bd
       -0.028140599 -0.050355442 -0.084140025 -0.11983594
000180 75 a2 4c 3d 0a c1 1f bd bc 37 b6 bd 05 a8 69 3b
       0.04995962 -0.039002456 -0.08897349 0.0035653126
000190 87 8b cb 3b 1c 57 69 3c e9 a5 f2 bd 1d fe 1d be
       0.0062117013 0.01424196 -0.11848051 -0.15428968
0001a0 0a 53 8e ba 87 58 05 be b4 ac 0c bd 7b 94 ca bc
       -0.0010858488 -0.13022052 -0.03434439 -0.024729004
0001b0 aa fe 16 be 89 e7 2a bd e2 31 89 3d 7d 45 cc bd
       -0.14745584 -0.041724715 0.066989675 -0.09974191
0001c0 2e 27 cb bc 83 1b a9 bd f8 b9 d5 bd 4f 70 07 3d
       -0.024798956 -0.082572006 -0.10435861 0.03306609
0001d0 dd 06 2b be 5d 37 3a bb fa fd 49 bc 96 59 39 be
       -0.16701837 -0.0028414347 -0.012328619 -0.1810058
0001e0 16 4d d9 3c 55 bc be bc 9e 45 0d be 77 ac 0c bd
       0.026526015 -0.023283163 -0.13796088 -0.034344163
0001f0 6d 5c 4a 3b 10 53 13 bd 26 de 04 bc fb a5 c3 bd
       0.0030877844 -0.035967886 -0.008109605 -0.09553143
000200 50 d5 2c bd 38 e6 41 bc 66 12 e2 3d 2b 3b 68 bd
       -0.04219562 -0.011834674 0.110386655 -0.056697052
000210 7d d5 08 bc 98 77 0a bd 88 5c 9f 3d 39 b8 dc 3c
       -0.008351681 -0.03380546 0.07781321 0.026943313
000220 fc be 21 bd 16 b6 d3 bd b2 9f cb bd 72 95 10 bd
       -0.039488778 -0.103374645 -0.09942569 -0.035298772
000230 09 8e 09 be 48 48 aa bb d6 ea ac 3c 57 d1 ce bd
       -0.13433088 -0.005196605 0.021108072 -0.10098522
000240 24 b0 ef bd c0 b8 87 bd 55 ff 57 3d b7 cf 32 be
       -0.11703518 -0.06627035 0.052733738 -0.1746205
000250 c8 5c b6 bc ac 42 48 bd 83 bf 01 be de 1c 35 3c
       -0.022261038 -0.04889171 -0.12670712 0.011054246
000260 5e ce 51 3d a2 e8 2e 3c ca 20 f3 bd 53 7f 1e be
       0.051222198 0.010675581 -0.118714884 -0.15478258
000270 24 d8 00 be fe d9 f5 bd 2f 8e 1f be 66 e3 88 3d
       -0.12582451 -0.12004469 -0.15581582 0.06683998
000280 aa 72 e0 bd 24 6e b8 bc df 5b f2 3c 07 4d 6a 3d
       -0.109593704 -0.022513457 0.029584823 0.057202365
000290 74 43 52 be 36 dc 8d 3c 32 cb 09 bd 63 76 cf 3b
       -0.20533544 0.017316919 -0.033641048 0.0063312515
0002a0 e8 89 b3 bd af ef d4 bd 9d 72 a6 3c 81 94 49 be
       -0.08766538 -0.103972785 0.020318324 -0.19685556
0002b0 c4 97 1e bd 6f c0 52 bc 83 10 de bc 45 aa 56 bd
       -0.038718954 -0.012863263 -0.027107483 -0.052408475
0002c0 ed 66 4a bc c1 f3 05 be f0 a6 67 bd 91 13 7d bd
       -0.012353641 -0.13081266 -0.05655569 -0.061786238
0002d0 85 2c 93 bd 47 af 8c 3d 5a 4d 18 be 0f 7d 4a be
       -0.07186226 0.06869369 -0.14873257 -0.19774269
0002e0 99 6a 0e be 53 4b 1a bd 0b bf 03 be fb 63 29 bd
       -0.13907851 -0.03766949 -0.12865846 -0.041355114
0002f0 99 ab b6 bd a5 96 0a be 33 d5 7d bd a8 0a e3 bc
       -0.089194484 -0.13534029 -0.0619709 -0.027715042
000300 57 ee 63 bd d9 c1 9b bc e4 e5 9c bd fb b9 3d be
       -0.05564722 -0.019013332 -0.07661036 -0.18527977
000310 df d3 14 bd da 42 40 be 5c 5d 5a be ec 98 38 bd
       -0.03633487 -0.18775502 -0.21324676 -0.045067713
000320 e5 5a 54 be ac 05 92 bd 80 84 03 be 05 16 88 bd
       -0.20737799 -0.07129988 -0.12843513 -0.06644825
000330 2e 1e 20 bd 9f 56 2e be 65 04 7b bd 32 e9 50 be
       -0.03909128 -0.17025231 -0.061283488 -0.20401457
000340 f9 f5 5b 3c 1a 76 a2 bd 00 a5 88 3d c5 b5 0f be
       0.013425344 -0.07932682 0.06672096 -0.14034183
000350 db 25 4b be a9 37 8d 3d 99 1f 9c 3c 55 ab ca 3c
       -0.1983866 0.06895382 0.019058036 0.0247399
000360 96 fa 24 bc 10 9e 05 be bb cc c2 bc ef 75 af bc
       -0.01006951 -0.13048577 -0.023779264 -0.02141854
000370 a7 43 da bc 48 f1 47 be 54 37 1d bd e4 7f 08 be
       -0.026643587 -0.19525635 -0.038382843 -0.13330036
000380 8d aa 39 be 20 0c 35 bd 3d 36 5d bd ed d1 09 be
       -0.18131466 -0.044201016 -0.054006804 -0.13458987
000390 26 05 e2 bd 1e ce e5 bd 6c 50 2f 3d 98 3e 2e bd
       -0.11036138 -0.11220954 0.042801306 -0.042540163
0003a0 66 fd 26 3d 0e db 19 be ba 70 8f 3c 51 54 18 be
       0.040769003 -0.15024969 0.017509807 -0.14875914
0003b0 ac dd b2 3c 80 e5 df bd 4f eb a0 3c ab 6f 51 3d
       0.021834217 -0.109324455 0.019643454 0.051131885
0003c0 0e 29 62 3c 59 b8 8a bc 76 7b 30 3d 84 7d 93 3c
       0.0138037335 -0.016933607 0.04308649 0.018004186
0003d0 79 a8 bd bc 3b a4 de bd 24 fd 22 be ac c9 18 bd
       -0.023151623 -0.10871168 -0.15916878 -0.037301704
0003e0 14 db 2b be 55 22 5c be 5f f7 1c be bf e4 33 be
       -0.1678279 -0.21497472 -0.1532874 -0.17567728
0003f0 b5 51 33 3c cb 16 52 3d fb 36 8a bd a4 32 f3 3c
       0.010944773 0.05129127 -0.06748768 0.029687233

bias f4 [40]
000000 95 e9 74 bd 9e 03 37 be 10 40 fe bd 9a e3 8f bd
       -0.059793074 -0.17872474 -0.12414563 -0.070258334
000010 48 95 71 bd 3b e2 e0 bd a8 78 57 be fd 74 b9 bd
       -0.058980256 -0.1098065 -0.2104212 -0.09055517
000020 cd 43 8f bc 3c 82 43 be 36 a4 bb bd 40 28 27 be
       -0.017488385 -0.19092649 -0.0916218 -0.16323948
000030 a0 ed c3 bd a4 de 15 be 64 47 ba ba a5 02 71 bc
       -0.09566808 -0.14635712 -0.001421195 -0.014710103
000040 bb df 06 bd f5 21 39 be 3b 94 d7 bd c5 d5 d8 bc
       -0.03292821 -0.1807936 -0.105263196 -0.02646912
000050 c2 ca a5 bc f2 33 fc bd e1 c0 39 be 4d ea c4 bd
       -0.020238284 -0.12314595 -0.18139984 -0.09615002
000060 a6 07 3f bd dc 18 5e bd 4c 32 15 be 8a 64 3b b9
       -0.046638153 -0.054222926 -0.14569968 -0.00017871163
000070 9f 0b 8b bd 26 cc c8 bd f8 0f 2e be 1c 9d ee bd
       -0.06789326 -0.09804563 -0.16998279 -0.1165106
000080 4c 19 86 bd ed 39 9e bd 4f 70 43 be d5 c1 16 be
       -0.06547794 -0.07725892 -0.19085811 -0.14722379
000090 cd 05 c9 bc 64 5e 09 3a 54 dc 21 be b3 5c 32 be
       -0.024538899 0.00052402006 -0.15806705 -0.17418174

weight f4 [80, 40]
000000 87 aa bb 3d 61 07 bb 3d e7 0b 30 3d 07 5d fd bd
       0.09163385 0.09132267 0.0429801 -0.12371259
000010 8b d9 96 3d dc 2e 58 3d a8 65 22 3d 0c 66 8d 3c
       0.07365712 0.052779064 0.03964773 0.017260574
000020 18 54 28 3c 83 0b fe 3d 11 a7 f3 bd f9 44 a6 3d
       0.010273956 0.124045394 -0.118971 0.08118624
000030 e5 48 1f 3e 39 1d 18 be 9a fa 18 3e 86 71 ef bd
       0.15555151 -0.14854898 0.14939347 -0.11691575
000040 3b d9 0e 3d 8f f5 07 3c 4d 76 33 3d d7 1d 1a be
       0.034875136 0.008298292 0.043813992 -0.15050445
000050 14 c6 bc bc 37 2a 14 be 65 c2 f0 3d 42 cb ed bd
       -0.02304367 -0.14469229 0.11755828 -0.11611034
000060 62 79 e4 bd 50 e6 c4 3d fa 2e a7 3d f7 f9 ec bd
       -0.111559644 0.09614241 0.08163257 -0.115711145
000070 27 3c 83 3c fc 3c f3 bd 79 99 f9 bd 6b a0 1e 3e
       0.016019894 -0.11876866 -0.12187476 0.15490882
000080 33 58 45 bd 95 38 25 3d b1 54 e3 bc dc b3 11 3d
       -0.048179816 0.040337164 -0.027750345 0.035571918
000090 24 0a 0e 3c 13 93 7a 3d 38 20 b1 bd 78 b7 2b 3c
       0.00866941 0.061175417 -0.08648723 0.010480754
0000a0 e4 f3 b6 3c 5e d8 50 3d 8d 1f b6 bc 66 62 46 3d
       0.022333093 0.050987594 -0.022231841 0.048433684
0000b0 60 c1 f0 3d 24 ab 6e 3d 18 3a 6b 3d 22 97 c5 bc
       0.11755633 0.05826868 0.05742845 -0.024119917
0000c0 0d ec ee bd b9 6d 67 bc 4c c8 06 3d f5 1b de 3a
       -0.11666117 -0.014125281 0.03290586 0.0016945588
0000d0 e2 8d 78 bd 59 6f 04 be bd 6e d6 bd e3 ca a3 bd
       -0.060682185 -0.12933101 -0.104703404 -0.07997682
0000e0 37 04 2a bd 1d 52 d5 3d 82 5b e4 3d 67 cc 58 bc
       -0.041507926 0.104160525 0.11150266 -0.013232327
0000f0 2b 2a 7d bd 25 2a f5 3d b3 82 a0 bd 0c 30 0c 3c
       -0.061807793 0.11970929 -0.07837429 0.008556377
000100 18 e3 b0 3d 23 9d 9e bd 17 62 af bd f9 9b da 3d
       0.08637065 -0.07744815 -0.08563631 0.10674281
000110 62 ba cc 3d 07 0b f9 3d f9 60 98 bd 8d 54 7f bd
       0.09996487 0.121603064 -0.07440371 -0.062336493
000120 f1 07 a5 bd df d3 38 3d b1 6e 97 3d cb 07 07 3d
       -0.08058155 0.04512393 0.073941596 0.032966416
000130 55 3f 9f bd 89 5b 5d bd 54 7c bd 3d 28 f5 89 3d
       -0.077757515 -0.054042373 0.09252229 0.06736213
000140 13 ba df bd 9a 3d a4 bd ad e5 6c bd ad 6f d9 3d
       -0.10924163 -0.08019562 -0.057836223 0.106170036
000150 1f 61 cc 3b 30 b2 1e be 7a ad 58 3d f4 11 05 be
       0.0062371637 -0.1549766 0.052899815 -0.1299513
000160 59 3d 05 bd 1f 73 1b be ed 1c 13 3e 25 23 b8 bd
       -0.03252921 -0.15180634 0.14366503 -0.08991078
000170 77 8e f7 bb 35 a7 3a 3d e2 f2 b8 bd af f9 b3 3d
       -0.007554825 0.045569617 -0.09030701 0.08787858
000180 8d 29 84 3d bf e4 de 3a 1b 64 03 3e 64 d3 53 bd
       0.06453238 0.0017005428 0.12831156 -0.05171527
000190 ac 51 17 be 84 20 8f bd ff 9e 81 3d c6 63 9f 3d
       -0.14777249 -0.06988624 0.06329154 0.07782702
0001a0 bf 96 11 be 82 9d b6 3d b3 f2 ae bd 98 d9 1e 3e
       -0.14217661 0.08916761 -0.08542385 0.15512693
0001b0 b8 32 70 bb df ef 7c bd 81 0f b9 3d 03 f8 fd 3d
       -0.0036651324 -0.061752196 0.0903616 0.1240082
0001c0 b3 6e 47 3c 02 df fb bd 5a 23 7e bd d3 10 03 3d
       0.012172389 -0.12298395 -0.062045433 0.031998467
0001d0 12 66 3b bd 6e 4f 9c 3d 76 ac 66 3a 67 63 c6 3d
       -0.04575164 0.076323375 0.00087995024 0.09686928
0001e0 3d 81 e1 bd 65 1a 15 3c d1 3b 52 3d ca 61 1e 3c
       -0.11010978 0.009100531 0.051326577 0.009666869
0001f0 3e 36 56 3d f9 c0 df bc 2d f9 06 be a8 fc ba bd
       0.052297823 -0.027313696 -0.1318099 -0.091302216
000200 cd 80 a3 bd 02 a9 17 be 26 29 c4 3d 84 6b 01 bd
       -0.07983551 -0.14810565 0.09578161 -0.031596676
000210 81 d1 9f 3d 00 ed 15 be 6f 74 fa 3d e2 93 09 3e
       0.078036316 -0.1464119 0.12229239 0.13435319
000220 c9 7e a6 3c 26 05 0c be e1 65 e2 bd 2e 2c 5c bd
       0.020324128 -0.13673839 -0.11054588 -0.05375307
000230 a7 f5 3c 3c e2 9c 08 be 17 4a 11 3e 6d df db bd
       0.011533177 -0.13341096 0.1418842 -0.107359745
000240 1b db cc bd b1 69 d6 bd f8 b1 8f bd d0 57 85 3d
       -0.100027286 -0.10469378 -0.07016367 0.065108895
000250 2c e3 90 3d 18 e9 19 3e fc 64 fc 3d d0 0e 16 be
       0.070745796 0.15030324 0.12323949 -0.14654088
000260 9f 66 bb bc f4 48 b8 bd c2 87 b8 bc dd b6 99 bc
       -0.022876082 -0.0899829 -0.022525672 -0.018763954
000270 fb 3f 5b bd 29 21 ce bd 09 0a d3 bd 1d 83 81 bd
       -0.053527813 -0.100649185 -0.103046484 -0.06323836
000280 4b e3 83 3b ec 03 99 3d ea 74 5c bc 7f fa 85 3d
       0.004024898 0.07471451 -0.013455609 0.06541919
000290 f5 94 a8 3b 64 a9 82 b9 8c ed 9a bc a4 6b e2 bd
       0.00514471 -0.00024921738 -0.0189121 -0.11055687
0002a0 8c 3b 36 3d 43 3b a5 bd d8 4d a9 bd 22 9f 0e be
       0.044490382 -0.08067944 -0.08266801 -0.13927892
0002b0 f0 c8 e2 bd 5c 41 3c bd 5f 78 14 3e 9c 12 00 3e
       -0.11073482 -0.04596077 0.14499043 0.12507099
0002c0 94 90 fb bd 78 b3 18 be ca 8f 71 3d 46 9a a5 3d
       -0.122834355 -0.14912212 0.05897502 0.08086066
0002d0 32 d4 0a 3e cd ae e5 3d 60 1d ea bd 2f e9 08 3e
       0.13557509 0.11214981 -0.11431384 0.13370202
0002e0 bd 66 e2 3b d5 43 f0 bd 9d 54 98 bd 06 b0 7f bc
       0.00690922 -0.11731688 -0.07438014 -0.015605932
0002f0 3e 53 97 3d f6 c3 da 3d 32 48 95 b9 08 cf 60 bc
       0.07388924 0.10681908 -0.00028473284 -0.013721235
000300 a5 76 03 3e 63 45 50 3d 8d e2 11 be ec 2a 85 bd
       0.12838228 0.050847422 -0.14246579 -0.06502327
000310 4f e6 e5 3b 28 d0 f0 3d dc f5 37 3d 20 bd 03 3e
       0.0070159803 0.11758453 0.044912204 0.12865114
000320 e9 d9 d6 3c 49 39 0f 3d 73 9b 82 bc 61 46 5a 3b
       0.026226955 0.03496674 -0.015943265 0.003330611
000330 19 02 25 bc 40 69 15 3d 36 bb f6 bd 97 79 d4 3d
       -0.010071301 0.036477327 -0.120474264 0.10374754
000340 ca 6a f2 bc 50 c8 e2 bd ec 49 e0 3b ab be c7 bd
       -0.029591937 -0.11073363 0.0068447497 -0.09753164
000350 3c 43 13 be df 92 b9 3d 56 3e 1e be 37 9b 1f be
       -0.14381117 0.090612166 -0.15453467 -0.15586554
000360 24 a6 50 3d ca 8e 1a bd 75 9c 03 bc ff 57 40 3c
       0.050939694 -0.03773383 -0.008032908 0.01173973
000370 51 6e 8f bd 7f aa 10 3e 20 89 ec 3c 97 d1 1f 3d
       -0.07003463 0.14127539 0.02887398 0.03901824
000380 3c bc 06 3e ec 2f 1c 3d b8 e8 d2 bc fd 0c 13 bd
       0.13157743 0.03813164 -0.025745735 -0.03590106
000390 3a e2 8a bd 76 bc c6 bd b6 00 02 be 50 64 44 3d
       -0.067814305 -0.09703915 -0.12695584 0.047947228
0003a0 f9 ff e9 3c 72 09 3f bd 05 75 b1 bd 19 7e 47 bd
       0.02856444 -0.046639867 -0.08664898 -0.04870424
0003b0 e4 a4 8f bd ff dd 8c bd a1 5f 5a bc b7 9d 24 bc
       -0.07013872 -0.0687828 -0.013328464 -0.010047368
0003c0 62 99 9a 3d b4 2f 1c 3d 97 81 ab 3d ce 7c f9 bb
       0.07548787 0.03813143 0.08374327 -0.007613755
0003d0 19 06 6b bd ca 7a 4f 3d 1b c1 d7 bd 98 f6 bd bc
       -0.057378862 0.05065421 -0.10534879 -0.023188874
0003e0 61 4f 98 3c 59 74 34 bd 53 df a2 3c 0f 0d 24 3d
       0.018592538 -0.04405627 0.01988188 0.040051516
0003f0 e4 a5 34 bd 4c c6 04 3e 45 69 88 3c b6 d6 85 bd
       -0.044103518 0.12966269 0.016651759 -0.065350935

bias f4 [80]
000000 6f 4e 11 be 67 39 0f be 7f 75 df ba f3 81 cd 3c
       -0.14190076 -0.13986741 -0.0017048566 0.025086379
000010 7f d5 0f be ee 0a 0f 3d 5a 04 3c be fd 42 3b be
       -0.14046286 0.034922533 -0.18361035 -0.18287273
000020 8f 20 e6 bd 82 94 96 3c 85 aa 66 bc 4c ba 27 be
       -0.11236679 0.01838136 -0.014078741 -0.1637966
000030 8f d1 b9 3d eb a5 dc 3b 9e 3e e4 bd 49 7b b1 3d
       0.09073173 0.006733646 -0.11144756 0.08666093
000040 8c bd 00 be ee 8e 0a 3d fa f5 07 be 8f 0f 91 bd
       -0.12572306 0.033827715 -0.13277426 -0.07083046
000050 ec c6 b3 bd a4 cc 18 be f5 4a 9f bd d1 0d ae 3d
       -0.08778176 -0.14921814 -0.07777969 0.08498729
000060 78 53 ef bd a8 64 c8 3c ad 09 5c 3d 4c 53 6e bd
       -0.11685842 0.02446206 0.053720165 -0.058184907
000070 79 73 ef bc 10 06 a7 bd af 30 0d be 42 37 b6 bd
       -0.029229866 -0.08155453 -0.13788103 -0.08897258
000080 a5 ff 24 be f8 90 0b be f8 e9 28 be 05 54 ae 3d
       -0.16113146 -0.1362952 -0.16495502 0.08512119
000090 2a ce 95 3d 5a 4c b5 3d 5f 35 08 3e 54 a7 06 3d
       0.07314713 0.088524535 0.1330161 0.03287442
0000a0 ef 9e 0b 3e 99 2d 5a 3d 4e 1f e4 bd e3 34 c6 3d
       0.13634847 0.05326614 -0.111387834 0.09678056
0000b0 58 77 c9 b9 87 ec ce 3c 51 07 3c 3d e7 47 09 be
       -0.00038426626 0.02525927 0.045905415 -0.13406335
0000c0 11 bd 45 3d dd 40 35 3a 59 1b a0 bd a8 37 80 bd
       0.04827601 0.00069142674 -0.07817716 -0.062606156
0000d0 e3 88 19 be 96 7c db 3d e9 26 a9 3d 5b 8b 74 3d
       -0.14993624 0.10717122 0.08259375 0.059703212
0000e0 34 de 03 be 4c 2a 02 bd e4 ef 22 3d 26 cf 71 3d
       -0.12877733 -0.03177862 0.03977956 0.059035443
0000f0 5e 13 de 3d 26 5e f4 3b 24 f7 1e be 19 d4 b2 bd
       0.10843538 0.0074575124 -0.15523964 -0.08731861
000100 db 38 f0 bd 7e a9 df bd 0c d2 52 bc 2c 55 3f 3d
       -0.11729594 -0.10921 -0.012867462 0.046712086
000110 07 06 33 3d e3 97 71 bc 62 97 a1 3d d6 20 3b bd
       0.04370692 -0.014745685 0.07890202 -0.04568561
000120 55 dd 4e 3d 1e 9d c2 3d 03 c9 8f 3d ef 18 0b 3c
       0.050504047 0.09502624 0.07020762 0.008489831
000130 c5 2b 04 3e d5 c8 9b bc 5d 64 9c bc 16 3b 89 3d
       0.12907322 -0.019016663 -0.019090826 0.06700723

weight f4 [5, 80]
000000 8f a9 3c 3b 93 07 75 bc f6 52 48 bb b6 c0 00 bc
       0.0028787588 -0.014955419 -0.0030567027 -0.007858446
000010 3a 98 50 3c d9 c3 be 3b 9b 32 b3 3c 8a cc da 3c
       0.012731606 0.0058216867 0.021874717 0.02670886
000020 59 ab 08 3c 5f f2 8b 3c b1 85 b2 3c 3f 04 be bc
       0.008341634 0.017083345 0.021792265 -0.023195384
000030 6e 9b e1 3c 1a 12 05 bd 67 ea 15 bc 94 dd 90 bc
       0.027539935 -0.032487966 -0.009150124 -0.017683782
000040 7c f6 cb 3c 51 f0 48 3c c9 36 2d 3c d4 ee 38 3c
       0.024897806 0.012264327 0.010572144 0.01128741
000050 70 e9 30 bc 1e c3 9e 3c bb da 65 bd 26 93 a1 3c
       -0.010797843 0.019380149 -0.0561168 0.019723486
000060 38 7d 66 3b 39 5d 0d 3d 4a e8 c3 bc 81 3d 08 3d
       0.003516985 0.034512732 -0.023914475 0.03326178
000070 ad 6f 3e bd 64 e9 e4 3b c5 95 d7 bc 18 89 99 3d
       -0.04649322 0.00698583 -0.026316533 0.07496852
000080 e8 68 41 3c 89 00 83 bd 74 95 1a 3c 65 d4 0c 3d
       0.011804797 -0.063965864 0.009435046 0.034382243
000090 87 9a 25 bd 63 f4 ba ba ff 5e 73 3c a5 ea e2 bc
       -0.040430572 -0.0014263507 0.014854192 -0.027699778
0000a0 0c 48 d0 bb 8a e0 af 3a 2f 4a 87 bc e8 a8 81 bc
       -0.006356245 0.0013418358 -0.016514866 -0.015827611
0000b0 fa 9b e0 bc 64 85 51 bc c0 34 7f bd 49 96 5d bd
       -0.027418125 -0.01278815 -0.062306166 -0.0540984
0000c0 c2 98 70 3c a7 4c 80 bc 39 56 5d 3d 89 9d c7 3b
       0.014684858 -0.01566155 0.054037306 0.0060917777
0000d0 5f e6 14 bd ef ee 7b 3d 90 da 5d 3c 7c c5 9e bd
       -0.03635251 0.06150716 0.013540879 -0.07752511
0000e0 c7 7c 0f bd 18 58 53 bb c1 76 44 bd ec ab 3d bd
       -0.035031106 -0.0032248553 -0.047964815 -0.046306536
0000f0 79 78 0f bd b0 e1 d6 3c 68 3c 35 bd 51 ed 83 bc
       -0.035027 0.026230663 -0.04424706 -0.016104372
000100 fa e8 06 3d a1 cf 00 3d 63 13 3e 3d a6 f7 52 bc
       0.032937028 0.03144801 0.046405207 -0.012876427
000110 b3 c3 ec 3c 97 d0 fd 3c 37 6f ba bc 9a 47 3b 3c
       0.02890191 0.030983252 -0.02275811 0.011430645
000120 04 b0 fc 3b ff 68 5b bc e9 c9 da bb fe 75 60 3d
       0.0077114124 -0.013391732 -0.0066769016 0.054800026
000130 bc 2b 8f bc 45 c5 42 3c 25 f7 8e bc 6d 75 97 bb
       -0.017476909 0.011887853 -0.017451832 -0.0046221525
000140 80 d4 6f 3c 74 e2 2f bd 40 50 1a bd 42 a8 fe bc
       0.014638066 -0.042940572 -0.03767419 -0.031086091
000150 bb ab 87 bc 98 61 4d 3c 9a 16 54 bc 02 31 db 3a
       -0.01656138 0.012535475 -0.012944842 0.001672298
000160 46 4d a6 bb 5c 01 1c bd 1c 06 71 3d cf 1f 77 3d
       -0.0050751297 -0.038087234 0.058843717 0.06033307
000170 09 c4 42 bd e3 de 05 3d 67 61 5f 3c 74 24 09 bc
       -0.047550235 0.032683264 0.013634062 -0.0083705075
000180 bf 95 64 bd e5 2f 3f bd a5 a3 49 3d b5 55 69 bd
       -0.05580687 -0.046676535 0.04922833 -0.056966502
000190 81 81 52 bd 24 6e 8b bc 1d 15 31 bd 9b 1f b9 bc
       -0.051393036 -0.017020293 -0.043233026 -0.022598078
0001a0 35 53 26 3b d4 5a 25 bd 89 ca 95 bb 65 11 05 3d
       0.0025379185 -0.040369824 -0.004571263 0.03248729
0001b0 74 54 1a bd 8e 3c 88 3d cd ea ed b9 67 1d c6 b8
       -0.037678197 0.06652175 -0.00045379103 -9.446852e-05
0001c0 0f 3a 0c 3d f3 f1 c5 bc d0 cc 86 3b 6d 2e 4b ba
       0.034235056 -0.024163222 0.004113771 -0.00077507534
0001d0 6e a5 91 3b c2 0a 7e 3c 5c 40 5b bd 86 36 f0 bc
       0.0044447696 0.015505495 -0.053528175 -0.029322874
0001e0 08 c8 8c bc a0 4d 4a bc 5c de 87 3d a2 dc 5d bd
       -0.017185226 -0.012347609 0.066342086 -0.05416549
0001f0 de 06 7e 3d 93 9e a8 bc 38 e1 b1 bb 3b 2c b8 bc
       0.062018268 -0.020583427 -0.0054284595 -0.022482028
000200 b1 b0 f7 bc a9 00 d9 3c 62 39 aa 3c 4a c2 e4 bc
       -0.03023562 0.026489573 0.020779315 -0.027924675
000210 bd d1 27 3d 1b 15 ff 3c ab fe da bc b6 a3 88 bd
       0.040971506 0.031137994 -0.026732763 -0.066718504
000220 30 b5 dc bc 03 b3 85 bd 8f 34 4e 3c 79 f2 7a 3c
       -0.026941866 -0.065282844 0.012585773 0.015316599
000230 0a 51 1e 3c 23 89 3b bc 40 4e 1c bd 1c 0d d2 bb
       0.009662876 -0.01144627 -0.038160563 -0.006410254
000240 a1 35 a1 3d 3b ef 6a bc a4 b3 b3 3c c9 be 5a 3d
       0.07871557 -0.014339264 0.021936245 0.053404603
000250 6a 64 da bc ae bf 26 3d 77 65 64 bc ef 23 7a bb
       -0.02665921 0.040710144 -0.013940207 -0.003816839
000260 96 b4 6d 3c 07 ca c3 bc 49 4c 13 bd f3 f1 ba bc
       0.014508387 -0.023900045 -0.035961423 -0.022820449
000270 75 b6 0f 3c 4a c9 6b 3d 5d a7 21 bd ff b9 15 bd
       0.0087715285 0.05756501 -0.03946625 -0.036554333
000280 61 f9 9a 3c 10 10 87 bd 0f 38 ea 3c a1 49 e5 bc
       0.018917741 -0.065948606 0.028591184 -0.02798921
000290 c3 47 d7 3c b4 0f 10 bd 5a 08 15 3d 59 52 4e 3d
       0.026279336 -0.035171226 0.036384918 0.0503715
0002a0 c5 68 c3 bc 89 a5 3b 3d 48 da 90 38 62 4c 71 bb
       -0.023853669 0.045812164 6.907113e-05 -0.003681921
0002b0 f8 e0 48 3c a2 bf 69 3d 1d f1 42 bc 8a d2 66 3d
       0.012260668 0.05706752 -0.011898306 0.05635313
0002c0 c5 e2 b4 3c e4 e7 2d bc 23 2f f2 bc 71 18 2b bd
       0.022080788 -0.010614369 -0.029563492 -0.041771356
0002d0 64 33 b1 ba 07 8d 0d bd 9a 29 91 bd dd 7c 60 3d
       -0.0013519344 -0.034558322 -0.07088013 0.05480658
0002e0 c7 23 6c bc a9 a4 65 3b c5 fb a7 3c c0 27 1a bd
       -0.014412827 0.0035040772 0.020505795 -0.037635565
0002f0 02 45 28 bd 01 af 41 bd 2a e3 1c 3d 24 0c 93 3c
       -0.041081436 -0.047286037 0.038302578 0.017950125
000300 49 89 1b 3d ce 42 88 bd 46 0b e7 bc 76 97 46 bd
       0.037972722 -0.06653367 -0.028203618 -0.04848429
000310 10 1b 00 bd d3 cd 95 3c c5 df 31 bc 6b 46 c5 3c
       -0.03127581 0.018286621 -0.0108565735 0.02408143
000320 cd 14 20 3d 19 12 f0 3c c7 2b a1 3c a3 53 8b 3d
       0.039082337 0.029305505 0.019674195 0.06803062
000330 cf a2 9e 3c 1c ed 89 bd 95 07 13 3d 29 9e 5d 3c
       0.019364743 -0.06734678 0.035895903 0.013526478
000340 8f 88 35 3d f3 20 79 bc e5 48 ad 3c e1 29 a1 3c
       0.044319686 -0.01520561 0.021152923 0.01967329
000350 e9 2f 32 bd cb 71 4d 3d 68 75 02 bc a1 f9 98 bb
       -0.043502722 0.05015735 -0.007962562 -0.00466843
000360 57 68 a6 bb 62 8c 0f bd bd f6 c2 bb cf 70 f3 bc
       -0.0050783562 -0.03504599 -0.0059498237 -0.029716877
000370 2b 41 f9 3c 9b 76 41 3d c6 d2 14 bd 15 59 98 3c
       0.030426582 0.04723225 -0.03633382 0.018597165
000380 e1 e6 01 3d c0 ed 53 bd 86 f6 a0 bb a1 eb 12 bd
       0.031714324 -0.051740408 -0.0049122004 -0.035869244
000390 ee b8 a2 3c 63 ab 3f 3d d0 dd 18 bd 68 40 0a 3b
       0.019863572 0.046794306 -0.037320912 0.0021095518
0003a0 81 e3 40 3d 14 28 55 bc 2a 4c b7 3c 69 b8 e8 3c
       0.047091965 -0.013010044 0.022375185 0.028408246
0003b0 8f 18 81 3d 7e 77 84 bd 3f 5f b1 3c 40 79 ac 3b
       0.06303512 -0.06468104 0.021651862 0.0052634776
0003c0 58 55 b0 bc bb 41 4b 3d 44 ac 9c bb 4e e8 6b 3c
       -0.02152507 0.049623232 -0.004781278 0.0143986475
0003d0 87 0e ac 3c 93 6c 9b bc c1 0f 9d bb 43 f8 12 bc
       0.02100302 -0.01897267 -0.004793138 -0.008970323
0003e0 e9 a4 b9 bc c4 05 cd 3c 1b 11 3b bd 6e fd 3c bd
       -0.022661643 0.025027163 -0.04567061 -0.046140127
0003f0 27 fa 11 3d 6b 51 2b bd ec b8 3e bb 60 6b 72 3d
       0.035638954 -0.041825693 -0.0029101921 0.059184432

bias f4 [5]
000000 2c 84 91 3c c5 46 51 3d 05 76 6b bd ba f1 9a bc
       0.01776322 0.05109288 -0.0574856 -0.018914092
000010 e7 f2 b7 bc
       -0.022454692
