final_project/mlruns/1/20ec8c96c89f4f02bc8af1eadffb7d2b/artifacts/cvae_24/data/model.pth (torch, 48071 bytes, 10 tensors)

weight f4 [80, 10]
0.08681121 -0.06724098 0.30462337 0.20863381 0.05543502 0.03649234 -0.2664625 -0.049132656
0.21348488 -0.21094358 0.27096123 -0.011794011 -0.02938594 0.1342486 0.021398488 -0.05793843
-0.24204862 -0.3111825 -0.24726966 0.3080838 -0.079637066 0.17821573 -0.14982371 -0.020999894
0.16871737 0.1372001 -0.099149086 0.19065608 0.03593336 0.09622589 -0.13588549 -0.09743927
0.16666472 0.08786533 -0.04313689 -0.062069487 -0.03930176 0.018352736 -0.21037224 0.21002576
0.35711098 -0.27755126 0.30900258 0.04604789 0.35607886 0.25069818 -0.30956417 0.10324445
-0.17630254 0.103415385 -0.27687627 -0.2354417 -0.09251147 -0.10821363 0.37232307 0.18010636
-0.2894872 0.326774 -0.25655425 -0.13921618 0.3007617 0.29464456 0.09598705 0.1881894
0.23596984 -0.26371837 -0.17602977 -0.18366055 -0.23891062 -0.021160876 0.0009871954 -0.14873038
0.06889823 0.23040982 0.2520769 -0.26087442 -0.15484723 0.1589913 0.06124232 0.32829282
0.21573603 -0.28895104 -0.22858104 -0.21886219 0.30988112 0.031819865 -0.02985859 -0.30670837
0.21915717 0.124721475 -0.13535716 0.2498932 0.22961524 0.031040026 0.09856482 0.30077872
-0.13741781 -0.237229 0.26032963 0.32702923 0.134326 0.26373705 0.034787435 0.10729884
0.050159182 -0.3139558 -0.03897873 0.29477397 -0.12279183 -0.18076874 -0.015056779 0.28839934
-0.050193615 0.012204872 -0.18216243 0.051372293 0.042538498 0.090440035 -0.27723786 -0.15362057
0.13615344 0.11165526 -0.11469886 0.2972113 -0.2122315 0.12966627 -0.25697252 0.102678135
0.16023213 -0.1282121 0.25056136 0.12757216 0.24203645 -0.12831898 -0.11621709 0.105421096
-0.19359937 -0.022040758 -0.017242938 -0.13033886 0.3276047 -0.04571885 0.25416356 0.2754613
-0.2828248 0.012730404 0.23576106 -0.14520882 0.23343529 0.329846 0.21327761 -0.15190469
-0.076244496 -0.10459395 0.08229804 0.1718142 -0.057197113 -0.20411687 -0.30633354 -0.19557029
0.23049207 0.19829468 0.14787498 0.16044733 0.32223538 0.20055966 -0.09003711 -0.16562484
-0.22368649 -0.031045198 -0.11178075 -0.21671824 0.2343402 -0.22132564 -0.22228247 0.2658467
0.28381044 -0.07903545 0.0988634 0.31253344 0.28901318 0.06449392 0.23465616 0.027245713
-0.15516403 0.21271709 0.1337643 -0.002837927 0.13367017 -0.13882686 -0.2043884 0.01839243
-0.27965382 -0.08623322 0.059469506 0.115544714 -0.17356075 0.033410616 -0.10170611 -0.17027129
-0.17224479 -0.10211313 -0.25084957 0.18704183 -0.01218086 -0.14493781 -0.21379153 -0.18615057
-0.19658558 0.30580753 0.12517913 0.029764554 -0.079039484 0.08205305 -0.0006298388 -0.22991085
-0.06966752 -0.04200664 -0.19911277 0.14802438 0.2582622 -0.1612028 0.059185684 0.110214576
-0.03145371 0.23889117 0.21337761 0.21649846 0.06334935 0.055690844 -0.04401867 -0.087111115
-0.25446913 -0.0060089477 -0.013380728 0.2284289 0.1161902 -0.21912216 -0.2888892 -0.3047839
-0.21584746 0.16760312 0.04135822 -0.16213389 0.05403823 -0.1503254 -0.07248981 0.01435965
0.24117409 0.16605745 0.29961473 0.20084742 0.14263111 0.12377116 -0.12596296 -0.16182703
00000000: 13ca b13d a4b5 89bd 98f7 9b3e 1aa4 553e
00000010: d50f 633d fe78 153d c66d 88be 533f 49bd
00000020: c89b 5a3e 9801 58be 6ebb 8a3e ab3b 41bc
00000030: c8ba f0bc 7778 093e e24b af3c d950 6dbd
00000040: 98db 77be 5053 9fbe 4234 7dbe 29bd 9d3e
00000050: c218 a3bd 2f7e 363e 636b 19be f807 acbc
00000060: 3fc4 2c3e 2f7e 0c3e ad0e cbbd 593b 433e
00000070: dc2e 133d 1412 c53d 9125 0bbe 3d8e c7bd
00000080: 28aa 2a3e bdf2 b33d 4fb0 30bd 933c 7ebd
00000090: e2fa 20bd 7a58 963c d26b 57be fe10 573e
000000a0: 40d7 b63e 331b 8ebe 9635 9e3e b69c 3c3d
000000b0: f84f b63e 835b 803e 327f 9ebe d471 d33d
000000c0: a788 34be 72cb d33d bac2 8dbe a117 71be
000000d0: a776 bdbd 1c9f ddbd 21a1 be3e cd6d 383e
000000e0: ab37 94be ec4e a73e 145b 83be b08e 0ebe
000000f0: 70fd 993e a7db 963e dc94 c43d b9b4 403e
00000100: 14a2 713e 1806 87be 2641 34be 8311 3cbe
00000110: fca4 74be 9359 adbc c864 813a c74c 18be
00000120: 841a 8d3d 8df0 6b3e 3910 813e 5591 85be
00000130: 4690 1ebe 9ece 223e 3ad9 7a3d ff15 a83e
00000140: e8e9 5c3e 64f1 93be 2611 6abe 691d 60be
00000150: bda8 9e3e 8c55 023d 009a f4bc e108 9dbe
00000160: bd6a 603e f96d ff3d 119b 0abe 01e4 7f3e
00000170: 4220 6b3e a747 fe3c 5adc c93d abff 993e
00000180: 41b7 0cbe 29ec 72be ed49 853e 6070 a73e
00000190: c18c 093e 8b08 873e 457d 0e3d 7fbf db3d
000001a0: b773 4d3d d1be a0be 29a8 1fbd 9dec 963e
000001b0: 487a fbbd 711b 39be b5b0 76bc 14a9 933e
000001c0: d297 4dbd f2f6 473c ca88 3abe c16b 523d
000001d0: d93c 2e3d a038 b93d 1ff2 8dbe b64e 1dbe
000001e0: cf6b 0b3e 83ab e43d 3ce7 eabd 142c 983e
000001f0: 3753 59be 3cc7 043e e791 83be ea48 d23d
00000200: e413 243e 084a 03be 9449 803e 47a2 023e
00000210: 67d8 773e 0d66 03be 3a03 eebd 04e7 d73d
00000220: ea3e 46be d28e b4bc 1041 8dbc 8d77 05be
00000230: cebb a73e b043 3bbd ba21 823e 4309 8d3e
00000240: 6ace 90be 2f93 503c 596b 713e 9fb1 14be
00000250: a909 6f3e 93e1 a83e 7265 5a3e e78c 1bbe
00000260: 1326 9cbd 5a35 d6bd e08b a83d 10f0 2f3e
00000270: 8547 6abd 0304 51be c0d7 9cbe 9443 48be
00000280: 1d06 6c3e c30d 4b3e 8a6c 173e 4e4c 243e
00000290: 09fc a43e 835f 4d3e 6065 b8bd 8f99 29be
000002a0: 120e 65be 8052 febc 4eed e4bd 63eb 5dbe
000002b0: e1f6 6f3e 30a3 62be 049e 63be 0f1d 883e
000002c0: 9a4f 913e 57dd a1bd e578 ca3d 6204 a03e
000002d0: 89f9 933e 6315 843d b449 703e 6732 df3c
000002e0: 52e3 1ebe 82d2 593e 82f9 083e 84fc 39bb
000002f0: d5e0 083e a128 0ebe 314b 51be b9ab 963c
00000300: c92e 8fbe 0b9b b0bd 4c96 733d b5a2 ec3d
00000310: e9b9 31be 92d9 083d 4b4b d0bd 995b 2ebe
00000320: f060 30be b020 d1bd 5b6f 80be e587 3f3e
00000330: 3b92 47bc 946a 14be 2bec 5abe 419e 3ebe
00000340: bb4d 49be ce92 9c3e f52e 003e cbd4 f33c
00000350: 74df a1bd 6e0b a83d c41b 25ba c06d 6bbe
00000360: d8ad 8ebd 280f 2cbd 38e4 4bbe b493 173e
00000370: f13a 843e 5912 25be b06c 723d 2eb8 e13d
00000380: 9bd5 00bd e39f 743e a97f 5a3e c6b1 5d3e
00000390: 4ebd 813d 151c 643d ec4c 34bd 5067 b2bd
000003a0: c749 82be b5e6 c4bb d73a 5bbc 44e9 693e
000003b0: 21f5 ed3d 8f61 60be 49e9 93be a30c 9cbe
000003c0: 1e07 5dbe 27a0 2b3e 3d67 293d 6d06 26be
000003d0: 3157 5d3d e7ee 19be 8a75 94bd bd44 6b3c
000003e0: 57f6 763e f70a 2a3e 1a67 993e f2aa 4d3e
000003f0: e40d 123e bc7b fd3d 6ffc 00be fcb5 25be

bias f4 [80]
0.4278223 -0.05860092 0.22351567 -0.30896938 0.2660955 0.3265018 0.3477232 0.32466477
-0.27429372 0.4809329 -0.24461558 0.48903242 -0.24386413 0.3550964 0.40228608 -0.18386208
0.32543504 -0.076818176 -0.12371213 -0.24383506 -0.19065523 0.44636884 -0.24223791 -0.25849742
-0.13956806 -0.28897357 0.46414515 -0.11664785 -0.20509736 0.3065909 -0.1456043 -0.28132758
0.44465935 0.21345906 -0.03543406 0.29546684 0.2520556 0.32213584 -0.0263372 -0.20500885
0.17288904 -0.027376989 -0.014499687 0.5220866 -0.25415802 0.0026055286 -0.16343987 -0.041208073
0.44593588 -0.2268291 0.32741576 -0.01003396 -0.21142577 0.266834 -0.15958181 0.47825372
0.50166047 0.2878196 0.46474418 -0.21994904 -0.2836817 0.32113507 0.4737411 -0.17739986
-0.04146596 -0.25039086 0.39173353 0.48457515 -0.088982634 0.36553898 -0.19025365 -0.2672521
-0.28716817 0.48738736 0.49874407 0.40706375 0.32442662 0.515331 0.38211563 0.19464512
00000000: 860b db3e 8507 70bd 4be1 643e 3c31 9ebe
00000010: ab3d 883e 3e2b a73e c608 b23e 763a a63e
00000020: 3a70 8cbe d63c f63e 827c 7abe 7562 fa3e
00000030: 85b7 79be 32cf b53e 71f8 cd3e 5746 3cbe
00000040: 6c9f a63e d952 9dbd c95c fdbd e6af 79be
00000050: 203b 43be 758a e43e 370d 78be c659 84be
00000060: eeea 0ebe 58f4 93be 6fa4 ed3e 11e5 eebd
00000070: 0b05 52be 7cf9 9c3e 4b19 15be 2b0a 90be
00000080: 64aa e33e 0395 5a3e 4e23 11bd 6e47 973e
00000090: 6e0d 813e fdee a43e 1dc1 d7bc d7ed 51be
000000a0: d309 313e b545 e0bc 1890 6dbc 78a7 053f
000000b0: 0021 82be 84c1 2a3b c85c 27be ccc9 28bd
000000c0: b551 e43e e345 68be 0aa3 a73e 7b65 24bc
000000d0: ff7f 58be 779e 883e 6a69 23be acdd f43e
000000e0: d26c 003f 175d 933e f3f2 ed3e 523a 61be
000000f0: ba3e 91be d16b a43e 328e f23e 4fa8 35be
00000100: 36d8 29bd 3b33 80be 4c91 c83e 3c1a f83e
00000110: 873c b6bd ed27 bb3e dad1 42be 44d5 88be
00000120: b507 93be d68a f93e 625b ff3e a96a d03e
00000130: 3f1b a63e bbec 033f a9a4 c33e 0d51 473e

weight f4 [40, 80]
0.0044692224 -0.031114371 -0.058050428 0.013025938 -0.0054062777 -0.013677806 0.13116746 0.055346042
-0.02573019 -0.046842124 0.015776785 0.0808208 0.017864216 -0.019345706 0.07412358 -0.047825623
0.05850875 -0.098778635 0.041197207 0.04598881 0.07161083 0.030074254 -0.0688528 0.07138007
-0.019858366 0.08927642 0.051148955 -0.087031744 0.08461418 -0.04811364 0.08887718 -0.024163684
0.11267434 -0.028347835 -0.070882075 0.0808082 0.1044176 0.13280714 0.031715743 -0.01514533
-0.0038655316 0.08294611 0.03505777 0.06268133 0.08048652 -0.058406934 -0.09823062 -0.05481263
0.070836395 0.04836169 -0.0061247298 -0.05148567 -0.046235576 -0.02760855 -0.012122473 0.0070107616
-0.026086414 0.079680875 0.09223749 -0.085440196 0.042771455 0.03764672 -0.027653465 0.06451119
-0.07820152 -0.0545164 0.019177757 0.0067874063 0.091289185 0.029036652 -0.052463792 -0.030737495
-0.07221612 -0.033387154 -0.05062935 0.051898196 -0.027961455 -0.053083308 0.09381121 0.005690797
0.047055 -0.100215405 -0.059135936 0.06378656 -0.07612808 -0.045157164 0.011573283 -0.006206295
0.06473331 -0.063721 0.08568263 -0.08856378 -0.03430163 -0.040431164 -0.07562906 0.10300627
0.021247905 0.05677964 -0.007422472 0.108061984 -0.009320486 0.042726137 -0.04828389 -0.029264977
-0.104074635 0.10978952 0.096197076 0.03569938 0.08491511 0.08641313 0.03938805 0.03296558
-0.034243196 0.06992142 0.09298541 0.06624295 -0.060268044 0.031960573 0.10729855 0.02820135
0.15040758 -0.08259155 0.063070774 -0.09072065 0.09918374 0.042092513 -0.09071475 0.10140964
0.053339757 -0.092661396 -0.0036851943 0.089036755 0.014621953 0.08344802 -0.05355388 0.10877093
0.049094237 -0.02939911 -0.05991308 -0.069291666 0.014509651 0.0030762544 -0.087906145 0.062305126
-0.10612396 -0.097031385 -0.07521039 0.02692727 0.000718526 0.0539053 -0.014985661 -0.07820858
0.032464538 -0.033769388 -0.076669656 0.10324581 0.06225002 -0.096269004 0.07354304 0.10883061
0.0615719 0.061250027 0.09224868 -0.09855329 -0.061363526 -0.0013498758 0.08088098 0.11575958
0.029670788 0.042277444 0.0495973 0.096718535 0.03606611 -0.103834555 -0.03605014 -0.07085794
-0.032634057 -0.043078173 -0.05842017 -0.062280226 -0.049735446 -0.060056563 0.019049568 -0.10856256
0.079271205 -0.022021953 -0.045655783 -0.034087315 0.0458824 0.10376182 -0.021124098 -0.060823344
0.045344323 0.055190902 0.08225968 0.013590538 0.06968428 0.1449193 0.12394465 -0.058011495
0.030837245 -0.0006021754 -0.06842547 0.076520234 0.0035598697 -0.027484512 -0.053101484 0.01986735
0.06417386 -0.107587375 -0.022340693 -0.08081014 0.0077088373 0.072096914 0.09595479 -0.0096418625
-0.08556741 0.13452351 0.014413175 0.091682605 0.09223598 -0.071228154 0.014400048 -0.074000075
-0.075269476 -0.0889055 0.08270499 0.02790423 0.07564935 0.10234376 0.086495996 0.10128174
-0.016806358 -0.021145465 -0.054042403 -0.01782791 -0.06689568 -0.07350019 -0.057015028 0.06585112
0.026936159 -0.03283555 0.019475712 -0.041566726 0.043854207 0.0818968 0.024362352 0.11221427
0.057126623 -0.041464627 -0.00041003604 0.13472793 0.027244719 0.033578184 0.11568101 -0.040693566
00000000: 8e72 923b 91e3 febc 49c6 6dbd be6a 553c
00000010: 2527 b1bb e018 60bc c350 063e 88b2 623d
00000020: 1fc8 d2bc 87dd 3fbd 513e 813c 6085 a53d
00000030: fa57 923c e37a 9ebc 1ace 973d cde4 43bd
00000040: dfa6 6f3d 744c cabd 67be 283d c35e 3c3d
00000050: b3a8 923d 485e f63c b202 8dbd b72f 923d
00000060: 03ae a2bc 8ed6 b63d 9181 513d b33d b2bd
00000070: 334a ad3d cf12 45bd 3d05 b63d ebf2 c5bc
00000080: cec1 e63d b839 e8bc 9f2a 91bd c57e a53d
00000090: e5d8 d53d 98fe 073e 5ee8 013d 1e24 78bc
000000a0: dc54 7dbb a6df a93d bc98 0f3d 125f 803d
000000b0: 1ed6 a43d 1c3c 6fbd 232d c9bd 3583 60bd
000000c0: ac12 913d e816 463d f5b1 c8bb a3e2 52bd
000000d0: 8461 3dbd 532b e2bc 569d 46bc 88ba e53b
000000e0: 2db3 d5bc ba2f a33d 02e7 bc3d 45fb aebd
000000f0: 1f31 2f3d 7233 1a3d 8589 e2bc 711e 843d
00000100: 1e28 a0bd 974c 5fbd ac1a 9d3c e468 de3b
00000110: d3f5 ba3d 46de ed3c 46e4 56bd 33cd fbbc
00000120: 0ce6 93bd f8c0 08bd b960 4fbd 3493 543d
00000130: 6c0f e5bc e26d 59bd 1720 c03d de79 ba3b
00000140: bebc 403d bc3d cdbd 8638 72bd 87a2 823d
00000150: 0ae9 9bbd b8f6 38bd de9d 3d3c 2d5e cbbb
00000160: e692 843d 2880 82bd 607a af3d ed60 b5bd
00000170: de7f 0cbd 269b 25bd 69e3 9abd f4f4 d23d
00000180: 1610 ae3c c591 683d 3538 f3bb 9a4f dd3d
00000190: f4b4 18bc 9a01 2f3d 54c5 45bd 1bbd efbc
000001a0: 1525 d5bd 54d9 e03d f902 c53d 8339 123d
000001b0: f9e7 ad3d 5ef9 b03d 5d55 213d ea06 073d
000001c0: 9842 0cbd f632 8f3d 226f be3d 62aa 873d
000001d0: a0db 76bd 17e9 023d 58bf db3d 8406 e73c
000001e0: 7204 1a3e c225 a9bd 402b 813d c0cb b9bd
000001f0: d820 cb3d 3369 2c3d a8c8 b9bd dbaf cf3d
00000200: ca7a 5a3d 42c5 bdbd 4d83 71bb e758 b63d
00000210: ea90 6f3c cce6 aa3d 505b 5bbd 4bc3 de3d
00000220: 0a17 493d 67d6 f0bc 6b67 75bd cae8 8dbd
00000230: e3b9 6d3c fc9a 493b 2308 b4bd a933 7f3d
00000240: 8557 d9bd 64b8 c6bd e807 9abd 9496 dc3c
00000250: 775b 3c3a cecb 5c3d 6b86 75bc d22b a0bd
00000260: 89f9 043d c551 0abd fb04 9dbd 8a72 d33d
00000270: e1f9 7e3d af28 c5bd bc9d 963d 95e2 de3d
00000280: d132 7c3d 4fe1 7a3d e0ec bc3d 4fd6 c9bd
00000290: 5258 7bbd 51ee b0ba eda4 a53d 5c13 ed3d
000002a0: 2710 f33c 1d2b 2d3d 8a26 4b3d 5e14 c63d
000002b0: 0fba 133d 36a7 d4bd 50a9 13bd f81d 91bd
000002c0: 4aab 05bd bd72 30bd fd49 6fbd 8d19 7fbd
000002d0: 65b7 4bbd dffd 75bd d70d 9c3c 0c56 debd
000002e0: f158 a23d 6267 b4bc 8f01 3bbd 249f 0bbd
000002f0: 2fef 3b3d 1481 d43d 720c adbc e621 79bd
00000300: f8ba 393d db0f 623d c377 a83d d9aa 5e3c
00000310: a2b6 8e3d ba65 143e b1d6 fd3d 769d 6dbd
00000320: 649e fc3c 4fdb 1dba a722 8cbd a4b6 9c3d
00000330: b44c 693b 3327 e1bc f180 59bd dac0 a23c
00000340: 966d 833d c556 dcbd d403 b7bc c97f a5bd
00000350: 6a9a fc3b 8ca7 933d f283 c43d e7f8 1dbc
00000360: f73d afbd 88c0 093e 3d25 6c3c 17c4 bb3d
00000370: 38e6 bc3d 11e0 91bd 2eee 6b3c 5a8d 97bd
00000380: e226 9abd 1614 b6bd 3c61 a93d 6997 e43c
00000390: 0cee 9a3d 9b99 d13d d024 b13d cd6c cf3d
000003a0: 7dad 89bc 4139 adbc 915b 5dbd d60b 92bc
000003b0: 9a00 89bd 4587 96bd 9788 69bd f4dc 863d
000003c0: 38a9 dc3c 927e 06bd 878b 9f3c df41 2abd
000003d0: 78a0 333d 82b9 a73d 8e93 c73c 98d0 e53d
000003e0: 9bfd 693d d0d6 29bd 1bfa d6b9 1ef6 093e
000003f0: 5130 df3c 4789 093d 2aea ec3d 4cae 26bd

bias f4 [40]
0.05046574 0.007144864 -0.04270484 -0.046411455 0.041815575 0.042985883 -0.06566462 -0.056805808
-0.045480784 0.034783743 -0.0370043 0.08085718 0.06474697 0.02843487 0.10502116 -0.079991095
0.089241914 0.038860675 0.013879873 -0.024140092 -0.033338465 0.03196671 -0.0677068 0.13946255
0.012643695 -0.06657092 -0.024866061 -0.09927517 -0.016512198 0.003107269 -0.13165879 0.12406608
-0.13727532 -0.023268087 -0.0045955507 -0.074574664 0.10513465 -0.082450956 0.022666864 -0.079393245
00000000: 2ab5 4e3d 771f ea3b 45eb 2ebd f019 3ebd
00000010: cf46 2b3d f711 303d 2c7b 86bd 35ad 68bd
00000020: 0f4a 3abd 6679 0e3d d291 17bd 7398 a53d
00000030: 0f9a 843d 3ff0 e83c 5515 d73d 5fd2 a3bd
00000040: 77c4 b63d 5f2c 1f3d 6868 633c 71c1 c5bc
00000050: ea8d 08bd 86ef 023d dda9 8abd 45cf 0e3e
00000060: 8027 4f3c 5656 88bd e9b3 cbbc c850 cbbd
00000070: 9744 87bc 53a3 4b3b 90d1 06be 5b16 fe3d
00000080: e791 0cbe b79c bebc 4696 96bb 9aba 98bd
00000090: d650 d73d 0cdc a8bd dcaf b93c ed98 a2bd

weight f4 [40, 80]
-0.09523805 0.09127942 -0.25183442 0.054972164 -0.29491872 -0.17296045 -0.30335596 -0.17762043
-0.104622014 -0.13324243 0.08561177 -0.06872707 0.019891232 -0.32445467 -0.06304694 -0.04000696
-0.3039097 0.03625557 -0.037921075 0.028339174 -0.047141895 -0.06513568 0.05210899 0.065552935
0.06477651 0.03693576 -0.07311349 0.021366268 0.080035605 -0.04380767 0.08233366 0.008935214
-0.21479821 -0.27263492 -0.039924573 -0.10086209 -0.11437604 -0.22203784 0.097269185 0.053483944
-0.3365842 0.05773454 -0.14052047 -0.056580488 0.104542464 -0.105221644 -0.016493458 0.06240499
-0.0767356 0.07886161 -0.15904747 -0.08142096 0.053994928 -0.124089524 -0.024139468 -0.11924485
-0.18418291 -0.12097908 -0.15386914 0.010329936 0.09416344 -0.21861817 -0.14006908 0.048832286
-0.045074042 -0.10548987 -0.02701028 -0.20471363 -0.010793004 -0.018270517 0.07657483 -0.048171245
-0.051167432 -0.17718908 -0.12416576 -0.20663257 -0.10444507 -0.22542147 -0.173368 -0.21860327
-0.23553792 -0.07842689 -0.1728997 0.10284293 -0.0821953 -0.26092157 -0.22116965 -0.2542226
0.018592658 -0.059815675 -0.014742158 -0.17301078 0.07781872 -0.20133986 -0.16688478 0.054122142
-0.17294155 0.01245318 0.0146755045 0.078330606 0.06499513 -0.18476813 0.012527417 -0.05615998
-0.056093983 -0.05788472 -0.1960988 0.054676697 0.018339626 -0.15099682 0.075068824 0.09508372
-0.05200904 -0.13978627 0.06556432 -0.21922816 -0.22463517 -0.3105455 0.00085850555 0.10578267
-0.100622326 0.009084485 -0.0649526 -0.22910915 -0.022398602 0.077580415 0.104739994 -0.06999056
-0.16214062 -0.032429084 -0.110622786 -0.042678144 -0.092823304 -0.23504966 -0.09166027 -0.09369746
-0.07282556 -0.100741915 -0.22766797 0.08851775 -0.010107892 -0.16724025 -0.09457715 -0.09730764
0.10184134 0.0056266966 -0.1398619 -0.0843554 -0.04415121 -0.08542558 0.07243441 -0.01588245
0.01913075 -0.2038808 -0.152658 -0.02800681 -0.28829917 -0.0714242 -0.08336676 -0.2240548
-0.2018238 0.009006052 -0.19955017 0.057265352 -0.17881724 -0.23519272 -0.32788447 -0.21412338
-0.076187536 -0.20495592 0.009008078 -0.05073604 0.05690836 -0.27342623 -0.08117138 -0.08465465
-0.33243436 0.02433295 0.016669508 -0.013897696 -0.10161114 -0.18829142 0.09119058 0.08965692
-0.05215881 0.06709292 -0.083886266 0.07006735 0.09249813 -0.26490232 -0.04953179 -0.020185927
-0.13988866 -0.13151047 -0.084920585 -0.14268629 -0.27495527 -0.2868512 -0.097283415 -0.07342172
-0.17940734 0.07393523 -0.08787097 -0.23221005 0.11101771 0.01698574 -0.10029208 -0.07341798
-0.22565429 0.0531337 -0.10654291 0.10039709 0.027775466 -0.18443581 -0.016201267 -0.12037049
-0.08844348 -0.17328407 -0.1405866 -0.07402552 -0.063246466 -0.26558977 -0.124641806 -0.030186208
-0.0113389455 0.013784435 -0.078435406 -0.20856677 0.108296424 -0.21130255 -0.103093214 0.019709079
0.040655583 -0.03826755 -0.23502253 -0.16615449 -0.09651557 -0.083328016 -0.11496206 -0.21072996
-0.16214481 -0.0033774627 -0.12672365 -0.0032066111 -0.20400466 -0.25678715 -0.16926873 -0.12130106
-0.066739246 -0.078145385 -0.05414244 -0.0320553 -0.07532452 -0.28736863 -0.23095647 -0.04278432
00000000: 2b0c c3bd b4f0 ba3d 71f0 80be 7e2a 613d
00000010: 96ff 96be 8b1c 31be 7951 9bbe 21e2 35be
00000020: 1144 d6bd b470 08be 3955 af3d c7c0 8cbd
00000030: f0f2 a23c ec1e a6be c11e 81bd 57de 23bd
00000040: 0d9a 9bbe b880 143d 2153 1bbd 8e27 e83c
00000050: dc17 41bd db65 85bd 3c70 553d 9e40 863d
00000060: 8ca9 843d f449 173d 87bc 95bd 5008 af3c
00000070: b5e9 a33d ac6f 33bd 8d9e a83d 0165 123c
00000080: 10f4 5bbe ce96 8bbe f387 23bd c990 cebd
00000090: fc3d eabd e35d 63be 1135 c73d fb11 5b3d
000000a0: c454 acbe 0e7b 6c3d 99e4 0fbe f1c0 67bd
000000b0: 5c1a d63d 727e d7bd 4a1d 87bc 609c 7f3d
000000c0: 8e27 9dbd 3282 a13d 57dd 22be 08c0 a6bd
000000d0: c929 5d3d a622 febd 22c0 c5bc a536 f4bd
000000e0: 729a 3cbe e1c3 f7bd df8f 1dbe e43e 293c
000000f0: c3d8 c03d 71dd 5fbe 456e 0fbe 5d04 483d
00000100: 8f9f 38bd 130b d8bd aa44 ddbc 73a0 51be
00000110: 24d5 30bc 0dac 95bc 44d3 9c3d 364f 45bd
00000120: f194 51bd 0e71 35be 9e4a febd 7d97 53be
00000130: 4ce7 d5bd e3d4 66be 6287 31be 89d9 5fbe
00000140: da30 71be 479e a0bd 9e0c 31be 509f d23d
00000150: 0256 a8bd 8397 85be 4c7a 62be 7729 82be
00000160: a14f 983c 4801 75bd 1889 71bc bd29 31be
00000170: 6c5f 9f3d 092c 4ebe d8e3 2abe 2eaf 5d3d
00000180: 9717 31be 6c08 4c3c 8771 703c cc6b a03d
00000190: 2b1c 853d db33 3dbe cc3f 4d3c 0208 66bd
000001a0: cec2 65bd 8718 6dbd 20ce 48be acf4 5f3d
000001b0: fc3c 963c e99e 1abe afbd 993d 41bb c23d
000001c0: 6e07 55bd 2224 0fbe 9646 863d 597d 60be
000001d0: c306 66be d2ff 9ebe 550d 613a 96a4 d83d
000001e0: 1413 cebd 17d7 143c de05 85bd 979b 6abe
000001f0: 467d b7bc 7be2 9e3d ec81 d63d 3657 8fbd
00000200: 3108 26be 5cd4 04bd 338e e2bd 47cf 2ebd
00000210: 251a bebd dcb0 70be 61b8 bbbd 74e4 bfbd
00000220: 9125 95bd c751 cebd cb21 69be cb48 b53d
00000230: 929b 25bc 0741 2bbe aab1 c1bd 3a49 c7bd
00000240: 3192 d03d 2760 b83b f537 0fbe 86c2 acbd
00000250: e6d7 34bd 9bf3 aebd 7e58 943d e91b 82bc
00000260: 17b8 9c3c 21c6 50be 6152 1cbe 8a6e e5bc
00000270: f39b 93be da46 92bd 31bc aabd 9f6e 65be
00000280: e6aa 4ebe 1f8e 133c e156 4cbe 138f 6a3d
00000290: de1b 37be 5cd6 70be 79e0 a7be 2943 5bbe
000002a0: 3608 9cbd f7df 51be 9e96 133c 98d0 4fbd
000002b0: be18 693d 86fe 8bbe 2e3d a6bd 6b5f adbd
000002c0: d634 aabe e555 c73c 7e8e 883c 29b3 63bc
000002d0: 8019 d0bd 77cf 40be 20c2 ba3d 0c9e b73d
000002e0: 7aa4 55bd 0368 893d 90cc abbd 797f 8f3d
000002f0: a96f bd3d 47a1 87be d9e1 4abd f55c a5bc
00000300: f93e 0fbe aeaa 06be d8ea adbd 5b1c 12be
00000310: f0c6 8cbe 29de 92be 873c c7bd 205e 96bd
00000320: 8fb6 37be 5b6b 973d b2f5 b3bd 79c8 6dbe
00000330: 415d e33d ae25 8b3c ef65 cdbd 2a5c 96bd
00000340: eb11 67be b9a2 593d 2b33 dabd fd9c cd3d
00000350: 6089 e33c bedc 3cbe 85b8 84bc ce84 f6bd
00000360: db21 b5bd 6171 31be eff5 0fbe b19a 97bd
00000370: 5d87 81bd 62fb 87be 3444 ffbd 1149 f7bc
00000380: fcc6 39bc 1cd8 613c bea2 a0bd 8792 55be
00000390: 84ca dd3d b25f 58be 8922 d3bd ef74 a13c
000003a0: 7886 263d 6fbe 1cbd bfa9 70be 6724 2abe
000003b0: f5a9 c5bd e1a7 aabd 3a71 ebbd 98c9 57be
000003c0: 4a09 26be 6c58 5dbb d8c3 01be 0226 52bb
000003d0: 99e6 50be 9b79 83be c854 2dbe b16c f8bd
000003e0: 96ae 88bd b00a a0bd 77c4 5dbd 6b4c 03bd
000003f0: be43 9abd fb21 93be da7f 6cbe 9c3e 2fbd

bias f4 [40]
-0.0073283487 -0.003843307 -0.04055113 -0.07194334 -0.1501133 -0.124112055 -0.113447994 -0.14762114
-0.14763102 -0.0542973 -0.0325357 -0.027266914 -0.02815036 -0.044479366 -0.014299597 -0.16573478
-0.042646524 -0.14619993 -0.047334228 0.0048979106 -0.09765436 -0.15761866 -0.21103305 -0.19060683
-0.029578706 -0.086774565 -0.09586953 -0.0016772308 -0.2032646 -0.19365145 -0.19329791 -0.008209853
-0.07334064 0.0134849 -0.1305877 -0.06377227 -0.083692595 -0.12823421 -0.14466086 -0.13255705
00000000: a522 f0bb fedf 7bbb f118 26bd 0857 93bd
00000010: 4db7 19be 762e febd 6c57 e8bd ff29 17be
00000020: 962c 17be d866 5ebd 2744 05bd dd5e dfbc
00000030: 959b e6bc ff2f 36bd db48 6abc 61b6 29be
00000040: 1fae 2ebd 6fb5 15be 89e1 41bd a77e a03b
00000050: 02ff c7bd c966 21be 0c19 58be 702e 43be
00000060: 0b4f f2bc ddb6 b1bd 3f57 c4bd 87d6 dbba
00000070: 9824 50be 914c 46be e3ef 45be 9f82 06bc
00000080: 9e33 96bd c5ef 5c3c c8b8 05be 099b 82bd
00000090: 0667 abbd d44f 03be fa21 14be 09bd 07be

weight f4 [80, 40]
0.023096297 0.10894466 -0.118608944 0.0557199 -0.10248213 0.09836679 -0.09451877 0.10259093
-0.039434724 -0.024345983 -0.03160101 -0.110046804 -0.075068645 0.0036587876 -0.021734634 0.08136802
0.12791625 0.0074632126 0.104544476 -0.033960924 -0.14924136 0.12810293 -0.08030401 0.023375364
0.08560573 -0.0008346606 -0.109320916 0.077493906 0.052216284 -0.058008015 -0.027221913 0.0479036
-0.014099782 0.08998439 0.15720527 0.037493136 -0.07995898 0.0023971624 -0.14602956 0.07551576
0.057972457 -0.11042532 -0.034436624 -0.11683676 -0.067773685 -0.006222177 0.0913619 0.12839073
-0.043654114 -0.069433995 0.07281313 0.015373398 0.030326318 -0.13218157 -0.086022444 -0.094815746
-0.107902065 -0.12058663 0.0523648 0.025495224 -0.114379816 0.12642431 0.090152115 -0.1141533
0.08718368 0.042749558 0.0007367752 0.1503187 0.009726479 -0.009463654 -0.05312004 -0.03682774
0.013777108 -0.013936104 0.0033861992 -0.12896425 0.07652989 -0.021314505 -0.061716203 -0.07770565
0.06349759 0.087589614 -0.032234628 0.110137515 -0.10693567 0.094778545 0.15104723 0.07018073
0.0035744514 -0.068671085 -0.13063398 0.1499228 0.016045926 0.07442908 -0.06864537 -0.12604612
0.08262072 -0.033158917 -0.059969626 0.04792038 0.061463673 -0.043538716 -0.06862193 -0.11123067
-0.10002373 0.10443475 0.026235433 -0.111918315 -0.09553146 -0.11942229 -0.033787113 -0.017824542
0.068510555 0.0015010036 0.11309146 0.07123909 -0.14880297 -0.09991716 0.09311165 -0.09123082
-0.06029744 -0.055695355 -0.11766451 -0.041253638 0.03532163 -0.004480865 0.03601293 -0.054018922
0.013596673 -0.11392898 -0.0905448 0.06034526 -0.10518326 0.08097578 0.09852256 -0.09536306
0.12728898 -0.12031935 -0.116966225 0.032741353 0.06453282 0.07422672 0.012815732 0.12804878
-0.057859793 -0.10346027 -0.14463252 -0.016218886 -0.05501953 0.018939234 -0.08625609 0.15171815
-0.039629996 -0.0031069936 -0.07573574 0.09977561 -0.05058476 -0.06761748 -0.12112859 -0.15718777
-0.06110827 -0.009851466 -0.035237927 -0.09871367 0.011951658 0.14937185 0.10947806 -0.06741163
0.07638307 0.054310508 0.0052345246 -0.00040208836 0.08389843 0.034093138 0.011532962 0.0685863
-0.13267581 -0.0255758 -0.0628163 -0.041801866 0.061903644 0.1250929 0.07585181 0.07042252
-0.08661851 -0.07950628 0.05040865 0.12044363 0.10974845 -0.016465966 0.012090995 0.05840728
0.013795745 0.08781597 0.097111754 0.038877778 -0.054017935 -0.011504461 0.18081266 0.11770766
-0.11119928 -0.041866265 0.04369693 -0.030337669 -0.13275184 0.091543294 0.09290777 0.030427197
0.11822189 -0.08403158 0.10253994 -0.08513317 -0.03263646 -0.11244518 -0.096647896 0.018594489
-0.042120956 0.04181534 0.050042056 -0.011193878 0.041913625 -0.044371363 -0.12639602 -0.15849935
0.114290856 -0.039206564 0.08691637 0.13995858 0.024198497 -0.04814707 0.12377322 -0.017684827
0.08751252 0.098726764 0.06071757 0.040488224 0.0329039 0.032812636 0.05700873 0.08928983
-0.03052045 0.046494447 0.055064198 -0.14918537 0.03972315 0.028309388 0.030423475 0.06030465
-0.010588712 -0.00026108988 -0.092009574 0.035707958 -0.14619233 -0.10748155 0.014850972 0.03523966
00000000: 7234 bd3c 611e df3d 3fe9 f2bd 8d3a 643d
00000010: 27e2 d1bd 8774 c93d 0f93 c1bd 321b d23d
00000020: 4e86 21bd 3a71 c7bc 1070 01bd 3860 e1bd
00000030: 97bd 99bd 45c8 6f3b d50c b2bc 47a4 a63d
00000040: 7afc 023e f78d f43b 6a1b d63d 9c1a 0bbd
00000050: bad2 18be 6a2d 033e 6e76 a4bd b17d bf3c
00000060: 0f52 af3d 20cd 5aba a5e3 dfbd 20b5 9e3d
00000070: bee0 553d d099 6dbd 7d00 dfbc 9136 443d
00000080: c602 67bc bc49 b83d 6bfa 203e 6792 193d
00000090: 89c1 a3bd b619 1d3b c688 15be 02a8 9a3d
000000a0: 8774 6d3d ac26 e2bd 6b0d 0dbd 1c48 efbd
000000b0: eecc 8abd 67e3 cbbb f31b bb3d dc78 033e
000000c0: a8ce 32bd 6933 8ebd 0d1f 953d b4e0 7b3c
000000d0: e66e f83c 9b5a 07be 892c b0bd c22e c2bd
000000e0: c2fb dcbd 20f6 f6bd 797c 563d 5cdb d03c
000000f0: f73f eabd 6075 013e aca1 b83d 35c9 e9bd
00000100: 5b8d b23d 291a 2f3d 2624 413a 25ed 193e
00000110: cf5b 1f3c 710d 1bbc 6694 59bd afd8 16bd
00000120: 61b9 613c 4254 64bc ffea 5d3b 340f 04be
00000130: b4bb 9c3d c29b aebc 21ca 7cbd 2424 9fbd
00000140: 060b 823d 2f62 b33d 7508 04bd c78f e13d
00000150: 1701 dbbd 411b c23d 20ac 1a3e eaba 8f3d
00000160: 5841 6a3b 6da3 8cbd eac4 05be 5d85 193e
00000170: bf72 833c 466e 983d f295 8cbd 3c12 01be
00000180: 0d35 a93d a5d1 07bd b6a2 75bd 2948 443d
00000190: 55c1 7b3d a755 32bd a889 8cbd e8cc e3bd
000001a0: 3ed9 ccbd e3e1 d53d b1eb d63c 6e35 e5bd
000001b0: 00a6 c3bd ac93 f4bd 5b64 0abd c604 92bc
000001c0: 434f 8c3d 53bd c43a 7f9c e73d cde5 913d
000001d0: ce5f 18be 5ea1 ccbd 52b1 be3d 39d7 babd
000001e0: 73fa 76bd d020 64bd 17fa f0bd 93f9 28bd
000001f0: 6aad 103d 38d4 92bb 4b82 133d f242 5dbd
00000200: 94c4 5e3c 9953 e9bd 8d6f b9bd 972c 773d
00000210: 526a d7bd a1d6 a53d 32c6 c93d b54d c3bd
00000220: 0b58 023e fe69 f6bd fd8b efbd cc1b 063d
00000230: c829 843d 2e04 983d 13f9 513c 381f 033e
00000240: 64fe 6cbd fae2 d3bd 8c1a 14be 78dd 84bc
00000250: 295c 61bd 7426 9b3c 08a7 b0bd 015c 1b3e
00000260: 1053 22bd b49e 4bbb 571b 9bbd 2857 cc3d
00000270: f731 4fbd 097b 8abd 4412 f8bd d5f5 20be
00000280: aa4c 7abd 0b68 21bc a555 10bd 652a cabd
00000290: e3d0 433c eff4 183e 0836 e03d 1c0f 8abd
000002a0: ba6e 9c3d b274 5e3d 6086 ab3b 63cf d2b9
000002b0: f1d2 ab3d 3fa5 0b3d c0f4 3c3c f976 8c3d
000002c0: 2bdc 07be 5784 d1bc d5a5 80bd 6f38 2bbd
000002d0: ad8e 7d3d 5a18 003e 3258 9b3d af39 903d
000002e0: 0c65 b1bd 30d4 a2bd 4d79 4e3d 26ab f63d
000002f0: ccc3 e03d a2e3 86bc 4f19 463c 793c 6f3d
00000300: 8c07 623c dcd8 b33d 87e2 c63d 4e3e 1f3d
00000310: e941 5dbd 357d 3cbc f426 393e b710 f13d
00000320: 73bc e3bd f67b 2bbd 8dfb 323d b486 f8bc
00000330: 19f0 07be 0d7b bb3d 6e46 be3d 7542 f93c
00000340: 511e f23d c018 acbd 7600 d23d 4d5a aebd
00000350: cfad 05bd a949 e6bd 55ef c5bd 7853 983c
00000360: 0687 2cbd 9046 2b3d e6f8 4c3d 8766 37bc
00000370: 9fad 2b3d bfbe 35bd f56d 01be a74d 22be
00000380: 5311 ea3d 1097 20bd 3601 b23d 4d51 0f3e
00000390: ed3b c63c dd35 45bd d07c fd3d c5df 90bc
000003a0: c439 b33d 4231 ca3d fdb2 783d fbd6 253d
000003b0: 3dc6 063d 8b66 063d fc81 693d 96dd b63d
000003c0: 0606 fabc f670 3e3d ff8a 613d 0dc4 18be
000003d0: beb4 223d 17e9 e73c a73a f93c 0202 773d
000003e0: 477c 2dbc e4e2 88b9 846f bcbd 8242 123d
000003f0: 71b3 15be 491f dcbd 7e51 733c 7657 103d

bias f4 [80]
-0.013931297 0.0681411 -0.15804216 -0.08134343 0.017337216 -0.11787234 -0.06628018 0.10550961
-0.13845478 -0.0027259944 0.12714633 0.14985473 0.09041043 -0.07940541 -0.075573124 -0.0047855848
-0.08064336 0.10792576 -0.12796576 0.08392108 -0.013912708 -0.012760288 0.12704493 -0.08432869
0.018213999 -0.09469341 0.09776954 -0.097139925 -0.056784447 0.11414301 0.014267516 0.1206339
-0.038599595 0.077320956 -0.10498969 -0.13104993 0.13403139 0.008764055 -0.05737433 0.073544845
0.12756275 -0.13439327 0.049444042 0.10171692 -0.14351109 0.16176024 -0.065180816 -0.19033556
-0.18230407 -0.12173662 0.10685637 -0.15244547 0.16308916 0.028478075 -0.01621619 -0.0006515609
-0.14220802 -0.09524741 -0.026625536 -0.18122707 -0.041463427 0.09453385 0.07984711 -0.050612114
-0.09259546 -0.01809242 0.007802395 -0.10901238 0.06670563 0.021571837 -0.11022812 -0.046769217
-0.13025795 0.02290391 0.10092776 0.11648596 0.04462612 -0.16113606 0.068963915 -0.18779656
00000000: 1840 64bc 908d 8b3d ced5 21be 6297 a6bd
00000010: c706 8e3c 0e67 f1bd e7bd 87bd 6c15 d83d
00000020: 17c7 0dbe 99a6 32bb a632 023e 8573 193e
00000030: 1b29 b93d 4e9f a2bd 15c6 9abd 65d0 9cbb
00000040: 5928 a5bd 2e08 dd3d 7509 03be d1de ab3d
00000050: 20f2 63bc 8710 51bc 1118 023e 85b4 acbd
00000060: 8635 953c 9eee c1bd 663b c83d 4cf1 c6bd
00000070: cf96 68bd cfc3 e93d 4dc2 693c e80e f73d
00000080: 9c1a 1ebd 735a 9e3d d604 d7bd f431 06be
00000090: 863f 093e 1c97 0f3c 5801 6bbd ae9e 963d
000000a0: cf9f 023e 649e 09be d685 4a3d f650 d03d
000000b0: 92f4 12be 7aa4 253e 857d 85bd 53e7 42be
000000c0: ebad 3abe 0d51 f9bd 83d7 da3d aa1a 1cbe
000000d0: d800 273e da4a e93c d1d7 84bc 83cd 2aba
000000e0: fb9e 11be 1311 c3bd cc1d dabc 9793 39be
000000f0: 8ed5 29bd f79a c13d e286 a33d a64e 4fbd
00000100: b0a2 bdbd 8e36 94bc 3cab ff3b e241 dfbd
00000110: f69c 883d 6cb7 b03c 48bf e1bd 1491 3fbd
00000120: 5762 05be fba0 bb3c 37b3 ce3d 3190 ee3d
00000130: e1c9 363d da00 25be f43c 8d3d be4d 40be

weight f4 [5, 80]
-0.033532422 0.025513498 0.020252408 -0.04539934 0.041595392 -0.043978345 0.048771158 0.06326162
-0.097295985 0.021486955 -0.012593746 -0.023878023 0.036107358 0.028737595 -0.0088160625 -0.010549333
0.020005232 0.005540833 -0.024144445 -0.0024623189 0.028291434 0.01868112 -0.04033798 -0.047251403
0.051750902 -0.031041656 -0.01383592 -0.029153906 -0.059785478 0.011477776 0.004298062 -0.0022960887
-0.05763161 -0.0051425546 0.020795567 -0.003150659 0.025487933 0.057449292 0.037210528 -0.0074605825
0.03221724 -0.018290395 0.04551204 0.03343566 -0.026327625 0.012438843 0.014106633 0.033021122
0.029871374 0.018316474 0.010674268 -0.05422818 -0.009830195 -0.00965998 0.07572029 -0.033002038
-0.013796488 -0.059094638 0.026390938 -0.043096565 -0.03719482 -0.02674294 -0.050505053 -0.021408044
0.0038325922 -0.02698912 -0.032637827 0.01826127 0.074354425 -0.04650932 -0.06665773 -0.04752452
0.018765317 0.006250794 0.033512983 -0.05212954 0.032572895 -0.008181751 -0.05803532 -0.025816595
0.0038229472 -0.042082343 -0.005136421 -0.013238228 -0.020290807 0.06271396 0.028019635 0.03780272
0.026566537 0.06965896 -0.0058128447 0.044995643 -0.018088905 -0.023508107 -0.012291756 -0.004194516
-0.008121658 -0.017815052 -0.028183652 -0.042248353 -0.019348057 0.014507805 -0.031803515 0.030415596
0.020592745 0.015893698 0.07982167 -0.022557793 0.027017241 0.0003647138 -0.04600667 -0.008180551
-0.0029246756 0.013708079 -0.020367576 0.009448928 -0.058078457 0.04431356 0.021831058 0.035742316
0.029887408 -0.012543032 -0.04002268 0.036112364 0.027809482 -0.023064313 -0.017278252 -0.039950255
-0.030586123 -0.03412584 0.0042815516 0.030520903 -0.015939957 0.015286092 -0.002917618 -0.010856494
0.041194383 -0.0385918 -0.065496616 0.016397158 -0.026963945 -0.040297538 0.021555658 -0.02379595
0.037299555 0.016429665 -0.012827729 0.061726265 -0.011371133 0.007451409 0.046889614 -0.051378988
-0.028223453 0.028967734 -0.020493355 0.03295015 0.043680374 -0.05505106 0.026095638 0.05171853
0.030947508 -0.029389028 0.051558364 0.03251629 0.051658295 -0.021931415 0.028654229 0.0032616593
-0.03998679 -0.0020503458 -0.047079273 -0.04444177 -0.018158564 -0.045717757 -0.04319364 -0.0024298488
0.008432067 -0.0661543 -0.033481143 0.005407002 0.014860768 -0.026142968 -0.056198757 0.031200944
0.027510231 0.01188511 0.053755935 0.050273154 -0.0038311367 0.0152306305 -0.0073961625 -0.036786117
-0.0054486278 -0.03223184 -0.033600774 -0.023450587 0.04491398 0.0088741 0.0086126365 -0.005601585
-0.049133368 -0.025484601 0.07206965 -0.03469435 0.018158384 0.040455516 -0.020494916 0.02508211
0.012363326 0.011545911 -0.040602963 -0.0027737215 0.057900388 0.028653579 -0.06623806 0.0027792796
-0.017824817 0.021460779 0.018511249 0.025568202 0.061506055 -0.061994035 0.061540347 -0.009946668
-0.025100112 -0.047149956 0.020724172 -0.041521974 0.052328266 -0.03106446 0.070630305 0.026225056
-0.036072303 0.033505924 0.039219603 -0.043796685 -0.029582791 0.020258049 0.028591981 -0.058813132
-0.03417829 0.03352032 -0.05547959 -0.0373778 -0.009608004 0.0044487175 0.0105291 -0.01994057
-0.042238396 -0.05497143 -0.0038919614 -0.025795579 0.041035026 0.0060065836 0.036750875 0.0019775373
00000000: 4b59 09bd af01 d13c 61e8 a53c a9f4 39bd
00000010: ee5f 2a3d a322 34bd 44c4 473d 4f8f 813d
00000020: 1e43 c7bd 6905 b03c 0056 4ebc d89b c3bc
00000030: 4fe5 133d 1b6b eb3c 3f71 10bc 1cd7 2cbc
00000040: 03e2 a33c e08f b53b 92ca c5bc db5e 21bb
00000050: 70c3 e73c 2609 993c 7039 25bd b08a 41bd
00000060: c1f8 533d 124b febc 0eb0 62bc 2cd4 eebc
00000070: 9ee1 74bd 480d 3c3c c2d6 8c3b fa79 16bb
00000080: 200f 6cbd e082 a8bb 775b aa3c 497b 4ebb
00000090: 12cc d03c f34f 6b3d 116a 183d e777 f4bb
000000a0: 3af6 033d bdd5 95bc d56a 3a3d d5f3 083d
000000b0: 08ad d7bc 4acc 4b3c 821f 673c 2841 073d
000000c0: d0b4 f43c 6e0c 963c 20e3 2e3c 5e1e 5ebd
000000d0: d40e 21bc e544 1ebc 3d13 9b3d 252d 07bd
000000e0: aa0a 62bc 380d 72bd cf31 d83c 0686 30bd
000000f0: 9859 18bd 0314 dbbc 63de 4ebd ec5f afbc
00000100: 3a2c 7b3b 4918 ddbc 3eaf 05bd a998 953c
00000110: 2247 983d 8f80 3ebd d983 88bd 12a9 42bd
00000120: b9b9 993c 76d3 cc3b e944 093d c985 55bd
00000130: 286b 053d c00c 06bc 72b6 6dbd 537d d3bc
00000140: 698a 7a3b 895e 2cbd 6c4f a8bb 27e5 58bc
00000150: e838 a6bc 2d70 803d 6f89 e53c 06d7 1a3d
00000160: 11a2 d93c 5ba9 8e3d ad79 bebb 5a4d 383d
00000170: 2f2f 94bc 1394 c0bc 5d63 49bc 2772 89bb
00000180: b410 05bc dff0 91bc 67e1 e6bc 9c0c 2dbd
00000190: d17f 9ebc 25b2 6d3c 6744 02bd 212a f93c
000001a0: 1eb2 a83c 8033 823c 8b79 a33d 1fcb b8bc
000001b0: 4353 dd3c 0f37 bf39 7d71 3cbd b807 06bc
000001c0: eaab 3fbb da97 603c e7d9 a6bc adcf 1a3c
000001d0: ade3 6dbd 2382 353d 0cd7 b23c 8966 123d
000001e0: 70d6 f43c 4a81 4dbc d2ee 23bd 8fea 133d
000001f0: b6d0 e33c 5ff1 bcbc 1f8b 8dbc e1a2 23bd
00000200: c08f fabc 89c7 0bbd 424c 8c3b f906 fa3c
00000210: 8394 82bc 8472 7a3c 8235 3fbb 70df 31bc
00000220: 71bb 283d 6f12 1ebd 1723 86bd 5553 863c
00000230: 7ee3 dcbc 080f 25bd 7e95 b03c b9ef c2bc
00000240: 6bc7 183d 8197 863c 652b 52bc aed4 7c3d
00000250: fd4d 3abc f32a f43b 530f 403d c672 52bd
00000260: df34 e7bc be4d ed3c aee1 a7bc bdf6 063d
00000270: 31ea 323d 387d 61bd 85c6 d53c cfd6 533d
00000280: a185 fd3c 42c1 f0bc dd2e 533d cd2f 053d
00000290: a697 533d 83a9 b3bc 46bc ea3c 90c1 553b
000002a0: 30c9 23bd 185f 06bb 32d6 40bd 9308 36bd
000002b0: 45c1 94bc 8b42 3bbd d0eb 30bd 193e 1fbb
000002c0: a726 0a3c e87b 87bd 8623 09bd 382d b13b
000002d0: 947a 733c c729 d6bc ab30 66bd 1f99 ff3c
000002e0: 235d e13c c4b9 423c 2f2f 5c3d 39eb 4d3d
000002f0: cf13 7bbb e589 793c 825b f2bb 0aad 16bd
00000300: 678a b2bb 8905 04bd f7a0 09bd 721b c0bc
00000310: b9f7 373d ac64 113c 041c 0d3c 808d b7bb
00000320: 1240 49bd 15c5 d0bc 4199 933d aa1b 0ebd
00000330: e4c0 943c afb4 253d f4e4 a7bc ff78 cd3c
00000340: 8c8f 4a3c 102b 3d3c 4b4f 26bd 53c7 35bb
00000350: f528 6d3d e9ba ea3c d2a7 87bd 9324 363b
00000360: 5a05 92bc 84ce af3c e7a4 973c 6874 d13c
00000370: c6ed 7b3d 75ed 7dbd bb11 7c3d 59f7 22bc
00000380: c09e cdbc 5020 41bd bdc5 a93c f212 2abd
00000390: 2a56 563d e57a febc 9fa6 903d eed5 d63c
000003a0: 8dc0 13bd 823d 093d bca4 203d 2764 33bd
000003b0: 9c57 f2bc 35f4 a53c bb39 ea3c 0ae6 70bd
000003c0: 89fe 0bbd 9a4c 093d 913e 63bd 7719 19bd
000003d0: e46a 1dbc 8cc6 913b 3f82 2c3c 685a a3bc
000003e0: 2b02 2dbd b929 61bd 4710 7fbb 4051 d3bc
000003f0: 5814 283d e0d2 c43b 1688 163d 9299 013b

bias f4 [5]
-0.008187032 -0.01791199 0.00073384575 0.0055666068 -0.056775525
00000000: e722 06bc 2abc 92bc 8e5f 403a 1568 b63b
00000010: 748d 68bd
