final_project/mlruns/1/62a1202877a74ababffaaab96dda9ca6/artifacts/cvae_55/data/model.pth (torch, 48071 bytes, 10 tensors)

weight f4 [80, 10]
0	0xbbbfee85	-0.005857291
1	0x3e131bb4	0.14366037
2	0x3e3d92a0	0.18512964
3	0xbe2c4aea	-0.16825452
4	0xbe88b4e8	-0.2670052
5	0xbe130aec	-0.14359635
6	0xbe6ede30	-0.23326945
7	0x3e03ecc2	0.12883285
8	0xbe7fc23f	-0.24976443
9	0x3d9c3676	0.07627575
10	0xbdd768a4	-0.105180055
11	0x3e8b55ff	0.27214047
12	0x3e426940	0.18985462
13	0xbe93e442	-0.28885084
14	0x3ead3141	0.3382664
15	0x3e845b2c	0.2585081
16	0x3e61d0a4	0.22052246
17	0x3e9f72e3	0.3114234
18	0x3e30bc21	0.17259265
19	0x3e06b87c	0.13156313
20	0x3dd3793a	0.103258565
21	0x3df599c5	0.1199222
22	0x3d9126eb	0.07087501
23	0x3d0c02fe	0.03418254
24	0x3e2a83c4	0.16651827
25	0x3be426f4	0.0069626514
26	0xbe9f8fa2	-0.3116427
27	0x3e60902f	0.21930002
28	0xbe513bd3	-0.20432977
29	0xbe86dcdc	-0.26340377
30	0x3dd5d9ba	0.10441919
31	0x3e41eda2	0.18938306
32	0xbd744707	-0.05963805
33	0xbe801b71	-0.25020936
34	0x3dd3f785	0.10349945
35	0x3e025b2c	0.12730092
36	0x3e45ed2a	0.19328752
37	0x3c7fd38f	0.015614404
38	0xbe92f9d4	-0.2870623
39	0xbe6d2d37	-0.2316178
40	0x3e9cb3a9	0.3060582
41	0xbe9ffd6f	-0.31248042
42	0xbe5c1997	-0.21494137
43	0xbcda0397	-0.02661304
44	0xbdccebd0	-0.10005915
45	0xbdd8b589	-0.105815
46	0xbd840065	-0.06445388
47	0x3c1a96a4	0.00943533
48	0x3e66c291	0.22535159
49	0xbda86ec3	-0.08224251
50	0x3c060406	0.00817967
51	0xbdb2da16	-0.08733003
52	0xbdfd5ff8	-0.1237182
53	0xbe160677	-0.14650904
54	0x3d3ed435	0.046589095
55	0xbd889a58	-0.06670064
56	0xbe120122	-0.14258245
57	0x3e093c8f	0.13402008
58	0x3dd0bb8e	0.10192023
59	0xbe7508f5	-0.23929198
60	0x3e45aa74	0.19303304
61	0xbd6ab839	-0.057304595
62	0xbd0d16c2	-0.03444553
63	0xbe21c1b0	-0.15796542
64	0x3db44ff8	0.08804315
65	0x3e5eb98a	0.21750465
66	0xbd99e497	-0.07514303
67	0x3dca561a	0.09879704
68	0xbc66978a	-0.014074216
69	0x3d0defe3	0.034652602
70	0x3e7fafe7	0.24969445
71	0x3e3fd59d	0.18733831
72	0x3e35abe0	0.17741346
73	0xbe9d5180	-0.30726242
74	0xbe4bb567	-0.19893418
75	0x3e395541	0.18098928
76	0xbd9074b8	-0.07053512
77	0xbe8d138f	-0.27553985
78	0x3e96f00b	0.29480013
79	0x3e02d1bb	0.12775318
80	0x3c9865f8	0.01860331
81	0x3c548424	0.012970958
82	0xbea00ecf	-0.31261298
83	0xbe81f8e6	-0.25385207
84	0xbe4e538b	-0.20149057
85	0x3e62da9e	0.22153708
86	0xbe1635f3	-0.14669017
87	0x3d48bcac	0.049008057
88	0xbe36a690	-0.17836976
89	0xbe2c2efd	-0.168148
90	0xbc8123f4	-0.015764214
91	0x3cb3eaf8	0.021962628
92	0xbe3965b0	-0.18105197
93	0x3dab3725	0.08360127
94	0xbe5fc27a	-0.2185153
95	0x3e00ea10	0.12589288
96	0x3ddaff40	0.10693216
97	0xbe926325	-0.28591266
98	0xbcde2e4f	-0.027121691
99	0x3e41aa7f	0.18912695
100	0xbe512316	-0.2042354
101	0xbc97195f	-0.018444715
102	0xbd8d4099	-0.06897087
103	0xbe5ff634	-0.21871263
104	0x3e5219d0	0.20517659
105	0x3e91bc71	0.28464082
106	0xbe3bd470	-0.18342757
107	0x3e02ebe3	0.12785296
108	0x3ded8308	0.11597258
109	0x3ce1dfd9	0.02757256
110	0xbe3201c9	-0.17383493
111	0xbd392474	-0.04520078
112	0xbd82bbca	-0.06383474
113	0x3d0d6984	0.034524456
114	0xbea174e8	-0.31534505
115	0x3e0ea82b	0.13931338
116	0x3c7ea5e1	0.015542478
117	0x3e11f8b2	0.14255026
118	0xbe8c8584	-0.27445614
119	0xbe4e23ad	-0.20130797
120	0x3dbd931f	0.09256577
121	0xbe86f578	-0.26359153
122	0xbe826e2b	-0.25474676
123	0x3e87c325	0.2651607
124	0xbe73f498	-0.23823774
125	0xbe2926cf	-0.1651871
126	0xbdafb52b	-0.08579477
127	0xbc2b8fc4	-0.010471288
128	0xbde7688c	-0.112992376
129	0x3dc0fc85	0.09423164
130	0xbe2dc16a	-0.16968313
131	0x3e37fd14	0.17967635
132	0x3e394330	0.18092036
133	0x3cbc52d8	0.022988722
134	0x3e5bfdc8	0.21483529
135	0xbcb85dcf	-0.022505669
136	0x3e67b665	0.22628172
137	0x3e31e796	0.173735
138	0x3e2107a9	0.15725578
139	0xbe867531	-0.26261285
140	0xbe5696fc	-0.20956033
141	0x3e302c08	0.17204297
142	0x3c397b14	0.011320848
143	0xbe028df9	-0.12749471
144	0x3e1f1fd7	0.1553949
145	0xbe9c59b2	-0.30537182
146	0xbe273a06	-0.16330728
147	0xbe76d9c3	-0.24106507
148	0x3dfa27bb	0.12214609
149	0xbe74fad8	-0.23923814
150	0xbd7dde57	-0.061979618
151	0x3e2eff5b	0.17089598
152	0xbd742a04	-0.05961038
153	0xbe4b0686	-0.19826707
154	0xbdad08ee	-0.08448969
155	0x3e3b1318	0.18269002
156	0x3e813759	0.2523754
157	0xbd8987c6	-0.0671535
158	0x3e930bb3	0.28719863
159	0xbd301f34	-0.042998508
160	0xbcfe49c4	-0.031041034
161	0x3dc09414	0.09403244
162	0x3e15a9b8	0.14615524
163	0xbe060f1d	-0.13091703
164	0x3ea5582d	0.32293835
165	0xbe54cb97	-0.20780788
166	0x3ce26ac8	0.027638808
167	0xbdd92009	-0.10601813
168	0x3d4ed0ce	0.0504921
169	0xbdf52119	-0.119692035
170	0x3e1d41a5	0.15357073
171	0x3ea3023b	0.3183764
172	0xbe7c7dcd	-0.24657364
173	0x3e72325b	0.23652022
174	0xbe974005	-0.2954103
175	0x3e299410	0.16560388
176	0x3e5b8fba	0.21441546
177	0x3e89f7a3	0.26946744
178	0x3e4fc5d1	0.20290305
179	0x3db6f146	0.08932738
180	0xbea8761f	-0.3290262
181	0x3e8c78e5	0.27435985
182	0xbe2e6bda	-0.1703333
183	0xbe44ff4d	-0.19238015
184	0x3e2f6e50	0.17131925
185	0xbdc72f26	-0.0972579
186	0xbe387c2f	-0.18016122
187	0xbe7f96d8	-0.24959886
188	0x3e3e6b3d	0.18595596
189	0xbe6311bb	-0.22174732
190	0xbd1ee437	-0.03879186
191	0xbcf41897	-0.029796882
192	0xbe540724	-0.20705849
193	0xbe0d0594	-0.13771659
194	0x3e91ddc0	0.28489494
195	0xbdc767c2	-0.09736587
196	0x3e97eaf4	0.29671443
197	0x3ca95806	0.020671856
198	0xbe82d837	-0.25555584
199	0xbe73d17a	-0.23810378
200	0x3dcf79c2	0.10130645
201	0xbde85c71	-0.11345757
202	0xbe6d1cfe	-0.23155591
203	0x3e826add	0.25472155
204	0x3d44d6d4	0.04805644
205	0xbe94d9af	-0.2907233
206	0x3e024e4e	0.12725183
207	0x3e489a49	0.19590105
208	0x3e322e41	0.17400457
209	0x3deda5ef	0.11603915
210	0x3db16916	0.08662622
211	0x3d1ab77d	0.037772644
212	0xbe94e5f5	-0.29081693
213	0xbe890b3a	-0.26766378
214	0xbe9f2660	-0.31083965
215	0xbd299869	-0.041405115
216	0xbd06b7ae	-0.032890014
217	0x3d597c0c	0.053096816
218	0xbe908c25	-0.28231922
219	0xbe1ca026	-0.15295467
220	0x3e88c5f8	0.26713538
221	0xbd499b5b	-0.049220424
222	0x3e97fe5c	0.29686248
223	0x3eaaad20	0.3333521
224	0xbc382b91	-0.011240856
225	0x3e2ae280	0.16687965
226	0xbd9cf737	-0.0766434
227	0x3e337828	0.17526305
228	0x3e964770	0.29351377
229	0xbe950f93	-0.29113445
230	0xbe9e33d3	-0.30898914
231	0xbe5854a7	-0.21126042
232	0x3e7edeb1	0.24889638
233	0x3e9612dd	0.29311267
234	0xbd790d7c	-0.060803875
235	0xbddb52da	-0.10709162
236	0xbe96d688	-0.2946055
237	0x3e118bb2	0.14213446
238	0x3e8e9b8e	0.27853054
239	0xbe2bcc67	-0.16777192
240	0x3ddd8e07	0.10818105
241	0x3e591ded	0.21202822
242	0xbe85de02	-0.2614594
243	0x3e3b368b	0.18282525
244	0xbe713548	-0.23555481
245	0x3e5fff05	0.21874626
246	0x3e98a1b3	0.29810867
247	0xbe0afbaf	-0.13572572
248	0xbe60d481	-0.21956064
249	0x3e770815	0.24124177
250	0xbeab3ae3	-0.33443365
251	0x3e7e8fdd	0.24859567
252	0x3de4d732	0.11173858
253	0xbe7c87b0	-0.24661136
254	0xbe007161	-0.1254325
255	0x3e921663	0.28532705

bias f4 [80]
0	0xbe88d9f8	-0.26728797
1	0x3e981354	0.29702246
2	0xbde451f5	-0.111484446
3	0xbe34fae0	-0.17673826
4	0xbe610d7d	-0.21977802
5	0xbd8f699c	-0.07002565
6	0x3e855c51	0.26046994
7	0x3d7648f7	0.06012818
8	0xbdea72b5	-0.1144766
9	0xbe9419dc	-0.2892598
10	0x3d1664f0	0.036717355
11	0xbd83c793	-0.0643455
12	0xbd32f3d6	-0.04368957
13	0x3efa1afe	0.48848718
14	0x3ef272a3	0.47353086
15	0xbe0e05c1	-0.13869382
16	0x3ed7814f	0.42090842
17	0xbd5ce180	-0.05392599
18	0x3ee25965	0.44208828
19	0x3e72ae5e	0.23699328
20	0xbcafbbf4	-0.021451928
21	0xbe6ef4cf	-0.23335575
22	0x3e7a7026	0.24456844
23	0xbe28fc55	-0.16502507
24	0x3e8605b5	0.2617623
25	0x3ed413c2	0.41421324
26	0xbe9124c6	-0.28348368
27	0xbd2bac38	-0.041912287
28	0x3ed5570c	0.41667974
29	0x3ef201f7	0.47267124
30	0x3e94f8b0	0.29095984
31	0x3e99e273	0.3005558
32	0x3e0b9540	0.13631153
33	0xbe89bc24	-0.26901352
34	0x3e95f12d	0.29285565
35	0xbe9c2a41	-0.30500987
36	0x3ed8e66b	0.42363295
37	0x3ee2a207	0.44264242
38	0x3e5468ea	0.20743147
39	0x3eb5897e	0.3545646
40	0xbe235cdd	-0.15953393
41	0x3e6f878a	0.23391548
42	0xbe3a9cfc	-0.18223947
43	0x3e8e1be0	0.27755642
44	0xbe06328d	-0.13105221
45	0x3e880e97	0.2657363
46	0x3eadf424	0.33975327
47	0x3e917c13	0.28414974
48	0x3ecf10d8	0.40442538
49	0x3ef44934	0.477121
50	0xbe963dbb	-0.29343972
51	0x3e8f0447	0.2793295
52	0xbe577b2b	-0.21043079
53	0xbdd1bb0c	-0.102407545
54	0xbd4a6855	-0.049415905
55	0x3e88895b	0.26667294
56	0x3e97bb3b	0.29635033
57	0xbc97f523	-0.018549507
58	0xbe5cd2ec	-0.21564835
59	0xbe856127	-0.26050684
60	0xbd64e010	-0.055877745
61	0x3ea22875	0.3167149
62	0x3ee57552	0.4481607
63	0xbe569029	-0.2095343
64	0xbe4c8bb6	-0.1997517
65	0x3eebffe6	0.46093673
66	0x3ea1df26	0.3161556
67	0x3ee58d86	0.44834536
68	0xbd92c981	-0.0716734
69	0xbe0271a7	-0.12738667
70	0x3e90f790	0.28313875
71	0x3e9747fc	0.29547107
72	0xbd96f3f1	-0.07370747
73	0x3ead4918	0.3384483
74	0x3ec603d4	0.38674796
75	0x3ea3502c	0.31897104
76	0xbdf3b753	-0.11900201
77	0x3e942591	0.2893491
78	0xbdccb07b	-0.099945985
79	0x3ebd78fc	0.37006366

weight f4 [40, 80]
0	0x3d5acce7	0.053418066
1	0xbe1034c7	-0.14082633
2	0x3d361da7	0.044461872
3	0xbd87a68a	-0.06623562
4	0x3ca76e60	0.020438373
5	0x3dd4bce3	0.1038759
6	0xbe1c4a35	-0.15262683
7	0x3d4b0724	0.049567357
8	0x3da29eac	0.079404205
9	0xbcd02e72	-0.025412772
10	0x3df5f8ba	0.120103315
11	0x3db72036	0.089416906
12	0x3dd786e5	0.10523776
13	0xbd381d1b	-0.044949632
14	0xbdeb7b4b	-0.11498126
15	0xbdb4d5a8	-0.08829814
16	0xbdf92722	-0.12165667
17	0x3d5a831b	0.05334769
18	0x3cbe6dda	0.02324574
19	0xbb918c4b	-0.004441773
20	0x3d8b7e4e	0.068112
21	0x3d60605d	0.0547794
22	0xbce3e394	-0.027818479
23	0xbd94371a	-0.07237072
24	0xbd8f320c	-0.069919676
25	0xbdb5d9a2	-0.08879401
26	0x3d27deab	0.040983837
27	0x3dd91eb4	0.10601559
28	0x3b878a91	0.0041363914
29	0xbabe6101	-0.0014524759
30	0xbe00aa17	-0.12564884
31	0xbdd14b7d	-0.10219476
32	0xbd328662	-0.04358519
33	0xbd02abbf	-0.03190207
34	0x3ccc809c	0.02496367
35	0xbd8e5b5f	-0.069510214
36	0xbe2424f9	-0.16029729
37	0xbe38a59d	-0.18031926
38	0xbe00a9c1	-0.12564756
39	0x3ccff12e	0.025383558
40	0x3de4abdc	0.11165592
41	0xbe397903	-0.18112569
42	0x3db30e58	0.0874297
43	0xbd1937f5	-0.03740688
44	0x3dc42861	0.09578014
45	0xbdd4fd31	-0.10399855
46	0xbe382506	-0.17982873
47	0xbe1cab93	-0.15299825
48	0xbdb06a4b	-0.08614024
49	0xbe014901	-0.12625505
50	0xbd7cf5d0	-0.061757863
51	0xbdc4d0b6	-0.09610121
52	0xbc504ddc	-0.012713876
53	0x3da237ef	0.07920825
54	0xbd5bbb5d	-0.05364548
55	0xbd98cbe9	-0.07460768
56	0x3cb4c9df	0.022068916
57	0x3d3dd139	0.04634211
58	0x398e0bd5	0.00027093166
59	0x3c64c5eb	0.013963203
60	0x3db201a2	0.08691718
61	0xbdadffa6	-0.08496027
62	0xbe35914f	-0.17731212
63	0x3db02fbc	0.086028546
64	0xbc45a606	-0.012063509
65	0xbd31b484	-0.043385044
66	0xbbda7a32	-0.006667399
67	0xbdc40e8d	-0.09573088
68	0x3d4ceb58	0.05002913
69	0x3dbb0f97	0.09133833
70	0xbc1bd338	-0.009510808
71	0xbe1904cc	-0.14943236
72	0x3dc95445	0.09830526
73	0x3bf62bab	0.00751253
74	0xbd481512	-0.04884822
75	0xbe1afe07	-0.15135966
76	0x3d8e9796	0.069625065
77	0xbb3dbd35	-0.0028951888
78	0xbd2945fa	-0.0413265
79	0xbd7bd9a6	-0.061486863
80	0x3dc95d53	0.09832253
81	0xbd999c02	-0.07500459
82	0x3dd6e571	0.10492981
83	0xbd384aec	-0.044993326
84	0xbc639829	-0.013891258
85	0x3ddca84e	0.10774289
86	0xbd96dab2	-0.073659316
87	0xbdb07250	-0.086155534
88	0x3de42a88	0.11140925
89	0x3dde8f9f	0.10867237
90	0xbbfb3059	-0.0076656756
91	0xbc2e3880	-0.010633588
92	0xbdcab55a	-0.09897871
93	0x3dd755e6	0.10514431
94	0x3d41591e	0.04720413
95	0xbd5233ed	-0.05131905
96	0xbdaa042d	-0.08301578
97	0x3d23ac0f	0.03995901
98	0xbca3bac4	-0.019986518
99	0x3dcf2cb3	0.101159476
100	0x3da48e77	0.080349855
101	0x3d2e90e8	0.042618662
102	0xba839796	-0.0010039683
103	0x3c0f1ce9	0.00873492
104	0x3de07fe8	0.10961896
105	0x3ddf01cf	0.10889017
106	0xbd2991b2	-0.04139871
107	0xbd0d78b1	-0.03453893
108	0xbcfc7b72	-0.030820582
109	0xbd862a8b	-0.06551083
110	0x3d9b4c57	0.0758292
111	0x3c71bb9a	0.0147542
112	0x3bc81172	0.0061055953
113	0x3d1b4c13	0.037914347
114	0xbd131d8e	-0.035916857
115	0xbd2b11a4	-0.04176487
116	0xbd862254	-0.06549516
117	0x3ca50a1e	0.020146426
118	0x3d674fd3	0.05647261
119	0xbced2f8a	-0.028953332
120	0xbdd0bea3	-0.10192611
121	0xbdb8cb4a	-0.09023149
122	0x3dac33db	0.08408328
123	0xbdc5e3db	-0.096626006
124	0x3c989386	0.018625032
125	0x3d2b403e	0.041809313
126	0x3dbbc466	0.091683194
127	0x3d0d9833	0.034568977
128	0x3bec1148	0.0072042085
129	0x3de112b4	0.109898955
130	0x3d95df3e	0.07317971
131	0xbd99a6fb	-0.07502552
132	0x3ce89f9b	0.028396418
133	0x3d771f2f	0.060332473
134	0x3d022aa0	0.03177893
135	0x3c490dee	0.0122713875
136	0x3dc62e4a	0.09676798
137	0x39f247a4	0.00046211213
138	0x3d98a61a	0.07453556
139	0xbc8e45cd	-0.017367268
140	0xbda27178	-0.07931799
141	0x3dd818f4	0.105516344
142	0x3dbef413	0.09323897
143	0xbdb6569a	-0.08903237
144	0xbd1fae01	-0.038984302
145	0xbc0c4331	-0.008560942
146	0xbcf06802	-0.02934647
147	0x3df9ab2c	0.121908516
148	0xbdc5e18e	-0.09662162
149	0xbdcb1f72	-0.09918107
150	0x3df7d704	0.12101558
151	0x3d8ad28e	0.06778441
152	0xbc75e581	-0.015008331
153	0x3d75bb2f	0.059992965
154	0x3da09554	0.07840982
155	0xbd88c5cc	-0.06678352
156	0x3aa88154	0.0012855926
157	0xbd2347e4	-0.039863482
158	0xbd60e537	-0.054906096
159	0xbd8356aa	-0.06413014
160	0xbd9d9b67	-0.07695656
161	0xbdbd6fdf	-0.09249853
162	0x3d3e85fb	0.046514492
163	0x3dae4e3d	0.085110165
164	0x3d8c7c58	0.06859654
165	0xbcbb2434	-0.022844411
166	0x3cb414f1	0.021982642
167	0xbd3f43c1	-0.046695475
168	0xbdc099fd	-0.09404371
169	0x3c59aa41	0.013285221
170	0xbd5ed651	-0.054403607
171	0xbd867820	-0.06565881
172	0x3d5cc681	0.053900246
173	0x3d26e940	0.04074979
174	0xba3db745	-0.0007237087
175	0xbc032f81	-0.008006931
176	0xbd9a7ecc	-0.07543716
177	0xbd314959	-0.04328284
178	0x3c058c09	0.008151063
179	0xbde1bde3	-0.11022546
180	0xbd35222a	-0.044222035
181	0x3db770b6	0.08957045
182	0xbdc9751a	-0.098367885
183	0x3d08b67d	0.03337716
184	0xbdc241a9	-0.0948518
185	0xbde3e484	-0.1112757
186	0x3ddb33da	0.10703249
187	0xbd811723	-0.06303241
188	0xbdb0939b	-0.086219035
189	0xbda8af33	-0.082365416
190	0xbd89eab8	-0.06734222
191	0xbc931d14	-0.017958201
192	0x39bb4f43	0.00035726474
193	0xbc880d06	-0.016607773
194	0xbcd41d29	-0.02589281
195	0x3d719efe	0.058989517
196	0xbd37a491	-0.044834677
197	0xbdcb7024	-0.099334985
198	0xbd7b06d7	-0.06128582
199	0xbdab3549	-0.08359773
200	0x3d84154d	0.06449375
201	0xbe12ffbb	-0.14355366
202	0xbddc2a48	-0.10750252
203	0xbd95b238	-0.07309383
204	0x3daa254e	0.083078966
205	0xbc2a796c	-0.010404926
206	0x3d16b3db	0.036792617
207	0x3c82b8ad	0.0159572
208	0xbd959d74	-0.073054224
209	0xbca5fb71	-0.020261498
210	0xbd19b00d	-0.03752141
211	0xbd9de242	-0.07709171
212	0xbdd57309	-0.10422332
213	0xbdaab5b3	-0.083354376
214	0x3c5cda32	0.013479756
215	0x3d8696fa	0.06571765
216	0xbd71df7a	-0.059051014
217	0xbcdeb0ee	-0.027183976
218	0xbd2705a5	-0.040776867
219	0xbd7896a2	-0.06069053
220	0x3c657ca9	0.014006772
221	0x3d732e72	0.059370466
222	0xbd895a05	-0.06706623
223	0x3c7d492a	0.015459338
224	0xbdb0cc32	-0.08632697
225	0x3c8c4c24	0.01712615
226	0xbdcfe609	-0.101512976
227	0xbd920cb0	-0.07131326
228	0xbbd8ba8c	-0.006614035
229	0x3bacdf79	0.0052756635
230	0xbbad4f4e	-0.005288995
231	0xbdb80ec4	-0.08987191
232	0x3dc7fb7b	0.09764763
233	0xbe0a245f	-0.13490437
234	0xbca21c6e	-0.019788947
235	0xbe053ea7	-0.13012181
236	0x3d8117de	0.063033804
237	0xbca967ac	-0.020679317
238	0x3da1346e	0.07871328
239	0x3cb9d9ee	0.022686925
240	0xbd8afaba	-0.067861035
241	0xbe10fdf7	-0.1415938
242	0x3ca0eecc	0.019645117
243	0x3c8665e0	0.016406
244	0xbd80d812	-0.06291212
245	0xbd72e608	-0.059301406
246	0xbdbaabab	-0.09114774
247	0xbdf243f4	-0.11829367
248	0xbd6d1b6f	-0.05788749
249	0xbd13b2ee	-0.036059313
250	0xbe02cffd	-0.12774654
251	0xbddaec89	-0.10689647
252	0xbdd7a6f0	-0.10529888
253	0xbdabec96	-0.083947346
254	0xbda3d408	-0.07999426
255	0xbd08c893	-0.033394407

bias f4 [40]
0	0xbd42779d	-0.047477353
1	0xbcf8bcd3	-0.030363476
2	0xbdd1fefd	-0.10253713
3	0xbe134f0b	-0.14385621
4	0x3c9166d2	0.017749224
5	0xbc5b63f8	-0.013390534
6	0xbdce7e7c	-0.10082719
7	0x3d989a32	0.074512854
8	0xbce2c674	-0.02768252
9	0x3ca678dc	0.020321302
10	0x3da819a5	0.08208016
11	0xbe1b98e2	-0.15195039
12	0x3d989b6e	0.07451521
13	0x3d2d9d29	0.042386208
14	0x3d235331	0.03987426
15	0x3d494270	0.049135625
16	0xbdca1343	-0.09866955
17	0x3c81f120	0.015862048
18	0x3dc4030b	0.09570893
19	0x3d1bb3fd	0.038013447
20	0xbdbbd4a0	-0.091714144
21	0x3d8ee981	0.06978131
22	0x3d3d308c	0.046188876
23	0xbd18bad6	-0.037287556
24	0x3d950549	0.07276399
25	0x3df19be5	0.11797313
26	0x3da9f15e	0.0829799
27	0x3db68d23	0.089136384
28	0xbd9fcd78	-0.07802862
29	0xbd5d06e5	-0.053961653
30	0x3dabf815	0.08396927
31	0xbd1987f6	-0.037483178
32	0x3d8bef89	0.06832797
33	0xbb30bdf5	-0.0026968692
34	0x3d6856cf	0.056723412
35	0xbdedd984	-0.116137534
36	0x3c21de92	0.009879725
37	0x3ddfef4e	0.109343156
38	0x3cde8e10	0.02716735
39	0xbe047434	-0.12934953

weight f4 [40, 80]
0	0x3c669b9b	0.014075185
1	0xbe4f668a	-0.2025396
2	0xbac3da03	-0.0014942292
3	0x3dd8de60	0.1058929
4	0x3dc91516	0.09818475
5	0xbd8a1412	-0.06742109
6	0xbe533500	-0.20625687
7	0xbd972ef5	-0.07382003
8	0xbdb524b4	-0.08844891
9	0xbc1d282c	-0.009592097
10	0xbdbe845b	-0.093025886
11	0xbdbcc124	-0.09216526
12	0xbd029a0d	-0.031885196
13	0xbe26454c	-0.16237372
14	0xbdbbb46e	-0.091652736
15	0xbcab6358	-0.020921394
16	0xbe12129a	-0.14264908
17	0x3d9bc0f7	0.076051645
18	0xbdb1fe87	-0.08691125
19	0xbd14e7cb	-0.036353868
20	0x3da6ea98	0.08150214
21	0xbc3e77de	-0.011625258
22	0xbd4927bf	-0.04911017
23	0x3cf4e5ac	0.029894672
24	0xbdede8fa	-0.116167024
25	0xbd00c301	-0.03143597
26	0xbdb6faed	-0.08934579
27	0xbab845b2	-0.0014058857
28	0xbe4c7687	-0.1996709
29	0xbe6ebe51	-0.23314787
30	0xbe675097	-0.22589336
31	0xbe4b4158	-0.19849145
32	0xbe08ab7b	-0.13346665
33	0x3dbf7418	0.09348315
34	0xbe6d43b0	-0.23170352
35	0x3d7b4a4e	0.06135016
36	0xbc67a633	-0.014138746
37	0xbe69b36d	-0.22822352
38	0xbdf70544	-0.12061551
39	0xbe063b68	-0.13108599
40	0x3d48ad70	0.048993528
41	0xbe17922f	-0.14801858
42	0xbdabbc21	-0.08385492
43	0xbe31f9a6	-0.1738039
44	0x3d74346c	0.059620306
45	0xbe72d59d	-0.237143
46	0xbe1d205c	-0.15344375
47	0xbdf67ca2	-0.120354906
48	0xbe335b8b	-0.1751539
49	0xbd9f53ae	-0.077796325
50	0xbd372b16	-0.044718824
51	0xbde06cd5	-0.10958258
52	0x3d9ad656	0.075604126
53	0x3b2c3939	0.0026279225
54	0xbca96671	-0.02067873
55	0xbde8905f	-0.113556616
56	0xbe37d1c2	-0.1795111
57	0xbe1c852b	-0.15285175
58	0x3d468c37	0.048473563
59	0x3c527986	0.012846356
60	0xbdcba827	-0.09944182
61	0xbd9819a1	-0.07426763
62	0xbe4cb8c8	-0.19992363
63	0xbdab11a8	-0.08352977
64	0xbd350547	-0.044194486
65	0xbddafcc5	-0.10692743
66	0xbe4b4be1	-0.19853164
67	0xbe3c00cd	-0.1835968
68	0xbb5ca990	-0.0033670403
69	0x3d9b2e5e	0.07577203
70	0xbe758ea2	-0.23980191
71	0xbe16c9fa	-0.14725485
72	0x3cc867de	0.02446359
73	0xbe7f59ad	-0.24936552
74	0xbe68db6d	-0.22739954
75	0xbdfb1689	-0.122601576
76	0xbd55e3e9	-0.052219305
77	0xbe692c64	-0.2277084
78	0xbdceacbe	-0.10091542
79	0xbe121f84	-0.14269835
80	0xbddda75b	-0.10822936
81	0xbe1182cb	-0.1421005
82	0x3c9edc03	0.01939202
83	0x3dd1fc8a	0.10253246
84	0x3d335cb1	0.04378957
85	0x3d899c50	0.06719267
86	0xbe29c211	-0.16577937
87	0xbe5bf6eb	-0.2148091
88	0x3d9e6207	0.07733541
89	0xbdc0f57b	-0.09421822
90	0xbd831ac4	-0.064015895
91	0x3d74aa63	0.059732806
92	0xbdd8f5aa	-0.10593732
93	0xbdb094aa	-0.086221054
94	0xbe4dbe1e	-0.20092055
95	0x3dcb532d	0.09927974
96	0xbe4b4c0c	-0.19853228
97	0x3d216952	0.039407082
98	0xbe264f03	-0.16241078
99	0xbe3ebdc8	-0.18627083
100	0x3d137fea	0.03601066
101	0x3d6329a1	0.055459622
102	0xbdea8f4f	-0.11453115
103	0xbdb09e7f	-0.08623981
104	0xbe0accc6	-0.13554677
105	0xbe3ea797	-0.18618618
106	0xbd2e1a3b	-0.042505484
107	0x3d3493a2	0.044086106
108	0xbe5168b3	-0.20450096
109	0xbd417cbd	-0.0472381
110	0xbe5f413f	-0.21802233
111	0xbeb396d8	-0.35076022
112	0xbe9f3905	-0.3109819
113	0x3d7c7a49	0.061640058
114	0xbe3cb158	-0.18427026
115	0xbd1ae525	-0.037816186
116	0xbe2382d7	-0.1596788
117	0xbe10f670	-0.14156508
118	0xbe69ee94	-0.22844917
119	0xbe0f6286	-0.14002427
120	0x3d519b09	0.051173244
121	0xbe064019	-0.13110389
122	0xbbb11497	-0.005404066
123	0xbe1de4bf	-0.15419291
124	0xbdcfdbfd	-0.10149381
125	0xbe450384	-0.19239622
126	0xbd84ab61	-0.064780004
127	0xbe820548	-0.25394654
128	0xbe5dadea	-0.21648374
129	0xbe2f9313	-0.17145948
130	0xbd9d279b	-0.0767357
131	0xbe3ca3c7	-0.18421851
132	0xbd0f9040	-0.035049677
133	0xbbb90e1e	-0.005647435
134	0x3cfef77f	0.031123875
135	0xbe108aaa	-0.14115396
136	0xbdd6a5ac	-0.10480818
137	0x3dca12c4	0.098668605
138	0xbdc4dfee	-0.09613024
139	0x3db029b2	0.08601703
140	0xbd1e0735	-0.038581092
141	0xbe7a3543	-0.2443438
142	0xbe26052d	-0.16212912
143	0xbd8b415f	-0.06799578
144	0x3d978f49	0.07400376
145	0xbe2db835	-0.169648
146	0xbe282dd0	-0.16423726
147	0xbe41158c	-0.18855876
148	0xbd167319	-0.03673086
149	0x3dd65968	0.10466272
150	0xbe42ddb8	-0.19029891
151	0xbdca3414	-0.09873214
152	0xbcfb5c79	-0.030683743
153	0xbe0d7209	-0.13813032
154	0xbd983af1	-0.07433117
155	0xbe3cc9f1	-0.1843641
156	0x3dcd0d56	0.10012309
157	0xbe2bb81c	-0.16769451
158	0xbdb8377e	-0.08994959
159	0xbd31021c	-0.043214902
160	0xbdb7ff80	-0.0898428
161	0xbe3d158c	-0.1846525
162	0xbdaf765d	-0.08567498
163	0xbd9961bd	-0.07489345
164	0x3d0466fd	0.03232478
165	0x3d86e4c2	0.06586601
166	0xbe95ca95	-0.2925612
167	0xbdbef6d8	-0.093244255
168	0x3ac2c851	0.0014860724
169	0x3b9b399c	0.004737092
170	0xbdf5eff2	-0.120086566
171	0xbc9749d8	-0.018467829
172	0x3d090ad4	0.033457592
173	0xbe6372d3	-0.2221177
174	0xbe624a7f	-0.2209873
175	0xbc987446	-0.018610131
176	0xbe02b32f	-0.12763666
177	0x3d2285b3	0.039678287
178	0xbb9e14ea	-0.0048242705
179	0xbdf5be27	-0.11999159
180	0x3d234d00	0.039868355
181	0x3dbce968	0.09224206
182	0xbd90b5f7	-0.07065957
183	0xba72cd53	-0.0009262163
184	0xbe12bd10	-0.14329934
185	0xbd2a699e	-0.04160463
186	0xbc565f08	-0.013084181
187	0xbdea7ea2	-0.114499345
188	0xbd111f4b	-0.035430234
189	0xbe3ec502	-0.1862984
190	0xbe1871e4	-0.14887196
191	0xbe8fb5fb	-0.28068528
192	0xbd8dc890	-0.0692302
193	0x3d51e32d	0.051242042
194	0xbde66723	-0.112501405
195	0x3d8d76f4	0.06907454
196	0xbdf5e243	-0.120060466
197	0xbe68f3a0	-0.22749186
198	0xbda906d2	-0.08253254
199	0xbe6790d6	-0.22613844
200	0xbd7b3025	-0.06132521
201	0xbe51a600	-0.2047348
202	0xbd00ed5f	-0.031476375
203	0xbe2be6d5	-0.16787274
204	0x3d2928a4	0.041298524
205	0xbe17c07d	-0.14819522
206	0xbe481831	-0.19540478
207	0xbe0c07c4	-0.13674837
208	0xbd71c6cf	-0.05902749
209	0xbc3ef2af	-0.01165454
210	0xbd592e79	-0.053022835
211	0xbe33f712	-0.17574719
212	0xbdac292e	-0.08406292
213	0x3d587e5f	0.052854892
214	0x3cf85c37	0.030317409
215	0xbe5d263a	-0.21596614
216	0xbe89ef4b	-0.2694038
217	0xbbb7a625	-0.005604523
218	0xbd880218	-0.06641024
219	0xbdd11f26	-0.10211019
220	0x3b72cca7	0.0037048252
221	0xbe59c68f	-0.2126715
222	0xbe16e032	-0.14733961
223	0xbd98c6f0	-0.07459819
224	0xbd87956a	-0.06620295
225	0xbe6e8dd4	-0.2329629
226	0xbe554e64	-0.20830685
227	0xbd8042c0	-0.062627316
228	0x3c740b11	0.014895217
229	0x3d7e5972	0.06209702
230	0xbe7f79fe	-0.2494888
231	0xbd8eb33a	-0.069677785
232	0xbbcd24f6	-0.0062605096
233	0xbe24cca8	-0.16093695
234	0xbe45ae4a	-0.19304767
235	0xbe18b6e3	-0.14913516
236	0x3d6a455e	0.05719506
237	0xbe8954fe	-0.26822656
238	0xbd9dbb92	-0.07701792
239	0xbe6b2a49	-0.2296535
240	0xbd7930ec	-0.06083767
241	0xbe9a3746	-0.30120295
242	0x3885b05d	6.3747844e-05
243	0x3d647b02	0.055781372
244	0x3d5f5ca9	0.054531727
245	0x3db8c1ae	0.090213165
246	0xbe3e945f	-0.18611287
247	0xbe15818f	-0.14600204
248	0xbdd6d862	-0.104904905
249	0xbcbe1d63	-0.023207372
250	0xbda784ba	-0.081796125
251	0x3de3287a	0.11091705
252	0x3da1c1a1	0.0789826
253	0xbe1ab102	-0.15106586
254	0xbd988207	-0.07446676
255	0xbd869d54	-0.06572977

bias f4 [40]
0	0xbe1bfdc5	-0.15233524
1	0xbc4385bf	-0.011933743
2	0xbcddc815	-0.027072946
3	0xbd132a0f	-0.035928782
4	0xbe23204a	-0.15930286
5	0xbd51ccc9	-0.05122069
6	0xbdce3989	-0.10069568
7	0xbbd094ad	-0.00636538
8	0xbdc440e3	-0.09582689
9	0xbd39ce54	-0.045362785
10	0xbdc98ee4	-0.09841707
11	0xbe42c8e3	-0.19021945
12	0xbd5cd68f	-0.053915557
13	0xbd64a014	-0.055816725
14	0xbe1427b8	-0.14468277
15	0xbd35aecd	-0.044356156
16	0xbdd9c27f	-0.106328
17	0xbe3669b3	-0.17813759
18	0xbd4e53d3	-0.05037291
19	0xbe586539	-0.21132363
20	0xbd5b22a3	-0.05349983
21	0x3ccc214d	0.024918223
22	0xbd2f329b	-0.04277287
23	0xbe29d2ea	-0.16584364
24	0xbde17ed0	-0.11010516
25	0xbe36ddc9	-0.17858042
26	0xbe40aad6	-0.18815169
27	0xbd2da834	-0.04239674
28	0xbbdad900	-0.0066787004
29	0xbdee6080	-0.116395
30	0xbddc75e0	-0.1076467
31	0xbc0902a2	-0.008362444
32	0xbe1ee457	-0.15516792
33	0x3b616a53	0.003439565
34	0xbd127064	-0.035751715
35	0xbdd5c4e8	-0.104379475
36	0xbe2100fa	-0.15723029
37	0xbe48b3a7	-0.19599782
38	0x3c86f5c3	0.01647461
39	0xbde66b17	-0.112508945

weight f4 [80, 40]
0	0x3db7756c	0.08957943
1	0x3cabd875	0.020977238
2	0xbd47e14f	-0.048798855
3	0x3d8b31d7	0.067966156
4	0xbdb1f7f1	-0.08689869
5	0xbd697d63	-0.057004344
6	0x3e084d96	0.13310847
7	0xbdb43871	-0.08799828
8	0x3d08268b	0.033239882
9	0x3ddf225a	0.10895224
10	0x3dca77ad	0.098861076
11	0x3dccc3cf	0.09998285
12	0xbdd96c05	-0.10616306
13	0x3dea70d0	0.114472985
14	0x3d9c8a4d	0.07643566
15	0xbd76e073	-0.060272645
16	0x3e215dee	0.15758488
17	0x3d1698a9	0.03676668
18	0xbe16eae1	-0.14738037
19	0xbdc03b6a	-0.09386332
20	0xbd625833	-0.055259895
21	0xbdada79d	-0.08479235
22	0xbcc7ad14	-0.024374522
23	0xbdbdf900	-0.092760086
24	0x3d610a75	0.054941613
25	0x3dab37c5	0.083602466
26	0x3da8a1b5	0.08233968
27	0xbd5c596d	-0.05379622
28	0x3de1ba05	0.110218085
29	0xbe08a6ab	-0.13344829
30	0xbdc413d0	-0.095740914
31	0x3d9feb53	0.078085564
32	0x3dcf8bd8	0.10134095
33	0x3d7b4c4f	0.06135207
34	0x3d9eda9c	0.0775654
35	0x3de2ba55	0.11070696
36	0x3d7ba087	0.061432388
37	0xbe13f037	-0.14447103
38	0x3dfb1d40	0.12261438
39	0x3db20b2a	0.086935356
40	0x3b6c178e	0.0036024782
41	0x3dadc355	0.08484522
42	0x3dc50fac	0.0962213
43	0x3cd35fbf	0.025802491
44	0xbde80735	-0.113295
45	0x3b215a0d	0.0024620325
46	0xbd871c3a	-0.06597181
47	0xbd21cc86	-0.03950169
48	0x3d29fd38	0.041501254
49	0x3cccb1b1	0.024987074
50	0xbd263ffb	-0.04058836
51	0x3cc6054e	0.024172451
52	0x3d96314c	0.073336214
53	0xbd236aca	-0.039896764
54	0xbdacd3ac	-0.08438811
55	0xbadaa22c	-0.0016680411
56	0xbca7c2c1	-0.020478608
57	0xbe00d600	-0.12581635
58	0x3d9e89af	0.07741105
59	0x3d6f5b6c	0.058436796
60	0x3da0fddf	0.07860922
61	0x3dbdc7de	0.09266637
62	0x3d279b6f	0.040919717
63	0x3d8074fb	0.06272312
64	0xbdbc5330	-0.09195554
65	0x3d2550ac	0.040360138
66	0x3c44f23e	0.012020646
67	0xbda18037	-0.07885783
68	0xbd2596da	-0.040427066
69	0x3c617ce6	0.013762688
70	0x3c31a8fc	0.010843512
71	0xbe1cd12a	-0.15314165
72	0xbe08f61e	-0.13375136
73	0xbdf62abd	-0.120198704
74	0xbe2c3790	-0.1681807
75	0x3df18d4d	0.11794529
76	0x3d791aeb	0.060816687
77	0xbb7e037c	-0.00387594
78	0xbd2ba66a	-0.04190675
79	0xbc13efed	-0.009029371
80	0xbd6b9156	-0.05751165
81	0xbdcfd174	-0.10147372
82	0x3dca8c19	0.09890003
83	0x3df80d60	0.12111926
84	0x3cb2d484	0.021829851
85	0xbd37d82b	-0.04488389
86	0x3d0dac65	0.034588236
87	0x3d1e1ff3	0.038604688
88	0xbe146648	-0.14492142
89	0x3dc21475	0.09476558
90	0xbda63fa6	-0.08117609
91	0x3db89b4c	0.090139955
92	0x3e0cfbb5	0.13767894
93	0x3de3bc0d	0.11119852
94	0xbcbaab32	-0.02278671
95	0x3e1fa8ec	0.15591782
96	0x3d83fdaa	0.06444867
97	0xbde15693	-0.11002841
98	0xbd1d88e7	-0.03846064
99	0xbe164284	-0.14673811
100	0x3d4fd5a0	0.050740838
101	0xbcb17dce	-0.021666434
102	0x3c84626b	0.01616021
103	0x3c9c8f1b	0.019111207
104	0x3e0276a3	0.12740569
105	0xbd38e892	-0.04514367
106	0xbd661925	-0.056176323
107	0xbd902647	-0.07038551
108	0x3d6bdf1d	0.057585824
109	0x3d99b980	0.075060844
110	0x3d742b58	0.05961165
111	0x3dcc57b4	0.099776655
112	0x3d796e13	0.06089599
113	0x3d026d12	0.0318423
114	0xbe1f439c	-0.15553135
115	0xbde8dca3	-0.11370208
116	0xbdc97c71	-0.098381884
117	0xbe04061f	-0.1289296
118	0xbdf9409a	-0.12170525
119	0xbda4f450	-0.080544114
120	0x3d8d23f0	0.0689162
121	0x3d817f15	0.06323067
122	0x3dd3176c	0.10307202
123	0x3d806931	0.06270064
124	0x3e17cd8e	0.14824507
125	0x3c8dc525	0.01730592
126	0xbdceb0cd	-0.10092316
127	0xbd6d3c2c	-0.057918712
128	0x3da1139c	0.07865068
129	0xbd3731c0	-0.04472518
130	0xbdc0b1fb	-0.09408947
131	0xba9bb956	-0.0011880796
132	0xbd6764d3	-0.056492638
133	0xbda62fab	-0.08114561
134	0x3db8cbd8	0.09023255
135	0x3d9ad990	0.07561028
136	0x3db4abd1	0.08821834
137	0x3d544ce7	0.051831152
138	0x3d14bf27	0.03631511
139	0xbe22018d	-0.15820904
140	0xbdcb69d9	-0.09932298
141	0x3d101cd8	0.035183758
142	0x3dcb9aa5	0.099416055
143	0xbdb3d92e	-0.08781658
144	0x3dde24a9	0.10846836
145	0x3d6417b2	0.05568666
146	0xbdf12e5e	-0.11776422
147	0xbceabec4	-0.028655417
148	0xbbed720e	-0.0072462624
149	0xbcda0d74	-0.026617743
150	0xbbd2bef7	-0.006431456
151	0xbcfac0b8	-0.030609474
152	0x3db67831	0.089096434
153	0xbdd75518	-0.10514277
154	0xbde552fb	-0.11197468
155	0xbd051e3d	-0.03249954
156	0xbd3ccbbe	-0.04609274
157	0xbd719a3d	-0.058984984
158	0xbd079c95	-0.033108313
159	0xbc342f71	-0.010997639
160	0xbdb31475	-0.08744136
161	0x3db3d8dc	0.08781597
162	0x3de3d1e0	0.11124015
163	0xbb72d206	-0.0037051453
164	0x3d7c6805	0.06162264
165	0x3d974736	0.07386629
166	0x3e00d5d0	0.12581563
167	0x3d3ead3f	0.04655194
168	0x3e2d38ea	0.16916242
169	0x3de64369	0.11243326
170	0x3e0a5d0a	0.13512054
171	0xbe0d68e7	-0.13809548
172	0xbbf3fa43	-0.007445605
173	0x3e2a0132	0.16602018
174	0x3caac7cb	0.020847222
175	0x3da95f7b	0.082701646
176	0x3e0188a0	0.12649775
177	0xbbc452cc	-0.0059913155
178	0xbd16c6fe	-0.036810867
179	0xbe082733	-0.13296203
180	0xbda40c19	-0.0801012
181	0xbd561699	-0.052267645
182	0xbdf77cf5	-0.120843805
183	0xbe12261c	-0.1427235
184	0xbd0e06a3	-0.034674298
185	0xbce8d0e6	-0.028419923
186	0x3de2dde7	0.11077481
187	0x3ddd9a5e	0.10820459
188	0x3d29b06c	0.041428015
189	0xbcfd3f80	-0.030914068
190	0xbdb0fc58	-0.08641881
191	0x3d82c23e	0.06384705
192	0xbd915efe	-0.070981964
193	0x3d4849c9	0.048898492
194	0x3d7c03fa	0.06152723
195	0xbdd3f2c8	-0.10349041
196	0xbcac48b9	-0.02103077
197	0x3de92d75	0.11385623
198	0x3e0f0300	0.13965988
199	0x3e03d40a	0.12873855
200	0xbdd3ab6b	-0.1033543
201	0xbb1558a3	-0.0022788427
202	0x3d94beb0	0.07262933
203	0x3dd3b05d	0.10336373
204	0xbde134a4	-0.109963685
205	0x3e380414	0.17970306
206	0xbd0eaff4	-0.03483577
207	0x3df29c32	0.11846198
208	0xbd5f61f4	-0.054536775
209	0xbe0d9599	-0.13826598
210	0x3d80faa1	0.06297804
211	0xbd2c09c5	-0.042001504
212	0xbad7f4ae	-0.0016476118
213	0xbcbb3e7f	-0.022856949
214	0x3d341c58	0.043972343
215	0xbbf3a6f4	-0.007435674
216	0xbcc4c50f	-0.024019746
217	0xbdf263c2	-0.118354335
218	0x3dbb995a	0.09160109
219	0xbe118a41	-0.14212896
220	0x3ddd336e	0.10800825
221	0xbc05b9e5	-0.0081619965
222	0x3e02eb25	0.12785013
223	0x3defe7d6	0.11714141
224	0xbd3648fb	-0.044503193
225	0xbc749726	-0.014928615
226	0xbde84b80	-0.113425255
227	0xbd782a3e	-0.06058716
228	0xbe19481e	-0.14968917
229	0x3e07094a	0.13187137
230	0x3d64dff8	0.055877656
231	0x3d8f4750	0.06996024
232	0x3dda7b07	0.10667997
233	0xbe11f08e	-0.1425192
234	0xbcac061f	-0.020999013
235	0xbe166c5e	-0.14689776
236	0x3db10013	0.08642592
237	0x3da0a0dd	0.07843182
238	0x3d8a153c	0.067423314
239	0x3bb5844a	0.0055394517
240	0x3d45fb79	0.048335526
241	0xbd7620f0	-0.060090005
242	0x3d193778	0.037406415
243	0x3de1c8b6	0.11024611
244	0x3d34af1b	0.044112306
245	0xbe2deae7	-0.1698414
246	0xbc033e02	-0.008010389
247	0xbdb5f1ef	-0.08884036
248	0x3dbea313	0.09308448
249	0x3d8ad4c8	0.06778866
250	0xbcb946f9	-0.02261685
251	0x3dedd65d	0.11613152
252	0xbdfdd941	-0.123949535
253	0xbd574203	-0.052553188
254	0x3e03feae	0.12890121
255	0x3d755443	0.05989481

bias f4 [80]
0	0x3d7772ab	0.06041209
1	0x3d76939f	0.060199376
2	0x3dc1f5eb	0.09470733
3	0x3dc68b63	0.09694555
4	0x3cfd0c8e	0.030889776
5	0xbde4ca23	-0.11171367
6	0xbe399856	-0.18124518
7	0xbe38d05d	-0.18048234
8	0xbd0f607a	-0.035004117
9	0xbdb3060b	-0.08741387
10	0xbe10d5d7	-0.14144073
11	0xbe115b82	-0.14195064
12	0xbe1e7866	-0.15475616
13	0xbe03a806	-0.12857065
14	0x3d1faab5	0.03898116
15	0xbdffe15c	-0.12494156
16	0x3c8bc8fe	0.017063614
17	0x3deb8e90	0.11501801
18	0xbdd8124e	-0.10550366
19	0x3d1d9c46	0.038479112
20	0xbe00268a	-0.12514701
21	0x3dc72f42	0.097258106
22	0xbe37a669	-0.17934574
23	0x3da8a7d3	0.08235135
24	0xbdbb9619	-0.09159488
25	0xbd774398	-0.060367197
26	0x3d595e05	0.05306818
27	0xbd2627f5	-0.04056545
28	0xbe062b75	-0.13102515
29	0x3decdc67	0.11565476
30	0xbe35b798	-0.17745817
31	0xbd30fc17	-0.04320916
32	0x3d1e41f6	0.038637124
33	0xbd7ad0c2	-0.061234243
34	0xbcd49f16	-0.025954764
35	0x3adf25a6	0.001702477
36	0x3cb1812c	0.02166804
37	0xbdc90e36	-0.09817164
38	0xbd93a432	-0.07209052
39	0xbcf4d3d0	-0.029886156
40	0xbe3d861c	-0.1850819
41	0x3e039f97	0.12853847
42	0x3cadc960	0.021214187
43	0xbde5134d	-0.11185322
44	0x3e050d6d	0.12993403
45	0xbe0b6dac	-0.13616055
46	0xbe2cd516	-0.16878161
47	0xbcc5bd6d	-0.024138177
48	0xbda06bb0	-0.0783304
49	0xbdb3da75	-0.08781902
50	0x3de2412b	0.11047586
51	0xbcb50589	-0.022097366
52	0xbbc5dc1a	-0.006038201
53	0xbd54debd	-0.051970232
54	0xbdcff8c2	-0.10154869
55	0xbd69b4fa	-0.05705736
56	0xbe111f53	-0.14172105
57	0xbdc2aff4	-0.09506217
58	0x3dd3af4c	0.103361696
59	0xbe04ebcb	-0.12980573
60	0xbe2e50ec	-0.17023057
61	0x3ce17335	0.027520755
62	0x3d2135d9	0.039357994
63	0x3d923a4a	0.07140024
64	0xbd096ae5	-0.03354921
65	0x3c5cf2f3	0.013485658
66	0x3dbd2bb4	0.09236851
67	0xbe3107d9	-0.1728815
68	0xbe00329b	-0.12519304
69	0xbcdb2127	-0.026749207
70	0x3bd22dfe	0.006414174
71	0x3d033941	0.032037023
72	0xbd30a275	-0.04312368
73	0xbe200853	-0.15628175
74	0xbe336b44	-0.17521387
75	0x3db606a7	0.088879876
76	0xbc54308a	-0.012951026
77	0xbdfb537a	-0.12271781
78	0xbd6e22a9	-0.058138523
79	0xbe169c95	-0.14708169

weight f4 [5, 80]
0	0xbbe1864e	-0.0068824654
1	0xbc9cbd5a	-0.019133259
2	0x3bc0e102	0.005886198
3	0xbc5f85d1	-0.013642744
4	0x3ace0bf7	0.0015720119
5	0x3c374fd5	0.011188467
6	0xbdb8a50c	-0.09015855
7	0xbd83499f	-0.064105265
8	0x3d36a4fa	0.044590928
9	0x3ce074ec	0.027399503
10	0xbb24525b	-0.0025073502
11	0xbd1e6bbb	-0.03867696
12	0x3d783c46	0.060604356
13	0x3d52c659	0.05145869
14	0xbd14c588	-0.036321193
15	0xbd1f1b89	-0.03884462
16	0xbd2f1ed6	-0.042754017
17	0xbd12d59b	-0.03584824
18	0x3b46fe32	0.0030363915
19	0xbd579113	-0.052628588
20	0xbd7f5838	-0.06233999
21	0x3b541624	0.003236183
22	0x3d2daee1	0.042403106
23	0x3d110450	0.035404503
24	0x3a2742b2	0.0006380483
25	0xbd6d38bb	-0.05791543
26	0x3cabe6f7	0.020984156
27	0x3c7efda7	0.015563405
28	0x3d4e9271	0.050432626
29	0x3cc526cd	0.024066353
30	0x3d1d7066	0.03843727
31	0x3c684bec	0.014178257
32	0xbc82c96b	-0.015965184
33	0xbd0f7f71	-0.035033647
34	0x3d3b2aa9	0.04569498
35	0x3c89925e	0.016793426
36	0xbc4b3772	-0.012403356
37	0x3cb50039	0.022094833
38	0x3cc47fdd	0.023986751
39	0x3d024c5b	0.0318111
40	0x3c5ae4ed	0.013360244
41	0xbd01026f	-0.03149646
42	0x3c81e58e	0.01585653
43	0x3bf105b1	0.007355415
44	0x3c7f16ed	0.015569431
45	0x3cc0375f	0.023463903
46	0x3d9265ee	0.07148348
47	0x3d8ca5e0	0.06867576
48	0xbdb407e0	-0.087905645
49	0x3bcce95a	0.0062534036
50	0xbc1a7a5b	-0.009428586
51	0x3bf10996	0.007355879
52	0x3c5454e9	0.012959697
53	0xbcbaa183	-0.022782093
54	0x3d835bc6	0.06413989
55	0x3d903ac3	0.07042458
56	0x3cd93bc3	0.026517754
57	0xbbe8ac37	-0.0071006077
58	0x3b36674d	0.0027832568
59	0x3d0103eb	0.031497877
60	0x3ca85fa8	0.020553425
61	0xbd0cd484	-0.03438236
62	0xbd46714b	-0.04844789
63	0x3d3fe4a1	0.046848897
64	0x3d6d0545	0.057866354
65	0x3d570ac7	0.052500512
66	0xbc44d7cd	-0.012014342
67	0x3b688224	0.003547796
68	0xbd763ac9	-0.060114656
69	0xbdb184be	-0.08667897
70	0x3d349bb6	0.04409381
71	0xbca11673	-0.019664025
72	0x3c5c5396	0.013447663
73	0xbc61b538	-0.013776116
74	0xbbe03a64	-0.006842898
75	0x3d95519c	0.072909564
76	0xbbf4ab87	-0.0074667367
77	0x3ca065e8	0.019579843
78	0x3d5b0e29	0.0534803
79	0x3d90c038	0.07067913
80	0x3d2fd636	0.042928897
81	0xbca07dad	-0.019591177
82	0x3d3d18bc	0.046166167
83	0x3d4a7437	0.049427237
84	0x3bfe01f8	0.0077516995
85	0x3ca54901	0.020176413
86	0xbd5a1fc2	-0.053252943
87	0xbd4677d3	-0.048454117
88	0x3cec96de	0.028880533
89	0x3cde3282	0.027123693
90	0x3d2286f0	0.039679468
91	0xbc02b0a8	-0.007976688
92	0xbd9d74a2	-0.076882616
93	0x3ccd05a8	0.025027111
94	0x3cae6ee9	0.02129312
95	0xbc1c283a	-0.009531075
96	0x3d11a294	0.035555437
97	0x3cbe4ed7	0.023230953
98	0xbbbe50f4	-0.00580799
99	0x3cb78ab6	0.02240501
100	0x3d05abaf	0.032634433
101	0x3cbf198c	0.023327611
102	0xbc1980b3	-0.009369063
103	0xbd174897	-0.03693446
104	0xbd2c8ef8	-0.042128533
105	0x3b204fd0	0.0024461634
106	0x3ce38420	0.027772963
107	0xbd2ae765	-0.04172458
108	0x3c450049	0.012023994
109	0x3c9fada0	0.01949197
110	0xbcc13d57	-0.02358882
111	0x3b931c3a	0.004489449
112	0x3d758786	0.0599437
113	0xbd25cf39	-0.040480826
114	0xbb39d954	-0.0028358297
115	0x3cd85894	0.026409425
116	0x3d0c49a4	0.034249917
117	0xbcf69402	-0.030099872
118	0x3c25b90b	0.010114918
119	0x3ca457c6	0.020061385
120	0xbd305fad	-0.043059994
121	0x3d2cf831	0.04222888
122	0x3b96d220	0.0046026856
123	0x3ce30f22	0.027717177
124	0x3cedcfb6	0.029029708
125	0x3d3c6526	0.0459949
126	0x3c772742	0.015085043
127	0xbd4a0463	-0.04932059
128	0xbc9f40c5	-0.019440064
129	0xbcd1303d	-0.025535697
130	0xbccd0fb1	-0.025031896
131	0x3c70ac08	0.014689453
132	0x3cc3d213	0.023903882
133	0xbc46783e	-0.012113629
134	0xbd340f18	-0.043959707
135	0xbbe22cf6	-0.0069023324
136	0x3d1292fc	0.035784706
137	0xbd4d2fb8	-0.050094336
138	0x3c67f7f8	0.014158241
139	0xbd0b0a82	-0.033945568
140	0xbc4b7102	-0.01241708
141	0x3d0432be	0.032274954
142	0xbc04fc71	-0.008116827
143	0xbc474b75	-0.012163986
144	0xbd37d32b	-0.04487912
145	0xbd2b6417	-0.0418435
146	0xbd54aae1	-0.051920775
147	0xbb2b2e92	-0.0026120287
148	0x3d829ce3	0.0637758
149	0x3cc34721	0.023837628
150	0x3b80b0bf	0.00392732
151	0x3d0ada93	0.033899855
152	0x3cbe694b	0.023243567
153	0x3cb3d09d	0.02195006
154	0xbc2c18d3	-0.010503965
155	0xbcb4526d	-0.02201196
156	0x3d5253ce	0.051349454
157	0xbc9af21c	-0.018914275
158	0xbb624a51	-0.003452916
159	0x3c36ebd7	0.011164627
160	0xbd5f76b5	-0.054556567
161	0x3c82e0cd	0.015976334
162	0xbd54552f	-0.05183905
163	0xbd688429	-0.056766663
164	0xbbe9beb2	-0.0071333284
165	0x3c80bf30	0.015716165
166	0xbd9e0af2	-0.077169314
167	0x3c1d4726	0.009599483
168	0xbd47a203	-0.04873849
169	0x3c241c7c	0.010016557
170	0xbb84c621	-0.004051939
171	0xbcd16fab	-0.025565943
172	0x3bd3c272	0.0064623887
173	0x3d05c655	0.032659847
174	0xbd0f6477	-0.03500792
175	0xbaa9a7da	-0.00129437
176	0x3cd0f0c1	0.025505425
177	0xbc55035a	-0.013001287
178	0xbb8298d7	-0.003985505
179	0x3ce90bf9	0.028448092
180	0xbd33c2f2	-0.043887086
181	0xbb12e2c1	-0.0022412988
182	0xbc590093	-0.013244766
183	0x3cc2c674	0.02377627
184	0x3d2371d4	0.039903477
185	0xbd413453	-0.04716904
186	0xbbe4914f	-0.00697533
187	0x3d005ec4	0.031340376
188	0x3cf16ee6	0.029471826
189	0xbbf2fb49	-0.0074152094
190	0xbd3e50b3	-0.04646368
191	0x3b907ea0	0.004409626
192	0xbb3946d9	-0.0028270988
193	0x3d9d9e22	0.07696177
194	0xbd60f7f4	-0.054923967
195	0x3d3387d8	0.043830723
196	0x3d2379b6	0.039910994
197	0x3d1da1a1	0.03848422
198	0x3d8de50f	0.06928455
199	0x3c9982e6	0.018739175
200	0x3c755505	0.0149738835
201	0x3d6e6d10	0.05820948
202	0x3999e6dd	0.0002935444
203	0x3cd55576	0.026041728
204	0x3bf60e8b	0.007509058
205	0x3c7e0a34	0.015505362
206	0x3d3112c3	0.043230783
207	0x3b324131	0.0027199502
208	0x3cf8b0a6	0.03035767
209	0xbc516d54	-0.0127824135
210	0x3c050512	0.008118885
211	0xbc036452	-0.008019524
212	0x3c4717e4	0.012151692
213	0x3cffc8c6	0.031223666
214	0x3cbb9eaa	0.022902805
215	0xbd2fcf4c	-0.042922303
216	0x3d330add	0.043711532
217	0xbbe2af63	-0.0069178804
218	0x3b15b8d9	0.0022845773
219	0xbbb1eda5	-0.0054299408
220	0x3d1342f2	0.035952516
221	0x3c8bb073	0.017051911
222	0xbcf01567	-0.02930708
223	0x3ca46abe	0.02007043
224	0x3c0c3d94	0.008559603
225	0x3c8556f4	0.016276814
226	0xbcdb3d12	-0.026762519
227	0x3b0fc790	0.0021939017
228	0xbc9d90d1	-0.019234093
229	0x3cf52bbf	0.029928086
230	0x3c98e99c	0.018666081
231	0xbbad3bc6	-0.0052866666
232	0xbd1b1aa4	-0.037867203
233	0xbc872502	-0.016497139
234	0xbcfbe5a9	-0.030749159
235	0xbaf20b3b	-0.0018466482
236	0x3c2abcec	0.010421019
237	0x3d32dff9	0.04367063
238	0x3c444db6	0.011981418
239	0x3d2a2437	0.041538443
240	0xbaa94045	-0.001291283
241	0xbbc086d1	-0.0058754464
242	0xbcf70843	-0.030155307
243	0xbbdf7375	-0.0068191835
244	0xbaf60399	-0.0018769383
245	0xbaf4ddaf	-0.001868179
246	0xbd0d920e	-0.034563117
247	0xbd1264ee	-0.035740785
248	0xbd8bacdd	-0.068200804
249	0xbca93d82	-0.020659212
250	0x3c8a48c3	0.016880399
251	0x3d9b9ea2	0.07598616
252	0x3da54b9f	0.08071064
253	0x3ca3a1ca	0.019974608
254	0xbd45f713	-0.04833133
255	0xbd4f4760	-0.050605178

bias f4 [5]
0	0xbca3b848	-0.019985333
1	0xbd1f6528	-0.03891483
2	0xbc5d5561	-0.013509125
3	0xbc1732f4	-0.009228457
4	0xbb0095f2	-0.0019620624
