final_project/mlruns/1/a784ad6f6aeb46b58ce8a801c1ffc9a5/artifacts/cvae_50/data/model.pth (torch, 48071 bytes, 10 tensors)

weight f4 [80, 10]
00000000: 9441 62be fbb6 73bd d80d 1cbe e12a a5be
00000010: 5490 aebc 5fe7 85be 93e1 983d 08c8 363e
00000020: 60a4 4dbe 9031 81be cf94 a1be e740 8a3e
00000030: 66de 14be ee05 4bbc c3bc 55be 226b 993d
00000040: c217 683d 3dac 9f3e 3578 1ebe a410 94bb
00000050: 0d5e a93d bc22 ae3c 17c1 6b3e cd1b 333e
00000060: 08ba 583e 40ee a7be d4df a23e e2df 0cbe
00000070: 6ac5 89be e3ab 3abe a695 b4bd c2bc 7abe
00000080: 6a10 003d b481 d43c 2436 e0bd 928a 75be
00000090: 77ec 923e 9b06 64bc 605b 24be 7e87 32be
000000a0: 7f0c fcbc c640 7d3e 4f96 563e 3609 8b3e
000000b0: f36e e2bc bfe7 08bd 1547 8cbe d6c7 f33d
000000c0: 9776 983e a5c9 4dbe 197a a0bc 3e3a 8a3d
000000d0: 0ef7 eb3d 420f 4b3d d3d5 4a3d 1b4f 5ebe
000000e0: 2332 ba3d 6797 7ebe 9518 42be 58c6 8bbe
000000f0: dd23 863e a024 843d d8ff 903d 3146 923e
00000100: 30f0 503c fd9e 3fbe dcc5 763e 39e8 4dbe
00000110: 5588 71bc 17b8 1d3e 2304 61be 8706 853e
00000120: af45 4fbe f3aa 2cbd 674b bbbb 94d8 86be
00000130: 033d de3d c4d9 52be 155c 46be 1e48 8d3e
00000140: 1afd 973e c8f6 8e3e 489f 373d d7c6 673e
00000150: e348 a73e bbb2 033e d296 413e b287 10be
00000160: 53ae 96be 296f b83e dbe2 133e 9c6c 403e
00000170: 969b 36be ccb9 8f3e 9768 37be adf2 14be
00000180: 4678 8a3e 6f23 c2bd 485d aa3d d439 403e
00000190: 942b 373e 57db d9bd 2b6f 6cbe 1f24 39be
000001a0: 706e 9f3d d576 3a3d c4db 763e 8605 3fbe
000001b0: 2be5 3cbd ef55 8bbd fb44 a63d 37cc a8be
000001c0: dfb7 08be 0926 9e39 83cd ae3e e8f6 c43d
000001d0: f97d 84be 8ec4 67bd bcea 403e 77b1 133e
000001e0: e964 953d a179 a5bd 9427 523e 09b6 1fbe
000001f0: 9a01 b3bd 3f75 85be b0f6 d7bd 7b63 af3e
00000200: 30fc 83bd d380 9abd 5e3b 0cbd 5997 733e
00000210: 3007 363d 0ae7 783e c757 0ebe abac 0cbd
00000220: d6d1 253e 9747 bbbd 6167 7e3e 1cf7 9c3d
00000230: 1340 593e 1254 9e3e 37c6 163d cb31 94bd
00000240: 872f 1dbe 70ba db3d fff3 c73d 0933 8a3e
00000250: d792 80bd eae2 14be 59d5 91be fd60 d2bc
00000260: 806e 2c3e 9f75 893e 878f 6bbc 66e5 223e
00000270: 3041 32be 457f 5c3e 01ea 353e ec3f 65bd
00000280: b2ee b5bd ddad 873d 19e9 97bd d4eb 503e
00000290: 9849 60be b39d ee3d 4c82 0cbe 68c0 bb3b
000002a0: 264c 0fbe 3284 89bd ae0e f73d 565c ccbd
000002b0: 10bd 33bd 3a51 85be e160 94bc 5805 46bd
000002c0: 95c7 72be 301b 4ebe 624c c33d 1c46 7b3e
000002d0: b749 323e b0ef 273e e35a 8b3e 08c6 603e
000002e0: c7b7 113e 7039 01be cc21 8abd 8a19 7b3d
000002f0: 349f 61be a250 723d 7f13 193e b39d 14be
00000300: 87fe 483c de1a 3f3e 7078 0d3e f786 ca3d
00000310: 5dd0 46be 0445 393e c168 d2bd 5472 1e3e
00000320: 5755 9bbe 6dd2 d73d e031 263d 9df6 8b3e
00000330: 6c00 423e 85f6 8f3e 8807 06be b3b3 2e3e
00000340: fd2a cb3d 11aa 223e 2bb6 993e 110f 35be
00000350: 0cdd 453c 96ef 063e 6fe6 2ebe 1ca3 9e3e
00000360: 9ae9 4c3d 8f87 a0bd 7946 f7bc e17c f6bc
00000370: 62b6 1b3b e3ee 033e de97 00be 0945 0a3e
00000380: 694c b73d eee5 ff3b c0fe b73d f80b 903e
00000390: 0f8f 2cbe f1e8 74be e74a 3b3e 97f9 513e
000003a0: 93c8 f73d a2ea 6e3e 2b0d 58be 5987 8e3e
000003b0: 91e4 103e d2c1 e23b 6608 0b3e f34e 2a3e
000003c0: 8d59 a7bd 217a 323d 1643 ec3d 77b2 983e
000003d0: 2ba6 9abe 8a60 8ebe c6bf 19be 39f3 183e
000003e0: e3f6 463e 5faf c5bd 746f 593e 746e 173e
000003f0: 704c 113e 87b4 5abe 2506 9cbc d1cf ae3e
-0.22095329 -0.059500676 -0.15239656 -0.32259277 -0.021309055 -0.26153085 0.074649 0.17849743
-0.20082235 -0.25233126 -0.31558844 0.27002642 -0.14537963 -0.0123915505 -0.20872788 0.07491137
0.056663282 0.31186095 -0.15475543 -0.0045185853 0.08269892 0.021256797 0.23022877 0.17491074
0.21164715 -0.32798958 0.31811392 -0.1375728 -0.26908427 -0.18229632 -0.08817606 -0.24486068
0.031265654 0.025940754 -0.109478265 -0.23978642 0.28696033 -0.0139175905 -0.16050482 -0.17434499
-0.030767677 0.2473174 0.20955776 0.27155465 -0.027640795 -0.033424135 -0.2739798 0.1190335
0.29777977 -0.20096453 -0.01958947 0.0674939 0.11521731 0.049575098 0.049520325 -0.21709864
0.09091594 -0.24862443 -0.1895469 -0.27299762 0.26199237 0.06452298 0.07080048 0.28569177
0.012752578 -0.18712993 0.24098915 -0.20108117 -0.014741977 0.15402256 -0.21974234 0.25981542
-0.20241426 -0.042155217 -0.005715776 -0.2633711 0.10851481 -0.20590883 -0.19371064 0.27594084
0.2968529 0.27922654 0.044829637 0.22634445 0.32672796 0.12861149 0.1890519 -0.14114264
-0.29429874 0.36022308 0.14442007 0.18791431 -0.17832789 0.2807144 -0.17910992 -0.14545698
0.27044886 -0.09479415 0.08318573 0.1877206 0.17887717 -0.10637539 -0.23089282 -0.18080185
0.07784736 0.045523483 0.24107271 -0.18654451 -0.04611699 -0.068035 0.08118626 -0.32968304
-0.13351391 0.00030164447 0.34141168 0.09617406 -0.2587736 -0.056583934 0.18839544 0.14423166
0.07294638 -0.080798395 0.2052291 -0.15596785 -0.0874054 -0.26066014 -0.10545099 0.34255585
-0.06444585 -0.075441025 -0.034236304 0.23788203 0.04444045 0.24306884 -0.13900672 -0.034344357
0.16193327 -0.09144514 0.24844123 0.0766432 0.21215849 0.30923516 0.036810126 -0.0723606
-0.15350161 0.107289195 0.097633354 0.26992062 -0.062780075 -0.14539686 -0.28483084 -0.025681013
0.16839027 0.2684755 -0.014377481 0.15907821 -0.1740768 0.21532924 0.17765047 -0.055969164
-0.08883418 0.06624959 -0.07417507 0.20402461 -0.21903074 0.116511725 -0.1372158 0.0057297237
-0.13993892 -0.067146674 0.12063347 -0.09978549 -0.043881476 -0.26038533 -0.018112602 -0.04834494
-0.23708947 -0.20127559 0.09536053 0.24538463 0.17410932 0.16400027 0.2721778 0.21950543
0.14230262 -0.12619567 -0.067447275 0.061303653 -0.22033387 0.05915893 0.14948843 -0.14513282
0.012267715 0.18662593 0.13815475 0.09889024 -0.19415422 0.18092734 -0.102738865 0.154733
-0.30338547 0.105381824 0.04057491 0.27336589 0.18945473 0.28117767 -0.1308881 0.17060737
0.09920309 0.15885188 0.30021796 -0.17681529 0.012076627 0.13177332 -0.17080091 0.30983818
0.050027467 -0.07838356 -0.030184971 -0.030088844 0.0023759832 0.12884097 -0.12557933 0.13502897
0.08950121 0.007809392 0.089841366 0.2813413 -0.16851448 -0.23916985 0.18290292 0.20505367
0.12098803 0.23331693 -0.21098773 0.27837637 0.14149691 0.006920078 0.13577422 0.16631679
-0.08171377 0.043573502 0.11536233 0.29823658 -0.302049 -0.27808028 -0.15014562 0.14936532
0.19430117 -0.0965259 0.21233922 0.14788228 0.14189315 -0.21357928 -0.019045899 0.34142926

bias f4 [80]
00000000: be49 c03e 386a 5fbe 683a b5bc ebc0 323e
00000010: 586c 853e 7768 9dbe fa68 d9bd 2258 00be
00000020: b350 923e 809b f83e bc4b 523e 86bb d33e
00000030: bbe9 b93e ab55 84bd 2e16 d83e a08c 8bbe
00000040: 937c 87bd 2bc2 923e 8e32 ce3e 2918 92be
00000050: f197 18be 448a 9abd 00a2 c93e 6f1f bc3e
00000060: 8432 2fbe 0ab3 873e 0e4c 763e 299b dd3e
00000070: e039 793e 59a8 353c 1a20 573e 2a4c f93e
00000080: b4e0 ec3e b4bb 83be 401b a23e ac7f d23d
00000090: b5ff bf3e 0d71 a4bd 0701 aa3e 6fdd 30bc
000000a0: 6078 d73e d100 9a3e fedf 8fbe fa89 e43e
000000b0: 5e8a 243e c4ff c33e 6c33 a13e cbe0 e03e
000000c0: 3153 e63e 76ab c83e e7bf 16be 10e9 16be
000000d0: 6a03 673e 8f95 9bbd 40a3 983e 1c10 e33e
000000e0: cac9 973e 9829 803e fc30 36be 708a 933e
000000f0: 72ef fc3e 68d8 79be d2ff f63e f9a3 44be
00000100: 9215 27be 11ed aabd cbd3 0c3f 5195 b13e
00000110: 976f 7f3e 1ff0 8a3e af74 cd3e 6ce9 fcbc
00000120: d71b bc3e 7572 743e 7fab 93be fa21 6dbe
00000130: 4413 a73e 1a85 f0bd 3bd3 a83e b7b9 c6bd
0.3755626 -0.21817863 -0.022122577 0.17456405 0.26059222 -0.30743763 -0.10615726 -0.1253362
0.28577194 0.48556137 0.20536703 0.41354007 0.36311135 -0.06461652 0.42204422 -0.27255726
-0.066155575 0.28663763 0.40272945 -0.28534058 -0.14901711 -0.07545903 0.3938141 0.36742732
-0.17109114 0.26503783 0.2405245 0.4328244 0.24338484 0.0110875005 0.2100834 0.4869092
0.46265185 -0.25729144 0.31661415 0.10278258 0.37499776 -0.08029375 0.3320391 -0.010794981
0.42084026 0.30078748 -0.2810058 0.44636518 0.16068408 0.3828107 0.31484544 0.43921503
0.44985345 0.39193314 -0.14721642 -0.14737344 0.22559896 -0.075968854 0.2981205 0.44348228
0.2964614 0.25031734 -0.17792124 0.28816557 0.49401432 -0.24398959 0.4824205 -0.19203176
-0.16316822 -0.08345998 0.5501067 0.34684232 0.24944912 0.27136323 0.40128085 -0.030873023
0.3673999 0.23871787 -0.2884178 -0.23157492 0.32631886 -0.11744137 0.32973656 -0.09703391

weight f4 [40, 80]
00000000: cf0e 103e ad6b e23d 0db0 313d 8314 8a3d
00000010: 3928 f63d e45f 7e3c f165 59bc f8e7 32bd
00000020: 22cc b5bc 412e 8d3c cc3c 4ebc 6d50 de3d
00000030: 0a28 69bd 0fdb 95bd 71f2 823d 86dd 463d
00000040: b5ac cebd 48c7 65ba 71f6 7c3d 479c 5f3d
00000050: 85e6 bc3d ef01 98bd dd43 003e 383d e2bc
00000060: 5649 623d a131 29bc 63bf b63d cb79 843c
00000070: 1803 aa3d 6785 023b 134c 14bd 5972 c43d
00000080: b7b2 72bd ce5f d73d 53e1 583d 5822 313d
00000090: 71d6 aa3d 4e37 b63d 5421 fe3d 7f0b 95bb
000000a0: 233e 5c3d ead2 76bd 6f29 dcbd 6d12 8fbd
000000b0: 6d87 67bd eff7 6abd 8bd9 063e 245f 293d
000000c0: 6472 84bc e106 1abc e70c ee3b 9ffa b33d
000000d0: 35be 10bd d20a d3bd 84f9 053e 55bf d93d
000000e0: 63ed 27bd eb65 d8ba 263d e1bb 02c1 123d
000000f0: d74a f33d 4216 8f3b 3a8c c63d 0e24 5dbd
00000100: f57c d03c 1353 0bbb f7c3 82bd de21 6b3d
00000110: ec01 e53d 4217 023d 8891 dc3c 25d9 79bd
00000120: aa69 193d c603 4ebd 5782 cd3d 2942 0abd
00000130: ff30 04bd 05d6 563d 6b00 793c 57cd 903d
00000140: 5195 72bd 1c30 813d a2cb b53d 2a1b 55bd
00000150: bd24 f33d 104c 8dbd 43ad 83bd 74bf e4bd
00000160: cef4 3c3d d397 023d 86c9 863c 7335 c43d
00000170: 6951 83bd 669f 02bc 8b0b b2bb 4c34 a93d
00000180: 15b9 943b 17b5 16bc 91c9 f53d 1866 bc3d
00000190: 931c ac3d 1690 d63c 9908 903d a34a b23d
000001a0: a6ab b1bd 4e54 9b3a 2cd1 05bc 4dfb 3f3d
000001b0: 4470 b83d 20e3 913d 49af d83d defb db3d
000001c0: 89c3 c63d d154 213d 4396 92bd 58cd 30bc
000001d0: 76fb abbd b420 92bd 2d28 393d 1819 a23d
000001e0: 8c0d bfbd 2f52 c1bd 431e e33d 5264 a5bd
000001f0: 839a b63b 7129 f43c f813 3cbd eb53 9e3d
00000200: ec01 e73d 91cc 67bd f69f 73bb 0bc1 b4bd
00000210: 23e0 c03d b640 9bbc 1d33 fa3d e76e b13d
00000220: dcdf 92bd 88d6 743c 1d08 9a3d ef10 a9bd
00000230: d102 84bb ad1c 093b e300 193d c89d 8d3d
00000240: 55bc 983a 44c3 a9bc 7742 1cbd 01eb a0bd
00000250: 99a4 cdbb 15ea dd3c 78c3 bf3d b070 1b3d
00000260: 2d7f c3bd 170e 57bd 39b0 623b 9529 d23b
00000270: a6b3 b9bb 47af 9fbd 93be 86bd bbe6 c5bc
00000280: ead5 023e d165 3a3d 9bf3 85bc 7f5e 2a3d
00000290: 8625 cd3d 4e91 2a3d 33c1 1abd f889 e63c
000002a0: c0be 023e a604 fdba 03cf 18bd 8654 7fbd
000002b0: 9e13 7f3d 28e2 37bd f5a3 d8bb 4725 053d
000002c0: fb16 e7bb 0be2 ed3c 17dc 36bc 479e b3bb
000002d0: 4938 8abd 3099 aebd efb0 bb3d f870 fa3d
000002e0: 1d08 cebd b965 9d3c 7b05 923d 0756 44bc
000002f0: 7bdf e33b a6f9 c63d df14 0d3e 62a9 683d
00000300: 1c77 ac3c 050a 2f3c 242a ffba ba19 f6bc
00000310: dcfa 76bd d047 43bd 7c1f 17bc 645b 603d
00000320: f204 ae3d 27fe 893d 200e cc39 5dba 21bc
00000330: c736 a0bd 90af b93c 7348 5f3d cd94 23bd
00000340: aaa9 813d f129 a1bc 53c2 db3d d8d7 a8bd
00000350: cf15 fd3d 3f49 bbbd 0d3a 02bd dc94 df3d
00000360: 4f94 e13c 0f4a c0bc 8f37 dd3d efd9 1f3d
00000370: 931b c23c 8a3a 6bbc f0a1 d83d a580 9abd
00000380: 4caf b23d 27ae 583d 7bb4 6b3d 19d1 d1bc
00000390: c40a 6e3c aef4 1b3d 0462 123e 2090 dfbd
000003a0: bfb7 993d 899f a93d af88 50bd e090 593a
000003b0: 78db 553d f50a f43c 8c57 92bd b66e 5d3d
000003c0: 544f cb3d 1803 60bd decd b03d 070e edbd
000003d0: e34f edbc ecd0 febb bd15 b8bd df9f bebd
000003e0: d1d6 88bd 0182 3abd ab54 70bd e314 cebd
000003f0: 2cc1 a93d a9b7 113c e59e 953d 72a7 b3ba
0.14068149 0.11055694 0.043380786 0.067421935 0.120193906 0.015525792 -0.013268934 -0.043678254
-0.022192065 0.01723397 -0.012587737 0.10855184 -0.05692295 -0.07317173 0.06393898 0.048551105
-0.10091535 -0.0008765352 0.061758462 0.054592397 0.092236556 -0.07422244 0.12525888 -0.027617082
0.05524572 -0.010326774 0.08923223 0.016171357 0.08301371 0.001991594 -0.036205363 0.095921226
-0.059252467 0.1051632 0.05294926 0.043245643 0.08341683 0.08897267 0.124087006 -0.0045484896
0.053770196 -0.060259737 -0.1075009 -0.06985936 -0.056525636 -0.057365354 0.13168924 0.0413505
-0.016167827 -0.009401054 0.0072647217 0.087880366 -0.035337646 -0.10304798 0.13083464 0.10632197
-0.040997874 -0.0016509866 -0.0068737445 0.035828598 0.11879509 0.004366667 0.09694715 -0.053989463
0.02545021 -0.0021259233 -0.063850336 0.057405345 0.11182007 0.03176046 0.026924863 -0.0609981
0.037454285 -0.050296567 0.10034626 -0.0337545 -0.03227329 0.0524502 0.015197854 0.070704155
-0.05922443 0.06308004 0.088767305 -0.05202786 0.11872242 -0.068992734 -0.064295314 -0.11169329
0.0461319 0.031883072 0.016453516 0.09580507 -0.06412012 -0.007972574 -0.005433505 0.08261928
0.004538665 -0.009198449 0.12001336 0.0919916 0.084038876 0.026191752 0.0703289 0.08705642
-0.086753175 0.0011850686 -0.008167546 0.04687052 0.09005788 0.07123399 0.10580308 0.10741399
0.09705264 0.039387528 -0.071575664 -0.010791145 -0.08397572 -0.07135144 0.04520433 0.079149425
-0.09328756 -0.094395034 0.11089756 -0.08075775 0.0055726185 0.029804917 -0.04591748 0.0773085
0.112796634 -0.056591574 -0.0037174202 -0.088258825 0.09417751 -0.018951755 0.1221678 0.08663731
-0.07171604 0.014943726 0.07521079 -0.08255183 -0.004028656 0.0020921633 0.03735436 0.0691486
0.0011652807 -0.020722993 -0.038149323 -0.078573234 -0.006275725 0.027089158 0.093634546 0.037949264
-0.09545741 -0.05250367 0.00345899 0.0064136484 -0.0056671677 -0.077971034 -0.06579318 -0.024157872
0.12776914 0.045507256 -0.016351512 0.041594025 0.10016923 0.04164248 -0.037781905 0.02814196
0.12768078 -0.0019303754 -0.037306797 -0.062336467 0.062274568 -0.044893414 -0.006611342 0.032506254
-0.0070523 0.02903845 -0.011160872 -0.0054815146 -0.06749017 -0.08525312 0.09164607 0.12228578
-0.10060141 0.019213544 0.071299516 -0.011983401 0.006954131 0.097155854 0.13777493 0.05680216
0.02105289 0.010683541 -0.0019467515 -0.030041564 -0.060297832 -0.047675908 -0.009223815 0.054774657
0.08497037 0.06737929 0.00038920436 -0.009871093 -0.07822948 0.022666723 0.054512452 -0.03993683
0.06331189 -0.01967332 0.10730424 -0.08244294 0.12357675 -0.0914483 -0.031793643 0.109170645
0.02753654 -0.023472814 0.108016126 0.039026197 0.023694789 -0.0143572185 0.10577762 -0.07544068
0.087248415 0.05290046 0.057545166 -0.0256124 0.014528934 0.03807514 0.14295202 -0.109161615
0.0750575 0.08282382 -0.0509116 0.0008299481 0.052211255 0.029790381 -0.071456045 0.05406066
0.0992724 -0.05469045 0.08633016 -0.11574941 -0.028968757 -0.0077763703 -0.08988521 -0.09307837
-0.06681598 -0.045534138 -0.058674496 -0.100625776 0.08288798 0.008893886 0.07305697 -0.0013706519

bias f4 [40]
00000000: 2e77 6abc 5d0e 543d 8624 a3bc 3488 06bd
00000010: 014d 553d 764a 24bd 28ba 073e dad4 9dbc
00000020: 6c1e 8c3d 544e cf3d 901e b93d 955d abbc
00000030: 9ee2 c93c dd80 e23d 368f 2dbd ce71 60bd
00000040: 05dd de3d 2771 9dbc b62e 06ba 62f2 0abd
00000050: 8161 d6bd e19b d33d 3f1c 8bba b2b6 dd3c
00000060: a39d 0fbd c923 fb3d 8091 46bd de37 de3c
00000070: 467a 21bd b7c5 6d3d eecb 01bd b0ee 103c
00000080: edef 503d 931a a9bd 0f9b 863b 8280 523d
00000090: 4cf9 813d 0a2c 96bd e171 8b3b 836e 15be
-0.014310641 0.05177151 -0.019914877 -0.032844737 0.05207539 -0.040110074 0.13254607 -0.019266535
0.0684174 0.10122362 0.090390325 -0.020918647 0.024644192 0.11059735 -0.042372905 -0.054796033
0.10882 -0.019218994 -0.0005118655 -0.03392256 -0.10467816 0.10332466 -0.0010613276 0.027064655
-0.035062443 0.12262685 -0.048478603 0.027126249 -0.03942325 0.058049884 -0.031688623 0.00884597
0.05101006 -0.08257022 0.00410784 0.051392086 0.06346378 -0.073326185 0.004255519 -0.14592938

weight f4 [40, 80]
00000000: a4e6 a1bc 52e0 8ebd cb7e f3bd 2f6b cabd
00000010: 5bcd 15be 4aea 613d 803f b63d 5e2e adbd
00000020: 12ae 66be c799 20be 2a79 f4bd 1a4d 1abc
00000030: 3f51 aebd 80ec abbc ebaa 25bd 7792 843d
00000040: d720 883d 16f9 38be 73e9 2bbe 82c8 a13c
00000050: 00fa 5a3c bf01 913d 6e75 3fbe b88d 33bd
00000060: fb0c b23d 5414 4ebd 7cbe 43be 6893 e2bd
00000070: 4e2e 54be a1fb cd3d 7b66 a2bd 330e 10be
00000080: 5d1d 39be c545 b3bd fb94 79bd 67db 5bbe
00000090: 789a 50be e3e9 0d3d cf62 64be 420c 893d
000000a0: 5cce 6cbe de80 ecbd ab2a 033d 7d29 5dbd
000000b0: 1c72 7dbd d0f7 64be e414 0ebe e5a2 e1bd
000000c0: 9065 24be bae5 1dbe 0a53 5cbd 5150 a1bd
000000d0: 2ebf 4abe f6ca bc3d ea3e bebd bc60 14be
000000e0: ec63 0abe 14b4 6ebe b91c 6ebc dbb5 50be
000000f0: 6373 5ebe 57da dfbd 90ce fabd 131e 373d
00000100: 6225 983d 951c 573d 58e8 c0bd 0adc 12be
00000110: adaa 80be ed04 f8bc d798 54be 956a 883d
00000120: ea10 51be f8e8 81be c364 ab3d d293 debb
00000130: 1f1b 54be a40a 2c3d 2812 7abd d089 dabd
00000140: f685 11be ab36 c9bd 61d5 bf3d 034d 44be
00000150: 2ba6 6dbe a6cd bb3d ead7 b8bd 741b baba
00000160: 4e5e 69be 4cad 3bbe f990 78be 4d45 84bd
00000170: e849 11bc e909 1e3d 6df0 f8bc d8e3 92bd
00000180: f3c2 713d 29e8 7fbd 2592 2fbd f84e 0ebc
00000190: 01ad 8e3d a5b5 b6bd 1303 60be bd22 42be
000001a0: 92af 90ba 966c d9bc 626e 5dbe 9f5f 42bd
000001b0: 8cd8 71be 3aec d9bd fb73 43bd 6a54 9cbd
000001c0: 3bb2 51be 3340 b6bd df16 24be 4290 efbd
000001d0: d3a4 28be f22d 0dbd 1ace 5cbe 23ab ea3d
000001e0: 7539 2bbe aa91 32be 049e b1bd 61ea 0fbe
000001f0: 4c59 ebbb 5a7d 94bd ae31 85be 0cba 5bbe
00000200: b365 fabc 6a1b acbd c608 633d 547f d1bd
00000210: 436f d5bd c078 9abd 69a4 57be da22 57be
00000220: 02af 43be d439 8bbe 0491 243d 43df 08be
00000230: ea61 65be b619 963b eef3 02be 7471 dabd
00000240: 71ef fcbc afab 5b3d c965 43be 0bd3 40be
00000250: b469 40be 81a2 14bd 94a4 d7bd fc28 a13d
00000260: a758 29bd a3fe 0bbe 20dd ab3c e67b d63d
00000270: ce4c 60be 176d 08bc 416c f1bd a797 593d
00000280: bc9e fabd 944c cabd cb59 0c3d a502 15be
00000290: b1f9 69be 98af 34bd d7bd 73bd 8d21 0f3d
000002a0: 24bf 2dbe d546 39be a390 29be 9505 c8bc
000002b0: 2e4f 12be 71ce 85bc 1d82 5cbd dabd 4b3c
000002c0: 81a3 81bd 5edb 77be 692f 34be 82e2 cb3d
000002d0: d8dd e33d 43ba babd 4194 15be 7412 2dbe
000002e0: adcc 61bd c89c 61be f5dc f0bd 817d 39be
000002f0: baff 3dbe 9c54 e7ba 60f2 21be c665 c2bc
00000300: 8c1f 8abd bfdd fbbc 29ec 8dbd e428 ecbd
00000310: c2ea 72be f23f b0bd 8690 60be fa0a e7bc
00000320: 3ceb 6dbe 88d6 10be 0da6 3d3d 413b 32be
00000330: 154c b0bd 2447 66be 7a32 8fbe 5fa4 abbd
00000340: 834c e3bd 8a10 2bbe 6e0f b53d 97e0 e1bd
00000350: 201a 02be 09fc b43d 3857 f9bc cce1 69bd
00000360: ae55 67be 2aad 97be 71f3 92bd 1225 fbbd
00000370: b5e2 17bd 3185 d1bd 7984 bcbc c660 1cbd
00000380: c193 1cbd 4f2e b43d aab5 59be 7854 48be
00000390: 4617 85be d834 b8bd 707c e6bd a1f8 cd3d
000003a0: cd3b 4fbe 883d 2dbe 2e61 b13d 1625 26bc
000003b0: 72ad 3abe ed56 e1bd f20f 81bd 9e16 a63d
000003c0: 3d56 90bb 4814 dcbd 24e2 c03d 56ca c4bd
000003d0: 6f03 13be 3d96 2abc 4fc8 02bd c37d b6bd
000003e0: 2bde 2cbe d8bb e239 1e3a 2bbe 20f1 b7bd
000003f0: 6b87 8cbd 6dde 99bd 8638 36be 5c03 af3d
-0.019763298 -0.069763795 -0.11889418 -0.09883725 -0.14629118 0.055155076 0.088988304 -0.084561095
-0.2252734 -0.15683661 -0.11937173 -0.0094177965 -0.0851159 -0.020986795 -0.040446203 0.064732485
0.06646889 -0.18063769 -0.16788273 0.01974893 0.013365269 0.07080411 -0.1869714 -0.043836325
0.08693882 -0.050312355 -0.19115633 -0.11063272 -0.20720789 0.1005776 -0.07929703 -0.14067917
-0.18077607 -0.08753542 -0.060933094 -0.21470414 -0.20371425 0.03464688 -0.22303317 0.06691791
-0.23125595 -0.11548017 0.032023113 -0.053994644 -0.0618764 -0.22360158 -0.13875157 -0.11017398
-0.16054368 -0.15419665 -0.05379013 -0.07876647 -0.19799492 0.09218399 -0.09289344 -0.14490026
-0.1351468 -0.23310882 -0.014533215 -0.20381872 -0.21723704 -0.10930317 -0.1224643 0.044706415
0.07429005 0.052517492 -0.09419316 -0.1434175 -0.25130215 -0.030275786 -0.20761429 0.06660954
-0.20416608 -0.25373054 0.08368828 -0.006792524 -0.20713471 0.042002335 -0.06105247 -0.10670817
-0.14211258 -0.0982488 0.09366871 -0.19170003 -0.2320792 0.09170084 -0.09025557 -0.0014198855
-0.2278988 -0.18327826 -0.24274053 -0.064585306 -0.008867718 0.03858367 -0.030388081 -0.07172364
0.05902381 -0.062477265 -0.042863984 -0.00868582 0.069665916 -0.08921365 -0.21876173 -0.18958564
-0.0011038652 -0.026541036 -0.21624139 -0.047454473 -0.23617762 -0.1064076 -0.04771803 -0.07633288
-0.20478146 -0.08898964 -0.1602435 -0.11697437 -0.16469125 -0.034467645 -0.21562997 0.11458423
-0.16721137 -0.17438379 -0.08672717 -0.14054252 -0.007182276 -0.072504714 -0.26014465 -0.2145769
-0.030566072 -0.08403666 0.05542829 -0.10229364 -0.10421612 -0.075425625 -0.21058811 -0.21009389
-0.19109729 -0.27192557 0.04017736 -0.13366418 -0.22400633 0.0045807017 -0.12788364 -0.10666171
-0.030875893 0.053630527 -0.19081797 -0.18830507 -0.18790323 -0.03628779 -0.10529438 0.07869145
-0.04134431 -0.13671355 0.020979464 0.104728505 -0.21904299 -0.00832679 -0.11788226 0.053123143
-0.122373074 -0.09877887 0.03426532 -0.1455179 -0.22849156 -0.04411277 -0.059507217 0.034944106
-0.16967446 -0.18093427 -0.16559081 -0.024416724 -0.14288017 -0.01633379 -0.053835023 0.012435401
-0.06330014 -0.24204776 -0.1759621 0.09955312 0.11126298 -0.09117558 -0.14607336 -0.1690157
-0.055126835 -0.22032464 -0.11760894 -0.18114282 -0.18554583 -0.0017649117 -0.15815115 -0.02373017
-0.06744298 -0.030745385 -0.069298096 -0.11531237 -0.23722365 -0.086059466 -0.21930131 -0.028203476
-0.23234266 -0.14144337 0.046300936 -0.17405416 -0.086082615 -0.22488075 -0.27968198 -0.08380961
-0.11098578 -0.16705528 0.088408336 -0.11029165 -0.12705278 0.088371344 -0.030437097 -0.057100102
-0.22591278 -0.296243 -0.07175339 -0.1226293 -0.03708144 -0.10230482 -0.023012387 -0.038178228
-0.038226847 0.08797895 -0.21260706 -0.19563472 -0.2599432 -0.08994454 -0.11254203 0.10057188
-0.20237656 -0.16918004 0.08661114 -0.010140678 -0.18230227 -0.11002908 -0.063018695 0.08109783
-0.0044048117 -0.10746056 0.09418133 -0.09608905 -0.14356779 -0.010411796 -0.03192931 -0.08910706
-0.16881625 0.00043246034 -0.16721389 -0.08981538 -0.068617664 -0.075131275 -0.17795 0.085455626

bias f4 [40]
00000000: a275 20bd fd70 a0bb 6acc 07bc ee71 4dbd
00000010: d639 96b9 7dd8 17be 6caa d7bd 352b a3bd
00000020: bd18 85bd 0edd 55be f567 87bc 0557 01be
00000030: 5c98 f2bc a2e3 45be c810 ccbd b56f d1bd
00000040: 6ef0 89bd 3b8d 44be 0178 02be 3dc9 7dbd
00000050: 48ed 3bbe 09b8 58bd 99d7 2dbe 054b 54bd
00000060: 3fff a5bd 40b8 1abe 9190 38be d73c 7e3c
00000070: 485b 26be f902 76bd 6ca0 2bbe e88e ad3a
00000080: de7f 2abe 4c1b 7fbd 83eb b5bc 5c66 3cbd
00000090: f5de edbd 9dc5 d7bd ee66 18be 133e 32bd
-0.039174683 -0.0048962818 -0.008288482 -0.05015748 -0.0002865332 -0.14828677 -0.10530552 -0.079672255
-0.06498859 -0.20885107 -0.016529063 -0.12630852 -0.029613666 -0.19325116 -0.09964138 -0.102263846
-0.067353114 -0.191945 -0.1274109 -0.061959494 -0.18352234 -0.052909885 -0.16976775 -0.051829357
-0.08105325 -0.15109348 -0.18023898 0.015517435 -0.16245759 -0.06006143 -0.16760415 0.0013241442
-0.1665034 -0.06228189 -0.022207027 -0.045996055 -0.11614791 -0.105357386 -0.14883015 -0.04351623

weight f4 [80, 40]
00000000: cb37 d0bd 5c2d 1d3c 6b26 babd ddb7 513d
00000010: 5f4a 79bc 93be 983d fe90 b4bb ece3 18bd
00000020: b2d9 893d 4ad7 f8bd ac13 1cbe 17e3 a9bd
00000030: 6d4f 0c3e dda5 ea3d e76e f1bd 2a35 c73d
00000040: 92f1 5abd c261 763d 4db1 cebd 300a 0bbe
00000050: 128d 0abe cc88 83bd 7947 f63d 0145 053d
00000060: b59b e6bd 483f ef3d b039 53bd 19d1 01be
00000070: d4be a0bd 7b63 b0bd 982b 2cbd ba1b d0bd
00000080: 340a fe3d 7c7a 1e3d 5cea 0f3e da74 003e
00000090: 3407 9bbc f67f 37bd 96da 2e3d 0962 943d
000000a0: c015 eebd 48c9 1cbe bbee f1bd 0c62 123e
000000b0: 34ff b7bd 1fe7 473d a955 f7bd ef43 033e
000000c0: d5ee 42bd 6816 043e 9b0b 1abe 924e b9bd
000000d0: 78ae c9ba 0a9c 05be fee5 c03c 1a6d 533c
000000e0: bf9c 66bc 35a5 07be 054f 03be bb20 d33d
000000f0: 6b43 6b3d cc2f 84bd 9256 30bd 9b86 e1bd
00000100: 8c5b abbc b3d1 a6bd 9a8e a43c cfc0 1d3d
00000110: 699f 293d 807b c0bc 6862 4e3b 1661 fabd
00000120: 969b 633d 93ae 05be 9af2 d4bd 6747 b83b
00000130: dcd1 d1bc 5178 af3d be1d 4a3d e395 da3d
00000140: f308 babc 69ec 2f3d 5129 30be 363a acbd
00000150: 3adf babd 4b12 2f3d 50b4 9cbc ca48 3bbb
00000160: 483b 01be 9cd9 94bd 64b6 01be 668f 2dbd
00000170: f181 943d b786 043d b81a 2a3d 60ac b83d
00000180: 9778 9b3d ccec 91bd 83e2 d0bd 0103 cbbd
00000190: dde7 943d c97a 583c 388b 033d 883b 81bc
000001a0: 7ee8 073e 01e2 04be 3622 cfbd 941d 313d
000001b0: dbd8 a93c bf50 94bd e159 c53d fa96 a0bd
000001c0: 0e38 293c 713c e2bd 3b14 823d 86e0 3b3d
000001d0: e38e ebbb 58c7 503d 97b4 c1bd 77eb b1bd
000001e0: 1001 0c3e bbc8 c83d cfa0 603d 84b6 98bc
000001f0: fcd0 963d facd 7fbd c8d0 f13d 8cca 933d
00000200: ad2b 07be deb5 e9bd 4993 54bd 3d66 f4bd
00000210: e028 3c3b 675a eabd 64aa 863d 6ff9 febd
00000220: 2d01 8bbd 7c15 063e 1dff 983c eba9 613d
00000230: 2229 873d 2913 073d c06a 40bd 2fb7 b7bd
00000240: 78e6 c03d 1ea8 c5bd 8a33 003e e370 37be
00000250: 8c85 8f3d b2b4 bc3d 15a3 31bc 3eff 98bd
00000260: 3306 14be a6af 193d 16e7 d4bd 0ebf f43d
00000270: e416 89bd 8f35 f3bd ccd8 91bc 66a5 0c3e
00000280: f898 87bc 6905 bebd 9554 0f3d 60bb de3d
00000290: 0fd6 f5bd f56f a13d dd67 003e 9ab7 03bd
000002a0: 3c99 533c 4e02 dfbd e45d f03d 7b3c 153d
000002b0: b1c1 023d a11d 7abd fe2c 1abe 98f4 363d
000002c0: 6af6 de3d 606d 11bd c561 31be bfcf a9bd
000002d0: 620a c13d 24d3 4ebd 43fe 04be a8ff 703c
000002e0: eee8 9bbd 7f39 80bc b2bf de3d ae21 debb
000002f0: 5272 a93d 91a3 243d 9166 273d 7422 8b3d
00000300: b899 97bd da67 e8bc 6a09 12bd be78 533c
00000310: 1798 c7bc 1afd 27be 9c23 6f3d ee3f 23bd
00000320: b583 1c3e 77bf b03d 93fe afbc d2da 82bc
00000330: 3109 5dbd db59 9dbd ee0f d93c 5943 f1bb
00000340: 6b16 283d da9a 1ebe f80f 60bd fd75 12be
00000350: 1112 e6bd 4ff8 763d 7341 b8bd 6609 133e
00000360: 76b0 5e3b 0f22 1b3d b1ab bd3a afa9 97bd
00000370: d9c5 31bd 4337 b5bc db12 b0bd ca29 a33d
00000380: d088 813c 2c93 fbbd 8150 8abd daae e6bd
00000390: 4edd 4d3d 3c46 32bd 8b03 cb3d 6692 c53b
000003a0: 1580 523d fba5 4bbd dd49 ce3c f6d6 cfbd
000003b0: 79a9 babd cfd3 0d3d e428 4bbd c2c8 1f3e
000003c0: 449a cdbd baca 6bbb 5ac9 9a3d ed99 ddbb
000003d0: de94 ddbc cbbd f33c f7bf eebd 6a53 47bb
000003e0: 121b 32bc d88c 343d a46f 2cbe 879c 9abd
000003f0: 9c25 bb3d 4ea1 dcbd 15c3 15bd be0e 7e3d
-0.10166892 0.009593334 -0.09089359 0.051200736 -0.015215485 0.07458224 -0.0055104485 -0.03732674
0.06730975 -0.12150438 -0.15241879 -0.08295267 0.13702174 0.11457417 -0.11788731 0.09726937
-0.053453036 0.060151823 -0.10092411 -0.13578105 -0.13530377 -0.06422576 0.12025351 0.03253651
-0.112601675 0.11681992 -0.051568687 -0.1267742 -0.078488976 -0.086127244 -0.04203376 -0.101615384
0.1240429 0.03869103 0.14054245 0.12544575 -0.018924333 -0.044799767 0.04268893 0.07245261
-0.11625242 -0.15311158 -0.11813112 0.14295214 -0.08984223 0.0488044 -0.12076885 0.12818883
-0.04759105 0.12899172 -0.1504349 -0.09048189 -0.0015387079 -0.13047805 0.023547169 0.01290443
-0.014075457 -0.13246615 -0.12823112 0.10308977 0.05743734 -0.06454429 -0.04305131 -0.11012002
-0.020917676 -0.08145466 0.020087529 0.038513955 0.04141179 -0.02349639 0.003149176 -0.12225549
0.0555683 -0.13054876 -0.10397835 0.005623746 -0.025612764 0.085678704 0.04934477 0.1067312
-0.022709345 0.042950068 -0.17203261 -0.0840954 -0.09124608 0.042742055 -0.019128948 -0.0028577321
-0.1262027 -0.07268068 -0.12667233 -0.042373084 0.07251347 0.032355037 0.041529387 0.09017253
0.0759136 -0.071252435 -0.10199454 -0.09912682 0.07270787 0.013212868 0.03211519 -0.015775457
0.13272282 -0.12976839 -0.10113947 0.0432411 0.020733288 -0.072419636 0.09636284 -0.078412965
0.010328306 -0.110466845 0.06351515 0.04586842 -0.0071886643 0.05097136 -0.09458273 -0.086874895
0.1367228 0.09803911 0.05484086 -0.018641718 0.07364079 -0.062452294 0.118074 0.07216367
-0.13200255 -0.114116415 -0.051898275 -0.11933563 0.0028710887 -0.11443024 0.06575468 -0.124499194
-0.06787334 0.13094133 0.018676335 0.055093687 0.06599642 0.032977257 -0.046976805 -0.089704864
0.094189584 -0.096512064 0.1251966 -0.17914157 0.07007894 0.092141524 -0.010842104 -0.074705586
-0.1445549 0.037521027 -0.10395639 0.11950503 -0.06693819 -0.1187545 -0.017803572 0.1373497
-0.016552433 -0.09278376 0.034992773 0.10875583 -0.12003719 0.07882682 0.1253962 -0.032157518
0.012914952 -0.108891115 0.11736658 0.03643463 0.031923 -0.061063413 -0.15056226 0.044666857
0.108868435 -0.0355047 -0.17322452 -0.082915775 0.094258085 -0.05049433 -0.12987618 0.014709391
-0.07612787 -0.015652416 0.10876407 -0.0067789173 0.08273758 0.04019505 0.0408693 0.06793681
-0.074023664 -0.028369833 -0.03565351 0.012907205 -0.024364514 -0.16405144 0.05838357 -0.03985589
0.15284617 0.08630269 -0.021483695 -0.015973482 -0.053963844 -0.07683154 0.026496854 -0.007362765
0.041037004 -0.15488759 -0.05470273 -0.14302821 -0.11233915 0.0602954 -0.089968584 0.14359054
0.003397969 0.037874278 0.0014470724 -0.074054115 -0.043401573 -0.022121077 -0.085973464 0.07966955
0.015812308 -0.1228393 -0.06753636 -0.11263819 0.05025988 -0.043524012 0.09912785 0.006029415
0.05139168 -0.04971884 0.025181705 -0.101484224 -0.091143556 0.034625825 -0.049599543 0.15603927
-0.100391895 -0.0035978989 0.07557936 -0.006762734 -0.027048524 0.029753586 -0.11657708 -0.003041471
-0.010870712 0.04407963 -0.16839463 -0.075493865 0.09138033 -0.10772954 -0.036562998 0.062025778

bias f4 [80]
00000000: 666b c13c 6375 3a3d 9b10 a2ba 6868 3bbc
00000010: 902e da3d d3a6 de3d 239e 2bbe 4f83 f33d
00000020: ddd1 3c3d 4d38 983d 7586 993d f800 143e
00000030: 954f 74bd fed3 49bd 3a5f e43c f6c2 2a3e
00000040: 84f9 ef3d b6a0 d2bd eae7 9dbc 19c6 a1bb
00000050: b7c4 323d d3b6 553d 2ef4 ba3c 1399 ad3d
00000060: 1fb1 24be fbfd 6c3d 1e49 febb f61d a8bd
00000070: cd55 35bc b9c9 2c3d 51ad 30be dfa0 febd
00000080: 4ffa 863d 8d28 efbd 4151 e23d 7c17 64bd
00000090: 94e0 073e 026a 253d 563e b6bd 0198 31be
000000a0: 53d2 7f3c 3faa e53d f294 f0bc 031c a3bd
000000b0: 4e2b c9bd 5ddd 0ebd 765b 6fbd 3317 09bd
000000c0: 4ed7 2cbe 80cb c33b 0d38 1bbe 99b6 08bd
000000d0: 8f8b 25bc 58ba 093e 9d34 b7bd feb0 b13c
000000e0: 8018 683b e9a0 f6bd 8582 0fbd 9762 0c3e
000000f0: 2a17 fb3c a7e1 79bd 7961 a0bd e6cc e93c
00000100: df45 1fbd 4eac f8bd 1206 313e 17aa dc3d
00000110: d15e 2cbe c002 723b 7641 cf3d 74b0 13bc
00000120: d480 3dbe fed7 c9bd 1762 bfbd 4fec 71bd
00000130: 2640 0ebe bbeb 17be 8049 063e 214e 9bbd
0.023610782 0.045522105 -0.0012364568 -0.011438467 0.10653412 0.10871663 -0.16759543 0.118902795
0.04609858 0.074326135 0.07496349 0.14453495 -0.059646208 -0.049274437 0.027877439 0.16675934
0.11717513 -0.102845594 -0.019275624 -0.004936945 0.043644633 0.052176308 0.022821512 0.08476462
-0.16083191 0.057859402 -0.007760181 -0.082088396 -0.01106782 0.042184565 -0.17253615 -0.124330275
0.06590711 -0.11677656 0.11050654 -0.05568646 0.13269264 0.0403843 -0.088986084 -0.17343141
0.01561411 0.112141125 -0.029367898 -0.07964327 -0.09822713 -0.034879077 -0.058436833 -0.03346939
-0.16879007 0.005975187 -0.151581 -0.033377264 -0.010104074 0.13449991 -0.08945582 0.021690842
0.0035414994 -0.1204241 -0.035036582 0.13709484 0.030650694 -0.061006214 -0.078310914 0.028540086
-0.038884994 -0.121422395 0.17287472 0.107746296 -0.16833045 0.0036927909 0.101199076 -0.009014238
-0.18506175 -0.0985565 -0.09344881 -0.059063252 -0.13891658 -0.14836018 0.13113976 -0.07583261

weight f4 [5, 80]
00000000: 8b92 0ebd 4604 9bbd 713b aa3c def7 95bb
00000010: fd29 1bbd 0a56 c73c c6e1 9a3c 164b a83c
00000020: a6c2 3c3d f87b d9ba bc8e 09bd 2448 ab3c
00000030: 7b40 283d 010d 40bd 1d26 1f3c 5df8 eabc
00000040: 2e77 54bd 616e 55b9 8e6b 1d3d 87ab 613d
00000050: bbbf 24bd b900 d53c 36f4 02bb 113a 553c
00000060: dd32 86bc a51a 323d 84e1 0c3c 2ae9 0bba
00000070: fbd9 4b3c c9ee 133d e336 19bd 0c66 823a
00000080: 6e98 503d be64 88bc 382c c83c 22c5 e33b
00000090: e629 2bbd c25c 74bd 9e44 f23c a5b0 d33b
000000a0: 5732 d93c e6c8 c2bc bce7 46bb 7dd5 debc
000000b0: 75f9 673c 58f4 a53c bf36 023c 333c 363c
000000c0: 4b9a 46bb db45 93bd f3a7 12bd c6fb 203c
000000d0: 2486 f33c cfe1 90bc 28b1 72bc c3a1 6a3d
000000e0: 46de ecbc f765 9ebb 303b f03c 0f10 8f3c
000000f0: ee9f a8bc b123 86bb 3f10 b43b d435 4abd
00000100: b041 91bc 5298 073d bbc7 31bd 1881 a13b
00000110: 5df3 3bbd a56f 23bd 14bd b53c eb20 39bd
00000120: 0e4e 933d 0f55 9dbc c751 b43b 786f e2bb
00000130: 6eac a53b 160a a53c 48d4 0fba db23 8a3b
00000140: 5c05 923b fa8f 9ebd c849 673c 8f30 2ebb
00000150: 89ab 3bbc dd91 8dbd 7e0c 5a3b 75ab 953c
00000160: da63 38bd 524b 3bbc 0e1a 453d fa87 37bd
00000170: a33f 9d3c df75 4dbc 0186 85bd fe64 78bc
00000180: 8731 263d 3224 693d 40c2 743d c4d5 c1bb
00000190: 0184 743d 1c07 8e3d d229 34ba 7100 913b
000001a0: 0a39 163d 4f66 8cbd 8097 4bbb e72f 8c3c
000001b0: 7604 683c df68 983b d926 cbbb 0fcf f43a
000001c0: 919c 4f3c 0926 26bd 4e13 293d 44bc 6cbd
000001d0: d4b7 523c 6d91 b63c 4e9f 62bb edf2 25bc
000001e0: d409 73bd 17a0 39bd a782 153c b3b7 3e3c
000001f0: 3354 65bd d010 bcbc 44bb b5bc 0a8e 903c
00000200: 03a0 46bc 1411 8dbc f4bc a8bc 9e03 063c
00000210: 3453 c9bc 0085 323d a682 1cbd 9cce 2d3d
00000220: d495 583c d456 df3b 6c21 5f3c 7faa 3bbd
00000230: aad0 edbc 100a 47bd 7311 97bc 4e63 b6bc
00000240: ce97 db3c b9d4 8cbd 7c28 79bd 8c1e 713c
00000250: a0db f33c b322 11bd 6334 f6bc 62ea 49bd
00000260: 77c0 793d a665 88bc 9059 b13c 9909 52bc
00000270: 8aec 9bbd fe95 053b 1c60 b1bc 86c6 5bbd
00000280: d339 ed3c daee 113d 074d 8bbc 7c17 7a3c
00000290: 334b 57b9 4ec3 8c3d 56ed 2fbd 1a9a 22bd
000002a0: dd9f 3abc a88a 7b3c e2e9 793d e295 ed3b
000002b0: 920e 773d 8c6d f73b 1ec4 833c 0b6b bbbc
000002c0: f70d 59bd bf76 60bc 8650 8d3d 5c1b a93a
000002d0: 4278 31bd 8ce9 163d a890 0d3d da21 34bc
000002e0: f476 b4bc 65f5 773c e3c2 823c 5bb6 4abc
000002f0: 9d0a 98bd 993f 94bd 5eb4 b73c 1a72 0e3d
00000300: 9daa 5f3c 33bf babc 76d1 ae3b 89eb 323d
00000310: 1686 4fbd d56a 08bd 8d73 173d a865 4fbd
00000320: 235b 47bd 6e41 31bc 32dd 9d3a 669c 013b
00000330: a809 3a3d 65e6 cd3c 5ef9 39bd 1b68 083d
00000340: 4b6c cebc 9142 113d dec7 8b3c dd06 3c3d
00000350: 2407 773c 2347 e1bc 6a30 f03c dba1 88bd
00000360: e68f 2bbd 31a9 1fbc 31b0 e8bc 977d 1bbd
00000370: 5de8 2cbc 3e39 f5bb 5b36 f23c 2d91 453d
00000380: 1616 213c 9877 54bc 0e1b 0b3d 5c07 3d3d
00000390: 2604 6f3d 7a68 c6bc 30d3 56bd 50d4 933d
000003a0: 06d2 183d c621 ec3c cf13 8a3c 7114 993b
000003b0: 4924 993d b137 ea3c 53ff 3eba 916b da3c
000003c0: 118d 383c 5938 63bd 7f74 bf3c a045 cb3c
000003d0: bbe0 d73c 36d0 82bd 9858 d4bc 3ec3 3f3d
000003e0: d39f d8bb 4192 01bd 3346 cd3b efff 13bd
000003f0: 7cb9 773d a33c 593c fbb9 cf3b b9b0 193d
-0.034807723 -0.075691745 0.020780297 -0.004576667 -0.03788184 0.024333019 0.018906485 0.020543616
0.04608407 -0.0016592732 -0.033583388 0.020908423 0.04107712 -0.0468874 0.009713677 -0.028682882
-0.05187147 -0.00020354382 0.03843265 0.05509522 -0.04022191 0.026001321 -0.0019981987 0.013014332
-0.016381675 0.04348244 0.008598689 -0.00053371734 0.012442107 0.036116395 -0.03740586 0.0009948625
0.05092662 -0.0166496 0.024435148 0.0069509903 -0.041788004 -0.059658773 0.029573735 0.0064602667
0.026513262 -0.023777436 -0.0030350527 -0.027201409 0.014158596 0.020258114 0.007947623 0.011122751
-0.0030304368 -0.07191058 -0.0358047 0.009825652 0.02972705 -0.017685799 -0.014812745 0.057283174
-0.028914582 -0.0048339325 0.029325098 0.017463712 -0.020584073 -0.00409361 0.0054951007 -0.04936774
-0.017731518 0.03310425 -0.04340337 0.0049287193 -0.045886386 -0.039901394 0.022184886 -0.04519741
0.07192622 -0.019205598 0.0055029127 -0.0069102608 0.0050559556 0.02014641 -0.00054866495 0.0042157
0.0044562053 -0.07742305 0.014116712 -0.0026579236 -0.011454471 -0.06912587 0.0033271606 0.018270234
-0.0450171 -0.011431532 0.04812055 -0.04480741 0.019195383 -0.01254031 -0.065197 -0.015160797
0.040574577 0.056919284 0.059755564 -0.0059153754 0.0596962 0.0693495 -0.0006872687 0.0044251014
0.03667549 -0.06855451 -0.0031065643 0.017112685 0.01416122 0.0046511735 -0.0061996994 0.0018677431
0.012671606 -0.040563617 0.041278176 -0.05779673 0.012861211 0.022286141 -0.0034579816 -0.010128719
-0.059335545 -0.04531869 0.009125388 0.011640477 -0.0559885 -0.022957236 -0.022184022 0.017645855
-0.012123111 -0.017220058 -0.020597912 0.008179573 -0.024575807 0.04358387 -0.038210534 0.042433366
0.013219316 0.0068157706 0.013618808 -0.045816895 -0.029030163 -0.04859358 -0.018440938 -0.022264149
0.026805785 -0.06876511 -0.060829625 0.014716756 0.029767811 -0.035433482 -0.030054277 -0.04929579
0.060974564 -0.016650032 0.021649152 -0.012819671 -0.076134756 0.0020383592 -0.021652274 -0.053656124
0.028958237 0.035628177 -0.017004503 0.015264388 -0.00020532012 0.06873189 -0.04295095 -0.039697744
-0.011390653 0.015352882 0.061014064 0.0072505334 0.06031663 0.007550901 0.016084727 -0.02287819
-0.052991834 -0.013700186 0.06900124 0.001290183 -0.043327577 0.03684382 0.034561783 -0.010994399
-0.022029378 0.01513419 0.01596207 -0.0123725785 -0.07423899 -0.07238693 0.022424873 0.034776784
0.013651517 -0.022796249 0.0053350283 0.043681655 -0.050664984 -0.033305008 0.036975432 -0.050634056
-0.0486709 -0.010818822 0.0012044071 0.0019777059 0.045419365 0.025134275 -0.04540383 0.033302408
-0.025198122 0.035463873 0.017063078 0.045904983 0.015077386 -0.027499741 0.02931996 -0.066714965
-0.04188528 -0.009744928 -0.028404327 -0.03796157 -0.010553447 -0.0074836304 0.029566934 0.048234154
0.009831926 -0.0129679665 0.03396135 0.046149597 0.058353566 -0.02421974 -0.052447498 0.0721823
0.03730967 0.028824698 0.016855149 0.0046716263 0.07477624 0.028591009 -0.0007285971 0.02666262
0.011264102 -0.05547366 0.02337098 0.024813473 0.026352277 -0.06387369 -0.025921151 0.046817057
-0.0066108494 -0.03163362 0.006264472 -0.03613275 0.060479626 0.013259086 0.0063393093 0.03752205

bias f4 [5]
00000000: 4d82 133d 91f9 4a3d 0934 59bc ecb7 15bc
00000010: b8b4 80bd
0.036012936 0.04955441 -0.013257035 -0.009138089 -0.06284469
