final_project/mlruns/1/62a1202877a74ababffaaab96dda9ca6/artifacts/cvae_57/data/model.pth (torch, 48071 bytes, 10 tensors)

weight f4 [80, 10]
000000 70 3b 02 be e2 74 c7 bd f6 e6 1a 3d 66 cb 6a be
       -0.12717986 -0.097390905 0.037817918 -0.22929153
000010 4b a4 28 3e e5 94 09 3d ee 5c 81 3e a2 45 bb bc
       0.16468923 0.033589263 0.25266212 -0.022860352
000020 d5 00 1e 3e 17 74 18 3e 43 a2 8f 3e 06 ed e0 bd
       0.15430005 0.14888035 0.28053483 -0.10982709
000030 9a 33 89 be a6 4f 60 3e 68 3d 7f be 32 16 97 be
       -0.2679718 0.21905383 -0.24925768 -0.2950912
000040 7d 2e 15 3e b5 01 56 3e 11 aa 12 be 98 d8 8a 3e
       0.14568515 0.20899089 -0.14322688 0.27118373
000050 74 39 22 3e c5 e4 2a 3e 39 a5 1d 3e 8d 05 79 be
       0.15842229 0.16688831 0.15395059 -0.24318524
000060 2a 63 05 3d 85 05 9e 3e ef e7 13 be be 55 e5 3d
       0.032565273 0.30863586 -0.14443944 0.11197995
000070 c7 59 f9 3c 1f a2 71 3e 29 56 a1 bd a2 42 04 3c
       0.030438317 0.23597 -0.07877762 0.008072527
000080 43 3b 7e be 95 79 b0 3e ed 89 95 be 96 59 62 be
       -0.24827294 0.3446776 -0.29206792 -0.22104487
000090 b1 cb 16 3e b8 05 fb 3b 61 8b 79 be 1b f0 55 be
       0.1472614 0.007660594 -0.24369575 -0.20892374
0000a0 10 6a 4a bd da 24 fe bd 2c a1 ea 3d 03 f0 1b 3e
       -0.049417555 -0.12409373 0.11456522 0.15228276
0000b0 ec 22 1e 3d 92 ea 7a bc 63 73 2e 3b e8 55 ab 3d
       0.038607523 -0.015314715 0.0026619069 0.08365995
0000c0 6b fe 87 bd a3 db cc bd 99 94 b9 bd d6 7b 97 be
       -0.06640323 -0.1000283 -0.09061546 -0.29586667
0000d0 bf 70 70 be 05 92 46 be 20 7a 84 bd cf fb 82 3e
       -0.23480509 -0.1939164 -0.06468606 0.2558274
0000e0 d6 52 32 3d e0 d6 47 be 58 de 80 3e 89 5a 9c 3e
       0.04353603 -0.19515562 0.25169635 0.30537823
0000f0 b2 e4 32 3e 72 57 b0 bc 47 84 80 3e 97 d0 16 3d
       0.17470053 -0.021526072 0.2510092 0.03682002
000100 bc 16 67 3e e2 ca 3e 3d 18 cb 87 be 97 6a a1 bd
       0.22567266 0.046580203 -0.26522136 -0.078816585
000110 ee 28 2a 3d e6 29 5f bc e1 46 b7 bd 62 8c 22 3e
       0.04154294 -0.013620829 -0.08949066 0.15873864
000120 2f 89 18 3d 29 38 8b be 19 07 a1 3e 50 d1 96 bb
       0.037240203 -0.27191284 0.31450728 -0.0046025887
000130 28 b5 9c be 10 46 a8 3d b2 c3 83 bd d4 d8 87 3d
       -0.3060696 0.08216488 -0.0643381 0.066331536
000140 b5 8a b2 3d 7f a6 77 be 17 70 51 be fc 02 69 be
       0.087178625 -0.24184607 -0.20452915 -0.22755045
000150 42 7e 6b 3c 32 a2 26 be 7c 63 57 be 93 f2 81 3e
       0.014373364 -0.1627281 -0.21034044 0.25380382
000160 86 5c 67 be 59 d0 1a 3e 22 e4 97 be 3b 2b 85 be
       -0.22593889 0.15118541 -0.2966624 -0.26009545
000170 c1 a9 78 be e8 d0 59 be 88 1f 15 be fd 8b 7b bc
       -0.24283506 -0.21271098 -0.1456281 -0.0153532
000180 b4 80 9a 3e e0 48 b5 3c 97 8a a0 3e 28 59 5b be
       0.30176318 0.022129476 0.31355736 -0.21420729
000190 cd b0 82 3e af b7 85 be a6 96 62 bc f2 31 83 3e
       0.25525513 -0.26116702 -0.013829863 0.25624043
0001a0 1c 0a b9 3c fc a6 7f 3c 2e 8c 8b bd e4 87 81 be
       0.022587828 0.015603777 -0.068138465 -0.2529899
0001b0 61 89 68 be d7 41 01 be 00 c2 6f be c4 54 e1 3c
       -0.22708656 -0.12622772 -0.23413849 0.02750624
0001c0 86 22 5a 3e 3d 2f 6b 3d 5a f4 af bc f0 2c 5a bc
       0.21302232 0.057418097 -0.02147882 -0.013316378
0001d0 14 85 cf 3c 54 f8 56 3e dd f3 53 3e ab 51 ab bd
       0.025332011 0.20993167 0.20698495 -0.08365186
0001e0 25 33 d7 bc f6 f8 2b be 5b 96 f0 3d 90 ce a2 bd
       -0.026269505 -0.1679419 0.11747428 -0.07949555
0001f0 b3 7f 65 3e 8b 6f 5d 3e 6b e8 19 3e b4 e6 15 be
       0.22411995 0.21624582 0.15030067 -0.14638788
000200 23 52 80 3c 90 0c 5a 3d 96 73 51 3e c2 ae a7 3e
       0.015664166 0.053234637 0.20454249 0.32750517
000210 30 c8 ae 3e ce 4e 13 be 70 7b 6c 3e d0 10 0f 3e
       0.34137106 -0.1438553 0.23093963 0.13971257
000220 73 78 e1 bd 5d 14 8b be 0b 5e 08 3e 44 94 19 be
       -0.11009302 -0.27163973 0.13317125 -0.14997965
000230 08 3d 5e 3e 10 20 5a be 21 c2 22 3d f3 9f 2f 3e
       0.21702969 -0.21301293 0.039735917 0.1715086
000240 2a 9b 25 be 9b 34 86 be b6 21 16 be ed 2e 71 3e
       -0.16172472 -0.2621201 -0.14661297 0.23553057
000250 f6 3d 81 3c 21 bd 8b 3d b1 1a 99 3c 4c 72 01 bc
       0.015776616 0.06823183 0.018689485 -0.007900786
000260 bf e3 bb 3c 1b 0a 9e 3e f4 cb 0d 3e 48 68 54 3e
       0.022935746 0.30867085 0.13847333 0.20742905
000270 27 51 be 3d d3 64 84 be 03 17 8c be 7c 12 25 be
       0.09292822 -0.25858173 -0.27361307 -0.16120332
000280 6b 7b 9c bd 2e a3 86 3e 0f 75 3d be 97 08 4d bc
       -0.076407276 0.2629637 -0.18501686 -0.012514255
000290 9b 85 6b be c8 64 83 3e 76 1b 0c 3e ff ae 08 be
       -0.23000185 0.25662827 0.1368235 -0.13348006
0002a0 f5 f0 40 be 9d dc 00 3e 86 ec a2 bd 97 2b 66 3d
       -0.18841918 0.12584157 -0.079552695 0.056193914
0002b0 4f 24 4d 3e c7 52 f2 bd 5d 81 71 be f9 bc 89 3e
       0.20033382 -0.11832195 -0.23584504 0.26901987
0002c0 03 e2 2c 3e 3f 1e 7e be 82 ae 14 be 30 62 8b 3e
       0.16883092 -0.24816225 -0.14519694 0.2722335
0002d0 7b fe 25 3c 2a 75 45 3c 61 b8 1d 3d a9 fd 17 be
       0.010131474 0.01205186 0.038505916 -0.14842857
0002e0 e4 96 9b be 19 f2 55 be e8 f6 0f 3b 43 2e 58 3e
       -0.30388558 -0.20893134 0.0021967236 0.21111397
0002f0 e7 39 87 3e 58 ee af bd 3e 1a 6e 3e 36 f7 c9 bd
       0.26411363 -0.08590382 0.23252198 -0.09861605
000300 3a 10 87 be ce f5 64 3e 97 08 b4 bd 3a d8 7b 3e
       -0.26379567 0.22359392 -0.08790701 0.24594203
000310 d5 22 86 3d e7 86 17 be d1 10 1c 3e 3d cd 1a 3e
       0.065496124 -0.14797555 0.1524079 0.15117355
000320 9d 20 7e 3d 63 4c 29 3e 6d c6 5b bc d9 84 fe bd
       0.06204282 0.16533045 -0.013414008 -0.124276824
000330 e6 b2 9a 3a 8b 3e a2 bd 60 5d 2d 3e 30 c7 a4 3a
       0.0011802583 -0.079220854 0.16930151 0.001257157
000340 bd d3 7c 3e e2 29 7e be ae 12 5b bd d8 ae 99 3e
       0.24690147 -0.24820665 -0.05348461 0.30016208
000350 c4 70 be bc 31 bf 57 bd 6e 33 06 3e 8d e8 ec 3d
       -0.02324713 -0.05267257 0.13105556 0.11567793
000360 af 3d ff 3d 46 53 cd 3d 5d b7 ff 3c 0f 82 70 3d
       0.12462937 0.10025649 0.031215364 0.058717784
000370 a2 d4 57 3e 95 8c 07 be 70 e8 53 be b0 18 33 be
       0.21077207 -0.13237222 -0.20694137 -0.17489886
000380 9e 52 7d 3e 69 fb 1d be 34 50 b3 bc ee 6b 46 3e
       0.24738547 -0.15427937 -0.02188883 0.1937711
000390 46 b3 97 3e 5d 03 c3 3d 01 bb 83 bc 25 14 a8 bd
       0.29628962 0.09522126 -0.016080381 -0.08206967
0003a0 8f 94 24 be 20 0c 7b be a9 35 07 3e 36 8c 28 be
       -0.16072296 -0.24516344 0.13204063 -0.16459736
0003b0 8a ee d5 bb 7f fc 3f 3e 87 88 e7 bd 38 8a 74 be
       -0.00652868 0.18748663 -0.113053374 -0.23880851
0003c0 31 6c 45 3d cc ff 02 3d f5 59 0f bd 9f 19 0f 3e
       0.048198882 0.03198223 -0.0349979 0.13974617
0003d0 56 7c 7e bd 7c a6 78 be cc 8d 39 be 68 76 29 be
       -0.062130295 -0.24282259 -0.18120497 -0.16549075
0003e0 18 f0 1a be 7e 23 3f 3e 6e 94 b0 3e 6b 79 24 bd
       -0.15130651 0.18665883 0.34488243 -0.040154856
0003f0 9b 1a a4 bd 77 09 5b 3e e4 a8 84 3e 13 0e 63 3e
       -0.08012887 0.2139033 0.25910103 0.22173338

bias f4 [80]
000000 19 7c 9a be c9 a3 f4 3e c2 db f8 3e 92 07 b2 ba
       -0.30172804 0.47781208 0.48605162 -0.0013582578
000010 72 0e 02 3f 25 c1 8f be c8 0c b7 3e 3a a2 e6 3e
       0.5080329 -0.28077045 0.3575194 0.45045644
000020 98 bf b6 3e 45 78 13 be 5e f5 e8 3e af c6 28 be
       0.3569305 -0.14401348 0.454997 -0.16482042
000030 ff 47 8b be c4 3e ee 3e ed ed 45 be f1 a2 64 be
       -0.27203366 0.4653226 -0.19329043 -0.22327782
000040 96 8e 9e be 5f 82 5f bd e6 44 e1 3e 07 63 11 3f
       -0.3096816 -0.05456769 0.43997878 0.5679173
000050 74 56 f6 3e bf 60 93 3e 1e 64 f8 bc 73 b5 c0 bd
       0.48112833 0.2878475 -0.030321177 -0.09409609
000060 4d c4 9e be b2 3d a7 3e 67 7a 53 be 67 fb 86 be
       -0.3100914 0.32664257 -0.20652162 -0.2636368
000070 d6 66 aa 3e f3 55 5f bd 14 e3 61 be 70 06 ad bd
       0.33281583 -0.054525327 -0.2205928 -0.084484935
000080 dd 4b a4 3e ed 8d af 3e 3e 55 ca bc 2e d0 20 be
       0.3208913 0.34287968 -0.02469885 -0.15704414
000090 66 25 98 be 21 1e 59 bd f8 6a fe bc 27 04 fc 3e
       -0.29716033 -0.05300725 -0.031056866 0.49221918
0000a0 fa 73 ee bd 3d 78 eb 3e 87 26 68 3e 42 a6 e3 3e
       -0.116432145 0.45990172 0.22670947 0.44462782
0000b0 ce 9d d0 3e b7 dd 3c be b3 8a ba bd 0f 70 45 be
       0.40745395 -0.18443953 -0.09108486 -0.19281028
0000c0 3c 88 56 be 51 01 d7 3e ac 8a 8f 3e 05 f4 fd bd
       -0.20950407 0.41993192 0.28035486 -0.12400059
0000d0 66 7b 36 be 2c 5c 99 3e de 16 c0 3e b8 db fb bd
       -0.1782051 0.29953134 0.37517446 -0.122977674
0000e0 f9 d4 9b be 12 ac c8 3e af 3f 5a be 0b fd d9 3e
       -0.30435923 0.3919378 -0.21313356 0.4257587
0000f0 d3 db 95 3e 9f 84 57 3e 3b 77 8f 3e 31 52 dc 3e
       0.29269275 0.21046685 0.28020653 0.43031457
000100 4d f5 12 be 81 20 2b be d7 1d c6 3e 21 ac c2 3e
       -0.14351387 -0.16711618 0.3869464 0.3802195
000110 7b 5b 97 be bf b1 cf 3e 6f 48 5e be cc 84 1e be
       -0.29561982 0.40565297 -0.21707319 -0.15480345
000120 93 13 f3 3e aa dc b8 3e 76 68 95 3e 30 9a ee 3e
       0.4747587 0.36105853 0.2918126 0.4660201
000130 2d 37 8b be be 00 50 be b5 48 77 be 5c 5e b9 3e
       -0.27190533 -0.20312783 -0.2414883 0.36204803

weight f4 [40, 80]
000000 91 d9 e3 bc f2 2b 2a 3d 56 80 b6 bd cc a1 2a bd
       -0.027813705 0.041545816 -0.08911197 -0.041658208
000010 48 8a 76 3d d6 69 e2 3d bf 5e cc 3b e8 3c 0f 3d
       0.06019047 0.11055343 0.0062368806 0.034970194
000020 b6 96 88 3d 96 19 ab bd 77 92 a2 3d bc 90 0c 3d
       0.06669371 -0.083544895 0.07938092 0.034317717
000030 3f fa 31 3d e4 45 69 3d ba 4d da 3d 85 25 3d 3d
       0.043451544 0.05695142 0.106593564 0.04617836
000040 c5 62 32 bb 0c e0 51 bd d0 ea b2 3a f0 a1 b6 bd
       -0.0027219516 -0.05123906 0.0013650302 -0.08917606
000050 5d e2 e2 bd 86 60 1b 3d eb 02 b0 bd 3d 82 91 3c
       -0.110783316 0.03793385 -0.085943066 0.017762298
000060 68 aa d7 bd dd 9a db bb 56 b6 27 3d 81 10 fc 3c
       -0.10530549 -0.0067018108 0.040945373 0.030769588
000070 f4 b4 8b 3d 04 b0 1f bc 17 fa 4f bd 82 ac d0 3d
       0.068216234 -0.009746555 -0.050775614 0.10189153
000080 22 55 dc bd f1 f3 bc 3c d2 ac 98 bc cf 3b 9e 3d
       -0.10758425 0.02306554 -0.018637095 0.07726251
000090 51 0e bb 3d 0c 9e 91 3c 5e 78 00 bd 63 ed 59 bd
       0.0913359 0.017775558 -0.03136479 -0.053204905
0000a0 63 0a 84 bc bf f1 9c 3b 4f c8 d7 bc 66 10 ce bd
       -0.016118234 0.0047895606 -0.026340632 -0.100617215
0000b0 a0 be b3 bd 8f 8a ab bc ef 9d d8 3d 99 8e a3 bd
       -0.08776593 -0.020940093 0.105769984 -0.07986183
0000c0 a5 6b 77 bd 74 50 50 bd 0b b2 dc 3c ac 19 c6 3d
       -0.060405392 -0.050857976 0.026940366 0.09672865
0000d0 9c 1d da bc d9 86 6f bc 96 e9 d1 bd 7e 66 9b 3d
       -0.026625447 -0.0146195525 -0.10249631 0.07587908
0000e0 83 14 dc bd 5c 8c c2 bd 0c 6c a1 bc 24 8c ec bd
       -0.107461 -0.09499428 -0.019704841 -0.11550167
0000f0 44 d8 83 bd 09 c2 a0 bd 47 1f db bd db fe fc bc
       -0.06437734 -0.07849509 -0.10699325 -0.030883243
000100 e9 84 60 bd df 76 53 bd 33 a6 e2 3c f9 77 e3 3c
       -0.054814253 -0.051627036 0.02766714 0.027767168
000110 7e 9f e1 3d 1e 46 19 bd f4 11 16 3d e0 14 16 3d
       0.11016749 -0.037420385 0.036638215 0.036641
000120 58 e4 b7 bd 55 7e d5 3d 27 8b f0 3a a1 86 6a 3d
       -0.089791 0.104244865 0.0018352018 0.0572573
000130 2c a7 46 3c 25 b8 e3 3d a6 f5 50 3d 1a 07 af 3d
       0.012124818 0.11119107 0.05101552 0.085462764
000140 b2 3d 89 bd 6b 9b fd bc 2b ec 90 bd 99 d7 a5 bd
       -0.067012206 -0.030957898 -0.070762955 -0.080977626
000150 7c f0 0c bd b4 09 2a 3d 9f 84 8a 3d af a3 63 bc
       -0.03440903 0.04151316 0.06763577 -0.013894006
000160 b6 02 b5 bc 5a 45 d5 3d a1 b7 5d 3d d2 05 a0 bd
       -0.02209602 0.104136184 0.0541302 -0.0781361
000170 96 b0 62 bd dc 47 16 bd 4f 7b 94 bd 65 85 de 3d
       -0.055344187 -0.036689624 -0.07250082 0.10865287
000180 54 d5 2d 3b 1d c8 21 3c 91 5e 99 bd 12 00 95 3d
       0.0026524859 0.009874371 -0.0748874 0.07275404
000190 e1 4b 6c bd 00 a8 0b 3b bf 69 94 3c c7 a1 a0 bd
       -0.05768955 0.0021309853 0.01811683 -0.078433566
0001a0 f8 94 93 3d 6f ce c4 bb 78 3c 36 bd 0d 54 49 3d
       0.07206148 -0.006006054 -0.04449126 0.049152423
0001b0 ba 67 bc bd c9 8e 22 3d a3 e5 85 3d b9 5d 5f bd
       -0.09199472 0.03968695 0.0653794 -0.05453274
0001c0 ba fa 0f bd e8 04 5d 3d 3a 30 34 3c 50 75 04 3d
       -0.03515122 0.053959757 0.010997826 0.03233844
0001d0 9c 0f 89 3d db d3 96 bd a7 f4 c9 3d 2e 6b 9a 3c
       0.066924304 -0.07364627 0.09861117 0.018849935
0001e0 9c 98 d9 3d ad 50 3b 3c 23 d6 7f ba 0c 86 0b 3d
       0.10624811 0.011432809 -0.0009759387 0.034063384
0001f0 58 34 ae 3d 21 65 6f 3d fc cf df 3d 8c 9e cc bc
       0.085060775 0.058446053 0.10928342 -0.024977945
000200 19 fe bd 3d b1 ee 52 bd c1 e9 f0 bd 5f 77 f1 bc
       0.09276981 -0.051497165 -0.11763335 -0.029475866
000210 68 c2 ca bd 40 c2 01 bd 7b 65 59 3c c2 e0 60 3d
       -0.09900361 -0.03167939 0.013268824 0.054901846
000220 92 b0 51 bd 47 e7 b8 bd 7b d1 9b 3d c8 73 2d bd
       -0.05119378 -0.09028488 0.076083146 -0.042346746
000230 3f db 01 be 82 db 97 bc 16 46 9b 3c b5 72 c6 bd
       -0.12681292 -0.018537287 0.018954318 -0.096898474
000240 00 5b 3a bd 79 64 92 3d 13 9d c2 3c 71 6f 80 3d
       -0.04549694 0.0714807 0.02375654 0.06271256
000250 06 d5 53 bd 99 27 88 3d 96 ce d6 3c 38 0d ab 3d
       -0.051716827 0.06648178 0.026221555 0.08352131
000260 dd da 4e bd c2 6a e1 bd 50 a4 99 bd 4e 13 5f 3d
       -0.050501693 -0.110066906 -0.07502043 0.05446177
000270 71 c9 cb 3d 97 60 b3 bd c5 1a 70 3d ef 98 15 bd
       0.09950531 -0.087586574 0.05861928 -0.036522802
000280 34 de 86 3c 70 90 e4 3d 01 f8 7a bd 99 77 a8 bc
       0.016463377 0.11160362 -0.06127167 -0.020564841
000290 01 b2 32 bc 17 29 b9 3d cc 2b bb 3c 29 0e 03 3e
       -0.010906697 0.090410404 0.022848032 0.1279837
0002a0 40 df 73 bd 05 7c 83 3d f9 ed 60 3d 20 87 3e bc
       -0.05953908 0.06420139 0.05491445 -0.011628896
0002b0 78 fd 97 bd 30 74 4f bc 47 ee 35 3d ac 17 74 bd
       -0.07421392 -0.012661979 0.044416692 -0.059592888
0002c0 8a d5 87 3b df 1b 6e 3d 9a d5 f4 3d 0d 89 f4 bc
       0.004145329 0.05813205 0.11954804 -0.029850507
0002d0 8d f3 3b bd 58 b4 2b 3e e3 5d d3 3b bd 11 b2 bd
       -0.045886565 0.16768014 0.006450401 -0.086947896
0002e0 cb 26 b5 3d 07 e7 3b bd fe 33 9e 3d f4 da 8a 3d
       0.0884529 -0.04587462 0.077247605 0.06780043
0002f0 a2 11 ea bc 74 51 36 bd 3d 08 0d bd 78 ee d1 bd
       -0.028572861 -0.044511274 -0.034431685 -0.102505624
000300 64 7c 2e 3d f6 4c 05 3c 55 48 56 3d d5 0b d4 3d
       0.042599097 0.008136025 0.052315075 0.10353819
000310 6f 93 c2 3d db 8c ae bc d9 af 97 3c 8f 5a 1a 3e
       0.09500777 -0.0213074 0.018516468 0.15073608
000320 be 42 cc 3d 43 9c ab 3d 62 8c 5f 3d 2f 6d 89 bc
       0.099736676 0.08379414 0.05457724 -0.016775696
000330 0b 15 76 bd 88 1f ae 3d 49 c4 af bd 43 6e b4 3c
       -0.060078662 0.08502108 -0.0858236 0.022025233
000340 aa 7d c5 bd ea ad 41 3c 29 46 f8 3d b4 a3 62 39
       -0.09643109 0.0118212495 0.12122757 0.00021614024
000350 97 b5 af bd b3 87 a2 3d 8b 8b 16 bd 64 78 bb 3d
       -0.085795574 0.07936039 -0.036754172 0.09153822
000360 45 e8 a4 bd ca cd 0f 3e c7 0d 98 3c 72 33 74 3d
       -0.080521144 0.14043346 0.018561257 0.059619375
000370 fe b4 0b bd 4f 1e 1e 3e b2 ca ca 3c 17 3e 13 3e
       -0.034108154 0.1544125 0.024754856 0.14379154
000380 ba 98 b6 3d 81 33 93 3c a4 48 2d 3d ba f9 12 3e
       0.08915849 0.017968895 0.042305604 0.14353076
000390 16 7e c7 3d a4 69 c0 bc 35 4d 91 bd 08 a7 93 3d
       0.09740846 -0.023487873 -0.07094804 0.07209593
0003a0 78 25 23 3d 73 44 fa bc a6 6d d5 3d e4 81 85 bd
       0.039830655 -0.030550217 0.104213044 -0.06518915
0003b0 b8 24 85 bc 4e 90 d6 bd cf 9d af bd 0b a0 7e 3d
       -0.01625286 -0.10476743 -0.085750215 0.062164348
0003c0 e7 71 c1 bd 7f d2 d1 bb fe df a3 bd 6c 8e 97 3d
       -0.09445553 -0.006403267 -0.080017075 0.07400212
0003d0 e5 fe 28 bc 8c 51 7d bc c2 e6 27 bd cc 89 01 3d
       -0.010314678 -0.015461337 -0.040991552 0.031625554
0003e0 2c d9 70 3d b3 1f a6 bd d4 bf af bc cf e9 0a bc
       0.05880086 -0.08111515 -0.021453775 -0.008478596
0003f0 e2 e4 06 3d 05 27 96 3d 53 d6 46 3d 75 b8 8f 3d
       0.032933123 0.07331661 0.04854424 0.07017604

bias f4 [40]
000000 7d f9 ba 3c 9b 7d d7 bd 5a 73 56 bc e2 f5 76 bc
       0.022824043 -0.10522004 -0.013089025 -0.0150732715
000010 49 0c 4a 3d b5 87 7b bc 15 ae 55 3d 39 2d 1e 3d
       0.049328122 -0.015352179 0.05216797 0.038617346
000020 a4 28 8f 3c 1f 16 43 3d 8b e4 ac 3d ca 54 fd 3d
       0.017475434 0.04762852 0.084420286 0.12369688
000030 be a4 a8 bd 4b c4 a4 bd f5 ea 8c bd 7c c1 31 3d
       -0.08234547 -0.080452524 -0.06880752 0.04339741
000040 17 1e 17 bc d6 4d 2b bc e9 e5 6c 3d 94 52 3d bd
       -0.009223483 -0.010455569 0.057836447 -0.04622133
000050 85 a6 a0 bc 33 c0 e1 bd 18 13 83 3c f6 18 b4 bd
       -0.019610653 -0.11022987 0.016000316 -0.087938234
000060 fb 3c 31 3b 63 d1 a5 bd b2 19 09 be 49 a1 0d 3e
       0.0027044404 -0.08096578 -0.13388708 0.13831057
000070 1e 39 8a 3d b3 64 c8 3d 37 05 43 3d cb ff c7 3d
       0.067491755 0.09784832 0.047612395 0.097655855
000080 be fb 6a bd d6 b2 1f be ec 14 e8 3c 3b a1 9e 3c
       -0.057368986 -0.15595564 0.028330289 0.01936399
000090 90 9e 2f bd 1e 30 36 bd 45 f8 65 3d e7 a2 c8 3d
       -0.042875826 -0.044479482 0.05614497 0.09796696

weight f4 [40, 80]
000000 f0 0b 21 3d 37 13 e6 bb eb 32 03 be a1 38 d1 3d
       0.039318025 -0.0070213336 -0.12812392 0.10215879
000010 a3 a0 11 be 45 9c 3e 3d 83 b3 12 bd 8b 67 ff bd
       -0.14221434 0.04653575 -0.035815727 -0.12470921
000020 ec 2b 5b be bc fb c3 3d d5 76 4c be d9 58 9d 3d
       -0.21403474 0.09569499 -0.19967206 0.07682962
000030 11 5a b1 bd 1d b9 c5 bd f0 72 76 bd 78 b4 39 bd
       -0.08659757 -0.09654448 -0.060168207 -0.045338124
000040 dd 37 13 3c cb e2 b7 3d fb 8b ba bc 44 76 4b be
       0.008985487 0.08978804 -0.022771826 -0.19869334
000050 2f f3 1e be bf 9d 32 be b9 c5 46 3d 89 12 22 bd
       -0.15522455 -0.17442988 0.048528407 -0.039568458
000060 8f 8f 32 3d 90 ae 8f bd c7 bb 2a 3d c6 9f ce 3d
       0.04359394 -0.07015717 0.041682985 0.10089068
000070 14 9a 83 be ee 13 86 bd 34 52 98 bd 7a 26 b9 3d
       -0.2570349 -0.0654677 -0.07437554 0.09040542
000080 74 b2 66 be 0f 7b d9 bd e2 e3 97 bd a5 5f 45 3c
       -0.22529012 -0.10619175 -0.07416512 0.012046729
000090 8f 95 06 bc a3 b0 cb bd 81 f3 a8 3d cd 81 4f be
       -0.0082143685 -0.099458 0.0824957 -0.20264359
0000a0 22 9a ce bc 52 9c d6 bd ef 6a c6 bc 54 2b 95 bd
       -0.02521998 -0.104790345 -0.024220912 -0.07283655
0000b0 63 7d c0 bd 48 f1 c9 3d 06 3f 15 bd 62 f3 12 bd
       -0.093989156 0.09860474 -0.036437057 -0.03587664
0000c0 fb 3b dd 3d 79 52 9e bd 76 25 48 be 95 1e 58 bd
       0.10802456 -0.07730574 -0.1954554 -0.05276354
0000d0 ea 78 88 bd 06 99 34 be 39 b2 62 be d8 1f ac 3d
       -0.066636875 -0.17636499 -0.22138299 0.08404511
0000e0 8f 49 23 3d 78 ab 2c be 41 ac 42 3d 59 0a fc bd
       0.039865073 -0.16862285 0.047527555 -0.12306661
0000f0 be 4b 80 bd 82 21 a4 bd 07 fd 53 be 0e ff 66 be
       -0.06264447 -0.080142036 -0.20701991 -0.22558233
000100 66 ed dd 3d 00 d1 81 bd 00 b6 42 be a9 58 19 be
       0.10836296 -0.06338692 -0.1901474 -0.14975227
000110 f4 16 9b 3c 67 98 5b be 44 d0 8b bd 93 af a0 bd
       0.018931843 -0.21444856 -0.06826833 -0.07845988
000120 7a b1 14 be ca ea 1d bd 0f 8e 01 be 3b 8d 49 be
       -0.14520827 -0.03855399 -0.12651847 -0.19682781
000130 7a d9 05 3d b3 71 96 3c d9 0d 2e 3c 34 81 b8 bd
       0.032678105 0.018364763 0.010623419 -0.090090185
000140 6a b3 36 3d 61 20 4d be 8d 83 af bd c2 6d bf bb
       0.044604696 -0.20031883 -0.08570013 -0.0058419416
000150 54 1d c5 bd e2 cd 55 3d ec 2a ee bd e7 74 1d be
       -0.096247345 0.0521983 -0.116292804 -0.15376626
000160 8d 24 e2 bd 26 83 b1 3d 05 73 54 bd 17 cc e2 bc
       -0.11042128 0.08667593 -0.051867504 -0.027685208
000170 7c 27 b1 bd 9d 23 b4 bd b9 b3 98 bb a6 21 25 bd
       -0.08650109 -0.08795855 -0.0046600965 -0.040315293
000180 3b d2 bb bd 91 74 ab bd 68 7f c8 bd 36 a7 17 be
       -0.09170958 -0.08371843 -0.09789926 -0.1480988
000190 77 47 32 bb 95 a0 46 be 1b da 8d bd 6d d6 66 3d
       -0.002720324 -0.19397195 -0.06926366 0.056356836
0001a0 76 94 82 bc 8c 45 96 bd 3a ad 1a bd 11 71 a7 3d
       -0.015939932 -0.07337484 -0.037762858 0.081758626
0001b0 92 0e 53 be 30 94 b6 bd 30 79 23 3c 07 0f 9e bd
       -0.20611027 -0.08914983 0.009977624 -0.0771771
0001c0 41 f1 70 be da 05 4b be 11 34 13 bd be 38 58 3c
       -0.23529531 -0.19826451 -0.035938326 0.013197122
0001d0 fe e4 d4 bd 6b d6 8e 3d 63 64 88 3d 15 bc c5 bd
       -0.10395239 0.06974491 0.06659772 -0.096550144
0001e0 bc e5 70 bd a4 aa 1b be 5f 7a eb bc 81 41 ab bd
       -0.05881284 -0.15201813 -0.028744875 -0.08362103
0001f0 7f 2d c3 bd bd ba d8 3d df db a1 3d 30 7e fd 3c
       -0.09530162 0.105824925 0.07903265 0.03094396
000200 27 ba 38 3b 74 6c f7 bd 47 09 0a be e8 87 6b bd
       0.0028187127 -0.12081233 -0.13480102 -0.057502657
000210 88 86 d0 3d 82 e9 ea bd 14 12 2c be 7d be 6e bd
       0.1018191 -0.11470319 -0.16803771 -0.058287133
000220 05 bc a5 bc 02 74 2d be 4b de a9 3c ef 3a 5a bd
       -0.020231256 -0.16938785 0.02073588 -0.05327886
000230 40 ec 00 be cd 5e ea bd 1b 0a 08 be 1a d4 43 be
       -0.12590122 -0.11443863 -0.13285105 -0.19123879
000240 c6 d2 a6 bc 19 c4 26 3d 6f 3a b8 bd c0 c1 e2 bc
       -0.020364176 0.040714357 -0.0899552 -0.027680278
000250 ef 54 d4 bd 18 fe fd bd 92 f1 d0 bc 34 e8 4e bc
       -0.10367762 -0.1240198 -0.025505815 -0.012628604
000260 dc 8d f0 bc e8 52 68 be 7a 7c 4b bd 9f 3f 62 bd
       -0.029364519 -0.22687876 -0.049679257 -0.055236455
000270 81 36 da 3d eb e0 d1 bd ab 54 58 3d fd b7 c4 bd
       0.10654927 -0.10247978 0.05281512 -0.096054055
000280 a0 3c c7 bc 67 7e 22 be 7f c5 d8 bd e6 75 eb bd
       -0.0243209 -0.15868531 -0.105845444 -0.11497097
000290 cb 16 3d be c9 59 e1 bd cc d7 f9 bc 75 55 00 be
       -0.18465726 -0.11003453 -0.030498408 -0.125326
0002a0 4f 75 65 be 83 ba d7 3d 5d 30 41 be e8 1f b0 bd
       -0.22408031 0.10533621 -0.18866105 -0.08599836
0002b0 bd b6 73 bd 4a 9e 0f be 5f 17 d9 bc fb 04 3a bd
       -0.059500445 -0.14025226 -0.026500402 -0.045414906
0002c0 f7 32 be bd 50 1e 21 3d 13 fc df bd 3c 63 bf bd
       -0.092870645 0.03933555 -0.10936751 -0.09345099
0002d0 30 d5 09 bd e2 dc 59 be ed 7a a2 3d 6c 4d ae bd
       -0.033650577 -0.21275666 0.079336025 -0.08510861
0002e0 6b 28 22 3d fb 95 24 be 4b e3 9f bd 97 9b b8 3d
       0.039589327 -0.16072838 -0.078070246 0.090140514
0002f0 d4 62 6e be 8b b1 23 3c 9e c3 c9 3d 17 a8 05 bc
       -0.23279887 0.00999106 0.09851764 -0.0081577515
000300 df 20 f2 bd d1 a9 52 be f4 56 5d 3d d5 36 a3 3c
       -0.11822676 -0.20572592 0.054038003 0.019923607
000310 0a 66 84 bc 87 4c 37 bd f6 b0 80 bd f3 fe 24 bd
       -0.016161937 -0.044750717 -0.062837526 -0.0402822
000320 ec 76 ef 3b 57 28 4d be f4 59 01 be 77 8d 7f bc
       0.0073078778 -0.2003492 -0.1263197 -0.015597693
000330 06 24 40 be 7b 40 0f 3d 67 2a 30 3d a8 f6 9a bd
       -0.18763742 0.034973603 0.043009188 -0.07566577
000340 d4 f1 07 bd 00 81 77 bc 0c e0 f1 bc a3 02 9b 3d
       -0.03318961 -0.01510644 -0.02952578 0.07568862
000350 55 53 35 bd dc 15 78 be c3 c3 3f be cf 79 3f bd
       -0.044268925 -0.24227089 -0.18727021 -0.046747025
000360 41 92 da 3d b1 13 1b be 0e 47 50 bd ec 68 47 be
       0.10672427 -0.1514423 -0.050849013 -0.19473618
000370 5c cd 1b be 5b 09 55 be 55 fd 34 be b2 29 16 be
       -0.15215057 -0.2080435 -0.17674764 -0.14664343
000380 a4 2e 49 bd a9 77 e6 3c 00 ed d0 bd b3 37 7c 3c
       -0.049116746 0.02813323 -0.10201454 0.015394139
000390 21 75 91 3d 7c 8e e0 bd cd ad 8b 3d 65 8a bc 3c
       0.07102419 -0.10964677 0.06820259 0.02301521
0003a0 a8 ca b8 bd 1a 6f 53 be d4 4f 6b be 7e 60 3e bc
       -0.090230286 -0.2064785 -0.22979671 -0.011619685
0003b0 30 de 4a 3d ac 8a 9c 3d e9 ed de bd 19 8c 3a be
       0.0495283 0.07643637 -0.108852215 -0.18217506
0003c0 12 b8 5d 3d 1a 59 03 be 57 35 08 be 57 ec aa 3c
       0.05413062 -0.12826958 -0.13301598 0.020864649
0003d0 f8 e4 8b bd 3c 3f 8e bc 5c f5 cb bd 34 21 96 bc
       -0.06830782 -0.017364137 -0.09958908 -0.01832638
0003e0 25 25 6b be 8c fd 04 3d 23 30 f0 bd b1 e9 95 3d
       -0.22963388 0.032468364 -0.11727931 0.07319964
0003f0 b7 da 99 3c 5e ea f9 bd c7 11 a5 3d bd 7d 6d bc
       0.01878105 -0.12202905 0.080600314 -0.01449531

bias f4 [40]
000000 9f d0 25 be 5c 1d c8 bd 22 be df 3a 30 6b 83 bd
       -0.16192864 -0.09771225 0.0017070214 -0.06416929
000010 27 ad a6 bd f4 24 1b be 0c 57 e7 bd b5 53 4c bd
       -0.08138495 -0.15150815 -0.112959 -0.049884517
000020 39 8f 36 bc d1 87 8e 3a 69 43 2a be 71 e5 d1 bd
       -0.011142545 0.0010874217 -0.16627277 -0.102488406
000030 d0 0f 3b be c5 87 f4 bd fc 20 26 3a 35 93 18 be
       -0.1826775 -0.119399585 0.00063373125 -0.14899905
000040 ee af 3a be 59 ca 29 be 06 de 19 bd 54 3a d9 bd
       -0.18231174 -0.16581096 -0.037565254 -0.10606828
000050 78 c5 16 be 04 02 1d be 51 75 06 be a3 74 aa bd
       -0.14723766 -0.153328 -0.1313069 -0.08323028
000060 d2 0c 6e bb 1a 39 db bd 8a e6 d8 bc 4d b8 dc bd
       -0.003632356 -0.10704251 -0.026477117 -0.1077734
000070 bc 4d e8 bd 00 8b 7b bc e5 16 cc bd 0d 90 a2 bd
       -0.11342952 -0.015352964 -0.09965304 -0.07937632
000080 5d d2 b0 3b 60 44 14 be d7 e6 99 bd 84 ba 79 bd
       0.005396171 -0.14479208 -0.07514732 -0.06096889
000090 d1 e3 11 bd fc e9 30 be 1d 40 bd bd c8 f3 00 be
       -0.035617653 -0.17276758 -0.09240744 -0.12592995

weight f4 [80, 40]
000000 66 90 e4 bd 00 63 36 3d 6d f9 e4 3c 5d 24 83 3d
       -0.11160354 0.044528008 0.027950967 0.0640342
000010 1b 16 05 3e 56 a0 62 3d 5f f0 d6 3c 2d 52 0e 3d
       0.12996714 0.05532869 0.026237665 0.034746338
000020 b3 55 f5 3d f9 b2 93 bd aa 3f 0a 3e 44 fd e0 3c
       0.119792365 -0.07211871 0.13500848 0.027464516
000030 fb 92 94 bd dd 12 8b bd a9 c9 14 be 2b 29 f6 3d
       -0.07254597 -0.06790707 -0.14530052 0.12019571
000040 bc 00 63 bc 5e d8 2d 3d cf 21 f4 3d c1 2c de bd
       -0.013855156 0.042442672 0.11920511 -0.1084838
000050 44 4d 96 3c e8 ca ac 3c ac f7 83 3d 55 21 1c be
       0.01834739 0.021092847 0.06443724 -0.1524709
000060 f0 8f 4e bc 47 38 64 bd cf a8 0e 3e 1d 8d 82 bd
       -0.01260756 -0.055717733 0.13931583 -0.063745715
000070 42 26 b4 3d 3a ce 73 3d 99 57 0a 3d 57 d9 a9 bd
       0.087963596 0.059522845 0.033774946 -0.082934074
000080 70 27 11 3c ea 4d 24 3d 80 cf 61 3d a1 92 52 bd
       0.0088595 0.040113367 0.055129528 -0.051409367
000090 88 23 81 bd 86 90 fd bc 7f 8b 97 3c e3 e9 8b 3d
       -0.06305605 -0.030952703 0.018499134 0.0683172
0000a0 ee 2e 4f bd 7b d7 1d 3e 7b 1e a2 3d af a0 f6 3c
       -0.050581865 0.1541423 0.0791597 0.030105917
0000b0 fb 15 11 bd 89 4b 48 3d c3 f5 db 3c df f4 ff bd
       -0.035421353 0.04890016 0.026850587 -0.12497877
0000c0 4e bf dc bd c8 1e 86 3d 6e dd 02 3e c0 f9 43 38
       -0.10778676 0.0654884 0.12779781 4.672422e-05
0000d0 d7 c3 83 3d 20 64 02 be b2 a7 25 3c 36 66 b8 3d
       0.06433838 -0.12733507 0.010110782 0.0900387
0000e0 86 6e 4c bb 3f c6 95 3c 62 fd 56 bd 71 f8 54 bd
       -0.0031193807 0.018283008 -0.05248774 -0.051994745
0000f0 1e ad 24 bb 71 d8 03 3e 8b 06 a9 bb b0 64 82 3c
       -0.00251276 0.12875535 -0.0051582507 0.015917152
000100 cd 82 a9 bd de c3 2c 3d d7 58 06 3d b1 18 79 bd
       -0.082769014 0.04217898 0.032799568 -0.060814563
000110 1e 30 54 ba 23 92 b3 3c cf 9b 78 39 ff a7 83 bd
       -0.0008094328 0.02192027 0.00023709166 -0.06428527
000120 15 e1 32 3d 6f be d4 bb 13 b5 a9 bd 51 2d 11 3b
       0.043671686 -0.006492428 -0.0828649 0.0022152255
000130 c8 6e 90 bd 8d d3 35 3d 93 29 42 3d 09 5b bd bd
       -0.0705238 0.044391204 0.04740293 -0.09245879
000140 47 4b ea 3d a7 ba 0c 3d eb b4 ad bd a6 6f 54 3c
       0.11440139 0.034357693 -0.08481773 0.012966072
000150 c7 ca 41 3d 46 52 54 bd 0f 22 c0 3d 4b 40 95 bd
       0.047312524 -0.051836275 0.09381496 -0.072876535
000160 78 c5 82 bb d5 0e a4 3d 28 73 d5 3d 8e d5 09 be
       -0.0039908253 0.080106415 0.10422355 -0.13460371
000170 81 76 33 3d 74 16 c5 3d a4 8b 7c 3d 28 5a c0 bd
       0.043814186 0.09623423 0.06165661 -0.09392196
000180 dc bd 32 3d 58 67 13 3d f6 3f 75 bd 21 44 18 be
       0.043638095 0.03598723 -0.05987545 -0.14869739
000190 cd 35 e5 3d f3 7b 11 3e 10 83 a0 3c f0 6c e1 bd
       0.11191902 0.14207439 0.019593745 -0.11007106
0001a0 0d 2a e5 3c be 2e 7c 3d 05 05 a6 3d 04 54 c0 bd
       0.027974153 0.061568014 0.08106426 -0.09391025
0001b0 4b 30 8c bd 30 78 c9 3d 2a 14 2a 3d b1 8c 5c 3d
       -0.06845149 0.09837377 0.041523136 0.05384511
0001c0 c1 be 06 be b6 71 6f 3d 70 e9 fc bd 3e c0 06 3e
       -0.13158704 0.058458053 -0.12349212 0.13159272
0001d0 21 f1 f0 bd c5 3e 06 be d7 c9 9d bd 65 26 bf 3d
       -0.11764742 -0.13109882 -0.077045135 0.09333495
0001e0 89 97 7b 3d c3 55 d9 bc ff 41 ce 3d e9 58 42 bd
       0.061423812 -0.026530152 0.100711815 -0.047448073
0001f0 b0 76 1e be 76 07 6a bd f5 b1 07 bd 1a 30 f0 bd
       -0.15474963 -0.05713602 -0.033128697 -0.11727925
000200 00 41 8e bd 5f ef a9 bd 96 61 16 3e 17 35 a3 3d
       -0.069459915 -0.082976095 0.14685664 0.079691105
000210 16 fe 08 3c 40 6f e8 3c 34 ea 81 bd ed 97 b6 3d
       0.00836136 0.02837336 -0.06343499 0.08915696
000220 9d 9c 33 bc 85 9b e1 3c a7 9e 5b bd 06 2d cc bd
       -0.0109626325 0.027539978 -0.0536181 -0.09969525
000230 3b 11 51 bd 8f 8c 37 bd bf e3 d8 bc 76 c7 b7 3d
       -0.051041823 -0.04481178 -0.026475785 0.08973591
000240 18 6c 1f bd 7b a4 b7 3d dc 75 6c bd 4d 59 a9 3d
       -0.038921446 0.08966919 -0.057729587 0.08268986
000250 ae 0f 44 bd 8d 88 cf bd 8d a9 07 3d 4a 08 8b bc
       -0.047866516 -0.10133467 0.03312068 -0.016971726
000260 7c ab a3 bc 12 b4 97 3d 8d 07 bc 3d a7 2e 1b be
       -0.019979231 0.074073926 0.09181128 -0.15154515
000270 bc b2 45 3d cd 47 ed bc 3e 98 1f 3e cb 0a 86 bc
       0.048266158 -0.028964901 0.1558542 -0.016362568
000280 25 94 e6 3b 3b 8e 1c 3b 1f 35 df bd 38 48 75 3d
       0.007036703 0.0023888487 -0.10898804 0.059883326
000290 89 51 db bd 64 60 77 bd 65 02 0d 3e e4 d2 8d bd
       -0.10708911 -0.06039466 0.13770445 -0.0692499
0002a0 96 ea d4 3d d7 12 d0 3d 33 bd 1b bc ec e1 eb 3c
       0.10396306 0.101598434 -0.009505558 0.028794251
0002b0 8a be 44 3d 4d 65 d7 bd 1f 5d 80 bc 33 84 47 bc
       0.048033275 -0.105173685 -0.015669404 -0.012177515
0002c0 67 6e 2a 3c de 8d 08 be 18 94 02 be f7 fc c4 bd
       0.0104022985 -0.13335368 -0.12751806 -0.09618562
0002d0 13 98 e2 bc b7 de 8a 3d 32 dd 10 3e d8 ee 90 bd
       -0.027660405 0.06780761 0.1414688 -0.07076806
0002e0 b7 cb 74 bd bc ab 71 3d 58 2d be 3d 4e 67 d2 bd
       -0.05976459 0.05900167 0.092859924 -0.1027361
0002f0 1d ff f8 3d f5 5e 3c 3d 61 10 00 3e d1 8a a5 bd
       0.12158034 0.045988996 0.12506248 -0.08083118
000300 61 fa 92 3a d0 08 80 3d 52 48 95 bc f4 2e bf 3c
       0.0011213535 0.06251681 -0.018222962 0.023337819
000310 78 c9 14 3a 67 bd 98 3d 49 00 95 bc 25 03 9f 3c
       0.0005675773 0.07458001 -0.018188613 0.01941068
000320 78 ce 80 3d da e6 51 3d 7f ac b1 bd 0f 9a 36 bd
       0.06289381 0.051245548 -0.08675479 -0.044580515
000330 b6 92 6d 3d ac fe 3b bc e3 e1 df 3d 08 f6 ae bd
       0.058001243 -0.011474293 0.10931756 -0.085430205
000340 14 d1 f1 bd 15 bd b3 ba c7 14 a7 3d e3 d0 5d 3d
       -0.118074566 -0.0013712967 0.0815826 0.054154288
000350 48 16 07 be dc e3 c0 3d ef 55 da bd 64 96 29 3d
       -0.13192093 0.09418461 -0.10660922 0.04140319
000360 36 85 1e 3e 55 cc 17 be fd e4 63 3d d8 c2 0a 3e
       0.15480503 -0.1482404 0.055638302 0.1355089
000370 24 7f 36 bc c3 d1 0f bd 93 5b 81 bd c4 c9 28 3d
       -0.011138711 -0.035112154 -0.063162945 0.041208044
000380 02 d7 c9 bc 84 1a 9b 3d f4 a9 4d bb 4e 1d f7 bc
       -0.024638657 0.07573417 -0.0031381818 -0.03016534
000390 f0 26 58 3d 5e c3 31 bd 48 82 6e 3d 45 3d 18 be
       0.05277151 -0.043399207 0.058229715 -0.14867122
0003a0 88 be ac 3c bb 41 d2 bd 4d f4 a7 3d 65 22 b3 3d
       0.021086946 -0.10266443 0.082008936 0.087467946
0003b0 fe 4c 8d bd ab 9d 8a bd 1e 85 d3 bc 9b ed 00 bb
       -0.06899451 -0.06768354 -0.025820311 -0.0019672874
0003c0 2c d9 8d 3d 53 d4 8e 3c e9 e7 ff 3c 9e 70 d5 3d
       0.06926188 0.017435228 0.031238513 0.10421871
0003d0 e5 a6 83 bd 64 36 73 3b 05 18 ed 3d ce 9e c2 bd
       -0.06428317 0.0037111277 0.11576847 -0.09502946
0003e0 a8 a4 ae 3d 34 11 59 3d 4e 6c 08 bd ba 77 f4 bd
       0.085274994 0.05299492 -0.033306412 -0.119368985
0003f0 2d 58 27 3d 57 f1 ba 3d 57 ad 31 3d ae 30 9d bb
       0.040855575 0.09128063 0.0433782 -0.004797063

bias f4 [80]
000000 98 92 ee 3d a8 60 1e 3e 55 39 af bd 5e 5d c3 bc
       0.11649054 0.15466559 -0.08555857 -0.023848232
000010 d7 3c 0b 3c 85 79 e7 bd 93 e1 2a bd 5d b1 91 3d
       0.008498392 -0.11302475 -0.04171903 0.071139075
000020 f8 81 e3 bb 35 78 28 be 78 8c 22 bd 37 f4 0a 3c
       -0.0069429837 -0.16452105 -0.039684743 0.008481077
000030 e5 13 c7 bd 43 f3 a3 3d 83 81 20 bd d6 c6 f2 3d
       -0.097205915 0.08005383 -0.039186012 0.11854331
000040 cb 70 b6 bd ee e7 fa bd 82 7e 98 3d 58 fb a7 3d
       -0.08908232 -0.12251268 0.074460045 0.08202237
000050 c7 88 29 3e c0 f5 a8 bc 68 ad 8e 3d 00 c8 66 bd
       0.16556083 -0.020624995 0.06966668 -0.05634308
000060 69 90 b6 bd a4 ca fb bd 5a 36 d3 bd 38 53 c2 bd
       -0.08914263 -0.1229451 -0.10313101 -0.09488529
000070 bb 9f 0a be d1 bf cb bd 72 b0 77 3c 23 e8 09 be
       -0.13537495 -0.099486955 0.015117751 -0.1346746
000080 db ca 02 bd 62 a8 fe 3d 8a 8f bc 3d 88 0c bc bd
       -0.03193174 0.1243446 0.092070654 -0.09182078
000090 53 e4 aa bd 33 b5 c5 bd ee b5 31 3d 1c 01 44 bd
       -0.08344331 -0.09653702 0.043386392 -0.04785262
0000a0 7f e8 9e 3d 98 32 40 bc dc ab 25 be 83 58 c4 3d
       0.07759189 -0.0117308125 -0.1617884 0.09587195
0000b0 54 3e 15 3d b4 ac e6 bc 44 f9 ec 3c 0d 26 e5 3d
       0.036436394 -0.028158523 0.028927453 0.11188898
0000c0 32 8e aa bd a3 1c 11 bd ff 95 3e bd 74 f3 9e 3d
       -0.08327903 -0.0354277 -0.046529766 0.07761279
0000d0 a0 c7 ed bd 40 2c 0d be 4d 77 c0 3d ee 92 81 3c
       -0.11610341 -0.13786411 0.09397755 0.015817132
0000e0 b2 ea 37 be 50 5d 90 3c b2 2d 3f bd a0 c1 18 bd
       -0.17960623 0.01762262 -0.046674438 -0.03729403
0000f0 f1 c8 c7 bd 1c ff 17 be c7 ad 52 bd d9 1f 09 be
       -0.097551234 -0.1484341 -0.05143526 -0.13391055
000100 24 e9 95 3d a6 11 26 be db 6b a5 bd 03 74 ea bc
       0.07319859 -0.1621767 -0.080772124 -0.028619772
000110 97 3d 8f bd 6d 0a 84 3d 79 7e 26 bd 37 b1 e2 bd
       -0.06994169 0.06447301 -0.040647957 -0.11068957
000120 3b f7 09 3e 12 7c 07 3e 46 f3 76 bb f9 c1 d6 bd
       0.13473217 0.13230923 -0.0037681623 -0.10486216
000130 28 32 cc 3d 20 f2 95 3c d3 8d 71 3c 23 85 8f bd
       0.09970504 0.01830393 0.014743286 -0.07007816

weight f4 [5, 80]
000000 c2 1d bc 3c 6d d9 3f 3d bf 47 73 3d 4c 2d cd 3c
       0.022963408 0.046838213 0.059394594 0.025046013
000010 c8 2b 90 3d 5f 91 9c 3d 83 1f 02 bd 43 71 36 3d
       0.070396006 0.07644915 -0.031768333 0.04454161
000020 b5 02 c1 bb 9f 78 13 bd 23 22 ac bc 83 7c f4 bb
       -0.0058902153 -0.036003705 -0.021012371 -0.007461132
000030 f9 41 00 3d ce 98 31 3b ff ab 8e bb 8c 5d 22 bc
       0.031312916 0.0027099135 -0.0043539996 -0.009909999
000040 0e a4 0e 3c 6b e4 a9 3d 25 4e ac bc 8f d2 39 3d
       0.008706106 0.082955204 -0.021033356 0.04536682
000050 47 a9 40 3d 68 2d 40 bd 87 d5 01 3d ec b7 48 bc
       0.047036435 -0.046918303 0.031697776 -0.012250882
000060 cd 8b 3d bc 59 b3 3f bc 12 f8 14 bd b8 bd 53 3d
       -0.011568976 -0.011700475 -0.03636939 0.0516946
000070 72 a0 87 3d 73 fe e4 bc 44 b6 3f 3d dd 53 28 bc
       0.066223994 -0.027953362 0.04680468 -0.010273901
000080 7f 81 52 3c 83 02 39 3b 13 34 b4 bc 24 21 41 bc
       0.012848257 0.0028230257 -0.021997487 -0.0117876865
000090 66 61 d4 bc 34 e6 0b bb 10 29 bc 3c 5c 75 d4 3c
       -0.02592535 -0.0021346929 0.022968799 0.025934868
0000a0 9a ed 40 bd a3 e2 83 3c b2 72 cf 3c 6f e7 32 bc
       -0.047101595 0.01609928 0.025323246 -0.010919436
0000b0 e5 5c 2e 3c c7 11 89 bc 64 8c 57 bc 59 9d c6 bb
       0.010642265 -0.01673211 -0.01315603 -0.006061238
0000c0 61 1b 69 3c 79 60 a4 3d ff e7 58 bd 5d 53 bc 3c
       0.014227719 0.08026213 -0.052955624 0.02298897
0000d0 29 30 01 bc eb ee ef bc d7 32 8d 3c 6b 8b 5d 3d
       -0.007885017 -0.02928873 0.017236156 0.054088037
0000e0 f2 ea 9a 3b ce 86 35 3c 4d c3 e2 bc 72 13 fc bc
       0.0047277147 0.011079503 -0.027681017 -0.030770991
0000f0 fc e0 94 3b ed f9 6d 3d 67 c6 c1 3b 1c d9 3b 3d
       0.004543422 0.058099676 0.005913544 0.04586135
000100 5d 21 f9 3c 4e 47 74 bd bf 4b 0a bd f9 83 16 3d
       0.030411417 -0.059638314 -0.033763643 0.036746953
000110 f8 89 f6 bb f0 09 9e bc 68 93 87 3c 23 e7 47 bd
       -0.0075237714 -0.019291848 0.016549781 -0.048804414
000120 e8 0e 47 3c f2 87 bf bc 96 a9 09 bc ba 2a 88 3d
       0.01214955 -0.023380253 -0.008402249 0.066487744
000130 d2 11 1c bd a0 9f ec 3b 6b 2c f5 3c 15 41 9f 3d
       -0.038102932 0.007221177 0.029928407 0.07776085
000140 03 bd e9 3c 0c ac c5 bc e5 a0 1c bc ea a7 fe bc
       0.02853251 -0.02412989 -0.009559845 -0.031085927
000150 5f c6 af bd d8 13 76 bd 10 1f f7 bc 57 69 0e 3c
       -0.08582758 -0.06007752 -0.030166179 0.008692107
000160 cf 28 8c 3d 51 11 07 3c 5f a5 02 3d f7 0d 96 3d
       0.06843721 0.008243875 0.03189599 0.07326882
000170 99 47 64 3d 37 d6 b3 bc 43 26 7a bd 92 22 da bc
       0.055732343 -0.021952732 -0.061071645 -0.026627813
000180 fd d6 92 3c 73 50 c6 3c 30 33 69 bc ae eb 68 bd
       0.01792478 0.024208283 -0.014233395 -0.056865387
000190 0d 96 25 bd b6 f4 0a bd d0 cf 9d bd 61 5f a4 3d
       -0.040426303 -0.03392478 -0.07705653 0.080260046
0001a0 4f 70 08 bd 9c 49 a0 ba 67 4d 4f bd 3d 51 6d 3d
       -0.03331023 -0.0012228969 -0.050610926 0.057938803
0001b0 a5 35 76 bd 1e 46 13 bd ec 45 7c bd 91 f5 47 3c
       -0.060109753 -0.03595554 -0.06159012 0.012204544
0001c0 24 fa 05 bd 56 7d b3 bb 41 7f 49 3d f8 f8 b7 bb
       -0.032709256 -0.0054775877 0.049193624 -0.005614396
0001d0 ec 22 6d 3c 29 aa b7 bc 97 3e e8 3c 4a 50 2e bd
       0.014473658 -0.022420006 0.028350158 -0.04255704
0001e0 16 b4 89 3d c1 b5 de bc 05 c0 a8 3d 34 dd e2 3c
       0.06723802 -0.027186276 0.0823975 0.027693368
0001f0 48 a8 0f 3c c6 0c 13 3b 01 56 56 bc 77 d9 02 bb
       0.008768149 0.0022438033 -0.013082028 -0.0019966045
000200 96 ec 16 bd ad a2 39 3d 2b b9 3c 3d 6d 6c 8e bd
       -0.03684672 0.045321155 0.046075027 -0.06954274
000210 5c 70 87 bd aa f8 f3 3c 9b 83 a6 bc fb f1 a4 3d
       -0.06613228 0.029781658 -0.020326426 0.080539666
000220 48 be 0b bd f0 4d c6 39 29 3e ec 3c 83 3c 2d 3d
       -0.034117013 0.0003782357 0.028838234 0.042294037
000230 16 2d 89 3c b9 eb 60 bd 46 ff 2b bd 53 e1 55 bd
       0.016745131 -0.054912303 -0.041991495 -0.05221684
000240 17 47 58 bc ac d6 d1 3b 5f 4b ba 3c 8c cc 4c bc
       -0.013200543 0.0064037647 0.022741018 -0.01249994
000250 19 c3 01 bd c5 b6 60 3d 95 3e b3 bb 5f 9b 7a bd
       -0.0316802 0.054861803 -0.005470107 -0.06118333
000260 19 04 3a 3d cb 94 97 3c 94 14 4f 3d eb ab 7f bd
       0.045414064 0.018503567 0.050556734 -0.062419813
000270 7d d5 20 3d 3c af 1b bd 8a 46 98 3b de 5d 6a 3c
       0.0392661 -0.038008913 0.004647081 0.014304606
000280 12 b9 7b bd f8 cc 2f bd 76 31 2a bd 31 f0 bb 3a
       -0.061455794 -0.042920083 -0.041551076 0.001433855
000290 97 ab 93 bc 6c 10 81 bd 88 a4 6f bd 2e dc 36 bd
       -0.018026156 -0.0630196 -0.05850652 -0.044643573
0002a0 95 bd 07 3d 10 f1 65 3d 1b ba 03 bd 39 b5 2d 3d
       0.033139784 0.0561381 -0.032159906 0.042409156
0002b0 c9 f8 46 3d 0c 07 c0 3c d2 c1 9d bc 3a 85 a5 3c
       0.048577104 0.02344086 -0.01925746 0.020205129
0002c0 2a 5e e6 bc 71 2b 20 3d 92 af e8 bc 38 f6 2f 3d
       -0.028121073 0.03910393 -0.028404031 0.042959422
0002d0 0b 9a 3c bb ec 64 35 bd c7 b6 58 3d 83 40 39 3c
       -0.002877834 -0.0442857 0.052908685 0.011306885
0002e0 e7 8a af bb 71 9f 8f 3b 9a 74 a5 3d 71 0d 2d bd
       -0.0053571346 0.0043830206 0.080788806 -0.042249147
0002f0 f9 33 2c 3c aa 57 a6 3c 9f 56 d6 bc 5c 6e 81 3c
       0.010510438 0.020305473 -0.026164351 0.015799694
000300 c0 d5 d6 3c a1 6b 12 3d 78 a9 a7 3c f0 96 47 bd
       0.02622497 0.035747174 0.020466551 -0.04872793
000310 b9 24 65 3d 1f 52 e6 3c b6 20 dc bc e1 4a 9c 3b
       0.055943225 0.02811533 -0.026871067 0.0047696684
000320 d7 5a 16 3d 4e 7d c1 3c 67 4b c2 bd 09 d9 8e bc
       0.036707725 0.02361932 -0.09487038 -0.017437475
000330 f2 99 1e bd d2 d2 5e 3c 60 29 cf 3c fb 31 51 3d
       -0.038721032 0.013600068 0.025288284 0.051073056
000340 fa 12 5f 3c 9c af e1 bb 6c b0 73 bd b4 11 77 3c
       0.013615364 -0.0068873893 -0.05949442 0.015079904
000350 c4 7e a7 bc 7a f4 8e 3d ff 7f c3 bc 09 c1 00 3c
       -0.020446189 0.06980224 -0.023864744 0.007858523
000360 55 81 36 bd 0b 07 60 bd ff c4 bb 3b b1 8e 13 3c
       -0.044556934 -0.054694217 0.005730271 0.009006188
000370 9b 90 38 3d 10 19 b6 3c 02 bd dd 3c 4c 8f 2a bd
       0.04505978 0.022228748 0.027067665 -0.041640565
000380 33 73 a0 bc 1a 64 85 3d 83 3b dd bc d7 22 c1 3c
       -0.019586181 0.065132335 -0.027005916 0.023576183
000390 a9 08 77 3d 12 ca 53 bc cb 5f bd ba 5d 7e f2 3c
       0.060310993 -0.012926595 -0.0014448104 0.02960127
0003a0 6e 43 7c 3c 4d 85 1a 3d ea e8 14 bc e7 99 7e bd
       0.015396936 0.03772478 -0.009088734 -0.06215849
0003b0 48 d5 4d 3d a5 f8 d5 3c de 52 99 ba 6c 14 01 3d
       0.05025223 0.02611954 -0.001169767 0.031513616
0003c0 07 7e 1c bd 13 dc 26 bd cc e9 8a bb 97 47 05 3d
       -0.038206127 -0.040737223 -0.0042392965 0.032538977
0003d0 a0 0e 20 bd 46 1c 3e bd ce dd 82 3d e4 52 eb bc
       -0.039076447 -0.046413682 0.06389962 -0.028726049
0003e0 aa 19 e9 3c 4f 57 91 b9 ae 67 35 3d a4 bc a0 bd
       0.02845462 -0.00027721605 0.04428833 -0.0784848
0003f0 56 18 10 bd 41 3b 00 bd ba 96 35 3d 1f f4 9d 3c
       -0.03517946 -0.03130651 0.044333197 0.019281445

bias f4 [5]
000000 aa fe 40 bd 9b b3 22 3d 2e c0 24 bd a4 e3 aa 3c
       -0.047117867 0.039722066 -0.04022234 0.0208605
000010 53 ab ac 3c
       0.021077788
