final_project/mlruns/1/a784ad6f6aeb46b58ce8a801c1ffc9a5/artifacts/cvae_29/data/model.pth (torch, 48071 bytes, 10 tensors)

weight f4 [80, 10]
0	0xbe48a28e	-0.1959326
1	0xbe85d4c3	-0.26138887
2	0xbd0d0722	-0.03443063
3	0x3e4de9ec	0.20108765
4	0x3e9ab59b	0.3021668
5	0x3dbaaa4e	0.09114514
6	0xbe52c25b	-0.20581953
7	0xbe5bbdef	-0.21459173
8	0xbdec43d1	-0.115363725
9	0xbd962ad7	-0.0733239
10	0xbe937159	-0.28797415
11	0x3e9e80f9	0.30957773
12	0xbe0b575d	-0.13607545
13	0xbd6815be	-0.05666136
14	0xbe8a2a10	-0.26985216
15	0x3e8b7a03	0.27241525
16	0x3e56bf72	0.20971468
17	0xbe8fa1a9	-0.28053024
18	0xbe9e5eed	-0.30931798
19	0xbdda229a	-0.10651131
20	0x3e8a15d1	0.2696977
21	0x3e270863	0.16311793
22	0x3e7b9249	0.24567522
23	0x3e993a5d	0.2992734
24	0xbcb80566	-0.022463512
25	0xbd7aee45	-0.061262388
26	0x3d185461	0.037189845
27	0xbe2181c6	-0.15772161
28	0x3e2d13ed	0.16902132
29	0xbe76975f	-0.24081181
30	0x3e0abbfc	0.13548273
31	0xbe50ae34	-0.20378953
32	0xbe833e00	-0.2563324
33	0xbd3b8ca6	-0.04578843
34	0xbe83ca02	-0.25740057
35	0xbd444133	-0.04791374
36	0xbd3aff9e	-0.04565393
37	0xbe1c719b	-0.15277712
38	0x3e4df768	0.20113909
39	0xbe58937e	-0.21150014
40	0x3e1bb143	0.15204339
41	0xbe33c307	-0.17554866
42	0x3e2b356d	0.16719599
43	0x3e80932b	0.2511228
44	0xbe8d4e3a	-0.27598745
45	0xbeae7520	-0.34073734
46	0x3cc9d30e	0.024636772
47	0x3dd906d5	0.10597006
48	0x3e946355	0.28982034
49	0x3ea2f037	0.31823894
50	0x3e9c9553	0.30582675
51	0xbe7e0162	-0.24805215
52	0xbc8dc618	-0.017306373
53	0x3da9683f	0.082718365
54	0xbe2c240f	-0.1681063
55	0xbdae01d7	-0.08496445
56	0xbe1591bd	-0.14606376
57	0xbe2d59d5	-0.169288
58	0xbe34ca9c	-0.17655414
59	0x3ddeac67	0.10872727
60	0xbdcbe392	-0.09955515
61	0x3c849a5d	0.016186887
62	0x3e1bc730	0.15212703
63	0xbe9e4fac	-0.3092016
64	0xbe756a0b	-0.23966233
65	0xbe067b3e	-0.1313295
66	0xbd28e7e5	-0.041236777
67	0x3e06a270	0.13147902
68	0xbd985a35	-0.074390806
69	0xbe4f8f69	-0.2026955
70	0xbe4be6e5	-0.19912298
71	0xbe60ba7c	-0.21946138
72	0xbe2a47fe	-0.16629025
73	0xbe78af36	-0.24285588
74	0x3da93efc	0.082639664
75	0xbea0968d	-0.3136486
76	0x3c239191	0.009983436
77	0xbe5cf6c0	-0.21578503
78	0x3e0497a5	0.12948473
79	0xbdcb6822	-0.09931971
80	0xbda52566	-0.08063774
81	0x3db065ae	0.08613144
82	0xbc53657b	-0.012902613
83	0x3d86318b	0.06552418
84	0xbdf3e3df	-0.11908697
85	0x3e68b8c7	0.22726737
86	0xbdaaf17a	-0.08346839
87	0x3de694ef	0.112588756
88	0xbd260fe2	-0.04054249
89	0xbc7653c5	-0.015034621
90	0xbe21d8c1	-0.15805341
91	0x3e9e03ff	0.30862424
92	0x3e386b59	0.180097
93	0xbe70fe6e	-0.23534557
94	0x3e995356	0.29946393
95	0x3d5364ad	0.051609684
96	0x3eaa7490	0.33292055
97	0xbe8d2891	-0.27570012
98	0xbe773246	-0.24140272
99	0xbe5cae3b	-0.21550839
100	0xbe8c9b57	-0.27462265
101	0x3e1453ae	0.14485046
102	0x3c6cfb08	0.014464147
103	0xbdf535a4	-0.11973122
104	0x3e4004ea	0.18751875
105	0x3c434706	0.011918789
106	0xbd25f0d0	-0.04051286
107	0x3b571085	0.0032816243
108	0xbdfe71a4	-0.12424019
109	0x3e7abaf9	0.24485387
110	0x3e970c99	0.295018
111	0xbd8c8c60	-0.06862712
112	0xbc538687	-0.012910492
113	0x3e9f1acc	0.31075132
114	0xbe8a855e	-0.27054876
115	0x3de73bb9	0.11290688
116	0xbe99f63c	-0.30070674
117	0xbe701b47	-0.23447905
118	0x3e678102	0.22607806
119	0xbe6d7ed7	-0.23192917
120	0x3e487c22	0.19578603
121	0xbe0e0978	-0.138708
122	0x3e83865f	0.25688455
123	0xbe6f52b0	-0.23371387
124	0x3dc4f05f	0.0961616
125	0xbe2ab7ea	-0.1667172
126	0x3e5364e1	0.20643951
127	0xbcc50b3b	-0.024053207
128	0xbe01d7d1	-0.12679984
129	0x3db8cc1c	0.09023306
130	0x3e5d33bc	0.21601766
131	0xbe003328	-0.12519515
132	0xbe3cb34a	-0.18427768
133	0x3d803c1e	0.062614664
134	0xbe1ad497	-0.15120159
135	0x3e914c4d	0.28378525
136	0xbd15c0ed	-0.03656094
137	0x3d6553f6	0.055988275
138	0x3e5d6b97	0.21623074
139	0xbca89cc6	-0.020582568
140	0xbe221ebd	-0.15832038
141	0x3e8e89ab	0.27839407
142	0xbe92dbbf	-0.28683278
143	0x3ddc07b2	0.10743655
144	0x3e9625ee	0.29325813
145	0x3ddaa8eb	0.1067675
146	0x3e05c35b	0.13062803
147	0x3e6f07f8	0.23342884
148	0xbe841f56	-0.25805157
149	0x3ded3dfe	0.1158409
150	0xbdb881f4	-0.090091616
151	0xbaa17bd3	-0.0012320228
152	0x3d5a6fdc	0.053329334
153	0xbd9929fd	-0.07478712
154	0xbe0ba95d	-0.13638826
155	0xbe088301	-0.13331224
156	0xbe89cdcc	-0.26914823
157	0x3dc30b56	0.095236465
158	0x3dc490a2	0.09597899
159	0x3d93cd62	0.07216908
160	0x3e87ccf4	0.26523554
161	0x3e19de38	0.15026176
162	0xbdc8968c	-0.097943395
163	0xbdc16ca5	-0.094445504
164	0xbd82f446	-0.06394248
165	0xbdc13f49	-0.09435899
166	0x3e9d1c2b	0.30685553
167	0xbe01fd73	-0.1269434
168	0x3cab3e1a	0.020903636
169	0xbe8f3078	-0.27966666
170	0x3e053da9	0.13011803
171	0x3ea32bff	0.31869504
172	0xbe6e9e57	-0.2330259
173	0xbe08b27f	-0.13349341
174	0xbe256844	-0.16153055
175	0x3cf8177e	0.03028464
176	0x3e3d9e50	0.18517423
177	0xbe1ef389	-0.15522589
178	0xbdbba6a6	-0.09162645
179	0xbe2b7eb1	-0.16747548
180	0xbe5024be	-0.20326516
181	0x3d12d169	0.03584424
182	0xbdea7b94	-0.11449352
183	0x3e68f201	0.22748567
184	0xbe147228	-0.14496672
185	0x3e81f368	0.25381017
186	0xbd43798b	-0.047723334
187	0x3e4e8211	0.20166804
188	0x3c7b46bc	0.015336689
189	0xbd549e3b	-0.051908713
190	0x3e5a59d0	0.21323323
191	0x3e93e394	0.28884566
192	0x3e2bf84a	0.16793934
193	0xbe5b84b5	-0.21437342
194	0x3e9a314b	0.30115733
195	0x3d3edc27	0.046596672
196	0xbe58776d	-0.21139307
197	0xbe2b0126	-0.16699657
198	0xbe7dae88	-0.2477361
199	0x3d850c4d	0.06496487
200	0x3d2793d0	0.04091245
201	0xbe07ae61	-0.13250114
202	0xbd4a610f	-0.04940897
203	0xbe895e2f	-0.2682967
204	0xbc8c9f73	-0.017165875
205	0x3e01d7e8	0.12680018
206	0xbe2f7804	-0.17135626
207	0x3d63ecce	0.055645756
208	0x3baab1ef	0.0052091996
209	0xbe1411f5	-0.14459975
210	0xbcc68291	-0.02423218
211	0xbcbf1ac6	-0.023328196
212	0xbe9d48ee	-0.30719703
213	0x3d516423	0.05112089
214	0xbd39ac2b	-0.045330208
215	0x3e83813b	0.25684533
216	0x3da546c3	0.08070137
217	0x3e5c18db	0.21493857
218	0xbea60a6b	-0.32429823
219	0xbe92841e	-0.28616422
220	0xbe9b75b5	-0.3036324
221	0xbd6fbcda	-0.058529712
222	0xbe179b6f	-0.14805387
223	0xbdc71f9e	-0.097228274
224	0xbcbda0c2	-0.023147944
225	0xbd9cb577	-0.07651799
226	0xbe2b7aa9	-0.1674601
227	0xbdd8f7ed	-0.10594163
228	0xbd819f10	-0.06329167
229	0xbe1dd49e	-0.15413138
230	0x3e83e19f	0.25758073
231	0xbe562069	-0.20910801
232	0xbe529529	-0.20564713
233	0x3e20fffb	0.15722649
234	0xbe8e5397	-0.2779815
235	0xbe9f2695	-0.31084123
236	0x3e49d60b	0.19710557
237	0xbd48ae22	-0.04899419
238	0xbe565683	-0.20931439
239	0x3cbc6100	0.022995472
240	0xbca6010f	-0.020264177
241	0xbe803de2	-0.25047213
242	0xbdb9133d	-0.090368725
243	0x3db97bad	0.090567924
244	0xbe9221ae	-0.2854132
245	0x3e94e7a9	0.29082993
246	0xbe7fe258	-0.24988687
247	0x3e60de36	0.21959767
248	0x3ddfd60d	0.10929499
249	0x3e893d16	0.26804417
250	0x3e82dc73	0.25558814
251	0x3d2c81d4	0.042116
252	0xbd786022	-0.060638554
253	0xbe74aa02	-0.23892978
254	0xbe3e12e0	-0.18561888
255	0xbe41d88b	-0.18930261

bias f4 [80]
0	0xbdd1f57d	-0.10251901
1	0xbe25bd4f	-0.16185497
2	0xbe5b7b89	-0.21433844
3	0xbc4d0588	-0.012513526
4	0x3ecc5b75	0.39913526
5	0xbe41a4df	-0.1891055
6	0x3e521194	0.20514518
7	0x3ef22ee0	0.47301388
8	0xbe453c6c	-0.1926133
9	0x3ee93052	0.45544678
10	0xbe2f8aaa	-0.1714274
11	0xbe996aff	-0.29964444
12	0xbd2496d2	-0.040182896
13	0xbdf5dfd0	-0.120055795
14	0xbdd08e05	-0.10183338
15	0xbd121edc	-0.03567396
16	0xbe962933	-0.29328308
17	0x3eaa4b94	0.33260787
18	0xbd6ac450	-0.057316124
19	0xbdfba8b5	-0.12288038
20	0xbe0ba393	-0.13636617
21	0x3e79ac03	0.24382024
22	0xbdea7278	-0.114476144
23	0x3d85c1ae	0.06531082
24	0xbdcb1119	-0.099153705
25	0x3f0031e3	0.5007612
26	0x3ecf6a60	0.40510845
27	0x3f059bd3	0.52190894
28	0x3ea4ba2d	0.3217329
29	0xbd434af0	-0.047678888
30	0xbe865b72	-0.26241642
31	0xbdab306d	-0.08358846
32	0x3ecf164b	0.40446696
33	0xbe234d52	-0.15947464
34	0xbe96c477	-0.29446766
35	0xbe0e86aa	-0.13918558
36	0x3ee2e65a	0.4431637
37	0x3eb3b123	0.35096082
38	0xbe91245e	-0.28348058
39	0x3ea7792a	0.32709628
40	0xbe130700	-0.14358139
41	0x3ee2dd8b	0.4430965
42	0x3ea22c08	0.31674218
43	0x3eb19f4c	0.34691846
44	0x3f0089e6	0.50210416
45	0xbe855fa5	-0.26049533
46	0x3f00aa26	0.50259626
47	0xbd3f0451	-0.046634976
48	0x3eaa5310	0.33266497
49	0xbe2bf6cf	-0.16793369
50	0xbd854cbb	-0.06508776
51	0x3eec9177	0.4620473
52	0x3ebdbe20	0.37059116
53	0x3eb7eda4	0.35923493
54	0xbdb500ef	-0.08838069
55	0xbe82994e	-0.25507587
56	0xbde941f1	-0.113895305
57	0xbd411d8c	-0.04714732
58	0xbe145dd5	-0.14488919
59	0x3ee078b8	0.438421
60	0x3ef2abb8	0.47396636
61	0x3e91273d	0.2835025
62	0x3e4fda09	0.20298018
63	0x3e8f6ec4	0.28014195
64	0x3edee8e6	0.43537062
65	0xbe79c1f1	-0.24390389
66	0x3ed6cfd4	0.41955435
67	0xbe814e9d	-0.2525529
68	0xbe74df13	-0.23913221
69	0xbe3ab41b	-0.18232767
70	0xbe948931	-0.2901092
71	0xbd9fdf8b	-0.07806309
72	0xbdde8f9b	-0.10867234
73	0x3efdf3b0	0.4959998
74	0x3ee4690d	0.44611397
75	0xbd6e4c31	-0.05817813
76	0x3eefd36f	0.46841
77	0xbd5f1a41	-0.054468397
78	0xbd139fe9	-0.036041174
79	0x3ed9819a	0.4248169

weight f4 [40, 80]
0	0xbdc23a70	-0.09483802
1	0x3d6291d4	0.055314854
2	0xbc179b35	-0.009253313
3	0x3cc4ac78	0.02400802
4	0xbce9a1ea	-0.02851959
5	0xbd7f6765	-0.062354464
6	0xbcb57b8b	-0.022153636
7	0x3dbc5040	0.09194994
8	0xbdb985c1	-0.09058715
9	0xbd4612cc	-0.04835777
10	0xbd8cf431	-0.06882513
11	0xbd4999d9	-0.049218986
12	0xbc6adea3	-0.014335307
13	0x3da39e4c	0.07989177
14	0xbda688dd	-0.08131573
15	0xbbd80c06	-0.00659323
16	0xbd925612	-0.07145323
17	0xbc525325	-0.012837206
18	0x3dab34eb	0.08359703
19	0xbd990eed	-0.0747355
20	0xba4e73b4	-0.00078755175
21	0x3bcdc93c	0.0062800925
22	0x3d2eeee8	0.042708308
23	0x3e0a1b9d	0.13487096
24	0x3d929605	0.0715752
25	0xbdbcb069	-0.09213335
26	0x3b6a826a	0.00357833
27	0x3d5b71ed	0.053575445
28	0xbc113c2c	-0.008864444
29	0xb9b8bb52	-0.0003523478
30	0xbce9ba45	-0.028531203
31	0xbdd1338a	-0.102149084
32	0x3ca9a2f6	0.020707589
33	0xbdd09a64	-0.10185698
34	0xbd8bdd1c	-0.06829283
35	0xbdd53f6f	-0.104124896
36	0x3d8c327e	0.06845568
37	0xbcf09637	-0.029368503
38	0x3c55a106	0.013038879
39	0xbdda4bd3	-0.106589936
40	0x3d91eb63	0.071249746
41	0xbca5b7b4	-0.020229198
42	0x3d227392	0.039660998
43	0x3d9080d6	0.070558235
44	0xbd1bb689	-0.038015876
45	0xbcf31e70	-0.0296776
46	0xbd816e8c	-0.06319913
47	0x3d2488f7	0.040169682
48	0x3d8374bf	0.06418752
49	0x3dc226e8	0.09480077
50	0x3daebc24	0.08531979
51	0xbd9bbe0b	-0.07604607
52	0x3dab9fa4	0.083800584
53	0x3dc36308	0.09540373
54	0xbced65d0	-0.028979212
55	0xbdc35e57	-0.09539478
56	0x3c10fd63	0.008849475
57	0x3d9425d6	0.07233779
58	0x3c0f940a	0.008763323
59	0xbdd73fd5	-0.10510222
60	0xbd5c9ba5	-0.05385937
61	0x3cb7aedc	0.022422247
62	0xbdd4e19a	-0.103945926
63	0xbdc74542	-0.09730007
64	0x3d001395	0.031268675
65	0x3de4ef23	0.11178424
66	0xbd9c9532	-0.07645644
67	0x3d479afd	0.048731793
68	0xbd1cfc18	-0.038326353
69	0x3ce0c8d1	0.027439507
70	0xbdb23a73	-0.087025546
71	0xbcee6f6e	-0.029105868
72	0x3da79cdf	0.08184218
73	0x3ca6a28c	0.02034118
74	0x3d1e49ce	0.038644604
75	0x3d9b4392	0.075812474
76	0x3c925b0a	0.017865676
77	0xbdb84978	-0.08998388
78	0xbdd53a4a	-0.104115084
79	0xbd96a703	-0.07356074
80	0xbc43f3e4	-0.0119600035
81	0x3a46496d	0.0007564042
82	0xbdcb911c	-0.09939787
83	0x3da5aed6	0.08089988
84	0x3d7b7e23	0.06139959
85	0xbdae6515	-0.085153736
86	0x3d63cad6	0.05561336
87	0x3cfe416d	0.031037057
88	0x3dc9169e	0.09818767
89	0xbcad8727	-0.02118261
90	0x3da2f970	0.07957733
91	0xbdb407ed	-0.08790574
92	0x3d865c73	0.06560602
93	0xbd305ff1	-0.043060247
94	0x3d2a14bb	0.041523676
95	0xbd8451e3	-0.06460931
96	0x3db7bff2	0.089721575
97	0xbb9030a7	-0.004400331
98	0xbd964591	-0.073374875
99	0x3d1d33a6	0.038379334
100	0xbdb90f20	-0.09036088
101	0xbd4cfe03	-0.050046932
102	0x3d9f008b	0.077637754
103	0x3d434d1f	0.04768097
104	0xbc93deed	-0.018050635
105	0x3db5ef18	0.08883494
106	0x3c6b2082	0.014351012
107	0xbcd56a07	-0.026051534
108	0x3c615b29	0.013754644
109	0x3d0c2919	0.03421888
110	0xbda5ced8	-0.08096093
111	0xbcfe4c53	-0.031042254
112	0x3d608203	0.05481149
113	0x3d7e05d5	0.06201728
114	0xbdb62d70	-0.08895385
115	0xbdd0be15	-0.10192505
116	0xbccf8f41	-0.025336863
117	0x3d2df206	0.04246714
118	0x3dac99be	0.084277615
119	0xbdc5acb5	-0.09652082
120	0xbc863499	-0.016382502
121	0xbdd5d7c0	-0.10441542
122	0xbb1ff93a	-0.0024410025
123	0xbde662b2	-0.112492934
124	0xbdbdadb9	-0.092616506
125	0x3d136041	0.035980467
126	0x3d95a87c	0.073075265
127	0x3da1b76f	0.07896315
128	0xbdb3a8ba	-0.087724164
129	0xbd900e26	-0.070339486
130	0xbd9532eb	-0.072851025
131	0xbcd7587f	-0.026287315
132	0x3d93e617	0.072216205
133	0xbcd9849b	-0.026552489
134	0x3d44945f	0.04799306
135	0x3c9881ea	0.018616635
136	0x3da254b9	0.07926316
137	0xbd85a982	-0.06526472
138	0xbddf6690	-0.10908234
139	0xbe047d49	-0.12938417
140	0xbb5add6a	-0.0033396133
141	0x3daa703e	0.0832219
142	0xbe20025d	-0.15625902
143	0xbda91212	-0.082554
144	0x3da6f22f	0.081516616
145	0xb73b9b29	-1.1182195e-05
146	0x3d3ecb4a	0.04658059
147	0xbd9301a0	-0.07178044
148	0xbcd34df3	-0.025794005
149	0xbde47ec7	-0.11156993
150	0x3d141b3e	0.036158793
151	0x3d540ac2	0.051768072
152	0x3dd5a304	0.104314834
153	0x3d613725	0.05498423
154	0xbce306ef	-0.027713267
155	0xbdbfeecf	-0.09371721
156	0xbdd9b888	-0.106309
157	0xbd1e4371	-0.038638536
158	0xbda1014f	-0.07861578
159	0xbd3bc8fb	-0.045845967
160	0xbddea691	-0.10871614
161	0xbda5a435	-0.08087961
162	0x3de49885	0.11161903
163	0xbdc9a23f	-0.09845399
164	0xbdfd782b	-0.12376436
165	0xbc998e1a	-0.018744517
166	0x3cd57ea7	0.02606137
167	0x3c32f382	0.010922315
168	0xbd6fe2e9	-0.058566008
169	0xbda11c08	-0.07866675
170	0xbddf7e70	-0.10912788
171	0xbc4e1de5	-0.01258037
172	0xbdbdd573	-0.09269228
173	0xbdd349ac	-0.10316786
174	0x3d0f363c	0.03496383
175	0xbd1ba494	-0.03799875
176	0xbda27021	-0.07931543
177	0xbb9867b9	-0.0046510366
178	0xbd7328b9	-0.059365008
179	0x3dbc6612	0.09199156
180	0x3da3e09c	0.08001825
181	0xbe0c8fd7	-0.13726746
182	0x3dcc14c9	0.09964902
183	0xbdc32bcb	-0.09529837
184	0x3afc66c3	0.00192567
185	0x3cee539d	0.029092604
186	0xbdd3756b	-0.1032513
187	0xbd73cbbb	-0.059520464
188	0x3ad77182	0.0016437026
189	0xbdbc1320	-0.09183335
190	0x3d2f25ca	0.042760648
191	0xbd5b94aa	-0.053608574
192	0x3d3d1ca6	0.0461699
193	0x3ddd2cbc	0.10799548
194	0xbdc2d036	-0.09512369
195	0x3d338c99	0.043835256
196	0x3c29ed7a	0.01037156
197	0xbddf25a9	-0.10895855
198	0x3db1241a	0.08649464
199	0xbdb0c070	-0.086304545
200	0xbcb3f619	-0.021967934
201	0xbd2ec18f	-0.04266506
202	0x3b143bfe	0.0022618766
203	0x3d3fa72d	0.04679029
204	0xbdd31a00	-0.103076935
205	0x3d94ddc3	0.0726886
206	0x3c053cd9	0.008132183
207	0xbcefb5ec	-0.029261552
208	0x3d4ddf17	0.050261583
209	0x3da4ae0b	0.080410086
210	0xbdc3bae8	-0.09557134
211	0xbe043761	-0.1291175
212	0x3d857bd3	0.06517758
213	0xbc479402	-0.012181284
214	0xbd4b1f98	-0.049590677
215	0xbdbc3cc2	-0.09191276
216	0xbd7d858d	-0.061894942
217	0x3cff12cd	0.031136895
218	0x3da7de59	0.08196706
219	0xbd7d6ce4	-0.061871424
220	0xbdb1099a	-0.086444095
221	0x3d6283c7	0.055301454
222	0xbe271061	-0.16314842
223	0x3b1749af	0.002308469
224	0x3d35527a	0.04426811
225	0x3dbc1dea	0.09185393
226	0xbc6594e8	-0.014012553
227	0xbc75c494	-0.015000481
228	0xbd6fc5c9	-0.058538232
229	0xbd007b22	-0.03136743
230	0x3d8ccd45	0.068750896
231	0x3c94d305	0.018167028
232	0xbda7df33	-0.08196869
233	0xbdfb72ba	-0.12277742
234	0x3d6a8a1e	0.057260625
235	0x3d09dd3d	0.033658255
236	0x3d859f42	0.06524517
237	0x3d5e6894	0.054298952
238	0x3d22e935	0.039773185
239	0xbdb7c95e	-0.089739546
240	0x3d0146e5	0.03156175
241	0x3db4eda7	0.08834391
242	0xbdc0d360	-0.094153166
243	0x3d8753a0	0.06607747
244	0x3dfc5613	0.12321105
245	0xbd734062	-0.059387572
246	0x3e2b326d	0.16718455
247	0x3d02c4b3	0.03192587
248	0xbda3b128	-0.07992774
249	0x3d6189e3	0.05506314
250	0x3de4211f	0.1113913
251	0xbbfd294d	-0.0077258707
252	0x3d9ad5a3	0.07560279
253	0xbda4a289	-0.080388136
254	0xbc832a47	-0.01601137
255	0xbd975907	-0.073900275

bias f4 [40]
0	0xbcf60de6	-0.030035924
1	0x3ce52be4	0.02797503
2	0x3d2231a5	0.039598126
3	0x3df0e4e3	0.11762407
4	0x3dd5ae5f	0.10433649
5	0x3e08a739	0.1334504
6	0xbd055d94	-0.032559946
7	0x3d687a40	0.05675721
8	0x3e2d9529	0.16951431
9	0xbd77de13	-0.06051452
10	0xbdad16a8	-0.08451587
11	0x3d946bf8	0.07247156
12	0x3c538c84	0.0129119195
13	0x3c9fa7c8	0.019489184
14	0xbddef0da	-0.108857825
15	0x3e0e4567	0.13893662
16	0x3e107ab4	0.14109308
17	0x3e06aa41	0.13150884
18	0xbca1bf60	-0.019744575
19	0x3db16791	0.08662332
20	0xbd43fce6	-0.047848605
21	0xbce3075c	-0.02771347
22	0x3db784a3	0.08960845
23	0xbc995b59	-0.018720316
24	0x3d1fac49	0.038982663
25	0xbdb0d04a	-0.08633478
26	0x3d4c4a9a	0.049875833
27	0xbd18d640	-0.0373137
28	0x3c7b3c2b	0.015334169
29	0x3d5a22a0	0.053255677
30	0x3ddbe63b	0.10737272
31	0x3d7aa031	0.061187927
32	0xbb4b6743	-0.003103689
33	0x3dc7ee9d	0.09762309
34	0x3df31845	0.118698634
35	0xbcd928e2	-0.026508752
36	0xbbde3389	-0.006781046
37	0xbd5d51d7	-0.054033127
38	0x3dc49d28	0.09600288
39	0xbbc917ba	-0.0061368616

weight f4 [40, 80]
0	0x3b9ed68f	0.0048473547
1	0x3db577a7	0.088607125
2	0x3d2b4b47	0.041819837
3	0xbdb23c92	-0.08702959
4	0xbe08c7a6	-0.1335741
5	0xbd4f3ec4	-0.050596967
6	0xbdeeac2d	-0.11653934
7	0xbe4b1174	-0.19830877
8	0x3d0a94be	0.033833258
9	0xbdedc8c6	-0.1161056
10	0xbd9fdc19	-0.07805652
11	0x3cb5fa5a	0.022214103
12	0x3d020a22	0.031747945
13	0xbd1012a8	-0.035174042
14	0x3daaf1a9	0.08346874
15	0x3d6031c5	0.054734964
16	0x3dcf74df	0.10129713
17	0xbdb99a15	-0.09062592
18	0x3d451d47	0.048123624
19	0xbcec6f6d	-0.028861726
20	0x3a9cee17	0.0011972812
21	0xbe8c2a8e	-0.27376217
22	0x3d84eaa5	0.064900674
23	0xbd35512f	-0.044266876
24	0xbd45d27f	-0.048296448
25	0xbe1f9d90	-0.15587449
26	0xbe3ece3a	-0.18633357
27	0xbd6f22b0	-0.05838269
28	0xbe847944	-0.25873768
29	0xbc5b8b50	-0.013399914
30	0x3db073c1	0.08615828
31	0xbdd560d7	-0.10418861
32	0xbdd96fd1	-0.106170304
33	0x3d02517a	0.031815983
34	0xbd498eb9	-0.049208377
35	0x3c7e6c4d	0.015528751
36	0xbe14e040	-0.1453867
37	0xbe7e489a	-0.24832383
38	0x3db8f19f	0.090304606
39	0xbe4bccea	-0.19902387
40	0xbcd46f94	-0.02593211
41	0xbdefac28	-0.11702758
42	0xbe8a9504	-0.27066815
43	0xbd8b935d	-0.06815217
44	0xbe6451f1	-0.22296883
45	0xbc5b8f5f	-0.013400882
46	0xbe044629	-0.12917389
47	0xbd356034	-0.0442812
48	0xbe8d3b7d	-0.27584448
49	0x3c27ec20	0.010249168
50	0x3d90a6c2	0.070630565
51	0xbe1dd1f6	-0.15412125
52	0xbdfc7d65	-0.123286046
53	0xbe19bbe7	-0.15013085
54	0x3dcfd98f	0.10148918
55	0x3b714472	0.0036814478
56	0xbadc2fb2	-0.0016798882
57	0xbae3f38f	-0.0017391312
58	0x3cc5c954	0.024143852
59	0xbd48e5ee	-0.049047403
60	0xbe1e40ca	-0.15454403
61	0xbe255f1a	-0.1614956
62	0xbe65f96f	-0.22458433
63	0xbd10cd16	-0.035351835
64	0xbe484b1a	-0.19559899
65	0x3dab9230	0.083774924
66	0xbd2e96a0	-0.042624116
67	0x3d72702a	0.059189
68	0x3d0f3369	0.034961138
69	0xbd538402	-0.051639564
70	0x3dd96ffa	0.10617061
71	0x3caa2aa8	0.020772293
72	0x3d7832ae	0.060595207
73	0xbe6ca9ff	-0.23111723
74	0xbe2dde4c	-0.16979331
75	0x3dd7f97a	0.10545631
76	0xbe37c725	-0.17947061
77	0xbd9c55d4	-0.07633558
78	0xbc5787ab	-0.013154904
79	0xbe382d75	-0.1798609
80	0xbd99b551	-0.075052865
81	0xbde0a1c0	-0.10968351
82	0xbddb6d9b	-0.10714265
83	0x3d68041b	0.05664454
84	0xbdb2ab6e	-0.08724104
85	0x3ddb3195	0.107028164
86	0xbe7eec60	-0.24894857
87	0xbd1d3e27	-0.03838935
88	0x3b8104a0	0.003937319
89	0xbdebec19	-0.115196414
90	0xbc976bf9	-0.018484103
91	0xbca97643	-0.020686274
92	0xbbd420d0	-0.006473638
93	0xbdb1e88a	-0.086869314
94	0xbdcbffc6	-0.09960894
95	0xbc8659e9	-0.016400294
96	0x3dd530d2	0.10409702
97	0xbe7f30e9	-0.24921001
98	0x3ccb8298	0.024842545
99	0xbd795c06	-0.060878776
100	0xbd939139	-0.072054334
101	0xbe84bbc3	-0.259245
102	0x3d674de3	0.056470763
103	0xbde1e469	-0.11029894
104	0x3dbcf96f	0.09227263
105	0xbe136df9	-0.1439742
106	0xbd66a08d	-0.056305457
107	0xbe6c369e	-0.2306771
108	0xbe6408d0	-0.22268987
109	0xbcdc932c	-0.026925646
110	0x3da79e41	0.081844814
111	0xbd37aa18	-0.04483995
112	0xbd778526	-0.060429715
113	0xbbd6c601	-0.0065543656
114	0xbda14d47	-0.078760676
115	0x3d29f5df	0.041494247
116	0xbd4cb4b5	-0.049977023
117	0xbe7c32ca	-0.2462875
118	0x3d416460	0.047214866
119	0xbe078b32	-0.13236693
120	0x3d856b22	0.065145746
121	0xbe1a58d4	-0.15072948
122	0xbe8c66e3	-0.27422246
123	0xbe765c09	-0.24058546
124	0xbe466f9a	-0.1937851
125	0xbdb94f5b	-0.09048339
126	0xbdefb3e0	-0.1170423
127	0xbb4d29a9	-0.003130535
128	0xbe09ffe1	-0.13476516
129	0xbde42e2c	-0.11141619
130	0xbd392746	-0.04520347
131	0xbe3113fc	-0.1729278
132	0xbd37fafb	-0.044917088
133	0xbe03c336	-0.12867436
134	0x3dd996cb	0.106244646
135	0x3d7d8e69	0.06190339
136	0x3d6851bf	0.056718584
137	0xbde2c51c	-0.11072752
138	0x3db1770d	0.08665285
139	0xbe1c084d	-0.15237541
140	0xbdfe806a	-0.12426837
141	0xbe99d91c	-0.30048454
142	0xbe24fd39	-0.16112222
143	0xbe3fe7fc	-0.18740839
144	0xbe756ba1	-0.23966838
145	0xbdaca593	-0.08430018
146	0xbe5cd7e7	-0.21566735
147	0x3b709a48	0.0036713053
148	0xbd2f75cc	-0.04283695
149	0xbc9dae88	-0.019248262
150	0xb906eb33	-0.00012866854
151	0x3de2d169	0.11075098
152	0xbda5632c	-0.08075556
153	0xbe406071	-0.1878679
154	0xbdf3c91d	-0.11903594
155	0xbd1af66e	-0.03783267
156	0xbdbecffe	-0.09317015
157	0xbc493dd5	-0.012282808
158	0xbcec5acc	-0.02885189
159	0xbd83fe9d	-0.06445048
160	0x3dcd06b3	0.100110434
161	0x3d8a1165	0.06741599
162	0xbd3e3bdb	-0.0464438
163	0x3c878dd1	0.016547116
164	0xbc706737	-0.014673046
165	0xbd199b2f	-0.03750151
166	0xbd7ae9b3	-0.06125803
167	0xbe24c6ca	-0.16091457
168	0xbcbdd8c5	-0.023174653
169	0xbdfeff3c	-0.12451026
170	0x3d934b28	0.07192069
171	0x3d012146	0.031525873
172	0x3dbec07d	0.09314058
173	0x3d4cc5f2	0.049993463
174	0xbddf6ed4	-0.10909811
175	0xbc38bff8	-0.011276238
176	0xbcadfde3	-0.021239227
177	0xbe490a6f	-0.19632886
178	0x3dd9a33b	0.10626837
179	0x3ac464a5	0.0014983608
180	0x3ca8d882	0.020611051
181	0xbe518bba	-0.20463458
182	0x3dd6f7c7	0.104964785
183	0x3cf0cc5c	0.029394321
184	0x3cb8c8d4	0.0225567
185	0xbe1e8d22	-0.15483525
186	0xbe3b8211	-0.18311335
187	0xbc251040	-0.010074675
188	0xbe0e1408	-0.13874829
189	0x3da4297b	0.08015724
190	0xbd846508	-0.06464583
191	0x3d647e36	0.055784427
192	0xbe4e073c	-0.20119947
193	0x3d548a77	0.051889863
194	0x3d180704	0.037116066
195	0x3d4cec23	0.050029885
196	0xbe60f8d8	-0.21969926
197	0xbd2b412e	-0.041810207
198	0x3d711665	0.058859248
199	0xbe769b59	-0.24082698
200	0xbcf5cc3d	-0.030004615
201	0xbe3f9192	-0.18707874
202	0xbe7b48d2	-0.24539497
203	0xbd65a979	-0.056069825
204	0xbc722fea	-0.014781931
205	0xbdacf179	-0.08444495
206	0xbd929682	-0.07157613
207	0x3dc3ce13	0.0956079
208	0xbdb2df1d	-0.08733962
209	0x3d422b54	0.047404602
210	0x3d4b06ed	0.04956715
211	0xbe1fc1af	-0.15601228
212	0xbdda92cb	-0.1067253
213	0xbdc294c4	-0.09501031
214	0x3dc052c4	0.09390786
215	0xbde4b1b7	-0.11166709
216	0x3d7b429e	0.061342828
217	0xbdb269c0	-0.087115765
218	0xbd5d2c8d	-0.053997565
219	0xbcae8f1a	-0.02130847
220	0xbd1a9221	-0.037737016
221	0xbe52a605	-0.20571144
222	0xbe52031e	-0.20509002
223	0xbe0ab125	-0.13544138
224	0xbe2ea117	-0.17053638
225	0xbd391dff	-0.045194622
226	0xbe51649f	-0.2044854
227	0xbd77f800	-0.060539246
228	0xbb205543	-0.0024464882
229	0xbc8231bd	-0.015892858
230	0x3d51b96e	0.05120223
231	0x3d60eabc	0.05491136
232	0xbc9f5245	-0.019448409
233	0xbe51d36e	-0.2049081
234	0xbdde367a	-0.10850234
235	0xbd52a232	-0.051424213
236	0xbbd87264	-0.0066054333
237	0xbd0c496e	-0.034249716
238	0xbcd15ed7	-0.025557918
239	0xbdece8cc	-0.1156784
240	0x3db625f6	0.08893959
241	0x3d557ccd	0.052120972
242	0xbddaf527	-0.1069129
243	0xbdb9105a	-0.09036322
244	0xbd09f58a	-0.03368143
245	0xbddfc4b5	-0.10926191
246	0xbde13afb	-0.10997578
247	0xbdc61705	-0.096723594
248	0xbdbe59a8	-0.09294444
249	0xbdd69758	-0.10478085
250	0x3cc58019	0.024108933
251	0xbd1ad08f	-0.037796553
252	0x3d42beac	0.04754512
253	0x3d8cc852	0.068741456
254	0xbd8f4915	-0.06996361
255	0x3d83d162	0.06436421

bias f4 [40]
0	0xbdf995db	-0.12186786
1	0xbd58742d	-0.05284517
2	0xbe084cd2	-0.13310555
3	0xbe583bd4	-0.21116573
4	0xbd2f365d	-0.042776454
5	0xbda09baf	-0.07842194
6	0xbe413af3	-0.18870144
7	0xbe0dbbcb	-0.13841169
8	0xbcd29f66	-0.025710773
9	0xbcfd20e7	-0.030899478
10	0x3b78e5f7	0.0037978867
11	0xbe02624b	-0.12732808
12	0xbe62fc90	-0.22166657
13	0xbe21283b	-0.15738003
14	0xbe3c4478	-0.18385494
15	0xbe3d678c	-0.18496531
16	0xbe5f75e4	-0.21822315
17	0xbdd4cdad	-0.10390792
18	0xbcb3f707	-0.021968378
19	0xbe466c60	-0.1937728
20	0xbe2d5d01	-0.1693001
21	0xbcd2005c	-0.025634937
22	0xbd9395f4	-0.07206336
23	0xbe3ce477	-0.18446527
24	0xbdd8afa7	-0.10580378
25	0xbc786c84	-0.015162591
26	0xbdc12733	-0.09431305
27	0xbd6cf7ad	-0.05785339
28	0xbde24114	-0.11047569
29	0xbe26342c	-0.1623084
30	0xbdaae983	-0.0834532
31	0xbe553d41	-0.20824148
32	0xbc345275	-0.011005987
33	0xbda7cf08	-0.08193785
34	0xbd2a9596	-0.041646563
35	0xbc3e2762	-0.011606069
36	0xbd8b91b8	-0.06814903
37	0xbdd520dc	-0.10406658
38	0xbe42e869	-0.1903397
39	0xbd7553d3	-0.059894394

weight f4 [80, 40]
0	0x3decf3ef	0.11569964
1	0x3e0286c6	0.12746724
2	0x3e03b0bd	0.12860389
3	0xbdb92dab	-0.090419136
4	0x3ce89418	0.02839093
5	0xbd809807	-0.06278997
6	0xbd82a2c2	-0.063787
7	0xbcd77856	-0.026302498
8	0xbdc72d92	-0.09725489
9	0x3d735def	0.059415754
10	0x3dc3b6a4	0.0955632
11	0xbdc44c43	-0.09584858
12	0x3e26c8a5	0.16287477
13	0xba892429	-0.0010463047
14	0xb817cd76	-3.6192556e-05
15	0x3d3181ec	0.043336794
16	0xbc81e2f9	-0.0158553
17	0x3d72126d	0.059099603
18	0x3d7318f6	0.059349976
19	0xbdd557fa	-0.10417171
20	0xbd158887	-0.036507156
21	0xbc2d4d1e	-0.010577468
22	0xbdf6ff6f	-0.12060439
23	0xbdc4a133	-0.09601059
24	0xbe1526df	-0.1456561
25	0x3dd2264b	0.1026121
26	0x3da2371d	0.07920668
27	0xbde962e3	-0.11395814
28	0x3da566d2	0.08076252
29	0x3e09f26b	0.13471381
30	0x3cd2a3b8	0.025712833
31	0xbdffb83c	-0.12486312
32	0xbb66bac6	-0.003520654
33	0x3d767895	0.06017359
34	0xbd7a5c49	-0.061123166
35	0xbe0594ad	-0.13044997
36	0x3de58949	0.11207826
37	0xbda86863	-0.08223035
38	0xbd0a1bc0	-0.03371787
39	0x3e039bba	0.12852374
40	0xbc52f53c	-0.012875851
41	0xbd0e7946	-0.034783624
42	0xbd80ccec	-0.06289086
43	0x3d8f93a3	0.07010581
44	0x3dc60113	0.09668174
45	0x3d54c252	0.05194313
46	0x3d1af58f	0.03783184
47	0xbb1044ab	-0.0022013586
48	0x3b8a808a	0.004226749
49	0xbd0ec81d	-0.03485881
50	0xbddd88c2	-0.108171
51	0xbe221b11	-0.15830638
52	0x3d1e8bfd	0.038707722
53	0x3d196102	0.03744603
54	0x3dd60cf6	0.10451691
55	0x3dbf8f38	0.09353489
56	0xbdcd8917	-0.100359134
57	0xbde9827e	-0.114018425
58	0x3ded20a1	0.11578489
59	0x3d58696e	0.05283492
60	0xbacb98f9	-0.001553326
61	0x3d9c6d0e	0.07637988
62	0xbde05454	-0.10953584
63	0xbdf89d44	-0.12139371
64	0x3c8cdf8a	0.017196435
65	0x3b75d09c	0.0037508374
66	0xbd1a684f	-0.037697133
67	0x3d2e305c	0.042526588
68	0xbe0552bf	-0.13019846
69	0x3ddf013b	0.108889066
70	0xbd13709c	-0.035996065
71	0x3d921c9a	0.071343616
72	0xbc694fc1	-0.014240206
73	0xbc619807	-0.013769156
74	0xbd1c2799	-0.0381237
75	0xbde9ae80	-0.11410236
76	0x3dc42117	0.09576624
77	0xbd023dde	-0.031797282
78	0x3da5f09b	0.081025325
79	0xbe04f9f0	-0.12985969
80	0xbd4bd2e1	-0.049761657
81	0xbe169b00	-0.14707565
82	0xbc960ca7	-0.01831658
83	0x3d260c74	0.04053922
84	0xbc5bf633	-0.013425398
85	0x3d043417	0.03227624
86	0xbcb0a224	-0.02156169
87	0xbe15b659	-0.14620341
88	0x3a16e9b5	0.0005756871
89	0xbd213f17	-0.039366808
90	0x3dd74774	0.105116755
91	0x3a79469b	0.0009509117
92	0x3c82f9c4	0.015988238
93	0x3ca068e3	0.019581264
94	0xbdb26660	-0.08710933
95	0xbd42c78a	-0.047553577
96	0xbd819e78	-0.06329054
97	0x3e1872e5	0.14887579
98	0x3dc946a2	0.09827925
99	0x3e030d54	0.12798053
100	0x3cbe1c13	0.023206746
101	0xbc09e089	-0.00841535
102	0xbdca10e7	-0.09866505
103	0xbe03038b	-0.1279432
104	0xbe258d2d	-0.16167136
105	0x3dfc6282	0.123234764
106	0xbda5151c	-0.08060667
107	0xbdb9c03e	-0.090698704
108	0x3d9d222c	0.076725334
109	0xbc023eaa	-0.007949511
110	0x3e11cb5b	0.1423773
111	0xbdfa28b7	-0.12214797
112	0x3dce945b	0.1008689
113	0xbdeb1a8f	-0.11479675
114	0x3dde4244	0.10852483
115	0xbd686d07	-0.0567446
116	0xbddc5527	-0.10758429
117	0x3c9fcece	0.019507792
118	0xbd8132a8	-0.0630849
119	0xbc753e68	-0.014968492
120	0xbd732de6	-0.059369944
121	0xbd23a1de	-0.03994929
122	0x3ddd77d2	0.108138695
123	0x3df5ec33	0.12007942
124	0xbdc96e49	-0.09835488
125	0xbdb1da77	-0.08684247
126	0xbd8f1dfc	-0.06988141
127	0xbe14b837	-0.14523397
128	0x3d069cb9	0.032864306
129	0xbd69278c	-0.05692248
130	0x3dd9d0b8	0.10635513
131	0xbd7dea2e	-0.06199091
132	0xbd85acf8	-0.06527132
133	0xbde7a9c8	-0.1131168
134	0x3db2b806	0.08726506
135	0xbd81c1ea	-0.06335814
136	0xbd52117a	-0.0512862
137	0x3d831add	0.06401608
138	0x3d873d26	0.0660346
139	0xbdd916f4	-0.10600081
140	0x3db2a924	0.08723667
141	0x3d37f14a	0.044907846
142	0x3dce06a7	0.100598626
143	0x3d13f894	0.036125734
144	0xbd8a49e8	-0.06752378
145	0x3dda8ad7	0.10671013
146	0xbda926c8	-0.0825935
147	0xbd37203a	-0.044708468
148	0x3db31e61	0.08746029
149	0xbafd945b	-0.0019346582
150	0xbd8caa32	-0.068684
151	0x3ddba742	0.10725261
152	0xbd9d21c1	-0.07672454
153	0xbbd5ca7d	-0.0065243826
154	0xbd426dcf	-0.047468003
155	0x3c893a1c	0.016751342
156	0x3dbaa1a2	0.0911286
157	0xbc7d5c7e	-0.015463946
158	0x3c896177	0.016770108
159	0xbc659948	-0.014013596
160	0x3dee8f1b	0.11648389
161	0xbdf4cce6	-0.11953144
162	0xbddacc37	-0.10683482
163	0xbcf1070f	-0.029422311
164	0xbdce50fb	-0.100740395
165	0xbd430281	-0.04760981
166	0xbddf7237	-0.10910457
167	0xbdd31dab	-0.10308393
168	0x3dbb5a7f	0.0914812
169	0x3ddb5ec3	0.10711434
170	0x3dc04278	0.09387678
171	0xbbfe0e73	-0.0077531873
172	0xbd7be7bb	-0.061500292
173	0x3dea6636	0.114452764
174	0xbda26b65	-0.0793064
175	0xbd815315	-0.06314675
176	0xbd915a7d	-0.070973374
177	0xbe078caf	-0.1323726
178	0x3b295ddb	0.0025843296
179	0xbe18329f	-0.1486306
180	0x3d9e886a	0.07740863
181	0xbca4efa6	-0.020133805
182	0xbdbd8615	-0.0925409
183	0x3e184708	0.14870846
184	0xbc8e6aa7	-0.01738484
185	0xbda658d9	-0.08122415
186	0x3de2a712	0.110670224
187	0xbdf21ceb	-0.11821922
188	0xbdf0120e	-0.11722194
189	0xbdcda73a	-0.100416616
190	0xbded661a	-0.1159174
191	0x3d881bb6	0.066459104
192	0xbd7bc479	-0.061466668
193	0x3a307f7a	0.00067328627
194	0xbda39f43	-0.07989361
195	0xbd142ee8	-0.036177546
196	0xbd8ac5a3	-0.067759775
197	0xbdd74b99	-0.10512466
198	0xbd4fe945	-0.050759573
199	0x3e0818fb	0.1329078
200	0xbddb1923	-0.10698154
201	0x3db1f170	0.08688629
202	0xbdf49104	-0.11941722
203	0xbe1179d7	-0.14206634
204	0xbcfe99ca	-0.031079192
205	0xbd101eb7	-0.035185542
206	0x3dffbf36	0.124876425
207	0x3df93940	0.12169123
208	0xbc9c88c0	-0.019108176
209	0x3d63c041	0.05560327
210	0xbe12a840	-0.14321995
211	0xbdc4a9a2	-0.096026674
212	0xbd9ca9c3	-0.07649567
213	0xbd72c2e6	-0.0592679
214	0x3df0ec65	0.11763839
215	0xbdfa7e5d	-0.12231133
216	0xbbb139b3	-0.0054084896
217	0xbde028b1	-0.10945261
218	0xbcf7f01b	-0.030265858
219	0xbdb2f2eb	-0.08737739
220	0xbdf7345c	-0.12070534
221	0xbd8e86a1	-0.06959272
222	0x3d804f6d	0.06265149
223	0x3e02306a	0.12713781
224	0x3ca08d9e	0.019598778
225	0x3d2dcb8d	0.04243045
226	0xbd8f8209	-0.07007224
227	0xbdc8c60f	-0.09803402
228	0x3ddb5426	0.107094094
229	0x3cf44c7e	0.02982163
230	0x3dccb33d	0.099951245
231	0x3d5bff01	0.053709988
232	0x3d8dc672	0.06922616
233	0x3dca8a0a	0.0988961
234	0x3d772210	0.06033522
235	0x3dd016f3	0.10160627
236	0xbd70993b	-0.058739882
237	0xbda40378	-0.08008474
238	0xbd4c6f7f	-0.04991102
239	0x3c797455	0.01522549
240	0x3dafe119	0.08587856
241	0xbd9bec0d	-0.076133825
242	0xbd71cb97	-0.05903205
243	0xbd552238	-0.052034587
244	0x3df77559	0.12082929
245	0xbd36f3ef	-0.044666227
246	0xbdea49e9	-0.114398785
247	0x3dd16505	0.10224346
248	0x3b5b7d51	0.0033491442
249	0xbd89506f	-0.067047946
250	0xbcf89b1d	-0.030347401
251	0xbd1a7f41	-0.037719015
252	0xbde84d46	-0.11342864
253	0xbdf15470	-0.11783683
254	0xbb0707b5	-0.002060396
255	0x3dfd3931	0.12364424

bias f4 [80]
0	0x3dfcae25	0.12337903
1	0x3d9076a6	0.070538804
2	0x3e2a23dc	0.16615242
3	0x3d54ec4b	0.05198316
4	0xbcb7b644	-0.022425778
5	0x3de61e82	0.11236288
6	0xbd9ca4fc	-0.07648656
7	0xbe0ff0c4	-0.14056689
8	0x3b8e735d	0.0043472485
9	0x3d2282a7	0.03967538
10	0x3d99c4cd	0.0750824
11	0x3d9980f1	0.07495297
12	0xbba7c30e	-0.005119688
13	0x3e01aaec	0.12662858
14	0x3de9186e	0.11381613
15	0xbdaa7e93	-0.08324923
16	0xbd70f09c	-0.058823213
17	0x3ddf0ae3	0.10890748
18	0xbd605eda	-0.054777957
19	0x3dd7c734	0.10536042
20	0xbe1c8349	-0.15284456
21	0xbdc9c2cc	-0.09851608
22	0xbd0a5c0a	-0.03377918
23	0x3c9dda91	0.01926926
24	0xbe4a6740	-0.19765949
25	0x3db43302	0.087987915
26	0xbe4673d7	-0.19380127
27	0xbdf21fb7	-0.118224554
28	0x3e1bea0c	0.15226
29	0xbc6c91c2	-0.014439048
30	0x3d32fb65	0.04369678
31	0x3dd706e9	0.10499365
32	0xbc8439d6	-0.01614086
33	0x3d8751b4	0.066073805
34	0xbdc5e002	-0.09661867
35	0x3ca6eefc	0.020377629
36	0x3d5ef6de	0.05443465
37	0xbe0c3073	-0.13690357
38	0xbe0c3975	-0.13693793
39	0x3da8271d	0.08210585
40	0xbe385986	-0.180029
41	0xbe2f7338	-0.17133796
42	0xbda26b11	-0.079305775
43	0xbd95a4fb	-0.07306858
44	0x3da50dd1	0.08059276
45	0xbdce06ee	-0.100599155
46	0x3cc7767f	0.024348496
47	0xbe1e16a0	-0.15438318
48	0xbdf0ef80	-0.11764431
49	0xbe3d1299	-0.18464126
50	0x3dd071b8	0.1017794
51	0x3db3b084	0.08773902
52	0xbdcee9c9	-0.10103185
53	0xbd92caf6	-0.07167618
54	0xbcc75f8a	-0.024337549
55	0xbd30942c	-0.043110058
56	0xbdca92cd	-0.09891281
57	0xbdb94e83	-0.09048178
58	0xbe3b815b	-0.18311064
59	0xbe0d783f	-0.13815401
60	0xbd8391a8	-0.06424266
61	0xbd36df32	-0.04464645
62	0xbdbedf64	-0.09319952
63	0x3d8faa18	0.07014865
64	0x3d384f8c	0.044997737
65	0x3d84c40f	0.06482708
66	0x3e0cbf78	0.13744915
67	0xbe4ea878	-0.20181453
68	0xbddb8683	-0.107190154
69	0xbe4112d5	-0.1885484
70	0x3d90abf3	0.07064047
71	0xbe1436da	-0.14474049
72	0xbd3a4ca6	-0.045483254
73	0xbe1c8368	-0.15284503
74	0xbd12ad86	-0.035810016
75	0xbd098707	-0.033576038
76	0xbdabc090	-0.08386338
77	0xbdc97b19	-0.09837932
78	0x3d1a5469	0.037678156
79	0xbe1bf3d1	-0.15229727

weight f4 [5, 80]
0	0xbcdd7f33	-0.027038192
1	0xbcae57b1	-0.021282049
2	0xbb9dc4ad	-0.0048147053
3	0x3d21829e	0.039431207
4	0x3c329f41	0.010902227
5	0xbd057051	-0.032577816
6	0xbd31f1dd	-0.04344355
7	0x3c4879c2	0.012236061
8	0xbb6f048e	-0.003647122
9	0x3c9bd4c6	0.019022357
10	0x3cc2c846	0.023777138
11	0x3cc3362d	0.023829544
12	0x3ceb0159	0.028687166
13	0x3c9920bc	0.018692367
14	0x3d0fc47a	0.035099484
15	0x3c00f143	0.007870021
16	0xbcdac238	-0.026703939
17	0xbcc5e9bb	-0.024159303
18	0xbd5b0cb8	-0.053478926
19	0x3d0b4f79	0.034011338
20	0xbd577238	-0.052599162
21	0xbcb6cf19	-0.022315549
22	0xbcc1ba40	-0.023648381
23	0xbcecb8e4	-0.028896756
24	0x3cc526c0	0.024066329
25	0xbcd4f2b9	-0.025994645
26	0xbd38de42	-0.045133837
27	0xbd684e96	-0.05671557
28	0x3d16d8a4	0.0368277
29	0x3d59f121	0.053208474
30	0x3ce275bf	0.027644036
31	0x3d73d0b8	0.05952522
32	0x3d352181	0.044221405
33	0xbcc6670a	-0.024219055
34	0xbb122dc4	-0.002230511
35	0xbd18be84	-0.037291065
36	0xbc8ad7d8	-0.016948625
37	0x3c20c3b0	0.009812281
38	0x3cbe8e81	0.02326131
39	0xbc8cee1e	-0.017203387
40	0x3b2ce0d0	0.0026379116
41	0xbcbdef5f	-0.02318543
42	0x3ce68fe5	0.028144786
43	0xbabe169c	-0.0014502588
44	0x3d0077ca	0.03136424
45	0xbd39a826	-0.045326374
46	0xbd08c702	-0.033392914
47	0x3ba26491	0.004955836
48	0xbb6d4768	-0.0036205892
49	0xbc86631c	-0.01640468
50	0x3cafca32	0.021458719
51	0x3d245736	0.040122233
52	0xbd4fe797	-0.05075797
53	0xbd9c2b28	-0.07625419
54	0x3cafb6ba	0.021449436
55	0x3c39355c	0.011304226
56	0xbaf24694	-0.0018484169
57	0x3bee29e6	0.0072681783
58	0xbc50f1ea	-0.012752989
59	0x3da4344e	0.08017789
60	0x3d81e8da	0.06343241
61	0xbc8d9e9f	-0.01728755
62	0x3c1ebc75	0.009688486
63	0xbd3f6dad	-0.046735454
64	0x3ca3641b	0.019945195
65	0x3c02fa31	0.007994221
66	0xbbfd1b15	-0.0077241757
67	0xbcde0551	-0.027102144
68	0x3b397990	0.0028301217
69	0x3da59058	0.08084172
70	0xbd6a7046	-0.05723598
71	0xbcff3343	-0.031152373
72	0xbd906eab	-0.07052358
73	0xbcfad1d3	-0.03061763
74	0x3d965f80	0.07342434
75	0x3bdd980e	0.006762511
76	0x3da147c3	0.078750156
77	0xbc16e626	-0.009210145
78	0x3cf970d0	0.030449301
79	0xbce2b0fc	-0.027672283
80	0xbd30745a	-0.04307971
81	0x3d0844a9	0.033268604
82	0x3c48c873	0.012254822
83	0xbd4ea61f	-0.050451394
84	0x3c669c1a	0.014075303
85	0xbcb7da13	-0.022442853
86	0xbc347ff4	-0.0110168345
87	0x3cb697ce	0.022289183
88	0xbd31cba0	-0.043407083
89	0xbd1ae25e	-0.037813537
90	0xbd238cb6	-0.039929114
91	0xbce72d5c	-0.028219871
92	0xbc097e4e	-0.00839193
93	0xbb89e5be	-0.0042082956
94	0x3d2cc173	0.042176675
95	0x3d07222a	0.032991566
96	0x3d613507	0.05498221
97	0xbcbfba76	-0.023404341
98	0xbcc1f296	-0.023675244
99	0x3cb2956e	0.02179977
100	0xbd90bdfb	-0.07067486
101	0x3b81e339	0.0039638546
102	0x3c976dba	0.018484939
103	0x3d004edc	0.031325206
104	0x3c8acebc	0.016944282
105	0x3bce71a2	0.006300167
106	0xbc57c39c	-0.0131691955
107	0xbd861c58	-0.06548375
108	0x3cc3e46f	0.023912637
109	0x3d013f64	0.031554595
110	0x3d0de6c2	0.034643896
111	0xbd0bbbae	-0.034114532
112	0xbd2c8a22	-0.04212392
113	0x3ce61ae8	0.028089002
114	0xbb62047b	-0.0034487534
115	0x3bdf64f1	0.006817453
116	0x3cc53c51	0.024076613
117	0x3c164927	0.009172714
118	0x3d5875f4	0.052846864
119	0x3cb8cae2	0.02255768
120	0x3c99978a	0.018749017
121	0x3cba3805	0.02273179
122	0x3d2b353c	0.041798815
123	0x3caaeea2	0.020865742
124	0xbd0b9634	-0.03407879
125	0xbd458b8f	-0.048228797
126	0x3cb1d5db	0.02170842
127	0xbd826698	-0.063672245
128	0xbc119afe	-0.008887051
129	0xbc728010	-0.01480104
130	0x3c6de858	0.014520727
131	0xbc402781	-0.011728168
132	0x3d6bab4b	0.057536405
133	0x3db77e8a	0.08959682
134	0xbd522244	-0.05130221
135	0xbd3f3248	-0.04667881
136	0x3c7fb17e	0.015606282
137	0xbd025a1d	-0.03182422
138	0xbb779165	-0.003777587
139	0x3d3ec874	0.046577886
140	0xbd3e5ea5	-0.04647698
141	0x3db01148	0.08597046
142	0x3d09fcf7	0.03368851
143	0xbc8e7313	-0.017388856
144	0xbcc1fb3d	-0.02367937
145	0xbc3ed9cc	-0.0116486065
146	0x3c8ce1a3	0.017197436
147	0xbd7fa759	-0.062415455
148	0xbcfa4494	-0.030550279
149	0x3d41f8a7	0.047356274
150	0xbd4202cb	-0.047365945
151	0x3d7cdbac	0.061732933
152	0xbbdff3ae	-0.006834469
153	0xbced0a41	-0.028935554
154	0x3d2175b5	0.039418895
155	0x3d49087a	0.04908035
156	0xbc87d32c	-0.016580187
157	0x3c707725	0.014676844
158	0x3c8b5f4d	0.017013216
159	0xbd0a0829	-0.03369919
160	0x3cd0b596	0.025477212
161	0xbd0d6c86	-0.034527324
162	0x3c4cb8f8	0.012495272
163	0xbbb3a055	-0.0054817596
164	0xbcb350f4	-0.021889187
165	0x39d29bb3	0.00040170326
166	0x3bdedf79	0.0068015424
167	0x3c7f8c78	0.015597455
168	0xbcce6361	-0.025193872
169	0x3d3ec050	0.046570122
170	0x3a67b3dc	0.0008838752
171	0xbc042c22	-0.008067163
172	0xbbe248a5	-0.0069056326
173	0x3d062465	0.032749552
174	0xbcda7cff	-0.02667093
175	0xba901811	-0.00109935
176	0xbc73113c	-0.014835652
177	0x3bd1a8a3	0.006398277
178	0x39df9f36	0.00042652496
179	0x3c9aeea3	0.018912619
180	0x3cf82933	0.030293083
181	0xb95f8a26	-0.00021318402
182	0xbc1f411a	-0.009720111
183	0x3c3704c2	0.011170568
184	0x3c031a59	0.008001887
185	0x3ae79d40	0.0017670766
186	0xbd01fa38	-0.031732768
187	0xbc9732f3	-0.018456912
188	0x3c1197ea	0.008886317
189	0xbbcd5c80	-0.0062671304
190	0xbbe63ecc	-0.007026529
191	0xb990432d	-0.0002751587
192	0x3bae889f	0.005326345
193	0xbc298c7c	-0.0103484355
194	0x3cf169a9	0.029469328
195	0x3cc4fc0b	0.024045965
196	0x3af2f82f	0.0018537099
197	0x3baefd73	0.005340272
198	0x3ca9f6ce	0.020747568
199	0xbc5e4e3d	-0.013568458
200	0x3d613e7e	0.054991238
201	0xbc0ec859	-0.008714759
202	0xbc4e1b8e	-0.012579812
203	0xbb61b748	-0.003444152
204	0x3cf1121a	0.029427577
205	0x3d083c51	0.033260647
206	0x3d584f1f	0.05280983
207	0x3d033d8c	0.032041118
208	0x3c687c86	0.014189845
209	0xba7b3059	-0.00095820945
210	0xbc2121fc	-0.009834763
211	0x3d7d5dac	0.06185691
212	0xbd7de57a	-0.061986424
213	0xbc08d1e2	-0.008350821
214	0x3ca7ed92	0.020499025
215	0xbd51618c	-0.05111842
216	0x3d07c094	0.03314264
217	0x3d6fc3b0	0.05853623
218	0xb881af86	-6.183893e-05
219	0x3d425348	0.047442704
220	0xbd009d54	-0.03140004
221	0xbd8bf265	-0.068333425
222	0xbc0bfed9	-0.008544647
223	0x3c69c347	0.014267749
224	0x3ca9a98a	0.020710725
225	0x3c929ba4	0.01789648
226	0xbc44541b	-0.011982943
227	0x3d3047dd	0.043037284
228	0xbc43ca36	-0.011950066
229	0xbcf38d02	-0.029730324
230	0xbcbe36c9	-0.023219483
231	0xbc88a603	-0.016680723
232	0xbd102abf	-0.035197016
233	0xbcd30342	-0.02575839
234	0x3d157197	0.03648528
235	0x3d485336	0.04890748
236	0x3b8ca626	0.0042922674
237	0xbd25aee5	-0.040449996
238	0xbca7188e	-0.02039745
239	0xbd0f7301	-0.035021786
240	0xbce48ee5	-0.027900169
241	0xbc9bec60	-0.01903361
242	0x3a157ef2	0.0005702815
243	0x3cf47a0c	0.029843353
244	0xbc95f804	-0.01830674
245	0xbcbd9107	-0.023140443
246	0x3c987bae	0.018613663
247	0x3c9f9b86	0.019483339
248	0xbd911db8	-0.070857465
249	0x3c110517	0.008851311
250	0xbb90cf3b	-0.004419235
251	0x3cd0c378	0.025483832
252	0x3c8cb623	0.017176693
253	0x3cfcfcb0	0.03088221
254	0xbc86995f	-0.016430555
255	0x3d1a1415	0.037616808

bias f4 [5]
0	0xbbb4e448	-0.0055203773
1	0xbb11acab	-0.0022228162
2	0xbca7df5f	-0.020492254
3	0x3d08db89	0.03341249
4	0x3ce91e04	0.028456695
