final_project/mlruns/3/8c7e2e72a7a5444b9ba51613ed8546bf/artifacts/cvae_28/data/model.pth (torch, 48391 bytes, 10 tensors)

weight f4 [80, 11]
00000000: 7fcf 44be 0ae7 283c 3f68 63be cc4b 883e
00000010: 7c4c 6e3e b114 613e a897 3c3e cb31 823e
00000020: 5307 8dbe b000 a43e b5cf 6c3e 9be9 37bc
00000030: 9f83 3e3b e2ab a53e 2720 5bbe 1f76 403e
00000040: 3fb0 9cbe 9377 a53e ba7a a4be 0035 5f3e
00000050: f2b1 373e 04e1 913e a764 813e 1327 91bc
00000060: 538d 93be a797 39bd f92e 853e 4689 08be
00000070: 4323 983d ef46 8abe c10f d13d 8bc9 1e3e
00000080: 1c42 833e 37a0 87be ec29 d53d fc62 ed3d
00000090: 45b0 89bd 01ec 15be cb47 8c3e 2054 80bd
000000a0: 65ba 943d 1122 9c3e 91dd 74be 5491 66be
000000b0: f58e 90bc 2fda 263c 9847 91bc b2ef 76be
000000c0: 418f e6bc e96d 613e fcb3 0ebe 43de f3bd
000000d0: fbdc 9a3e 2863 4abd 2cf7 b33e f238 813e
000000e0: 22b2 83be 068c 883e d4c8 983e 385e 3cbe
000000f0: 11a0 9abd 93d4 80be bc08 7d3e f49f ba3c
00000100: 4119 73bd cead bc3c 2343 113e 75f5 413d
00000110: 1367 6abc d61e 613e f201 1cbe 2576 eb3d
00000120: 5a29 4c3c aa36 02be d3a2 82be 0779 afbd
00000130: 9969 aabc 9fb4 35be 0bf5 89be 4be4 523e
00000140: d277 b0bc 080f ffbd c86d 093e aff0 b33d
00000150: adfd d83d a431 ee3d 6027 66be 3ec0 523e
00000160: a778 683e 58cb 11be 201f 37bd 237a 9bbd
00000170: a7b3 7abd f188 1b3e 57b8 6abc 887d dc3d
00000180: b1a5 363e 031c 8ebe 04dd ecbd ccab 6e3e
00000190: ca8f 35bd 7c84 9cbe 050a 0abe 5f00 83bd
000001a0: c18e 7d3e 0596 903e e86d 7ebe e930 3bbe
000001b0: 6ea3 c1bd 3016 bcbd 6e80 3c3e b896 3ebc
000001c0: fe6b 5f3d 443b 553e ff85 543e 90f2 2d3e
000001d0: 1d7e b03b 1596 313d e241 a63d c780 2c3e
000001e0: d1db a63d 140f 6c3d 8dc0 a63b 0ff0 89be
000001f0: 836c 133e 2fd9 173d 9bd2 4abe bd5d 033e
00000200: 4663 5b3e 8eb1 183d d27c 113e 7f44 4abe
00000210: 1db5 8c3d ea83 503e 31b8 643e 5018 65bb
00000220: c517 14be e7b1 a0be cfc8 553e b994 32be
00000230: 0bb7 973e d1a2 a13d 0d82 7ebe 6668 b53d
00000240: 82bb 81be 9b83 83be 1ef4 053e 2680 0b3e
00000250: 7834 933e 4b41 853e cec0 cb3d a547 dabd
00000260: 46b7 1b3e d8df a73e ec3c 1abe 57c2 62be
00000270: bbb2 613e c052 52be 4b2b d0bd bf25 543e
00000280: 4a6d 8ebe 06c7 15bd dfc7 243e 7266 73be
00000290: 9a70 723d bd5a 8b3e 35af 31bc 1068 823e
000002a0: 8b62 88bd b128 94be 2080 873c 2998 89be
000002b0: a8de 92be 5f11 21be 5641 443e 73c1 013e
000002c0: ddc7 903e 881a 61be 8ee2 99be 402e 33bd
000002d0: 8e2c 03be 77a9 4abd 43b7 3b3d e606 53be
000002e0: 2b9f 0e3e 2a26 7b3e bf74 ca3d 8a8f 10be
000002f0: 6ef8 10bd 96d6 6cbe 5671 03be 4ccd 7a3e
00000300: 88a0 8d3d a6d6 4e3e 39c5 963e d1a8 b9bc
00000310: c6b1 b33d 3ffa d73b 2ad3 2bbe 71d0 333e
00000320: c997 03be cb46 0e3e f832 7abd 2b1d 38be
00000330: f6f6 7d3e 8b36 113c 76e7 75be 5181 94be
00000340: 2292 033d cb89 463e 7ed0 263d b9d0 28bd
00000350: 041b ef3d 6380 923e b255 163e 2ffc 273d
00000360: 0c51 2cbe 59a0 10be 2e1c 79bc a545 f73c
00000370: 4810 893e 8332 533e 44c9 c8bd 5bd5 643e
00000380: c985 de3d f547 8fbe 36eb 343e bc3a 123e
00000390: d491 87bb 3624 cf3d f900 1bbd 935b 56be
000003a0: 85dd 0b3e 9603 133e 4af9 813c 1094 423d
000003b0: f921 89be 00e6 283e c174 21be 16a4 efbd
000003c0: 011c 5cbd e0b8 a63e 11ad 873e 8bd2 9e3e
000003d0: eed0 933e f37d 7bbe 78c3 47be dd8c 8cbe
000003e0: 0651 153e 31f5 843e 62e2 90bc 71b6 61be
000003f0: bc92 903d 555d 2f3e b647 573e 0c17 a3bd
-0.19219778 0.01030899 -0.22207735 0.26620328 0.23271364 0.2198055 0.18417227 0.25428614
-0.2754465 0.32031775 0.23126109 -0.0112251295 0.0029070152 0.323577 -0.21398984 0.1879506
-0.30603215 0.3231779 -0.32124883 0.21797562 0.17938974 0.28491986 0.25272104 -0.017718827
-0.2881876 -0.045310643 0.260124 -0.13333616 0.07428601 -0.27007243 0.10208083 0.1550657
0.25636375 -0.26489422 0.104083866 0.115911454 -0.06723074 -0.1464081 0.27398524 -0.062660456
0.072621144 0.3049474 -0.23912646 -0.22516376 -0.017646292 0.010183855 -0.017734334 -0.24114874
-0.02814448 0.22014584 -0.13935846 -0.119076274 0.3024672 -0.04941097 0.35149515 0.25238758
-0.25721842 0.2666933 0.2984072 -0.18395317 -0.075500615 -0.2516218 0.24710363 0.02278135
-0.059350256 0.023032095 0.14185767 0.047353227 -0.014306801 0.21984419 -0.15235117 0.11497144
0.012461031 -0.12716165 -0.2551485 -0.08568006 -0.020802306 -0.17744683 -0.26944765 0.205949
-0.02154151 -0.12454039 0.13420784 0.08786141 0.1059526 0.11630562 -0.22475958 0.20581147
0.22702275 -0.14237726 -0.044707417 -0.07591655 -0.061206486 0.15188958 -0.014326177 0.10766131
0.17836644 -0.27755746 -0.11565593 0.23307723 -0.04432658 -0.30569828 -0.13480385 -0.06396555
0.24761488 0.28239456 -0.24846613 -0.18280376 -0.09455 -0.091839194 0.18408367 -0.011632614
0.05454635 0.2082339 0.2075424 0.16987062 0.0053861276 0.04335602 0.08118035 0.16846
0.081473954 0.057631567 0.005088872 -0.26940963 0.14396863 0.037072357 -0.19806902 0.12828727
0.21424589 0.037278704 0.14207771 -0.19752692 0.06870482 0.20362821 0.22335888 -0.0034957118
-0.14462192 -0.3138573 0.20877384 -0.17439546 0.29631838 0.07892383 -0.24854298 0.08857803
-0.2533837 -0.25686345 0.13081405 0.13623103 0.28750968 0.26026377 0.09948884 -0.10658196
0.15206632 0.32787967 -0.15062302 -0.22144447 0.22040837 -0.20539379 -0.101645075 0.20717524
-0.27817756 -0.036566757 0.1609187 -0.23769549 0.059189416 0.27217665 -0.010844995 0.25470018
-0.066594206 -0.28937295 0.016540587 -0.268739 -0.28685498 -0.15729283 0.19165549 0.12671451
0.28277484 -0.21982777 -0.3005566 -0.04374528 -0.12809965 -0.04947802 0.04582907 -0.206081
0.13927905 0.24526277 0.09885549 -0.14117256 -0.03539317 -0.23128733 -0.12836203 0.24492377
0.069153845 0.2019907 0.29447344 -0.022663506 0.08774142 0.006591111 -0.16779771 0.17559983
-0.1285087 0.13894193 -0.061083764 -0.17979877 0.2480124 0.008863102 -0.24014077 -0.2900491
0.032121785 0.19388501 0.040726177 -0.04121468 0.11675075 0.28613576 0.14681128 0.041011985
-0.16827792 -0.14123668 -0.0152044725 0.030184576 0.26770234 0.20624737 -0.09804013 0.22347014
0.10865361 -0.27984586 0.17667851 0.14280218 -0.004137257 0.101143286 -0.037842724 -0.2093337
0.13658722 0.14356837 0.01586594 0.047504485 -0.26783732 0.16493988 -0.15767194 -0.11701219
-0.053737644 0.32562923 0.26499227 0.31020007 0.28870338 -0.24559765 -0.19508159 -0.2745122
0.14581689 0.25968316 -0.017686073 -0.22042252 0.07059237 0.17125447 0.2102345 -0.0796338

bias f4 [80]
00000000: a37f 92be 25c3 903c 3a6b 923e 38a0 243d
00000010: ec6b cc3e 7657 453e 9d81 e33e 6220 d3bd
00000020: 15ba 843e 36d7 a23e f76f 5abe 81a1 79be
00000030: 9cfd ed3e b92a 99be c79e e33c 1553 8ebe
00000040: 4e55 903e e257 95be 36d4 2cbe 55e1 62bc
00000050: 4125 8a3e a1aa 41be 48ad 8ebe 77f5 113e
00000060: cfb6 963e 1c08 0b3f 2d22 69be cf99 ca3e
00000070: 004d a13e 810c c03e d7b3 07be aa62 ca3e
00000080: cbae 65be cc2d 953e fbb3 bf3d 5e83 803e
00000090: 6381 b53d f387 9dbd 9404 df3e 1f60 a33e
000000a0: ce21 76be a994 2abe 95be 2f3e d20d de3e
000000b0: 6db9 d0bc c17b 87be 14de 76be f199 75be
000000c0: 9cad bcbd f538 3c3e 79aa f23e 8f77 973e
000000d0: b403 acbc c911 5ebe 797a 853d 7c95 5bbe
000000e0: a64a 1ebe 1c89 c53d c86c aabc 57f3 27be
000000f0: 490b 62be b38a 893e 3b41 f23e bebc 15be
00000100: 58f3 133d 8239 623e 387b 933e 9548 7dbd
00000110: 0915 2fbe f1d5 87be 90eb d63e 83aa 9f3e
00000120: ab13 013f d472 793e 4814 be3d 68ae 59be
00000130: 2662 c4bd 7835 8dbe 9a9e b23e 7793 803e
-0.28613004 0.017671177 0.28597432 0.04019186 0.39926088 0.19271645 0.44434825 -0.10308911
0.2592322 0.31804818 -0.21331774 -0.24378015 0.4648255 -0.29915407 0.027785672 -0.27797762
0.28190082 -0.29168612 -0.16877827 -0.013847669 0.26981547 -0.18912746 -0.27866578 0.14253794
0.29436347 0.5430925 -0.22766943 0.39570472 0.3150406 0.3750954 -0.13252197 0.395284
-0.2242996 0.29136503 0.093605004 0.25100225 0.08862569 -0.07691946 0.4355818 0.31909272
-0.24036333 -0.16658272 0.17162545 0.4336992 -0.025479043 -0.26461604 -0.24108154 -0.23984505
-0.09212801 0.18381102 0.47395685 0.29583403 -0.02099786 -0.21686472 0.065175004 -0.21443743
-0.15458164 0.09645292 -0.020803824 -0.1640142 -0.22074617 0.26863632 0.47315392 -0.1462278
0.036120743 0.2209225 0.28804946 -0.061836798 -0.17097868 -0.26530412 0.41976595 0.31184778
0.50420636 0.2436021 0.09281212 -0.21257937 -0.09589033 -0.27579856 0.34886628 0.25112507

weight f4 [40, 80]
00000000: 3be9 62bd 54c1 b73d 4e7e ca3d 1f7e db3d
00000010: ebe5 863d 2f24 51bd 7201 26bd f98b 28bd
00000020: b450 93bb b751 b83d 7c78 d7bc 6ccd c5bd
00000030: 2614 0dbd df36 623d e095 9b3d 659e 173c
00000040: cf41 b8bb a849 883d 396d b73d 8429 df3d
00000050: bddb e83b bc10 73bd 8461 c63d 06b2 f53c
00000060: f746 85bd 24cb cd3d 3627 483d 18d7 16bd
00000070: d263 ba3d 25e3 4dbd af69 bd3d a8df 813c
00000080: 027f de3d 940d 1f3d 1a8a c7bd 272a 833d
00000090: 28af e13d c999 9e3d 8652 8bbc 82c3 4a3c
000000a0: 7a11 15bd 4d7a 8c3d 85ad 38bd f140 a9bd
000000b0: 4dce b0bc cd46 e13d ffc9 883c 2175 b1bd
000000c0: 90f0 973d 17ec 243d 6a2e 12bd cc21 a4bd
000000d0: ec43 f73d 3732 54bd 9b26 bb3d ca08 1fbd
000000e0: 5400 75bd 9e36 a2bc aacd ad3d 8e85 5abd
000000f0: 956f d23c e920 74bd ce11 40bd 6411 2ebd
00000100: 5deb cb3b 650c c93d 7f3e 57bd 5c45 91bd
00000110: b01f 03bd a1f4 13bd 704b 8cbd f771 883d
00000120: 33de e73d cee5 813b cdc1 913d 3153 0c3d
00000130: cd1c dcbd a399 bb3d 1bf9 25bd c742 bb3d
00000140: 7be0 953c 9e13 b83d 3038 03bd e5cb 24bd
00000150: 4d90 23be f8bf ff3c 9eab fcbd 470e b0bd
00000160: 4da9 5f3d c58e a5bd b424 af3c fdd3 6f3d
00000170: 89a5 103d 2374 8c3d 5557 3abc 8f0f c93d
00000180: cb78 f9bd a873 25bc 2de5 b0bd aee4 683c
00000190: e6ba 8abd 87d5 c0bc b6f5 a63d 99cd 8cbc
000001a0: 3fe1 12be 877e 81bd 2cdd dc3c 50d5 e2bd
000001b0: 9c7f a33c c9de 32be dceb c7bd 35d6 c2bd
000001c0: b5ce a7bd 583a 68bd b89c 253c dce4 393c
000001d0: e1ee 86bd 4dbd 79bd e0f5 87bc 2314 23be
000001e0: 55b1 bebc 020a e1bd e239 4e3d d7f3 12bd
000001f0: 9d4d 3f3d 2ab1 013d 299f 823d 0f93 84bd
00000200: d88b 383d 5c18 71bd 35b1 11bd 945b 1ebe
00000210: a119 793c 34fd 913a c785 0abe 3567 3ebc
00000220: c80b f3bc ef79 abbd bbfa ffbc 8db7 47bd
00000230: 2fed bdbd d791 23bd 8d49 f3bb e1cb 94bc
00000240: 9869 44bd 258f 45be 0805 f9bb a098 853d
00000250: 4a02 ebbd eba9 703d 273e 1cbe e002 0cbc
00000260: 44f8 25be f932 62bb 27a3 2d3d 4c96 b9bb
00000270: f86e 793b 3ba2 67bc 726b 45bd a5ff 6e3d
00000280: 2894 0fbd 0237 3abc 4a95 003e dc18 82bd
00000290: 5677 be3c b2dd 7b3d 7aae 063e 6d0c 8c3d
000002a0: ebf4 31bd 4cb1 f93d 450b c5bd baa7 343d
000002b0: 0941 943d f48b ba3d 3174 c53d f51e 9ebd
000002c0: d9c0 d23c a363 e0bd 3e34 3d3d 0a21 febc
000002d0: c9c2 a3bc e39c d0bd 0a0f 693d 0fab be3d
000002e0: 0156 183e 6f36 833d dfde 95bd 06dc 50bd
000002f0: 6ad9 93bd 4f9b b73c 6a45 ca3b 1340 913d
00000300: 5744 a53d 884b ea3d 2828 8d3d 6738 bb3c
00000310: 3a80 36bd 43c1 2fbd 10a8 fe3d d2e4 0f3e
00000320: a50d 04bd 3a7d a33d b6fc bf3d 5356 dcbb
00000330: ae9f 6c3d 0e46 123c 49c3 333d f2c3 053c
00000340: 6624 d83d 0714 cabb 544e 9dbd 101d 39bb
00000350: d7fc ddbc d52e 733d c9f6 7a3d 5ae6 16bd
00000360: 634c b73d b30f 8b3d 52e9 92bd 6e1c 5b3c
00000370: 5a75 a13d 35a3 edbb 69ba a83c 880f d7ba
00000380: 5a90 353d 5ce9 91bd 1807 b13d 54a5 9f3d
00000390: 88ed b43d cfa8 dd3d c763 013e f198 60bd
000003a0: e6a4 cf3c f406 c23d 0c8d c5bd f817 613d
000003b0: 19d2 ad3d 7337 a53c 5ba9 123d 517d c03b
000003c0: 5d0d a4bd 830c b7bd 0a4e 303d 9280 683d
000003d0: 18ac 65bd 9e05 a73d 08cc aa3d e91c 27bd
000003e0: 9d08 9ebd 17a0 d13c e8ef 0ebd 05f5 0fbd
000003f0: a8fc 043e 0081 d33d ef61 d73b d70b debd
-0.055398207 0.08972421 0.09887372 0.10717415 0.06586822 -0.051059898 -0.040528722 -0.041149113
-0.0044957045 0.08999961 -0.026302569 -0.09658322 -0.034443043 0.05522811 0.07596946 0.009254073
-0.0056230794 0.06654674 0.089563794 0.1089659 0.007106273 -0.05934213 0.096865684 0.029992115
-0.06507676 0.100485116 0.04886552 -0.036826223 0.091010705 -0.05026545 0.09248673 0.015853718
0.108640686 0.03883131 -0.09743138 0.06404524 0.110197365 0.07744176 -0.017007124 0.012375714
-0.03639362 0.068592645 -0.045087356 -0.0826434 -0.021582747 0.10999832 0.016697882 -0.08664919
0.074189305 0.040264215 -0.035688795 -0.08014259 0.12073502 -0.0518057 0.09138223 -0.03882674
-0.059814766 -0.019801434 0.08486493 -0.053350024 0.025687972 -0.059601698 -0.04689198 -0.042497054
0.006223126 0.09816817 -0.052549835 -0.070933074 -0.03201264 -0.03612197 -0.06850326 0.06662362
0.11321678 0.0039641624 0.07117043 0.034259025 -0.10747681 0.09160163 -0.04052077 0.09143596
0.018295517 0.08988117 -0.032036006 -0.04023351 -0.15973015 0.031219468 -0.12337421 -0.08596473
0.054604817 -0.08083872 0.021379806 0.058551777 0.035314117 0.06858089 -0.011373361 0.09817421
-0.121812426 -0.010098375 -0.08637462 0.014214678 -0.06773929 -0.023539318 0.081523344 -0.01718788
-0.14343737 -0.06322961 0.026960932 -0.110758424 0.01995831 -0.17467798 -0.097617835 -0.09513513
-0.08193723 -0.056696266 0.010108165 0.011346068 -0.06588531 -0.060971547 -0.016596735 -0.1592565
-0.023277918 -0.10988237 0.05034817 -0.035877075 0.046704877 0.031663097 0.06378014 -0.06473362
0.04505524 -0.05886112 -0.03556939 -0.15464622 0.015203864 0.0011138082 -0.13527595 -0.011621286
-0.029668704 -0.08372866 -0.031247487 -0.048759032 -0.09273755 -0.039934006 -0.0074245394 -0.018163623
-0.047952265 -0.19292887 -0.0075994767 0.065232515 -0.11475046 0.058755796 -0.15258084 -0.008545607
-0.16207987 -0.0034515245 0.042391922 -0.0056636687 0.0038060527 -0.0141378 -0.04819817 0.05834927
-0.035053402 -0.011365654 0.1255695 -0.06352398 0.023250263 0.061490722 0.13152495 0.068383075
-0.043446463 0.1219202 -0.0962129 0.04410527 0.07238967 0.09108725 0.096413024 -0.07720748
0.025726723 -0.10956504 0.0461924 -0.031021614 -0.019990342 -0.10186174 0.056899108 0.093099706
0.14876558 0.06406867 -0.073179 -0.05099108 -0.07219203 0.022412924 0.0061728256 0.07092299
0.080696754 0.11440188 0.06892425 0.022854043 -0.04455588 -0.042908918 0.12434399 0.14052132
-0.032239575 0.079828694 0.09374373 -0.006724158 0.05776947 0.008927835 0.04388741 0.008164393
0.105538175 -0.006166938 -0.076809555 -0.0028246082 -0.027098102 0.059370834 0.06127051 -0.036840774
0.089501165 0.06790104 -0.071734086 0.013373477 0.07883711 -0.007252122 0.0205967 -0.0016407827
0.044327118 -0.07124588 0.08643931 0.07795206 0.08834368 0.10823213 0.12635718 -0.054833356
0.025347184 0.094739825 -0.09646043 0.0549545 0.084873386 0.020168042 0.03580604 0.005874314
-0.08010361 -0.08937933 0.043043174 0.05676324 -0.056072325 0.08155368 0.08339697 -0.040799055
-0.077164866 0.025589032 -0.03489676 -0.03514578 0.12987006 0.10327339 0.006572954 -0.10842102

bias f4 [40]
00000000: 16e4 e43d 34fc 573c 7668 76bd ba9c c7ba
00000010: e4cf b7bd a82d d5bd 8428 afbd c00c 363d
00000020: 2001 913d b29e 603d 5747 6f3c 1912 f7bd
00000030: dc94 34bd 5a2e e03d a8ba b03d e085 62bc
00000040: 8e5f 0dbe fb0f d5bd 563e f5bd b6fa bd3c
00000050: aa85 903d 81da 993d 848d 76bd ec90 b33d
00000060: 91cc 08be ea59 ee3c 6c85 f8bd 6349 643d
00000070: cccf fe3d b9bd 1dbc 32f0 5a3d 4017 e43d
00000080: e656 b13d 8341 5bbd ced7 17bc f7c2 ce3d
00000090: 31b6 6c3d ce21 6dbb 7023 37bc fbf8 5abc
0.111763164 0.0131826885 -0.060158215 -0.0015229203 -0.08975199 -0.10409099 -0.085526496 0.044445753
0.07080293 0.054838844 0.014604411 -0.12063999 -0.044087276 0.10946341 0.08629352 -0.013825864
-0.13805982 -0.10403439 -0.1197478 0.023190837 0.070567444 0.075123794 -0.060193554 0.08767876
-0.13359286 0.029095609 -0.12134823 0.05573405 0.12441978 -0.009627753 0.053451724 0.11137247
0.08659153 -0.053529274 -0.00926776 0.1009578 0.05779094 -0.003618348 -0.011177883 -0.013365026

weight f4 [40, 80]
00000000: 7d0f 40bd 50f5 a03c 61b1 31bd 91cf 6fbc
00000010: 84ac 54be b724 3ebe 1770 96bd f28c d13d
00000020: 5077 a137 a285 f9bd 00fa 84bb 6c2d b83c
00000030: e466 8d3b 8839 76bd dab1 c03a 1e46 75bd
00000040: d4e6 b2bd 2800 c1bc 899f 8dbd 2533 b23d
00000050: 34f3 343b 53f5 883b cd08 abbd 58a4 d2bd
00000060: 555b 2abe 8998 68be bb45 44bd 26fa 29bd
00000070: 2472 943c c56e 32be 2813 1e3c eac0 1bbd
00000080: cf8f bbbd 9dba 6bbd 4171 9cbd 05cd 0abe
00000090: 2f8f a0bd 43a3 f8bd 4d23 a3bd 1139 3cbe
000000a0: d142 09bd 049c 21be 4ee6 3abd 9602 1ebe
000000b0: e31a efbd 31e8 98bd 906c e5bc 9973 babc
000000c0: dea8 01be 5124 8f3c b030 09be 19b6 bbbd
000000d0: dd50 5c3d 8cae 6b3d 022b c33b b570 a5bd
000000e0: fa69 933d 1db7 2bbb 43ae dcbc 3806 023d
000000f0: b81d 91bd b055 06be 4d32 3bbe 821d 643d
00000100: b8a1 f1bc 9deb d2bd f44e 8abc df19 d3bd
00000110: 3717 a2bd 8078 ecbc 3f68 c5bd 65fe 6cbe
00000120: a43a 32bd fe93 983a 75ad a13c a74a 293d
00000130: 7e7f 01be 5c65 8f3c ce78 1cbe 4c36 39be
00000140: 8c59 703d eab7 78bd 958d cbbd ab30 e3bc
00000150: bd99 d5bd b87c a6bd 1322 47bd 8017 d2bd
00000160: f571 1f3c 0582 84bd d349 05be 918f 23bd
00000170: b67c f7bd 2786 18bc 5b1e dcbd 0679 d03d
00000180: 3e81 bbbc d6ed d73c f361 493d f72f c2bd
00000190: 71b1 37be 0a85 263d 90f1 243d 0d4b f6bd
000001a0: d2dd 8ebd 5a16 6ebc d576 bc3d b421 11be
000001b0: b144 d5bc b02d 54be 2d04 bcbd 0942 b3bd
000001c0: 0e76 b63d 18d7 2bbe 080d 72bd 8dcd 81bb
000001d0: 4b53 26be 7a70 a43d 87eb 72bd 9598 94bc
000001e0: 587c 323d f480 6c3d d82b 6dbb 7b02 f9bd
000001f0: 08f8 01be 0679 bcbd d3b2 1d3d 336a b9bd
00000200: 72d2 f4bb 4b8d 97bb 1544 15be 82cb 85bd
00000210: 0df9 fabc 399d cebd 37b0 05be 1ba2 233d
00000220: dabd e7bb b374 003d 8921 023d 8d00 35bd
00000230: cd25 1fbe c26d a6bd 67d2 0bbe 00da 6c3d
00000240: 6bff a9bd 17d4 c8bd 86fc d2bd 0943 cbbc
00000250: 7403 9cbd c4f3 c3bc 6333 98bd 6af8 10be
00000260: 2439 51bd a0b2 cfbd a3ac 2c3c 20ca c8bd
00000270: 8315 eabb 9c9e fe3b f8bc 34be 98e1 1bbe
00000280: 65d8 5ebc be60 01be 72bd abbc 70a4 e33c
00000290: db38 77bd 9a68 8dbc aee5 53be 1edf 22be
000002a0: 6103 93bd f279 3dbd 407d 653d 0436 6c3d
000002b0: 945b 683c fe1f 0cbe e17a 85bd c36c 14bd
000002c0: 2a6e dcbd e29b debd fef2 bebd 0be0 1dbe
000002d0: eadb 4a3d 46da 173c 7bd7 d93c 4470 5dbd
000002e0: 8143 1fbe d776 2cbe d45d dabd a8c9 1abe
000002f0: d244 59be 3be1 4cbd 93b7 91bd fd4e b23c
00000300: 7d83 cebd 361c 4d3b 5ca2 0fbd 1db5 10be
00000310: d301 c5bd 7101 3cbb 57af 54bd 78c5 21be
00000320: 7946 8f3d 70d3 673b f8cc ef3c df24 febd
00000330: e1d2 11bd 75de 3f3c 5ba9 f5bc acbe ea3c
00000340: 0413 ddbc 829c 37bd 33e9 b9bc f0d7 f3bc
00000350: b6f1 d3bd 8b43 923d 49a3 e03c 8114 82bd
00000360: 664e f43b 2bb0 2b3d b801 0b3d b8a4 b4b9
00000370: bca7 acbd c73b ac3b 0b4c e7bd 707f 1d3d
00000380: 4e18 db3c 87ed ddbd 30aa 19be 903b 64bc
00000390: af36 0cbe 487f b9bd ec10 97bd 9b1a 0ebe
000003a0: d9ff bbbd a25f 203c ce21 14bd 403c 21bd
000003b0: 63fa d23c 025d 83bd 3eb5 efbd c103 09be
000003c0: f1c8 a93c 6677 35bd 14ee fdbc b017 e2bc
000003d0: c58d 2cbe 2e46 28bd 760c 33be 7aa8 88bd
000003e0: 2b1e bb3c 6937 fdbd e458 1ebc 2103 c6bc
000003f0: 527f 0fbe 9575 6cbd b477 bebc e766 963d
-0.04688977 0.019648224 -0.043382052 -0.01463689 -0.20768934 -0.18568693 -0.07345598 0.10231961
1.9248255e-05 -0.121836916 -0.0040581226 0.022482596 0.004315244 -0.06011346 0.0014701441 -0.059881322
-0.08735433 -0.023559645 -0.069151945 0.08701161 0.002761078 0.0041796356 -0.08351288 -0.10285252
-0.16636403 -0.22714438 -0.047918063 -0.041498326 0.018120833 -0.17425068 0.009648122 -0.038025774
-0.09158289 -0.057551015 -0.07638789 -0.13554771 -0.0783981 -0.12140515 -0.079657175 -0.18381144
-0.033510987 -0.15782171 -0.045629792 -0.15430674 -0.1167505 -0.07466162 -0.028005868 -0.0227602
-0.12662074 0.017473372 -0.13397479 -0.09165592 0.053788055 0.057539508 0.0059560547 -0.08078138
0.07197948 -0.0026201673 -0.026938563 0.031744212 -0.070857465 -0.13118625 -0.18280907 0.055692203
-0.029496059 -0.10298846 -0.01688335 -0.10307669 -0.07914584 -0.028866053 -0.09639024 -0.23143919
-0.043512955 0.0011640785 0.019736031 0.04133096 -0.1264629 0.017504387 -0.15280458 -0.18087119
0.05867915 -0.06072227 -0.09939114 -0.027733168 -0.10429714 -0.08129257 -0.04861648 -0.102583885
0.009731759 -0.06470112 -0.13016443 -0.039931837 -0.120843336 -0.009309328 -0.10747977 0.101793334
-0.022888776 0.026358526 0.049165677 -0.09481805 -0.17938782 0.04065422 0.040269434 -0.120260336
-0.069759026 -0.014531696 0.09202353 -0.14173013 -0.026033731 -0.20720553 -0.09180484 -0.087528296
0.08909236 -0.1678127 -0.05909446 -0.003961271 -0.16242711 0.08029266 -0.059306648 -0.018139163
0.043575615 0.057740167 -0.0036189463 -0.12158676 -0.12692273 -0.09202771 0.03850062 -0.09053459
-0.007471376 -0.0046249977 -0.14576752 -0.06532957 -0.030636335 -0.100885816 -0.13055502 0.039949518
-0.0070721926 0.031361293 0.031770263 -0.04418998 -0.15541764 -0.081264034 -0.13654481 0.05782509
-0.0830067 -0.09806078 -0.10302071 -0.024812238 -0.07617846 -0.023919947 -0.07431676 -0.14157262
-0.051079884 -0.10141492 0.010539207 -0.09804177 -0.0071436777 0.0077703726 -0.17650211 -0.15222776
-0.013601397 -0.1263456 -0.020964358 0.02778837 -0.060356956 -0.017261792 -0.20693085 -0.15905425
-0.07178379 -0.046258874 0.05602765 0.0576687 0.01418199 -0.13684079 -0.06517578 -0.036236536
-0.107631996 -0.10869576 -0.09323691 -0.15417497 0.049526133 0.009268349 0.026592007 -0.054062143
-0.15553094 -0.16842209 -0.106624275 -0.15115988 -0.21217659 -0.050019484 -0.07115092 0.02176618
-0.10083673 0.0031297333 -0.035066947 -0.14131589 -0.096194886 -0.0028687383 -0.05192503 -0.15797985
0.069958635 0.003537383 0.029272541 -0.12409376 -0.0356015 0.011710753 -0.029987982 0.028655373
-0.026986606 -0.04482699 -0.022694206 -0.029766053 -0.10348837 0.07141789 0.02742161 -0.06351567
0.007455635 0.041916054 0.033937186 -0.00034455 -0.0843043 0.0052561495 -0.11293801 0.038451612
0.026744988 -0.1083632 -0.15006328 -0.013930216 -0.13692735 -0.0905748 -0.073762745 -0.13877337
-0.091796584 0.009788426 -0.03616505 -0.0393641 0.02575416 -0.06414224 -0.11704491 -0.13380338
0.0207257 -0.04430332 -0.030997314 -0.027599186 -0.16850956 -0.041082554 -0.17485222 -0.06672759
0.022841534 -0.12364084 -0.009664748 -0.024171414 -0.14013413 -0.057729322 -0.023250438 0.07343846

bias f4 [40]
00000000: d58f 27be f0cb 80bd 5ea2 13be 5862 cbbc
00000010: c8bc ebbd e394 1bbe e71a 49be 616a 55bd
00000020: 04d8 95bd 0ecf 05be 0568 013a b209 3e3c
00000030: 0de3 36be c17b 26be 7c6b d0bd 7b63 efbd
00000040: 0a7b c3bd e906 52bd a7c2 6dbd 988e b0bc
00000050: 74ca 41be fa36 84bd 4803 96bd 29ed 00be
00000060: aee5 9fbd 21e7 56be 8e57 1fbe 4a53 3dbd
00000070: fc05 d0bd 0348 19be 6660 30be d440 c5bc
00000080: 5511 20be 3390 a63b 4b22 4bbe 7ce0 8bbd
00000090: e4cc 43be 2dbc 80bc bdd5 fabd a61d 34be
-0.16363461 -0.06288898 -0.14417407 -0.024827167 -0.115106165 -0.15193515 -0.19639169 -0.052103404
-0.07316592 -0.13067266 0.00049364596 0.011598991 -0.1786005 -0.16258146 -0.10176751 -0.11688896
-0.09544952 -0.05127612 -0.058046963 -0.021552369 -0.18924886 -0.064557984 -0.073248446 -0.1259047
-0.0780748 -0.20986606 -0.15560743 -0.04622201 -0.101573914 -0.14968877 -0.17224273 -0.024078764
-0.15631612 0.005083108 -0.198373 -0.06829926 -0.19121128 -0.01571473 -0.122477986 -0.17589435

weight f4 [80, 40]
00000000: 8802 0b3e ed05 5bbd 60c0 e93d f0ee f6bd
00000010: e788 82bd 6f32 acbd ed08 a43d 57f6 d63d
00000020: d8ab a73d 1c24 9f3d 7891 6dbd f81e b73d
00000030: c749 6c3d 43d4 c13a f3b8 2cbc 92af 993d
00000040: a04f 2bbd 7651 153e fa74 a2bd 354b 963d
00000050: b0dc fa3d a083 a23d 4ac3 01be 6db7 ac3d
00000060: eb1a d23d cc93 f73d 4033 d63d d2d2 00be
00000070: 564a 90bd 1e29 013e 9f4e bcbd a2e2 e6bd
00000080: 7809 bfbd c3c4 b5bd 1ef2 e33b c4ed de3d
00000090: 1636 1fbe 7046 ac3d f847 f1bd ce49 61bc
000000a0: aeba 9dbd da8c c43c 422b debd 9b85 603d
000000b0: 2dcf 88bd f8d3 abbd 4b7f 8a3d 5342 a63d
000000c0: 5afe 133b c2a0 a53d e9d6 bd3d 46b5 80bd
000000d0: 4079 8cbb 2ae0 ce3d fdde 3bbc 8ea1 f53c
000000e0: c71f adbd 5e1b 1c3e c240 1c3d e9d0 463d
000000f0: c956 083e dafa a23d 54e1 fcbd 404f 87bd
00000100: 89b2 9e3a ea51 183d 06f2 b93d dfc7 ebbd
00000110: 6b50 013d 3c14 293d 2b82 e3bd 8be3 0dbe
00000120: c23e 02bb cc4a b33d 15ed 933d 3495 523d
00000130: 142b 323d 47f8 d23d 9b97 8bbd f2a9 8d3c
00000140: 14fa e5bd 456d f4bb 182f 7d3c 0813 cbbd
00000150: 0b78 513d eb7d d5ba cfc7 6dbc d639 71bd
00000160: 09fa e2bd d409 b4bd 9f73 2f3e a7a4 8fbd
00000170: 0cec dabc 5ca4 bfbd 2b1c 893c 695d 42bc
00000180: 1806 80bd ea7e f83d 04b7 dc3d 65d7 4b3d
00000190: 9b77 903c 65a1 29bd ec6a a5bb b332 0fbe
000001a0: 116c 0bbe cb99 693d 2ec1 a43d 48ff a9bd
000001b0: 3fef 023e c607 fabc 4898 4dbd 8d1a 52bd
000001c0: 8a2c 183e 158a d1bd 6ebc b73d fc57 ba3d
000001d0: 0a50 58bd 307a 043e dc51 f7bd c329 10bd
000001e0: cd4e 193e ecae b7bd caff 1ebe 0967 40bd
000001f0: 9f85 d33d 802a 9c3d 376b e0bc 7fd7 2d3d
00000200: d524 8d3d b036 c8bd ec63 2ebd 0de3 ffbc
00000210: ca3d febc 8ff7 d6bd 8505 e4bd edc1 1b3d
00000220: 9fad 7c3d 2d88 85bc e85d ce3d 02c7 cbbd
00000230: bec4 d33c 2550 063e ca76 87bc e03b 0c3d
00000240: 685c e93c 1fbf bbbd 7240 cbbc cd79 1abe
00000250: e2cd f5bb 36cb 29bd 3dda b03c d016 febc
00000260: 49f3 cd3d 5bc9 803d 05a0 6dbc 7152 efbd
00000270: f8cf cebd b61b 923d 19e2 aabc e1a2 cbbc
00000280: a4ae c73d 6b69 2a3d 9c9c c4bd 6c4e e2bd
00000290: 88dd e2bc 73fa 87bd 0952 cfbd c90e 963b
000002a0: 4216 033d 0a62 c8bd 8586 d83d 0a5d 073d
000002b0: 5092 7dbd 210a e83d b71e 89bc 081a 12be
000002c0: 3c81 983d 65b3 6dba ab17 093e 9933 253d
000002d0: 301b 15be 24df 803d 8d42 683b 1d61 7ebc
000002e0: 7652 0cbe 8c9b a03c 9db2 71bd 4665 e83b
000002f0: f1d3 27be 5057 7fbd 360b ae3c a934 f13d
00000300: 21f6 2dbd 0352 1d3d 8e25 6e3d c131 71bc
00000310: e3ab 06bc bc89 463d e04b 003c b028 8ebd
00000320: 0c7f ecba 28ef 2d3c 6204 9e3d 9e97 a3bd
00000330: bf77 923d d498 96bd 1055 a2bd 6697 f0bd
00000340: 7fea b83d e75c 20be 8390 08be 0379 db3d
00000350: 51ee 353d 9a3b 0c3d 9c74 83bd 242f 1dbc
00000360: 4948 263d 83d0 c43d 8356 03bd 12fc 01be
00000370: f8aa e83d 9479 7c3d b34d e93d 02b5 14be
00000380: c591 a9bd 16cb 8c3d 3725 fcbc ce59 a2bd
00000390: 6c59 29be e49c 4bbd 3ffd 0ebe 798c c4bd
000003a0: 4466 833c 9153 d3bd 8243 bcbd 54d2 9cbd
000003b0: 45ee 0c3e 3c7e 083d 4866 fd3d 9ee3 ffbd
000003c0: bfeb e73c 5fda bbbd 001d 013e 2827 e6bd
000003d0: f98d f4bc 17d6 b3bc bfb7 04be 23bb d93c
000003e0: acc1 9e3d cd14 0bbd 1072 04be b7c3 a6bd
000003f0: 2f40 b3bd f99a 9abd cd6e 613d b994 58bd
0.13575184 -0.05347245 0.11413646 -0.120572925 -0.06373768 -0.08408057 0.08009515 0.10496204
0.081870735 0.07770559 -0.058000058 0.08941454 0.057687547 0.001478799 -0.010542142 0.075041905
-0.041823983 0.14581856 -0.07932468 0.07338563 0.12249124 0.07935262 -0.12672153 0.08433423
0.102590404 0.12088737 0.10458994 -0.12580422 -0.070454285 0.12613341 -0.09194683 -0.112736955
-0.09327978 -0.0887542 0.006956353 0.10885194 -0.15547976 0.084118724 -0.11781305 -0.013750507
-0.07701622 0.023992945 -0.108480945 0.054814916 -0.06680141 -0.08390039 0.067625605 0.08118119
0.0022582025 0.08087303 0.092695065 -0.06284575 -0.004286915 0.1010135 -0.011466739 0.029984262
-0.08453327 0.15244815 0.038147695 0.048539076 0.13314356 0.079580024 -0.123476654 -0.066069126
0.0012107651 0.037187494 0.090793654 -0.11512732 0.031570833 0.041279063 -0.11108812 -0.13856332
-0.0019873832 0.08754501 0.07222954 0.051411822 0.043498114 0.103012614 -0.06816026 0.01729295
-0.11229339 -0.007459315 0.015453123 -0.09915739 0.051139873 -0.0016288137 -0.01451297 -0.058893047
-0.11082847 -0.08790937 0.1713395 -0.07013827 -0.026723884 -0.09357521 0.016737064 -0.011863091
-0.06251162 0.12133582 0.10777095 0.049765963 0.017635157 -0.041413683 -0.0050481465 -0.13984184
-0.13615443 0.057031434 0.080446586 -0.08300644 0.12786578 -0.030521285 -0.050194055 -0.051294852
0.1486074 -0.10231415 0.08971487 0.09098813 -0.052810706 0.12937236 -0.1207616 -0.035196077
0.14971466 -0.089689106 -0.15527263 -0.046973262 0.103282206 0.07625294 -0.027394874 0.04244184
0.06891791 -0.09776056 -0.04257576 -0.031236196 -0.031035323 -0.10496437 -0.11133865 0.03802674
0.061689015 -0.016300285 0.10076505 -0.09950067 0.02585065 0.1311651 -0.016536135 0.03423679
0.028486446 -0.09167313 -0.024811003 -0.15085526 -0.00750135 -0.041453563 0.02158844 -0.031016737
0.100561686 0.062884055 -0.014503484 -0.11685646 -0.10098261 0.07134192 -0.020859765 -0.02485794
0.09750107 0.04160444 -0.09600183 -0.11050114 -0.027693525 -0.06639566 -0.10123069 0.0045793992
0.03200365 -0.097843245 0.105725326 0.033047713 -0.061907113 0.11330057 -0.016738279 -0.14267743
0.074465245 -0.00090675644 0.13387935 0.04033241 -0.14561152 0.06292561 0.0035440058 -0.015526083
-0.13703331 0.01960542 -0.05900823 0.007092151 -0.16389443 -0.062339127 0.02124558 0.11777622
-0.042471055 0.03840829 0.058141284 -0.014721335 -0.008219692 0.048471197 0.00783059 -0.06941354
-0.0018043234 0.010616101 0.0771568 -0.07987903 0.07151746 -0.073533684 -0.07926381 -0.11747627
0.090291016 -0.1566044 -0.13336377 0.107164405 0.04441673 0.034236528 -0.06418726 -0.009593759
0.04059628 0.09610083 -0.032064926 -0.12693813 0.11360735 0.061639383 0.11391773 -0.14522174
-0.082797565 0.06874673 -0.030779464 -0.07927285 -0.16538018 -0.04971017 -0.13963793 -0.095971055
0.016039975 -0.103186734 -0.091925636 -0.076573044 0.13762768 0.03332351 0.12373024 -0.124945864
0.028310655 -0.0917251 0.12608719 -0.11237937 -0.029852854 -0.021952672 -0.12960719 0.026578492
0.07751784 -0.033955384 -0.12934136 -0.081427984 -0.087524764 -0.0754909 0.05503731 -0.052876208

bias f4 [80]
00000000: e9d6 3ebd e7da 3fbe 417e d4bd fcab 15be
00000010: e729 24be bbb6 4bbd e4bc 8a3d 48ab b63c
00000020: cbed b63d 2e78 0ebd beaa 0ebc f126 4bbe
00000030: 8ecb e0bd 6eaa fe3d b958 27be e55e b1bd
00000040: 2a15 bebd a5f5 e5bd 5465 cabd a651 3ebe
00000050: 0141 153e 42f4 13bd 4955 b6bd 1835 93bd
00000060: 34f8 a1bd 91c8 e9bd 8f10 2abe fa24 92bd
00000070: 9989 ec3d 4ebf b53d bd61 c5bd e8e6 0f3d
00000080: fccc eabd 3b3b b63d 3b33 6e3d ae50 a7bc
00000090: 2904 d9bc 5688 863d c222 4fbe 3962 2ebe
000000a0: fa21 43bc d1ef 453d b639 1abd 3a6f 2d3d
000000b0: 8ddd 27bd 341b 22be eab7 a13d 9c1e 15be
000000c0: dbfe 75bd 596c 4dbe 77e7 b3bd 5413 fcbc
000000d0: a68c 3abe 53b0 4abe 6f88 51bd e4d6 073e
000000e0: 378a 753c 62f4 e0bd f5c9 9cbd 7602 a13d
000000f0: 924b eebd 5c0d a63d c7c7 98bd f212 003e
00000100: 9271 113e 3321 a5bc f864 e4bd 0875 3ebe
00000110: 4eda bd3d 0b78 f6bd 6878 ab3d da3e b3bc
00000120: 505c 07be 5fd2 a33d 093d babd f21b dcbd
00000130: 7597 b73c a60b 2abd b256 84bd e766 b13d
-0.046591673 -0.18735848 -0.103756435 -0.14616388 -0.1603161 -0.049734812 0.06774309 0.02229847
0.08932074 -0.03478258 -0.0087077 -0.19839074 -0.10976325 0.12434851 -0.16342439 -0.08660678
-0.092813805 -0.112284936 -0.09882608 -0.18585834 0.14575578 -0.036121614 -0.089029856 -0.07187861
-0.07908669 -0.11415208 -0.16607879 -0.07135959 0.11549682 0.08874379 -0.09637783 0.03513232
-0.11464879 0.08898016 0.058154326 -0.020424213 -0.026491242 0.06568973 -0.20228103 -0.17029656
-0.011909956 0.04832441 -0.037652694 0.042342402 -0.04098277 -0.1583069 0.07896407 -0.14562458
-0.060057502 -0.20060863 -0.08784383 -0.030770935 -0.18217716 -0.19793825 -0.051155504 0.13265568
0.014986566 -0.10984112 -0.07655708 0.078617975 -0.11635508 0.08108017 -0.074599795 0.12507227
0.1420348 -0.020157432 -0.11152071 -0.18599331 0.09270154 -0.12034615 0.08372575 -0.021880556
-0.13218808 0.079991095 -0.09093673 -0.10747518 0.022411088 -0.041515015 -0.06461848 0.08662205

weight f4 [5, 80]
00000000: bf11 9cbc 360f 7fbd bc8a fe3b 22b4 52bd
00000010: 93cf 30bd 8c5f 03bd bdae 533d 2cb7 9c3c
00000020: 553e 61bc cb1e ff3c f410 2cbc acf9 8e3d
00000030: 7fc8 3c3d 2022 893c dbde 7fbd 0841 29bb
00000040: 0456 e2bc 8d49 71bd e7a3 35bd 6bb8 9e3b
00000050: aa13 28bb bfc8 553d 7fab a6bd 872e 383b
00000060: 0b3a aebc a1d7 753d 2ee6 533d 9b33 ac3c
00000070: a940 ce3c c7cd 773c 7e86 db3c 8715 253c
00000080: e080 2bbc 5373 103d db0d 05bd fbe3 49bd
00000090: 05ad a3bc 9fef 10bd 0fdd 053c 12de d03c
000000a0: 65c7 043d d057 933c 2f93 26bd 1e9d 30bd
000000b0: 2f13 debb 307d 91bd 47cd bf3b 9483 fdbc
000000c0: 1d39 b33c df1b 923d 60d1 a93c 8a15 5cbc
000000d0: e2c5 98bd cd3c 4c3c 7e88 123c e6b3 f9bc
000000e0: 36d5 c63b 2949 393d 6b62 023c eacc 65bb
000000f0: 4713 3abd 8f88 e6bc 3f0f daba 115e d6bc
00000100: ccf4 2abb d2e7 b03b 6595 973d dd4f 503d
00000110: 6cd3 213d dba9 0a3d 0206 473b 518a 17bd
00000120: 8860 943b 9135 503c 4805 33bd c197 5c3d
00000130: 5d55 07bd dce3 c8bc a333 5c3d a55b afbc
00000140: 11a7 0dbd 427e 183d 30f4 a8bd d869 51bc
00000150: 6f40 93bd b6e1 ddbb b78c c2bb c13c a2bd
00000160: de12 563d 8509 ec3c b798 863c 7f91 663d
00000170: ade5 09bd 66b3 253d d3c6 bb3c 9aeb 15bd
00000180: 111f e9bc 5e46 e0bb b24d 263d 7592 613c
00000190: 2d30 163d 9b6d 993c cac2 85bd 6cba acbd
000001a0: 8a4b 2b3c ff4d 4e3c 9456 863c 9c29 fbbc
000001b0: 18ea 0e3c 3799 9cbc 79a3 183d 1b41 22bb
000001c0: 3e5c c8bb 0a93 d93c 7350 71bd 7227 36bc
000001d0: 74ce 473d 8f77 1f3d 9fa6 383d 9aeb ad3c
000001e0: cbfe 013c 8362 7bbd 1c4d 183d 6ae2 2cbd
000001f0: cbe0 18bc a4ea 103d 7039 80bd bf01 0c3c
00000200: 00a6 a73c f2d7 773d 4d45 15bd 8d8e 2ebd
00000210: 165b b8bb 1568 f83b 578d 8cbd e911 993c
00000220: d24f dabb 603c 8bbd 54ce 17bd 8936 6b3d
00000230: e8cd c2bb d9fb 273d 6617 413c e0d1 babd
00000240: ffd8 79bd 5ff6 0b3d ba87 76bd 2759 6e3d
00000250: 4883 7939 d723 013d 311e 2e3b 61d9 973d
00000260: 2988 e5ba 7e41 a63c 90cf 2bbc 91b4 c33c
00000270: 3c2b 1a3d c4ac 62bc a3e6 d3bc 63fd 33bd
00000280: b6c6 0dbc c0b8 583d 49ec 45bc da2b 19bd
00000290: da7c 80bd 030d be3c 05e6 30bd 6c3f 333d
000002a0: 7427 81bd 64ea 533d 1b65 09bd 6530 9c3c
000002b0: f45d 093c 47ff 45bc 45f3 15bd ee03 6a3c
000002c0: c24a 64bd e993 a93c d65c 06bd 67c9 f53c
000002d0: 3c17 21bd 085e 813d 592d 823d c28e 1a3c
000002e0: 477a 563c 7876 123b 4e29 db3c b119 a83c
000002f0: ca60 61bd 93fd aebb c010 d3bc cfdf ca3b
00000300: e0c9 a73a 74c5 803c 3516 7ebd a17c 77bd
00000310: a24c 523d 3b15 3dbd e4fd 42bd 7ab2 d43c
00000320: e5ae ad3b 8ef0 323d 39b7 273d bf72 85bb
00000330: f2be 703b e1df 5b3c 5f1f f63a 7770 613d
00000340: ca9b 263d 5481 eabc 81c1 59bd 7115 f7bc
00000350: 69d5 24bd 9da8 c13c 6f7f 4dbd 4536 90bd
00000360: cb54 0b3d bcf0 fabb ebcb 423c 65a2 233b
00000370: cdde a33d b0c4 4c3c 9a09 5ebd fe0a 563d
00000380: 72f3 373c 69b2 34bd db62 94bc 9441 cf3c
00000390: 7ead 2ebd 3888 ca3a f65a b8bc 5912 86bd
000003a0: 13dc 13bd b848 3cbb 294a bb3c cf49 3dbc
000003b0: 4d4a d7bc ac9e 6e3d 975f 203d 12a0 d6bc
000003c0: f1c4 ca3c de66 663d 858d f5ba 23e8 3e3d
000003d0: e6f4 163b fc95 33bc 4397 07bd 1729 583c
000003e0: b9a0 5d3c c648 16bd 3b77 0ebc 46c6 43b9
000003f0: 5598 9dbd c84f 6f3d 6e53 433d 7d85 263c
-0.01905143 -0.062270366 0.0077680033 -0.05144132 -0.04316671 -0.032073542 0.051680315 0.019130312
-0.013747771 0.031142613 -0.010502089 0.06981215 0.046089645 0.016739905 -0.06246839 -0.0025826115
-0.027628906 -0.058908034 -0.044345763 0.0048437617 -0.0025646486 0.0521934 -0.08138179 0.0028103904
-0.021267911 0.060020093 0.05173319 0.021020701 0.025177317 0.015124745 0.02679753 0.010075933
-0.010467738 0.03526623 -0.032483917 -0.049289685 -0.019979963 -0.03538477 0.00817038 0.025496516
0.03241672 0.017986208 -0.04066771 -0.04311859 -0.006777189 -0.07103956 0.0058533284 -0.03094653
0.02187782 0.07134222 0.02072972 -0.01343287 -0.07459618 0.012465668 0.008943675 -0.03048129
0.006067897 0.045235787 0.007958035 -0.0035064765 -0.04542854 -0.028141288 -0.0016636624 -0.026167901
-0.0026085852 0.005398729 0.074015416 0.050857414 0.03950827 0.033853393 0.0030368571 -0.036997143
0.004528109 0.012708084 -0.04370621 0.05385566 -0.033040393 -0.024522714 0.053760182 -0.021406004
-0.034583155 0.037229784 -0.082497 -0.012781583 -0.07190024 -0.0067712916 -0.0059371847 -0.07921744
0.052264087 0.028813133 0.016430242 0.0562911 -0.0336663 0.04045429 0.022921955 -0.03660164
-0.028457196 -0.006844326 0.04060144 0.013767828 0.036667038 0.018729022 -0.06531294 -0.08433995
0.010455022 0.012591838 0.016398706 -0.03065949 0.0087228045 -0.019116027 0.037265275 -0.0024758044
-0.0061145118 0.026559372 -0.058914613 -0.011117803 0.048780873 0.03893238 0.045080777 0.021230508
0.0079342825 -0.061373245 0.037182912 -0.042208113 -0.009330939 0.03538002 -0.06260955 0.008545338
0.020464897 0.060508676 -0.036443044 -0.042616416 -0.0056260927 0.007580767 -0.06862896 0.018685298
-0.0066623474 -0.06798625 -0.037062004 0.057425056 -0.005944956 0.041011665 0.011785364 -0.09122062
-0.06099796 0.034170505 -0.060188033 0.05819049 0.00023795397 0.03152832 0.0026568288 0.074145086
-0.0017511892 0.020294901 -0.0104864985 0.023889812 0.037638888 -0.013835136 -0.025866812 -0.04394282
-0.008653333 0.052910566 -0.012080261 -0.037395336 -0.062738135 0.023199564 -0.043188114 0.043761656
-0.06306353 0.051737204 -0.033543687 0.019066045 0.008384217 -0.012084789 -0.036608953 0.0142831635
-0.055735357 0.020700412 -0.03280338 0.030003263 -0.0393288 0.06316763 0.06356306 0.00943345
0.013090677 0.0022348445 0.026753094 0.020520063 -0.055023946 -0.005340287 -0.025764823 0.006191231
0.0012801252 0.015719153 -0.062032897 -0.06042159 0.051342614 -0.046162825 -0.04760541 0.02596401
0.00530039 0.043686442 0.04094622 -0.0040725167 0.0036734906 0.013420076 0.001877766 0.055038895
0.040675916 -0.028626122 -0.053163055 -0.030161591 -0.040242586 0.023639971 -0.05017036 -0.07041601
0.03401641 -0.0076580923 0.011889438 0.002496862 0.0800148 0.012498066 -0.054208376 0.052256577
0.0112274755 -0.044115458 -0.018113544 0.025299825 -0.042645924 0.0015451973 -0.022504311 -0.06546468
-0.03609855 -0.0028729867 0.02286251 -0.011553242 -0.026280547 0.05825679 0.03915366 -0.026199374
0.024752112 0.056250446 -0.0018734193 0.0466081 0.0023034154 -0.010961052 -0.03310324 0.01319339
0.013527089 -0.036690496 -0.008695419 -0.00018670512 -0.07695071 0.058425695 0.047686987 0.010163662

bias f4 [5]
00000000: 7f21 e23b be6d e83c b8f6 3f3d 10db 16bd
00000010: bddf 043d
0.0069009657 0.028372642 0.04686615 -0.036830008 0.032439936
