final_project/mlruns/3/8c7e2e72a7a5444b9ba51613ed8546bf/artifacts/cvae_20/data/model.pth (torch, 48391 bytes, 10 tensors)

weight f4 [80, 11]
0	0xbe8b112b	-0.27161536
1	0xbde23943	-0.11046078
2	0xbe6c6788	-0.23086369
3	0x3d357ad7	0.044306602
4	0x3d3cd8b0	0.046105087
5	0xbe350d30	-0.17680812
6	0x3e93a919	0.2883995
7	0x3e7969e0	0.24356794
8	0xbe056e6d	-0.13030405
9	0xbd7251ef	-0.05916017
10	0xbd2d2fef	-0.04228204
11	0x3d91fe8d	0.0712863
12	0xbe276a01	-0.16349031
13	0x3e26e263	0.16297297
14	0x3e86b08b	0.26306567
15	0x3db3b0d9	0.087739654
16	0x3e934576	0.28763932
17	0xbd64e174	-0.05587907
18	0xbe8fb3c1	-0.2806683
19	0xbe3353b5	-0.175124
20	0x3c256c52	0.010096626
21	0xbdea97ac	-0.1145471
22	0xbc8dc5d8	-0.017306253
23	0x3d037225	0.03209128
24	0xbe60d3fe	-0.21955869
25	0x3d8c2ddf	0.06844687
26	0x3e3c4136	0.18384251
27	0x3b6a22f2	0.0035726395
28	0xbdd8fee5	-0.10595492
29	0xbc90f23d	-0.017693633
30	0x3e54aa54	0.207681
31	0x3e5d90e5	0.21637304
32	0x3e0c7dcc	0.13719863
33	0xbd48d390	-0.049029887
34	0xbddcaaf8	-0.10774797
35	0xbe37f317	-0.17963825
36	0x3daa96d4	0.083295494
37	0x3ea3efd1	0.32018903
38	0xbe8669b6	-0.26252526
39	0xba889683	-0.0010420833
40	0xbdc0b6f8	-0.094098985
41	0xbd9e24af	-0.077218406
42	0xbe95a8ae	-0.29230255
43	0x3e5bb25b	0.21454756
44	0x3db030a8	0.086030304
45	0xbdd847da	-0.105605796
46	0xbcbb7a4e	-0.022885468
47	0xbdac2bbc	-0.08406779
48	0x3e875956	0.26435345
49	0xbe0d2edc	-0.13787407
50	0x3db1aa37	0.08675044
51	0xbe52e364	-0.20594555
52	0x3ce161a8	0.027512386
53	0xbdd53319	-0.10410137
54	0xbe585550	-0.21126294
55	0x3dd1b88f	0.1024028
56	0x3e3aba06	0.18235025
57	0x3d1f1f96	0.038848482
58	0xbe42b785	-0.1901532
59	0xbe87603d	-0.2644061
60	0x3e5f3eda	0.2180132
61	0xbe0a8f08	-0.13531125
62	0x3e739bc5	0.2378989
63	0xbe8220e9	-0.25415733
64	0x3e9759bb	0.29560646
65	0x3e3109c3	0.1728888
66	0xbe2085dd	-0.15676065
67	0xbd65dc0e	-0.056118064
68	0xbe2fb890	-0.17160249
69	0xbe85cc06	-0.2613222
70	0xbe22ffb9	-0.15917863
71	0x3e197a51	0.14988066
72	0x3dc7170b	0.09721192
73	0xbdc9faf9	-0.09862322
74	0xbe8f6d66	-0.28013152
75	0x3e14b7ca	0.14523235
76	0xbe477d82	-0.19481471
77	0x3db606ec	0.08888039
78	0x3e4ef4c4	0.20210558
79	0xbe37878d	-0.17922802
80	0xbdba7aa2	-0.091054216
81	0x3c8e0599	0.017336654
82	0x3e824867	0.25445864
83	0x3e39428c	0.18091792
84	0xbe4d606f	-0.20056318
85	0xbe874aa1	-0.26424125
86	0x3d4a662d	0.04941385
87	0x3e44c1cf	0.19214557
88	0x3e6195ac	0.22029752
89	0xbe1e0c5c	-0.15434402
90	0xbde1836b	-0.11011394
91	0x3d4e87f0	0.05042261
92	0x3e8b3293	0.27187023
93	0xbe35fe0a	-0.1777269
94	0x3deec807	0.11659246
95	0x3e84fcf5	0.2597424
96	0x3d3f5e6b	0.046720903
97	0x3e01f980	0.12692833
98	0xbd28bbf6	-0.04119488
99	0x3e93fae9	0.28902367
100	0x3e801941	0.25019267
101	0x3e4582d0	0.19288182
102	0xbe8b24f6	-0.27176636
103	0xbd846c19	-0.064659305
104	0x3ddf4a49	0.10902841
105	0xbd822db1	-0.06356371
106	0x3e8d493d	0.2759494
107	0x3dda8f93	0.10671916
108	0xbd7f1021	-0.06227124
109	0xbd6c0b57	-0.057628002
110	0xbe5716be	-0.21004769
111	0x3d14756f	0.036244806
112	0x3e4664a5	0.1937433
113	0x3de28792	0.11061014
114	0x3d5cec84	0.053936496
115	0xbe20f939	-0.15720071
116	0x3e07dbc7	0.13267432
117	0xbe96bcf3	-0.29441032
118	0x3d4b2134	0.04959221
119	0xbd8b50b7	-0.068025045
120	0xbe0313a4	-0.12800461
121	0xbe0f97c1	-0.14022733
122	0x3cde4949	0.027134554
123	0x3e4930e9	0.19647564
124	0xbd8f9c72	-0.070122615
125	0xbe699d04	-0.22813803
126	0xbc33a547	-0.010964698
127	0xbd99531f	-0.07486557
128	0xbd25cd77	-0.04047915
129	0x3e75a3ad	0.23988219
130	0x3d7b5b9c	0.061366662
131	0xbe9a210d	-0.3010334
132	0xbe78f13e	-0.24310777
133	0xbdc01927	-0.093797974
134	0xbe708cc7	-0.23491202
135	0x3d5a3d45	0.053281087
136	0x3d00170a	0.03127197
137	0x3e0c3404	0.13691717
138	0xbe019ab7	-0.12656675
139	0xbdf55e49	-0.11980874
140	0x3d9add0c	0.075616926
141	0xbd7f8713	-0.062384676
142	0xbe80f294	-0.25185072
143	0x3cc8f635	0.024531463
144	0x3e761ef3	0.24035244
145	0xbdd1c0ec	-0.10241875
146	0xbe0ac642	-0.13552192
147	0x3e031758	0.12801874
148	0xbe9991a0	-0.29993916
149	0xbe85dc0a	-0.2614444
150	0x3e36b959	0.17844142
151	0x3e1a772a	0.1508452
152	0x3e58c76e	0.21169826
153	0x3d1ccd79	0.03828189
154	0xbe077399	-0.13227691
155	0x3e70b152	0.23505142
156	0x3e820a87	0.25398657
157	0x3e97a885	0.29620758
158	0x3d56a1af	0.052400287
159	0x3e67986d	0.2261674
160	0xbdddf68f	-0.10838043
161	0xbe3fc613	-0.18727903
162	0x3e843060	0.25818157
163	0x3de66430	0.11249578
164	0xbea0a481	-0.31375507
165	0xbe4be81e	-0.19912764
166	0xbe09d569	-0.13460316
167	0x3e8fa180	0.28052902
168	0x3ea14a22	0.3150187
169	0x3e9b143f	0.30288884
170	0x3e4db278	0.20087612
171	0x3e8f21f2	0.27955586
172	0xbd8c544b	-0.06852015
173	0x3cc3cba5	0.023900816
174	0x3d3460a5	0.04403748
175	0x3e4d6f81	0.20062067
176	0xbe9e449d	-0.30911723
177	0xbe87d24d	-0.26527634
178	0x3e4503ae	0.19239685
179	0x3d3a26e3	0.04544724
180	0x3e1b6788	0.15176213
181	0x3e3dc247	0.18531142
182	0x3d5fd718	0.05464849
183	0xbe29571c	-0.16537136
184	0x3d2faf3e	0.042891733
185	0xbe878148	-0.2646582
186	0x3e511e3b	0.20421688
187	0xbe8a8739	-0.27056292
188	0x3d9cbe0c	0.07653436
189	0xbcd3b8aa	-0.02584489
190	0xbe740b01	-0.23832323
191	0xbe7cf3f9	-0.24702443
192	0xbe1f28cc	-0.15542907
193	0x3e2d444b	0.16920583
194	0xbe4a7292	-0.19770268
195	0x3dcb9ce6	0.099420354
196	0xbb35aace	-0.0027720216
197	0x3e8a912f	0.2706389
198	0x3e4446f6	0.19167694
199	0x3e8e24f0	0.27762556
200	0x3e0f4cac	0.13994092
201	0x3d802f65	0.0625904
202	0xbe2acf3e	-0.16680619
203	0x3e948dce	0.29014438
204	0xbe8d7a89	-0.2763255
205	0xbe9542c1	-0.29152492
206	0xbc83bbdd	-0.016080791
207	0x3e32efaf	0.17474245
208	0x3dee1000	0.116241455
209	0x3d977373	0.07395067
210	0xbe5d3bbe	-0.21604821
211	0xbe8162aa	-0.25270587
212	0xbdcd9832	-0.100387946
213	0x3e833bc4	0.25631535
214	0xbe9dd105	-0.30823532
215	0xbdd54bec	-0.104148716
216	0xbe706976	-0.2347773
217	0x3ca3b0aa	0.0199817
218	0xbdecf1b0	-0.11569536
219	0x3e26f897	0.16305767
220	0x3e8b9acd	0.2726654
221	0x3c646611	0.01394035
222	0xbe20012f	-0.15625452
223	0x3e04e7c9	0.12979044
224	0x3d824751	0.06361259
225	0xbea43ba2	-0.32076746
226	0xbe831a33	-0.25605926
227	0x3dd44cd3	0.103662156
228	0xbe3f1e79	-0.18663968
229	0xbe035d10	-0.1282847
230	0x3e254feb	0.16143768
231	0x3e041661	0.12899162
232	0xbe66242d	-0.22474737
233	0xbe20baa0	-0.15696192
234	0xbdfa2709	-0.122144766
235	0x3d977f06	0.07397275
236	0xbe965828	-0.29364133
237	0x3e9dc31b	0.30812916
238	0x3e552a27	0.20816861
239	0x3d482e13	0.048872065
240	0xbe4e1547	-0.20125304
241	0x3e6a8568	0.22902453
242	0x3e8733f2	0.2640682
243	0x3daa63bc	0.08319804
244	0x3e759b21	0.23984958
245	0x3e6f4447	0.2336589
246	0xbde53697	-0.11192053
247	0xbe4b83ef	-0.19874547
248	0x3e73fec6	0.23827657
249	0x3e97a5d9	0.2961872
250	0xbd986e81	-0.07442952
251	0x3e961ee9	0.29320458
252	0xbe9000ab	-0.2812551
253	0x3dae5348	0.085119784
254	0xbe2e67f5	-0.17031844
255	0x3e50734f	0.20356487

bias f4 [80]
0	0xbe0e623c	-0.13904661
1	0xbe188bcb	-0.14897077
2	0x3eb8dc90	0.36105776
3	0x3eb6f2a8	0.35732007
4	0x3ee56bc3	0.44808778
5	0x3e1a7980	0.15085411
6	0xbe1d0ba3	-0.1533647
7	0x3e4fda41	0.20298101
8	0x3e788f4b	0.24273412
9	0x3e268293	0.16260748
10	0xbe50a943	-0.20377068
11	0xbda9514c	-0.08267459
12	0x3c41fbf5	0.011839856
13	0x3e5bcac7	0.21464072
14	0x3cce02e2	0.025147859
15	0x3eaa663d	0.33281127
16	0xbd99ac21	-0.07503534
17	0x3e88933b	0.26674828
18	0x3ea0ee68	0.3143189
19	0x3eb87e90	0.3603406
20	0xbd8c5ba9	-0.0685342
21	0x3ed5bd07	0.4174578
22	0x3e95b95b	0.29242977
23	0x3ea08149	0.31348637
24	0xbe8a88db	-0.27057537
25	0xbe6f68cd	-0.23379822
26	0x3ca38e77	0.019965393
27	0xbe6242b4	-0.22095758
28	0xbd876cde	-0.06612562
29	0x3ee23a40	0.44185066
30	0xbc3e3a4d	-0.01161058
31	0x3ea7721c	0.32704246
32	0x3dc15dba	0.09441705
33	0xbdece3f9	-0.1156692
34	0xbe8e136c	-0.27749193
35	0x3ece34b8	0.40274596
36	0xbe6c7463	-0.23091273
37	0x3eda928b	0.42689928
38	0x3ec1b938	0.37836623
39	0xbd63f730	-0.05565566
40	0x3c727ad4	0.014799792
41	0x3d9de4e8	0.07709676
42	0x3e20d35e	0.1570563
43	0x3e8a61d2	0.27027756
44	0xbe914a2a	-0.28376895
45	0x3e490ad2	0.19633034
46	0x3ec7a49f	0.38992783
47	0xbc8c2060	-0.017105281
48	0xbe30122c	-0.17194432
49	0x3d47cefb	0.048781376
50	0x3e24e60f	0.16103385
51	0xbda93aa3	-0.08263137
52	0xbe83af74	-0.25719798
53	0xbe427b5e	-0.18992373
54	0x3e3f2341	0.18665792
55	0xbe4ec8ed	-0.20193835
56	0x3ee04766	0.43804473
57	0xbe933718	-0.2875297
58	0xbe9100f4	-0.2832104
59	0x3e8f6ecb	0.28014216
60	0x3ecd617b	0.40113434
61	0x3e767e21	0.24071552
62	0xbe6d5ec9	-0.23180689
63	0xbdec2318	-0.11530131
64	0x3e5424eb	0.20717208
65	0x3ee14e76	0.44005173
66	0xbe32003c	-0.17382902
67	0xbcd51e47	-0.026015414
68	0x3ec3eb3d	0.3826541
69	0xbe6d437e	-0.23170277
70	0xbd8bb96f	-0.06822478
71	0x3e828c01	0.2549744
72	0x3eb9af42	0.36266524
73	0xbd89eacf	-0.06734239
74	0x3ea0579c	0.3131684
75	0x3e8b1371	0.2716327
76	0xbe8045f7	-0.2505338
77	0xbe22fac9	-0.1591598
78	0xbd5d04e3	-0.05395974
79	0x3e94aaa2	0.29036433

weight f4 [40, 80]
0	0x3cbfddef	0.023421256
1	0x3d6d5f40	0.057952166
2	0x3d21e866	0.039528273
3	0xbde71115	-0.11282555
4	0xbd695802	-0.056968696
5	0x3d9a99cc	0.07548866
6	0xbc02e3c8	-0.007988878
7	0xbb4da770	-0.0031380318
8	0x3d9169bb	0.071002446
9	0x3c50972f	0.0127313575
10	0xbd83dde0	-0.06438804
11	0xbdbeb716	-0.093122646
12	0x3dd6522b	0.10464891
13	0xbd53ea3c	-0.051737055
14	0xbd09951c	-0.033589467
15	0x3dce6a2a	0.10078843
16	0xbb46a984	-0.0030313442
17	0xbde8f99e	-0.11375736
18	0x3cc303ca	0.023805518
19	0x3d820afe	0.06349753
20	0x3db2231a	0.08698101
21	0xbdc24274	-0.09485331
22	0x3c85e9ac	0.016346775
23	0x3d25e884	0.040504947
24	0x3bf0e22a	0.0073511796
25	0xbd292ab9	-0.04130051
26	0xbd775e7b	-0.060392838
27	0x3c434791	0.011918918
28	0x3cda22b4	0.026627876
29	0xbd42dac3	-0.04757191
30	0xbe037ac7	-0.12839805
31	0xbc7765d2	-0.015099959
32	0x3e009c75	0.12559684
33	0x3d631e10	0.05544859
34	0x3c04397c	0.008070346
35	0xbd581e30	-0.052763164
36	0x3d81be2b	0.063351
37	0xbdb21fe9	-0.08697493
38	0x3dadac90	0.08480179
39	0x3d8dc4c1	0.069222935
40	0x3c6a5198	0.01430168
41	0xbd84ae08	-0.06478506
42	0xbd75003d	-0.05981468
43	0x3b94c560	0.0045401305
44	0x3d18a618	0.037267774
45	0xbd5f98fc	-0.054589257
46	0x3db84b8d	0.08998785
47	0x3dc1f014	0.094696194
48	0x3c8b9431	0.017038437
49	0xbd51532d	-0.051104713
50	0x3d71af05	0.059004802
51	0xbdf1294c	-0.11775455
52	0x3dbc7de4	0.09203699
53	0xbcfcd100	-0.030861378
54	0x3da99898	0.08281058
55	0xbd6cb1a1	-0.057786588
56	0x3d7cc2be	0.061709158
57	0x3b86e2d1	0.004116394
58	0xbdca2dbf	-0.098720066
59	0x3c5ef561	0.013608308
60	0xbd948bac	-0.07253203
61	0x3dd2eedb	0.10299464
62	0x3cc3c34c	0.023896836
63	0xbd011620	-0.03151524
64	0xbd9eff5f	-0.07763552
65	0x3d82b65d	0.06382439
66	0x3c80e702	0.015735153
67	0x3d1e40d4	0.038636044
68	0xbcf1ce71	-0.029517384
69	0x3cecb13c	0.028893106
70	0x3d310c9b	0.043224912
71	0xbc256cf2	-0.010096775
72	0xbd87204c	-0.06597957
73	0xbc174182	-0.009231927
74	0x3db1f028	0.08688384
75	0xbd34edfd	-0.044172276
76	0x3d80f195	0.06296078
77	0x3d9d2cb2	0.076745406
78	0x3dbf2cf2	0.093347445
79	0x3d83e68d	0.064404584
80	0xbb506cdf	-0.0031803173
81	0xbe08696f	-0.1332147
82	0xbe032d6d	-0.12810297
83	0xbdf8f9fd	-0.121570565
84	0xbd72a3e0	-0.059238315
85	0xbc8667db	-0.016406944
86	0x3d9587a4	0.07301262
87	0xbc839b11	-0.016065152
88	0xbd973fb2	-0.07385196
89	0xbc4ff8c3	-0.012693587
90	0x3db19c9d	0.0867245
91	0xbc36a1c8	-0.01114697
92	0xbe07a0ae	-0.13244888
93	0x3cf19490	0.029489785
94	0xbc052859	-0.008127295
95	0x3c12d55b	0.008962001
96	0xbdf51bd9	-0.11968202
97	0x3d864a9d	0.065572
98	0xbe01f257	-0.12690102
99	0xbe016e66	-0.1263977
100	0xbdc0e4b9	-0.094186254
101	0xbdf12cbe	-0.11776112
102	0xbde90739	-0.11378331
103	0xbe0ee0b6	-0.13952908
104	0xbe156427	-0.14588986
105	0xbd3d2110	-0.04617411
106	0xbdc3fb34	-0.095693976
107	0xbc81deb8	-0.01585327
108	0x3d9fa0a3	0.07794311
109	0xbd6c608f	-0.057709273
110	0x3d4d18d9	0.050072525
111	0xbdee54e2	-0.11637284
112	0xbe16c7a1	-0.1472459
113	0x3d3507cc	0.04419689
114	0x3dd921d7	0.106021576
115	0xbdd0e4c8	-0.101998866
116	0x388a854c	6.605181e-05
117	0xbe025ac5	-0.12729938
118	0x3d3fcd11	0.046826426
119	0xbbc6768b	-0.006056612
120	0xbcb69994	-0.022290029
121	0xbde19158	-0.1101405
122	0xbdcc5ffe	-0.099792466
123	0xbd66e9a4	-0.05637516
124	0x3d50aebc	0.05094789
125	0x3d7a7dd9	0.061155174
126	0xbe01ddfe	-0.1268234
127	0xbd716ec5	-0.05894353
128	0xbd65ead0	-0.056132138
129	0xbce4d5d6	-0.027933996
130	0x3d0f1dcc	0.034940526
131	0xbd8aa12d	-0.06769023
132	0xbd949071	-0.072541125
133	0x3d7764ee	0.06039899
134	0xbd54753a	-0.05186961
135	0x3cd08f46	0.025458943
136	0xbd9f3bc9	-0.07775075
137	0x3b3b99d2	0.002862562
138	0x3d21cff2	0.039504953
139	0xbd0d039e	-0.034427278
140	0x3c801bde	0.015638288
141	0x3c44b344	0.012005631
142	0xbd5bf534	-0.05370064
143	0x3dc0e3ea	0.09418471
144	0xbd1ef25b	-0.038805347
145	0x3c684e67	0.014178849
146	0x3d71be70	0.059019506
147	0x3d1460ef	0.036225256
148	0x3d25ed6a	0.04050962
149	0x3d122ac6	0.035685323
150	0x3d24a722	0.040198453
151	0xbbe85453	-0.0070901304
152	0x3d16f787	0.036857154
153	0xbdb0075e	-0.08595155
154	0xba56cda4	-0.0008194095
155	0xbe1c9068	-0.15289462
156	0x3be51607	0.0069911513
157	0xbd1ae1cb	-0.03781299
158	0x3d156207	0.03647044
159	0x3d1cb89f	0.038262006
160	0xbd559e35	-0.05215283
161	0xbd07073a	-0.032965876
162	0xbe0a0584	-0.13478667
163	0xbddb8b24	-0.10719898
164	0x3d215e7c	0.039396748
165	0xbd81e8ac	-0.06343207
166	0xbd0eb90a	-0.034844436
167	0xbdde6fd9	-0.10861177
168	0xbdf03018	-0.11727923
169	0xbba337da	-0.0049810233
170	0xbde8772a	-0.11350854
171	0x3c85dea6	0.016341519
172	0xbd0aa87c	-0.033852085
173	0x3d429c7c	0.047512516
174	0x3d034985	0.032052536
175	0xbdfcc207	-0.12341695
176	0x3df2661a	0.118358806
177	0xbde6ed4a	-0.11275728
178	0xbd37729c	-0.044787034
179	0x3d01943e	0.031635515
180	0xbdecc044	-0.11560109
181	0xbd2476bb	-0.040152293
182	0xbb8e4d1e	-0.004342689
183	0xbdb0f14a	-0.08639772
184	0x3d17dfce	0.03707867
185	0xbc957684	-0.01824499
186	0x3dd1ca55	0.1024367
187	0xbd75bdaf	-0.05999535
188	0x3cdf4979	0.027256714
189	0xbbd34834	-0.0064478163
190	0x3ce42973	0.027851796
191	0x3bddd1ca	0.0067693936
192	0xbd9f66fd	-0.07783315
193	0xbd19bc98	-0.037533373
194	0x3d8557d7	0.06510895
195	0x3d02f045	0.03196742
196	0xbd865e99	-0.06561012
197	0x3d0b0f8b	0.03395037
198	0xbbbe8845	-0.0058145844
199	0xbd246464	-0.040134802
200	0x3be47566	0.006972003
201	0xbc8e7c82	-0.017393354
202	0x3c926872	0.017872069
203	0xbde93b23	-0.113882326
204	0x3d2c098d	0.042001296
205	0xbda6f493	-0.081521176
206	0x3ce19c11	0.027540239
207	0xbc34203c	-0.010994013
208	0x3bba81cf	0.005691744
209	0xbc2ee1b5	-0.01067393
210	0xbda932ba	-0.082616284
211	0x3d429b25	0.04751124
212	0x3d2f5056	0.042801224
213	0x3d19b8c6	0.03752973
214	0x3d8c746e	0.06858145
215	0x3d370665	0.044683833
216	0x3d8c5982	0.0685301
217	0x3d6b3730	0.057425678
218	0x3dac0ed1	0.084012635
219	0xbc950d24	-0.018194743
220	0xbde6f5fc	-0.112773865
221	0xbdfa9769	-0.122359104
222	0x3bcf6da8	0.0063302107
223	0x3d1f3f4c	0.038878724
224	0xbd327d9c	-0.04357682
225	0xbe0fdb80	-0.14048576
226	0xbd4cc62f	-0.04999369
227	0x3da8c927	0.08241492
228	0xbd6fc7d1	-0.05854017
229	0xbd97ea2d	-0.07417712
230	0x3c03f58e	0.00805415
231	0xbd96e7a8	-0.07368404
232	0xbda03218	-0.078220546
233	0x3d0586a4	0.032599106
234	0xbc94a1c6	-0.018143546
235	0xbcd1eeba	-0.025626529
236	0x3d15f4b5	0.036610324
237	0x3d3ae7c1	0.045631174
238	0x3c88ac25	0.016683647
239	0x3cd020f1	0.025406333
240	0x3dac5296	0.084141895
241	0xbd045808	-0.032310516
242	0x3e13e598	0.14443052
243	0x3c6efda0	0.014586836
244	0x3dd60ac4	0.10451272
245	0xbbf07f2b	-0.0073393784
246	0x3d34dbed	0.04415505
247	0xbd8107b8	-0.063003
248	0xbd7d1671	-0.06178898
249	0x3d11bf03	0.035582554
250	0xbce44f7f	-0.027869938
251	0xbc2ac546	-0.01042301
252	0x3d916edb	0.07101222
253	0x3d0dafef	0.03459161
254	0xbcb66c41	-0.022268416
255	0x3d822737	0.06355136

bias f4 [40]
0	0xbda29bd2	-0.079398766
1	0xbdad224b	-0.084538065
2	0xbdf6d283	-0.12051871
3	0x3d759405	0.059955616
4	0xbdafec8d	-0.0859004
5	0x3dbdbfdf	0.09265112
6	0x3d5c5556	0.05379232
7	0x3da4ca5d	0.0804641
8	0xbd657649	-0.05602101
9	0x3c2ae043	0.010429445
10	0xbcc6365a	-0.024195839
11	0xbd669a83	-0.056299698
12	0xbd1ce0c6	-0.0383003
13	0x3c2339e8	0.009962536
14	0xbc564541	-0.013078035
15	0x3dc1bb71	0.0945958
16	0x3cb4648a	0.022020597
17	0x3d70eff9	0.058822606
18	0xbd860e0d	-0.06545649
19	0x3d8aa443	0.06769612
20	0xbdecf794	-0.11570659
21	0x3dde537d	0.10855768
22	0xbd57de85	-0.052702446
23	0x3c7ea3db	0.015541996
24	0xbdaf898f	-0.08571159
25	0x3cd347c5	0.025791058
26	0x3c32a2f7	0.010903112
27	0x3d0c5ad2	0.0342663
28	0xbd994681	-0.07484151
29	0x3d2d5594	0.04231794
30	0x3d24bc3d	0.04021858
31	0xbd05951d	-0.03261291
32	0x3dd97c3f	0.10619401
33	0xbded38a6	-0.115830705
34	0x3d248447	0.040165212
35	0x3dbdc76a	0.09266551
36	0x3c8b5ad6	0.017011087
37	0x3dd75c41	0.10515643
38	0xbdcc0940	-0.09962702
39	0x3d3c769e	0.04601156

weight f4 [40, 80]
0	0xbdbc4070	-0.09191978
1	0xbc9d54c4	-0.019205458
2	0xbcaa2ff5	-0.02077482
3	0xbe33c309	-0.17554869
4	0xbdc80dcd	-0.09768257
5	0xbcf1e3cc	-0.029527567
6	0x3cd6166a	0.026133735
7	0xbe1b3268	-0.15155947
8	0xbcc89c82	-0.024488691
9	0xbc4a6808	-0.012353905
10	0xbd07479c	-0.033027276
11	0x3bca3135	0.0061704167
12	0xbcdbd53e	-0.02683508
13	0xbac81faa	-0.0015268226
14	0xbdf8d84f	-0.121506326
15	0xbd3933c8	-0.045215398
16	0xbd893f41	-0.06701518
17	0xbd7eb141	-0.06218076
18	0x3c805f83	0.015670544
19	0xbc5f23f0	-0.013619408
20	0x3d555721	0.052085046
21	0xbc981070	-0.018562526
22	0xbe182d4d	-0.14861031
23	0xbd5ddc1e	-0.054165
24	0xbdbb1e6e	-0.091366634
25	0x3d66d313	0.05635364
26	0x3d3641cc	0.044496343
27	0xbdb3bc66	-0.087761685
28	0x3ccc6341	0.024949672
29	0xbdab9153	-0.08377328
30	0xbdee9dc7	-0.116511874
31	0xbdbcb5fc	-0.09214398
32	0xbdea611c	-0.114443034
33	0x3d00bf7a	0.031432606
34	0xbdc1d34e	-0.09464131
35	0xbd327c6e	-0.043575697
36	0xbd96d620	-0.0736506
37	0xbdc90078	-0.098145425
38	0xbe05fd96	-0.13085017
39	0xbcb69b67	-0.022290898
40	0x3c61f953	0.013792354
41	0x3c943e56	0.01809613
42	0xbd5d1ef9	-0.053984616
43	0x3c1a8405	0.00943089
44	0x3be7b665	0.0070713037
45	0xbd956a59	-0.07295675
46	0xbca40ff1	-0.020027133
47	0xbde07739	-0.1096024
48	0x3dcb8748	0.09937912
49	0xbdb7a6b6	-0.089673445
50	0xbd4ebb37	-0.05047151
51	0xbdd35c5e	-0.10320352
52	0xbdd8ac6b	-0.10579761
53	0x3d522541	0.05130506
54	0xbdb8fa10	-0.09032071
55	0xbd4100ed	-0.047120024
56	0xbe2b396a	-0.1672112
57	0xbd88cec3	-0.06680062
58	0xbdc5cf0b	-0.09658631
59	0xbe3da676	-0.18520531
60	0x3b128712	0.002235834
61	0xbc2c74b3	-0.01052587
62	0xbac31bdb	-0.0014885621
63	0x3c06c675	0.008226027
64	0xbc91bab0	-0.017789215
65	0xbdb3c240	-0.087772846
66	0xbd17d276	-0.037065946
67	0x3ceaf96c	0.028683387
68	0xbdf4d1cb	-0.11954077
69	0xbd0c6b15	-0.03428181
70	0xbd881d95	-0.06646267
71	0xbe2436da	-0.16036549
72	0xbe03c3dc	-0.12867683
73	0xbdedcadb	-0.11610957
74	0xbe2c73a5	-0.1684099
75	0xbc81f023	-0.015861576
76	0x3c257759	0.0100992555
77	0x3bff9bff	0.0078005786
78	0xbbf0e80b	-0.0073518804
79	0xbc53189d	-0.012884286
80	0xbdb33c6d	-0.0875176
81	0xbc83a3cf	-0.016069321
82	0xbd8a7c9e	-0.0676205
83	0xbd45ca2b	-0.048288506
84	0xbde1a6c6	-0.11018138
85	0xbd7a30db	-0.06108175
86	0x3ca5d7c1	0.020244481
87	0xbe230099	-0.15918197
88	0xbe2416ab	-0.16024272
89	0xbe02fbc4	-0.12791353
90	0x3c79a873	0.015237915
91	0xbb5f275e	-0.0034050564
92	0xbd746d3e	-0.059674494
93	0xbdd7aa0a	-0.10530479
94	0xbe3578a5	-0.17721803
95	0xbdbc26e3	-0.091871046
96	0xbe01820e	-0.12647268
97	0xbe01798e	-0.12644026
98	0xbdcdab07	-0.100423865
99	0xbe3cad5b	-0.18425505
100	0xbe1b4b81	-0.15165521
101	0xbc7b9914	-0.015356321
102	0xbdf79896	-0.1208965
103	0xbd0cae51	-0.03434593
104	0x3d431c32	0.04763431
105	0x3d0899e8	0.0333499
106	0xbb8ce384	-0.004299583
107	0xbccbcb75	-0.02487729
108	0xbdc63c42	-0.09679462
109	0xbd9c7040	-0.076385975
110	0x3c6f2e6c	0.01459847
111	0xbe50437f	-0.20338248
112	0xbdb781f4	-0.089603335
113	0xbd03aeb3	-0.032149028
114	0x3caefbf9	0.021360384
115	0xbdfdf9e3	-0.12401178
116	0x3d011cd7	0.031521644
117	0xbe3c0081	-0.18359567
118	0xbe4b160e	-0.19832632
119	0x3be7c16a	0.0070726173
120	0xbd2b36de	-0.041800372
121	0x3d0a4924	0.03376116
122	0xbe0c08d1	-0.13675238
123	0xbdc77e0c	-0.097408384
124	0xbcc61b7a	-0.024183024
125	0xbced5c9c	-0.028974824
126	0xbde2fc7f	-0.11083316
127	0xbd949530	-0.07255018
128	0xbd38dcbc	-0.045132384
129	0x3c300657	0.010743699
130	0xbe1cca7a	-0.15311614
131	0xbd170224	-0.036867276
132	0xbd79017e	-0.06079244
133	0x3d4ba00a	0.049713172
134	0xbe07ec94	-0.13273841
135	0x3d2eb330	0.042651355
136	0xbe6088bd	-0.21927162
137	0x3d30da61	0.043177012
138	0x3d197c0a	0.03747181
139	0xbd830b19	-0.06398601
140	0xbc2d68eb	-0.010584096
141	0xbe20c279	-0.15699185
142	0x3d854c4a	0.065086916
143	0xbd729279	-0.05922172
144	0xbd743d44	-0.05962874
145	0xbe44c1b6	-0.1921452
146	0x3d8d2f6f	0.06893813
147	0xbde4c8a1	-0.111710794
148	0xbe43109a	-0.19049302
149	0x3d925826	0.07145719
150	0xbd1514b8	-0.036396712
151	0xbcc5462f	-0.024081318
152	0xbd206a91	-0.03916413
153	0xbc1eab3e	-0.009684382
154	0xbd277e22	-0.040891774
155	0xbe11e138	-0.1424607
156	0xbd041a07	-0.032251384
157	0x3d1b4a77	0.037912812
158	0x3d8d7e34	0.06908837
159	0xbd83f480	-0.06443119
160	0xbb629637	-0.0034574398
161	0x3d359cc7	0.044338968
162	0xbe45e8f0	-0.1932714
163	0xbe2e5ecd	-0.17028351
164	0xbdf7e0db	-0.12103435
165	0xbe2098b4	-0.15683252
166	0x3d89de28	0.06731826
167	0xbe322684	-0.17397505
168	0xbe20a5b6	-0.15688214
169	0xbe11cb02	-0.14237598
170	0x3da36d9b	0.0797989
171	0x3d4ca264	0.049959555
172	0x3d224618	0.039617628
173	0x3cc72106	0.024307739
174	0xbd9164c8	-0.070993006
175	0xbd719daa	-0.05898825
176	0x3d37858c	0.044805095
177	0xbd5fab37	-0.054606643
178	0xbc943213	-0.018090283
179	0xbdf529bd	-0.119708516
180	0x3d7a8e0f	0.061170634
181	0xbe2b9bac	-0.16758603
182	0xbb7f2e3b	-0.0038937468
183	0xbe1d49f2	-0.15360239
184	0x3d28860d	0.041143466
185	0x3d97d950	0.07414496
186	0xbdf8540b	-0.12125405
187	0xbb4b60f3	-0.0031033128
188	0xbd8392ee	-0.06424509
189	0xbdcc5ecc	-0.099790186
190	0x3d843ce2	0.06456925
191	0xbe0a3529	-0.13496841
192	0xbd5a8d47	-0.05335739
193	0xbd7c6279	-0.06161735
194	0x3c531890	0.012884274
195	0xbd5d1703	-0.053977024
196	0xbd807718	-0.06272715
197	0xbda61ec4	-0.08111337
198	0xbe04b1e7	-0.1295849
199	0xbc9480ef	-0.018127887
200	0x3d50c586	0.050969623
201	0xbc9598a5	-0.018261263
202	0xbe1882e4	-0.14893681
203	0x3cc757ac	0.024333797
204	0xbdeafc3f	-0.114738934
205	0xbe0b15b6	-0.13582501
206	0xbc40ce80	-0.011767983
207	0xbd434a15	-0.047678072
208	0x3deb7bfd	0.11498258
209	0xbd11b210	-0.035570204
210	0x3c8ec0c5	0.017425904
211	0x3c95755b	0.018244436
212	0x3d666f84	0.056258693
213	0xbcb2138c	-0.021737836
214	0xbd7d7aa9	-0.061884556
215	0xbd7ddaf2	-0.06197638
216	0xbe4171e3	-0.188911
217	0xbd57b185	-0.05265953
218	0x3c393ddf	0.011306255
219	0xbd7867a7	-0.060645726
220	0xbd623985	-0.055230636
221	0xbd95ea40	-0.0732007
222	0xbdbea46d	-0.093087055
223	0xbda03c47	-0.07823997
224	0xbe123750	-0.14278913
225	0xbdaaeb3b	-0.08345648
226	0xbdd6692e	-0.1046928
227	0xbdaa492c	-0.08314738
228	0xbe2cc984	-0.16873747
229	0xbdbf90f2	-0.09353818
230	0x3cb35d35	0.02189503
231	0xbdf1c11e	-0.11804412
232	0xbdaef4dc	-0.08542797
233	0x3dac5605	0.084148444
234	0xbda51960	-0.080614805
235	0xbdaeb736	-0.085310385
236	0xbbcab8b9	-0.0061865714
237	0x3d378df8	0.044813126
238	0xbd42cf8f	-0.047561225
239	0xbe3e4133	-0.18579559
240	0xba563f59	-0.00081728917
241	0x3d622a15	0.055215914
242	0xbe161cd2	-0.14659432
243	0xbe14aec1	-0.14519788
244	0xbe5e95cc	-0.2173683
245	0xbdeccd29	-0.11562569
246	0x3da93e1a	0.08263798
247	0xbe075cb5	-0.13218959
248	0xbd4d8a09	-0.05018047
249	0xbdedc7e4	-0.11610392
250	0xbd8e87c5	-0.0695949
251	0xbd9a2bb7	-0.07527869
252	0xbc4f1cf7	-0.012641183
253	0xbdf19838	-0.117966115
254	0xbe00a062	-0.12561181
255	0xbda35c22	-0.07976557

bias f4 [40]
0	0xbe124ec4	-0.14287859
1	0xbdfbadde	-0.12289022
2	0xbad23f5e	-0.0016040613
3	0xbbc890bc	-0.0061207693
4	0xbdc9264b	-0.09821757
5	0x3bbcd8a7	0.0057631317
6	0xbe3c6401	-0.18397523
7	0xbda38ae0	-0.07985473
8	0xbcf6d843	-0.030132418
9	0x3abcc4cc	0.0014401912
10	0xbda9588c	-0.08268842
11	0xbc90ac6a	-0.017660338
12	0xbd9eb44c	-0.07749233
13	0x3ae051be	0.0017114205
14	0xbd2f8189	-0.042848144
15	0xbd80956c	-0.062785
16	0xbe2483b3	-0.16065864
17	0xbe3c41ea	-0.18384519
18	0xbcda3125	-0.026634762
19	0xbda9cab0	-0.08290613
20	0xbd43c6ae	-0.047796898
21	0xbd660d84	-0.056165233
22	0xbcfdb9ae	-0.030972328
23	0xbe1f7348	-0.1557132
24	0x3bc82b7b	0.006108699
25	0x3cc1a552	0.023638401
26	0xbe4c4a8a	-0.1995031
27	0xbe2bb338	-0.16767585
28	0xbe3b373c	-0.18282789
29	0xbc387bd4	-0.011259992
30	0x3bfb57fe	0.0076704016
31	0xbd86bcf7	-0.06579011
32	0x3c77cd1a	0.015124584
33	0xbd93012e	-0.071779594
34	0xbdea96ba	-0.1145453
35	0xbe116784	-0.14199644
36	0xbddc81d6	-0.10766952
37	0x3c611758	0.013738476
38	0xbe3197a4	-0.17343003
39	0x3c9bf5ce	0.019038107

weight f4 [80, 40]
0	0xbdef830c	-0.11694917
1	0xbcc88d4b	-0.024481436
2	0xbcd04d4a	-0.02542748
3	0x3d6659a5	0.056237835
4	0xbdcc12db	-0.09964534
5	0x3e0d1827	0.13778745
6	0xbda63cc3	-0.08117058
7	0xbd64a057	-0.055816974
8	0xbda6d002	-0.08145143
9	0xbddc9883	-0.10771277
10	0xbda6156d	-0.081095554
11	0xbdbf79df	-0.09349417
12	0xbca26bd2	-0.019826803
13	0xbc3ea930	-0.011637017
14	0x3d6f5696	0.058432184
15	0x3ddf355e	0.10898851
16	0xbdecfc96	-0.115716144
17	0xbd734146	-0.05938842
18	0x3cbd1e32	0.023085687
19	0x3c331914	0.010931272
20	0xbd581826	-0.052757405
21	0x3dad052e	0.084482536
22	0x3d3c8938	0.0460293
23	0x3e25e938	0.16202247
24	0x3dd36f83	0.103240035
25	0xbd2b8be3	-0.041881453
26	0xbce9508a	-0.028480787
27	0xbdc99276	-0.09842388
28	0x3bb7eb1c	0.005612744
29	0xbcb832a6	-0.022485089
30	0x3e13eead	0.14446516
31	0xbd6247f1	-0.05524439
32	0xbd180eac	-0.037123367
33	0x3c402ed1	0.011729912
34	0x3e193510	0.14961648
35	0xbdb1395d	-0.08653519
36	0x3d75cc7d	0.06000947
37	0xbe07a224	-0.13245445
38	0x3d3c67e5	0.04599752
39	0xbdee86c3	-0.116467975
40	0x3deac549	0.114634104
41	0xbe1185ac	-0.14211148
42	0x3db4e4e0	0.08832717
43	0x3cc09db2	0.023512695
44	0xbd93b123	-0.072115205
45	0xbd396efe	-0.045271866
46	0xbd306653	-0.043066334
47	0xbd50bede	-0.050963275
48	0x3d9b3641	0.075787075
49	0x3d3575ce	0.0443018
50	0xbdccad11	-0.09993947
51	0x3d8f06d7	0.069837265
52	0xbd836538	-0.0641579
53	0xbd6879dd	-0.056756843
54	0x3e2a376b	0.16622703
55	0xbe043d45	-0.12913997
56	0xbde2533d	-0.11051033
57	0x3db0ad85	0.08626846
58	0xbc4333f4	-0.011914242
59	0x3d247399	0.040149305
60	0x3e2033ec	0.15644807
61	0xbde824e6	-0.11335163
62	0xbdcce4c8	-0.10004574
63	0xbddda8d2	-0.108232155
64	0xbc850fd9	-0.016242908
65	0x3e136bbe	0.14396569
66	0x3dbcf1a2	0.09225775
67	0xbde6df40	-0.1127305
68	0x3e089b86	0.13340577
69	0x3bc55936	0.0060225977
70	0x3ddaf6fd	0.106916405
71	0x3d67d374	0.05659814
72	0x3daeb97d	0.08531473
73	0xbc95521a	-0.018227626
74	0x3d865f7d	0.06561182
75	0xbbf8c61e	-0.007591977
76	0xbdba6722	-0.09101702
77	0x3dfba0eb	0.12286552
78	0xbcc471cc	-0.023980044
79	0x3d1ff17e	0.039048664
80	0x3db7ce73	0.08974924
81	0x3dc87c82	0.09789373
82	0xbd995659	-0.07487173
83	0xbdefb22c	-0.117039055
84	0x3cf13d6a	0.02944823
85	0xbd454038	-0.048156947
86	0xbbc7bee5	-0.0060957544
87	0xbde0b00a	-0.10971077
88	0x3e00a89e	0.12564322
89	0xbddaad64	-0.10677603
90	0x3b04f5bb	0.0020288068
91	0x3e10ceb6	0.14141354
92	0x3df344c6	0.11878352
93	0x3d8200ae	0.06347786
94	0x3d22d122	0.039750226
95	0xbd815f47	-0.06317001
96	0xbda827ba	-0.08210702
97	0x3cce2a33	0.025166607
98	0x3cdf68d2	0.027271662
99	0xbdd204b8	-0.10254806
100	0x3e0124b1	0.12611653
101	0xbdf782bf	-0.12085485
102	0xbd9bd4f0	-0.07608974
103	0x3d5f23c8	0.054477483
104	0xbde905a6	-0.113780305
105	0x3dc4f10e	0.0961629
106	0x38f197a2	0.00011520019
107	0xbd96a0fc	-0.07354924
108	0xbb3020c8	-0.0026875008
109	0x3df17863	0.1179054
110	0xbdb4ff2c	-0.08837733
111	0x3d48d053	0.0490268
112	0x3db619c3	0.088916324
113	0xbd21e667	-0.03952637
114	0xbe01492e	-0.12625572
115	0x3e0117e9	0.12606777
116	0x3d899eed	0.06719766
117	0x3e304adb	0.17216055
118	0x3df9711c	0.12179777
119	0xbb0e8104	-0.002174438
120	0xbcea7830	-0.028621763
121	0xbdc2b7c6	-0.09507708
122	0xbe359405	-0.17732246
123	0xbd7f3e43	-0.062315237
124	0xbd9b4400	-0.07581329
125	0xbe1ece42	-0.15508369
126	0x3cabbe35	0.020964721
127	0xbc085773	-0.008321631
128	0xbc33442d	-0.010941547
129	0x3d399e1a	0.045316793
130	0x3c25a840	0.010110915
131	0x3d700fc5	0.05860879
132	0x3d8cad1d	0.06868956
133	0xbdba7c0a	-0.0910569
134	0x3ca28470	0.019838542
135	0x3db918ba	0.09037919
136	0xbdd84414	-0.1055986
137	0xbde3f339	-0.111303754
138	0x3d9c08b1	0.07618845
139	0xbc91e60d	-0.017809892
140	0x3deb38bd	0.11485431
141	0x3dfa8fe5	0.12234477
142	0xbe074d4f	-0.13213085
143	0x3c163cbf	0.009169756
144	0xbd96f2c3	-0.07370522
145	0xbc10a698	-0.008828782
146	0xbd757475	-0.059925515
147	0xbc583f09	-0.0131986225
148	0x3e164915	0.14676316
149	0xbd9e4c04	-0.077293426
150	0x3df4b530	0.11948621
151	0xbda2000a	-0.07910164
152	0x3cd76cb3	0.026296949
153	0xbe1612c8	-0.14655602
154	0x3dfc3eb0	0.12316644
155	0x3ddb73b6	0.107154295
156	0x3db50c88	0.08840281
157	0x3dd2b5ab	0.10288557
158	0xbd8a84eb	-0.06763633
159	0x3d28cc36	0.041210376
160	0xbd84fb42	-0.06493236
161	0x3dbc18a2	0.09184386
162	0x3d6ace3a	0.05732558
163	0xbe15fc37	-0.14646994
164	0x3dbd176d	0.09232984
165	0xbdccd09b	-0.10000726
166	0xbd113d80	-0.03545904
167	0xbe306b37	-0.17228399
168	0xbdb148f5	-0.086564936
169	0xbdd31a9e	-0.10307811
170	0x3c5a4bb3	0.013323712
171	0xbd7f904f	-0.062393483
172	0xbdf54214	-0.11975494
173	0x3de8bba7	0.11363917
174	0x3d8b1a72	0.067921534
175	0xbc8006f2	-0.015628312
176	0xbda83fbc	-0.08215281
177	0xbe0cf945	-0.13766964
178	0x3e1dbfcf	0.154052
179	0xbd5a06a8	-0.053229004
180	0xbdf1f821	-0.11814905
181	0x3cd1bf2f	0.025603859
182	0xbc949b19	-0.018140363
183	0x3dca79b8	0.09886497
184	0x3ccb822b	0.024842342
185	0x3d9d5905	0.07682995
186	0x3d89b3bc	0.06723735
187	0x3da30d74	0.0796155
188	0x3db05386	0.08609681
189	0x3cabe65c	0.020983867
190	0x3e14c5ab	0.1452853
191	0xbdb30f40	-0.08743143
192	0xbd543fd5	-0.051818687
193	0xbd02aa2f	-0.03190058
194	0xbe1d1739	-0.1534089
195	0x3d6ac9f4	0.057321504
196	0x3dc76ae8	0.097371876
197	0x3c9cd1dd	0.01914304
198	0x3d8e9c16	0.06963365
199	0xbd9d5428	-0.07682067
200	0x3e05e30a	0.1307489
201	0xbde71c45	-0.11284689
202	0xbd918c79	-0.07106871
203	0xbc71c840	-0.014757216
204	0x3dbcf4e0	0.09226394
205	0xbdc531cf	-0.09628641
206	0x3c18896c	0.009310108
207	0x3cb37803	0.021907812
208	0x3de53600	0.1119194
209	0x3c65149a	0.013981963
210	0x3def7530	0.116922736
211	0x3afaca25	0.001913373
212	0xbe014fdc	-0.1262812
213	0x3daa6eea	0.083219364
214	0xbcee4ab5	-0.029088357
215	0x3e02a7c7	0.12759314
216	0xbdcc0c5b	-0.09963294
217	0x3cba50e4	0.02274365
218	0x3daba0c5	0.08380274
219	0x3db0121f	0.08597206
220	0x3de6c5b4	0.11268178
221	0xbd826806	-0.06367497
222	0xbc4a608a	-0.012352118
223	0xbc948684	-0.018130548
224	0xbdc92200	-0.09820938
225	0x3d12d31b	0.035845857
226	0x3dd1bf27	0.102415375
227	0xbcfbecd3	-0.030752575
228	0xbd88563c	-0.06657073
229	0xbd17c5bc	-0.03705381
230	0x3d6563c9	0.056003366
231	0xbdddaa76	-0.108235285
232	0xbcd26a2b	-0.02568539
233	0xbccdd4d3	-0.025125897
234	0xbd11f1f1	-0.035631124
235	0x3d1a0c64	0.037609473
236	0xbd07691d	-0.03305923
237	0x3db7b4a1	0.08969999
238	0x3daeecbb	0.085412465
239	0xbe3abc97	-0.18236004
240	0xbd80db20	-0.06291795
241	0x3d323969	0.04351178
242	0x3b730447	0.0037081407
243	0xbdf84628	-0.12122756
244	0x3d81647b	0.06317993
245	0xbd5f10bb	-0.054459315
246	0xbdd0bd58	-0.101923645
247	0xbbb92d67	-0.0056511643
248	0xbdd331c7	-0.10312229
249	0xbd05b6f0	-0.032645166
250	0x3df6fa4a	0.120594576
251	0x3da82f2b	0.082121216
252	0xbda7f070	-0.08200157
253	0x3dbc7c2b	0.09203371
254	0xbd8e34b5	-0.06943647
255	0x3c0272dc	0.007961955

bias f4 [80]
0	0xbce1f2d0	-0.027581602
1	0xbd3e8245	-0.046510953
2	0x3cbed296	0.023293775
3	0xbd46ae90	-0.04850632
4	0xbc84dd05	-0.016218672
5	0x3d9c6df0	0.076381564
6	0xbe017bd8	-0.12644899
7	0xbe0bf7fc	-0.13668817
8	0xbc834550	-0.016024262
9	0xbd885e40	-0.06658602
10	0xbdda9894	-0.10673633
11	0x3c86ded9	0.016463684
12	0x3cbf5d43	0.0233599
13	0xbdc529ab	-0.09627088
14	0x3bd37216	0.006452809
15	0xbcc39a2b	-0.023877224
16	0x3dcdfefd	0.10058401
17	0xbe1d4b58	-0.15360773
18	0xbdde22ca	-0.10846479
19	0xbd9ac7cc	-0.075576395
20	0xbd9098e1	-0.07060409
21	0xbde09c2a	-0.10967286
22	0x3cb3dcdf	0.021955905
23	0xbdf894db	-0.12137767
24	0xbd45d36a	-0.048297323
25	0xbbc42c01	-0.005986691
26	0xbd9cb542	-0.0765176
27	0xbd9b58bf	-0.07585286
28	0x3d096d2f	0.03355139
29	0xbe0f814c	-0.14014167
30	0xbda623cf	-0.08112299
31	0xbdf04954	-0.11732736
32	0x3db8a415	0.09015671
33	0xbe1caa85	-0.15299423
34	0x3c8794f9	0.016550528
35	0xbe0a43b0	-0.13502383
36	0xbe1edf47	-0.15514861
37	0x3dbeea15	0.09321991
38	0x3ca1c7d0	0.019748598
39	0xbd0f4c2e	-0.03498476
40	0x3c6c76c2	0.014432611
41	0x3d11195e	0.035424583
42	0xbd5cac33	-0.05387516
43	0xbdb4db76	-0.08830921
44	0xbd288739	-0.041144583
45	0xbe25d87e	-0.16195866
46	0xbe22d3bd	-0.15901084
47	0x3e00a566	0.12563094
48	0x3d8cd5ad	0.06876693
49	0x3cb23f21	0.021758618
50	0x3db98c9d	0.09060023
51	0xbe05913c	-0.13043684
52	0xbe073325	-0.13203104
53	0x3d6a39a7	0.057183888
54	0x3d383e5d	0.04498135
55	0xbd11cc01	-0.035594944
56	0x3da767cf	0.08174097
57	0x3d9d7481	0.07688237
58	0x3e23c6f4	0.15993863
59	0xbe0ee604	-0.13954931
60	0xbdf84d37	-0.121241026
61	0x3d967438	0.07346386
62	0x3b03be23	0.0020102344
63	0x3d31507c	0.043289647
64	0x3e0e52cb	0.1389877
65	0xbc08723c	-0.008328017
66	0x3ce7784d	0.028255606
67	0xbe4216e3	-0.18954043
68	0x3d9f46ff	0.07777213
69	0xbdd7b9d5	-0.105334915
70	0xbacadccc	-0.001547718
71	0x3d42449a	0.047428705
72	0xbc74be19	-0.014937901
73	0xbcb46574	-0.022021033
74	0xbb75849e	-0.003746308
75	0xbe0eb89e	-0.13937613
76	0x3ca88600	0.020571709
77	0x3d5f179b	0.05446587
78	0xbe1f7bf2	-0.15574625
79	0xbd80b778	-0.06284994

weight f4 [5, 80]
0	0x3d0e5a62	0.034754165
1	0x3d59d835	0.053184707
2	0xbc0a984f	-0.008459165
3	0xbc031fc6	-0.008003181
4	0x3ce2f67c	0.027705424
5	0x3c63ef3b	0.013912017
6	0xbd4f1d9b	-0.050565343
7	0x3d85007f	0.06494235
8	0xbd1d9b9c	-0.03847848
9	0xbce44300	-0.02786398
10	0x3da0d156	0.07852428
11	0xbd61562a	-0.055013813
12	0x3c7d5ab7	0.015463523
13	0xbd527306	-0.051379226
14	0x3bcd6a58	0.0062687807
15	0xbcb0d4b0	-0.021585792
16	0xbd89c9bd	-0.06727932
17	0xbc748b87	-0.014925844
18	0xbd200b8f	-0.039073523
19	0xb84b5d94	-4.8486123e-05
20	0xbc8d897d	-0.017277474
21	0x3d55adfc	0.052167878
22	0xbd70d267	-0.058794405
23	0x3cdeeeb9	0.027213441
24	0xbccb5ba6	-0.024823975
25	0x3b7d194e	0.003861982
26	0x3c4bf2c7	0.012448019
27	0xbca8c61c	-0.020602278
28	0x3b999f05	0.004688146
29	0xbc9cf283	-0.019158607
30	0xbd8e87b6	-0.069594786
31	0xbd7cf91d	-0.06176101
32	0x3c7def68	0.015498973
33	0x3d02fdc1	0.03198028
34	0xbcbb8a2a	-0.02289303
35	0x3da64e49	0.081204005
36	0xbc77d222	-0.015125783
37	0x3d9367fe	0.07197569
38	0xbc2c9414	-0.010533351
39	0xbd7522dd	-0.0598477
40	0x3d85a7ec	0.06526169
41	0xbd33ecfa	-0.04392717
42	0x3c076d37	0.008265785
43	0x3d834903	0.0641041
44	0x3d005325	0.031329293
45	0x3d1bc588	0.038030177
46	0x3d76ebba	0.0602834
47	0xbcfbc6f3	-0.030734515
48	0xbcf598d6	-0.029980104
49	0x3d0910d6	0.03346332
50	0x3d057159	0.0325788
51	0xbd6ac823	-0.05731977
52	0xbd35ce3c	-0.044386134
53	0x3c9f47d5	0.019443432
54	0x3ce4f709	0.027949827
55	0x3c9ac903	0.018894678
56	0xbcfdc18e	-0.030976083
57	0xbbfb97dc	-0.007678015
58	0x3d96cb3e	0.07362984
59	0xbc0f9125	-0.0087626325
60	0x3c497593	0.012296098
61	0x3d2f3e1d	0.042783845
62	0x3cfb2081	0.030655148
63	0xbc191667	-0.00934372
64	0xbd2acafa	-0.04169748
65	0x3baf0561	0.0053412174
66	0x3b1a9d57	0.0023592317
67	0xbd463391	-0.04838902
68	0x3d179a61	0.03701246
69	0x3c6a6a13	0.014307517
70	0xbd6ba456	-0.05752977
71	0x3ac5941e	0.001507405
72	0xbc9bc789	-0.019016044
73	0x3c57e0b0	0.013176128
74	0x3d80eccd	0.06295166
75	0x3d11b537	0.03557321
76	0xbc88d982	-0.016705278
77	0xbcc975c2	-0.024592284
78	0x3cda14be	0.026621219
79	0x3c8b1ce9	0.016981559
80	0x3c8c4747	0.017123831
81	0x3ba5fbe5	0.0050654286
82	0x3c8d0945	0.017216334
83	0xbc8df6f8	-0.017329678
84	0xbaf68559	-0.0018808051
85	0x3d83df3a	0.064390615
86	0xbd1c5348	-0.03816536
87	0x3c240988	0.010012038
88	0xbd2fb511	-0.042897288
89	0xba52fa92	-0.0008048202
90	0x3d02f6c3	0.03197361
91	0x3c8452c4	0.016152747
92	0xbd8b2c52	-0.06795563
93	0x3c617a89	0.013762125
94	0xbd24ae09	-0.040205035
95	0x3d052c58	0.032512993
96	0x3d634dfd	0.055494297
97	0xbd3923a5	-0.04520001
98	0xbd4832f1	-0.048876707
99	0x3d1c6f54	0.03819211
100	0xbd5a9884	-0.053368106
101	0xbc0c498f	-0.00856246
102	0x3d0d69f1	0.03452486
103	0xbc93f093	-0.01805905
104	0x3cef5e5a	0.029219795
105	0xbd211c30	-0.039333522
106	0xbbacf771	-0.0052785208
107	0x3c3b4576	0.011430135
108	0xbc9b96ea	-0.01899286
109	0xbd988037	-0.0744633
110	0xbd18c1e7	-0.037294295
111	0xbca63ed0	-0.020293623
112	0x3c620b91	0.013796703
113	0x3cbdad56	0.023153942
114	0xbbecf3de	-0.0072312197
115	0xbd650799	-0.05591545
116	0x3d7296c6	0.05922582
117	0xbd17e97c	-0.037087902
118	0xbd503cd3	-0.050839256
119	0xbd5280ca	-0.051392354
120	0xbd4a61f2	-0.049409814
121	0xbd2c20e3	-0.04202355
122	0xbcc5d1f6	-0.024147969
123	0xbcfe18be	-0.031017657
124	0xbd38d045	-0.045120496
125	0x3c684215	0.014175911
126	0x3d140589	0.03613809
127	0xbd8ad09d	-0.06778071
128	0xbc377f35	-0.011199762
129	0x3bc25b98	0.005931329
130	0x3d4bf164	0.049790755
131	0x3d8f184a	0.06987055
132	0x3d040d33	0.03223915
133	0xbd63f78c	-0.055656
134	0x3d772fdc	0.060348377
135	0xbcbc8bfb	-0.023015967
136	0x3cc36006	0.023849498
137	0x3d0cfa0d	0.034418155
138	0x3d0da11f	0.034577485
139	0x3c9861dc	0.01860135
140	0xbd964ee4	-0.07339266
141	0xb9f05ce9	-0.0004584559
142	0x3cbc9556	0.023020428
143	0xbd51f9be	-0.051263563
144	0x3bc19e07	0.005908731
145	0xbc30a3f2	-0.010781275
146	0x3bc72c4d	0.006078279
147	0xbce4e9d3	-0.027943527
148	0x3a2be129	0.0006556684
149	0x3d277be4	0.040889636
150	0x3d71f7e8	0.059074312
151	0xbd84aa23	-0.064777635
152	0x3cc0a658	0.023516819
153	0xb9965e4e	-0.00028680492
154	0x3caa1e7c	0.02076649
155	0xbc182682	-0.009286525
156	0xbcc1a4a8	-0.023638085
157	0xbce7e1a8	-0.028305843
158	0xbd4864b6	-0.04892417
159	0xbd874cb5	-0.066064276
160	0x3ca403e5	0.020021388
161	0x3b91328a	0.0044310736
162	0xbc80c246	-0.015717637
163	0xbc656343	-0.014000717
164	0xbb2a3a14	-0.0025974559
165	0xbd0db753	-0.03459866
166	0xba88517e	-0.0010400263
167	0xbd1d4811	-0.038398806
168	0x3c4e1865	0.012579058
169	0xb9a326ef	-0.0003111879
170	0xbd3380ef	-0.043824133
171	0xbc2df362	-0.010617109
172	0xbcfbb27c	-0.030724756
173	0x3d1dfdae	0.038572006
174	0xbd15de88	-0.036589175
175	0xbce5c866	-0.028049659
176	0xbc342a69	-0.0109964395
177	0xbd0b93a2	-0.03407634
178	0x3d84895e	0.06471513
179	0xbb1b2768	-0.002367461
180	0xbd021d86	-0.031766437
181	0x3ce83793	0.028346812
182	0xba2ca52e	-0.0006585893
183	0xbc97ce2a	-0.018530924
184	0x3d009306	0.031390212
185	0xbd732c18	-0.059368223
186	0x3a9cac83	0.0011953268
187	0x3b934cc1	0.0044952338
188	0x388a0d7d	6.582865e-05
189	0x3d254474	0.040348485
190	0xbd195d72	-0.037442632
191	0xbd1065fe	-0.035253517
192	0x3d13da05	0.03609659
193	0x3d7ca54a	0.06168107
194	0x3c834f80	0.01602912
195	0xbca95345	-0.020669589
196	0xbd29c8ee	-0.041451387
197	0x3cb41d03	0.02198649
198	0xbc39d86e	-0.011343105
199	0xbca90071	-0.020630093
200	0xbd03f335	-0.032214362
201	0xbd4d27d4	-0.05008681
202	0xbc945fc4	-0.01811207
203	0xbcc6f7ee	-0.024288144
204	0x3c47b4ae	0.0121890735
205	0x3d356cd8	0.044293255
206	0xbcaa9023	-0.020820683
207	0x3cb06ff0	0.021537751
208	0xbd58777c	-0.052848324
209	0xbc3231ed	-0.010876161
210	0xbc079d08	-0.008277185
211	0x3cecd3b9	0.028909551
212	0xbcfd4b28	-0.030919626
213	0x3d691c76	0.056911908
214	0x3d8da0cb	0.069154344
215	0xbc143cbc	-0.009047683
216	0x3d39b7e4	0.045341387
217	0xbcabf604	-0.020991333
218	0xbc69c015	-0.014266987
219	0xbc0ad7ad	-0.008474273
220	0xbd756609	-0.05991176
221	0xbcd64a23	-0.026158398
222	0x3ae00203	0.0017090443
223	0x3ca62309	0.020280378
224	0xbd1b2592	-0.037877627
225	0x3c0fc81d	0.008775738
226	0x3d441dac	0.04787986
227	0x3d99a052	0.07501282
228	0xbce4616d	-0.027878487
229	0x3d651f12	0.055937834
230	0x3d7553e0	0.059894443
231	0xbceb8278	-0.028748736
232	0x3c47d744	0.012197319
233	0x3d2b6934	0.041848376
234	0xbd55a2b0	-0.052157104
235	0xbc2956ec	-0.010335665
236	0xbc33e4a7	-0.010979808
237	0x3d06ece7	0.03294077
238	0xbd58582e	-0.05281847
239	0x3c920f0e	0.017829444
240	0xbd46f123	-0.04856981
241	0xbc5b5c86	-0.0133887585
242	0x3d81bfee	0.06335436
243	0xbd4eac90	-0.050457537
244	0x3b497d6e	0.0030744928
245	0xbd1d4a49	-0.038400922
246	0xbd6845ba	-0.05670712
247	0x3d3bb581	0.045827392
248	0xbbe24423	-0.006905095
249	0xbd430937	-0.04761621
250	0x3d396636	0.04526349
251	0x3d436248	0.04770115
252	0x3c562498	0.013070248
253	0xbb0edf55	-0.0021800597
254	0xb9ad78c5	-0.00033087112
255	0xbd1e7c9e	-0.038693063

bias f4 [5]
0	0xbcb9fcb9	-0.022703515
1	0x3d52a84c	0.05143003
2	0x3cc87983	0.024472004
3	0xbcd6abf6	-0.026205044
4	0x3cb241a0	0.021759808
