final_project/mlruns/3/0671d91d15a34277869ed49560246e78/artifacts/cvae_34/data/model.pth (torch, 50311 bytes, 10 tensors)

weight f4 [80, 17]
-0.16355914 -0.017342946 -0.23259678 0.23228087 -0.01381837 -0.026224114 0.028652934 -0.018205846
0.096166395 0.01835546 -0.19740176 0.13140213 0.17863953 -0.16116291 -0.12117921 0.21956648
-0.16091569 -0.13000223 -0.08940024 0.008341864 -0.06094413 0.06960416 -0.2300431 -0.047045562
0.000852028 0.024410889 0.17535646 -0.014258299 0.099134184 -0.17820548 0.025530249 -0.2375041
0.13287427 -0.14667794 -0.20327888 -0.03488466 -0.06714584 0.14304116 0.14421363 0.033185773
-0.18149407 -0.13928701 -0.15361552 -0.27265313 0.20081799 -0.07825884 -0.15685953 0.11738227
0.043878414 0.018719628 0.04463639 0.013099546 0.09350652 -0.15514648 0.12048489 0.14320363
0.08466205 0.039829902 0.104902 0.22882147 -0.19706649 0.23983523 -0.11527536 0.09030594
0.060899433 0.12798612 0.004090328 0.2242571 0.18503374 0.1630306 -0.15107709 -0.16623607
-0.2011813 -0.075694114 0.15299957 0.09043075 -0.22836435 -0.07700285 0.22248225 -0.19283384
-0.064385 0.055874273 -0.23645239 0.15344664 0.046411097 -0.2504588 0.051787134 -0.039312117
-0.21313247 0.24263532 -0.21817717 -0.01574418 0.12780426 -0.06992819 -0.048373915 -0.20704792
-0.100859314 -0.16548277 0.18972172 -0.20971793 0.10476177 0.19603913 -0.12110186 0.069858775
0.17943361 0.0080278935 -0.15189247 0.0020487835 0.0009724625 0.0825558 0.035147503 0.083473176
-0.2567918 0.17030142 -0.2381042 0.19393428 0.14604296 -0.026835829 0.041921463 0.15158364
0.14410256 -0.09534083 -0.19749859 0.18667805 0.23996276 -0.24816498 0.062236764 0.14337315
-0.15451245 0.104123875 -0.09989898 -0.09931637 -0.05029988 -0.11590788 0.159903 -0.15751761
0.19639972 0.097269095 0.013406405 -0.13945149 -0.085457735 0.14721453 -0.03899554 -0.075941384
-0.06301326 0.0766923 -0.13745114 0.16925587 -0.02393201 -0.02890189 0.0033302384 -0.08541065
-0.06669135 0.13071263 0.17288217 -0.25643972 -0.20796408 -0.043273326 -0.12780915 -0.046004314
-0.16575654 -0.030586185 -0.20243023 0.08199003 -0.21042326 -0.17905204 0.002887637 -0.064270504
-0.16499417 0.12503903 0.12131762 -0.13554528 -0.19789682 -0.23506474 0.045499608 0.15939268
-0.13082907 0.010688485 0.0057594897 0.0431985 -0.039679646 0.14139786 -0.020848468 0.15706728
0.18991902 -0.16100405 0.24588856 0.17942683 -0.050485615 0.08169354 -0.18540934 -0.015867125
0.1808723 -0.2658957 -0.1820163 -0.09841493 0.10254389 0.22077812 0.015019761 0.19337997
0.27471903 -0.013039001 -0.119519815 -0.18229279 -0.14467204 0.1990926 0.074692845 0.010073129
0.0056791506 -0.22103237 -0.11002315 -0.09379713 -0.09896685 0.1677035 0.16105168 0.16828026
-0.1496336 -0.1457543 -0.201427 0.18924394 0.23181544 0.09491507 0.15936686 -0.16288942
-0.11544375 0.06289706 -0.10870874 -0.08333548 -0.14702003 -0.035472903 -0.21034399 -0.22936352
-0.034330744 0.09809506 0.11168397 -0.087218255 -0.102384485 0.16204587 -0.17064261 -0.11084468
0.05174802 0.017128404 0.05802693 0.072202 -0.089299925 -0.14556651 0.21979114 0.15919329
-0.124290384 -0.24691325 -0.13609312 -0.007455153 -0.031375304 -0.09754393 -0.076370195 0.22709876
00000000: 0c7c 27be cb12 8ebc da2d 6ebe 09db 6d3e
00000010: 7266 62bc f4d3 d6bc 8fb9 ea3c 6d24 95bc
00000020: e3f2 c43d 315e 963c b023 4abe 488e 063e
00000030: 48ed 363e e407 25be ce2c f8bd 09d6 603e
00000040: 15c7 24be 4e1f 05be 7917 b7bd 50ac 083c
00000050: 8da0 79bd a08c 8e3d 6b90 6bbe d9b2 40bd
00000060: a25a 5f3a 58f9 c73c a590 333e a49b 69bc
00000070: dd06 cb3d 7f7b 36be d024 d13c 4634 73be
00000080: 3110 083e be32 16be 5728 50be 38e3 0ebd
00000090: c283 89bd 6279 123e bdac 133e ceed 073d
000000a0: 95d9 39be 41a1 0ebe 634d 1dbe 3199 8bbe
000000b0: 3ba3 4d3e 2c46 a0bd c99f 20be 1e66 f03d
000000c0: dab9 333d e859 993c a6d4 363d 7a9f 563c
000000d0: 5980 bf3d b8de 1ebe c8c0 f63d f9a3 123e
000000e0: 4c63 ad3d ae24 233d dcd6 d63d 2d50 6a3e
000000f0: cccb 49be 5e97 753e 7d15 ecbd 52f2 b83d
00000100: af71 793d cb0e 033e 2808 863b a7a3 653e
00000110: 7c79 3d3e 7ef1 263e f4b3 1abe ca39 2abe
00000120: 7902 4ebe 8405 9bbd ebab 1c3e c233 b93d
00000130: 58d8 69be acb3 9dbd 63d2 633e 3c76 45be
00000140: 48dc 83bd 6cdc 643d 9320 72be 1e21 1d3e
00000150: 9019 3e3d 233c 80be bf1e 543d be05 21bd
00000160: 663f 5abe 6575 783e d669 5fbe f0f9 80bc
00000170: 1fdf 023e 8336 8fbd ba23 46bd 5f04 54be
00000180: 548f cebd 5174 29be 6946 423e 4cc0 56be
00000190: 578d d63d 7bbe 483e 4104 f8bd 1e12 8f3d
000001a0: 72bd 373e 6d87 033c b389 1bbe e244 063b
000001b0: dbec 7e3a 0413 a93d d4f6 0f3d fcf3 aa3d
000001c0: 377a 83be 7f63 2e3e 96d1 73be b596 463e
000001d0: 498c 153e d0d6 dbbc d7b5 2b3d be38 1b3e
000001e0: 9f8f 133e 0e42 c3bd 123d 4abe 8828 3f3e
000001f0: ccb8 753e f61e 7ebe faeb 7e3d 69d0 123e
00000200: 8338 1ebe e63e d53d d697 ccbd 6266 cbbd
00000210: 3f07 4ebd 1c61 edbd 9dbd 233e 4c4c 21be
00000220: 021d 493e 0535 c73d 8aa6 5b3c 5fcc 0ebe
00000230: 7704 afbd 68bf 163e cab9 1fbd 2887 9bbd
00000240: 190d 81bd da10 9d3d febf 0cbe 6951 2d3e
00000250: 100d c4bc a8c3 ecbc 2140 5a3b c7eb aebd
00000260: 7995 88bd 88d9 053e 0608 313e 114c 83be
00000270: 89f4 54be 5f3f 31bd 67e0 02be 056f 3cbd
00000280: 15bc 29be e18f fabc df49 4fbe 64ea a73d
00000290: 3279 57be 6b59 37be 823e 3d3b 41a0 83bd
000002a0: 3bf4 28be 3b0a 003e 5f75 f83d 62cc 0abe
000002b0: 77a5 4abe d0b4 70be cc5d 3a3d d637 233e
000002c0: 0ef8 05be c11e 2f3c 1aba bc3b e9f0 303d
000002d0: 2087 22bd 9aca 103e 68ca aabc 3fd6 203e
000002e0: 227a 423e 3fde 24be 36ca 7b3e abbb 373e
000002f0: 01ca 4ebd f14e a73d f2db 3dbe c6fb 81bc
00000300: 9736 393e 7b23 88be 7b62 3abe c48d c9bd
00000310: 8802 d23d a913 623e 7215 763c 6605 463e
00000320: f9a7 8c3e 89a1 55bc cec6 f4bd f6aa 3abe
00000330: e824 14be eede 4b3e 90f8 983d c409 253c
00000340: 2b18 ba3b 4f56 62be d153 e1bd b618 c0bd
00000350: 22af cabd 77ba 2b3e bbea 243e a951 2c3e
00000360: 8d39 19be 9d40 15be e142 4ebe 2ac9 413e
00000370: 0761 6d3e d562 c23d 1131 233e 7ccc 26be
00000380: c66d ecbd 2cd0 803d b0a2 debd cbab aabd
00000390: 6b8c 16be 094c 11bd 6a64 57be 45de 6abe
000003a0: 659e 0cbd 10e6 c83d 91ba e43d 7c9f b2bd
000003b0: f5ae d1bd 5aef 253e f0bc 2ebe 8902 e3bd
000003c0: bbf5 533d de50 8c3c a5ad 6d3d a4de 933d
000003d0: e1e2 b6bd 630f 15be ee10 613e 9103 233e
000003e0: f58b febd d4d6 7cbe ff5b 0bbe 5b4a f4bb
000003f0: 6483 00bd 1dc5 c7bd fa67 9cbd 948c 683e

bias f4 [80]
-0.19301121 0.1342824 0.3081546 0.21942903 0.21908322 0.022320213 0.08800437 0.0046101315
-0.028540853 -0.09934539 0.14595619 0.14992861 -0.17643595 0.2525909 -0.19960082 0.07055706
0.110080436 -0.15141943 0.1263112 0.045061138 -0.13427572 0.043208886 0.076092534 -0.23530757
0.19206907 0.00014716368 0.30008665 0.1861136 0.12848991 0.06978409 -0.16299741 0.27717388
0.21796653 -0.14161983 -0.057893377 0.2781655 -0.037658248 0.30658263 0.31909716 0.18080148
-0.024547905 -0.1405898 0.121804416 0.024569994 0.3200233 -0.039889812 -0.120527096 0.16694914
0.1976215 0.21277831 0.30635795 0.41628274 -0.025723828 0.058984194 0.01011867 -0.08077675
0.07980257 0.29516524 0.20029023 0.13004464 -0.1643033 0.23419642 0.18394718 0.027292544
0.2696874 0.14512597 0.081942536 0.22838229 0.24457155 -0.023180565 -0.21140689 -0.0055740005
0.35051832 0.24903616 0.31269643 -0.056678362 0.18186712 0.2979975 0.36537874 -0.21668789
00000000: bba4 45be 5381 093e 71c6 9d3e 01b2 603e
00000010: 5a57 603e e1d8 b63c a33b b43d 9610 973b
00000020: 82ce e9bc 9975 cbbd 8a75 153e e386 193e
00000030: a0ab 34be 9853 813e 2864 4cbe 3880 903d
00000040: da71 e13d b20d 1bbe b957 013e 0792 383d
00000050: 937f 09be cdfb 303d 67d6 9b3d 78f4 70be
00000060: c1ad 443e f34f 1a39 f5a4 993e 9094 3e3e
00000070: dc92 033e f6ea 8e3d cbe8 26be bce9 8d3e
00000080: 9e32 5f3e ca04 11be 9b21 6dbd b56b 8e3e
00000090: 893f 1abd 66f8 9c3e b460 a33e 0624 393e
000000a0: b018 c9bc c6f6 0fbe 9874 f93d 0347 c93c
000000b0: 18da a33e 8063 23bd e9d6 f6bd b7f4 2a3e
000000c0: 4a5d 4a3e 8fe2 593e f3da 9c3e 0323 d53e
000000d0: c7ba d2bc 6999 713d c7c8 253c 486e a5bd
000000e0: 886f a33d e61f 973e e218 4d3e 6c2a 053e
000000f0: 203f 28be 30d1 6f3e a65c 3c3e 9d94 df3c
00000100: 7814 8a3e e79b 143e 7dd1 a73d 0cdd 693e
00000110: f770 7a3e 2be5 bdbc 0c7b 58be 1ba6 b6bb
00000120: 2377 b33e 5603 7f3e bf19 a03e 9227 68bd
00000130: 603b 3a3e 2193 983e ec12 bb3e 6ee3 5dbe

weight f4 [40, 80]
0.082024455 0.07899664 0.036376033 0.054566707 -0.081220314 -0.022635292 0.07570691 -0.041905046
0.10290391 -0.02923802 0.099384785 -0.044615608 -0.08780735 0.06510719 0.024316564 0.118148185
0.035567984 -0.04502401 0.113863006 0.04025178 -0.008938703 -0.02448636 -0.053919453 0.01329284
-0.0110608665 0.10138395 0.1362553 -0.012270193 -0.013473189 -0.04528701 0.007138689 0.033929415
0.09894085 0.10047414 -0.049083035 -0.084955 0.035135243 0.068754844 -0.036562175 -0.0773835
-0.05894409 -0.05284727 0.05495884 -0.069178104 -0.035111155 0.097601585 0.08324308 -0.10114865
-0.03190352 0.033394694 -0.01953285 0.068260245 0.08692037 -0.0325959 0.058670893 0.08654867
-0.008666937 -0.079285145 -0.036485124 0.0132433195 0.106720075 0.032862548 0.06667205 0.022216216
0.11926106 -0.06508331 0.028772993 0.08575776 0.023189442 -0.0008571325 -0.045231137 -0.0601496
0.060169682 0.0661268 -0.05931526 0.014933243 -0.045678187 0.059353225 -0.07366805 -0.10449916
-0.10276091 -0.011348153 -0.106567815 0.034339167 -0.12628919 0.06581393 -0.14621341 0.020258239
-0.006186277 0.07509138 -0.13243696 0.06602596 -0.1256389 0.04844335 0.07583865 0.036549594
-0.017821878 -0.107757546 -0.009833105 -0.05584282 0.0066608163 0.031172168 0.09651433 0.076913394
0.03364715 0.037735797 -0.037458174 -0.009551925 -0.10431552 -0.032128908 -0.07960883 0.0038859372
-0.03297687 -0.08098558 0.054469466 0.016317913 0.0793386 0.028400717 -0.11547664 -0.14628904
0.047597427 0.016491674 0.07741685 -0.005649344 -0.110421926 -0.014650314 -0.0949107 -0.043812934
-0.12748641 0.041402895 -0.13311803 -0.12613511 -0.012880806 0.0568879 -0.008542286 0.029389584
-0.052654784 0.009451997 -0.01942391 -0.12568009 0.038928807 -0.048352342 0.034779876 0.058775663
-0.112665996 -0.09442784 -0.08657453 -0.06866823 -0.018477945 -0.02713648 0.040383544 -0.117532805
-0.08584752 0.07909337 0.04007173 0.052702952 -0.02780346 -0.0100962715 0.018157069 0.022896606
-0.05475436 0.13897242 -0.05005638 -0.048219334 0.085386455 0.02946644 0.042530023 -0.06418058
0.005356285 0.029227264 0.07623085 0.07519866 -0.04086156 0.03399087 -0.037886713 0.13784169
-0.048593093 0.020716546 -0.022132402 0.11859824 -0.0109902285 -0.03206901 -0.008008249 -0.046759296
0.1540056 0.13665609 0.023931533 0.040166225 -0.016885981 -0.043571755 0.066699475 0.07644528
0.001069678 0.117581405 0.099977724 -0.047293194 0.022228766 0.09299829 0.077184714 0.066817135
0.14206086 -0.056972027 0.09680449 -0.065460145 -0.039094947 0.08875592 -0.07758074 0.13643035
0.03395723 0.012759769 0.07391485 0.1071352 0.022153948 -0.05027666 0.06825475 -0.042953614
0.0631189 0.10981691 0.0021918456 0.0063029453 0.007519477 0.032573674 0.016277712 0.02593673
0.023178242 0.1112136 0.06249947 0.022267276 0.07889058 0.07189628 0.034296736 0.110293716
0.15316334 0.032616965 0.02648913 0.102325685 0.081507504 -0.054569688 -0.013181092 0.1295662
0.020072436 -0.04590438 -0.11168412 -0.053289298 0.087414846 0.04552092 0.007569398 0.045363415
0.06455997 -0.011826667 -0.066409305 -0.0890221 0.039159417 -0.05298225 0.07569926 -0.07964201
00000000: 70fc a73d fec8 a13d 09ff 143d 5781 5f3d
00000010: d656 a6bd a66d b9bc 390c 9b3d a0a4 2bbd
00000020: 49bf d23d 9284 efbc 408a cb3d dbbe 36bd
00000030: 57d4 b3bd eb56 853d 8833 c73c adf7 f13d
00000040: bcaf 113d 196b 38bd 0231 e93d 0ddf 243d
00000050: a373 12bc 9e97 c8bc a5da 5cbd 36ca 593c
00000060: a338 35bc 63a2 cf3d 8286 0b3e eb08 49bc
00000070: a7be 5cbc df7e 39bd aaeb e93b 92f9 0a3d
00000080: 80a1 ca3d 63c5 cd3d 4b0b 49bd e3fc adbd
00000090: f9e9 0f3d 57cf 8c3d 38c2 15bd 3e7b 9ebd
000000a0: 5c6f 71bd 6176 58bd 851c 613d 40ad 8dbd
000000b0: b7d0 0fbd 57e3 c73d 597b aa3d 0627 cfbd
000000c0: 44ad 02bd e0c8 083d 5b03 a0bc 07cc 8b3d
000000d0: 4f03 b23d 4783 05bd e450 703d 6e40 b13d
000000e0: c5ff 0dbc 4060 a2bd 6d71 15bd 82fa 583c
000000f0: 0e90 da3d e19a 063d 5b8b 883d c8fe b53c
00000100: 253f f43d 664a 85bd 57b5 eb3c c4a1 af3d
00000110: c9f7 bd3c 30b1 60ba 4944 39bd 6d5f 76bd
00000120: 7c74 763d 7d6d 873d 8ff4 72bd 90aa 743c
00000130: 0d19 3bbd 5e1c 733d 46df 96bd a803 d6bd
00000140: 5074 d2bd 9bed 39bc 3a40 dabd 3aa7 0c3d
00000150: f451 01be 74c9 863d f8b8 15be 9bf4 a53c
00000160: 41b6 cabb 82c9 993d 8e9d 07be 9e38 873d
00000170: 7ca7 00be 896c 463d 4b51 9b3d 07b5 153d
00000180: 30ff 91bc fdaf dcbd 081b 21bc 71bb 64bd
00000190: fa42 da3b c65c ff3c 4ea9 c53d c584 9d3d
000001a0: 98d1 093d da90 1a3d be6d 19bd ad7f 1cbc
000001b0: 60a3 d5bd 9a99 03bd f409 a3bd 35ab 7e3b
000001c0: c112 07bd c5db a5bd 601b 5f3d 25ad 853c
000001d0: 477c a23d 9fa8 e83c 047f ecbd cbcc 15be
000001e0: 85f5 423d 8c19 873c ba8c 9e3d 221e b9bb
000001f0: e424 e2bd df07 70bc 8b60 c2bd 3175 33bd
00000200: cc8b 02be 1596 293d 1850 08be 9029 01be
00000210: 040a 53bc 4903 693d f2f4 0bbc 6dc2 f03c
00000220: 8bac 57bd 8cdc 1a3c e41e 9fbc 48b2 00be
00000230: d073 1f3d 1b0d 46bd 5875 0e3d c0be 703d
00000240: 6ebd e6bd 6263 c1bd fd4d b1bd eea1 8cbd
00000250: 0f5f 97bc 534d debc 3769 253d 0ab5 f0bd
00000260: d3d0 afbd b4fb a13d 4122 243d 0ddf 573d
00000270: 15c4 e3bc d56a 25bc 22be 943c aa91 bb3c
00000280: 1c46 60bd c94e 0e3e eb07 4dbd a381 45bd
00000290: 18df ae3d 9b63 f13c f633 2e3d 1c71 83bd
000002a0: c683 af3b 046e ef3c eb1e 9c3d c101 9a3d
000002b0: 735e 27bd 033a 0b3d 192f 1bbd 5f26 0d3e
000002c0: 8d09 47bd bfb5 a93c 034f b5bc a2e3 f23d
000002d0: 5c10 34bc cb5a 03bd 0835 03bc ad86 3fbd
000002e0: a5b3 1d3e 93ef 0b3e 100c c43c 5785 243d
000002f0: 7854 8abc 4c78 32bd bc99 883d 588f 9c3d
00000300: 7034 8c3a 85ce f03d 1fc1 cc3d 82b6 41bd
00000310: 1a19 b63c e375 be3d 0513 9e3d 6cd7 883d
00000320: 6778 113e 805b 69bd 6f41 c63d f80f 86bd
00000330: 0622 20bd aac5 b53d a7e2 9ebd 66b4 0b3e
00000340: bd16 0b3d 5a0e 513c ab60 973d b369 db3d
00000350: 327c b53c e6ee 4dbd 25c9 8b3d 21f0 2fbd
00000360: 7b44 813d b0e7 e03d 11a5 0f3b f088 ce3b
00000370: f265 f63b f96b 053d d658 853c 4479 d43c
00000380: 4ce0 bd3c f5c3 e33d 72ff 7f3d dd69 b63c
00000390: 6291 a13d 5b3e 933d bc7a 0c3d ace1 e13d
000003a0: dad6 1c3e 5e99 053d bbff d83c 2190 d13d
000003b0: 68ed a63d 7784 5fbd 82f5 57bc 00ad 043e
000003c0: f36e a43c 3b06 3cbd a5ba e4bd e145 5abd
000003d0: 8e06 b33d 2574 3a3d b608 f83b fdce 393d
000003e0: 0438 843d a3c4 41bc 9a01 88bd 3851 b6bd
000003f0: a065 203d ea03 59bd 3708 9b3d 5a1b a3bd

bias f4 [40]
0.060116965 -0.11521355 0.123740084 0.08888927 -0.07601911 -0.13087688 -0.104511656 -0.030909253
-0.13364092 0.05957561 0.067462996 -0.08464752 -0.06806026 0.11277228 -0.0032001254 0.096030146
0.12677376 -0.04082903 0.08410997 -0.088659905 -0.05909485 0.013812585 0.12624729 0.09191691
-0.041254494 0.043494675 0.017639145 -0.033995736 -0.04005364 -0.0428393 0.06211546 -0.118964545
-0.09202903 0.015209763 0.052226126 -0.113739006 0.107113235 0.058357842 0.044267263 -0.009050853
00000000: 353d 763d 15f5 ebbd 716b fd3d 940b b63d
00000010: e8af 9bbd 9704 06be 350a d6bd 6735 fdbc
00000020: 2ad9 08be 8e05 743d 0a2a 8a3d ae5b adbd
00000030: 2d63 8bbd 27f5 e63d 32b9 51bb 74ab c43d
00000040: fbd0 013e 573c 27bd d941 ac3d 5393 b5bd
00000050: 710d 72bd 2e4e 623c f846 013e ef3e bc3d
00000060: 79fa 28bd 7927 323d f87f 903c 1d3f 0bbd
00000070: 490f 24bd 4378 2fbd c86c 7e3d afa3 f3bd
00000080: b779 bcbd 5f32 793c 10eb 553d ffef e8bd
00000090: 2f5e db3d a208 6f3d 9751 353d 074a 14bc

weight f4 [40, 80]
-0.003327356 -0.14938293 -0.15166558 -0.03657841 -0.03804805 -0.10083541 -0.037624013 -0.115950145
-0.15449165 -0.024936575 0.03015919 -0.025903765 -0.040492803 -0.10260783 -0.07770167 -0.13190962
-0.023496041 -0.008230172 -0.14105977 -0.10070526 0.04103547 -0.015028611 0.061969344 -0.018103112
-0.08642972 -0.17763002 0.004304177 -0.13517882 -0.14960359 0.019434335 -0.07331836 -0.13295525
0.050857212 -0.10730439 0.047577746 -0.07166716 -0.049337123 0.004189652 -0.08417548 -0.09672643
-0.08858071 -0.0047701853 -0.11650057 -0.12423191 -0.07646779 0.03197507 -0.04154782 -0.07880827
0.029641947 -0.12035634 -0.035440866 -0.09354631 -0.05142698 -0.13420051 -0.09740641 -0.018782634
-0.10249445 0.042502414 0.05918088 -0.11607171 0.079570025 0.030696014 -0.16597156 0.05067802
-0.013101406 -0.0029955707 0.009817705 -0.1508655 -0.07162982 -0.04706078 -0.13187726 -0.07312549
-0.146495 -0.02304459 -0.17997873 0.057587057 -0.009697813 -0.04113998 -0.09162082 -0.035822734
-0.13446218 -0.12670797 -0.00575592 -0.08434483 0.029030824 -0.082808755 0.056008376 0.052649427
0.036824305 -0.06641094 0.010278159 -0.11656297 -0.03332875 0.033872314 -0.054613646 0.028050007
-0.15659611 0.07229087 -0.022203071 -0.14593573 -0.13552624 -0.04783346 0.06034784 -0.0039636334
-0.15783878 0.06544324 -0.030470442 -0.040144164 -0.12099731 -0.0150347045 -0.11644564 -0.12782711
-0.16461234 -0.08526873 -0.10885678 -0.029937444 0.056123503 -0.08206879 0.038524903 -0.09270801
-0.12513626 -0.12129683 -0.040737376 -0.04698901 0.021651316 -0.0001288875 0.02910823 -0.10966521
0.050327912 0.0041646766 0.0029782192 -0.12742662 -0.033180002 0.02506503 -0.06341318 -0.14596635
-0.04886246 -0.065477535 0.048860475 -0.020450206 -0.07174274 -0.088987045 -0.12182387 0.012930965
-0.08856969 0.017992774 -0.075194396 -0.093564525 -0.16615786 -0.003131668 -0.054073997 -0.017834622
-0.16600439 -0.08104494 -0.14479704 0.028644102 -0.11369212 0.013900524 -0.18059671 0.026135916
0.049330678 -0.002862747 -0.04900703 -0.034042634 -0.032694064 0.026115088 0.0140462145 0.06372428
-0.10839704 0.009426201 -0.050424576 -0.010823897 0.059216294 -0.028438343 0.04438693 0.017946238
-0.12729287 0.036778435 -0.006198129 -0.0992397 0.016255263 0.06327541 -0.15859407 -0.057732634
-0.027863909 -0.0783795 0.046340354 -0.06838097 -0.104139216 -0.0801071 -0.09310108 -0.13362221
-0.027829787 0.024002723 -0.0005698678 -0.14485994 0.082799956 0.0038215173 -0.10139535 -0.1617775
-0.0699828 -0.108132616 -0.03171036 -0.012095976 -0.016373996 -0.03352026 -0.10857355 0.031297848
-0.15488774 -0.1580392 -0.04607453 -0.17160589 -0.06255754 0.03191713 -0.07175474 -0.132404
-0.11397572 -0.10490061 -0.10021849 -0.04505855 0.007349405 -0.1588893 -0.03665445 -0.10697987
-0.135252 -0.06301898 0.047029484 -0.16269979 0.013777465 -0.11599732 -0.11657234 -0.008042472
0.04913452 0.017285097 -0.16277377 -0.10885014 -0.15302221 -0.078799434 0.021262031 -0.13474014
-0.03854473 0.025004078 -0.029334895 0.007435449 -0.0881353 -0.04474939 -0.007241556 -0.14743201
-0.06294263 0.024387084 -0.045784943 -0.1034334 -0.09565525 -0.020060036 0.016838303 -0.005434031
00000000: c50f 5abb d7f7 18be 394e 1bbe 3ed3 15bd
00000010: 46d8 1bbd cc82 cebd a31b 1abd 4577 edbd
00000020: 0f33 1ebe ca47 ccbc 6810 f73c 2234 d4bc
00000030: c8db 25bd 0e24 d2bd 0e22 9fbd 5113 07be
00000040: c57a c0bc d8d7 06bc f971 10be 8f3e cebd
00000050: cf14 283d 903a 76bc 91d3 7d3d fa4c 94bc
00000060: 1102 b1bd a5e4 35be 0e0a 8d3b 516c 0abe
00000070: af31 19be c134 9f3c f027 96bd 6c25 08be
00000080: a74f 503d 67c2 dbbd e2e0 423d 3bc6 92bd
00000090: b915 4abd 5949 893b 3264 acbd 8218 c6bd
000000a0: ce69 b5bd 374f 9cbb da97 eebd 4d6d febd
000000b0: 259b 9cbd 4af8 023d 0c2e 2abd 3b66 a1bd
000000c0: abd3 f23c 637d f6bd 712a 11bd 3595 bfbd
000000d0: 19a5 52bd dc6b 09be 037d c7bd 0ade 99bc
000000e0: 9ce8 d1bd 0317 2e3d a767 723d 01b7 edbd
000000f0: 9cf5 a23d 3576 fb3c 73f4 29be c193 4f3d
00000100: 48a7 56bc 5651 44bb 70da 203c 7c7c 1abe
00000110: a8b2 92bd cec2 40bd d50a 07be d1c2 95bd
00000120: c902 16be 02c8 bcbc 584c 38be 68e0 6b3d
00000130: 93e3 1ebc 6582 28bd b2a3 bbbd dcba 12bd
00000140: 74b0 09be bcbf 01be 289c bcbb fbbc acbd
00000150: 0dd2 ed3c a397 a9bd 0a69 653d eda6 573d
00000160: 15d5 163d 7502 88bd b965 283c 91b8 eebd
00000170: ba83 08bd b2bd 0a3d 8fb2 5fbd 21c9 e53c
00000180: bb5a 20be 3c0d 943d 37e3 b5bc 2d70 15be
00000190: 64c7 0abe 05ed 43bd 4c2f 773d 5ee1 81bb
000001a0: 7da0 21be 1b07 863d 269d f9bc 356e 24bd
000001b0: 70cd f7bd 1f54 76bc 0d7b eebd 1ce5 02be
000001c0: 2390 28be 5fa1 aebd 4ef0 debd 5f3f f5bc
000001d0: c2e1 653d af13 a8bd 4acc 1d3d b2dd bdbd
000001e0: b823 00be 796a f8bd 3cdc 26bd 8c77 40bd
000001f0: 1a5e b13c fa25 07b9 6274 ee3c 2798 e0bd
00000200: a424 4e3d d777 883b 3a2e 433b 207c 02be
00000210: c1e7 07bd 2e55 cd3c c5de 81bd 3478 15be
00000220: 0124 48bd 1619 86bd ec21 483d 3187 a7bc
00000230: dced 92bd d73e b6bd cb7e f9bd 66dc 533c
00000240: 0764 b5bd 9565 933c 85ff 99bd c29e bfbd
00000250: 4925 2abe ac3c 4dbb b27c 5dbd ea19 92bc
00000260: 0efd 29be e4fa a5bd ad45 14be 09a7 ea3c
00000270: 6ad7 e8bd 06bf 633c 58ee 38be fd1a d63c
00000280: f70e 4a3d ed9c 3bbb 98bb 48bd 4a70 0bbd
00000290: 36ea 05bd 4fef d53c 1822 663c e081 823d
000002a0: 44ff ddbd 5a70 1a3c 008a 4ebd b756 31bc
000002b0: c98c 723d 87f7 e8bc 12cf 353d fd03 933c
000002c0: 1059 02be fca4 163d ad19 cbbb 2f3e cbbd
000002d0: c229 853c 8a96 813d 7c66 22be 0e79 6cbd
000002e0: da42 e4bc 6e85 a0bd 62cf 3d3d 520b 8cbd
000002f0: f146 d5bd 310f a4bd c7ab bebd 43d4 08be
00000300: 4bfb e3bc 5ca1 c43c 2e63 15ba 2a56 14be
00000310: 0693 a93d 6c72 7a3b 5ea8 cfbd 00a9 25be
00000320: 2453 8fbd a274 ddbd b9e2 01bd 332e 46bc
00000330: c222 86bc 8a4c 09bd cf5b debd 2c32 003d
00000340: e49a 1ebe 07d5 21be a5b8 3cbd 74b9 2fbe
00000350: 2b1e 80bd 89bb 023d 26f4 92bd ea94 07be
00000360: 1a6c e9bd 22d6 d6bd 5a3f cdbd 508f 38bd
00000370: 47d3 f03b e0b3 22be fa22 16bd 4318 dbbd
00000380: 807f 0abe 1810 81bd fda1 403d c69a 26be
00000390: e0ba 613c 0190 edbd 7bbd eebd 93c4 03bc
000003a0: 4741 493d 7a99 8d3c 2bae 26be d2ec debd
000003b0: dbb1 1cbe 9961 a1bd b62d ae3c 52f9 09be
000003c0: 14e1 1dbd 5ad5 cc3c bc4f f0bc 11a5 f33b
000003d0: 4880 b4bd 234b 37bd 934a edbb 6bf8 16be
000003e0: 11e8 80bd 6cc7 c73c fe88 3bbd e4d4 d3bd
000003f0: e6e6 c3bd f254 a4bc 7bf0 893c f50f b2bb

bias f4 [40]
-0.099583566 -0.077798955 -0.14521582 -0.15979688 -0.017307755 0.0012232866 -0.10610165 -0.067222245
-0.1630512 -0.1496499 -0.11049024 -0.10024715 -0.05150933 0.024434825 -0.028900748 -0.13305937
-0.11516024 -0.07621265 -0.05172281 -0.14445867 -0.09896853 -0.09454259 -0.071379974 -0.06676338
-0.09050692 -0.191347 -0.0118690925 -0.053640444 0.026681906 -0.042593185 -0.20080517 -0.038399845
-0.09686749 -0.08404914 -0.17467894 -0.19400752 -0.006550009 -0.09199247 -0.017299905 -0.11575165
00000000: 78f2 cbbd 0f55 9fbd 75b3 14be cba1 23be
00000010: fec8 8dbc b056 a03a d24b d9bd d1ab 89bd
00000020: e5f6 26be d33d 19be b548 e2bd 614e cdbd
00000030: 72fb 52bd 8b2b c83c 43c1 ecbc b740 08be
00000040: 22d9 ebbd 6115 9cbd 4cdb 53bd f9ec 13be
00000050: 03b0 cabd 8c9f c1bd aa2f 92bd 3dbb 88bd
00000060: b15b b9bd 78f0 43be 9576 42bc 15b6 5bbd
00000070: 0394 da3c 3176 2ebd df9f 4dbe 2849 1dbd
00000080: 7662 c6bd f521 acbd 09df 32be e8a9 46be
00000090: 75a1 d6bb 8c66 bcbd 88b8 8dbc 330f edbd

weight f4 [80, 40]
0.033786427 -0.13824569 -0.0856335 0.017437931 0.10706336 -0.054661773 0.025059083 0.13090748
-0.060840994 -0.10357785 -0.1498236 -0.10842465 0.07540612 -0.06389549 0.11585835 0.12605672
0.021516815 0.04491933 0.09772578 -0.111124225 -0.08166935 -0.11702558 -0.072749406 0.04591154
0.04748657 -0.047848057 -0.023929639 0.033500224 0.0014027696 0.08678187 -0.056751963 -0.0748481
0.012539143 0.10207679 -0.07727537 -0.044320922 0.118340544 0.14362586 -0.1091968 0.07048222
0.02815502 -0.026306652 -0.016344681 -0.004768347 -0.06810018 -0.11892489 -0.12571958 -0.007091888
0.17037137 -0.0536473 -0.07742602 0.017037328 -0.049114008 -0.12910542 0.15769301 -0.12367611
0.095987014 0.15398633 0.13577093 -0.009714691 0.12792468 -0.00021996349 -0.09827312 -0.088208854
0.1371537 0.09667696 0.03706684 -0.031700306 0.056909792 -0.068147615 0.15037458 -0.041577064
-0.004402136 0.038331218 0.029820068 0.050027333 -0.015465172 0.009767703 -0.108012535 -0.104903
0.09160863 0.019338187 -0.11561343 0.038190585 0.038908374 -0.09629172 -0.046624824 0.033172235
0.06429671 0.063031964 0.078311756 -0.050847627 0.011935544 -0.1060325 -0.10473367 0.065667406
0.08475819 -0.0041751266 -0.00796872 -0.079928406 -0.14679588 -0.045952737 0.08205184 -0.009420261
0.06363629 -0.030969717 -0.031445935 0.11205466 0.00031939335 0.03691176 -0.08908717 0.08503035
0.11274378 0.067697 0.09045729 0.09653791 0.08271398 -0.12525928 0.052049395 0.082546726
0.063371696 -0.02847107 0.13965802 0.09391405 0.0003850691 -0.12762557 0.105458155 -0.04919669
0.120701924 0.012016347 0.026732326 -0.10158912 -0.10006763 -0.021942459 -0.023985557 0.14211766
-0.025997283 0.032246295 -0.004565266 0.008141877 0.11270822 0.12534942 0.008397889 0.09437862
-0.029408434 -0.025882661 -0.019065332 -0.035078336 -0.13509183 -0.0719694 -0.11059981 -0.05361081
0.13632563 -0.1156221 -0.15073031 -0.026906226 -0.14109796 -0.10421861 -0.022308102 0.122138575
-0.042541943 0.09586575 0.035835963 0.114765756 -0.038066234 -0.037003234 -0.015988577 0.118785165
0.07606713 -0.048812453 0.11292794 0.05155867 0.0008126121 0.13231455 -0.1136664 -0.10176575
-0.08198904 0.05821786 -0.11929838 0.090411864 -0.13177116 0.06499359 0.0177321 0.046320405
0.14446548 0.05424799 -0.036872704 -0.059582245 0.03304128 -0.037766147 -0.053845525 -0.10415829
0.030446382 0.05407685 0.06344878 0.06009767 0.03379593 -0.08261082 0.018733047 0.021981442
-0.07104502 0.06512484 -0.050931912 0.05047281 -0.09438779 -0.11673936 -0.07891434 -0.00887746
0.14013998 0.06592179 -0.14032237 0.00516416 0.003882261 0.005426007 0.10988223 0.08530106
-0.11576857 0.13745497 0.103304386 -0.109290056 0.029514471 0.041075412 -0.1318019 -0.022772348
0.0107993195 -0.052986942 -0.014394079 0.03585026 -0.086472794 -0.01904902 -0.12508518 -0.058100946
0.07400959 0.018458525 -0.1392556 -0.12108485 0.042767983 -0.14615795 0.08206626 0.06574509
0.012860225 0.087876745 -0.007367528 -0.024532147 -0.09410719 0.0068514817 0.115200005 0.08323757
0.032847673 -0.028268306 0.09887572 -0.09678624 -0.008679846 -0.023302114 -0.025419222 0.06364489
00000000: a363 0a3d 4790 0dbe 9e60 afbd fed9 8e3c
00000010: 0944 db3d 06e5 5fbd b548 cd3c 9c0c 063e
00000020: 6834 79bd a020 d4bd 5c6b 19be be0d debd
00000030: 866e 9a3d a3db 82bd 2547 ed3d 0315 013e
00000040: 0844 b03c 55fd 373d 7424 c83d 1995 e3bd
00000050: 4342 a7bd 1bab efbd a4fd 94bd bd0d 3c3d
00000060: 4781 423d 53fc 43bd 1708 c4bc 8837 093d
00000070: 23dd b73a b1ba b13d bf74 68bd f649 99bd
00000080: fa70 4d3c a30d d13d 8d42 9ebd db89 35bd
00000090: 875c f23d a812 133e 92a2 dfbd fb58 903d
000000a0: 5ba5 e63c 0c81 d7bc 48e5 85bc cb3f 9cbb
000000b0: 1b78 8bbd e58e f3bd a2bc 00be 1263 e8bb
000000c0: d575 2e3e 45bd 5bbd 8891 9ebd de91 8b3c
000000d0: c52b 49bd 3634 04be 477a 213e e649 fdbd
000000e0: d794 c43d 98ae 1d3e 8907 0b3e 5e2a 1fbc
000000f0: b0fe 023e 00a6 66b9 6b43 c9bd d8a6 b4bd
00000100: 0572 0c3e 92fe c53d 66d3 173d 2ed8 01bd
00000110: 3e1a 693d fa90 8bbd cbfb 193e b64c 2abd
00000120: cb3f 90bb 3201 1d3d 3749 f43c 76e9 4c3d
00000130: a261 7dbc b708 203c ad35 ddbd 62d7 d6bd
00000140: 4e9d bb3d 1e6b 9e3c bcc6 ecbd bb6d 1c3d
00000150: 635e 1f3d 9834 c5bd acf9 3ebd 9cdf 073d
00000160: fead 833d e716 813d ea61 a03d 9a45 50bd
00000170: 4d8d 433c 9127 d9bd 9b7e d6bd a27c 863d
00000180: b495 ad3d 80cf 88bb 3c8f 02bc 81b1 a3bd
00000190: a951 16be f038 3cbd cc0a a83d 7057 1abc
000001a0: be53 823d 34b4 fdbc 74cd 00bd ea7c e53d
000001b0: 4074 a739 c930 173d 5673 b6bd 6424 ae3d
000001c0: 36e6 e63d baa4 8a3d ac41 b93d abb5 c53d
000001d0: f265 a93d f843 00be bf31 553d 420e a93d
000001e0: 05c9 813d 293c e9bc 8302 0f3e 0256 c03d
000001f0: 1ae3 c939 47b0 02be 72fa d73d 7882 49bd
00000200: 9232 f73d 36e0 443c c0fd da3c f50d d0bd
00000210: 42f0 ccbd acc0 b3bc 5c7d c4bc 4b87 113e
00000220: 41f8 d4bc b114 043d 3a98 95bb 8265 053c
00000230: 91d3 e63d 995b 003e 4d97 093c 9449 c13d
00000240: f5e9 f0bc e007 d4bc e62e 9cbc 4dae 0fbd
00000250: 8355 0abe b164 93bd 2782 e2bd 0297 5bbd
00000260: f298 0b3e 48cb ecbd 0c59 1abe 726a dcbc
00000270: fc7b 10be 9170 d5bd 7bbf b6bc ca23 fa3d
00000280: 7640 2ebd 4355 c43d bbc8 123d 4f0a eb3d
00000290: 57eb 1bbd b490 17bd 7afa 82bc a345 f33d
000002a0: 15c9 9b3d 91ef 47bd c446 e73d 2f2f 533d
000002b0: 7a05 553a 777d 073e eec9 e8bd 906a d0bd
000002c0: dfe9 a7bd da75 6e3d b652 f4bd db29 b93d
000002d0: 05ef 06be 5c1b 853d e942 913c 77ba 3d3d
000002e0: c2ee 133e 2433 5e3d d507 17bd 830c 74bd
000002f0: 4b56 073d adb0 1abd 208d 5cbd f150 d5bd
00000300: b16a f93c b07f 5d3d 6ff1 813d f928 763d
00000310: 9a6d 0a3d dd2f a9bd 0c76 993c 6d12 b43c
00000320: 0d80 91bd 2c60 853d fb9d 50bd 94bc 4e3d
00000330: 634e c1bd 0c15 efbd d79d a1bd c472 11bc
00000340: db80 0f3e 0102 873d abb0 0fbe 1d38 a93b
00000350: 886d 7e3b a5cc b13b ef09 e13d 52b2 ae3d
00000360: 1218 edbd ffc0 0c3e 4091 d33d 77d3 dfbd
00000370: 55c8 f13c b13e 283d 14f7 06be 138d babc
00000380: a1ef 303c d608 59bd 25d5 6bbc b9d7 123d
00000390: a618 b1bd b10c 9cbc 5416 00be 42fb 6dbd
000003a0: 5792 973d 5536 973c 0599 0ebe 55fb f7bd
000003b0: 7b2d 2f3d 6eaa 15be 5b12 a83d 5da5 863d
000003c0: b1b3 523c b9f8 b33d 4e6b f1bb a4f7 c8bc
000003d0: 45bb c0bd 6582 e03b fbed eb3d 7678 aa3d
000003e0: 488b 063d ef92 e7bc 5a7f ca3d dd37 c6bd
000003f0: ea35 0ebc 13e4 bebc f93b d0bc 4158 823d

bias f4 [80]
0.076497726 0.071675204 -0.12567075 -0.15300183 -0.010608858 0.05360084 -0.13222124 -0.127076
0.13643573 0.043061383 0.10658688 0.095732614 -0.06304161 0.024608558 -0.10213078 -0.053958606
-0.10479517 -0.0753723 0.0024058032 -0.17170228 -0.00828291 -0.09840248 -0.14385526 0.12081762
-0.038425222 0.047688548 -0.046014715 0.11796385 -0.044140372 0.026747813 0.029700248 -0.07259683
-0.08321191 0.13998218 -0.04354939 -0.09692184 -0.037838668 0.12337412 -0.15174443 -0.12594135
-0.18975247 0.06821896 -0.1784387 -0.040756334 0.040501032 -0.11965007 0.06359189 -0.1369893
-0.12792648 -0.17197575 -0.11179718 -0.09735285 -0.07493639 -0.17665099 0.117921546 0.015659984
-0.117136024 -0.113700636 -0.15591231 -0.15299708 -0.13326655 -0.082484916 -0.14404786 -0.15818113
-0.051730096 -0.0015959846 -0.09775867 -0.10820312 0.03322028 -0.050496753 -0.047774486 -0.12630862
0.007715161 -0.03974476 -0.114000745 0.0740079 -0.0034466977 0.08540909 -0.18452266 0.10554587
00000000: d7aa 9c3d 73ca 923d d5af 00be 83ac 1cbe
00000010: c7d0 2dbc 8e8c 5b3d 0165 07be 3620 02be
00000020: cfb5 0b3e 2261 303d 394a da3d 760f c43d
00000030: f61b 81bd e397 c93c f129 d1bd b303 5dbd
00000040: da9e d6bd cb5c 9abd aeaa 1d3b b9d2 2fbe
00000050: 0bb5 07bc 3d87 c9bd cb4e 13be 3a6f f73d
00000060: c463 1dbd 1155 433d ed79 3cbd 0897 f13d
00000070: 89cc 34bd 3b1e db3c ef4d f33c a6ad 94bd
00000080: 026b aabd 7d57 0f3e d860 32bd f57e c6bd
00000090: b8fc 1abd 92ab fc3d e462 1bbe c5f6 00be
000000a0: 794e 42be 62b6 8b3d a2b8 36be 1df0 26bd
000000b0: 69e4 253d 190b f5bd 773c 823d ec46 0cbe
000000c0: 29ff 02be 691a 30be ebf5 e4bd ee60 c7bd
000000d0: 4078 99bd ffe3 34be da80 f13d 5e49 803c
000000e0: 03e5 efbd e1db e8bd 7aa7 1fbe 44ab 1cbe
000000f0: 0777 08be daed a8bd 4881 13be 3cfa 21be
00000100: f0e2 53bd 5b30 d1ba b335 c8bd 9999 ddbd
00000110: fd11 083d afd5 4ebd 2eaf 43bd 0c57 01be
00000120: 76cf fc3b 67cb 22bd 3979 e9bd 7491 973d
00000130: fee1 61bb f6ea ae3d 82f3 3cbe 6f28 d83d

weight f4 [5, 80]
-0.046572715 -0.02115739 -0.0027801131 -0.02994779 -0.041663148 -0.030470615 -0.027810266 0.028779622
-0.029162375 -0.01589326 0.023015829 -0.022256495 -0.028128602 -0.047797713 0.028064227 0.018425092
-0.05567588 0.02347822 0.06410805 -0.008414378 0.0808108 0.0006188541 -0.03216812 -0.0026674578
-0.009541289 0.054406486 -0.006353153 -0.03645213 -0.04629652 0.06496578 0.041042678 -0.018189386
0.0006861138 -0.06521691 0.046781424 0.046233524 0.05018919 -0.04445037 0.05436733 0.044285547
-0.05765153 -0.068831116 -6.4351574e-05 -0.020501431 -0.0032233438 0.037285697 0.068703316 -0.008098014
0.012210891 -0.013773604 0.008242411 0.059371185 -0.059007995 0.043245636 -0.03890055 -0.016543739
-0.028061047 0.054355323 -0.0053462703 -0.038622506 0.019561945 0.07263122 0.01469039 -0.023847375
-0.013691939 -0.029777814 -0.041019004 0.002853075 -0.024202004 0.029639214 -0.06314232 0.025972307
-0.0060867467 0.020979239 0.03875504 0.0012364937 -0.018051652 -0.057623696 -0.03364002 -0.020702325
-0.0023363633 0.000731752 0.013748065 -0.043433923 0.037576996 -0.001662816 -0.0057831537 -0.0013608026
-0.04478221 0.01603043 0.038833108 0.027591724 -0.0125421565 -0.029078064 -0.039511994 -0.020946003
0.050951153 0.0888404 -0.07210013 0.045652322 0.011834631 0.011987649 -0.07343344 0.0121296905
0.033169385 0.049729202 -0.055238362 0.044668432 0.040180463 -0.04412287 -0.039135035 -0.012849636
0.007375138 0.046233032 -0.029022302 0.057254214 -0.06651782 0.0043469653 -0.0047075963 -0.012725292
0.062445316 -0.040089745 -0.05776999 0.05673009 -0.017628433 -0.040034417 -0.059516855 0.0084834825
0.03201021 0.025100239 -0.07531749 0.07358235 0.03846888 0.04592198 0.048217017 -0.033587016
-0.025768852 -0.048110478 0.00499699 -0.057878092 0.029462405 0.001493599 -0.029175615 0.024671815
0.036272936 0.036278397 0.026435914 0.04741818 0.002474203 0.0077805244 -0.021053353 0.039607
0.0024710803 -0.06108351 0.031766642 -0.047164876 0.04289491 0.04622512 -0.025538638 -0.024818143
-0.02609374 0.00943591 -0.081996314 -0.06754841 -0.029079981 0.035245802 -0.06372169 0.02214607
-0.029815229 -0.05846557 0.0032657897 -0.078605376 0.018137014 -0.06638381 0.019483026 0.015757818
-0.026062302 0.019492172 -0.0681777 -0.056491457 0.046968237 0.01591687 0.004277745 -0.0036073755
-0.038569503 0.028409801 -0.04760192 0.00012723048 0.003446244 -0.02073845 0.06064736 -0.01907587
0.010959769 -0.03861777 -0.029271021 0.014381105 0.045662772 0.025420627 0.018499378 0.0018228646
0.013883207 0.047121305 0.011260983 -0.014943739 -0.057448737 -0.07344804 0.0648891 0.00548179
0.0140636 -0.044928145 -0.013655162 -0.00788975 0.037553415 0.0033766737 -0.042817913 0.045917735
-0.02327164 0.010275701 0.025048232 -0.019227678 0.053611122 -0.023177529 -0.028785054 0.03580168
-0.022279833 -0.025133282 -0.00011807255 -0.021503394 -0.04370646 -0.029354477 0.032638185 -0.037652873
-0.014295461 -0.046345882 -0.040155634 0.014113085 0.05392194 -0.011124065 -0.06499358 -0.019664
0.04022792 0.0065244855 0.046331964 -0.008686806 0.014764297 0.009969003 0.030589703 -0.0534058
-0.011889406 -0.08541389 0.04029639 0.031761944 -0.00013359761 0.007322195 0.027289808 -0.040071152
00000000: 08c3 3ebd 4352 adbc 8f32 36bb 1155 f5bc
00000010: faa6 2abd 839d f9bc 5bd2 e3bc 3ec3 eb3c
00000020: efe5 eebc 9532 82bc b18b bc3c 4153 b6bc
00000030: f46d e6bc 89c7 43bd f3e6 e53c 38f0 963c
00000040: 640c 64bd 6555 c03c 154b 833d 76dc 09bc
00000050: 2280 a53d 983a 223a b8c2 03bd 84d0 2ebb
00000060: 1153 1cbc 56d9 5e3d 1c2e d0bb d44e 15bd
00000070: 6ba1 3dbd c70c 853d 5e1c 283d e801 95bc
00000080: 51dc 333a 7190 85bd e19d 3f3d 5d5f 3d3d
00000090: 2e93 4d3d 9711 36bd 47b0 5e3d c364 353d
000000a0: 0324 6cbd 54f7 8cbd 7df4 86b8 9ef2 a7bc
000000b0: bc3e 53bb e3b8 183d 53b4 8c3d 88ad 04bc
000000c0: 3010 483c afaa 61bc 2d0b 073c 332f 733d
000000d0: 5eb2 71bd 5622 313d 2f56 1fbd bc86 87bc
000000e0: 48e0 e5bc b0a3 5e3d c42f afbb a232 1ebd
000000f0: 5f40 a03c adbf 943d f6af 703c 925b c3bc
00000100: 2854 60bc 9af0 f3bc 8b03 28bd a8fa 3a3b
00000110: 4843 c6bc f0cd f23c c350 81bd e0c3 d43c
00000120: 5573 c7bb a7dc ab3c 9bbd 1e3d d811 a23a
00000130: 0fe1 93bc d306 6cbd 1eca 09bd ec97 a9bc
00000140: ac1d 19bb 0cd3 3f3a 903f 613c c5e7 31bd
00000150: 56ea 193d d9f2 d9ba 9c80 bdbb f55c b2ba
00000160: 8d6d 37bd 4052 833c 770f 1f3d 0a08 e23c
00000170: 9e7d 4dbc 1f35 eebc 54d7 21bd f496 abbc
00000180: 28b2 503d f5f1 b53d 3ca9 93bd eefd 3a3d
00000190: 0ae6 413c d867 443c 4564 96bd 9cbb 463c
000001a0: 9fdc 073d d9b0 4b3d 9f41 62bd 3ff6 363d
000001b0: 4594 243d 2fba 34bd 0f4c 20bd 4887 52bc
000001c0: 24ab f13b d95e 3d3d 2ec0 edbc 6583 6a3d
000001d0: 7f3a 88bd fd70 8e3b 2e42 9abb be7d 50bc
000001e0: a9c6 7f3d 2535 24bd 3aa0 6cbd d05d 683d
000001f0: 8169 90bc 21fb 23bd f2c7 73bd 4efe 0a3c
00000200: 231d 033d 049f cd3c 0e40 9abd 58b2 963d
00000210: 8b91 1d3d b018 3c3d 357f 453d 8a92 09bd
00000220: 3319 d3bc 7e0f 45bd cabd a33b 9411 6dbd
00000230: 245b f13c dec4 c33a b301 efbc 8c1c ca3c
00000240: ee92 143d a898 143d 2190 d83c 9139 423d
00000250: 3d26 223b c5f3 fe3b 1578 acbc f33a 223d
00000260: d9f1 213b b432 7abd bd1d 023d f52f 41bd
00000270: 93b2 2f3d 8d56 3d3d 6836 d1bc 6b4f cbbc
00000280: 8ac2 d5bc 1399 1a3c afed a7bd d256 8abd
00000290: 2439 eebc e75d 103d 8480 82bd ad6b b53c
000002a0: 113f f4bc 9879 6fbd dc06 563b dbfb a0bd
000002b0: 1394 943c 3cf4 87bd de9a 9f3c 8a16 813c
000002c0: 9c80 d5bc 0cae 9f3c c0a0 8bbd 9663 67bd
000002d0: c461 403d 1964 823c 532c 8c3b b869 6cbb
000002e0: 0efb 1dbd acbb e83c 3bfa 42bd 2c69 0539
000002f0: 61da 613b afe3 a9bc 5e69 783d 0045 9cbc
00000300: 9a90 333c ab2d 1ebd c8c9 efbc ba9e 6b3c
00000310: e308 3b3d eb3e d03c 028c 973c 30ed ee3a
00000320: 6476 633c 4502 413d fc7f 383c 96d6 74bc
00000330: 5e4f 6bbd ed6b 96bd 94e4 843d 96a0 b33b
00000340: 046b 663c 9306 38bd e7b9 5fbc 0344 01bc
00000350: 9cd1 193d 2f4b 5d3b d661 2fbd 3c14 3c3d
00000360: 2ba4 bebc 6a5b 283c f331 cd3c 5d83 9dbc
00000370: 5697 5b3d cdde bdbc a2ce ebbc c8a4 123d
00000380: 3284 b6bc 50e4 cdbc b89d f7b8 e327 b0bc
00000390: 8c05 33bd cd78 f0bc 9eaf 053d e639 1abd
000003a0: 8237 6abc 2ed5 3dbd 3c7a 24bd 923a 673c
000003b0: 41dd 5c3d b641 36bc 5b1b 85bd 6616 a1bc
000003c0: 08c6 243d 5acb d53b 96c6 3d3d 1b53 0ebc
000003d0: f3e5 713c 0755 233c 4297 fa3c 0ac0 5abd
000003e0: c8cb 42bc 7aed aebd d40d 253d d018 023d
000003f0: 5616 0cb9 06ef ef3b e08e df3c a621 24bd

bias f4 [5]
0.04297478 -0.0040943082 0.06780575 0.04981494 0.03854288
00000000: 5306 303d 8c29 86bb bedd 8a3d c00a 4c3d
00000010: 24df 1d3d
