final_project/mlruns/3/8c7e2e72a7a5444b9ba51613ed8546bf/artifacts/cvae_27/data/model.pth (torch, 48391 bytes, 10 tensors)

weight f4 [80, 11]
-0.2666947 -0.23634638 0.219677 -0.16034712 0.17909874 -0.093629554 0.012860377 -0.16530824
-0.10686725 -0.08405196 -0.1126608 0.237452 0.13433746 0.19685656 -0.26704985 0.05737526
0.0055531217 0.3378079 -0.09422738 -0.22844514 0.17738514 0.006099028 -0.1101507 0.035408966
-0.11551202 -0.15098867 0.05121459 0.103756525 0.17771004 0.013820783 -0.012555681 0.14324094
0.16336195 -0.055407394 -0.08944932 -0.00454912 0.1775495 -0.14670232 0.07567059 -0.24180324
0.25122032 -0.23377797 0.12828381 0.2417449 0.2972501 0.12307298 0.059887767 0.16885695
-0.20798264 -0.110242665 -0.10985097 0.15776907 0.2668656 0.24697174 0.11411438 -0.18280706
-0.23098126 -0.1471807 -0.08797435 0.2501161 -0.044105988 0.02893696 0.017276105 -0.19567761
0.13336925 -0.1677234 -0.22442803 0.2223204 0.11387348 -0.05606843 0.20976377 0.20140754
0.3047367 -0.19957094 -0.060183723 -0.08065992 -0.06838228 -0.043721605 0.11589143 -0.1938585
0.25764164 -0.23363088 -0.04011545 0.1713998 -0.19744715 0.24730092 -0.10098765 -0.10417742
0.077877946 0.19818349 0.06671166 -0.06086142 -0.13027821 0.22112225 -0.23215106 -0.05271271
0.2787258 -0.22503726 -0.19479197 0.08496203 -0.19488972 -0.2312349 -0.15750916 0.022389729
-0.03760535 0.29700956 0.105683684 0.1880306 0.26218757 -0.065094806 0.14472982 -0.15568742
0.20343055 0.24531193 0.051006388 -0.28052908 0.08343336 0.13947797 0.27010414 0.2982133
-0.28177685 0.08617763 -0.09606473 -0.23734683 0.2858377 0.073996864 -0.18751042 -0.12184889
0.01412291 0.2756798 -0.016581528 -0.13792686 -0.19433409 0.24099651 0.12450218 -0.24381068
0.25226346 -0.07962377 -0.14131127 0.1270912 -0.13391204 -0.11042217 0.31818253 0.08611919
-0.17863904 0.09059292 0.016543945 0.021765342 0.18610728 0.20491798 0.046604816 -0.13433556
0.15018441 -0.2651498 -0.29652172 -0.22724575 0.08090125 0.114837795 0.05101105 -0.14862868
-0.120056726 -0.15216134 0.16124061 -0.3096529 0.2659994 -0.020052008 -0.06673415 -0.18968722
0.23181266 -0.1657132 0.1463442 -0.26006174 0.17584716 0.18586276 -0.23960468 -0.1076474
0.009074739 -0.1342047 -0.16799273 0.19781083 0.14721629 0.1504333 -0.24272646 0.10167215
0.17679045 -0.0882957 0.14414202 -0.3114803 0.22234252 -0.096334815 -0.19745684 -0.20159343
-0.13377023 0.06748903 -0.15900157 0.14642347 -0.2114018 0.26653847 0.07402962 0.22307435
-0.05910787 0.29405472 -0.06974726 -0.17262487 0.028172849 -0.23562989 0.061250526 0.16837376
-0.116396315 0.28220433 0.03949457 0.053928845 0.010309662 0.1572347 0.07264342 -0.08506674
0.1676441 -0.23476903 -0.22337067 0.29681912 -0.034374543 0.10173072 -0.13585661 -0.08477734
0.3373812 -0.028537551 -0.02447208 -0.04797011 0.17710268 -0.17275847 0.109721094 -0.07418152
-0.03549512 -0.17272747 -0.21708947 -0.14012913 0.10641108 0.03356003 0.014636071 0.057770584
0.08216654 -0.125914 0.22620799 0.2798682 0.026766649 -0.3268757 -0.20772389 -0.26103687
0.005427252 -0.29864177 -0.0342496 -0.08188139 0.038341116 -0.1202919 -0.11140482 -0.27387798
00000000: 358c 88be c904 72be 02f3 603e 0932 24be
00000010: a965 373e dac0 bfbd 55b4 523c 9046 29be
00000020: 37dd dabd 6f23 acbd b5ba e6bd 9e26 733e
00000030: c28f 093e c494 493e c2ba 88be 5202 6b3d
00000040: f6f6 b53b 28f5 ac3e 49fa c0bd 86ed 69be
00000050: 73a4 353e 5bda c73b b196 e1bd fe08 113d
00000060: 9191 ecbd c69c 1abe 64c6 513d 4d7e d43d
00000070: 9ff9 353e 9170 623c 58b6 4dbc c1ad 123e
00000080: 5b48 273e ddf2 62bd 3531 b7bd c910 95bb
00000090: 89cf 353e 2239 16be 2ff9 9a3d 459b 77be
000000a0: f39f 803e 7e63 6fbe d55c 033e fa8b 773e
000000b0: 2a31 983e b00d fc3d e04c 753d d6e8 2c3e
000000c0: 67f9 54be e8c6 e1bd 8cf9 e0bd 378e 213e
000000d0: 9ca2 883e 29e6 7c3e cdb4 e93d c631 3bbe
000000e0: 5a86 6cbe 8ab6 16be e52b b4bd 380f 803e
000000f0: 7ba8 34bd 340d ed3c 9e86 8d3c b65f 48be
00000100: f391 083e afbf 2bbe 76d0 65be f5a7 633e
00000110: 8036 e93d 03a8 65bd 50cc 563e c73d 4e3e
00000120: 7306 9c3e 535c 4cbe 3583 76bd 0731 a5bd
00000130: 020c 8cbd 6d15 33bd 7c58 ed3d d882 46be
00000140: 9be9 833e ef3c 6fbe 1950 24bd 6e83 2f3e
00000150: 962f 4abe 743c 7d3e 9dd2 cebd f95a d5bd
00000160: 797e 9f3d 9df0 4a3e 1fa0 883d d349 79bd
00000170: a767 05be df6d 623e 02b9 6dbe 48e9 57bd
00000180: 26b5 8e3e 2b70 66be 8c77 47be 9300 ae3d
00000190: 2c91 47be d7c8 6cbe 154a 21be aa6a b73c
000001a0: 1108 1abd a311 983e b070 d83d 188b 403e
000001b0: 733d 863e 6d50 85bd 0e34 143e 866c 1fbe
000001c0: 1950 503e 0d33 7b3e 13ec 503d 82a1 8fbe
000001d0: 1cdf aa3d 50d3 0e3e 174b 8a3e 6aaf 983e
000001e0: 0e45 90be e67d b03d 96bd c4bd 0c0b 73be
000001f0: 5259 923e ab8b 973d bb02 40be e98b f9bd
00000200: c763 673c e725 8d3e fcd5 87bc b33c 0dbe
00000210: 84ff 46be cac7 763e 00fb fe3d 82a9 79be
00000220: ad28 813e ca11 a3bd e7b3 10be 3224 023e
00000230: 3d20 09be 0525 e2bd d2e8 a23e 425f b03d
00000240: 27ed 36be c888 b93d 2b87 873c 3b4d b23c
00000250: e892 3e3e 05d6 513e b1e4 3e3d 438f 09be
00000260: f1c9 193e b7c1 87be b2d1 97be 1cb3 68be
00000270: 8eaf a53d 1430 eb3d f6f0 503d 1e32 18be
00000280: 4de0 f5bd 2fd0 1bbe 421c 253e d38a 9ebe
00000290: 1331 883e 1c44 a4bc eaab 88bd 5e3d 42be
000002a0: 4c60 6d3e b9b0 29be 41db 153e d026 85be
000002b0: 4711 343e cf52 3e3e ee5a 75be 3d76 dcbd
000002c0: 37ae 143c f56c 09be 4906 2cbe ec8e 4a3e
000002d0: debf 163e 300b 1a3e 498d 78be 7d39 d03d
000002e0: 8e08 353e 60d4 b4bd f799 133e 597a 9fbe
000002f0: c2ad 633e 304b c5bd 2032 4abe 826e 4ebe
00000300: 10fb 08be b037 8a3d 4fd1 22be 09f0 153e
00000310: b779 58be bb77 883e d79c 973d 9a6d 643e
00000320: 181b 72bd 578e 963e a7d7 8ebd 93c4 30be
00000330: bfca e63c f648 71be d5e1 7a3d 2c6a 2c3e
00000340: 3161 eebd 167d 903e 0fc5 213d 7ee4 5c3d
00000350: dbe9 283c 2202 213e 13c6 943d 7937 aebd
00000360: e5aa 2b3e 4b67 70be 48bb 64be adf8 973e
00000370: 52cc 0cbd 3258 d03d ff1d 0bbe be9f adbd
00000380: 3bbd ac3e 95c7 e9bc ac79 c8bc 4e7c 44bd
00000390: 685a 353e 99e7 30be 74b5 e03d 7bec 97bd
000003a0: 5563 11bd 78df 30be b44c 5ebe 037e 0fbe
000003b0: 0dee d93d 3e76 093d 22cc 6f3c d9a0 6c3d
000003c0: ee46 a83d 9aef 00be 11a3 673e e24a 8f3e
000003d0: bb45 db3c 405c a7be 92b5 54be a0a6 85be
000003e0: 17d7 b13b 93e7 98be 4f49 0cbd 6eb1 a7bd
000003f0: 930b 1d3d 9a5b f6bd 3628 e4bd bc39 8cbe

bias f4 [80]
-0.24484955 0.40703818 0.4399208 -0.20375168 0.108732864 0.26873946 0.22362253 0.43710533
0.39892694 0.39556625 0.1749559 0.36488342 0.25993195 0.417922 -0.1672329 0.43370867
0.15761553 -0.18433896 -0.010508281 0.48284703 0.35974345 -0.049801454 -0.17974398 -0.18217851
-0.25765738 0.1205411 0.08504304 0.29372552 0.27272645 -0.030058533 0.39973664 0.3614167
0.025864553 0.313036 -0.046198424 0.37988228 -0.26941913 -0.20373327 -0.26610443 0.0803372
0.4552188 0.024688954 0.030233324 0.08603438 0.3295503 0.3259791 0.47448418 0.37724432
0.092815794 -0.059980053 -0.14168891 -0.05264223 0.19947326 0.4619996 0.10852227 0.1893799
0.41920906 0.11261547 0.14945604 -0.20353453 0.41314977 0.3055984 0.44582292 0.19295548
0.208954 -0.2683198 0.06900886 0.3005897 0.2718879 0.3422793 -0.11743699 0.28888786
0.17346247 -0.095818415 -0.03944742 -0.13647275 -0.28808856 0.08218888 -0.09371498 0.33426404
00000000: d7b9 7abe 4f67 d03e 4d3d e13e 48a4 50be
00000010: 56af de3d 3898 893e 4efd 643e 45cc df3e
00000020: 2740 cc3e a987 ca3e a427 333e 00d2 ba3e
00000030: cd15 853e dff9 d53e 1a3f 2bbe 100f de3e
00000040: f765 213e 5ac3 3cbe ed2a 2cbc ba37 f73e
00000050: 4b30 b83e 9cfc 4bbd ce0e 38be 018d 3abe
00000060: abeb 83be 41de f63d 0c2b ae3d 3163 963e
00000070: cda2 8b3e 503d f6bc 48aa cc3e 9c0b b93e
00000080: e6e1 d33c 4146 a03e 8f3a 3dbd ee7f c23e
00000090: 4ef1 89be 749f 50be d73e 88be d487 a43d
000000a0: 7012 e93e 7d40 ca3c e0ab f73c cb32 b03d
000000b0: d1ba a83e bce6 a63e 97ef f23e 2b26 c13e
000000c0: 3516 be3d a5ad 75bd e616 11be 619f 57bd
000000d0: b842 4c3e 368b ec3e ed40 de3d ceec 413e
000000e0: 92a2 d63e f1a2 e63d 010b 193e 5b6b 50be
000000f0: 5e88 d33e 6577 9c3e e742 e43e 1f96 453e
00000100: 0af8 553e 3661 89be 8454 8d3d e5e6 993e
00000110: e434 8b3e 3b3f af3e ce82 f0bd 1ce9 933e
00000120: 25a0 313e 723c c4bd 9e93 21bd 83bf 0bbe
00000130: 5880 93be a552 a83d a4ed bfbd a824 ab3e

weight f4 [40, 80]
-0.07588413 0.07454021 -0.02628068 0.018774986 0.023221973 0.10501818 0.066963516 -0.076401
0.03831352 0.044681013 0.037101146 0.11127517 -0.021458585 -0.114105724 0.049631093 -0.026218303
-0.015085097 -0.10887732 -0.081461065 0.060693443 0.055065498 -0.032961138 -0.042833567 0.043638363
-0.02896165 0.056327216 0.106037766 -0.021756446 0.052919667 0.02450314 -0.08809881 -0.078595355
-0.07611728 0.010572449 0.017075028 -0.10788857 0.020922447 0.09153981 -0.09713103 -0.0363847
-0.019290105 0.102877 0.010876016 -0.049125694 0.047165256 0.10737992 0.06516575 -0.062957585
0.04430998 0.028100884 -0.10297505 0.10061119 0.091210775 0.089563176 -0.038824417 -0.10335803
0.081107385 -0.07758628 -0.029578403 0.059948493 -0.030937873 -0.055857707 0.0422718 -0.07933795
-0.10429712 0.004935124 0.033588693 -0.026977746 0.017507607 0.08369805 0.07043488 0.00061166094
0.04994475 0.07764129 0.047252618 0.05731866 0.001867599 0.08337762 0.04491468 -0.021557955
-0.13710655 0.016334737 -0.010552197 0.05469578 0.0058884365 0.058544036 0.07718722 -0.07936673
0.12103214 -0.038856585 0.00040883242 -0.0037342126 0.046924364 -0.011407928 0.09072205 -0.0711963
-0.07482925 0.026967885 -0.050388478 0.03454646 0.0025749723 -0.11809242 -0.008619465 -0.07744887
-0.02573772 0.05382171 -0.09312575 -0.045393754 -0.065557726 0.100641556 0.123075426 -0.043411344
-0.08636651 0.07460037 -0.034715675 0.112521924 -0.028366202 0.0397393 -0.0017202537 -0.0018942358
0.007856801 -0.013229597 -0.029965477 -0.009907775 -0.015609057 0.047797944 0.003284409 0.020144971
0.04048532 0.010158098 0.07819652 -0.09210963 -0.017302454 0.0074707167 0.09536107 -0.08714803
0.06746166 0.056000907 0.028034791 -0.047641695 0.10468091 -0.0014407435 -0.031203955 0.12213107
-0.07659562 -0.11378083 0.018653825 0.0035068456 0.025060492 0.10338169 -0.08263041 0.039379697
-0.0073968736 -0.10727971 -0.07425702 0.101953715 -0.05166207 0.012918776 -0.069997214 -0.060008466
-0.035024367 -0.04386365 -0.008278608 0.08265802 -0.0017479043 0.05081835 0.015066009 -0.05876224
-0.093398355 0.12583752 0.01914925 -0.03679632 -0.07150451 0.049687527 0.039401017 0.06904427
0.022435779 -0.07300682 -0.116266355 -0.039600033 -0.019693457 -0.11919405 0.010341181 -0.056240764
-0.0518791 0.013316413 -0.08756556 0.13122688 0.05855838 0.0068387124 0.06167205 -0.0025586816
0.020926869 -0.038764928 0.027612636 0.08059942 0.059760768 0.05943283 0.07239004 0.072836384
-0.013841056 0.08843249 -0.033368614 0.074502684 0.119508736 0.043602124 0.08848298 0.041253686
-0.042243198 -0.096183255 -0.092692666 0.08354497 -0.018657682 0.08437956 -0.015677076 0.06364361
0.007946264 0.057177953 0.079394825 0.060581293 0.11223941 0.090783805 -0.031063635 0.072333716
0.087261684 -0.061083358 0.095227584 -0.040575698 -0.0746592 0.03692181 0.012375709 0.031384114
0.069186494 -0.06484267 0.03372347 -0.09004789 -0.11322421 0.06811522 0.074719116 -0.088006206
0.06149749 0.08723916 0.005695119 0.010288739 -0.02783523 -0.008178285 -0.07651994 -0.07981871
0.07141616 -0.04261432 0.041700013 -0.016545115 0.056515217 -0.09068162 -0.03622786 -0.04863566
00000000: 2469 9bbd 8aa8 983d 954a d7bc 00ce 993c
00000010: 023c be3c c613 d73d 2b24 893d 2178 9cbd
00000020: a3ee 1c3d 7003 373d 5ff7 173d 3de4 e33d
00000030: eac9 afbc 43b0 e9bd f949 4b3d c4c7 d6bc
00000040: 7c27 77bc 13fb debd 0fd5 a6bd b099 783d
00000050: 5c8c 613d 4202 07bd 4072 2fbd 24be 323d
00000060: fb40 edbc 5eb7 663d 542a d93d 933a b2bc
00000070: 4bc2 583d cfba c83c 266d b4bd 9af6 a0bd
00000080: 60e3 9bbd 1138 2d3c eee0 8b3c aff4 dcbd
00000090: 8d65 ab3c 3979 bb3d a2ec c6bd 2008 15bd
000000a0: 4806 9ebc 2db1 d23d 5131 323c 0638 49bd
000000b0: 5b30 413d 01ea db3d 9f75 853d e8ef 80bd
000000c0: 627e 353d d333 e63c 95e4 d2bd 3d0d ce3d
000000d0: b7cc ba3d e66c b73d 5a06 1fbd 60ad d3bd
000000e0: a11b a63d 8ee5 9ebd 684e f2bc 8d8c 753d
000000f0: 6c71 fdbc 0dcb 64bd 3225 2d3d ef7b a2bd
00000100: ba99 d5bd d2b6 a13b 4c94 093d 6f00 ddbc
00000110: 1d6c 8f3c e269 ab3d 2a40 903d df57 203a
00000120: de92 4c3d 6602 9f3d f68b 413d f9c6 6a3d
00000130: 39ca f43a e3c1 aa3d 75f8 373d 4f9a b0bc
00000140: a965 0cbe 6dd0 853c 1fe3 2cbc af08 603d
00000150: c9f3 c03b dfcb 6f3d 5514 9e3d 068b a2bd
00000160: b3df f73d 1528 1fbd 8f58 d639 b1b9 74bb
00000170: c333 403d 51e8 3abc 7bcc b93d 5ecf 91bd
00000180: 1440 99bd c1eb dc3c 2664 4ebd 9780 0d3d
00000190: dec0 283b 70da f1bd a838 0dbc 839d 9ebd
000001a0: e9d7 d2bc 2774 5c3d b7b8 bebd cdee 39bd
000001b0: 2143 86bd 291d ce3d f80e fc3d 18d0 31bd
000001c0: ede0 b0bd 14c8 983d 0632 0ebd e571 e63d
000001d0: 3d60 e8bc adc5 223d 237a e1ba 0248 f8ba
000001e0: d0b9 003c f4c0 58bc 297a f5bc 3854 22bc
000001f0: 21bd 7fbc c7c7 433d 3d3f 573b 1107 a53c
00000200: efd3 253d 276e 263c 7f25 a03d f9a3 bcbd
00000210: e0bd 8dbc eacc f43b aa4c c33d ab7a b2bd
00000220: 5729 8a3d 3561 653d 38a9 e53c f023 43bd
00000230: f262 d63d 54d7 bcba 709f ffbc db1f fa3d
00000240: 2ade 9cbd ec05 e9bd e8cf 983c 1bd3 653b
00000250: a94b cd3c c8b9 d33d 223a a9bd 9b4c 213d
00000260: 7961 f2bb 77b5 dbbd 1114 98bd 1ccd d03d
00000270: 9b9b 53bd 46a9 533c b35a 8fbd 70cb 75bd
00000280: b675 0fbd 5faa 33bd 00a3 07bc 9c48 a93d
00000290: f019 e5ba e726 503d 6cd7 763c adb0 70bd
000002a0: a347 bfbd 8ddb 003e e3de 9c3c bdb7 16bd
000002b0: f570 92bd 2685 4b3d f662 213d 1567 8d3d
000002c0: 3dcb b73c 9a84 95bd 0e1d eebd a533 22bd
000002d0: 2c54 a1bc 031c f4bd 0f6e 293c b75c 66bd
000002e0: 2e7f 54bd 162d 5a3c 9355 b3bd 5760 063e
000002f0: e9da 6f3d 4717 e03b d59b 7c3d 8eaf 27bb
00000300: d36e ab3c f9c7 1ebd e533 e23c 4f11 a53d
00000310: b5c7 743d d76f 733d 3b41 943d 3e2b 953d
00000320: 99c5 62bc 181c b53d 87ad 08bd dd94 983d
00000330: ffc0 f43d 2498 323d 9136 b53d a0f9 283d
00000340: 3407 2dbd bafb c4bd a7d5 bdbd a019 ab3d
00000350: ffd7 98bc 31cf ac3d 366d 80bc 9557 823d
00000360: 0c31 023c 6e33 6a3d c199 a23d 1724 783d
00000370: c7dd e53d dcec b93d 2a79 febc b323 943d
00000380: 41b6 b23d 8b32 7abd ae06 c33d b432 26bd
00000390: ece6 98bd 533b 173d 7cc3 4a3c a18c 003d
000003a0: a6b1 8d3d 3ccc 84bd 9f21 0a3d 076b b8bd
000003b0: 18e2 e7bd fe7f 8b3d 5606 993d 993c b4bd
000003c0: cbe4 7b3d 72aa b23d 1f9e ba3b 1992 283c
000003d0: b506 e4bc 37fe 05bc 7cb6 9cbd fe77 a3bd
000003e0: a342 923d 5a8c 2ebd a2cd 2a3d 9f89 87bc
000003f0: 807c 673d 49b7 b9bd aa63 14bd 3036 47bd

bias f4 [40]
-0.08875788 -0.057045292 0.098848395 -0.08940773 -0.013721142 -0.106731705 -0.10296897 0.04675837
-0.028362747 -0.18759292 -0.091767706 -0.06294473 -0.122936256 0.08786752 -0.07869287 0.011400439
0.088723324 0.014186086 -0.11166296 0.0057851314 0.1479498 -0.030084679 -0.0055606426 0.072448455
0.030901808 0.067011744 0.07617263 0.09021235 -0.0012118926 0.06485956 0.048011683 -0.013242095
0.005097728 -0.009649309 0.096526295 0.032178473 0.06239909 -0.039669488 0.037179112 -0.051467832
00000000: b1c6 b5bd 53a8 69bd 0771 ca3d 661b b7bd
00000010: a4ce 60bc 2796 dabd 65e1 d2bd b485 3f3d
00000020: fe58 e8bc 5c18 40be b5f0 bbbd 2be9 80bd
00000030: 01c6 fbbd e3f3 b33d ba29 a1bd e8c8 3a3c
00000040: 93b4 b53d c26c 683c 8daf e4bd 3391 bd3b
00000050: 2780 173e 2574 f6bc 0d36 b6bb db5f 943d
00000060: ca25 fd3c 743d 893d 6500 9c3d 41c1 b83d
00000070: 5ed8 9eba 17d5 843d e6a7 443d 5ff5 58bc
00000080: d80a a73b 2318 1ebc 94af c53d 93cd 033d
00000090: 3096 7f3d 797c 22bd 2049 183d efcf 52bd

weight f4 [40, 80]
-0.038402297 -0.05182463 -0.14365849 0.049263928 0.041881345 0.013676013 -0.029436085 -0.06506589
-0.094763346 -0.01743823 -0.12171387 0.034752432 -0.13297446 -0.1657266 -0.0799436 -0.014013062
-0.17052726 -0.11062671 0.04465709 -0.17357066 -0.016229894 -0.11507708 0.05171355 -0.054515958
-0.090091124 -0.026389146 -0.023705894 -0.17542456 -0.1828451 -0.083958134 -0.01262291 -0.17855023
0.04882882 -0.18699749 -0.019436408 -0.060636956 0.0054692794 -0.06450968 -0.12292257 -0.15365206
-0.0012809839 -0.018919522 -0.054170746 -0.07766205 -0.10767941 -0.15704513 -0.05740854 0.02598243
-0.050158612 0.08377386 0.024602454 -0.083784446 0.042716213 -0.16386047 -0.03902962 -0.003368044
-0.07513021 0.0218331 -0.16106386 0.068286575 0.011864174 -0.23072192 -0.16595662 -0.1071567
-0.043556508 0.024325866 -0.14107183 -0.04942188 -0.119561255 -0.0111500835 0.0457551 -0.19532089
0.04163752 -0.0981555 0.04465983 -0.017071865 0.061204184 -0.07188526 0.022900613 -0.059656568
0.010488123 -0.03456433 -0.034678433 0.06995728 0.00031751973 -0.023478156 0.029442735 -0.16104445
-0.07057359 -0.19540559 -0.0003972969 -0.028511703 -0.19835265 -0.1694728 0.033505738 -0.07144204
-0.09233412 -0.06867109 -0.014859068 -0.12815686 -0.024034502 -0.026159361 -0.055081125 -0.0016707985
-0.050208326 0.029652001 0.0384371 -0.18272464 -0.010549538 -0.10547552 -0.19893312 -0.015702322
-0.048460055 -0.06636082 -0.059979804 -0.09450952 0.06187254 0.036637563 -0.04660195 -0.034835026
-0.01110886 -0.13187437 -0.14398856 -0.08551777 0.026251491 -0.15055354 -0.08889702 0.002718391
0.046254102 0.08515761 -0.027013477 -0.14710172 0.045967907 -0.07910409 -0.061417364 0.030601326
0.00619697 -0.04354901 -0.14647594 0.11171455 -0.036128625 -0.1927717 -0.16864884 -0.024479128
-0.024415458 -0.12518428 -0.06692526 -0.02800999 -0.05039927 0.028785631 0.0024781069 -0.14364973
-0.102280155 -0.00988892 -0.06297238 -0.1209385 -0.08392564 0.0090373 0.03498544 -0.06491468
0.06274819 -0.03727367 -0.106540054 -0.012832242 -0.123522036 -0.19454008 -0.06638274 -0.21030894
-0.1797522 -0.020958323 -0.032975625 -0.099120334 -0.16022098 -0.20238872 -0.022907984 -0.013805238
0.011530228 -0.091353685 -0.15484188 -0.07854201 -0.01090884 -0.10707369 -0.09406938 -0.05710779
0.084787 0.035038788 -0.11163554 -0.0069636307 -0.15227288 0.02001943 -0.119258486 -0.15538198
-0.07720806 -0.18381779 0.053256113 -0.18548904 0.016362151 -0.036854938 0.056567192 0.02829933
-0.024371335 0.024728304 -0.08655372 0.024113746 -0.14461635 -0.14359815 -0.15868434 0.014515465
-0.13936064 -0.03572842 0.07284994 -0.09741238 -0.030049464 -0.16526915 -0.16394834 -0.0027435792
-0.08182964 -0.11314174 -0.010099204 -0.050805457 -0.06201627 -0.20041491 -0.06642736 -0.06272222
-0.11873458 -0.12418699 -0.03413552 -0.02103091 0.004781207 -0.11709024 -0.12095441 -0.2493979
-0.008059232 -0.0022565823 -0.10252191 -0.022118911 0.04518244 -0.07435686 -0.06484072 -0.1781793
-0.019574186 -0.06606598 -0.14760987 0.10482111 -0.052800726 -0.13165694 0.031537477 -0.0044335155
-0.15962036 -0.04427587 -0.037263718 0.024694992 -0.007033567 -0.025320124 0.057155114 -0.1394901
00000000: ba4b 1dbd 1046 54bd 361b 13be f9c8 493d
00000010: c68b 2b3d 5b11 603c f223 f1bc 4441 85bd
00000020: 4913 c2bd 9eda 8ebc 1f45 f9bd 9158 0e3d
00000030: 752a 08be 3cb4 29be 78b9 a3bd 0b97 65bc
00000040: b39e 2ebe 4290 e2bd 5aea 363d 82bc 31be
00000050: 8ef4 84bc 88ad ebbd 96d1 533d 204c 5fbd
00000060: b281 b8bd 0d2e d8bc dd32 c2bc 7fa2 33be
00000070: bf3b 3bbe 3ef2 abbd 52d0 4ebc dfd5 36be
00000080: bb00 483d 457c 3fbe 1a39 9fbc 755e 78bd
00000090: a437 b33b a71d 84bd d4be fbbd f756 1dbe
000000a0: b0e6 a7ba 1dfd 9abc 25e2 5dbd 480d 9fbd
000000b0: 0687 dcbd 70d0 20be 3825 6bbd 1bd9 d43c
000000c0: 1e73 4dbd a191 ab3d 168b c93c 2e97 abbd
000000d0: 32f7 2e3d 0acb 27be 86dd 1fbd 67ba 5cbb
000000e0: dedd 99bd 54db b23c eded 24be d5d9 8b3d
000000f0: f461 423c 5e42 6cbe 88f0 29be f974 dbbd
00000100: 4f68 32bd 0a47 c73c 2275 10be 996e 4abd
00000110: 88dc f4bd d7ae 36bc b369 3b3d 3302 48be
00000120: 1b8c 2a3d c005 c9bd 3aed 363d 4cda 8bbc
00000130: 3db1 7a3d 9438 93bd 119a bb3c 725a 74bd
00000140: 60d6 2b3c 5493 0dbd f90a 0ebd c345 8f3d
00000150: c778 a639 4355 c0bc e431 f13c d6e8 24be
00000160: e388 90bd 6718 48be 4a4c d0b9 6091 e9bc
00000170: f51c 4bbe 478a 2dbe 503d 093d 3450 92bd
00000180: ac19 bdbd 6ea3 8cbd 7373 73bc 8d3b 03be
00000190: 01e4 c4bc 284c d6bc bf9c 61bd b2fe daba
000001a0: 3fa7 4dbd c1e8 f23c 3870 1d3d 2b1c 3bbe
000001b0: f8d7 2cbc 8d03 d8bd 20b5 4bbe 28a2 80bc
000001c0: 0d7e 46bd 2ee8 87bd 62ad 75bd 358e c1bd
000001d0: 0f6e 7d3d 4511 163d b0e1 3ebd 2caf 0ebd
000001e0: f001 36bc 130a 07be bd71 13be f123 afbd
000001f0: 5e0d d73c b52a 1abe a40f b6bd 0827 323b
00000200: f174 3d3d 1d67 ae3d 5e4b ddbc d5a1 16be
00000210: d848 3c3d 5301 a2bd c690 7bbd a2af fa3c
00000220: f40f cb3b 7260 32bd cafd 15be 99ca e43d
00000230: 9cfb 13bd f265 45be 48b2 2cbe 7488 c8bc
00000240: ed02 c8bc 4f30 00be 1c10 89bd 3575 e5bc
00000250: 776f 4ebd d8cf eb3c bc67 223b ea18 13be
00000260: 4278 d1bd 2305 22bc aaf7 80bd 9bae f7bd
00000270: 35e1 abbd 2f11 143c e54c 0f3d fdf1 84bd
00000280: 1f82 803d 47ac 18bd ac31 dabd 533e 52bc
00000290: 1ff9 fcbd 8435 47be adf3 87bd 3a5b 57be
000002a0: f610 38be cab0 abbc 7311 07bd 9aff cabd
000002b0: f810 24be fd3e 4fbe 86a9 bbbc 5d2f 62bc
000002c0: 48e9 3c3c a417 bbbd df8e 1ebe a2da a0bd
000002d0: feba 32bc 7349 dbbd 72a7 c0bd dce9 69bd
000002e0: cfa4 ad3d d584 0f3d 2da1 e4bd 2b2f e4bb
000002f0: 6ced 1bbe caff a33c cb3d f4bd 741c 1fbe
00000300: 421f 9ebd bb3a 3cbe 1523 5a3d d7f0 3dbe
00000310: eb09 863c 34f5 16bd 00b3 673d ffd3 e73c
00000320: 65a6 c7bc 0393 ca3c 1443 b1bd 318a c53c
00000330: 4f16 14be 650b 13be 267e 22be 46d2 6d3c
00000340: 8eb4 0ebe f757 12bd 5932 953d 2480 c7bd
00000350: 4b2a f6bc 513c 29be 13e2 27be 9fcd 33bb
00000360: 4c96 a7bd dbb6 e7bd 2277 25bc 6219 50bd
00000370: c604 7ebd 9139 4dbe 110b 88bd 8274 80bd
00000380: 1e2b f3bd c055 febd b0d1 0bbd 0449 acbc
00000390: acab 9c3b 02cd efbd f2b6 f7bd 2a62 7fbe
000003a0: de0a 04bc 2be3 13bb 02f7 d1bd b832 b5bc
000003b0: 3911 393d 6948 98bd 36cb 84bd a274 36be
000003c0: 0b5a a0bc 9a4d 87bd 0b27 17be 73ac d63d
000003d0: 9345 58bd 14d1 06be 712d 013d 0647 91bb
000003e0: 8573 23be 9d5a 35bd d7a1 18bd 274d ca3c
000003f0: d679 e6bb 266c cfbc 7b1b 6a3d 7ed6 0ebe

bias f4 [40]
-0.053364407 -0.17848645 -0.13116443 -0.12479855 -0.055583358 -0.07968315 -0.1306038 -0.13251677
0.0012687488 -0.11243111 -0.034185626 -0.050835595 -0.04836504 -0.030884804 -0.14456798 -0.005195667
-0.18674365 -0.15416792 -0.0633461 -0.110403486 -0.1552078 -0.18004698 -0.045834217 -0.022704158
-0.0072529353 -0.10838911 0.0066455225 -0.04967468 -0.1432855 -0.17883603 -0.14863008 -0.10353543
-0.16506796 -0.07945264 -0.037049785 -0.103944026 -0.17777072 0.016884297 -0.18968752 -0.05046107
00000000: a394 5abd 27c5 36be f84f 06be 6296 ffbd
00000010: 60ab 63bd eb30 a3bd 01bd 05be 7ab2 07be
00000020: 254c a63a 4842 e6bd 3a06 0cbd fc38 50bd
00000030: 6c1a 46bd 2102 fdbc a109 14be 6a40 aabb
00000040: ba39 3fbe 32de 1dbe 9abb 81bd 391b e2bd
00000050: cbee 1ebe 3c5e 38be a9bc 3bbd 12fe b9bc
00000060: 08aa edbb 1cfb ddbd afc2 d93b ad77 4bbd
00000070: 6fb9 12be cb20 37be 7c32 18be 620a d4bd
00000080: 9307 29be 11b8 a2bd 84c1 17bd 9be0 d4bd
00000090: 8709 36be f050 8a3c 723d 42be 44b0 4ebd

weight f4 [80, 40]
-0.073213324 0.04273637 0.10990344 -0.110278845 0.11177334 0.08419381 0.06944371 0.058508635
0.13715674 0.09637268 0.055346094 -0.061087955 0.022762662 -0.02324463 0.07862175 0.08285949
-0.06682777 -0.07813736 0.04139921 0.061514486 0.08468623 -0.11971367 -0.10923722 -0.08960281
-0.10177687 -0.051248852 -0.0367205 -0.06651959 -0.049164835 0.010992535 0.09633667 -0.04958074
-0.074343 0.062181097 -0.048148423 0.082660355 0.06299866 -0.031771436 -0.041878488 0.09716414
-0.0052659856 0.11816659 0.112337135 0.090830855 0.08522585 -0.025198884 -0.09282198 0.13563304
0.1341369 0.03403748 -0.06835758 -0.03174414 0.07180954 -0.008956431 -0.08942541 0.032381706
0.047459207 -0.10262334 0.12133245 0.09330651 0.069079354 0.06556439 -0.0071236934 -0.11300621
-0.048330914 0.08336577 -0.14088805 0.036395345 -0.03803901 0.114703335 0.11963867 -0.09830356
-0.0048868414 -0.06458991 0.07604563 -0.041577138 0.090193406 0.12067067 0.117517196 0.106392935
-0.01759412 -0.011389027 -0.13333493 0.062505186 0.06971819 0.17685851 0.022348369 -0.11594452
0.09031682 0.089707196 -0.10986996 0.10580202 0.10310997 -0.12674935 -0.03716966 -0.13343287
-0.100254394 -0.011996527 -0.04565624 0.032800768 -0.095207006 0.010169573 0.09384953 -0.04001878
0.06614614 -0.11535453 -0.009231722 -0.07879704 -0.04329429 -0.12039029 0.021509973 -0.11063776
0.077698156 -0.06473656 0.047550175 -0.054250773 -0.06534626 0.03919419 -0.02623644 -0.042896196
-0.07811457 -0.00037368995 -0.075658284 -0.06883956 0.038015924 -0.028740501 0.1167529 0.036156304
0.0043864422 0.016979212 0.1357753 -0.02883288 0.017583804 -0.15771051 -0.10209105 0.08441969
0.03733846 0.088638395 0.06206737 0.07777582 -0.106106415 0.10976825 -0.10473291 0.13828664
-0.10757809 0.021054793 -0.098926224 0.1302181 -0.15602931 -0.027546452 -0.04193006 0.062486637
0.111566946 0.10374338 0.13883822 -0.11988284 -0.09832207 -0.10158299 0.10178683 0.024912523
-0.043296386 -0.09518312 -0.14091569 -0.04751742 0.026879005 0.1582122 0.14833316 -0.12093746
0.08971111 -0.020031331 -0.03604783 0.10553566 -0.027253877 -0.01189693 -0.07492872 -0.10786273
0.0789192 0.18161398 -0.040347897 -0.11747697 -0.1408707 -0.12910748 -0.033384755 -0.07499113
0.016959582 -0.021293305 0.03122783 0.12531444 0.019139886 -0.18637201 -0.1309485 0.028164554
-0.060545444 -0.098533176 -0.076964304 -0.123403 -0.09201921 0.08801284 0.10847502 0.1142905
0.08300266 0.0005625991 0.060322113 -0.09096148 0.0804743 -0.087854214 -0.114191994 -0.068095334
-0.0020501951 -0.051225588 -0.003974739 -0.08185034 0.12894288 0.0106313955 0.074310325 0.09323764
-0.104088046 -0.114503875 0.16191392 -0.10189067 -0.14702508 -0.1078572 0.14844626 -0.041114517
-0.10016086 -0.14147884 0.09193736 -0.047893215 -0.031854156 0.07584307 0.04739169 0.010927526
-0.030100744 0.08960435 -0.044011302 0.037619542 -0.15150997 0.10085521 -0.07720558 0.022832407
-0.061321557 0.06976843 0.12980607 -0.049378335 0.096961915 0.120819844 -0.07765787 0.0519833
-0.09646965 0.18353945 0.06895372 0.065151855 0.027810866 -0.087313734 -0.11824708 -0.08894707
00000000: def0 95bd 550c 2f3d 0e15 e13d e0d9 e1bd
00000010: 6ce9 e43d ce6d ac3d 8138 8e3d c0a6 6f3d
00000020: d172 0c3e 0a5f c53d 96b2 623d 5d37 7abd
00000030: c378 ba3c 866b bebc 7104 a13d 3cb2 a93d
00000040: ffdc 88bd 7b06 a0bd 3892 293d 9df6 7b3d
00000050: f96f ad3d 712c f5bd c3b7 dfbd ae81 b7bd
00000060: 6470 d0bd 51ea 51bd 3c68 16bd 6c3b 88bd
00000070: 1161 49bd 091a 343c 294c c53d 2d15 4bbd
00000080: 2541 98bd 9bb1 7e3d 4837 45bd d549 a93d
00000090: 7105 813d c422 02bd c788 2bbd fefd c63d
000000a0: 4a8e acbb 5301 f23d 0311 e63d 8705 ba3d
000000b0: e48a ae3d e46d cebc 7319 bebd 63e3 0a3e
000000c0: 2f5b 093e e26a 0b3d 0fff 8bbd 2506 02bd
000000d0: e110 933d ffbd 12bc ab24 b7bd aea2 043d
000000e0: 9664 423d 302c d2bd 267d f83d 7c17 bf3d
000000f0: 7a79 8d3d 9f46 863d df6d e9bb cd6f e7bd
00000100: a3f6 45bd acbb aa3d f544 10be 4913 153d
00000110: cbce 1bbd 95e9 ea3d 1e05 f53d 6053 c9bd
00000120: cc21 a0bb b747 84bd d0bd 9b3d ca4c 2abd
00000130: 52b7 b83d 2f22 f73d dbac f03d 8ae4 d93d
00000140: 8b21 90bc 0b99 3abc f488 08be b802 803d
00000150: 69c8 8e3d 661a 353e ed13 b73c 5274 edbd
00000160: 06f8 b83d 68b8 b73d 8003 e1bd bbae d83d
00000170: 522b d33d 95ca 01be 373f 18bd a0a2 08be
00000180: 2d52 cdbd 158d 44bc 0a02 3bbd 195a 063d
00000190: e4fb c2bd 489e 263c 2f34 c03d bbea 23bd
000001a0: a177 873d ff3e ecbd a640 17bc 5860 a1bd
000001b0: 5a55 31bd 2f8f f6bd af35 b03c 0d96 e2bd
000001c0: 3620 9f3d 9a94 84bd f9c3 423d 0f36 5ebd
000001d0: 43d4 85bd 168a 203d cded d6bc ecb3 2fbd
000001e0: 88fa 9fbd d1eb c3b9 bbf2 9abd c1fb 8cbd
000001f0: 96b6 1b3d 3371 ebbc 251c ef3d a218 143d
00000200: 25bc 8f3b fd17 8b3c ae08 0b3e ef32 ecbc
00000210: e90b 903c dd7e 21be 1d15 d1bd 3be4 ac3d
00000220: 37f0 183d 0c88 b53d 5b3a 7e3d ee48 9f3d
00000230: 524e d9bd 2dce e03d 357e d6bd 039b 0d3e
00000240: e751 dcbd 1a7b ac3c d599 cabd e557 053e
00000250: 26c6 1fbe 19a9 e1bc dbbe 2bbd fdf1 7f3d
00000260: 367d e43d 6977 d43d 9b2b 0e3e 2285 f5bd
00000270: 155d c9bd be0a d0bd 9d75 d03d 5915 cc3c
00000280: 8d57 31bd 5eef c2bd 344c 10be a0a1 42bd
00000290: 5c31 dc3c 6102 223e a6e4 173e 0fae f7bd
000002a0: 75ba b73d bf18 a4bc e4a6 13bd 1523 d83d
000002b0: 8643 dfbc 57eb 42bc 3b74 99bd 23e7 dcbd
000002c0: 64a0 a13d 04f9 393e d643 25bd c497 f0bd
000002d0: 6940 10be c034 04be 74be 08bd f394 99bd
000002e0: d2ee 8a3c 4c6f aebc 82d1 ff3c 6e52 003e
000002f0: 40cb 9c3c 4ed8 3ebe 5d17 06be 5ab9 e63c
00000300: 80fe 77bd c3cb c9bd 769f 9dbd b6ba fcbd
00000310: 9174 bcbd 1340 b43d 2728 de3d 2311 ea3d
00000320: 4cfd a93d 637b 133a 5214 773d 034a babd
00000330: b6cf a43d e9ec b3bd 7edd e9bd 9175 8bbd
00000340: 915c 06bb ecd1 51bd 873e 82bb 27a1 a7bd
00000350: 9a09 043e 4e2f 2e3c 0330 983d 60f3 be3d
00000360: 1d2c d5bd 0281 eabd c3cc 253e 0eac d0bd
00000370: be8d 16be 3ce4 dcbd 4c02 183e b267 28bd
00000380: 2321 cdbd d4df 10be a849 bc3d ad2b 44bd
00000390: 8179 02bd 9d53 9b3d ca1d 423d 5e09 333c
000003a0: d695 f6bc 7c82 b73d 3245 34bd f316 1a3d
000003b0: 6e25 1bbe 2d8d ce3d f61d 9ebd 070b bb3c
000003c0: 502c 7bbd c0e2 8e3d e2eb 043e f040 4abd
000003d0: f893 c63d 6570 f73d 170b 9fbd 71ec 543d
000003e0: e191 c5bd c4f1 3b3e 9c37 8d3d 566e 853d
000003f0: 9dd3 e33c 8bd1 b2bd 862b f2bd e229 b6bd

bias f4 [80]
0.09723327 -0.0638273 -0.050593995 -0.04175616 -0.05750877 -0.069758944 0.05316669 0.017367108
-0.118184604 -0.08791377 0.08790926 -0.13883148 -0.1889453 -0.17746732 -0.11614355 -0.053626083
-0.16503619 0.14199075 0.084669046 -0.15497136 0.032486286 -0.10420637 -0.09811226 0.039243385
0.04025209 -0.1312206 -0.1020251 0.0055056806 -0.049868014 -0.13908213 -0.09403068 -0.088229604
-0.10226995 0.13547578 0.0789594 -0.06101768 0.12644818 0.07411394 -0.1388921 0.1098865
-0.07069758 -0.17467009 -0.1351955 -0.12617774 0.07580624 -0.16665168 0.033035412 -0.143157
-0.07783352 0.001451429 0.029012445 0.10712558 -0.04687836 -0.07312882 -0.06722193 0.020524912
-0.020068504 0.06819953 -0.15975155 -0.05556081 -0.06785215 0.059445422 0.09917627 0.08567866
0.11545561 -0.11654679 -0.17018905 0.07045095 -0.002151668 0.006117446 -0.06844253 -0.026282199
-0.10621567 -0.15131648 -0.07132998 -0.11864258 -0.18430729 -0.14666097 0.10809893 0.09245652
00000000: 3d22 c73d e3b7 82bd a63b 4fbd 8208 2bbd
00000010: 518e 6bbd c7dd 8ebd 51c5 593d 7745 8e3c
00000020: c50a f2bd 220c b4bd c509 b43d d729 0ebe
00000030: e07a 41be feb9 35be abdc edbd 06a7 5bbd
00000040: 3fff 28be 0666 113e f766 ad3d d0b0 1ebe
00000050: 5710 053d 266a d5bd 15ef c8bd acbd 203d
00000060: 60df 243d b15e 06be 89f2 d0bd ff68 b43b
00000070: 6742 4cbd 8c6b 0ebe 2893 c0bd b9b1 b4bd
00000080: e872 d1bd 2aba 0a3e 77b5 a13d aded 79bd
00000090: a27b 013e 0dc9 973d bb39 0ebe 2c0c e13d
000000a0: e5c9 90bd b7dc 32be b070 0abe bd34 01be
000000b0: 4d40 9b3d bda6 2abe 2450 073d c097 12be
000000c0: 2e67 9fbd e03d be3a 82ab ed3c a864 db3d
000000d0: 8603 40bd 90c4 95bd a7ab 89bd dc23 a83c
000000e0: b466 a4bc 32ac 8b3d e995 23be bb93 63bd
000000f0: 11f6 8abd 0b7d 733d ee1c cb3d 4b78 af3d
00000100: fe73 ec3d 15b0 eebd 0a46 2ebe 9648 903d
00000110: 0003 0dbb db74 c83b 992b 8cbd c44d d7bc
00000120: 9a87 d9bd b5f2 1abe 7415 92bd e2fa f2bd
00000130: 0dbb 3cbe 4b2e 16be f962 dd3d d859 bd3d

weight f4 [5, 80]
-0.026886461 -0.012724958 0.06450356 0.00083081576 0.012650358 0.0583172 0.04308695 0.05349376
-0.069858976 0.063901715 0.02426921 -0.017933663 0.090933986 -0.024236381 0.062450517 0.010141266
-0.004485039 -0.01267553 0.035076402 -0.052025292 -0.0004934791 -0.017284695 -0.08343879 -0.0070770206
-0.028396623 0.01768471 -0.029188046 -0.03145995 -0.003702577 0.016818188 -0.004218544 -0.061252203
0.042168148 -0.023724414 -0.056670252 0.037959963 -0.0073654247 -0.02543973 -0.015264722 0.011224775
-0.016492983 -0.0483447 0.09513863 -0.018055322 -0.03833352 -0.02904979 -0.024415549 -0.05648508
0.03754045 -0.062588416 -0.021806994 0.06188262 -0.049989417 0.005888796 0.010712762 -0.036367282
0.061260708 -0.031952467 -0.056927767 0.08972879 -0.0083658965 0.06951787 -0.055022385 -0.023036363
-0.03423681 -0.038613737 -0.07182832 0.02678267 -0.03484485 -0.03014001 -0.049753744 -0.050494906
0.020368624 -0.0408327 0.018976917 0.00085549225 -0.07991154 -0.04683321 -0.05176925 -0.011298186
-0.012955197 -0.057722222 -0.015831688 0.07385449 0.033394396 0.03790107 0.003723712 0.007505634
0.009031597 0.015392299 0.04909585 -0.028773425 -0.058106557 0.0024075229 -0.072492525 -0.066419326
0.026492467 0.031171072 0.04559445 0.03327799 -0.025347475 -0.058344055 0.023416424 -0.0023758733
0.025715858 -0.06968102 0.032238428 -0.05175291 -0.017666303 -0.04378691 -0.06655271 -0.037942063
-0.061430983 0.0015270996 -0.023334134 -0.07716959 0.014455274 0.0064609027 0.016344577 0.016288875
-0.025191816 0.058181953 0.03137299 -0.0055921027 -0.026293082 -0.018322231 0.03263758 0.03729842
0.07971775 -0.06348788 -0.008825558 0.08837033 0.038257614 -0.07198687 -0.030066645 -0.011065865
0.07801891 0.049733058 0.06102115 0.061232112 0.025862822 0.07230463 -0.0911783 0.023573142
-0.00534632 -0.069245584 0.005359874 -0.052421834 0.051953197 0.05224961 0.043341465 0.028946202
0.00019032165 0.017150028 0.020028204 -0.04615531 -0.018938676 -0.059827995 -0.029369803 0.033480905
0.008560044 -0.04525049 0.07780265 -0.031192373 0.040421788 0.025752958 -0.061578512 -0.053186145
-0.052827872 -0.01494895 -0.036155112 0.0043806857 0.002310828 -0.024905125 -0.029022075 0.008113039
0.0061546694 -0.010938338 0.020885954 -0.06251969 0.03048834 0.040756915 -0.0634307 -0.026806928
-0.013002788 -0.046724956 -0.006920508 -0.014303165 0.022825565 0.004836896 0.06913323 -0.079072274
-0.0024926453 0.024469264 0.0070367344 0.05974534 -0.02264577 0.04939777 0.017428199 -0.024827091
-0.0072605163 0.024315627 -0.028602272 -0.0011738372 0.011592909 -0.0406675 -0.051539276 -0.0325427
0.08654895 0.007446105 0.018905059 0.016045898 0.052799486 -0.011755542 0.017534299 0.034956813
0.049631875 -0.0035130125 -0.0026868582 -0.05362335 -0.047668844 0.005839713 0.07346427 -0.0061528846
-0.007297767 0.0028544036 0.058846503 -0.011163502 0.00018963018 -0.017700268 0.009191153 0.0064035407
-0.017869955 -0.008414956 0.007966061 -0.034957275 -0.07112326 -0.041024256 -0.034030207 -0.0023546233
-0.04797432 -0.047639836 0.01980825 0.0049992413 -0.020929022 -0.01921417 -0.060324714 -0.007117194
-0.008506633 0.0054606698 0.030429078 -0.008690671 -0.049579583 0.008103522 -0.026297402 -0.053804774
00000000: ff40 dcbc 587c 50bc 711a 843d 1acb 593a
00000010: 7243 4f3c 04de 6e3d f17b 303d 461c 5b3d
00000020: 3912 8fbd e7de 823d 39d0 c63c 9ee9 92bc
00000030: 993b ba3d 608b c6bc 1dcc 7f3d 8d27 263c
00000040: 3cf7 92bb 07ad 4fbc 46ac 0f3d 7918 55bd
00000050: d25c 01ba a298 8dbc f5e1 aabd 5ae6 e7bb
00000060: 09a0 e8bc 86df 903c c51b efbc 26dc 00bd
00000070: efa6 72bb 4cc6 893c b63b 8abb 97e3 7abd
00000080: 82b8 2c3d b459 c2bc 111f 68bd e87b 1b3d
00000090: a959 f1bb fb66 d0bc e218 7abc 1ee8 373c
000000a0: 4b1c 87bc 1805 46bd 0bd8 c23d c1e8 93bc
000000b0: 9c03 1dbd d3f9 edbc 1e03 c8bc e65c 67bd
000000c0: 04c4 193d 5b2e 80bd 95a4 b2bc a178 7d3d
000000d0: b4c1 4cbd cdf6 c03b 9584 2f3c dcf5 14bd
000000e0: 82ec 7a3d 97e0 02bd 172d 69bd bac3 b73d
000000f0: 1d11 09bc 635f 8e3d 275f 61bd c1b6 bcbc
00000100: e63b 0cbd 7029 1ebd ba1a 93bd 5467 db3c
00000110: 79b9 0ebd 2fe8 f6bc 95ca 4bbd bfd3 4ebd
00000120: 1adc a63c 3040 27bd 7b75 9b3c 1d43 603a
00000130: a9a8 a3bd 2ed4 3fbd fe0b 54bd 071c 39bc
00000140: 0942 54bc 236e 6cbd 75b1 81bc 0641 973d
00000150: 90c8 083d 273e 1b3d 8509 743b d2f1 f53b
00000160: 43f9 133c fb2f 7c3c bb18 493d 3fb6 ebbc
00000170: 2401 6ebd 88c7 1d3b f676 94bd db06 88bd
00000180: bb06 d93c 7a5a ff3c 3fc1 3a3d 804e 083d
00000190: 82a5 cfbc 2dfa 6ebd cdd3 bf3c 8ab4 1bbb
000001a0: 10aa d23c ecb4 8ebd 710c 043d dcfa 53bd
000001b0: ecb8 90bc e759 33bd ca4c 88bd 2369 1bbd
000001c0: 0e9f 7bbd f628 c83a 3a27 bfbc 170b 9ebd
000001d0: d0d5 6c3c fbb5 d33b 10e5 853c 3f70 853c
000001e0: 115f cebc 3350 6e3d f780 003d f53d b7bb
000001f0: 9764 d7bc 8118 96bc fcae 053d 3ac6 183d
00000200: 0f43 a33d ef05 82bd 1399 10bc 81fb b43d
00000210: 04b4 1c3d da6d 93bd 534e f6bc 9a4d 35bc
00000220: 61c8 9f3d e4b4 4b3d 50f1 793d 86ce 7a3d
00000230: 45de d33c 7314 943d b0bb babd 761c c13c
00000240: 2f30 afbb a1d0 8dbd e2a1 af3b 47b8 56bd
00000250: e0cc 543d b003 563d d286 313d 9620 ed3c
00000260: 1491 4739 377e 8c3c 3012 a43c 5a0d 3dbd
00000270: 4825 9bbc 330e 75bd f198 f0bc 4623 093d
00000280: 6d3f 0c3c 9458 39bd ff56 9f3d 2687 ffbc
00000290: 5191 253d def7 d23c c039 7cbd b7d9 59bd
000002a0: 0a62 58bd 71ec 74bc 6217 14bd db8b 8f3b
000002b0: 4371 173b d505 ccbc b4bf edbc 8dec 043c
000002c0: 1cad c93b b736 33bc 0519 ab3c 530a 80bd
000002d0: afc2 f93c b9f0 263d f4e7 81bd 349a dbbc
000002e0: a509 55bc ab62 3fbd 6ec5 e2bb d257 6abc
000002f0: aefc ba3c d37e 9e3b b995 8d3d a5f0 a1bd
00000300: a65b 23bb c473 c83c 6894 e63b 88b7 743d
00000310: 9f83 b9bc 5155 4a3d 95c5 8e3c 2f62 cbbc
00000320: a0e9 edbb 9131 c73c 504f eabc 71db 99ba
00000330: 2ff0 3d3c f792 26bd d91a 53bd 7f4b 05bd
00000340: 9340 b13d 75fe f33b c8de 9a3c b072 833c
00000350: 4644 583d 519a 40bc 17a4 8f3c e02e 0f3d
00000360: cb4a 4b3d 923a 66bb 0016 30bb 28a4 5bbd
00000370: 6840 43bd 105b bf3b 6f74 963d 239e c9bb
00000380: 1b22 efbb f210 3b3b 0809 713d 1fe7 36bc
00000390: 77d7 4639 2700 91bc 7d96 163c cbd4 d13b
000003a0: 0364 92bc e2de 09bc 1584 023c 5c2f 0fbd
000003b0: 12a9 91bd 0d09 28bd 4263 0bbd 0650 1abb
000003c0: b880 44bd fd21 43bd e944 a23c add0 a33b
000003d0: 5773 abbc 0967 9dbc 0c17 77bd 5a37 e9bb
000003e0: 685f 0bbc 6bef b23b 6746 f93c 5163 0ebc
000003f0: f613 4bbd a2c4 043c a66d d7bc 6562 5cbd

bias f4 [5]
0.05000696 -0.018662352 0.010281367 -0.0007781824 -0.02206609
00000000: 19d4 4c3d cae1 98bc 2e73 283c f0fe 4bba
00000010: f2c3 b4bc
