final_project/mlruns/3/efbbd2238126466d94fc8ae20c5c9c1d/artifacts/cvae_18/data/model.pth (torch, 50311 bytes, 10 tensors)

weight f4 [80, 17]
-0.1871014 0.00039460455 -0.1125735 -0.21255355 0.07595334 -0.065096326 -0.2242819 -0.19083372
-0.13827576 -0.076108105 -0.04476407 -0.09612421 -0.23907106 -0.13075487 -0.0033139815 -0.21036705
0.1090713 0.085053325 0.2111434 -0.19476314 -0.19791159 0.0489825 -0.22628257 0.1930001
0.08066396 0.21951327 0.051445965 -0.1516455 0.1814444 -0.15142986 -0.039344545 0.05105456
-0.19084999 0.13804601 -0.15547961 0.03157644 0.20382394 0.07111512 -0.19680865 -0.23925085
0.059830606 0.013274532 0.078266144 0.16206904 0.03420036 -0.058717467 -0.19723323 0.14718354
-0.21426566 -0.054987464 -0.07245177 -0.0721634 0.21394128 0.14687103 -0.16333531 -0.13085735
0.14824492 -0.18655007 -0.21652386 -0.28021583 0.156966 -0.17752802 0.034358777 -0.1618494
-0.04940121 0.21530691 0.11208457 -0.22100994 0.054961458 -0.17446575 0.052552093 0.27152866
0.21879452 -0.12741293 0.1397145 0.12878993 0.04551042 0.20035864 0.005127065 -0.20194452
-0.12533903 0.025346491 0.0061218212 0.02563857 0.2354063 0.09477527 0.14499827 -0.24112587
-0.07012923 0.020035809 -0.15917781 0.08662717 0.122110724 0.22032705 -0.04808435 -0.27068025
-0.08529997 0.0089211045 0.13649414 -0.21266739 0.07459086 0.056211106 -0.051555805 -0.03667925
-0.04618437 -0.031114908 -0.21632658 0.13104206 -0.27077073 -0.036711615 -0.20399593 0.002611361
-0.0128898155 0.0077394135 -0.021298504 0.13709624 0.074864954 0.078494444 0.019245112 0.040263038
-0.25483492 0.13601747 -0.20815124 -0.065356866 0.25505757 -0.2841139 -0.2630429 -0.24740452
-0.11382079 -0.08020313 -0.2282589 -0.08937661 -0.12598635 -0.20765872 -0.16653009 0.15082775
-0.23296186 -0.22722456 -0.082003176 -0.24304424 -0.045121297 0.008103877 -0.16093138 -0.23838077
0.16313761 0.18945348 0.08252268 0.14642298 0.07084171 0.11228006 0.09693857 0.15305524
-0.12581177 -0.10460871 -0.018394396 0.112261705 -0.17335993 -0.20071629 -0.13308133 -0.10481187
0.067281425 0.16947755 0.18962698 -0.20744233 0.15170862 0.19799313 0.22171268 -0.0029010733
-0.05859059 -0.19207458 -0.13893305 -0.17135802 -0.0043984833 0.09859171 0.047211137 -0.048951484
-0.0072163893 -0.0187815 0.25306037 -0.14745218 0.21171226 0.08241964 0.119473964 0.04915914
-0.008612118 0.03625877 0.12746601 0.07789063 -0.061018966 -0.22583424 -0.10001725 -0.17990123
-0.06947217 -0.07205788 -0.115080535 0.030439802 -0.10381147 0.17507114 0.1528599 0.20579536
0.21524237 -0.21509296 0.01653331 0.011254269 0.05919146 -0.20729007 -0.22320785 0.19239065
0.07382797 0.28135717 -0.05025595 -0.120206274 -0.2497957 0.023795998 -0.29233968 -0.1448359
-0.17960377 -0.21294297 -0.04514586 0.12984866 0.12955502 -0.2258045 0.06077703 0.14102681
0.19492723 0.23548901 -0.03703781 0.12919614 -0.16352896 0.24255313 0.1894149 -0.16672045
0.16206475 0.11591521 0.0006341422 -0.053659607 0.082907654 0.07728965 -0.19580244 -0.1930489
-0.038373902 0.1522428 0.25364634 0.021926638 -0.26530817 0.10721763 0.18213156 -0.25225118
0.027036708 -0.038051043 0.14696969 0.19755861 -0.15768494 0.21068306 -0.054955352 -0.0057717445
00000000: 8297 3fbe ede2 ce39 ef8c e6bd a3a7 59be
00000010: 6d8d 9b3d 3951 85bd 28aa 65be ea69 43be
00000020: 2998 0dbe 91de 9bbd 885a 37bd c5dc c4bd
00000030: 0bcf 74be 9be4 05be 622f 59bb 766a 57be
00000040: c660 df3d 7030 ae3d fa35 583e fd6f 47be
00000050: 56a9 4abe e0a1 483d 9eb6 67be d1a1 453e
00000060: 2533 a53d 16c8 603e 01b9 523d f548 1bbe
00000070: 90cc 393e 6e10 1bbe bf27 21bd 961e 513d
00000080: 2e6e 43be ef5b 0d3e 0c36 1fbe 4c56 013d
00000090: 39b7 503e cea4 913d 3588 49be 2dfe 74be
000000a0: f010 753d 6c7d 593c 004a a03d 6df5 253e
000000b0: ad15 0c3d ba81 70bd 82f7 49be 48b7 163e
000000c0: 7568 5bbe 893a 61bd 9861 94bd 68ca 93bd
000000d0: 6c13 5b3e 5c65 163e 5f41 27be 78ff 05be
000000e0: 84cd 173e fb06 3fbe 6eb8 5dbe 7378 8fbe
000000f0: b2bb 203e e8c9 35be cabb 0c3d d9bb 25be
00000100: ec58 4abd 6a79 5c3e 988c e53d 6e50 62be
00000110: 441f 613d 26a7 32be dd40 573d ce05 8b3e
00000120: ac0b 603e 8978 02be 5111 0f3e 82e1 033e
00000130: 2269 3a3d d12a 4d3e f000 a83b 8bca 4ebe
00000140: e058 00be 72a3 cf3c 8f99 c83b fa07 d23c
00000150: 590e 713e 8919 c23d 6d7a 143e b3e9 76be
00000160: ea9f 8fbd 2322 a43c 82ff 22be 9669 b13d
00000170: 3015 fa3d 6a9d 613e 18f4 44bd 9a96 8abe
00000180: c0b1 aebd d329 123c 1fc5 0b3e 7bc5 59be
00000190: 18c3 983d 9e3d 663d 2e2c 53bd fb3c 16bd
000001a0: d22b 3dbd b1e4 febc b784 5dbe e42f 063e
000001b0: 76a2 8abe eb5e 16bd 4fe4 50be 5e23 2b3b
000001c0: ce2f 53bc e89a fd3b 337a aebc f562 0c3e
000001d0: cc52 993d b2c1 a03d eda7 9d3c dbea 243d
000001e0: b979 82be 2a48 0b3e 9925 55be d2d9 85bd
000001f0: e896 823e 6177 91be 8fad 86be 9c57 7dbe
00000200: e01a e9bd 8a41 a4bd b3bc 69be 160b b7bd
00000210: 9102 01be 7da4 54be dd86 2abe 9772 1a3e
00000220: 8e8d 6ebe 8ead 68be 48f1 a7bd 97e0 78be
00000230: 1cd1 38bd 20c6 043c 32cb 24be 171a 74be
00000240: 8c0d 273e 1800 423e a701 a93d e8ef 153e
00000250: 7515 913d 17f3 e53d bb87 c63d 83ba 1c3e
00000260: cdd4 00be 173d d6bd d8af 96bc 77e9 e53d
00000270: 4485 31be 9288 4dbe 7946 08be 9ba7 d6bd
00000280: d8ca 893d 868b 2d3e 932d 423e c36b 54be
00000290: 8159 1b3e b6be 4a3e a608 633e ef1f 3ebb
000002a0: b0fc 6fbd 33af 44be 7744 0ebe 7a78 2fbe
000002b0: 2721 90bb 73ea c93d 7760 413d 5a81 48bd
000002c0: 7677 ecbb a9db 99bc 2191 813e b4fd 16be
000002d0: 19cb 583e a1cb a83d c4ae f43d 185b 493d
000002e0: d719 0dbc 1384 143d 7386 023e 1f85 9f3d
000002f0: 06ef 79bd 1741 67be d8d5 ccbd 0738 38be
00000300: 6d47 8ebd 1593 93bd 58af ebbd e45c f93c
00000310: 1c9b d4bd d945 333e 4e87 1c3e 05bc 523e
00000320: 7f68 5c3e 5441 5cbe dd70 873c d363 383c
00000330: bf72 723d d943 54be 9990 64be 0e02 453e
00000340: 1e33 973d 0c0e 903e 2fd9 4dbd b52e f6bd
00000350: 72ca 7fbe d3ef c23c 8cad 95be dd4f 14be
00000360: 0dea 37be b90d 5abe deea 38bd 0cf7 043e
00000370: 12aa 043e 4b39 67be 56f1 783d 5569 103e
00000380: 019b 473e 0824 713e f5b4 17bd fe4b 043e
00000390: 2374 27be d95f 783e fbf5 413e c4b8 2abe
000003a0: 4df4 253e f464 ed3d 903c 263a 2dca 5bbd
000003b0: 7dcb a93d 094a 9e3d 6f80 48be 9cae 45be
000003c0: f42d 1dbd 89e5 1b3e efdd 813e 7e9f b33c
000003d0: 79d6 87be eb94 db3d b280 3a3e 1127 81be
000003e0: 167c dd3c 69db 1bbd 397f 163e ce4c 4a3e
000003f0: 2978 21be 4dbd 573e dd18 61bd e720 bdbb

bias f4 [80]
0.20527492 -0.19731082 -0.051053125 0.015104394 0.21677317 -0.09854331 0.31523415 0.0550399
0.043929093 -0.10409687 0.0664665 0.10911226 0.2824267 0.38117734 -0.1993064 -0.04606901
0.005567151 0.3125257 0.3438423 0.17167719 -0.10151679 -0.17831671 0.26268452 0.21305192
0.11327243 0.06920511 0.09539917 0.3112112 -0.06527585 0.17332156 0.09849858 0.15106346
-0.14211293 0.10645428 0.090386175 0.12760222 -0.21819457 0.15856571 0.145398 0.07820285
-0.21260539 -0.22555684 0.22939163 0.1669521 0.13782394 0.09804457 0.12066829 -0.09378937
-0.01734846 -0.1288434 -0.06332773 0.18853658 0.063242964 0.07706607 -0.14473803 0.3598481
0.046627186 0.21329692 0.16916645 0.05683553 0.0839941 -0.15768701 -0.013805308 -0.17792371
-0.09591153 -0.09058377 0.23966976 -0.080144174 -0.14256145 0.10305271 0.28643763 0.05115147
0.32077304 -0.017114608 -0.116710365 0.24845615 -0.15975778 0.24240026 0.103062555 0.1990458
00000000: 9733 523e d90b 4abe 151d 51bd 6c78 773c
00000010: c9f9 5d3e 13d1 c9bd 5f66 a13e 8571 613d
00000020: feee 333d bd30 d5bd 971f 883d 4076 df3d
00000030: 3c9a 903e ad29 c33e fa16 4cbe dcb2 3cbd
00000040: a66c b63b 5e03 a03e 190c b03e 25cc 2f3e
00000050: 09e8 cfbd a898 36be 967e 863e 482a 5a3e
00000060: 60fb e73d 69bb 8d3d a460 c33d 1357 9f3e
00000070: 58af 85bd 357b 313e a0b9 c93d 61b0 1a3e
00000080: 0d86 11be b404 da3d 631c b93d 28aa 023e
00000090: 666e 5fbe 0d5f 223e 37e3 143e d128 a03d
000000a0: 3ab5 59be 5ff8 66be a4e5 6a3e 7ef5 2a3e
000000b0: b821 0d3e 97cb c83d f020 f73d a414 c0bd
000000c0: 5c1e 8ebc 86ef 03be f8b1 81bd bc0f 413e
000000d0: 8785 813d d1d4 9d3d 3536 14be 033e b83e
000000e0: 26fc 3e3d 826a 5a3e f839 2d3e 5fcc 683d
000000f0: 1905 ac3d b478 21be a92f 62bc a231 36be
00000100: 446d c4bd fc83 b9bd fd6b 753e a122 a4bd
00000110: a1fb 11be 4d0d d33d f4a7 923e 3484 513d
00000120: 5d3c a43e ef33 8cbc d805 efbd 4a6b 7e3e
00000130: 8b97 23be c637 783e 7612 d33d aad2 4b3e

weight f4 [40, 80]
-0.09415537 0.07345806 0.061533928 -0.097424395 0.023984961 -0.038934276 0.1118454 -0.07478623
-0.0029438573 -0.07145421 -0.069799766 -0.09703461 -0.0016842425 0.08079905 0.03608311 -0.099143386
0.087592706 0.09098815 -0.106950976 0.0124077415 0.059838466 -0.11367667 -0.109077424 0.0009151468
-0.072895855 -0.021622572 0.021269515 0.07594601 0.02505375 0.06435596 -0.005372157 0.07079879
-0.108654216 -0.028908782 -0.116549306 -0.00020299849 0.042193256 -0.08364792 0.08904611 0.051846072
0.026837215 0.019098407 0.06782497 -0.09678528 0.07111678 -0.009666008 0.06791209 -0.050741855
-0.09736194 -0.101793386 0.08647863 0.034192514 0.08002073 -0.048984557 -0.0635791 0.044205412
0.031721104 -0.10308787 -0.0021546143 0.079199694 0.041024297 0.08196042 -0.09293543 0.02864424
0.031536143 -0.03687408 -0.07488939 -0.11047179 -0.011040956 -0.07085061 -0.014098084 -0.075943805
-0.07041468 0.09426491 -0.119491264 -0.015120027 0.092780754 -0.043902453 0.04745253 -0.08027972
0.092742026 0.062497564 0.13254319 -0.041121792 0.029972417 0.13471632 0.13368677 0.0361849
0.018398663 0.020912534 0.06686548 -0.060370155 0.07155773 0.019295443 0.0629522 0.093066245
0.09603752 0.08140014 0.03347339 -0.048271414 0.042463332 0.0023375966 0.08408138 0.011849145
0.029394047 0.11900414 0.09629406 0.12051677 0.038711842 0.044470545 0.0374595 0.08908487
0.055039145 -0.042772356 -0.0034353528 0.112142846 -0.07408294 -0.026756711 0.121031076 -0.059803218
0.10738622 -0.09936664 0.073116936 0.08829336 0.043294236 0.11464117 -0.0181343 0.061548162
-0.097037174 0.007351327 0.06393617 0.11743908 -0.056983735 0.029691758 0.095723376 -0.017695699
0.13976468 -0.018573893 0.049138024 0.05487929 0.03334765 -0.06465819 -0.061051138 -0.047825914
-0.07104706 0.07194073 0.021179045 0.06150178 0.047461864 0.116637975 0.011147888 -0.028657842
-0.077099495 0.036898833 -0.07825278 0.021343915 -0.013209031 0.092714965 -0.027134946 0.031354196
-0.056703035 -0.10796912 -0.07060207 -0.04931035 -0.16127285 0.079281986 0.04006782 -0.02593518
-0.0005015814 -0.078440994 -0.097526476 -0.07933167 -0.07130809 -0.12540504 0.013568405 0.039680455
-0.12291854 -0.057006925 -0.09662484 0.01738136 -0.12728727 -0.12658392 -0.074703746 -0.0141929835
-0.10334125 -0.15659252 -0.05253203 -0.14632457 0.07489738 0.049240243 0.018394275 -0.061772548
-0.007456744 -0.023418756 0.044337034 -0.11559136 0.080803335 0.0040875203 -0.06456123 0.07190792
0.08852033 0.08860749 0.038425993 0.0037226388 -0.056249086 -0.09074226 0.02152444 0.0042141858
-0.07371375 -0.107524134 -0.070358895 0.028007004 0.0036242292 -0.13549383 -0.05812558 -0.011838751
-0.061878264 0.0010835272 -0.0801928 -0.086679965 -0.07515109 -0.0169249 -0.11783414 -0.117554404
0.017406153 0.04692846 -0.018281333 -0.06408201 0.050149187 -0.07335733 0.054591518 -0.07752952
-0.097385414 -0.021498455 -0.118207805 0.0056805545 -0.12029022 -0.11233436 -0.09893577 0.04835827
-0.045064818 -0.02395976 -0.06401038 0.090174206 -0.064086005 -0.061204236 -0.050906938 -0.06400701
0.019816922 0.06624245 -0.0993127 -0.10289372 0.029922873 -0.11646873 0.04765729 0.11117987
00000000: 88d4 c0bd 2e71 963d 000b 7c3d 7186 c7bd
00000010: 1c7c c43c 8c79 1fbd 330f e53d 8629 99bd
00000020: bbed 40bb 9656 92bd 2ef3 8ebd 15ba c6bd
00000030: cdc1 dcba f979 a53d e2cb 133d b00b cbbd
00000040: ce63 b33d ff57 ba3d 1d09 dbbd d749 4b3c
00000050: 2e19 753d 50cf e8bd fc63 dfbd 76e6 6f3a
00000060: 6c4a 95bd d221 b1bc 683d ae3c 9589 9b3d
00000070: 863d cd3c 0fcd 833d eb08 b0bb f5fe 903d
00000080: 1a86 debd 1cd2 ecbc 67b1 eebd fedb 54b9
00000090: d6d2 2c3d 9a4f abbd cf5d b63d 8c5c 543d
000000a0: b8d9 db3c 4374 9c3c d1e7 8a3d 5c37 c6bd
000000b0: ada5 913d 2d5e 1ebc 7e15 8b3d b1d6 4fbd
000000c0: b265 c7bd 0d79 d0bd b51b b13d 730d 0c3d
000000d0: e9e1 a33d 08a4 48bd c235 82bd bc10 353d
000000e0: fded 013d bc1f d3bd 6e34 0dbb 7333 a23d
000000f0: 1809 283d ddda a73d ee54 bebd 53a7 ea3c
00000100: 0b2c 013d 4609 17bd 9c5f 99bd 093f e2bd
00000110: 20e5 34bc 201a 91bd a6fb 66bc 6d88 9bbd
00000120: 9235 90bd f60d c13d d6b7 f4bd fdb9 77bc
00000130: d603 be3d 0fd3 33bd 965d 423d b269 a4bd
00000140: 88ef bd3d 72fd 7f3d 67b9 073e 536f 28bd
00000150: b788 f53c 13f3 093e 2fe5 083e 9e36 143d
00000160: cbb8 963c c350 ab3c c5f0 883d b246 77bd
00000170: dc8c 923d 7a11 9e3c 15ed 803d 8499 be3d
00000180: 52af c43d 1eb5 a63d 651b 093d 3fb8 45bd
00000190: 08ee 2d3d 5d32 193b dc32 ac3d eb22 423c
000001a0: c9cb f03c 71b8 f33d d235 c53d 7fd1 f63d
000001b0: 4f90 1e3d bf26 363d 226f 193d 2172 b63d
000001c0: ba70 613d 1132 2fbd a823 61bb 26ab e53d
000001d0: ccb8 97bd e430 dbbc 24df f73d 38f4 74bd
000001e0: 4eed db3d bd80 cbbd 55be 953d 26d3 b43d
000001f0: 4c55 313d fdc8 ea3d 628e 94bc ed19 7c3d
00000200: 6dbb c6bd 67e3 f03b f7f0 823d e683 f03d
00000210: c767 69bd 213c f33c 9e0a c43d 92f6 90bc
00000220: 791e 0f3e 4728 98bc f444 493d 1bc9 603d
00000230: 8c97 083d 836b 84bd c210 7abd 1be5 43bd
00000240: 1f81 91bd a955 933d ad7f ad3c 4ae9 7b3d
00000250: 5f67 423d e4df ee3d a2a5 363c dac3 eabc
00000260: 57e6 9dbd 3b23 173d fe42 a0bd 6fd9 ae3c
00000270: b16a 58bc 58e1 bd3d 1b4a debc 426d 003d
00000280: 7141 68bd ea1e ddbd d197 90bd a6f9 49bd
00000290: b624 25be 985e a23d 281e 243d 0476 d4bc
000002a0: 8f7c 03ba aca5 a0bd f6bb c7bd a578 a2bd
000002b0: fa09 92bd 2e6a 00be 044e 5e3c f987 223d
000002c0: b7bc fbbd 1880 69bd 3ee3 c5bd 5b63 8e3c
000002d0: 9857 02be 379f 01be 47fe 98bd b089 68bc
000002e0: 94a4 d3bd ca59 20be d32b 57bd 1cd6 15be
000002f0: cc63 993d 23b0 493d 97af 963c 3605 7dbd
00000300: b457 f4bb b1d8 bfbc c09a 353d 2abb ecbd
00000310: 387c a53d 9bf0 853b ae38 84bd 7644 933d
00000320: 264a b53d d877 b53d 9364 1d3d 84f7 733b
00000330: 7165 66bd 14d7 b9bd 0654 b03c 2717 8a3b
00000340: 3cf7 96bd 9d35 dcbd 5318 90bd f26e e53c
00000350: 7a84 6d3b e5be 0abe 1715 6ebd 52f7 41bc
00000360: 1074 7dbd 2405 8e3a 1f3c a4bd 4485 b1bd
00000370: d1e8 99bd 16a6 8abc 0753 f1bd 5dc0 f0bd
00000380: 5997 8e3c 0f38 403d bcc2 95bc 6e3d 83bd
00000390: 3c69 4d3d 5e3c 96bd 5b9b 5f3d ccc7 9ebd
000003a0: 0172 c7bd 871d b0bc ef16 f2bd f223 ba3b
000003b0: b85a f6bd 8f0f e6bd d69e cabd 5213 463d
000003c0: e395 38bd 4247 c4bc e017 83bd 41ad b83d
000003d0: 863f 83bd 4bb1 7abd cb83 50bd 1b16 83bd
000003e0: 1957 a23c 1faa 873d 7564 cbbd f1b9 d2bd
000003f0: d020 f53c 2887 eebd 4a34 433d 46b2 e33d

bias f4 [40]
0.023359468 0.105424985 -0.13515696 -0.07660551 0.018717661 -0.0062020025 0.1171095 0.076136425
-0.046730176 0.14228655 -0.04232974 -0.05009827 0.0017533724 0.08405489 -0.091203004 0.007296819
0.18311806 0.03705203 0.042196818 -0.013863362 -0.009776012 -0.075417645 -0.11303506 -0.03156844
-0.025979344 -0.0028140012 -0.060731295 -0.094170004 -0.0364203 0.049307726 0.049632415 -0.038314056
-0.09772586 0.053312153 -0.13068809 0.041714627 -0.030485068 0.0746255 0.03714478 0.017177835
00000000: 5b5c bf3c 0ee9 d73d 9666 0abe 5ae3 9cbd
00000010: c855 993c 2b3a cbbb 1bd7 ef3d 6aed 9b3d
00000020: 2468 3fbd 91b3 113e f361 2dbd d833 4dbd
00000030: 6ad1 e53a f824 ac3d a4c8 babd 271a ef3b
00000040: 4d83 3b3e dfc3 173d 92d6 2c3d 2823 63bc
00000050: 912b 20bc 9174 9abd ed7e e7bd e94d 01bd
00000060: a2d2 d4bc 1b6b 38bb 61c1 78bd 34dc c0bd
00000070: 742d 15bd e6f6 493d 5c4b 4b3d 33ef 1cbd
00000080: 7f24 c8bd d85d 5a3d 19d3 05be f5dc 2a3d
00000090: d2bb f9bc 41d5 983d 2025 183d 88b8 8c3c

weight f4 [40, 80]
-0.04487303 -0.02203562 -0.009209211 -0.033244945 -0.11076552 0.024642294 -0.037657164 -0.002340176
-0.12033737 -0.06865222 -0.0458437 -0.08874022 0.013580119 0.009740215 -0.076631896 -0.021999264
-0.18237913 -0.12321429 -0.037242364 0.059137985 -0.11286878 -0.14417653 0.005264867 0.0076294965
-0.12642072 0.010919058 -0.1089463 -0.058370233 0.058201466 -0.102206275 -0.17270951 -0.08293824
-0.0228511 -0.04751035 -0.12687616 0.023573542 -0.10047635 -0.03510412 -0.07876165 -0.121721365
-0.09318161 -0.002958741 -0.09718795 -0.06222979 -0.08867617 0.02277502 -0.045732897 -0.14295411
-0.014362179 -0.05322015 -0.067291245 -0.18457879 -0.09913214 -0.015315336 -0.043594573 0.009390574
0.04172923 -0.09130803 -0.10362908 -0.117086045 0.025056819 -0.11752381 -0.077981435 -0.09286342
-0.049133293 0.035040304 0.013186019 0.030912466 0.035078447 -0.029945077 -0.15201858 -0.04267133
-0.11137978 0.039898574 -0.090151004 0.02410061 -0.018178314 -0.13806057 -0.04139652 -0.039030418
-0.050182812 -0.084544726 -0.108246855 -0.123664215 -0.1168496 -0.06109722 -0.17885526 -0.16397455
-0.11151857 -0.09614027 0.0036009832 0.0016317284 0.017291449 -0.09228145 0.05863671 -0.076497026
-0.12557104 0.022969246 -0.06762067 -0.14566441 -0.12697586 -0.030720985 -0.12356785 0.008635906
0.031136602 -0.1170409 -0.05139937 -0.13617854 -0.11882869 -0.12931195 -0.16026454 -0.046741996
0.009967563 -0.1456466 -0.07183797 -0.055301934 0.016477346 -0.120350696 -0.037833564 -0.038961187
-0.04640172 -0.0061617466 -0.08486446 -0.112373844 -0.09233399 -0.08393039 -0.044384822 -0.05239894
0.0017559185 -0.14859839 0.011601086 -0.00605771 -0.033219352 -0.10256028 0.043361705 -0.15399875
0.045357935 -0.023441197 -0.16280448 -0.064577244 0.017911544 -0.016674744 -0.06310087 -0.033562176
-0.022776429 0.023769313 -0.1099648 -0.0084264865 -0.100547545 -0.018107476 -0.10751546 0.048217997
-0.0027429657 -0.13841224 -0.0033404315 0.021804424 -0.12783279 -0.044489376 0.033756793 -0.14981017
-0.102453984 -0.10587511 0.006900013 -0.10478975 0.041990492 -0.00010405455 -0.06657568 0.046777453
-0.0026488623 -0.11016099 -0.1287575 -0.01141988 -0.09734597 -0.06006512 -0.09038265 -0.124819025
-0.02925775 -0.08376533 -0.06955115 -0.039627522 -0.032374576 -0.019173274 -0.16872714 -0.1395054
-0.00061362254 0.035058334 -0.053370003 -0.13534418 -0.041793413 -0.079494774 -0.03144457 -0.024281858
-0.056670126 0.059750892 -0.04198063 0.023354018 -0.05437657 -0.1204934 -0.10426053 0.0025168478
-0.076558344 -0.09450209 -0.13821983 -0.09768569 -0.1026161 -0.08017875 0.020918718 0.022050684
0.055104427 -0.08053529 -0.0074238935 0.02795694 -0.13317105 -0.13834748 -0.023903571 0.025151856
0.048685335 -0.120957345 -0.14255428 0.025825974 -0.006261049 0.033430956 -0.07827854 0.0016528217
-0.10841072 -0.108578965 0.013521253 -0.02369473 -0.08725896 0.00678742 -0.16675957 -0.07886796
-0.07702306 0.048662156 -0.05607335 0.022768369 -0.015311851 -0.09299685 -0.045083202 -0.053226374
-0.02408706 0.0362283 -0.050377574 -0.043295145 -0.02292155 0.014310568 -0.1963254 0.0011004739
-0.14607778 0.0012019306 0.06647364 -0.096584655 -0.11498872 -0.09763474 -0.12664191 -0.1292995
00000000: c8cc 37bd 0b84 b4bc 3be2 16bc da2b 08bd
00000010: 08d9 e2bd a3de c93c 663e 1abd a35d 19bb
00000020: 7073 f6bd 8999 8cbd 9bc6 3bbd 6fbd b5bd
00000030: 267f 5e3c 6c95 1f3c 2ff1 9cbd cd37 b4bc
00000040: 98c1 3abe c657 fcbd 738b 18bd ac3a 723d
00000050: bf27 e7bd 03a3 13be e884 ac3b db00 fa3b
00000060: 6f74 01be d9e5 323c 3d1f dfbd a015 6fbd
00000070: a964 6e3d 8651 d1bd c3da 30be 86db a9bd
00000080: 3b32 bbbc 369a 42bd d3eb 01be 4d1d c13c
00000090: 8bc6 cdbd 56c9 0fbd ca4d a1bd 0d49 f9bd
000000a0: 00d6 bebd 70e7 41bb 7a0a c7bd aae4 7ebd
000000b0: da9b b5bd ae92 ba3c 6b52 3bbd 9062 12be
000000c0: 584f 6bbc 5ffd 59bd fecf 89bd 3902 3dbe
000000d0: cb05 cbbd 2ded 7abc 3990 32bd ecda 193c
000000e0: 45ec 2a3d b4ff babd 7c3b d4bd cfca efbd
000000f0: f543 cd3c 53b0 f0bd bbb4 9fbd 2d2f bebd
00000100: fe3f 49bd 6c86 0f3d 2c0a 583c 243c fd3c
00000110: 6bae 0f3d 614f f5bc c2aa 1bbe 22c8 2ebd
00000120: 151b e4bd b06c 233d 17a1 b8bd a46e c53c
00000130: b0ea 94bc c05f 0dbe 668f 29bd 5cde 1fbd
00000140: 7e8c 4dbd c925 adbd 87b0 ddbd aa43 fdbd
00000150: d84e efbd 1441 7abd d525 37be f2e8 27be
00000160: d963 e4bd 31e5 c4bd 79fe 6b3b b8df d53a
00000170: cca6 8d3c 0ffe bcbd 0c2d 703d 79aa 9cbd
00000180: b295 00be 002a bc3c b57c 8abd 0d29 15be
00000190: f605 02be 93aa fbbc 2411 fdbd 9d7d 0d3c
000001a0: 3012 ff3c 24b3 efbd 2588 52bd 6372 0bbe
000001b0: 755c f3bd 5a6a 04be 631c 24be 8974 3fbd
000001c0: fd4e 233c 6224 15be c91f 93bd 4884 62bd
000001d0: 80fb 863c 6d7a f6bd 5ef7 1abd c495 1fbd
000001e0: bb0f 3ebd 7ae8 c9bb 6bcd adbd 4224 e6bd
000001f0: 9a19 bdbd b2e3 abbd dccc 35bd 45a0 56bd
00000200: d926 e63a 2d2a 18be 7b12 3e3c c17f c6bb
00000210: 0411 08bd 200b d2bd 0b9c 313d d9b1 1dbe
00000220: 3ec9 393d c107 c0bc 38b6 26be 1341 84bd
00000230: 3bbb 923c 7999 88bc 073b 81bd 7e78 09bd
00000240: a295 babc ddb7 c23c 3a35 e1bd 3f0f 0abc
00000250: dfeb cdbd 2156 94bc 1131 dcbd 3c80 453d
00000260: 54c3 33bb f0bb 0dbe 24eb 5abb 319f b23c
00000270: 99e6 02be 7e3a 36bd 9044 0a3d d667 19be
00000280: 65d3 d1bd 0dd5 d8bd 8119 e23b 029c d6bd
00000290: 39fe 2b3d dc37 dab8 d558 88bd b799 3f3d
000002a0: 8998 2dbb 169c e1bd 02d9 03be 731a 3bbc
000002b0: 535d c7bd d806 76bd 8a1a b9bd 1ea1 ffbd
000002c0: f3ad efbc 288d abbd d570 8ebd 7850 22bd
000002d0: 349b 04bd 4511 9dbc cfc6 2cbe 81da 0ebe
000002e0: 83db 20ba 5499 0f3d 819a 5abd aa97 0abe
000002f0: 922f 2bbd 28ce a2bd 05cc 00bd bfea c6bc
00000300: ef1e 68bd 5abd 743d e2f3 2bbd ed50 bf3c
00000310: f7b9 5ebd 3ec5 f6bd 8b86 d5bd b3f1 243b
00000320: 9fca 9cbd 508a c1bd 8089 0dbe 6f0f c8bd
00000330: 6428 d2bd c234 a4bd bb5d ab3c a3a3 b43c
00000340: 2eb5 613d b0ef a4bd 2244 f3bb f405 e53c
00000350: fe5d 08be f6aa 0dbe 6cd1 c3bc 440b ce3c
00000360: 466a 473d 7cb8 f7bd c0f9 11be fe90 d33c
00000370: 7c29 cdbb e6ee 083d 8050 a0bd 7ea3 d83a
00000380: 7106 debd a65e debd 3f88 5d3c 731b c2bc
00000390: d3b4 b2bd 0169 de3b 05c3 2abe 8685 a1bd
000003a0: 44be 9dbd f851 473d 2bad 65bd bb84 ba3c
000003b0: 8fde 7abc 2275 bebd 2aa9 38bd e603 5abd
000003c0: 3a52 c5bc 2064 143d b758 4ebd 4056 31bd
000003d0: f9c5 bbbc df76 6a3c 8709 49be c73d 903a
000003e0: 6a95 15be 198a 9d3a 5523 883d 2dce c5bd
000003f0: 357f ebbd b9f4 c7bd 6bae 01be 1767 04be

bias f4 [40]
-0.04409904 -0.0384092 -0.11195078 -0.019388724 0.0061949478 -0.1796604 -0.11189761 -0.111268796
-0.085267395 -0.0028939005 -0.00029461135 0.024805557 -0.056311276 -0.16972096 -0.18114887 -0.07285816
-0.19141555 0.0009691985 -0.15784512 -0.02041308 -0.03185539 -0.12808454 -0.11397153 -0.02030248
-0.07293458 -0.14026752 -0.019399252 -0.019307414 -0.03157043 -0.15942356 0.021758799 -0.18741795
-0.048655126 -0.0038956825 -0.1193382 -0.07649586 -0.1473913 -0.09810473 -0.04046547 -0.10105646
00000000: 32a1 34bd f752 1dbd 7346 e5bd 1ad5 9ebc
00000010: fdfe ca3b e5f8 37be 932a e5bd e5e0 e3bd
00000020: aca0 aebd 98a7 3dbb 1176 9ab9 0635 cb3c
00000030: a7a6 66bd 55cb 2dbe 177f 39be a936 95bd
00000040: 7002 44be cf11 7e3a 27a2 21be 5539 a7bc
00000050: cc7a 02bd 9828 03be e869 e9bd 6351 a6bc
00000060: ba5e 95bd 4aa2 0fbe 2eeb 9ebc 952a 9ebc
00000070: ff4f 01bd ee3f 23be 823f b23c 7eea 3fbe
00000080: 994a 47bd b54e 7fbb 9667 f4bd dda9 9cbd
00000090: bfed 16be 22eb c8bd 1fbf 25bd b0f6 cebd

weight f4 [80, 40]
0.03469714 -0.09828246 0.10950914 0.021149952 -0.090494625 -0.011746406 -0.15957119 0.07654563
0.13071856 0.14469235 -0.08267413 0.10083491 -0.09326646 0.1137116 -0.11022363 -0.02297213
0.030095972 0.016960558 -0.08136422 -0.07836814 0.044444665 -0.10911762 0.0064786472 0.019392436
0.11931284 0.09865895 -0.13622913 0.05622702 0.07381163 0.15993896 -0.14327303 0.03843056
0.036274802 0.015626464 0.10062981 -0.102018304 -0.09234627 -0.042078424 0.080897294 -0.03116533
0.09256821 0.008039608 0.116857246 0.044311903 0.070343755 0.046040535 -0.08113607 -0.10726435
0.11119429 0.11064468 0.09819784 -0.1475822 -0.10443785 -0.06029031 0.049915034 -0.121204175
0.07687462 0.097424656 -0.042694006 0.057130884 -0.026083212 0.04098045 -0.11038068 -0.028933339
0.07747556 0.04602374 0.10472484 0.08966556 -0.11231835 -0.008152561 -0.036227584 0.14553718
0.1403683 -0.14521046 0.031891067 0.083191656 0.0018152903 -0.041093495 -0.07113419 0.07578697
0.00074918545 -0.08733353 0.14652917 -0.028598772 -0.044784263 0.025118513 0.10490868 -0.004107216
0.058911882 0.056804255 0.07491428 0.107905194 -0.06111921 -0.07191821 -0.018575482 0.09458807
-0.06090329 -0.06341127 -0.040735636 0.07008896 -0.101280086 0.08013094 0.08556577 0.074617
-0.091298334 -0.01908323 0.16777588 0.074128 0.12621531 -0.11708143 -0.021000553 0.0034751224
0.10546183 -0.028238717 0.124975085 -0.045607798 0.15986873 -0.060313106 -0.011003702 0.06494381
-0.09185212 0.06878238 0.12254789 0.11078137 0.010282566 -0.0816531 -0.1079168 -0.11701859
-0.029007532 -0.06265989 0.0045753075 0.04634397 -0.051630594 -0.09443073 0.12954472 -0.15456061
0.07176908 -0.058443934 0.02889157 -0.12854521 -0.03539405 0.03818265 0.047919065 0.02169396
-0.049938694 0.11603367 -0.013199871 -0.039089594 -0.15316929 0.11647862 -0.14563234 0.0067342264
-0.011124333 -0.11641366 0.14375491 0.024165658 0.06693485 0.10572307 -0.106880665 0.06792851
-0.089120746 -0.09086934 -0.016355116 0.12816182 0.016319871 -0.09626774 0.12820315 -0.19562295
-0.10195385 -0.011462438 -0.06861723 0.035797216 -0.11491148 -0.1369504 0.06629139 0.14276409
0.08263207 0.1417065 0.007201034 0.114386745 -0.039834075 -0.014040212 0.12259539 0.06675362
-0.06870729 -0.10041662 0.060716067 -0.050843377 -0.08505375 -0.12762982 -0.07055198 -0.10290355
0.08202315 -0.008616768 -0.023905842 -0.12282811 0.11974044 -0.03200718 -0.029504023 -0.06606431
0.063686185 0.12305875 0.15497987 0.025643757 0.032515224 -0.102352925 -0.16090035 -0.10164749
-0.041680746 -0.13105722 -0.0483131 -0.09587852 -0.05906194 0.06318043 0.07605559 -0.08317527
0.013596491 0.046028893 0.08772431 -0.025214128 0.08458215 0.13420337 -0.06055157 0.049892817
0.04093043 -0.12236892 -0.046816606 0.0028267074 -0.096646994 0.018881772 -0.061703555 0.13914685
-0.088623516 -0.010011661 0.066963226 -0.11330386 0.13347778 -0.05221991 -0.03298397 -0.066313885
-0.037275884 -0.072728485 0.089464165 -0.0948089 0.05315337 0.14321311 0.108967595 0.022680651
0.048824612 -0.069034904 0.059262317 0.0033144094 -0.13941684 -0.06540966 -0.10648847 -0.08981375
00000000: 971e 0e3d 5048 c9bd 5446 e03d aa42 ad3c
00000010: 3f55 b9bd ff73 40bc a166 23be f5c3 9c3d
00000020: 16db 053e 3b2a 143e 0e51 a9bd 8982 ce3d
00000030: 7c02 bfbd a1e1 e83d edbc e1bd 0c30 bcbc
00000040: d48b f63c def0 8a3c 49a2 a6bd 7a7f a0bd
00000050: 9c0b 363d 0f79 dfbd d54a d43b e3dc 9e3c
00000060: 4a5a f43d b40d ca3d a67f 0bbe 4e4e 663d
00000070: 8d2a 973d 0ac7 233e 2ab6 12be 5d69 1d3d
00000080: e394 143d 1203 803c 0017 ce3d f9ee d0bd
00000090: 0b20 bdbd 6d5a 2cbd 7bad a53d 6f4e ffbc
000000a0: 6794 bd3d 8fb8 033c da52 ef3d 6680 353d
000000b0: 6310 903d 0095 3c3d ab2a a6bd 69ad dbbd
000000c0: d5b9 e33d ae99 e23d f31b c93d ca1f 17be
000000d0: 83e3 d5bd f9f2 76bd b573 4c3d e539 f8bd
000000e0: 7170 9d3d 9486 c73d e9df 2ebd 1302 6a3d
000000f0: 76ac d5bc 1edb 273d 440f e2bd 9c05 edbc
00000100: 82ab 9e3d 6483 3c3d fa79 d63d 94a2 b73d
00000110: 2a07 e6bd 5292 05bc 6063 14bd b307 153e
00000120: b5bc 0f3e 0db2 14be 35a0 023d 6360 aa3d
00000130: 09ef ed3a a751 28bd cdae 91bd 3336 9b3d
00000140: fc64 443a ecdb b2bd be0b 163e f947 eabc
00000150: b46f 37bd 57c5 cd3c 5dda d63d d395 86bb
00000160: 964d 713d 94ab 683d a86c 993d 66fd dc3d
00000170: 2358 7abd db49 93bd 9c2b 98bc 64b7 c13d
00000180: ba75 79bd c5dd 81bd 69da 26bd cd8a 8f3d
00000190: ef6b cfbd b11b a43d 1b3d af3d ccd0 983d
000001a0: 9ffa babd 6f54 9cbc 71cd 2b3e 6cd0 973d
000001b0: 963e 013e 64c8 efbd 5a09 acbc e1be 633b
000001c0: 5ffc d73d e254 e7bc f0f2 ff3d 3ecf 3abd
000001d0: a1b4 233e e00a 77bd df48 34bc 4301 853d
000001e0: f71c bcbd c7dd 8c3d 63fa fa3d 58e1 e23d
000001f0: 3578 283c be39 a7bd 7c03 ddbd 71a7 efbd
00000200: 34a1 edbc d453 80bd 76ec 953b 2dd3 3d3d
00000210: 9a7a 53bd e664 c1bd 5fa7 043e 2345 1ebe
00000220: abfb 923d e862 6fbd 04ae ec3c 5ba1 03be
00000230: 5af9 10bd 6965 1c3d c846 443d 88b7 b13c
00000240: 848c 4cbd 10a3 ed3d 4644 58bc 691c 20bd
00000250: 69d8 1cbe 588c ee3d a520 15be c9aa dc3b
00000260: d642 36bc 496a eebd 7d34 133e 0ff7 c53c
00000270: 2315 893d 5685 d83d 40e4 dabd 1a1e 8b3d
00000280: f084 b6bd b419 babd 2afb 85bc da3c 033e
00000290: 40b1 853c 0528 c5bd b047 033e 6251 48be
000002a0: 2ecd d0bd f3cc 3bbc 3187 8cbd 1aa0 123d
000002b0: b656 ebbd ba3c 0cbe c8c3 873d c030 123e
000002c0: 013b a93d 821b 113e a7f6 eb3b 9943 ea3d
000002d0: 0e29 23bd eb08 66bc 4b13 fb3d 1fb6 883d
000002e0: 68b6 8cbd 3ba7 cdbd 69b1 783d 2541 50bd
000002f0: a930 aebd 64b1 02be 8e7d 90bd 19bf d2bd
00000300: c1fb a73d 582d 0dbc 2fd6 c3bc 4e8d fbbd
00000310: 7a3a f53d f619 03bd 6cb2 f1bc ba4c 87bd
00000320: e76d 823d 3a06 fc3d 0bb3 1e3e db12 d23c
00000330: af2e 053d 699e d1bd 10c3 24be 8f2c d0bd
00000340: 6eb9 2abd dd33 06be f5e3 45bd f55b c4bd
00000350: efea 71bd be64 813d 08c3 9b3d cc57 aabd
00000360: d1c3 5e3c cb88 3c3d cea8 b33d dc8d cebc
00000370: 6839 ad3d 9c6c 093e ec04 78bd 695c 4c3d
00000380: aba6 273d 8e9c fabd c5c2 3fbd 4840 393b
00000390: dcee c5bd f2ad 9a3c debc 7cbd 837c 0e3e
000003a0: 3f80 b5bd f307 24bc 0424 893d db0b e8bd
000003b0: 66ae 083e 8be4 55bd 331a 07bd 93cf 87bd
000003c0: 99ae 18bd acf2 94bd fd38 b73d 2b2b c2bd
000003d0: 59b7 593d 75a6 123e 672a df3d c6cc b93c
000003e0: 51fc 473d 2c62 8dbd 0bbd 723d 9036 593b
000003f0: 4ac3 0ebe 80f5 85bd a116 dabd 45f0 b7bd

bias f4 [80]
0.053834207 -0.18126652 0.07169664 -0.13107522 0.010883603 0.07910668 0.035541203 -0.016296096
0.028645547 -0.13598524 -0.07656894 0.104095735 -0.031704396 0.10756164 -0.09743717 -0.06137369
-0.12367017 -0.14280863 0.1035716 -0.038382336 0.021858146 -0.12469019 -0.18425728 -0.13172507
-0.0039927056 0.023546012 -0.15187244 -0.039323196 0.074293554 -0.17628258 0.07977627 -0.09590683
-0.095329545 -0.12795992 -0.09502335 -0.06609951 0.006424524 0.06735453 0.09853286 0.02823771
-0.06675427 -0.19123852 -0.064399235 -0.17511801 0.11207545 -0.0074199666 0.03846864 0.089385845
-0.16868646 0.14104526 -0.042086978 0.028463757 -0.14171603 -0.021987533 -0.08911437 -0.0664686
0.02422137 0.055514153 -0.029214544 -0.06977328 -0.056359835 -0.15359762 0.17630783 0.06865233
-0.013681947 0.032892697 0.036550112 0.051824104 -0.18288812 -0.05220149 -0.16827185 -0.13594146
0.05069449 -0.126381 0.07793621 0.081204765 0.017651059 0.036315735 -0.035440993 -0.08512207
00000000: 4281 5c3d ee9d 39be b0d5 923d 9538 06be
00000010: 2451 323c af02 a23d a793 113d 647f 85bc
00000020: 11aa ea3c b73f 0bbe 2dd0 9cbd 2530 d53d
00000030: 78dc 01bd 4749 dc3d 248d c7bd fa62 7bbd
00000040: c946 fdbd 6d3c 12be 591d d43d cc36 1dbd
00000050: db0f b33c 925d ffbd f1ad 3cbe f0e2 06be
00000060: 3ed5 82bb 91e3 c03c 7384 1bbe 5c11 21bd
00000070: 3827 983d 6c83 34be be61 a33d cd6a c4bd
00000080: 233c c3bd ed07 03be 9a9b c2bd 2e5f 87bd
00000090: d084 d23b 2cf1 893d 99cb c93d c552 e73c
000000a0: 76b6 88bd 08d4 43be bfe3 83bd 2352 33be
000000b0: d087 e53d 3123 f3bb 4b91 1d3d ed0f b73d
000000c0: 25bc 2cbe 2b6e 103e 6563 2cbd d32c e93c
000000d0: 021e 11be 331f b4bc 9881 b6bd b020 88bd
000000e0: e56b c63c cf62 633d 5753 efbc 4be5 8ebd
000000f0: 92d9 66bd b248 1dbe 0a8a 343e 9899 8c3d
00000100: 3f2a 60bc 7eba 063d 92b5 153d 8345 543d
00000110: 0647 3bbe 3bd1 55bd 754f 2cbe 3d34 0bbe
00000120: 07a5 4f3d 056a 01be 059d 9f3d af4e a63d
00000130: f498 903c cfbf 143d 932a 11bd 7b54 aebd

weight f4 [5, 80]
0.0023311428 -0.05147905 0.06142816 -0.022465432 -0.029224407 0.025474846 -0.037539754 -0.048528053
-0.03186426 -0.056910653 -0.06818269 0.015284454 0.07356695 -0.025217807 -0.047064178 -0.088045195
-0.038463194 0.037158333 -0.019620104 0.028440384 0.066226766 0.0564805 0.055955105 0.0134601295
-0.07087813 0.036846086 0.05330817 -0.047325246 -0.073735714 0.017416866 -0.03524763 -0.010108606
-0.018236598 0.04043256 -0.036445912 -0.021268161 0.028316274 0.056945004 0.015749035 0.013181397
-0.01490814 -0.032292306 0.03171685 -0.05352149 -0.02059299 0.036706015 0.074986845 -0.025074303
0.013153161 0.053415496 -0.0025087092 0.00091108895 0.038674764 0.020405805 0.044187773 0.006809958
-0.049242385 -0.017866416 -0.033740953 0.004527196 0.07151911 -0.054811716 0.0018593223 0.046918385
-0.0044746767 0.018017123 -0.020901756 -0.0347358 0.016140817 0.015037654 -0.021562453 0.019726437
0.065985024 -0.031767514 -0.07488155 0.054355074 -0.009705906 0.08337836 -0.00070436957 -0.06554059
0.03363939 -0.021431975 0.048585575 0.021947213 -0.054589346 -0.04508523 -0.0033350214 0.047548212
-0.009490415 -0.028956838 -0.07048877 0.05091073 0.0078529045 -0.032368757 0.07089725 0.0072560436
0.06277595 0.0022360738 -0.004985498 0.014199412 -0.0386958 0.02683514 -0.006582798 -0.053292777
0.04773748 -0.009002229 -0.056377027 0.05804887 0.07606563 0.0012815217 0.01673643 0.07312717
0.06832172 0.0028872115 0.002005845 -0.0427481 -0.010557293 0.038305335 -0.051922806 0.01006361
0.0028362498 -0.0055029904 0.03771028 -0.009109609 0.020738281 -0.05164405 -0.06678187 -0.01957245
0.018275103 -0.009317297 -0.01367576 -0.032265164 0.022915088 -0.027762737 -0.044221703 -0.06566512
-0.01189484 -0.008811957 0.04901018 -0.00022742279 0.06389225 -0.030749623 0.030970734 -0.030322034
-0.020900706 0.0019748455 0.011656174 0.04593985 -0.049145333 0.06647484 0.04429948 -0.010728779
-0.056349784 -0.0390687 -0.009861427 -0.009879295 0.060965206 0.026424637 0.05804408 -0.065750934
0.007652999 -0.049900025 0.07935746 0.03888028 0.0039037021 0.03283858 0.013243142 -0.053509895
0.033597987 -0.024500802 -0.004338264 0.014655521 -0.012407652 -0.029993288 0.031438123 -0.0024439003
0.035797134 -0.057843465 0.029746747 -0.014941811 -0.024294902 0.06380947 0.07329549 0.0048892745
-0.0151421325 0.04358943 -0.031755757 0.02859887 -0.04893051 0.016857054 0.013948306 -0.030714642
0.10449441 -0.082861096 0.05838179 -0.020938026 0.06101478 -0.0379168 0.014868834 0.050551157
-0.004685298 -0.006889722 -0.035763983 -0.02277356 -0.02567141 0.043989725 0.015165658 -0.014297713
0.061199103 0.027894322 -0.048193835 0.05310057 0.05176293 0.06922891 0.0030323633 -0.0621134
-0.029027382 -0.0044172634 0.065562464 0.038473144 0.006440104 0.038934756 0.07169927 -0.03839388
-0.021639487 0.021571962 -0.011980067 -0.05821168 -0.043747015 0.020966459 -0.010662331 0.009940708
-0.030557409 -0.025282376 -0.05025048 0.02425925 -0.017980877 0.07591126 0.019515866 0.04454576
0.02830086 -0.0064953663 0.051742136 -0.07129835 -0.04958854 0.07172598 -0.072063096 0.04323472
-0.055203304 0.006467076 -0.055769015 -0.011062422 -0.06619529 0.07032173 0.058844984 -0.050653175
00000000: 16c6 183b b2db 52bd 189c 7b3d 6d09 b8bc
00000010: 0668 efbc a0b0 d03c 49c3 19bd 5ac5 46bd
00000020: 1984 02bd 251b 69bd 5ea3 8bbd a66b 7a3c
00000030: 45aa 963d 9395 cebc 5ec6 40bd 0a51 b4bd
00000040: 958b 1dbd 5633 183d 57ba a0bc cffb e83c
00000050: e6a1 873d 1958 673d 2e31 653d e087 5c3c
00000060: 8e28 91bd eceb 163d ab59 5a3d 1ed8 41bd
00000070: c002 97bd d1ad 8e3c d25f 10bd 919e 25bc
00000080: eb64 95bc 9d9c 253d 4f48 15bd 913a aebc
00000090: 88f7 e73c 2a3f 693d 1f04 813c c9f6 573c
000000a0: 4541 74bc f044 04bd 87e9 013d 5a39 5bbd
000000b0: a1b2 a8bc 0c59 163d b492 993d a068 cdbc
000000c0: 5b80 573c 35ca 5a3d 2869 24bb 25d6 6e3a
000000d0: 6e69 1e3d 132a a73c 3dfe 343d 1126 df3b
000000e0: 62b2 49bd 975c 92bc f433 0abd df58 943b
000000f0: 9c78 923d 4082 60bd 81b4 f33a 7e2d 403d
00000100: 4fa0 92bb a598 933c 293a abbc 2047 0ebd
00000110: bf39 843c 7e60 763c bea3 b0bc 5699 a13c
00000120: 2823 873d a71e 02bd 805b 99bd 6da3 5e3d
00000130: 8505 1fbc 46c2 aa3d 71a5 38ba 253a 86bd
00000140: 75c9 093d 1c92 afbc ab01 473d a4ca b33c
00000150: 1499 5fbd 4aab 38bd 6090 5abb eac1 423d
00000160: b07d 1bbc e436 edbc 6b5c 90bd c587 503d
00000170: 78a9 003c 1a95 04bd 9432 913d 1bc4 ed3b
00000180: ad90 803d 188b 123b 635d a3bb a7a4 683c
00000190: 7d7f 1ebd 5ed5 db3c 83b4 d7bb 8749 5abd
000001a0: 6088 433d 167e 13bc 99eb 66bd a7c4 6d3d
000001b0: 4cc8 9b3d bcf8 a73a d61a 893c b3c3 953d
000001c0: 42ec 8b3d 5f37 3d3b 7f74 033b a218 2fbd
000001d0: 7ff8 2cbc 0ee6 1c3d 02ad 54bd d7e1 243c
000001e0: 60e0 393b 6e52 b4bb 1876 1a3d 7840 15bc
000001f0: 54e3 a93c b688 53bd efc4 88bd 6756 a0bc
00000200: abb5 953c 93a7 18bc 4b10 60bc 7a28 04bd
00000210: 6cb8 bb3c ae6e e3bc d121 35bd 6f7b 86bd
00000220: 93e2 42bc 0760 10bc e6be 483d 5778 6eb9
00000230: f1d9 823d a2e6 fbbc 56b6 fd3c ea65 f8bc
00000240: f537 abbc 696c 013b 8af9 3e3c 6d2b 3c3d
00000250: 9e4c 49bd f623 883d 5f73 353d c3c7 2fbc
00000260: 08cf 66bd 8006 20bd d391 21bc c4dc 21bc
00000270: a7b6 793d 7b78 d83c a1bf 6d3d 6da8 86bd
00000280: 02c6 fa3b f863 4cbd 2a86 a23d ee40 1f3d
00000290: 41d5 7f3b bf81 063d c3f9 583c 312d 5bbd
000002a0: 0b9e 093d e8b5 c8bc ff27 8ebb b61d 703c
000002b0: 7749 4bbc 7cb4 f5bc 43c5 003d d829 20bb
000002c0: 04a0 123d 45ed 6cbd 73af f33c 7fce 74bc
000002d0: 1a06 c7bc 8aae 823d f21b 963d 3536 a03b
000002e0: b516 78bc d58a 323d 5312 02bd 2d48 ea3c
000002f0: 5c6b 48bd ce17 8a3c 7087 643c 469d fbbc
00000300: 2a01 d63d 14b3 a9bd be21 6f3d 3986 abbc
00000310: a2ea 793d a54e 1bbd 699c 733c bb0e 4f3d
00000320: 2187 99bb 2dc3 e1bb 417d 12bd 9e8f babc
00000330: d94c d2bc 922e 343d 6179 783c f440 6abc
00000340: e9ab 7a3d a282 e43c e666 45bd fc7f 593d
00000350: 5e05 543d e3c7 8d3d 9dba 463b 9f6a 7ebd
00000360: d5ca edbc b1be 90bb 9d45 863d 0496 1d3d
00000370: 8207 d33b 0d7a 1f3d 11d7 923d e742 1dbd
00000380: 4b45 b1bc afb7 b03c 0b48 44bc 5f6f 6ebd
00000390: 1230 33bd dac1 ab3c 0fb1 2ebc 5ade 223c
000003a0: 8853 fabc fc1c cfbc 73d3 4dbd 56bb c63c
000003b0: a24c 93bc 5d77 9b3d bddf 9f3c 9d75 363d
000003c0: 35d7 e73c 15d7 d4bb 90ef 533d df04 92bd
000003d0: 5a1d 4bbd 12e5 923d d195 93bd e416 313d
000003e0: dc1c 62bd c4e9 d33b 0d6e 64bd 293f 35bc
000003f0: 6591 87bd d704 903d 7007 713d b479 4fbd

bias f4 [5]
-0.01885863 -0.023579309 -0.06681291 0.014597469 -0.027587727
00000000: 6a7d 9abc 6529 c1bc 35d5 88bd 392a 6f3c
00000010: a8ff e1bc
