final_project/mlruns/3/efbbd2238126466d94fc8ae20c5c9c1d/artifacts/cvae_25/data/model.pth (torch, 50311 bytes, 10 tensors)

weight f4 [80, 17]
000000 4a c6 49 3e 9e 54 c1 3b 73 9d 8a bc 10 de 6a 3e
       0.19704548 0.0058999797 -0.01692078 0.22936273
000010 24 df 97 bd ae 46 da bd 71 b9 52 be da bd f3 bd
       -0.074156076 -0.10658012 -0.20578553 -0.11901446
000020 2e 26 30 be 52 75 ad bd fd 25 31 3e bd d4 90 3d
       -0.17202064 -0.08469643 0.17299648 0.070718266
000030 09 cd 3b be c0 7f c4 bd f9 74 7c bd 15 37 8f 3c
       -0.18339933 -0.09594679 -0.06163499 0.01748232
000040 ba f7 b3 3d b6 91 b8 3d b7 ff 33 be 2b 76 cd bd
       0.087874845 0.09012167 -0.17578016 -0.100323044
000050 7e ed 33 be 79 36 3a be 86 4d 20 bd 8a 09 d5 bc
       -0.17571065 -0.18184842 -0.039136432 -0.026005525
000060 eb 92 72 3d b0 8b 81 be f0 41 a9 3a 55 3a f6 3c
       0.059222143 -0.25301886 0.0012913328 0.030057112
000070 fc 14 a2 3c 60 aa 0e be 4f bd 3b bd f7 25 64 3e
       0.019785397 -0.1393218 -0.045834836 0.22280107
000080 34 05 7c 3d 45 b1 47 bd da 2e b6 bd ce b6 2f 3e
       0.0615284 -0.04875304 -0.08895655 0.17159578
000090 eb ec c3 bd 0e 32 42 bd 67 6e 4f 3c a5 9a bb 3d
       -0.09566673 -0.047411017 0.012660599 0.091603555
0000a0 ee ce 33 3e 22 88 7d be b3 e6 1d be 73 12 66 be
       0.17559406 -0.24758962 -0.15420036 -0.22467975
0000b0 5b c4 88 3d de cf 68 3e c6 95 72 3d f4 d9 33 be
       0.06678077 0.22735545 0.059224866 -0.17563611
0000c0 b6 79 23 be 3b 58 be bd bf 9a 4e 3d 37 b1 7c 3e
       -0.15964398 -0.092941724 0.050440546 0.24676977
0000d0 6c 31 69 be ce 6d 5b 3e 64 57 1b be 8a d1 61 3e
       -0.22772759 0.21428606 -0.15170056 0.22052589
0000e0 9b 81 70 be 62 53 28 be 52 c1 9d bd af 29 83 bc
       -0.2348694 -0.16438058 -0.077028885 -0.016011087
0000f0 16 3b 64 3e 31 37 e0 bc ef 53 4b 3e a9 3f 14 bd
       0.22288164 -0.027370067 0.19856237 -0.036193524
000100 47 e2 90 3c 93 44 37 3e 42 17 a1 3d 49 92 f6 3d
       0.017686022 0.17897253 0.07865764 0.120396204
000110 bb 8b 94 3e a1 ad d2 bd 98 2d b9 bd 13 60 25 be
       0.29012856 -0.10287023 -0.090418994 -0.1614993
000120 09 75 a7 bc ef 6e fb bd 63 07 40 3e 5f 88 2e 3c
       -0.020441549 -0.12277018 0.18752818 0.010652631
000130 d3 d6 97 bc 21 75 e2 bd 12 5d 8c 3c f3 fc d6 bd
       -0.018535053 -0.11057497 0.017134223 -0.10497465
000140 fe cd e8 3d 52 42 77 be 3d f1 46 bc 51 f4 32 be
       0.11367415 -0.24146393 -0.012142477 -0.17476012
000150 ad 12 b5 bd 13 72 48 3d 03 c5 49 3e 19 10 04 be
       -0.08841453 0.048936915 0.1970406 -0.12896766
000160 3e dd 7c 3e 4e bb 63 3e bd 39 6c be f9 39 5a 3d
       0.24693772 0.2223942 -0.230689 0.053277943
000170 75 3c 1c be 13 08 ba 3a 49 98 30 3e b3 8b 84 3d
       -0.15257438 0.001419308 0.17245592 0.06471958
000180 41 82 84 be b2 98 df 3d eb 30 c0 3b 94 5a 3f 3e
       -0.25880626 0.10917796 0.0058652065 0.18686897
000190 09 0c 21 be d4 e4 45 3e 05 29 31 be 0d a6 45 be
       -0.15727247 0.19325572 -0.17300804 -0.19301625
0001a0 26 c2 2b 3e 5d 23 2e be 88 9b 59 be 66 55 42 bd
       0.1677328 -0.17005678 -0.21250737 -0.047444724
0001b0 80 ed 21 3e a7 3d b0 3d 30 92 45 be fa 73 02 be
       0.15813255 0.08605509 -0.19294047 -0.12739554
0001c0 21 3f 60 3e ef 88 6b 3e e7 d9 50 bd e3 6c eb bd
       0.21899082 0.23001455 -0.050989058 -0.11495378
0001d0 bc c7 59 3e 5c 03 52 be c6 5a 39 be 17 f3 5b 3e
       0.21267599 -0.20509094 -0.18101034 0.2147945
0001e0 cb 57 9d 3d 30 21 1a bd a8 d0 43 3e a0 eb 80 be
       0.07682761 -0.037629306 0.19122565 -0.25179768
0001f0 38 f3 e4 bd 53 37 cf bb 5c 45 33 3e a0 ed 1c be
       -0.11179203 -0.006323734 0.17506927 -0.15325022
000200 4f 4e 24 be 52 19 cf bd e3 58 6c be 26 29 1e bc
       -0.16045497 -0.10112251 -0.23080783 -0.009653365
000210 ae fd 1a 3e 5e b9 27 3e e9 5f 3b 3d a9 34 27 bd
       0.15135834 0.16379306 0.045745764 -0.040821705
000220 e2 06 30 be f9 55 10 be 0a bc b8 bd a2 05 24 be
       -0.17190126 -0.14095296 -0.090202406 -0.16017774
000230 71 a8 5d 3e 9d 10 5e be af 4b 85 3d f7 b6 32 be
       0.21646287 -0.21686025 0.06508576 -0.17452608
000240 76 07 69 be 59 f9 36 be dc ac f1 3d 14 40 23 bd
       -0.22756752 -0.17868556 0.118005484 -0.03985603
000250 b9 c7 57 3e 6f b6 0d be 7e bc 58 be 65 8b 38 be
       0.21072282 -0.13839124 -0.21165654 -0.18021925
000260 3e a5 03 bd 04 c4 62 3e 49 06 80 be 98 3c 5b 3e
       -0.03214001 0.22145087 -0.25004795 0.21409833
000270 8e 62 8f 3d e6 66 9f 3d 4d 19 30 be 84 dd d9 bd
       0.0700122 0.07783298 -0.17197151 -0.10637954
000280 df cd 6d be 49 58 17 3d 80 f9 b8 bd 66 3c f4 bd
       -0.23223065 0.03694943 -0.09031963 -0.119255826
000290 d8 f8 39 be c2 99 2b 3d e6 eb 66 bd 8b 81 1b 3e
       -0.18161333 0.04189468 -0.056377314 0.15186135
0002a0 05 e3 6a 3d fa ec 14 3e 48 b1 7f 3e 5c 5d cb 3d
       0.05734541 0.14543524 0.24969971 0.09929916
0002b0 e3 e4 74 be 51 5d e9 3d 57 ef c5 3d 60 9e ea bd
       -0.23915438 0.11394752 0.09664791 -0.11455989
0002c0 2f 8e 6a bd 51 e4 af 3d 27 42 d0 3d a0 66 24 3e
       -0.057264503 0.0858847 0.101688676 0.16054773
0002d0 fb dc 12 be a9 2a a9 bd b6 9f 52 be fa 09 dc 3d
       -0.1434211 -0.0826009 -0.20568737 0.107440904
0002e0 a9 b2 91 bd 1a 5a 67 bd 2c f2 05 be f9 b6 6b bd
       -0.07114155 -0.056482412 -0.13080662 -0.057547543
0002f0 43 06 a9 3d ef 88 ee ba da 64 a9 bc 4e 81 50 3e
       0.082531475 -0.0018198768 -0.020677973 0.20361826
000300 31 8b db bd 84 62 68 be 90 28 0d be 1b 27 5c 3e
       -0.10719908 -0.2269383 -0.13785005 0.21499293
000310 bd 0c 93 bd c5 9a 80 be 26 b0 70 be c2 d6 68 3e
       -0.07180164 -0.2511808 -0.23504695 0.22738174
000320 60 8a ed 3a a6 f6 b0 bd b5 06 37 be c8 f9 35 3d
       0.0018122904 -0.086407945 -0.17873652 0.044427663
000330 4b 89 ab 3c 52 49 82 bd 38 89 80 bd 87 1c 13 3e
       0.02093949 -0.06361641 -0.062761724 0.14366351
000340 35 3b d5 3c 46 6f fa bc ea 6f 4d 3d 05 7a 1b bd
       0.026029209 -0.030570637 0.050155558 -0.037958164
000350 db 01 e4 bd 80 50 29 be 79 75 35 3e b4 87 eb 3c
       -0.111331664 -0.16534615 0.17720594 0.028751232
000360 43 7e 87 bb f9 3f 45 3c d3 67 09 be 52 36 0c b9
       -0.0041349246 0.012039178 -0.13418512 -0.00013371676
000370 af cc 52 3e 0c c4 82 3d e4 76 59 3e a0 a4 4a 3e
       0.20585893 0.06385049 0.2123676 0.19789362
000380 f0 34 34 be 8d a8 ae 3c da 04 28 be 75 6a 2b bd
       -0.17598319 0.021320606 -0.164081 -0.041849572
000390 57 ab 65 bc 55 f5 31 3d f0 db 04 3e c7 62 24 3e
       -0.014017901 0.043446857 0.12974524 0.16053306
0003a0 fd 32 02 3e 8f 68 37 3e ff 3d 1b be 3f 7d 2e 3e
       0.12714763 0.1791098 -0.15160368 0.17039965
0003b0 0b 15 6b 3e a6 1e 64 be 8d 2c 85 3e ea 4e 55 be
       0.22957246 -0.22277316 0.26010552 -0.20830885
0003c0 9d b1 7b be b7 44 26 3e ec f8 10 3e 6d 23 22 3e
       -0.24579473 0.1623715 0.14157456 0.15833826
0003d0 f4 e3 2d 3e 38 cb 49 be d5 d1 08 bd 37 76 3e be
       0.16981488 -0.19706428 -0.033403236 -0.18599783
0003e0 e7 f5 0f 3e 0f e1 18 be bd 7a 85 bd 4c a0 4b be
       0.14058648 -0.14929603 -0.06517551 -0.19885367
0003f0 1d 4f 7f be b8 40 39 be 98 e7 34 3e 16 8f 1c 3d
       -0.24932523 -0.18091094 0.17666471 0.038222395

bias f4 [80]
000000 fb 11 f2 bd 8c 6a e1 3d 21 ed 42 3d cd a9 32 3e
       -0.11819836 0.1100665 0.047589425 0.17447586
000010 0b f9 52 3e 7e 9d 15 3e 5e 82 1e 3e 1e a8 12 bc
       0.20602815 0.1461086 0.15479419 -0.008951215
000020 03 ba f3 bd a3 04 f7 3d 73 91 87 3e 79 ab 70 bd
       -0.11900713 0.12061431 0.26478156 -0.05875728
000030 73 dd 4e 3d 77 4d b5 bd d0 b9 29 3e 67 90 94 3e
       0.05050416 -0.08852666 0.16574788 0.2901642
000040 9c 69 59 3d e5 05 52 3e 4d 59 18 be 46 26 a9 3e
       0.053079233 0.20510061 -0.14877816 0.33037013
000050 df fb 40 3e db 7c c0 3e 45 08 93 3e ed 8c 5a bd
       0.18846081 0.37595257 0.28717247 -0.053357054
000060 f6 73 e2 3a 85 58 53 3e e8 9e a5 3e 91 d6 3a 3e
       0.0017276991 0.20639236 0.32347798 0.18245913
000070 86 f4 c3 3e 87 38 88 3e 34 14 98 3e 56 f5 88 be
       0.38272494 0.26605627 0.29702914 -0.26749676
000080 f9 98 9a 3d 6a a7 9c 3e ef 6f 2b be 5a b8 64 be
       0.075487085 0.30596477 -0.16741918 -0.2233595
000090 10 78 a5 3d 84 a6 5a be a0 21 19 be ff 40 dd bd
       0.08079541 -0.21352583 -0.14954233 -0.10803413
0000a0 dd 1e 01 3e e3 5e 91 3e 0c 9e 16 be ff 76 01 3e
       0.1260943 0.28392705 -0.14708728 0.1264305
0000b0 49 12 91 3e df 9f f3 bd ca 0f 3d be 80 a9 c3 3e
       0.28334263 -0.11895727 -0.18463054 0.38215256
0000c0 dc 37 26 3e 71 54 a3 3e 42 1e 79 3d be bb c1 3e
       0.16232246 0.3190036 0.06081987 0.37838548
0000d0 ca dc 2c 3e a6 ac 59 3e 24 54 aa 3e ad 9b 01 3e
       0.168811 0.21257266 0.3326732 0.12657042
0000e0 c5 85 a0 3e c5 6d 2a be 96 50 50 3e 0a 66 14 be
       0.31352058 -0.16643436 0.20343241 -0.1449205
0000f0 ec 44 00 3e ff 59 72 3d 5b d3 8b bd cd cb a2 3e
       0.12526292 0.05916786 -0.06827422 0.31796113
000100 fe d1 29 be 90 fe 8d bd f2 4e 2b bd db 03 18 3e
       -0.16584012 -0.069333196 -0.041823335 0.1484522
000110 e1 84 76 bd 03 cf 58 3e 50 8d 9a 3c b6 6c 36 bd
       -0.060185317 0.21172719 0.018866211 -0.04453727
000120 f3 bc c7 bd db f4 79 bd bb e6 bc 3e 22 58 c6 3d
       -0.09752836 -0.061024528 0.36894783 0.09684779
000130 5b 69 9b bd 80 67 99 3e d6 45 40 3e d5 ac 88 3e
       -0.07588454 0.29961777 0.1877664 0.2669436

weight f4 [40, 80]
000000 ea 89 86 bd 88 c3 30 bd 43 ce 44 bd 6a df 07 3c
       -0.06569274 -0.043155223 -0.04804827 0.008293012
000010 9f 60 a9 bc cd 2f 47 bd a0 d0 5f 3d ce 3d 84 3d
       -0.020675955 -0.04862957 0.05464232 0.06457101
000020 41 c4 03 3d de 3f b3 bd 63 0f c3 bd 56 08 f5 bd
       0.032169584 -0.08752416 -0.09524419 -0.119644806
000030 21 8a 8f bd f7 01 0b bd 63 24 d6 bd 67 46 88 3c
       -0.07008768 -0.03393742 -0.10456159 0.016635133
000040 68 5c 3d 3d c9 12 9a bd 28 cd a0 bd 1f f6 68 bd
       0.046230704 -0.07523114 -0.078516304 -0.056875344
000050 84 d8 b5 3d 3b 13 bd 3d 2f 39 9b 3d c0 32 60 bc
       0.08879188 0.092321835 0.07579266 -0.013683975
000060 3d 1d 85 bd bf cc ba 3d 42 e7 86 3d aa 95 a0 bd
       -0.064997174 0.091210835 0.06587078 -0.07841046
000070 28 1a 95 bd 22 ed db bd 01 32 3d bc 40 20 d9 3c
       -0.072803795 -0.10738589 -0.011547566 0.026504636
000080 96 2b eb bc b0 ed d0 bc 05 89 e8 3c a3 23 e5 bd
       -0.028707307 -0.025503963 0.028385649 -0.11188438
000090 fe 19 42 3c b2 27 ea bd 0c 69 c1 3b 9d 2e 93 3d
       0.011847017 -0.114333525 0.005902415 0.07186625
0000a0 ac a9 29 bc 46 50 a4 bd 44 ea c6 3c 83 66 33 bd
       -0.010355394 -0.080231234 0.024281628 -0.043798935
0000b0 7b 54 29 bc e3 88 85 3c d8 e2 e4 bd 55 ec 95 3d
       -0.010335083 0.016300624 -0.111760795 0.073204674
0000c0 a9 76 f6 bc c6 7d 5a bd 26 7a 84 bd 19 7b 25 3c
       -0.030085878 -0.053342603 -0.064686105 0.01010015
0000d0 35 b1 c2 3d 44 ee a6 3d ed 68 96 bd 23 c0 d8 bc
       0.09506456 0.08150914 -0.07344232 -0.026458805
0000e0 21 d6 83 bd ce c0 86 bd b6 07 86 bd 33 ff 3f bc
       -0.06437326 -0.06579743 -0.065444395 -0.011718559
0000f0 d0 1b bc bd dd 5d e2 3c be 85 2b 3d 54 d9 93 bd
       -0.09184992 0.027632648 0.041875593 -0.072191864
000100 da 9e 58 3d db 10 a9 bb 03 d5 94 3d 0b e0 bd 3c
       0.052885868 -0.00515948 0.07267191 0.023178121
000110 60 74 a5 3d 72 90 8f 3d 11 ee d7 3c 72 72 6d bd
       0.080788374 0.07009973 0.026358636 -0.05797047
000120 06 46 cf bd 11 d3 4a 3c 8f 48 46 3d c4 4d 58 bd
       -0.10120778 0.012379424 0.04840904 -0.052808538
000130 2f 03 8c bd b0 32 2e 3d 47 05 0e bd cf e0 ad 3d
       -0.06836545 0.042528808 -0.034673 0.084901445
000140 d9 5d a0 3b 11 a5 ed 3c b9 41 b1 bc d8 ce 1c bd
       0.004894 0.029009374 -0.021637784 -0.0382832
000150 cf e8 e2 bd fb 27 01 be ca d8 c7 bd 73 96 a7 bd
       -0.11079561 -0.12612908 -0.09758146 -0.08182993
000160 0f 7c e6 3c 4b 7c 81 bc dd fa d0 bd 00 5a 56 3d
       0.028135328 -0.015806338 -0.102040984 0.052331924
000170 b2 7b b9 bc 7b fa c6 bb df 4e 84 bd b1 dd 03 3c
       -0.02264199 -0.00607234 -0.06460356 0.008048461
000180 04 56 53 3d de 73 ab 3d 43 4b 90 3c 70 2e 67 bc
       0.051595703 0.08371709 0.017614013 -0.014110193
000190 6f 44 9f 3d 4f 11 bd bd fa da 05 bc f1 68 1a bd
       0.077767245 -0.09231817 -0.008169884 -0.037697736
0001a0 90 26 4e bd 63 b8 d6 bd 6c 87 ca bc 6f 83 cc 3d
       -0.050329745 -0.10484388 -0.024722777 0.099860065
0001b0 3a 48 ef 3c e8 34 c1 3c 3e 17 9d bd 92 8b 60 3c
       0.029209245 0.023584798 -0.07670449 0.013705151
0001c0 25 47 6b 3d 4a 03 86 3d d1 2f cf 3d c4 11 09 bd
       0.057440896 0.06543596 0.10116542 -0.03346421
0001d0 c9 88 a4 3d d9 63 8f bd 7b b3 c3 3d 8e ad a0 bd
       0.08033902 -0.07001466 0.095557176 -0.07845603
0001e0 55 15 af bd cf 62 a9 bd 26 df b2 bd 12 c2 0a bd
       -0.08548991 -0.08270799 -0.087339684 -0.033876486
0001f0 c0 64 16 3d ab c6 a3 bd 59 f2 d8 3b e7 0e 6b 3d
       0.036717176 -0.07996877 0.006620687 0.05738726
000200 4b 8e 6f 3d ed e9 d0 3d 2c 98 af bd c9 de d7 bd
       0.05848531 0.10200868 -0.08573946 -0.1054054
000210 01 35 b4 bd d4 d4 e5 bd 96 0d bb bc f5 15 e8 bd
       -0.08799172 -0.11222234 -0.022833627 -0.11332313
000220 1d 89 90 bd 9b 42 7b 3d 72 65 43 3d e7 8a 63 3d
       -0.07057402 0.061342817 0.047704168 0.05555239
000230 c6 2f 81 3d 4f f3 b1 bd f0 ab 2e 3d 30 14 93 3d
       0.0630794 -0.086889856 0.04264444 0.07181585
000240 2a d6 36 bc d3 cb 04 be a9 bc c6 3c a4 20 e9 bc
       -0.011159459 -0.12968378 0.024259882 -0.028457947
000250 58 c8 f8 bd 4e dc 2d 3d 49 49 ad 3d b9 19 67 bd
       -0.121475875 0.042446427 0.08461244 -0.056421015
000260 27 21 9c bd 49 5a c1 3d 32 5c aa bc 7a 97 5f 3c
       -0.07623511 0.09441049 -0.020795915 0.013646955
000270 b8 2d 19 bd 0d de d3 3a 65 69 a0 bd e3 f3 f4 bd
       -0.037397116 0.0016164199 -0.078326024 -0.1196058
000280 03 88 5f 3d 2c 87 27 3d 7b e3 de 3d fc 96 42 bc
       0.05457307 0.040900394 0.10883232 -0.011876818
000290 79 92 e4 3d e8 31 9f bd f1 4c 54 bd 7b b9 0e bc
       0.1116075 -0.07773191 -0.05183119 -0.008711214
0002a0 41 6d 20 bd 5a a2 a3 3d ae 24 3f 3b 17 8c 56 bd
       -0.039166693 0.079899505 0.002916615 -0.052379694
0002b0 0c 15 0c bb 35 01 9e 3d 2d 3a 69 bd dc 34 1e 3d
       -0.002137485 0.07715074 -0.056940246 0.03862463
0002c0 cb 12 f4 3d 45 e9 be 3d dc e2 74 bd b0 f6 7e bd
       0.11917647 0.093218364 -0.059786662 -0.06224698
0002d0 07 bc 86 bd e8 1e 04 3e 5e 1a fb 3d 20 50 4b 3c
       -0.06578832 0.12902415 0.122608885 0.01240924
0002e0 13 6c d8 3d 8f 39 91 3d ec fd 3d bd 14 91 59 bd
       0.105674885 0.070910566 -0.046384737 -0.053116873
0002f0 8f f3 9e 3d da 99 32 3d 56 2c ca 3c ea 09 44 3d
       0.07761299 0.043603756 0.024679344 0.047861017
000300 45 cd 55 bd dd 9b 1e 3d 35 6a 93 3d af 40 6c bd
       -0.052197713 0.03872286 0.07197992 -0.057678875
000310 e1 d1 df 3d a8 70 9f bd f0 a3 26 bd 8b 2f 70 bd
       0.10928703 -0.07785159 -0.040683687 -0.05863909
000320 c8 ea 9a bd b3 9b 2f bd 85 b3 9f bd a6 27 7a 3b
       -0.07564312 -0.042873096 -0.077979125 0.0038170605
000330 7c 96 41 3d e0 c6 82 3d 6a 16 d3 3c fb 53 ad 3d
       0.047262654 0.06385589 0.025767524 0.08463284
000340 46 6f db 3c 04 f6 8e bd 95 3a ef bc 1d 12 05 bd
       0.026786458 -0.069805175 -0.029202739 -0.032487977
000350 ef 42 a1 3c db e6 aa 3d 45 96 d2 3d 2a 87 bb 3d
       0.019685237 0.083448134 0.10282568 0.0915664
000360 de 4c 95 3d 48 59 eb bc 8e 32 71 3c 88 a9 c1 bc
       0.07290052 -0.028729096 0.014721526 -0.02364041
000370 10 25 30 bd d5 a9 76 3d d1 68 75 bd 3f 68 13 3d
       -0.043004096 0.06022056 -0.059914414 0.03598809
000380 9b 80 25 bd 2a 21 9c bd 7b 93 6c 3d ee 3b a4 3b
       -0.04040585 -0.07623513 0.057757836 0.005012027
000390 3b 5c 71 3b 65 07 0f 3e f7 4b 7d bc ae 2f c7 3d
       0.0036828655 0.13967665 -0.015460006 0.09725891
0003a0 18 f2 7d bb 88 10 da 3d dc 67 09 3e 0c 4c c6 3d
       -0.0038749035 0.10647684 0.13418525 0.096824735
0003b0 e9 8d 6b 3d 44 28 6d bd 8e a1 9f bc b0 20 ad bd
       0.057508383 -0.05789973 -0.019486215 -0.084535
0003c0 97 59 b3 3d a8 f2 9f 3c 03 95 ad bc cf 09 87 bd
       0.08757322 0.019524887 -0.021189218 -0.06593668
0003d0 c0 65 c1 39 8d 0c 82 3d b2 33 8e bd a6 af 98 bd
       0.00036887638 0.0635005 -0.06943454 -0.07455377
0003e0 e5 1f cd 3d b3 db 4f 3d 87 0a c5 3d d1 5a 95 3b
       0.10015849 0.05074663 0.096211486 0.0045579453
0003f0 2c 14 49 3d 53 f9 e3 3d 85 f9 3f 3d af 2c 8a 3d
       0.049091503 0.11131539 0.04686882 0.06746804

bias f4 [40]
000000 79 5e bd bd 3b 28 41 bc a6 55 3f 3d 84 78 23 bd
       -0.09246535 -0.011789377 0.04671254 -0.039909855
000010 2b 36 b6 3d 49 1e 85 3d d0 60 9b 3d 2f 5c 0d bd
       0.088970505 0.06499917 0.07586825 -0.03451174
000020 77 2d cf 3c 1d 8a b0 3d 0a e8 24 3d e3 99 cf 3c
       0.025290234 0.08620093 0.040260352 0.025341934
000030 48 bd a0 3d b1 d3 03 bd 98 b2 3b 3d 09 b5 5a bc
       0.078486025 -0.032184307 0.045824617 -0.013348826
000040 77 0f 41 bd 10 9d 39 3d db 0c 41 3c 0e eb c7 3d
       -0.04713389 0.045315802 0.01178285 0.0976163
000050 ea 80 cd bd 6a ee 43 3d 0d 14 9a 3d 73 a1 31 bd
       -0.10034354 0.04783479 0.07523356 -0.04336686
000060 fb d1 fb bd 21 a7 dc 3c 15 0d be 3d fe 55 9c 3d
       -0.1229591 0.026935162 0.09279839 0.07633589
000070 ec 8e 3b bd 22 24 1d be 11 0c 0b 3c c1 ba ad 3b
       -0.045790598 -0.15345815 0.008486764 0.005301804
000080 78 0a a5 bd 76 49 1b 3d 12 35 90 bb 3b 45 9f bd
       -0.080586374 0.037911855 -0.0044008577 -0.077768765
000090 1d 70 d2 3d 20 7c c3 bd 87 0f 9e bb 0e 42 40 bd
       0.1027529 -0.09545159 -0.0048236283 -0.046937995

weight f4 [40, 80]
000000 d1 dc 60 bd 25 b7 ae bd d9 02 a6 bd 6d d9 72 bd
       -0.054898087 -0.08531026 -0.08106012 -0.059289385
000010 99 c0 26 be 26 8b f7 bd e6 84 1f be c4 0a 95 bd
       -0.16284408 -0.12087087 -0.1557804 -0.07277444
000020 f9 b7 90 bc cc 84 18 be ea f5 9e 3c f9 53 f9 bd
       -0.01766585 -0.14894408 0.01940437 -0.1217422
000030 25 41 61 bd 1e 65 04 be 52 70 91 bd f5 3e 9a 3c
       -0.054993767 -0.12929198 -0.071015015 0.018828848
000040 7a bb dc 3b e3 ec bd bc 97 cb a0 bd 56 7c 08 be
       0.006736216 -0.023184245 -0.07851332 -0.1332868
000050 af 6a e1 bd 6e 71 62 bd b4 81 df bd ae c6 9c bd
       -0.110066764 -0.055283956 -0.10913411 -0.07655083
000060 cf 19 d4 3a 48 d5 46 bd 5f 2e b1 3c cf 6c 99 bd
       0.0016182008 -0.048543245 0.021628557 -0.07491457
000070 ec 19 05 bb a5 68 f9 bd bc 21 24 be c8 27 86 3d
       -0.002030964 -0.121781625 -0.16028494 0.065505564
000080 0a b5 cc bd 74 8c 76 3c 5e 35 91 3c 7e d7 80 3c
       -0.09995468 0.015048135 0.017725643 0.015727755
000090 ac fd 91 bd 78 3b dd bd 12 60 8b 3d b1 e4 f6 bd
       -0.07128462 -0.108023584 0.06805433 -0.12055338
0000a0 c4 45 f8 bd 04 f7 ed bd 43 3d 6c 3d 6e cc fa bc
       -0.12122682 -0.1161938 0.05767561 -0.030615058
0000b0 ba d4 40 be 5c 45 b5 bc ab e8 ca bd e6 6e 4b bd
       -0.18831149 -0.0221278 -0.09907659 -0.049666308
0000c0 2b 46 2d be c0 df fd 3a 10 e1 45 3d 9b 70 05 be
       -0.16921298 0.0019369051 0.04831034 -0.13031237
0000d0 2d 5b b2 bb a6 5b 86 bd 9c 98 da bc d9 51 f0 3c
       -0.005442998 -0.06560449 -0.026684098 0.029335903
0000e0 0a bf 60 bc 6c 0b 19 be d5 0b d7 bc 50 59 4a bd
       -0.013717422 -0.14945763 -0.02625076 -0.04940158
0000f0 48 2b 1b bd 07 3a 06 3d 65 24 e6 bd 56 5d c7 bd
       -0.037883073 0.032770183 -0.112374105 -0.09734599
000100 eb 42 5a 3d ea fb c5 3c 39 a7 3c 3d c0 ee f9 bd
       0.053286474 0.024167974 0.046057913 -0.12203741
000110 7a 6e 95 bd 74 8e 3c bd 83 b6 89 bc c8 0e 5c bd
       -0.07296462 -0.04603429 -0.016810661 -0.053725034
000120 fc 42 26 3c 5f ba bf bc 66 79 02 be f6 0e 06 be
       0.010147806 -0.023404298 -0.12741622 -0.13091645
000130 79 52 da 3c 6b 16 e7 bd 22 08 f8 bd e1 2c 6a bd
       0.026650654 -0.11283573 -0.12110926 -0.057171706
000140 14 83 00 3b 1c ba 35 3d ba 9a 2e bd da 38 47 bd
       0.0019609379 0.04436694 -0.042628027 -0.048638202
000150 c4 dc 33 3a 43 2c 82 bd 1e 92 c6 3b d5 9a f8 3b
       0.0006861205 -0.063560985 0.006059899 0.007586817
000160 2c aa 85 bd f8 22 85 3c 48 ec f7 bb ef 04 24 bd
       -0.06526598 0.016252026 -0.0075660087 -0.040043768
000170 c4 3c 41 bd 13 73 f6 3c 4c 1e e3 bd 57 10 f8 3c
       -0.04717709 0.030084169 -0.11089763 0.030281229
000180 e0 a4 05 3b f8 83 39 bb 3a 31 b1 3b 8f 70 17 be
       0.0020392463 -0.002830742 0.0054074796 -0.14789031
000190 fa e7 8a bd f9 19 6c bd b2 b0 0a bd d5 a7 be bc
       -0.06782527 -0.057641957 -0.033859916 -0.023273388
0001a0 39 f1 25 be c3 02 a9 bc ab 16 25 bd 9f 8c cc bd
       -0.162053 -0.0206312 -0.04030482 -0.09987759
0001b0 91 f9 de bd bd ac 18 bd e7 18 ef bd 0a b9 c3 bc
       -0.10887445 -0.03727411 -0.116746716 -0.023891944
0001c0 cd 2e 4c bd a7 75 e1 bd 7f 2e 0b be 30 0c 93 bd
       -0.04984932 -0.110087685 -0.13591956 -0.07180059
0001d0 3b 63 97 bd 09 b1 3e 3d 3e a7 27 be b1 16 49 bd
       -0.073919736 0.046555553 -0.16372392 -0.049093906
0001e0 47 ef ac bb da 8b 1e be 15 6f 5d bd 1f b7 d7 bd
       -0.0052775475 -0.15483037 -0.054061014 -0.105329745
0001f0 7a 7f 98 bd bc 86 0c 3d 49 32 41 3d 6b 77 1f be
       -0.07446189 0.03430818 0.047167096 -0.15572898
000200 28 e1 f2 bc 81 a8 10 be b3 88 b2 bd 2e a5 51 3c
       -0.029648378 -0.14126779 -0.087174796 0.01279573
000210 0d df 05 be e0 2d 4e 3c c2 f1 c7 bd 3f ef e9 bd
       -0.13073368 0.01258418 -0.097629085 -0.11422586
000220 a4 06 cf 3c 02 60 f7 3b 8f 2b 2a be 00 03 03 bd
       0.025271721 0.007549287 -0.16618179 -0.031985283
000230 3d 08 5e bd fe 6b f1 bd ff b6 da bd 68 c3 1a ba
       -0.054207075 -0.11788176 -0.10679435 -0.00059037516
000240 a0 2b 87 3b 0f aa 90 bd d2 76 3d bd 38 65 82 bb
       0.0041250736 -0.07063686 -0.046255894 -0.0039793514
000250 89 d2 4a bd b4 7f 32 be b2 a0 58 bd 8a 4b 90 bd
       -0.04951719 -0.17431527 -0.052887626 -0.07045658
000260 e0 3f 61 bd e7 df ce bd 4c d4 12 be c6 db 17 be
       -0.054992557 -0.101013 -0.14338797 -0.1482993
000270 2a 1e 26 be 19 2d 0f be dd fb 88 bc dd 17 0b be
       -0.16222444 -0.13982047 -0.01672166 -0.13583322
000280 5c 50 b4 3b 03 c6 9e 3c 51 56 b2 bc 04 a5 1e 3d
       0.0055027436 0.019381529 -0.021769674 0.03873159
000290 02 d0 32 bc 1f 39 d2 bd b8 3a 7e bc bd 55 c0 bd
       -0.010913851 -0.10264801 -0.015516929 -0.09391353
0002a0 0b f3 74 bc 36 d0 18 be 4a e6 d1 bd 1a 6e 6e 3c
       -0.014950524 -0.14923176 -0.10249002 0.014552617
0002b0 71 fd b8 ba 87 9e 11 be ce aa 1d bd f7 cd 04 be
       -0.0014113617 -0.1422063 -0.03849297 -0.12969194
0002c0 3d a9 d0 3c 12 a6 24 bd 8b 9a 53 bc e4 b2 1c be
       0.025471324 -0.04019744 -0.012915264 -0.15302616
0002d0 bc a1 e7 3c 95 74 76 bd a3 b3 1b be 47 a8 96 bc
       0.028275363 -0.060169775 -0.15205245 -0.018390788
0002e0 f5 e8 f2 3c 70 3b 87 bd 4d 0d 45 3d 50 0c a7 bd
       0.029652098 -0.06603134 0.048108388 -0.08156645
0002f0 f8 37 8d bd 53 d0 0f be d0 c0 08 be 01 ca 9e 3b
       -0.06895441 -0.14044313 -0.13354802 0.004845858
000300 da 3c 34 bd 85 e2 0b be 47 87 0b be 91 8e 6a bc
       -0.044003345 -0.13660629 -0.13625823 -0.014316217
000310 c1 8a 98 bd ec 6a a3 3c c0 ec e1 3b be 0a 7d bd
       -0.0744834 0.019948445 0.006894678 -0.061777823
000320 89 96 13 be b6 11 8c bd ea 1b 31 3d bd d8 29 bc
       -0.14412893 -0.068393156 0.04323951 -0.010366616
000330 80 20 0a bd 35 29 d2 bd a6 27 f9 3c 3d 3e 89 ba
       -0.0337224 -0.10261766 0.030414414 -0.0010470819
000340 73 08 f8 bd 10 c4 38 3d 5f f0 d4 3c 30 fa bc bd
       -0.121109866 0.045108855 0.025993524 -0.09227407
000350 77 c5 e2 bd 41 6d f8 bd af 2b 0a 3c fe 45 96 bd
       -0.1107282 -0.121302135 0.008433267 -0.07337569
000360 70 62 45 bc ef c2 07 be 14 4e d6 bc 2f fd d5 bd
       -0.012047395 -0.13257955 -0.026160277 -0.104486816
000370 96 c0 ab bd 41 d8 f6 3c 8a cc 47 bd f9 3f 54 bd
       -0.08386342 0.030132415 -0.048779048 -0.05181882
000380 9b 97 81 3d 8f df 4c 3c 1f f3 8e bd 04 4c 54 bd
       0.063277446 0.012504472 -0.069799654 -0.051830307
000390 6c 3d c6 bd be 91 8e bd 2e ac 0f 3d ed ed 88 bc
       -0.09679684 -0.06961392 0.035076313 -0.016715014
0003a0 e5 a0 3f 3d 42 b6 a2 3d d7 e6 ba bc d1 19 1e 3d
       0.0467843 0.07944919 -0.022815151 0.03859884
0003b0 e5 a0 77 3d a7 45 12 ba a1 fd d0 bd d7 bc 82 bd
       0.060456175 -0.0005579837 -0.10204626 -0.063836746
0003c0 8d e9 dc bd 00 bd 0c be 34 28 bc bd 17 87 05 be
       -0.10786734 -0.13743973 -0.09187356 -0.13039814
0003d0 9f 96 0b be 62 e5 43 3d ee eb dc bd 03 b1 ba bd
       -0.13631676 0.04782618 -0.107871875 -0.091157936
0003e0 77 96 7d bd 3a b9 25 bd be 64 1b bd 07 70 6a 3d
       -0.061911073 -0.04045985 -0.037937872 0.057235744
0003f0 5f 78 09 bc 99 f7 90 bd ab 15 16 be d4 33 81 bc
       -0.008390515 -0.070784755 -0.14656703 -0.015771784

bias f4 [40]
000000 b4 39 16 bb 7e 9a 4b bc 5a b6 36 be a5 2b 03 be
       -0.0022922577 -0.0124269705 -0.17842999 -0.12809618
000010 21 18 08 be 32 d5 ce bd f8 47 37 be 7e f7 52 bd
       -0.13290454 -0.100992575 -0.17898548 -0.05150556
000020 dc d8 ce bd 6e d3 95 bd 8e a9 20 be a0 82 38 be
       -0.100999564 -0.07315718 -0.1568968 -0.1801858
000030 56 ab 1c be 99 c5 ed bd 0c 7f ff bd fd df 45 bd
       -0.15299734 -0.116099544 -0.12475404 -0.048309315
000040 f5 89 8e bd de 01 a7 bd d9 03 65 bd 00 f5 f0 3a
       -0.06959907 -0.08154653 -0.055911873 0.0018383563
000050 df b7 b9 bc 87 72 a5 bd 03 7c 8e bc 42 1f 0c be
       -0.022670684 -0.08078485 -0.017393118 -0.13683799
000060 52 87 3d be 9e 18 87 bd ea e4 57 3c b2 26 01 3c
       -0.18508652 -0.06596492 0.013177136 0.007882761
000070 ce 35 c2 bd 5f b6 18 be 4c 3e 80 bd 8c 95 3f be
       -0.09482919 -0.14913319 -0.06261882 -0.18709391
000080 e7 8d 64 bd c1 a4 d8 bd 75 9e 36 bd 94 12 3c be
       -0.05579939 -0.10578299 -0.04458471 -0.18366462
000090 f3 85 63 bc 95 aa 88 bd 0e e3 55 bd 81 6a 35 3b
       -0.013886916 -0.06673161 -0.05221849 0.002768189

weight f4 [80, 40]
000000 1a 9a 94 bd f4 81 4a 3b ee 67 e2 3c 0e 91 a3 3d
       -0.07255955 0.0030900212 0.027637448 0.07986651
000010 89 c8 81 bd ce c0 a7 3d ea a0 43 bd 73 a5 b6 bd
       -0.06337077 0.081910715 -0.04776088 -0.08918276
000020 db 19 79 bd f2 66 08 be dd e5 ed 3d 8b a0 e9 3c
       -0.060815673 -0.1332052 0.116161086 0.028518936
000030 2b 90 8a 3d 22 62 2d 3d af b4 52 bd d2 db 53 3d
       0.06765779 0.042329915 -0.051441845 0.05172331
000040 d5 65 9a bd 2b c8 70 bd d7 9f e3 bd 37 23 47 3d
       -0.07538954 -0.058784645 -0.111144714 0.048617568
000050 53 ee 24 3e 7b 95 f0 3d c6 50 11 3e bf d8 3c 3c
       0.16106538 0.11747261 0.14190969 0.011526286
000060 23 c7 b3 3c 99 b8 43 bd c8 18 82 3c e3 43 d7 bd
       0.021945542 -0.047783468 0.015880957 -0.10510995
000070 b4 21 f5 bc 88 34 c0 3d d1 05 ac 3c 3e ff 5a 3c
       -0.029923297 0.093850195 0.020998867 0.013366519
000080 89 2b 2e be 1f 62 c4 3d 31 4b d9 bd 1b 57 2b 3d
       -0.17008795 0.095890276 -0.10610045 0.041831117
000090 9b 87 c0 bd 78 8a 9b bb 6b 90 f7 bd c7 91 9e 3d
       -0.09400865 -0.0047467314 -0.120880924 0.077426486
0000a0 66 86 87 3d 93 91 bc bd 02 0c 81 bd 78 4c ab bd
       0.06617431 -0.092074536 -0.063011184 -0.08364195
0000b0 23 1e fb 3d 88 e8 7a bd 3e d5 01 be 9c b0 79 bd
       0.122616075 -0.061256915 -0.12679002 -0.060959443
0000c0 7a d3 f3 3d 72 64 84 bd 14 d5 10 3e 0e 5a ee 3d
       0.1190557 -0.06464471 0.14143783 0.1163827
0000d0 d9 e3 6a bc c4 cd 9c bc fb 3b 86 3d 7d e1 44 bd
       -0.01433655 -0.019141085 0.06554409 -0.048066605
0000e0 19 18 de bc f6 47 6c bd 78 2c cc 3d ff 98 26 bd
       -0.0271111 -0.057685815 0.09969419 -0.040673252
0000f0 42 9e ae bd 55 f9 09 be b9 64 36 bd 0c d8 95 bd
       -0.08526279 -0.13474019 -0.04452965 -0.07316598
000100 48 46 10 3e 40 37 89 bd 82 d0 01 3e 52 88 94 3d
       0.1408931 -0.06699991 0.12677196 0.072525635
000110 e0 7c 05 be 61 b3 de bc 19 d0 e2 3d a0 e7 0e be
       -0.13035917 -0.027185144 0.11074848 -0.13955545
000120 74 8a e7 3c 6e a0 7d bd 50 61 97 3d 3b 86 04 3e
       0.028264262 -0.061920576 0.07391608 0.1294183
000130 24 30 86 3b 73 62 9e 3d e7 6f a6 3c 61 cd b8 bd
       0.0040950943 0.077336214 0.020317031 -0.09023548
000140 be 52 ab bd 9d 0c d0 3d 13 2e 1f bd e0 6e a8 3d
       -0.08365391 0.10158656 -0.0388623 0.08224273
000150 95 83 64 3d bf fb b2 3c 4e 33 73 3d 95 7f 9b bb
       0.05578955 0.021848558 0.0593751 -0.0047454336
000160 73 e5 87 bd 40 ee d3 bd d1 82 df bb 50 f1 85 bd
       -0.06635561 -0.10348177 -0.0068210145 -0.06540167
000170 62 a9 d2 bd 96 87 8e bd b9 4d 2d bc c6 35 dc bd
       -0.102862135 -0.06959455 -0.010577613 -0.10752444
000180 02 6e af bc 77 f3 e6 bc c7 69 24 3d 38 ea 2c bd
       -0.02141476 -0.028192265 0.04013994 -0.042215556
000190 cc 87 16 3e 0a e4 91 3d 35 75 6b 3d da 2f 0e be
       0.1470024 0.07123573 0.057484824 -0.13885441
0001a0 52 fa ad 3c 52 33 00 be d3 01 d3 3d 24 fe 01 be
       0.021237526 -0.12519577 0.10303082 -0.12694603
0001b0 e5 d7 a4 bc a0 0b 9e 3d e9 b1 26 bd 0f 24 13 be
       -0.020122478 0.07717061 -0.040697012 -0.14369224
0001c0 a6 30 63 3d 2c 61 db 3d c2 b3 54 bd 7a 34 c3 bc
       0.055466317 0.107118934 -0.051929243 -0.023828734
0001d0 ed f9 22 bc c3 5d 01 3e da e1 53 bd 6f 2a 61 3d
       -0.009947282 0.12633424 -0.05172906 0.05497211
0001e0 04 89 6e 3d 76 38 1d 3d b9 8f 0a be 9b 74 96 bd
       0.058236137 0.038383923 -0.13531388 -0.073464595
0001f0 b2 8e f2 bc 7d f3 02 3e 98 eb 89 bd 5e b1 4f bc
       -0.029609058 0.12788196 -0.06734389 -0.012676565
000200 b7 4e 55 3d 9f cd f2 bd 2a f3 7e 3c 97 1d 8a 3d
       0.05207702 -0.11855625 0.0155609045 0.06743925
000210 8f 0d ed bd 78 60 bb 3d 56 ab d7 bd ee dd bf bd
       -0.11574852 0.09149259 -0.105307266 -0.093685016
000220 95 a3 ca 3d 59 ba 15 bc 57 ec 22 be 6a 38 25 3c
       0.09894482 -0.009138667 -0.15910469 0.010084251
000230 16 43 47 bd 98 0b aa bd 66 b8 c0 bd 1b 86 0b 3e
       -0.048647963 -0.083029926 -0.09410171 0.13625376
000240 de bb 23 3e c7 47 ae 3c 95 18 86 bc 6b dc ee bc
       0.15989634 0.02127446 -0.016369144 -0.029157838
000250 d4 e3 f0 bd af 57 c5 3c 5c 6b fc 3d 25 9b b0 bd
       -0.11762205 0.024089662 0.12325165 -0.086233415
000260 61 57 95 3d f0 00 f5 3d e4 9e 07 3e fe 0e 30 3d
       0.07292057 0.119630694 0.13244206 0.042983048
000270 6d 9d 5a bd e6 20 6d bd a2 1c a0 bd 90 56 83 bc
       -0.05337279 -0.057892703 -0.07817961 -0.016032487
000280 33 2a 9f bd ba 27 62 bd d0 bf c5 b9 8f 19 89 3d
       -0.07771721 -0.055213667 -0.0003771768 0.06694328
000290 dc fd 1f 3d 73 83 c4 bd 09 1f bc 3c 34 13 0d 3e
       0.03906046 -0.095953844 0.022964017 0.13776857
0002a0 d8 49 87 bd e4 40 83 3c 35 a4 c1 3c f0 de f5 bd
       -0.066058815 0.016022153 0.02363787 -0.120054126
0002b0 23 35 7c 3d 64 61 f0 bd 3b 63 23 bd 50 6e a0 3d
       0.061574113 -0.11737326 -0.039889555 0.078335404
0002c0 18 e4 25 bc e3 df 14 be a3 d4 36 bd 64 58 20 be
       -0.010125183 -0.14538531 -0.04463638 -0.15658718
0002d0 2c 4f f5 3d b2 0b c3 3d a6 8e 33 3c 26 8f 49 3d
       0.119779915 0.09523715 0.010959303 0.049208783
0002e0 db 36 8b 3c 4b a3 7f 3d 60 10 12 bd c9 79 6c bb
       0.01699393 0.062411588 -0.035660148 -0.0036083332
0002f0 68 5a 01 bc eb 0c ef 3d 51 ca e8 3d 0c 63 59 bd
       -0.00789509 0.11672386 0.11366714 -0.053072974
000300 85 a0 ea bc d9 90 02 be 1a a5 ea 3d f0 e6 00 bd
       -0.028640995 -0.12750567 0.11457272 -0.03147024
000310 be a0 05 3e 52 32 6e bd 30 5d 05 be 73 31 0e be
       0.130496 -0.058153458 -0.1302383 -0.13886051
000320 5a 50 da bd 99 5a e2 3c 84 2f 48 bd 4d 51 82 3c
       -0.10659857 0.027631091 -0.04887344 0.015907908
000330 18 99 66 bd c6 23 15 3d 0e 59 10 3e 3a f4 99 3d
       -0.056298345 0.03641107 0.14096472 0.07517286
000340 70 40 db bd 61 27 a8 bd a9 b0 a7 bd e7 63 06 be
       -0.1070565 -0.08210636 -0.08187992 -0.13124047
000350 01 92 89 bd bc 36 74 3d 6d d5 ed bd fd b3 18 be
       -0.06717301 0.05962251 -0.11612973 -0.1491241
000360 18 7f a7 3d 5b 96 8a bd b7 ab f1 3d 53 13 ca 3d
       0.08178538 -0.06766959 0.1180033 0.09866967
000370 e7 bd 85 3d 2f eb f9 3d d8 ee 9f 3d 63 88 43 3d
       0.065303616 0.12203061 0.07809228 0.04773749
000380 61 8b 2b bd 80 4d 6a 3c 7b 15 57 3c e2 8a a9 bd
       -0.04188097 0.014300704 0.01312768 -0.08278443
000390 ec b7 57 bd 44 a2 12 3e be 1b cd bb b2 34 88 bd
       -0.052665636 0.14319712 -0.0062594106 -0.06650676
0003a0 51 cb 46 3d a4 f0 84 3d dd 2a b4 3d d0 b2 8d bd
       0.04853374 0.06491211 0.08797238 -0.069188714
0003b0 36 f0 84 3d 73 e8 fb bd 62 60 6b 3d 0b c2 76 3d
       0.06491129 -0.123001955 0.057464965 0.060243648
0003c0 a5 e8 ea 3d 7a 68 be 3d 56 22 94 bd 1c 31 25 be
       0.11470155 0.09297271 -0.072331116 -0.16132015
0003d0 a1 e5 0b bc 5c fa 77 3d a7 e8 ba ba af 17 80 bc
       -0.0085386345 0.060541496 -0.001426001 -0.015636293
0003e0 d6 46 10 3d ac c5 f2 3c 52 c1 c2 3d 90 c9 20 3e
       0.035223804 0.029635273 0.09509529 0.1570189
0003f0 77 e1 71 3c 6f b8 ea 3c 15 eb ec 3d f7 eb 01 be
       0.014763228 0.028652398 0.11568276 -0.1268767

bias f4 [80]
000000 82 8f 4d 3d 18 4a ad 3c be 6e 47 be fa eb 53 3d
       0.050185688 0.021153495 -0.19475839 0.051738717
000010 47 2e de bd cd b8 4d 3d 97 3b 3e bd 57 2e ab 3b
       -0.108486705 0.050225068 -0.046443548 0.00522403
000020 e3 de 7f bc e0 cc 12 3e aa b3 bb bd f4 8c ad bd
       -0.015617105 0.14335966 -0.091651276 -0.0847415
000030 09 c5 d6 bd 5d a3 eb bd ed af f2 bd 92 72 31 be
       -0.104868 -0.115057684 -0.118499614 -0.17328861
000040 b2 f7 f1 3d ab e7 4e bc 7b dd 76 3d 9b 67 26 be
       0.11814822 -0.012628476 0.060269814 -0.1625046
000050 43 87 e0 3d df 8e 27 bd b4 48 21 3c 7f c8 79 3d
       0.10963299 -0.040907737 0.009843994 0.060982224
000060 fc bb 88 3d f7 04 66 bd ba e8 01 be e5 b2 aa bd
       0.0667648 -0.05615708 -0.12686434 -0.08334903
000070 df bf da bd 1d 3b 9a bd 4b 10 0c 3a f8 2d fe bd
       -0.10681128 -0.07530806 0.0005343004 -0.124111116
000080 a8 25 13 be f2 c0 09 be 2d b4 81 bd 55 ee 40 be
       -0.14369833 -0.13452509 -0.06333194 -0.18840916
000090 b1 87 be bd 12 95 02 3d 44 0b 48 3d 9c 2f 5c 3c
       -0.09303225 0.031880446 0.04883887 0.013439085
0000a0 4d 29 da bc 89 05 86 3d 37 3d 2b bc cd f9 00 3e
       -0.026631022 0.065440245 -0.0104516065 0.12595291
0000b0 d6 72 33 be 0d 27 cb bd d5 f4 0d 3d eb cd 94 3d
       -0.17524275 -0.09919558 0.03465732 0.07265838
0000c0 5c fe a7 bd 1a 89 51 bc 1d ea e3 bc ac a4 94 bd
       -0.08202812 -0.012789035 -0.027821595 -0.07257971
0000d0 d3 34 e9 3d 04 81 0e be ed 06 90 bd 2e db 33 bd
       0.113870285 -0.13916403 -0.07032571 -0.043910198
0000e0 1e 24 ad bd bb 1a 1a 3e 89 ff 2b 3d e0 69 41 3d
       -0.084541544 0.1504926 0.041991744 0.04722011
0000f0 9b 8b 06 be 4b 25 d4 3d 70 76 e3 3d 1a 25 ac bd
       -0.13139193 0.103586756 0.111065745 -0.08405514
000100 e4 ca f6 3c cf 91 98 bc 47 1b e8 bd a5 a6 24 be
       0.030126043 -0.018624214 -0.11333328 -0.16079195
000110 f3 50 85 3b 53 1e e6 bd 3b 9b 88 bd 8b 20 dc 3d
       0.004068488 -0.11236253 -0.06670233 0.107483946
000120 72 01 1d be 62 a0 79 bc be 69 00 bd 51 f5 f6 bd
       -0.15332583 -0.015235992 -0.031350844 -0.12058509
000130 42 5c 89 3d 9f f3 62 bd 9c 89 23 be 4c 6e 07 3e
       0.0670705 -0.055408116 -0.15970463 0.13225669

weight f4 [5, 80]
000000 24 c3 33 bc 74 ff 11 3c 36 b8 61 3d ad 1e 8b 3d
       -0.010971818 0.008911002 0.055107318 0.0679296
000010 6a d6 4a 3d 28 f0 d2 bc 7b 8e 18 bc 08 e5 6a bd
       0.049520887 -0.025749281 -0.009311314 -0.057347327
000020 9c 05 a3 bd 49 b1 80 bc 9d a4 9e bd 11 08 fa bc
       -0.07960054 -0.015709536 -0.07746241 -0.030521424
000030 d2 89 5c 39 a8 21 2e bd dc 18 07 3d e1 91 8d bc
       0.00021032177 -0.042512566 0.032982692 -0.017281475
000040 ca 8a 24 bd 43 cc 88 3d 4e 76 c2 bc fc 15 6f bd
       -0.040171422 0.06679585 -0.023738053 -0.058370575
000050 e1 76 36 3d ae c2 87 bd a3 59 f6 bc 92 bf 35 3d
       0.044546966 -0.06628929 -0.030072039 0.04437215
000060 71 5d 49 3c ee b1 bc 3b 81 f6 7d 3c 20 00 b4 3b
       0.012290345 0.0057585156 0.015500666 0.005493179
000070 90 a2 82 bd ef 2f 52 3c 18 c6 12 3d ee b8 27 3c
       -0.063786626 0.012828811 0.03583345 0.010236962
000080 64 81 1c 3d 7a 5e ab 3c 1c f0 73 bc 92 c5 2e 3d
       0.038209334 0.020919073 -0.0148887895 0.042668886
000090 4d f2 82 bc d4 61 17 bd ac d1 68 bd cd 94 e8 ba
       -0.015984679 -0.03695853 -0.056840584 -0.0017744541
0000a0 fd aa 0a bd 98 46 d3 bc 07 4c 20 3d cd 81 89 3d
       -0.033854473 -0.025790498 0.039135005 0.06714211
0000b0 b4 33 b2 3b f2 63 dc bc 23 24 8d bc 66 30 4e 3c
       0.0054382924 -0.026903126 -0.017229145 0.012584781
0000c0 7c af 88 3d b5 7d b2 3c 63 91 e6 bc d3 f0 65 3d
       0.06674096 0.021788457 -0.028145498 0.05613787
0000d0 8a 3c 54 3d 7c 4f 20 bd 87 c8 aa bc b7 a8 33 3d
       0.051815547 -0.039138302 -0.020847572 0.04386207
0000e0 a4 3d 25 bd 0d a0 a8 bc 4c ba fb 3c 88 af 1c bc
       -0.04034199 -0.02058413 0.030728482 -0.009563334
0000f0 89 86 fb 3c 4c fb 63 bd 5f b7 8c 3d 46 ed 95 3d
       0.0307038 -0.055659577 0.06870913 0.07320647
000100 9f 62 07 bd 52 be 17 bd 36 66 41 bd 37 8a 7f 3d
       -0.033053037 -0.037046738 -0.047216617 0.06238767
000110 74 33 46 bd 14 a1 9a bb db bf f0 3a 56 0c 78 bc
       -0.048388913 -0.004718909 0.0018367724 -0.01513966
000120 cc 03 d2 bc fe 4b 3f bd 67 7b 65 3d 96 18 9b 3d
       -0.025636576 -0.04670333 0.05602589 0.07573049
000130 61 e6 0c 3d 79 70 d1 3b 3d 18 ec bc fb 80 91 bd
       0.034399394 0.0063915816 -0.028820151 -0.07104679
000140 a4 62 2f bd 0c c8 3e 3b df cf 67 3d 92 6b 51 bd
       -0.04281868 0.0029110936 0.056594726 -0.051127978
000150 e3 97 84 bc 64 aa 23 bd 42 c1 55 bb 48 11 80 bc
       -0.016185706 -0.03995742 -0.0032616411 -0.01563324
000160 20 84 24 3d 2d 37 92 bc ed 82 c1 3d 81 00 24 bd
       0.040165067 -0.017848575 0.094488 -0.040039543
000170 e1 04 2f 3d 6e d8 c5 bc a4 9c 6a bd 7e af 28 3d
       0.042729262 -0.024151053 -0.05727829 0.041182987
000180 d6 a5 7c 3c 21 5d 62 bd 34 58 4f bd 4c c5 b4 bc
       0.015420398 -0.055264596 -0.050621226 -0.022066735
000190 58 c5 a6 bc 5c 7b 09 3d bf 62 5f 3d bf 08 1e 3d
       -0.020357773 0.03356491 0.05453753 0.03858256
0001a0 9f 16 38 3c a0 c5 50 3d de 81 f8 bc 31 69 0f bd
       0.011235862 0.05096972 -0.030335363 -0.035012428
0001b0 3e 19 9c bd 64 e9 34 bc f2 8f b5 bb 99 80 48 bc
       -0.07622002 -0.011041973 -0.0055408413 -0.012237691
0001c0 90 78 df bb a0 2c 9d 3d f5 d1 02 bd 1f 0f 34 bc
       -0.006819792 0.07674527 -0.031938512 -0.010989933
0001d0 8a 48 2f bd 7d 35 de bc fa 25 db 3b 0d dc cc 3c
       -0.042793788 -0.027125115 0.006687877 0.025007272
0001e0 19 b3 87 3c bb 8d 5d 3d 16 f4 91 3d ac 1c ce bc
       0.016564893 0.054090243 0.07126634 -0.025160156
0001f0 1e ca 4c 3d b7 3c 25 bd 1a 85 74 bc d2 80 d5 3b
       0.04999744 -0.040341105 -0.014924312 0.0065156007
000200 63 a5 fa bc 74 bf 70 bc 4d b6 d7 3c 7f b7 0a 3d
       -0.03059644 -0.0146940835 0.026332045 0.0338664
000210 fc 98 1b bd 00 1c 4d bd a2 7a c7 3d 3e 85 a5 bc
       -0.037987694 -0.05007553 0.09740187 -0.020205136
000220 2b e8 71 bd cf bf 9a bc 23 6b c0 bc 8e d6 37 3d
       -0.059059303 -0.01889029 -0.023488587 0.04488235
000230 03 39 eb bc 98 c2 1b 3d 50 c7 f4 bc 81 11 46 3d
       -0.028713709 0.038027376 -0.029880196 0.048356537
000240 94 40 e7 3c b7 c1 cc bb 63 47 b9 ba c6 8a 76 bd
       0.028229035 -0.0062486785 -0.0014135655 -0.06019094
000250 e4 e2 0f bd 7a 72 0e 3c 2e 85 00 bd d0 ff 84 bd
       -0.03512849 0.0086942855 -0.03137701 -0.06494105
000260 d8 3b 25 3d 27 c6 05 3d ef 1d 56 3d 32 4f 22 3c
       0.040340275 0.032659676 0.05227464 0.009906577
000270 21 4f 44 bd df 61 a6 bb 62 c9 07 3d 04 67 83 3d
       -0.047927026 -0.005077585 0.033151038 0.06416133
000280 9e 64 85 bd 79 e6 0e bd b8 f8 9f bc cc ba 8e 3d
       -0.06513332 -0.034887765 -0.019527778 0.069692224
000290 4c 4c ca 3b db cc 77 3c 0e 10 1b bd 51 1e dc bc
       0.006173646 0.015124525 -0.037857108 -0.026869925
0002a0 f3 65 8e bd 70 23 84 3c 8d fb 88 bc 9e 06 73 3d
       -0.06953039 0.01613018 -0.016721511 0.059332483
0002b0 32 b4 5e bc 33 48 6a 3d a6 87 78 3d 41 f7 10 3c
       -0.013592767 0.05719776 0.06067624 0.008848012
0002c0 3c 02 96 bb 7e 68 5e 3d 28 44 19 bc 92 fb e2 bc
       -0.004577903 0.05429887 -0.009354629 -0.027707849
0002d0 56 0a 4f 3d 2c 9f 9a bd f7 2e d2 bc b9 20 63 3c
       0.050546966 -0.07549891 -0.02565716 0.013862782
0002e0 55 24 0e 3d da b9 98 bd df dd 94 3c 49 2b 71 3c
       0.034702618 -0.07457323 0.018172203 0.014719793
0002f0 f4 f0 94 3d 55 4b 46 3d ef 15 70 3d b2 c0 a2 bd
       0.07272521 0.048411686 0.058614668 -0.0794691
000300 dd c2 f1 3c f8 1b 16 3d 36 27 c9 b9 33 0c 6b 3c
       0.029511863 0.036647767 -0.00038366922 0.01434617
000310 fe 87 39 3d 08 78 68 bd 26 f2 1a 3c 0f f1 2b bd
       0.045295708 -0.056755096 0.009457147 -0.04197794
000320 6b 89 c7 3d 31 c8 42 bc b6 dc 53 3d 52 44 86 3d
       0.09743007 -0.01188855 0.05172416 0.06556
000330 0d 62 14 bd 09 79 8a 3d ed d5 0d 3d bc 2c b6 bc
       -0.03622632 0.06761367 0.034627844 -0.022238128
000340 82 5b 6b bd ed 2d b8 bc d6 eb 0f bd 81 c6 ae bc
       -0.057460316 -0.022482837 -0.03513702 -0.021334888
000350 7b 96 21 bd 8b 86 76 3c 5f d8 55 bd 6f 0c 9f bc
       -0.03945015 0.015046726 -0.0522083 -0.019415108
000360 6f 2f bd 3a 15 29 9f 3d e2 64 57 3d e0 d9 db 3c
       0.0014433692 0.07771508 0.052586444 0.02683729
000370 8c a8 5b 3c e4 9c a1 3d 8c 82 65 bc 01 79 92 3d
       0.013406884 0.07891253 -0.014008176 0.07151986
000380 06 d7 36 3b a4 4e 45 3d 8e 68 82 3c bc 82 14 ba
       0.002789916 0.0481707 0.015918996 -0.0005665233
000390 e4 a2 04 bd 49 03 5c bb bb 36 aa 3b 32 03 a3 3d
       -0.032381907 -0.0033571294 0.0051945127 0.07959594
0003a0 dc 86 8c bd aa dd 13 3d e0 26 0a bd f4 d6 5a bd
       -0.0686166 0.036100067 -0.03372848 -0.05342765
0003b0 b6 84 0f bd d0 bf 8b bb eb 87 16 bd e1 ff 44 3c
       -0.035038672 -0.004264809 -0.036750715 0.012023897
0003c0 3f 17 32 bc 11 ad 70 3d f2 0c ce 3c eb a8 88 bd
       -0.0108698 0.0587588 0.025152657 -0.066728435
0003d0 0a d8 aa 3c d3 84 96 bc 6d b6 7c bd a2 e4 23 3d
       0.020854969 -0.018373882 -0.061697412 0.040012963
0003e0 43 fb 4c 3d 12 c3 3e 3c 78 e9 61 bb ba 47 71 3c
       0.05004431 0.011643188 -0.0034471434 0.014726574
0003f0 ce 18 5e bd a7 76 ac bb 0c b6 80 bc 8d 0c 35 bc
       -0.054222874 -0.005263168 -0.015711807 -0.011050356

bias f4 [5]
000000 72 63 87 3c 1f ef 00 3d 59 ad 15 bd 3f 7d 42 3c
       0.016526911 0.031478044 -0.03654227 0.011870681
000010 26 21 06 3d
       0.032746457
