final_project/mlruns/3/8c7e2e72a7a5444b9ba51613ed8546bf/artifacts/cvae_9/data/model.pth (torch, 48391 bytes, 10 tensors)

weight f4 [80, 11]
0	0x3e1d16df	0.15340756
1	0x3e8648ae	0.26227325
2	0xbe90e900	-0.28302765
3	0xbe8d4995	-0.275952
4	0xbd47b987	-0.048760917
5	0x3e32b529	0.1745192
6	0x3b7ae59a	0.0038283826
7	0xbe50138d	-0.20319958
8	0xbdbe9644	-0.09306005
9	0x3ea1b204	0.31581128
10	0x3e8ffaf1	0.2812114
11	0xbe511251	-0.20417143
12	0xbe2ee624	-0.17079979
13	0xbc89aeb1	-0.016806932
14	0x3e73118b	0.23737161
15	0xbdfe6abc	-0.12422702
16	0x3e9b7674	0.3036381
17	0xbe3a06e3	-0.1816669
18	0x3e8cce15	0.27500978
19	0x3d237153	0.039902996
20	0x3d1329eb	0.035928648
21	0xbe0a115f	-0.13483189
22	0xbde0317c	-0.109469384
23	0xbe5a8f66	-0.21343765
24	0xbe9d792a	-0.30756503
25	0xbe58c812	-0.21170071
26	0x3e8e5102	0.2779618
27	0x3e45fe91	0.1933539
28	0xbe7c0b37	-0.24613653
29	0x3e85e1fa	0.2614897
30	0x3e15575f	0.1458411
31	0xbe95843e	-0.29202455
32	0xbe8b7a39	-0.27241686
33	0x3de58fa0	0.11209035
34	0xbe727a72	-0.23679522
35	0x3e5c7ad0	0.21531224
36	0x3de961eb	0.113956295
37	0x3dc8d60f	0.098064534
38	0x3e8e174c	0.2775215
39	0xbdd561e1	-0.104190595
40	0x3e6031bc	0.21893972
41	0xbdc12439	-0.09430737
42	0xbcee0e8c	-0.02905967
43	0x3def2fa5	0.11679009
44	0xbe543df3	-0.20726757
45	0xbe1db26e	-0.15400097
46	0x3d86102e	0.06546055
47	0xbcb22517	-0.021746201
48	0xbe321371	-0.17390229
49	0xbe823064	-0.25427544
50	0x3dc7fcf0	0.09765041
51	0xbdf333a6	-0.118750855
52	0xbe197479	-0.14985837
53	0xbe2a6b8d	-0.1664259
54	0x3e9728ad	0.2952322
55	0x3e463814	0.1935733
56	0xbdb00cdd	-0.085962035
57	0xbd09406a	-0.033508696
58	0xbdf9a52b	-0.121897064
59	0xbd8bba1b	-0.06822606
60	0x3ddf0f9b	0.108916484
61	0xbd906cbd	-0.0705199
62	0x3d7dd9e4	0.061975375
63	0xbe5f37f7	-0.21798693
64	0xbd0b7a84	-0.034052387
65	0xbcaf8856	-0.021427315
66	0xbea0bb68	-0.3139298
67	0x3d3b714d	0.04576235
68	0x3dca2a5c	0.09871361
69	0x3e6fe462	0.23426965
70	0x3e81f3e7	0.25381395
71	0xbd288979	-0.04114673
72	0xbe0de6c2	-0.13857558
73	0x3ddbc3d3	0.1073071
74	0x3e372213	0.17884092
75	0xbe537996	-0.2065185
76	0x3d13ab1b	0.03605185
77	0xbd66d389	-0.05635408
78	0xbe9909e0	-0.29890347
79	0xbce8d1d7	-0.028420372
80	0xbe7e5875	-0.24838431
81	0x3eb0b892	0.34515816
82	0x3d33aec2	0.043867834
83	0x3e44d0f4	0.19220334
84	0x3def8ae1	0.11696411
85	0xbd106c96	-0.035259806
86	0xbd943b3b	-0.0723786
87	0xbdb375f9	-0.08762736
88	0x3d9f366f	0.07774054
89	0x3d54dd0a	0.05196861
90	0xbe1eb362	-0.15498117
91	0xbe5f4677	-0.21804224
92	0x3dfa8d6d	0.12234006
93	0xbd026496	-0.031834207
94	0x3dd78846	0.10524039
95	0x3e987838	0.2977922
96	0xbd0d61d8	-0.03451714
97	0xbcb902d6	-0.02258436
98	0x3deb7be4	0.1149824
99	0x3ea507d9	0.3223255
100	0x3e115946	0.14194211
101	0xbda7a9bf	-0.081866734
102	0xbdf01afd	-0.117238976
103	0xbdf3d850	-0.11906493
104	0xbe491a23	-0.19638877
105	0x3e8b9dfb	0.27268967
106	0x3e858287	0.26076147
107	0xbe53f51d	-0.20698972
108	0x3d85f869	0.06541521
109	0xbe841df6	-0.25804108
110	0xbe17b1c9	-0.14813913
111	0x3e68a9ac	0.22720975
112	0xbe20a04b	-0.15686147
113	0x3e35d7bd	0.17758079
114	0xbda2ba3f	-0.0794568
115	0x3e677aeb	0.22605483
116	0x3e92c519	0.28666
117	0x3c5d5c37	0.013510755
118	0x3db1c870	0.086808085
119	0xbea09e4b	-0.31370768
120	0xbe7cd730	-0.24691463
121	0x3e2dfb04	0.16990286
122	0x3e5a0a11	0.21292903
123	0xbe985ae0	-0.29756832
124	0xbe76b209	-0.24091353
125	0x3e178789	0.14797796
126	0x3e69831e	0.22803923
127	0xbd5f2328	-0.054476887
128	0x3e83d755	0.25750223
129	0xbe451bdc	-0.19248909
130	0xbe8d70b2	-0.27625042
131	0xbe58d7f9	-0.21176137
132	0x3e060bcb	0.13090436
133	0xbe856735	-0.26055303
134	0xbea1199d	-0.31464854
135	0x3e716f64	0.23577648
136	0x3ea8aa0b	0.32942232
137	0x3d15bbb1	0.03655595
138	0x3dfa2ffa	0.12216182
139	0xbde053f8	-0.10953516
140	0xbe7b1070	-0.24517989
141	0xbe23eea1	-0.16008998
142	0xbe0a3b0a	-0.13499084
143	0xbde024d3	-0.10944524
144	0x3e298f60	0.165586
145	0x3e83865f	0.25688455
146	0x3dd0b022	0.10189845
147	0x3e6593af	0.22419618
148	0xbd8ba31a	-0.068182185
149	0x3e1b806a	0.15185705
150	0x3aae267c	0.0013286616
151	0x3e930ae0	0.28719234
152	0x3e0256bf	0.12728404
153	0x3d82c9a3	0.063861154
154	0xbe2b5b8d	-0.16734143
155	0xbe69b053	-0.22821169
156	0x3e67779f	0.22604226
157	0x3e16b3d7	0.14717041
158	0xbe87a1e2	-0.26490694
159	0xbe7ec812	-0.24881008
160	0xbded1eb6	-0.11578123
161	0x3ea23330	0.31679678
162	0xbe59efb5	-0.21282847
163	0x3e004f1c	0.12530178
164	0xbe62b5e0	-0.22139692
165	0xbce0b529	-0.027430134
166	0x3d6ba995	0.057534773
167	0x3e3cf3df	0.18452404
168	0x3da6d839	0.0814671
169	0x3d3b7a7f	0.04577112
170	0x3e817e6a	0.2529176
171	0x3e34947f	0.17634772
172	0xbe9f2123	-0.3107997
173	0x3e969e41	0.29417613
174	0xbdb1c223	-0.08679607
175	0x3dfcc361	0.12341953
176	0xbe84b23a	-0.25917226
177	0xbd0cc8af	-0.034371074
178	0x3e5c0566	0.21486434
179	0x3e6cacbd	0.2311277
180	0xbdfd66fb	-0.123731576
181	0x3e6c8b2c	0.23099965
182	0x3d322203	0.043489467
183	0xbe69fb1b	-0.22849695
184	0x3d853695	0.06504551
185	0xbe4d82cd	-0.20069428
186	0x3e724549	0.23659243
187	0xbe2dd73f	-0.16976641
188	0xbd5fb885	-0.05461933
189	0x3df9fee1	0.122068174
190	0xbdca7502	-0.09885599
191	0xbe2c3d86	-0.16820344
192	0x3e2d577c	0.16927904
193	0x3dd84ffe	0.10562132
194	0xbe6b9a71	-0.23008133
195	0x3e024f2b	0.12725513
196	0x3de22e2e	0.11043964
197	0x3e4b0553	0.1982625
198	0xbd6c7d98	-0.057736963
199	0xbdbc3371	-0.09189499
200	0xbdc8dad7	-0.098073654
201	0xbdc91b84	-0.09819701
202	0xbda282db	-0.07935115
203	0x3bd57503	0.006514193
204	0xbe02731d	-0.12739225
205	0xbd3cca59	-0.04609141
206	0x3e5c3f1a	0.21508446
207	0xbe0ff454	-0.14058048
208	0x3df5b9c3	0.11998322
209	0x3e3bed74	0.183523
210	0x3bba00c0	0.005676359
211	0xbdfa9cd1	-0.122369416
212	0xbe67983a	-0.22616664
213	0x3ca5892c	0.02020701
214	0x3e8aa234	0.27076876
215	0xbe690701	-0.22756578
216	0x3dc02d10	0.09383595
217	0x3cb269e5	0.02177901
218	0x3e3f4cf9	0.18681706
219	0x3e5e1bc8	0.21690285
220	0x3d9b5ee0	0.07586455
221	0x3b83900b	0.004014974
222	0xbd7bb66c	-0.061453268
223	0x3e019258	0.12653482
224	0xbd361912	-0.044457503
225	0xbe190123	-0.1494184
226	0xbd3a430d	-0.0454741
227	0xbd6ec942	-0.058297403
228	0x3e5d05ad	0.21584196
229	0xbe7f6b3d	-0.24943252
230	0x3e834c6a	0.25644237
231	0xbd328cc0	-0.04359126
232	0x3dfbe24a	0.122990206
233	0x3dddb3b1	0.10825289
234	0x3d42eacd	0.047587205
235	0x3e9aa3da	0.30203134
236	0xbea3515f	-0.3189802
237	0x3c0b9438	0.008519225
238	0x3e841715	0.2579886
239	0x3df75242	0.12076236
240	0x3e3345c0	0.17507076
241	0x3e041583	0.12898831
242	0xbe7e85ef	-0.24855779
243	0x3e369a90	0.17832398
244	0x3e778093	0.24170141
245	0x3e218c4c	0.15776175
246	0xbe284303	-0.16431813
247	0xbe49f857	-0.1972364
248	0xbe14e3d0	-0.14540029
249	0x3df50fba	0.1196589
250	0x3e3ba810	0.1832583
251	0x3ea780d0	0.32715464
252	0x3e8d8838	0.2764299
253	0xbe59f62a	-0.2128531
254	0x3e205087	0.15655719
255	0xbe588b9b	-0.21147005

bias f4 [80]
0	0x3ebd6d02	0.3699723
1	0xbe5962b3	-0.21229057
2	0x3b5e2cea	0.0033901283
3	0xbdbfe8c4	-0.093705684
4	0x3ebf5abe	0.37373918
5	0xbcf1be23	-0.02950961
6	0xbe306e4c	-0.17229575
7	0x3e6d6f3a	0.23186961
8	0xbe5c5302	-0.2151604
9	0xbdc52f7f	-0.096282
10	0x3cc9f39a	0.024652291
11	0x3e9bc7c8	0.30425858
12	0x3e7ffc5b	0.2499861
13	0xbe7a32dd	-0.24433465
14	0x3f03a0d8	0.51417303
15	0x3e86a82e	0.26300186
16	0xbd69690c	-0.056984946
17	0x3e5bed82	0.21477321
18	0xbe308619	-0.17238654
19	0xbdbd5f00	-0.092466354
20	0x3e436ba2	0.19084027
21	0xbd8fe71b	-0.07026502
22	0x3eb61d19	0.35569075
23	0x3e9cc97e	0.30622476
24	0xbe5ada48	-0.2137233
25	0x3ea19646	0.31559962
26	0xbaaec7b0	-0.0013334658
27	0xbe94af06	-0.29039782
28	0x3ed746b7	0.4204614
29	0x3da76c90	0.081750035
30	0x3e2c268c	0.1681158
31	0xbe6c1842	-0.23056129
32	0xbe0cfa8f	-0.13767456
33	0xbe38b80d	-0.1803896
34	0xbe8b1c5b	-0.2717007
35	0x3e9d7eb5	0.30760732
36	0x3eb81d10	0.35959673
37	0xbdb97eb6	-0.09057371
38	0x3ed2a706	0.41143054
39	0x3ee0a85f	0.43878457
40	0x3d5459a6	0.051843308
41	0x3e5557fe	0.20834348
42	0xbe325805	-0.1741639
43	0xbd33b9ec	-0.04387848
44	0xba87c1d4	-0.0010357448
45	0x3ee5c9d6	0.4488055
46	0xbe3e6651	-0.18593718
47	0xbc3551a1	-0.011066825
48	0x3ee3f4b7	0.4452264
49	0x3ea272ac	0.31728113
50	0xbe0f2756	-0.13979849
51	0xbe493a42	-0.1965113
52	0xbbc69758	-0.006060522
53	0x3e824eda	0.25450784
54	0xbdb5612e	-0.08856426
55	0x3e7da705	0.24770744
56	0xbe9c22af	-0.3049521
57	0xbd0c81a2	-0.034303315
58	0xbd081728	-0.03322521
59	0xbe8cb09e	-0.27478498
60	0x3ee522ec	0.44753206
61	0xbe518997	-0.20462643
62	0x3d586636	0.05283185
63	0x3eb65de7	0.35618517
64	0xbe2a06cf	-0.1660416
65	0xbd1f85e1	-0.038946036
66	0x3ebb9077	0.36633655
67	0xbe021a13	-0.12705259
68	0x3ed04c6a	0.406833
69	0xbc6b40e3	-0.014358732
70	0x3ec61adb	0.38692364
71	0xbdf7a737	-0.120924406
72	0x3eb9ecc1	0.3631344
73	0x3ef09e2f	0.46995685
74	0xbc8e53ad	-0.017373884
75	0xbe8d75cd	-0.27628937
76	0x3efd64e6	0.49491042
77	0x3ebea67c	0.37236392
78	0xbe054664	-0.13015133
79	0xbe03ad19	-0.12859

weight f4 [40, 80]
0	0xbd1fd7e8	-0.039024264
1	0xbb115412	-0.0022175354
2	0xbdaefbf9	-0.08544154
3	0xbd09c7a4	-0.033637658
4	0xbd9a6e51	-0.075405724
5	0xbd9fcf00	-0.07803154
6	0xbde1ae97	-0.110196285
7	0xbc86f858	-0.016475841
8	0x3d8f9eb0	0.07012689
9	0xbd2cbd0f	-0.042172488
10	0x3b19e4b5	0.0023482267
11	0xbd1f5a2a	-0.038904347
12	0x3db172cd	0.08664475
13	0xbdbaad98	-0.09115142
14	0x3cb6f3af	0.022332994
15	0x3de0ec5c	0.10982582
16	0xbba1ea6f	-0.0049412767
17	0xbba2bd7d	-0.0049664364
18	0xbdd38187	-0.1032744
19	0x3d5da3a0	0.054111123
20	0xbd133518	-0.035939306
21	0x3bede920	0.0072604567
22	0x3db688cf	0.08912813
23	0xbd2cbcb2	-0.04217214
24	0x3d8442e6	0.06458072
25	0xbe030b10	-0.12797189
26	0xbc8486da	-0.016177583
27	0x3df9532b	0.12174066
28	0xbcb92e9b	-0.022605231
29	0x3da75e64	0.081723005
30	0xbd981eec	-0.07427773
31	0x3d1fad3d	0.038983572
32	0x3da2c9f4	0.07948676
33	0xbc859622	-0.01630694
34	0xbc662874	-0.014047731
35	0x3d96213d	0.073305584
36	0x3d46e01c	0.04855357
37	0x3d51edb1	0.05125207
38	0xbc7e1b63	-0.015509459
39	0xbd0391f2	-0.032121606
40	0xbda8501c	-0.08218405
41	0xbd3ace84	-0.045607105
42	0x3dcc62c8	0.099797785
43	0x3d4a257b	0.04935215
44	0xbdb25135	-0.08706895
45	0xbd3cadc0	-0.04606414
46	0xbd7e0670	-0.062017858
47	0x3db36ca9	0.0876096
48	0xbb87956d	-0.004137686
49	0xbc3efbe1	-0.011656732
50	0xbd601979	-0.054711793
51	0xbb934c39	-0.0044951704
52	0xbd21b6c6	-0.039480947
53	0xbe02da39	-0.12778558
54	0x3db4dbb9	0.08830971
55	0xbca01995	-0.019543448
56	0xbd85ffeb	-0.06542953
57	0xbda74402	-0.08167268
58	0x3d6348ef	0.055489477
59	0xbdcfa894	-0.101395756
60	0x3daa9ad5	0.08330313
61	0x3cf9fa4a	0.030514855
62	0x3d9cff01	0.07665826
63	0xbba98a56	-0.0051739616
64	0xbd7a222a	-0.061067738
65	0xbd73e5c0	-0.05954528
66	0x3b9a124b	0.0047018877
67	0x3d7430e8	0.059616953
68	0x3d99c537	0.07508319
69	0xbde74588	-0.11292559
70	0xbddfc47f	-0.109261505
71	0xbdab309e	-0.08358882
72	0x3d995fea	0.07488997
73	0xbd86080b	-0.06544503
74	0x3def1c7d	0.116753556
75	0xbd929538	-0.071573675
76	0xbd776ea6	-0.060408257
77	0xbdc757d7	-0.09733551
78	0xbdcca9aa	-0.09993298
79	0xbd4fd36e	-0.050738744
80	0xbdfa4502	-0.122201934
81	0x3dbd9d84	0.09258559
82	0x3d1effa6	0.038818024
83	0xbdc525d5	-0.096263565
84	0x3daed57b	0.08536812
85	0xbcdb768f	-0.026789932
86	0x3d84b682	0.06480123
87	0x3b8c9a8c	0.0042908844
88	0xbd86a858	-0.06575078
89	0x3d3e5cc6	0.046475194
90	0x3d314f4e	0.04328852
91	0x3da922fd	0.082586266
92	0xbd9b2aad	-0.07576499
93	0xbdb671aa	-0.089083984
94	0x3d74b66f	0.059744295
95	0x3d552a7b	0.052042466
96	0xbcef2bc2	-0.02919567
97	0xbd687727	-0.056754258
98	0xbc259ce9	-0.010108211
99	0x3d86dff8	0.065856874
100	0xbd845663	-0.064617895
101	0x3ced7229	0.0289851
102	0xbacc560a	-0.0015589606
103	0xbd863b02	-0.065542236
104	0x3da026b6	0.078198835
105	0xbda6b466	-0.08139877
106	0x3d7d6c23	0.061870705
107	0x3ced74fa	0.028986443
108	0x3db26b4f	0.08711874
109	0x3d86c28d	0.06580076
110	0xbd3beece	-0.04588204
111	0xbca750b1	-0.020424219
112	0xbd968415	-0.073494114
113	0x3d99a25a	0.07501669
114	0x3db7bf09	0.08971984
115	0x3c380318	0.011231206
116	0xbca8ad74	-0.020590521
117	0xbc856b2e	-0.016286459
118	0x3d90d456	0.0707175
119	0xbd8c3ada	-0.068471625
120	0xbdcf5ca2	-0.1012509
121	0xbde1cee5	-0.1102579
122	0xbac9ee32	-0.0015406071
123	0xbdbc7568	-0.09202081
124	0xbc9ec009	-0.019378679
125	0xbbe9f42f	-0.0071397047
126	0x3d1cc1ab	0.038270634
127	0xbd9a27cd	-0.07527123
128	0xbd235784	-0.039878383
129	0xbd94a40d	-0.07257853
130	0xbdd5e7bb	-0.1044459
131	0xbd9377db	-0.07200595
132	0x3da8ada1	0.08236242
133	0x3da78efc	0.08181569
134	0xbd82d72b	-0.06388696
135	0xbde7df47	-0.11321884
136	0x3bf5cd70	0.0075012967
137	0x3cabfa7a	0.02099346
138	0x3ccd70b1	0.02507815
139	0xbdc171eb	-0.09445556
140	0xbd0daa82	-0.034586437
141	0xbd935b45	-0.07195143
142	0x3c402df0	0.011729702
143	0xbdf1c277	-0.11804669
144	0xbcf99447	-0.030466212
145	0x3dcaa2b9	0.09894318
146	0xbde3a208	-0.111148894
147	0x3da4715f	0.08029436
148	0x3d44d742	0.04805685
149	0x3d4bebc2	0.049785383
150	0x3d3c6d3a	0.046002604
151	0xbbadcd4e	-0.0053040152
152	0x3d5c7543	0.053822767
153	0x3c4f80e8	0.012665011
154	0xbd9c7a89	-0.07640559
155	0x3d91f97f	0.07127666
156	0x3d2c2c61	0.04203451
157	0x3d61ca19	0.055124376
158	0x3da7dc47	0.081963114
159	0x3ca7a7dc	0.020465784
160	0x3d9a1f1a	0.075254634
161	0xbd5f9fc0	-0.05459571
162	0x3dd53d45	0.10412077
163	0xbce86dad	-0.02837261
164	0xbd94a3ef	-0.0725783
165	0x3d249874	0.040184453
166	0x3d48f573	0.049062204
167	0x3c3a6d5a	0.0113786105
168	0xbd33e14c	-0.04391603
169	0x3d1cdb23	0.038294923
170	0xbdd17c08	-0.10228735
171	0x3d3eb352	0.046557732
172	0x3d22f21d	0.03978168
173	0x3d3904ea	0.045170702
174	0xbd17f030	-0.037094295
175	0xbcefd4fd	-0.029276365
176	0x3ce3bc77	0.027799828
177	0xbdd52e07	-0.1040917
178	0x3d056b21	0.03257287
179	0xbd2d4667	-0.04230347
180	0xbd7f471e	-0.062323682
181	0x3cbdfc85	0.0231917
182	0x3d78c05a	0.060730316
183	0xbd05af54	-0.03263791
184	0xbdbbbd70	-0.09166992
185	0xbc228136	-0.009918502
186	0x3d13a9bb	0.03605054
187	0x3d52e9c7	0.05149248
188	0x3d76d845	0.060264844
189	0xbd53bf68	-0.05169621
190	0xbd1ebe74	-0.03875585
191	0x3d3d2191	0.04617459
192	0x3d433c25	0.04766478
193	0xbd9202a5	-0.07129411
194	0x3d89ea4a	0.0673414
195	0x3ddabe1c	0.10680792
196	0xbddd3fa2	-0.108031526
197	0xbd73d66a	-0.059530653
198	0xbdd4f84b	-0.103989206
199	0xbd6db78b	-0.05803637
200	0xbcb76d63	-0.022391027
201	0xbdaf5f42	-0.08563091
202	0xbda363d5	-0.07978026
203	0x3d815e42	0.063168064
204	0x3d0425d1	0.032262627
205	0xbcf162f7	-0.029466135
206	0x3dadb52e	0.08481823
207	0xbda67e37	-0.08129542
208	0x3dd28d16	0.10280816
209	0xbd7d4120	-0.061829686
210	0x3d41123b	0.047136527
211	0xbc7e8e11	-0.015536801
212	0x3d3b8d0a	0.045788802
213	0x3d8542e1	0.06506897
214	0xbd54c17e	-0.05194234
215	0x3dc981f8	0.09839243
216	0xbdb3af83	-0.087737106
217	0x3de34788	0.11097628
218	0xbd9bb671	-0.07603157
219	0xbdba2d92	-0.09090723
220	0x3cd9e423	0.026598042
221	0x3cf5afff	0.029991148
222	0x3c3351d7	0.010944805
223	0xbd98b23b	-0.0745587
224	0xbcb56cce	-0.022146609
225	0xbd407529	-0.046986733
226	0x3cd71f0b	0.02625992
227	0x3dbd1236	0.09231989
228	0xbd856bcf	-0.065147035
229	0x3de1118f	0.10989677
230	0xbd5e5849	-0.054283414
231	0xbcb7e4e1	-0.022448005
232	0xbdce89a5	-0.10084847
233	0x3d1ce210	0.038301528
234	0x3d9a44c1	0.07532645
235	0x3ddd123e	0.10794495
236	0x3d622e44	0.055219904
237	0xbbab6ba9	-0.00523134
238	0x3cc9b9b6	0.024624687
239	0x3cd2c355	0.025727907
240	0xbdf8c613	-0.12147155
241	0x3d444bef	0.04792398
242	0xbd872553	-0.06598916
243	0x3cae9f00	0.021316051
244	0x3cdf379c	0.027248196
245	0xbd8c4c87	-0.06850534
246	0x3ca6828f	0.020325927
247	0x3d3d85ef	0.046270307
248	0x3d1ddb67	0.038539317
249	0xbce0828c	-0.027406
250	0x3da69ad4	0.08135
251	0xbdee13e2	-0.11624886
252	0xbe09b5f7	-0.1344832
253	0x3d5a6fc2	0.053329237
254	0xbd6d10a5	-0.0578772
255	0xbde3d3a8	-0.111243546

bias f4 [40]
0	0x3dc9592b	0.098314606
1	0x3dc517ca	0.09623678
2	0x3cfe3b67	0.031034185
3	0xbd02cdd3	-0.03193457
4	0x3da42669	0.08015139
5	0xbd035a3e	-0.032068484
6	0x3e1adeba	0.15124026
7	0x3da14779	0.078749605
8	0xbca04e31	-0.019568535
9	0xbd8e5e11	-0.069515355
10	0xbda0ea05	-0.07857136
11	0x3d163853	0.03667481
12	0xbd7362f8	-0.059420556
13	0x3dba2218	0.09088534
14	0x3d7dcae6	0.061961077
15	0xbd54b8d2	-0.05193407
16	0x3dd3757a	0.10325141
17	0x3d8a30ec	0.06747612
18	0x3db2f651	0.087383874
19	0x3da20526	0.07911138
20	0x3d9b3676	0.07578747
21	0xbb0aa5bc	-0.0021155914
22	0xbdc3e2bd	-0.09564731
23	0x3db4457e	0.08802317
24	0xbdabc980	-0.083880424
25	0x3df65d98	0.1202957
26	0x3dc094f3	0.0940341
27	0x3dcdf4d2	0.100564614
28	0x3cc5bc86	0.024137747
29	0xbd35c305	-0.04437544
30	0xbd4a6a6c	-0.049417898
31	0x3dd80995	0.105487026
32	0x3dc6ecbb	0.097131215
33	0xbd1db4cd	-0.038502503
34	0x3d33dba7	0.04391065
35	0x3e039a4e	0.12851831
36	0xbcf5193a	-0.029919256
37	0x3d4046ff	0.046942707
38	0xbd6d76e3	-0.057974707
39	0xbd135804	-0.03597261

weight f4 [40, 80]
0	0xbd634fe5	-0.055496115
1	0xbd2405fa	-0.040044762
2	0xbcb09501	-0.021555426
3	0xbdf42162	-0.1192043
4	0xbd28e178	-0.04123065
5	0x3b95102f	0.0045490484
6	0xbcad0265	-0.021119306
7	0xbe3ddd64	-0.18541485
8	0x3d33a57f	0.043859
9	0x3d8fbff8	0.07019037
10	0xbdaadbbe	-0.08342694
11	0xbe16845e	-0.14698932
12	0xbe36b694	-0.17843086
13	0xbdb2f566	-0.08738212
14	0xbdd00807	-0.10157781
15	0xbda721f5	-0.08160774
16	0xbdf70ac8	-0.12062603
17	0xbdaa8275	-0.08325664
18	0xbd0bdc90	-0.03414589
19	0xbe018b08	-0.12650692
20	0xbdde9446	-0.10868125
21	0xbd7406be	-0.059576742
22	0xbe4c1d89	-0.19933142
23	0xbd608af6	-0.054820023
24	0xb9cbe748	-0.00038891495
25	0xbe23fbaa	-0.16013971
26	0xbdb79f4e	-0.08965932
27	0x3d2ca993	0.042153906
28	0xbe2b3dad	-0.16722746
29	0xbd71ff1c	-0.059081182
30	0xbd9396e3	-0.07206514
31	0xbd1a9fd3	-0.037750077
32	0xbd4ab1bf	-0.049485918
33	0xbc962966	-0.018330287
34	0x3d11ee92	0.03562791
35	0x3c62e4e3	0.013848516
36	0xbd1e54fa	-0.03865526
37	0x3be29276	0.006914432
38	0xbd312e79	-0.04325721
39	0xbe08f24d	-0.1337368
40	0xbda65d1a	-0.081232265
41	0xbdf69beb	-0.12041458
42	0x3d95e0ad	0.07318244
43	0x3d9a03b8	0.075202405
44	0x3d90bc4a	0.07067163
45	0x3ce0c628	0.027438238
46	0x3d601b2a	0.054713406
47	0x3d680e38	0.056654185
48	0xbaa53930	-0.0012605544
49	0x3a01da5c	0.00049534976
50	0x3d881ccd	0.06646118
51	0xbdff77fa	-0.124740556
52	0x3d90484a	0.07045038
53	0xbe057c9f	-0.1303582
54	0xbd565a10	-0.052331984
55	0xbe21f9df	-0.15817975
56	0xbdd1687c	-0.10225007
57	0xbe0500bf	-0.12988566
58	0xbcd9bc55	-0.026579062
59	0xbd99d2bc	-0.075108975
60	0x3c662538	0.01404696
61	0xbdbb5d9c	-0.09148714
62	0x3d379919	0.04482374
63	0xbd78f731	-0.060782615
64	0xbdc9131e	-0.098180994
65	0xbd07c5c8	-0.033147603
66	0xbe2931b9	-0.16522874
67	0x3d92caf8	0.071676195
68	0xbc7c8c6a	-0.015414337
69	0xbe0dcfca	-0.13848796
70	0xbd7ec77a	-0.062201954
71	0xbc92924d	-0.017892027
72	0x3cafc52f	0.02145633
73	0xbc861ed5	-0.016372124
74	0xbc810e48	-0.01575388
75	0xbc3e69d6	-0.011621913
76	0xbc3c535d	-0.011494485
77	0xbbc964b9	-0.0061460403
78	0x3d92fc3a	0.07177015
79	0xbcf89be5	-0.030347774
80	0xbe2d1bb7	-0.16905104
81	0xbda46bbd	-0.08028362
82	0x3d5f2c9a	0.054485895
83	0xbd9d491b	-0.076799594
84	0xbe0c4a7f	-0.13700293
85	0x3da50768	0.08058053
86	0xbca121a6	-0.019669365
87	0xbdb38a66	-0.08766632
88	0xbda82c5b	-0.08211585
89	0xbe11ccb5	-0.14238246
90	0x3c650663	0.0139785735
91	0xbd473ce5	-0.048642058
92	0xbae9dca8	-0.001784225
93	0xbd7dc6ee	-0.061957292
94	0xbe2c8e9c	-0.16851276
95	0xbd23ac47	-0.03995922
96	0xbdb6be38	-0.08923
97	0xbd5ef729	-0.05443493
98	0xbc570c0d	-0.013125432
99	0xbd288035	-0.041137893
100	0xbe31df3b	-0.17370312
101	0x3d237774	0.03990884
102	0xbe0aee39	-0.13567437
103	0xbe05593b	-0.1302232
104	0xbc4a0639	-0.012330585
105	0xbde8f0f6	-0.11374085
106	0xbdbd6731	-0.09248198
107	0xbd79a789	-0.06095079
108	0xbda4309a	-0.080170825
109	0xbe199e5a	-0.15001813
110	0xbc3f9dc9	-0.011695334
111	0xbdb6ba4c	-0.08922252
112	0x3d9fb07b	0.07797333
113	0x3da1b283	0.078953765
114	0x3d8649fd	0.06557081
115	0xbda566f0	-0.080762744
116	0xbc22b305	-0.009930377
117	0xbde04b6c	-0.109518856
118	0xbe16bfb6	-0.1472157
119	0xbe16e914	-0.1473735
120	0xbdd78002	-0.105224624
121	0x3c2fc3f6	0.010727873
122	0xbd848785	-0.06471161
123	0xb9aff417	-0.00033560462
124	0x3d6c5a61	0.05770338
125	0xbda69f91	-0.081359036
126	0xbd5dcc98	-0.054150194
127	0x3c8f1dba	0.01747023
128	0xbe239313	-0.15974073
129	0xbdaaff01	-0.083494194
130	0x3dba5e78	0.0910005
131	0x3cd6e099	0.026230143
132	0xbda6c141	-0.08142329
133	0xbdf40dd0	-0.11916697
134	0x3d84ade6	0.06478481
135	0xbe072841	-0.1319895
136	0xbd5f9d2b	-0.054593246
137	0x3d13808c	0.036011264
138	0x399b37fe	0.0002960562
139	0x3d8855d4	0.066569954
140	0x3c9544db	0.01822131
141	0x3d752b6a	0.059855856
142	0xbdcf8240	-0.10132265
143	0xbe3d7344	-0.18501002
144	0xbc407761	-0.011747212
145	0xbcd941b5	-0.02652059
146	0xbe319ad3	-0.17344217
147	0xbdd23652	-0.10264267
148	0xbc4c5dcc	-0.012473535
149	0x3c9a433b	0.018830886
150	0xbddcba9f	-0.10777783
151	0x3d7ceba9	0.06174818
152	0xbd7a17d3	-0.061057877
153	0xbd870582	-0.065928474
154	0xbdb1f7db	-0.08689853
155	0xbc0c3c93	-0.008559364
156	0xbc33b410	-0.010968223
157	0x3c571563	0.013127658
158	0xbd1aa31b	-0.037753206
159	0xbd5b3375	-0.05351587
160	0xbda57e29	-0.08080704
161	0x3d9564c3	0.072946094
162	0xbd46e2e4	-0.048556224
163	0x3d61159c	0.05495225
164	0xbd9002e4	-0.07031801
165	0x3d3aa70b	0.04556946
166	0x3d9e0bc5	0.077170886
167	0xbdd56814	-0.10420242
168	0x3deb82b7	0.11499541
169	0x3db003df	0.08594488
170	0xbe018d0b	-0.1265146
171	0xbe1778aa	-0.14792123
172	0xbe0a88db	-0.13528769
173	0x3d850e1b	0.06496831
174	0xbde70112	-0.11279501
175	0xbd338e0c	-0.04383664
176	0xbd332031	-0.043731872
177	0xbc53cb68	-0.012926914
178	0x3d99cc6b	0.07509693
179	0xbc7de5e2	-0.015496703
180	0xbe31083b	-0.17288296
181	0xbdd5b001	-0.10433961
182	0xbd223532	-0.039601512
183	0xbda18d50	-0.07888281
184	0x3db51335	0.08841554
185	0xbe2e5eaf	-0.17028306
186	0xbdad9ca0	-0.084771395
187	0xbdabd335	-0.08389894
188	0xbe1405dd	-0.14455362
189	0x3c6f07b6	0.014589241
190	0xbe33523a	-0.17511836
191	0xbd9058a1	-0.070481546
192	0x3d1ab89b	0.03777371
193	0xbd5b0f22	-0.05348123
194	0xbd0cce6b	-0.034376543
195	0xbe1ec18e	-0.15503523
196	0xbd9b41c8	-0.07580906
197	0xbe072b96	-0.1320022
198	0xbe0770fa	-0.13226691
199	0xbdb6e356	-0.0893008
200	0x3d1da77f	0.038489815
201	0xbc8863cc	-0.01664915
202	0xbde09ea1	-0.10967756
203	0xbe05502f	-0.13018869
204	0x3d8008aa	0.062516525
205	0xbe1ab6b2	-0.15108755
206	0x3d9f6c0b	0.077842794
207	0xbd103ce5	-0.035214324
208	0xbe0cf067	-0.13763581
209	0xbe2c75c2	-0.16841796
210	0x3ce68569	0.028139787
211	0x3d26bdaf	0.04070824
212	0x3cc8274a	0.024432797
213	0xbe273ab1	-0.16330983
214	0x3da9be30	0.082882285
215	0xbe0a8273	-0.13526325
216	0xbd17527b	-0.036943894
217	0xbdb57777	-0.08860677
218	0x3d741b56	0.059596382
219	0x3dd77880	0.105210304
220	0xbd83681e	-0.06416343
221	0xbd3941f3	-0.04522891
222	0x3d4b7acc	0.049677655
223	0x3a036661	0.0005012509
224	0xbd71c2bd	-0.059023608
225	0xbd65b435	-0.056080062
226	0xbbcf8898	-0.006333422
227	0x3da42c2e	0.08016239
228	0xbe318842	-0.17337134
229	0xbdd86c78	-0.10567564
230	0xbddecbe7	-0.10878735
231	0x3dabe1fe	0.08392714
232	0xbe345d97	-0.17613827
233	0xbd6f941d	-0.05849086
234	0xbe115fe8	-0.14196742
235	0x3dc109a9	0.09425671
236	0xbe115903	-0.14194112
237	0xbde9c48e	-0.11414443
238	0x3d1ba62d	0.038000274
239	0x3be59562	0.007006333
240	0xbda84db1	-0.082179435
241	0x3bc42a5f	0.0059864963
242	0x3c6a614e	0.014305426
243	0x3d543e9b	0.051817518
244	0xbc2bfa27	-0.010496653
245	0x3d0edc1b	0.034877878
246	0x3db04eb3	0.08608761
247	0xbe3472e2	-0.1762195
248	0x3dc62f8f	0.0967704
249	0x3d87b33a	0.06625982
250	0xbd2f9a3b	-0.042871695
251	0xbdc95665	-0.098309316
252	0xbe1e606a	-0.15466467
253	0x3c230986	0.009951001
254	0xbdc4875f	-0.095961325
255	0xbe351ce6	-0.17686805

bias f4 [40]
0	0xbc0a0876	-0.008424869
1	0xbd9a447a	-0.07532592
2	0xbe2180fd	-0.15771861
3	0xbe249273	-0.16071491
4	0xbdf9bd65	-0.12194327
5	0xbe3681b4	-0.17822915
6	0xbd1f7ee4	-0.03893937
7	0xbe400a39	-0.187539
8	0xbe09becd	-0.13451691
9	0xbe2202aa	-0.15821329
10	0xbd106882	-0.035255916
11	0xbb750e76	-0.0037392653
12	0xbe4b2fda	-0.19842473
13	0xbe182c3c	-0.14860624
14	0xbd3f6219	-0.046724413
15	0xbdcca78a	-0.09992893
16	0xbdb32910	-0.087480664
17	0xbe0fd809	-0.14047255
18	0xbe365484	-0.17805678
19	0xbda659fe	-0.081226334
20	0xbdc331fa	-0.09531017
21	0xbe4cdbed	-0.2000577
22	0xbe550702	-0.20803455
23	0xbdbe96ff	-0.09306144
24	0xbc119381	-0.008885265
25	0xbde466da	-0.1115243
26	0xbcb11fab	-0.021621546
27	0xbe371362	-0.17878488
28	0xbdc1caeb	-0.09462532
29	0xbe3c6be9	-0.1840054
30	0x3b0c2b8b	0.0021388258
31	0xbd398572	-0.04529328
32	0xbb590bd4	-0.0033118622
33	0xbe46d476	-0.19416985
34	0xbda498ba	-0.08036943
35	0xbdac4464	-0.08411482
36	0xbd418c7f	-0.04725313
37	0xbe438937	-0.19095312
38	0xbd98bb40	-0.0745759
39	0xbe1ccf3a	-0.15313426

weight f4 [80, 40]
0	0x3d59c0fb	0.053162556
1	0xbd6eb435	-0.058277328
2	0xbdcb727b	-0.09933945
3	0xbd7dca60	-0.061960578
4	0xbda56a1a	-0.08076878
5	0x3d5c3edc	0.053770885
6	0x3df94611	0.12171567
7	0xbd29095f	-0.041268703
8	0xbbb871aa	-0.005628784
9	0x3c1838cf	0.009290888
10	0xbd66929e	-0.05629217
11	0xbc6f322e	-0.014599366
12	0x3e02c887	0.12771808
13	0xbdd6e78b	-0.10493382
14	0xbc98373c	-0.018581025
15	0xbd1dc346	-0.038516305
16	0x3de768e7	0.112993054
17	0xbe228d5c	-0.15874237
18	0xbdaabe53	-0.08337083
19	0x3b1d4b08	0.002400102
20	0x3d7ddf7e	0.061980717
21	0x3e1f2e76	0.15545067
22	0x3d784fe6	0.060623072
23	0xbd8573eb	-0.0651625
24	0x3d9fbbb3	0.07799473
25	0xbc625dbc	-0.013816293
26	0x3e416da3	0.1888948
27	0xbd112c24	-0.035442486
28	0x3de5504a	0.111969545
29	0x3ddada98	0.10686225
30	0x3d5c4b10	0.053782523
31	0x3cf3593a	0.029705632
32	0x3cd8c6e4	0.026462026
33	0x3d182798	0.037147135
34	0xbdb1ffac	-0.08691344
35	0x3a157c6c	0.0005702439
36	0xbd6e1389	-0.0581241
37	0x3d40fd4a	0.047116555
38	0xbd20ba46	-0.039240144
39	0x3d83ad91	0.064295895
40	0x3dc57fda	0.096435264
41	0x39ba140e	0.00035491626
42	0xbdf94896	-0.12172048
43	0x3b13412f	0.0022469272
44	0xbc7e6d84	-0.01552904
45	0xbc8dcb8e	-0.017308977
46	0xbd421180	-0.04737997
47	0x3cadba4e	0.021207001
48	0x3d525928	0.051354557
49	0x3d6c5fbf	0.057708498
50	0x3e0fdce1	0.14049102
51	0x3d816375	0.06317798
52	0x3d1a8cf4	0.03773208
53	0x3de038ba	0.1094832
54	0x3c9201e7	0.017823173
55	0x3d2e294b	0.04251985
56	0x3dba8731	0.09107817
57	0xbe138b30	-0.14408565
58	0x3d1f0a6a	0.03882829
59	0x3d743c2c	0.059627697
60	0xbd9742b7	-0.07385772
61	0x3d525958	0.051354736
62	0xbdea2f52	-0.11434807
63	0xbc116d06	-0.008876091
64	0x3c1405fd	0.009034631
65	0xbdba6a64	-0.09102324
66	0x3d849403	0.064735435
67	0x3c55077b	0.013002272
68	0xbd96307f	-0.07333469
69	0x3d532749	0.051551137
70	0xbd78e7e0	-0.06076801
71	0xbd31afca	-0.043380536
72	0xbde38fba	-0.11111398
73	0xbd52b7c4	-0.051444784
74	0xbdb6a6de	-0.08918546
75	0xbd4712a1	-0.04860175
76	0x3d765e07	0.060148265
77	0x3dddba1c	0.10826513
78	0x3d3599f9	0.044336293
79	0xbc403565	-0.01173148
80	0x3da43c46	0.08019309
81	0x3cb51a89	0.02210738
82	0xbd719487	-0.058979537
83	0x3debdc82	0.11516668
84	0xbdcf3615	-0.10117737
85	0x3df7b176	0.12094395
86	0xbe06dd32	-0.13170317
87	0xbdba6a66	-0.09102325
88	0x3df71fe9	0.12066633
89	0xbd782dd7	-0.06059059
90	0x3dbe0e4e	0.09280072
91	0xbd87727c	-0.06613633
92	0x3deaedb8	0.114711225
93	0x3dc9dcc2	0.09856559
94	0xbcde24d8	-0.027117178
95	0xbc676bf3	-0.014124858
96	0x3db3e325	0.08783559
97	0x3ddb73ba	0.107154325
98	0x3d922cb1	0.071374305
99	0x3da92b98	0.08260268
100	0xbde8e70b	-0.11372193
101	0xbe00b996	-0.12570795
102	0xbdbab27e	-0.09116076
103	0x3e056c59	0.13029613
104	0x3e0b7b9d	0.13621373
105	0x3d40792b	0.046990555
106	0x3d0f6d8f	0.035016593
107	0xbcffcf2c	-0.031226717
108	0x3ded4514	0.11585441
109	0xbdaed98b	-0.08537587
110	0xbe0a6765	-0.13516004
111	0xbe182683	-0.14858441
112	0xbce74280	-0.028229952
113	0x3d05b097	0.032639112
114	0xbd9e8aa3	-0.077412866
115	0xbc2aea7d	-0.010431883
116	0xbe01a3c6	-0.12660131
117	0x3b8b77a2	0.0042562047
118	0x3d720c64	0.059093848
119	0xbe32111a	-0.17389336
120	0x3dc13c14	0.09435287
121	0xbda204fe	-0.079111084
122	0x3d2c9b32	0.042140193
123	0x3e1c607c	0.15271181
124	0x3db4260d	0.0879632
125	0x3d332942	0.04374052
126	0xbdb5cb04	-0.08876613
127	0x3dc1ec3a	0.09468885
128	0xbc9bac44	-0.019003041
129	0x3da53bb3	0.08068027
130	0x3ac76f26	0.001521562
131	0xbd15a8c7	-0.03653791
132	0x3d840a3f	0.06447267
133	0xbd6f3106	-0.05839636
134	0x3dc93e95	0.0982639
135	0x3db156e2	0.0865915
136	0xbe03dcbe	-0.12877175
137	0xbc9f4ebd	-0.019446725
138	0x3db8421f	0.089969866
139	0xbdd8334a	-0.105566576
140	0xbd2c55dc	-0.04207407
141	0xbc61ed43	-0.013789478
142	0xbc83f129	-0.016106205
143	0x3e0b108b	0.1358053
144	0x3da2a5b4	0.079417616
145	0x3d6a3fe7	0.05718985
146	0x3e05eb3b	0.13078015
147	0xbe11ceb2	-0.14239004
148	0xbccfadc1	-0.025351407
149	0xbb2aadc5	-0.0026043516
150	0xbe12cd15	-0.14336045
151	0x3e17ab04	0.14811331
152	0xbdfa12c6	-0.12210612
153	0x3d1cd754	0.03829129
154	0xbcfaac5f	-0.030599771
155	0x3e038a5f	0.12845753
156	0xbd86d1c2	-0.06582977
157	0x3d77e1c4	0.06051804
158	0x3e274db6	0.16338238
159	0xbe0b3bb4	-0.13596994
160	0x3dc58313	0.09644141
161	0x3d65fdbf	0.056150194
162	0x3d8a46b3	0.06751766
163	0x3d873003	0.066009544
164	0xbded4772	-0.11585893
165	0xbe0f8480	-0.14015388
166	0xbd8699af	-0.065722816
167	0xbd7c5912	-0.06160838
168	0xbd5cd431	-0.0539133
169	0xbcf3f9e2	-0.02978224
170	0xbde2b403	-0.11069491
171	0x3d964790	0.07337868
172	0x3ae6998b	0.0017593367
173	0xbd919db3	-0.07110157
174	0x3d21a65b	0.03946529
175	0xbdbeed69	-0.09322626
176	0x3dbeb5c7	0.09312015
177	0xbd2208e1	-0.03955925
178	0xbde72e66	-0.11288147
179	0xbdc1e3f6	-0.09467308
180	0xbd9a16dc	-0.07523891
181	0xbdf860bf	-0.12127828
182	0x3b56f9a1	0.00328026
183	0x3d3046e6	0.043036364
184	0x3dca2e81	0.09872151
185	0x3cd0c4b2	0.025484417
186	0xbdcbeac0	-0.099568844
187	0xbca70ad1	-0.0203909
188	0x3e10c051	0.14135863
189	0x3e0abc72	0.13548449
190	0x3d4112cd	0.04713707
191	0x3d29f14e	0.04148989
192	0x3df12866	0.117752835
193	0xbdaab214	-0.08334747
194	0xbde34456	-0.110970184
195	0xbc73de10	-0.014884487
196	0x3d7af214	0.06126602
197	0x3d0b83c9	0.034061227
198	0x3db61585	0.08890823
199	0xbdc42666	-0.095776364
200	0xbdbf6f78	-0.09347433
201	0xbdc694ca	-0.09696348
202	0x3e022ff9	0.12713613
203	0x3d46f6da	0.04857526
204	0xbcfa6cda	-0.030569483
205	0x3da770e1	0.08175827
206	0xbe0f397d	-0.13986774
207	0xbe030c87	-0.12797748
208	0xbd9a19de	-0.07524465
209	0xbd9a6f43	-0.07540753
210	0x3e2c23eb	0.16810577
211	0x3d2018da	0.0390862
212	0x3dd2a376	0.10285084
213	0xbd9f149c	-0.07767603
214	0xbdc6b784	-0.097029716
215	0xbddaa1c6	-0.10675387
216	0xbde4d212	-0.1117288
217	0x3d4cb956	0.049981438
218	0x3db8d425	0.09024838
219	0xbd5620d0	-0.052277386
220	0xbe102181	-0.1407528
221	0x3df83350	0.12119162
222	0xbda194d4	-0.07889715
223	0xbdc0c83f	-0.09413194
224	0xbe0b475b	-0.13601439
225	0xbe13713d	-0.14398666
226	0xbe0e7837	-0.13913046
227	0xbcc8229c	-0.024430566
228	0x3d850c0d	0.06496439
229	0x3cbcec59	0.023061918
230	0xbdc5128e	-0.0962268
231	0x3e07fc65	0.13279875
232	0x3e0c3e6f	0.13695692
233	0x39c9e03c	0.00038504775
234	0x3ddc81bd	0.10766933
235	0x3c0eeda5	0.008723651
236	0x3e086599	0.13320006
237	0x3d833f40	0.06408548
238	0xbd1fc2a5	-0.039003987
239	0xbd39e363	-0.04538287
240	0xbd02680a	-0.0318375
241	0xbd97073b	-0.07374426
242	0x3c87f97c	0.016598456
243	0xbd9473ce	-0.072486505
244	0x3dde603a	0.108581975
245	0xbd570667	-0.05249634
246	0x3c97f0f4	0.018547513
247	0x3d126f3b	0.03575061
248	0x3e06abdb	0.13151495
249	0xbe019bbe	-0.12657067
250	0xbc962402	-0.018327717
251	0x3de321c7	0.11090427
252	0x3da8a24f	0.08234083
253	0xbd08f8e5	-0.03344049
254	0x3e11f586	0.14253816
255	0xbde7e5ba	-0.11323114

bias f4 [80]
0	0xbd17b404	-0.03703691
1	0x3ddfc78f	0.10926735
2	0xbd9dea8d	-0.07710753
3	0xbdf57463	-0.1198509
4	0x3d248d41	0.040173773
5	0xbdbbb404	-0.09165195
6	0xbe2056b7	-0.15658079
7	0xbdb53e8b	-0.0884982
8	0xbc822ef9	-0.015891539
9	0xbd76c72d	-0.060248543
10	0xbe131136	-0.14362034
11	0xbce28b39	-0.027654277
12	0xbd2f5976	-0.042809926
13	0x3da22c34	0.07918587
14	0xbc3bad5f	-0.011454909
15	0x3d8f6b5f	0.07002901
16	0x3de2e430	0.110786796
17	0x3e15b41c	0.14619488
18	0x3dd24376	0.102667734
19	0x3d9aa162	0.075503126
20	0x3dc2c075	0.095093645
21	0xbdd487a7	-0.10377436
22	0x3e0721fc	0.13196558
23	0x3d8515c8	0.06498295
24	0x3d231c5d	0.03982197
25	0xbd4d03d8	-0.050052494
26	0xbded89dd	-0.11598561
27	0xbdfbb390	-0.12290108
28	0x3b62937b	0.0034572768
29	0xbe488a3b	-0.1958398
30	0x3e0dbcef	0.13841604
31	0xbdbf06ed	-0.09327493
32	0xbd53892d	-0.051644493
33	0x3da68c8b	0.08132275
34	0x3dbc6427	0.0919879
35	0x3dca55dc	0.098796576
36	0xbde542ba	-0.11194368
37	0xbde8223e	-0.11334656
38	0xbdac64b7	-0.08417647
39	0x3d6823ce	0.05667477
40	0x3df1a404	0.117988616
41	0xbc798ba4	-0.015231047
42	0x3dab6533	0.083689116
43	0xbdaf3025	-0.08554105
44	0x3d9c75b5	0.07639638
45	0xbd8e7d92	-0.069575444
46	0x3da4e8d1	0.08052219
47	0x3d29d515	0.041462976
48	0x3dccfa68	0.10008699
49	0xbe05f477	-0.13081537
50	0xbe207ce0	-0.15672636
51	0x3dc4936e	0.095984325
52	0xbdfe72c8	-0.124242365
53	0x3dbfa7e4	0.093581945
54	0x3e000b93	0.12504415
55	0xbda12a6a	-0.07869418
56	0x3df0b15d	0.11752579
57	0x3e0ce76f	0.1376016
58	0xbe11a269	-0.14222111
59	0x3ddbae7e	0.10726641
60	0xbd691107	-0.056901004
61	0x3d2e02ac	0.042483017
62	0xbe329f11	-0.17443492
63	0xbd92ef8f	-0.071745984
64	0x3d3d4464	0.0462078
65	0xbd17973d	-0.037009466
66	0xbe203dc6	-0.15648565
67	0xbe035e28	-0.12828887
68	0xbe09137d	-0.1338634
69	0x3de836f2	0.11338605
70	0x3dd62e11	0.10458005
71	0x3cfd4d46	0.030920636
72	0xbb30990e	-0.0026946696
73	0xbe015b4f	-0.12632488
74	0xbe38c3af	-0.18043397
75	0x3c635f4a	0.013877699
76	0x3dbba92d	0.09163127
77	0xbe1b29af	-0.1515262
78	0xbd8f0f82	-0.0698538
79	0x3e07c9ab	0.13260524

weight f4 [5, 80]
0	0xbd2ca3ee	-0.042148523
1	0xbb1084a3	-0.0022051714
2	0x3d0bca2c	0.034128353
3	0x3c86485a	0.016391922
4	0x3c3f7072	0.011684524
5	0x3d9f27f9	0.07771296
6	0xbd2af8fe	-0.041741364
7	0x3d60d4a2	0.054890282
8	0x3ca4c8be	0.020115253
9	0x3d30a249	0.043123517
10	0x3d262171	0.040559236
11	0x3cee00a2	0.029053036
12	0x3d40a3fa	0.04703138
13	0x3d4197f5	0.04726406
14	0x3bac1566	0.0052515743
15	0x3d3a580c	0.045494124
16	0xbd87c65a	-0.066296294
17	0xbc72ace2	-0.014811726
18	0xbd1cd3ef	-0.038288053
19	0x3aa5a768	0.0012638392
20	0x3d7b00c2	0.06128002
21	0x3d120a06	0.03565409
22	0x3c6a60ab	0.014305274
23	0x3da9b6f1	0.082868464
24	0x3d651db2	0.055936523
25	0xbd03aabc	-0.032145247
26	0xbd4689f8	-0.04847142
27	0xbd1d9821	-0.03847516
28	0x3b1c061e	0.0023807357
29	0xbd0e07a1	-0.034675244
30	0xbd759f80	-0.059966564
31	0x3d42296d	0.047402788
32	0xbce594e5	-0.0280251
33	0x3d2b41d0	0.04181081
34	0x3d31b208	0.043382674
35	0xbd6168a1	-0.055031423
36	0xbd977412	-0.073951855
37	0x3d28a790	0.041175425
38	0xbd37c75c	-0.04486786
39	0xbd463968	-0.04839459
40	0x3ceb1234	0.028695203
41	0x3d62cf32	0.055373378
42	0x3c01b5f6	0.007916918
43	0xbd5a5b23	-0.05330957
44	0x3b3c2deb	0.0028713893
45	0xbd30c5a2	-0.043157227
46	0xbd110edf	-0.035414573
47	0x3ce7595f	0.028240858
48	0x3d689d9a	0.056790926
49	0x3bd7a410	0.006580837
50	0xbd44d19d	-0.048051465
51	0x3cd7c4a4	0.026338883
52	0x3ce53bcd	0.027982617
53	0x3d05ca01	0.03266335
54	0x3bbc52c0	0.0057471693
55	0xbd457dd1	-0.04821569
56	0x3c636e72	0.013881313
57	0xbd04cfb8	-0.03242466
58	0xbd66d707	-0.05635741
59	0xbd02c984	-0.03193046
60	0xbd765bce	-0.060146146
61	0x3d16ec79	0.03684661
62	0x3c073758	0.008252941
63	0xbd523c71	-0.051327173
64	0xbce946e8	-0.028476194
65	0x3d004ea5	0.031325
66	0xbd382128	-0.044953495
67	0xbdafc278	-0.08582014
68	0x3b900c49	0.0043959958
69	0x3d3508da	0.044197895
70	0xbcb7d5b8	-0.022440776
71	0x3ca14cdf	0.019689975
72	0xbc579542	-0.013158144
73	0xbaa7f420	-0.0012813844
74	0xbd3ea3cf	-0.04654294
75	0x3d818fd2	0.0632626
76	0xbd321987	-0.043481376
77	0x3c0b79cd	0.008512926
78	0x3d022dd8	0.031782
79	0xbc820c5a	-0.01587503
80	0xbce5806b	-0.028015336
81	0xbd20df97	-0.039275732
82	0xbd014444	-0.031559244
83	0x3ae37aa6	0.0017355278
84	0xbceb5366	-0.02872629
85	0xbd219bfe	-0.039455406
86	0x3cf8dd18	0.030378863
87	0xbd318675	-0.04334112
88	0x3ca55a3a	0.020184625
89	0xbd6c27ac	-0.05765502
90	0x3d726f38	0.059188098
91	0x3d4eb9e6	0.050470255
92	0xbd4056d8	-0.04695782
93	0xbaac95af	-0.0013167168
94	0x3d71eac2	0.059061773
95	0x3d53dcf1	0.051724378
96	0xbd7ac111	-0.06121928
97	0x3cab0571	0.020876618
98	0xbaba9062	-0.0014233703
99	0x395826bf	0.000206138
100	0x3d8cba54	0.06871477
101	0x3cd5a991	0.026081832
102	0xbcc1c39b	-0.023652842
103	0x3ca217bc	0.019786708
104	0x3c8efed0	0.017455488
105	0x39d90806	0.00041395443
106	0x3cbb1320	0.022836268
107	0xbc3c05f8	-0.011476032
108	0xbd4d55e4	-0.05013074
109	0x3d1c8712	0.03821475
110	0x3c2c6e37	0.010524324
111	0xbd5fa025	-0.054596085
112	0x3c90b3ee	0.017663922
113	0x3b05919e	0.0020380984
114	0xbd2b0d5d	-0.04176079
115	0xbb8c9211	-0.0042898734
116	0x3d82fbd6	0.0639569
117	0xbc0414cf	-0.008061602
118	0xbd10060d	-0.03516202
119	0xbcde11a7	-0.027108027
120	0x3d5f5b9f	0.054530736
121	0xba8e4cc9	-0.0010856624
122	0xbc8279c9	-0.015927212
123	0xbc64d7e0	-0.013967484
124	0x3cb9c6eb	0.02267786
125	0x3cd841fe	0.026398655
126	0x3d839561	0.06424976
127	0x3c713ae7	0.014723516
128	0x3cfd0f89	0.030891197
129	0xbd2b4435	-0.041813094
130	0x3cc04d18	0.023474261
131	0xbc08df5e	-0.008354036
132	0x3d0c4872	0.034248777
133	0xbd41e8eb	-0.04734127
134	0x3cbf905b	0.023384264
135	0x3d6e45ea	0.058172144
136	0x3c24d7be	0.010061203
137	0x3bb62861	0.0055590128
138	0xbccf272c	-0.025287233
139	0xbd2c35ff	-0.042043682
140	0x3c05262e	0.0081267785
141	0x3cbb1d7d	0.02284121
142	0x3c390067	0.0112916
143	0xbccbcb1d	-0.024877125
144	0xba3428cc	-0.0006872534
145	0x3a28e758	0.00064431643
146	0xbcb89a06	-0.022534382
147	0x3d03af07	0.03214934
148	0x3cdf55ad	0.027262533
149	0xbd6fa058	-0.058502525
150	0xbd0c577b	-0.034263115
151	0xbcb46c99	-0.02202444
152	0x3d8c9ef6	0.06866257
153	0x3ce1007c	0.027466051
154	0x3d1fed8f	0.039044913
155	0xbc6908ba	-0.014223272
156	0xbd27feff	-0.041014668
157	0x3d49ce32	0.04926891
158	0xbcc114e2	-0.023569528
159	0xbd5093a8	-0.050922066
160	0x3b719641	0.003686324
161	0x3d48a83a	0.04898856
162	0xbce89542	-0.028391484
163	0xbd748e81	-0.059706215
164	0xbd46187e	-0.0483632
165	0x3d9b4736	0.07581942
166	0xbd108adf	-0.035288688
167	0xbd0f4b61	-0.034983996
168	0xbd1a8497	-0.037724104
169	0x39795bd2	0.00023780696
170	0xbbba8d8a	-0.0056931423
171	0xbcdc61cb	-0.0269021
172	0xbda3d52d	-0.079996444
173	0x3965436e	0.00021864261
174	0xbd8e52ed	-0.069494106
175	0xbc3836d1	-0.011243538
176	0xbd76d411	-0.060260836
177	0x3d6d6e90	0.05796677
178	0xbac6764d	-0.0015141458
179	0xbc2b99d6	-0.010473689
180	0xbd5c7ee6	-0.053831957
181	0xbcda0ac2	-0.026616458
182	0xbc9ee940	-0.019398332
183	0x3cdaef66	0.026725482
184	0x3d407ad3	0.046992134
185	0x3da79f57	0.081846885
186	0x3d3c49b9	0.045968745
187	0x3bd1f659	0.0064075408
188	0x3d4e43f1	0.050357763
189	0xbb98489e	-0.0046473285
190	0xbd825114	-0.06363121
191	0x3caf6715	0.021411458
192	0x3d3019ac	0.042993233
193	0x3c0381c8	0.008026548
194	0x3c00d7bd	0.007863936
195	0x39fa06ef	0.00047688882
196	0xbca30baa	-0.019903023
197	0xbd602251	-0.054720227
198	0x3d36f95c	0.0446714
199	0x3cd5c271	0.026093693
200	0xbd47b163	-0.048753154
201	0xbc43615b	-0.011925067
202	0x3cba9ec6	0.022780787
203	0xbd8fe45b	-0.07025977
204	0xbd11a36f	-0.035556253
205	0x3d8b77b3	0.0680994
206	0xbcc982c3	-0.024598485
207	0xbd473ce1	-0.048642043
208	0x3b955ce5	0.004558193
209	0x3d29e808	0.041481048
210	0x3cb577b4	0.022151805
211	0x3d62d6e4	0.055380717
212	0x3d56f5fc	0.052480683
213	0xbc7778d4	-0.015104491
214	0x3d239c07	0.03994372
215	0xbd59edb9	-0.053205226
216	0xbd229398	-0.039691538
217	0xbd268c1f	-0.040660974
218	0x3ce104a5	0.027468035
219	0x3c3eb81d	0.011640576
220	0xbad38a15	-0.0016139174
221	0xbc87f6ea	-0.01659723
222	0xbd883d91	-0.06652368
223	0x3c172b0d	0.009226573
224	0xbd61877a	-0.05506084
225	0xbcc128cc	-0.023579024
226	0x3d032a46	0.032022737
227	0xbda6da34	-0.08147088
228	0xbbda2889	-0.006657664
229	0xbc857429	-0.016290741
230	0x3cad415b	0.021149328
231	0xbd4f57ee	-0.050620966
232	0x3d80ba17	0.06285494
233	0xbd32ac5e	-0.043621413
234	0x3afe132c	0.0019384376
235	0xbd6c1136	-0.0576336
236	0xbbf9bf82	-0.0076217065
237	0x3dab6b43	0.08370068
238	0xbd549ce3	-0.05190743
239	0xbd93f1f3	-0.072238825
240	0xbd0ac007	-0.033874538
241	0xbb64b277	-0.0034896412
242	0xbd40e92c	-0.04709737
243	0x3c357802	0.011075975
244	0xbcf8463e	-0.030306932
245	0x3d1bdbd5	0.038051445
246	0xb99c3d2f	-0.00029800224
247	0xbca0bfef	-0.019622771
248	0x3ccb659a	0.02482872
249	0x3d25ce78	0.040480107
250	0x3b780677	0.003784565
251	0xbbd02faf	-0.0063533406
252	0xbd941fa8	-0.072326005
253	0xbcf3bdc0	-0.029753566
254	0xba4c9f94	-0.00078057614
255	0x3d4f35b6	0.050588332

bias f4 [5]
0	0xbc875b06	-0.016522896
1	0x3c950ac8	0.018193617
2	0x3da86369	0.08222086
3	0x3d0aa71c	0.033850774
4	0x3d3a9324	0.04555048
